p1_navigation/checkpoint_DQN_2019_01_26_06h16m35s.pth (torch_old, 85106 bytes, 18 tensors)

hidden_layers.0.weight f4 [64, 37]
000000 92 ec f5 bd 56 e4 eb 3d bf 16 30 be 6d 2f f6 3d
       -0.12008013 0.11518161 -0.17196177 0.120207645
000010 47 16 12 3e 48 06 97 3d c1 52 2f bd b7 e9 13 3e
       0.1426631 0.07374245 -0.04280353 0.14444624
000020 2b 9d aa 3d fc f5 9d 3d c0 d9 14 be 51 03 0c 3e
       0.08330759 0.077129334 -0.1453619 0.1367314
000030 84 17 d0 bd 6f 57 33 3d 32 72 a5 3c b8 11 ac 3d
       -0.10160735 0.043784555 0.020196054 0.08401817
000040 06 60 d2 bd 0c 1d 07 3e 8b e9 78 bd c1 15 a5 3d
       -0.10272221 0.13194674 -0.0607696 0.0806079
000050 77 1c 95 3d 9f 66 07 bd 1d 5d 02 bd 86 72 4b bc
       0.0728082 -0.03305685 -0.03182708 -0.012417441
000060 0d 2a a1 3d 03 d6 e2 3d 78 41 47 bd 08 45 e0 bd
       0.07869349 0.11075976 -0.04864642 -0.10950667
000070 85 bf e2 bd 60 42 a0 bb 12 26 9a 3c 54 d5 79 bd
       -0.11071686 -0.004890725 0.018816981 -0.06099446
000080 a4 0a 06 be 71 d4 be bd 98 09 26 3c 8b 2e 0a 3e
       -0.13089997 -0.09317864 0.010134123 0.13494317
000090 b0 15 5e 3d 34 b2 b2 3d 55 10 47 bd 50 b5 12 be
       0.0542199 0.08725396 -0.04859956 -0.14326978
0000a0 70 db 07 3e 82 2e ca 3d 7a 12 c1 3d c0 d3 6b 3d
       0.13267303 0.09872152 0.09427352 0.057574987
0000b0 2d d3 1b be 99 f4 8d 3d e3 16 18 3d fd 97 c0 bd
       -0.15217276 0.06931419 0.0371312 -0.094039895
0000c0 f0 2f 05 be b9 d2 0f be 22 c5 24 bd 88 d9 07 be
       -0.13006568 -0.14045228 -0.040227063 -0.13266575
0000d0 17 c2 1d be b1 78 92 3d f2 64 c4 bc 11 3c 04 be
       -0.1540607 0.07151926 -0.023973916 -0.12913539
0000e0 52 da d6 3d c3 1a e7 bc 8c 12 3d be d6 42 ad ba
       0.1049086 -0.028211003 -0.18464106 -0.0013218771
0000f0 cf 12 15 be 57 0b 93 3d 7b 8f 29 bd cc 4e 3f bd
       -0.14557956 0.07179897 -0.0413966 -0.046706006
000100 0b 39 75 3d 8a b2 8e 3d 33 c3 03 3e 51 00 68 3d
       0.059868854 0.069676474 0.12867431 0.056640927
000110 46 d6 27 bc 96 7c 80 3c 83 71 fc 3c 7d 99 3e be
       -0.010243958 0.015684407 0.030815845 -0.18613239
000120 53 9b d8 bd 8e ba 36 3d a3 28 2c be 00 00 c5 bd
       -0.10576501 0.044611506 -0.16812377 -0.096191406
000130 21 8c 84 3d 9d f4 ec bb b4 22 2e be 19 e0 b1 3d
       0.0647204 -0.0072313086 -0.17005426 0.08685321
000140 01 f1 aa 3d 1f fd bc bd d9 23 1e 3d b0 fd 0b 3e
       0.08346749 -0.092279665 0.038608406 0.13670993
000150 6f 34 c6 3d 51 5f 60 3c 4e 19 27 be f6 0b 44 bd
       0.0967797 0.0136946 -0.16318247 -0.04786297
000160 93 24 c0 3c 46 2f 33 bd 74 fd 37 be 69 81 bb 3c
       0.02345494 -0.043746255 -0.17967778 0.022888856
000170 c5 ad 29 be a0 d8 05 be 11 81 9b bc cb e6 12 3d
       -0.16570194 -0.13070917 -0.018982442 0.035864633
000180 ca 1e 94 3d ce 22 8a 3d 52 ce 73 bc af 92 46 3d
       0.07232435 0.0674492 -0.014880734 0.048479732
000190 33 b8 23 bd 68 3a a6 3d 67 4d d9 3c 51 6e 80 bd
       -0.039970588 0.08116609 0.026526166 -0.06271041
0001a0 86 88 5d 3c e2 31 c4 3d b1 d8 f8 bd 77 d1 b0 bd
       0.013521319 0.09579827 -0.121507056 -0.08633702
0001b0 9a d0 c6 3d 2d 41 80 3c 4a f1 de bd 5c 6f ac bd
       0.09707756 0.015656078 -0.10885866 -0.084196776
0001c0 cf 6a 09 3e 28 63 95 3d f2 84 33 bd 22 b7 e5 3d
       0.1341965 0.07294303 -0.04382796 0.112165704
0001d0 ce 4e 0c be f5 90 82 3d 93 f5 dc 3d f1 fb 9c bc
       -0.13701937 0.063753046 0.10789027 -0.019163104
0001e0 64 90 e9 bd f2 87 cd 3c bc a3 ce 3c 2d 53 08 be
       -0.114044935 0.025089238 0.025224559 -0.13312979
0001f0 9f dc b2 3d 6c a2 47 bd 98 92 fe bd c8 00 cc 3d
       0.087334864 -0.048738882 -0.12430304 0.099610865
000200 c7 4f 85 bd 63 51 2c 3d 7d b4 f0 3d 2b 34 09 bb
       -0.06509357 0.042069804 0.117531754 -0.0020935636
000210 36 1e a6 bd 52 df f2 bd aa 4b 07 3d 38 44 43 be
       -0.08111231 -0.11859001 0.033031143 -0.19068992
000220 f7 83 83 bd 10 dd aa bc 11 49 00 be 51 9b 13 be
       -0.06421655 -0.020857364 -0.12527873 -0.14414717
000230 28 67 d0 bd ae 89 02 be e1 cb aa 3d a8 b5 4c 3d
       -0.101759255 -0.12747833 0.08339668 0.04997793
000240 17 c3 03 3e f8 e7 b6 3b 04 0a aa bc 9d 95 39 bd
       0.1286739 0.005581852 -0.020756729 -0.045308698
000250 95 2b bf bd b9 f8 8f bc 3a b5 1b 3e 00 f6 c1 3d
       -0.093344845 -0.017574655 0.15205851 0.09470749
000260 92 8a da bd 02 22 34 3d e5 8a ec bc fb 81 13 be
       -0.106709614 0.043977745 -0.028874824 -0.14405052
000270 4a ab 8d bd 12 bf 23 be ef 83 0b 3e 65 7a a8 3d
       -0.069174364 -0.15990856 0.13624547 0.0822647
000280 ee 44 09 3d 6e 89 72 bd 9c 90 13 3e 9b ee 2e 3e
       0.033513002 -0.059213094 0.14410633 0.17083208
000290 b2 c3 26 3c 46 7d 05 3d 7c e7 dd 3d 4c bf 85 bd
       0.010178493 0.032590173 0.10835168 -0.065306276
0002a0 80 2f 10 bd 52 59 5c bd ca 8c ed bd 2b a8 1f 3e
       -0.03520155 -0.05379612 -0.11599119 0.15591495
0002b0 f1 b8 c3 3d af 91 cf bc bd 73 8d 3d 01 f3 d1 bd
       0.09556759 -0.025338022 0.06906841 -0.102514274
0002c0 bb b6 7f bd c9 62 fc 3d ef 29 ec bd c6 fd d5 3c
       -0.062430125 0.12323529 -0.11531436 0.026121985
0002d0 33 10 16 3d 65 28 cd 3d 26 93 54 bd 66 52 be bd
       0.036636543 0.1001747 -0.051898144 -0.0929306
0002e0 b4 73 95 bd 28 8a a1 bd 17 e1 de 3d 6d b1 a9 3d
       -0.07297459 -0.07887679 0.10882776 0.082857944
0002f0 05 76 17 be a6 37 4c bc a6 19 e1 3d ad 05 1b be
       -0.14791115 -0.0124644395 0.1099122 -0.15138884
000300 0e d0 12 bd ef 83 19 be f4 60 ba 3d 05 c8 f6 bd
       -0.035842948 -0.14991735 0.091005236 -0.120498694
000310 66 0c 36 be 9e a5 32 3d 42 d2 02 be f1 ac 3f 3d
       -0.17778167 0.043614976 -0.1277552 0.04679579
000320 66 c3 f4 bc 84 69 22 3d 2d bc dd 3d 3a c3 1b bd
       -0.02987833 0.03965141 0.10826907 -0.03802798
000330 a8 ee bc bc 6e cc a6 3d 28 0d be bd ff a3 40 3a
       -0.023063019 0.081444606 -0.09279853 0.0007348656
000340 ae b4 fe 3d 8b ab 0c be d6 55 0f 3e f7 85 de bd
       0.12436806 -0.13737313 0.13997588 -0.108653955
000350 e4 95 08 3e 65 aa c4 bc db 03 d2 3d aa 00 64 3c
       0.13338429 -0.024007032 0.102546416 0.013916174
000360 3a 41 22 be 10 45 4b bd 5a b1 d8 bd e6 dc 82 bd
       -0.15845194 -0.04962641 -0.10580702 -0.06389789
000370 72 8f f9 3d 62 2f a1 bd 9a 7e 1d be 71 3a 9b bc
       0.12185563 -0.07870366 -0.15380326 -0.018948765
000380 21 3d a7 3d 8b 93 87 3c 34 19 a9 3d 62 fe 60 bd
       0.08165956 0.016549846 0.0825676 -0.0549301
000390 1c 1b ce bd d1 2a 80 bc 21 e4 1b 3e ef 31 a3 bc
       -0.100637645 -0.015645416 0.15223743 -0.019921271
0003a0 8c b3 ff 3c 42 3f d4 bd 49 7c 06 3e 3a 3b ff bd
       0.031213544 -0.10363628 0.13133349 -0.124624684
0003b0 5c cd 59 bd fa b7 46 bd 64 af 05 bd e6 68 16 bc
       -0.05317436 -0.048515297 -0.03263797 -0.009180283
0003c0 d2 a2 c2 bc 4e 3f b4 3c 5a fa 2b be ec 09 91 bd
       -0.02375928 0.022002842 -0.1679472 -0.070819706
0003d0 91 70 0b 3e 0d ee 24 bd 00 e8 15 be 50 75 a4 3c
       0.1361716 -0.040266085 -0.14639282 0.02007547
0003e0 51 76 1e bd a3 87 e6 bd 3c d6 3d 3d 97 19 c2 bd
       -0.038687054 -0.112563394 0.046346888 -0.09477537
0003f0 0c 5e 02 bd 35 d7 6c bc f1 a0 e9 3d da ad 3d be
       -0.03182797 -0.014455606 0.1140765 -0.1852335

hidden_layers.0.bias f4 [64]
000000 27 eb f3 3d 6b 8d 1d be 0b 55 03 3e ee 18 d3 bc
       0.11910086 -0.15385978 0.1282541 -0.025768723
000010 3c 52 28 be 85 67 86 3d 0b e7 bb 3d cd 61 a7 bc
       -0.1643762 0.065627135 0.09174927 -0.020432377
000020 48 cf 9e 3c 13 42 e4 bd 35 a9 ea bd 60 70 f8 ba
       0.019385949 -0.11145415 -0.11458055 -0.0018954389
000030 8f da 4f bc 7c a5 b4 bd fe 97 c2 bd 07 b0 e8 3d
       -0.012686386 -0.08820626 -0.095016465 0.113616996
000040 0a f6 a7 3d ed 3f 22 3c 07 25 b0 bc 6c 92 99 3d
       0.08201225 0.009902936 -0.021502031 0.07498631
000050 ff bd b1 3d 53 e6 2f be bf 75 f0 3c ef 8a 95 3d
       0.08678817 -0.17177705 0.02935302 0.0730189
000060 cf 5c 77 bd 31 3b 7c 3d 61 c9 88 3d 33 e6 f9 3d
       -0.060391244 0.061579887 0.06679035 0.1220211
000070 d6 bd 88 3d d8 90 bf 3d 74 73 51 3d 26 67 b6 bd
       0.06676833 0.09353799 0.051135495 -0.08906393
000080 93 48 92 bd 8b ed 4e 3d 5a ce f7 bd 87 c3 60 3d
       -0.07142749 0.050519507 -0.12099905 0.05487397
000090 b7 1c 9b bd 1c 35 1e 3e 8e ad 21 be 90 b8 f4 3c
       -0.07573836 0.15449947 -0.15788862 0.029873163
0000a0 ce 27 55 bd 60 fd 48 bd 4b 02 1c 3e c7 40 78 3d
       -0.052039914 -0.049069762 0.1523525 0.06060865
0000b0 76 89 80 3d f4 f5 01 3e ba 48 fc 3d 65 7f f0 ba
       0.062762186 0.1269148 0.12318559 -0.0018348513
0000c0 56 46 2d 3e f2 5f cf bd 1e d0 37 bd 6e 47 2f 3d
       0.16921362 -0.10125722 -0.04487621 0.04279273
0000d0 6f 92 22 be 1c d8 bd 3d 12 66 6f 3b 62 11 de 3d
       -0.15876172 0.09269735 0.0036529345 0.10843159
0000e0 70 af 32 bd 11 10 0c bd 2b cf 22 3e 8a 62 f9 bc
       -0.04362434 -0.03419501 0.15899341 -0.030442495
0000f0 1d a1 14 bd 59 0d d8 3d 81 e7 a0 bc 70 60 10 be
       -0.036286462 0.10549421 -0.01964164 -0.14099288

hidden_layers.1.weight f4 [64, 64]
000000 d1 44 a4 3d d0 a5 de bd 67 76 c2 3d 4d 6b fc bd
       0.08020938 -0.1087147 0.0949524 -0.123251535
000010 66 f7 c5 3d ae b9 ae 3d d8 e5 ac bd 8d d1 9b bd
       0.09666328 0.08531509 -0.08442277 -0.07608328
000020 5d 08 80 3d 90 d2 dd bd 5d 6e eb bd 9a bf 3f bc
       0.06251595 -0.10831177 -0.114956595 -0.011703396
000030 0c 5b a4 bd 1d d4 d1 3d 23 6c f8 3d 22 2d 2b 3d
       -0.08025178 0.102455355 0.121300004 0.04179109
000040 2b 95 ab 3b 30 f1 90 3d 8a dd fc 3c 06 12 88 bb
       0.005236288 0.07077253 0.030867357 -0.004152539
000050 e6 90 39 bd 4d 79 91 3d 68 54 69 3c ef 2b 72 3d
       -0.0453042 0.071032144 0.014241315 0.05912393
000060 3b 06 7d bd db 19 13 bd 7e fe a0 3c 8c 88 03 3e
       -0.06177352 -0.03591333 0.019652601 0.12845057
000070 2f 4b 6f 3d 91 f7 dd 3d 2b 49 b3 3d 79 11 6b 3d
       0.05842131 0.10838235 0.0875419 0.05738971
000080 bf a0 b1 bd 10 f6 31 bd 91 d4 b9 bd aa 0b 94 bd
       -0.08673238 -0.043447554 -0.09073747 -0.07228787
000090 7d cf 5b bd ac 6b 5b 3d 36 87 8e 3c 4c 12 e2 bd
       -0.053664673 0.05356948 0.017398458 -0.11038646
0000a0 90 bd 75 3d dc d2 b4 bd 53 5c 02 be 2d 04 80 3d
       0.059995234 -0.08829281 -0.12730531 0.062507965
0000b0 d9 f6 c6 3d 86 fe d7 3d f6 fe a9 3c 13 e4 51 bd
       0.09715051 0.10546593 0.020751458 -0.0512429
0000c0 1d a2 e3 3a d5 4f 34 3d 5e 31 83 bd fc 54 9a 3d
       0.0017367039 0.044021446 -0.064059004 0.07535741
0000d0 b4 8a 97 3d 22 69 86 bc 0b 4f f9 3d e1 ef 68 3d
       0.073995024 -0.016407553 0.121732794 0.05686939
0000e0 c8 00 4b bc 8b c4 8b bd 4f d3 e4 bd fc 2c ff bc
       -0.012390323 -0.06824597 -0.111731164 -0.03114938
0000f0 5a 25 d4 bc 65 39 9e bd cd 70 69 bd ca 2d 4f bd
       -0.025896717 -0.07725791 -0.05699234 -0.050580777
000100 b9 75 be bd b1 d8 aa 3d 90 a9 cd 3d b1 45 9f bc
       -0.092997976 0.08342112 0.10042107 -0.019442411
000110 c7 ec 0b bd 77 a5 d7 bd 00 7b 07 be 9b 61 a3 3d
       -0.034161355 -0.10529607 -0.13230515 0.07977601
000120 b1 37 91 3d 03 09 3d 3d 76 fa 2a bd 53 54 ce 3d
       0.070907004 0.046151172 -0.041742764 0.10074677
000130 a4 13 41 3d 13 5b b9 bd 48 07 6e bd 37 de bf bd
       0.04713787 -0.09050574 -0.058112413 -0.09368556
000140 71 63 90 bd 6b 1b 17 3d 00 85 7a 3b c0 e1 c1 3d
       -0.07050217 0.036891382 0.0038226247 0.094668865
000150 52 24 14 3d 64 5a a4 bd ed d0 a6 3d a5 5b 18 3d
       0.03616745 -0.08025053 0.08145318 0.037196774
000160 ea 3e bb bd 1e d5 c9 3d b1 a1 a7 bd 23 70 20 3c
       -0.09142859 0.09855102 -0.08185137 0.0097923605
000170 ad 8d c7 3d cd 1e f7 bd 7a 25 a2 3d 82 28 7e bd
       0.097438194 -0.12066422 0.07917304 -0.06205035
000180 eb 1e 96 bd 46 92 f1 bd 79 91 00 be dd c5 a7 3d
       -0.07330116 -0.117954776 -0.12555493 0.08192036
000190 14 0e 94 3d 88 37 40 bd 8c 8f b1 bd 39 3a 1e 3d
       0.07229248 -0.04692796 -0.086699575 0.038629744
0001a0 6e 26 c2 3c 87 3a dd bd 18 50 13 bd a5 97 4c bc
       0.023699965 -0.10802179 -0.035965055 -0.012487327
0001b0 57 67 83 3b 83 15 bd 3d 0d 17 7b 3d 43 5b 96 bd
       0.004010122 0.09232619 0.06130128 -0.073416255
0001c0 66 b0 15 bd 0c 0c 9d bc e9 58 7d 3d 8e f0 f4 3c
       -0.03654518 -0.019170783 0.06185237 0.029899862
0001d0 5e d9 8d bd 65 03 bd bd ec 96 e4 3c b8 ec 14 3c
       -0.06926225 -0.09229163 0.027903996 0.009089641
0001e0 24 4e c3 3d 07 c6 d5 bb 21 1e af bd ba c9 a7 bb
       0.095363885 -0.006523851 -0.085506685 -0.005120483
0001f0 df d2 b5 bd ba 98 88 3c 71 1b dc bd 5e 9d 4f 3d
       -0.08878111 0.016674388 -0.107474215 0.050687186
000200 87 bc 94 3d 70 48 12 3d 03 9b 5a 3d 6c f7 ad bd
       0.07262521 0.035713613 0.053370487 -0.084944576
000210 7f 46 2a 3d b1 a3 a6 3d 74 36 10 be 06 23 72 bd
       0.041571137 0.081366904 -0.14083272 -0.059115432
000220 64 db 24 3d b2 6e 49 bb 56 89 cd 3d 46 29 92 3d
       0.04024829 -0.0030736146 0.100359604 0.071367785
000230 57 bd 2c 3d 39 73 56 bc a4 85 15 bd 98 b5 53 3d
       0.042172756 -0.013088995 -0.036504403 0.051686853
000240 e4 3f 69 3c 71 15 d9 bd dc ba 83 bd ce d8 11 bd
       0.014236424 -0.10599793 -0.06432125 -0.03560715
000250 56 9f 19 3c e4 6d 13 bd 35 4a e1 bd b5 58 bc 3c
       0.009376368 -0.03599347 -0.11000482 0.022991518
000260 d2 ba 4b 3d 4c 2d a9 3d c7 0f 05 bd 6b 4c 29 3d
       0.049738713 0.08260593 -0.03248575 0.041332643
000270 54 05 f4 bc 67 64 a5 3d b0 16 93 bd 8b 73 f5 bd
       -0.029787697 0.08075791 -0.07182062 -0.11984929
000280 15 e7 9f bd 6f 50 54 3d 97 7e 05 be fc 18 70 3c
       -0.07807747 0.05183452 -0.13036571 0.014654394
000290 98 b3 95 3d 37 46 2f bc cd 0c 36 bd 4e c0 07 be
       0.073096454 -0.010697893 -0.0444458 -0.13256952
0002a0 6d 68 d8 3d 71 46 8b 3b c8 dd 14 be 77 7e e1 bd
       0.10566793 0.0042503406 -0.14537728 -0.110104494
0002b0 31 12 32 3c 2d d0 55 3d d8 bc 84 3b 7a 13 43 bc
       0.010868595 0.052200485 0.0040508322 -0.011906499
0002c0 4b fc 02 be 3b b4 de 3b 9c 38 ac 3d 78 5b e3 bd
       -0.12791555 0.0067963875 0.08409235 -0.11101431
0002d0 d9 78 2c 3d 90 c5 0c be 02 6d 60 3d 3d 35 bc bd
       0.042107437 -0.13747239 0.054791458 -0.09189842
0002e0 66 a0 41 bd 9a 59 af bc a2 28 b7 3d 07 76 d8 bd
       -0.04727211 -0.02140503 0.08943297 -0.10569387
0002f0 cd c9 f3 bd d3 ac 42 3d f3 37 b6 3d f5 17 f0 bd
       -0.11903725 0.0475281 0.0889739 -0.117233194
000300 40 94 08 bd 25 f5 c5 bd e1 8c c2 bd f6 85 85 3d
       -0.033344507 -0.09665898 -0.09499527 0.06519692
000310 b8 75 84 bd 0f 57 db bd 83 90 08 be d2 23 ec 3b
       -0.064677656 -0.107099645 -0.13336377 0.0072064186
000320 41 68 af 3d 05 4b 58 3c 57 14 f3 bc ad a5 c7 3c
       0.08564807 0.01320148 -0.029672785 0.024370993
000330 bf c4 0f be 2f 7c 75 3b dd b3 99 3d b8 25 a3 3d
       -0.14039896 0.0037458052 0.07505009 0.07966179
000340 f5 1f 5a 3d 24 3c 2b 3d d8 eb 62 bd 15 3f 86 bd
       0.053253133 0.0418054 -0.0554007 -0.06555001
000350 00 c4 40 bd d0 20 be 3d e2 4c d7 bd 4c 60 1b bd
       -0.04706192 0.09283602 -0.10512711 -0.037933633
000360 e1 6e 96 3d 42 ef ac bd c9 a5 11 bc f8 31 90 3d
       0.07345367 -0.08444072 -0.008889624 0.07040781
000370 00 8d a1 3d 7a 0a d9 bc 42 cd 33 bc 0b e5 37 3d
       0.07888222 -0.026494253 -0.01097423 0.044896167
000380 4b 12 0d be 2d b5 b2 3d 3c 21 93 3d 25 4e f7 bc
       -0.1377651 0.08725963 0.07184073 -0.03018863
000390 d9 0b d5 bd 80 d8 b7 3d c9 0b 8c 3d 87 30 a6 3a
       -0.104026504 0.08976841 0.06838185 0.0012679257
0003a0 69 65 b7 3c 70 50 2d 3e 6f 8a b1 bb 84 4e 52 3d
       0.022387223 0.16925216 -0.005418114 0.05134441
0003b0 1a d7 96 3c 11 5e d4 bd f0 61 08 3d ad 5c 0b be
       0.018413115 -0.10369504 0.033296525 -0.13609572
0003c0 44 54 e5 bc ac 18 7e bd 45 7a 3d bd a6 03 c5 bd
       -0.027994283 -0.062035248 -0.046259183 -0.096198365
0003d0 e4 f1 8c 3d 43 f8 4c bb 63 78 01 3e 39 a7 a1 3d
       0.068820745 -0.0031275905 0.1264358 0.07893223
0003e0 39 57 21 ba 61 a4 f1 bc a6 8b bb 3d c6 a8 8d bc
       -0.000615466 -0.029497327 0.09157495 -0.017292392
0003f0 ca ea df 3b ff a5 c7 3d 3d a4 64 3b 22 a7 86 3d
       0.006833409 0.09748458 0.0034887933 0.06574847

hidden_layers.1.bias f4 [64]
000000 51 0c dd bd 99 db 2f bd fd 71 fe bc dd ea 09 3e
       -0.10793365 -0.042934034 -0.031060213 0.134685
000010 c5 82 85 bd 83 05 bb 3d 0a 3c 95 bd ac 79 c6 3a
       -0.06519083 0.09131911 -0.07286842 0.0015142462
000020 8d 98 c6 bd cd fa 35 bd 85 53 9e 3d 39 c1 77 3c
       -0.096970655 -0.044428635 0.07730774 0.015121751
000030 dd a7 4e 3d 6c 0f 21 bc 5d 6a 92 bd 03 b4 00 be
       0.050453056 -0.009830337 -0.071491934 -0.12568669
000040 5e f7 92 bd c8 33 15 3d b1 81 04 be c6 13 97 bc
       -0.07176088 0.036426336 -0.12940098 -0.018442046
000050 c8 f8 01 3e 3c 0d 08 be 7b fd 22 bc 30 58 8a 3d
       0.12692559 -0.13286299 -0.00994813 0.06755102
000060 86 0b 9d 3b d3 cc e3 bd 67 07 31 3c 7a a4 0e 3d
       0.0047926335 -0.111230515 0.0108049875 0.034824826
000070 ea 9e 9e bd af be 3b bc 37 b7 89 3d 9c 6b 3b bd
       -0.07745154 -0.011459037 0.067243986 -0.04575692
000080 84 ce 42 bd 68 2c b4 bd 29 a6 8d bd 45 eb ca 3a
       -0.04756023 -0.08797532 -0.06916458 0.0015481493
000090 8c 39 51 3d 67 f4 ac bd 6e cc 92 3d ec 91 e9 bd
       0.05108027 -0.084450535 0.07167898 -0.114047855
0000a0 32 42 95 3d 9a 29 fa bd 38 91 bd 3c 64 0d be bd
       0.072880164 -0.12214966 0.023140535 -0.09279898
0000b0 85 46 cb bc a9 66 6b 3d 21 15 ca bb 47 4e 12 3d
       -0.0248139 0.05747095 -0.0061670695 0.035719182
0000c0 ac 5a 05 be 1f e4 92 3d 7a e2 93 3d 1d 20 fd bd
       -0.1302287 0.07172417 0.07220931 -0.12359641
0000d0 d6 6b 68 bd 70 1f a0 3d 8c 04 b4 bd c0 9b 9e bd
       -0.056743465 0.07818496 -0.0878993 -0.07744551
0000e0 e3 e7 43 3d 76 d9 08 3c 06 bb 38 3c f7 1a ea bd
       0.047828566 0.008352628 0.011275059 -0.114309244
0000f0 a8 c2 a2 bd f2 2f 2b 3d 03 91 f4 bd c4 1b e7 bd
       -0.07947284 0.04179377 -0.11941721 -0.11284593

output.weight f4 [4, 64]
000000 10 25 02 3d ff 91 db 3c 68 83 06 3d df da 58 3d
       0.031773627 0.026803015 0.032840163 0.052943107
000010 e6 8a b1 3c a1 9a b4 3d 96 33 15 bd 0d 55 17 bd
       0.021672677 0.088185556 -0.03642615 -0.036946345
000020 5b c7 c8 3d 87 5c dd 3d b1 24 c4 3c f6 8a 19 3d
       0.09803649 0.10808664 0.023943277 0.03748604
000030 3f c8 04 3e 71 1e 73 3d cc da b7 3d 01 07 a0 bd
       0.12967013 0.059355203 0.08977279 -0.07813836
000040 ce 00 0a bd f2 33 4e bd 88 fa ac 3d c2 12 7c bd
       -0.033692174 -0.050342508 0.084462225 -0.061541326
000050 a6 aa fd 3c dd 2d b4 bd d4 ec b8 3d 3c 40 9d 3d
       0.03096516 -0.0879781 0.090295464 0.07678267
000060 0a 60 3d bd 39 06 c8 3d 74 57 aa bc b7 4b 3a bd
       -0.046234168 0.09766812 -0.020793654 -0.045482364
000070 b7 f5 ac 3d cb b3 ba bc 86 e0 aa bd 1f 99 5d bd
       0.08445304 -0.02279081 -0.08343606 -0.054101106
000080 7a 01 c6 bc 8e 46 fd 3c 40 af ab 3d fc c2 7e bd
       -0.024170626 0.030917432 0.08383036 -0.06219767
000090 fa b3 a1 bd a3 2d c2 3c cf ca c6 bd 8c 2b a8 bd
       -0.07895656 0.023703402 -0.097066514 -0.08211431
0000a0 69 52 b6 3d 82 96 87 3c 3d 30 5a bc 3f cc 2b bd
       0.08902437 0.01655126 -0.013317165 -0.04194283
0000b0 f2 32 03 bd 55 81 8c bd af d0 84 3d 05 4b ba 3d
       -0.032031007 -0.068606056 0.06485116 0.0909634
0000c0 8e 7e 92 bd 2e 10 66 3c 1d 14 b8 bd a0 f0 75 bc
       -0.07153045 0.0140419435 -0.08988211 -0.015010983
0000d0 90 6f d2 3d 1f c7 dc bb f8 2a 1b 3e 61 72 d1 3c
       0.10275185 -0.0067376043 0.1515311 0.025567235
0000e0 76 87 d5 3d a2 13 0a bc c0 45 ad bd 13 87 c8 3d
       0.10426228 -0.008427532 -0.084605694 0.09791388
0000f0 47 1c 58 bd 80 42 b1 3d 44 61 a8 3d d3 38 4d bc
       -0.052761342 0.08655262 0.08221677 -0.012525755
000100 96 37 87 3d 5e 74 a4 bd ec 34 37 bd 8b f7 f7 3d
       0.06602399 -0.08030008 -0.044728205 0.12107762
000110 cf ea fc 3d 71 2d 9c 3d 0e 1a 6f 3c f6 f2 ec 3d
       0.12349474 0.07625855 0.014593614 0.115697786
000120 ee 15 88 bd a0 75 67 bc 8a e2 dc bc e7 eb 25 3d
       -0.06644808 -0.014127165 -0.026963491 0.040508177
000130 82 ce d3 bc 8d 89 2d bd 56 a2 e8 bd b5 c9 32 3b
       -0.025855307 -0.042367507 -0.11359088 0.0027280871
000140 46 bf 1a 3d e8 48 ab bb 33 cb 4f bd b5 66 95 bd
       0.03778007 -0.005227197 -0.050730895 -0.072949804
000150 7d 4f c2 3d f7 d4 cd 3d 83 10 ee 3c b6 5d 02 3d
       0.094878174 0.100503854 0.029060608 0.03182765
000160 58 df bb 3d c2 ef 44 bd c2 3e 87 3d 2d 69 61 bc
       0.09173459 -0.048080213 0.06603767 -0.013757986
000170 7e 95 88 3d 7d a3 13 3d cc f1 7d 3c 8e f6 56 3b
       0.06669138 0.036044586 0.015499543 0.0032800767
000180 af a6 58 3d 8f a8 1c bd b9 e7 55 bd 81 06 ac bd
       0.052893337 -0.038246688 -0.05222294 -0.08399678
000190 6a 63 ac bd 77 89 8c bd 97 9f 97 bd 9b 76 bb 3d
       -0.08417399 -0.06862157 -0.07403486 0.091534816
0001a0 0d 20 a3 3d a0 5a 88 3d 4b 7e e5 bc 73 c7 c1 bc
       0.079650976 0.0665791 -0.028014323 -0.023654675
0001b0 1d 39 b5 3d b2 68 83 bd 68 f5 e5 3c 97 a2 a0 3d
       0.08848784 -0.064164534 0.02807112 0.078435116
0001c0 7d 0e ae bd 77 99 94 bd 89 1f 73 bd 03 b5 d4 3d
       -0.08498857 -0.072558336 -0.059356246 0.10386088
0001d0 96 6b df 3b 7d 94 bf bd 77 74 e0 bb 9c af d5 3c
       0.006818245 -0.09354494 -0.006849821 0.026084714
0001e0 70 c4 cd 3d 0a ff b5 3d 25 a5 96 bb 99 3b c6 bd
       0.10047233 0.088865355 -0.0045973235 -0.09679336
0001f0 5b 99 94 3d aa 2f ac bb 1b b7 c7 3c a9 e0 80 bd
       0.07255813 -0.0052547054 0.024379304 -0.062928505
000200 55 be 18 bd ca 3b 45 3d 88 be 37 3d 85 c8 19 3c
       -0.03729089 0.048152722 0.04485944 0.0093861865
000210 b7 92 bd bc 97 20 58 bb 65 6c f0 bc c8 03 6e bd
       -0.023141248 -0.003297841 -0.029348562 -0.058109075
000220 e4 f4 b8 bd 64 2a 1e bd a8 45 85 3c cb 0e 3e bb
       -0.09031084 -0.038614646 0.016268566 -0.0029000517
000230 51 cb 12 3b 71 09 47 bd 6f 3c b3 3d d8 e8 09 3d
       0.0022399018 -0.04859299 0.08751761 0.033669323
000240 60 b1 c2 bb 37 a4 bf 3c 65 6c 9e bc 86 71 9f 3d
       -0.005941555 0.023393733 -0.019338796 0.07785325
000250 e3 5b 3c bc fc 1a b8 bd 6f dd d0 3b 5f 57 70 3c
       -0.011496517 -0.08989522 0.006374053 0.014669268
000260 02 cc c1 3a 88 1a 73 bc 61 e2 ab bd 07 7e 92 bd
       0.001478553 -0.0148378685 -0.08392788 -0.07152944
000270 bb b7 67 bd 30 ab 66 3d c7 e4 96 3d 94 cd 32 3d
       -0.056571703 0.0563156 0.073678546 0.043653086
000280 92 ba 80 3d f5 db ff 3c 9d b4 8b bd 4e 9d 0d 3c
       0.062855855 0.031232813 -0.068215586 0.008643461
000290 c7 ad 09 3d 04 6a 0d 3d ab bf 03 bd 63 1f 27 bd
       0.033612993 0.034524933 -0.03216521 -0.040801417
0002a0 54 af 55 bc a3 83 ab 3d ab 9e 81 3d 84 81 91 3d
       -0.01304229 0.08374717 0.06329092 0.07104781
0002b0 bd 0a e5 bd a9 dd 92 3d c0 e2 10 3c 2c d7 7a 3c
       -0.11183689 0.071711846 0.008843124 0.01531009
0002c0 82 61 80 bd a1 5f c2 bd 82 8d 71 bd 62 21 41 bd
       -0.06268598 -0.09490896 -0.058972843 -0.047150977
0002d0 92 4f 4d 3d a9 e2 13 3d d5 6d 23 bc 63 71 8b bd
       0.050124712 0.03610483 -0.009974916 -0.06808736
0002e0 b6 0e 1c 3d 83 21 4d 3d 68 d0 b8 3d 8f 3c 0c 3d
       0.038099967 0.050080787 0.09024125 0.03423744
0002f0 8f eb 76 3d 8e a0 cd b9 f7 06 8d 3d 72 94 8b 3d
       0.06028324 -0.0003922027 0.06886094 0.06815423
000300 4a 0c f9 3c 4c 7f 5d 3d a7 fc 7b 3b b6 3b 92 3c
       0.030401368 0.054076478 0.0038450153 0.017850738
000310 3a 16 36 3d ed ca d5 3b 03 83 b5 bb 90 d7 fe bc
       0.04445479 0.006524435 -0.0055392995 -0.031108648
000320 1a 12 c4 bc 08 57 16 3d d4 04 a6 bd ac c5 75 bb
       -0.023934413 0.036704093 -0.0810639 -0.0037501855
000330 b5 b6 1c bd 3f e0 c9 3c 6d 5c bc bc 31 d6 25 3d
       -0.03826018 0.024643062 -0.02299329 0.040487472
000340 50 35 14 bc 96 45 20 3d c0 41 2d 3d 4c c8 fe bc
       -0.009045914 0.039128862 0.042299032 -0.031101368
000350 5a 51 b6 3c 8a c7 c5 3d 12 ea c2 bc ff 48 cb ba
       0.022255588 0.096572 -0.023793254 -0.0015509425
000360 9a 0f 80 39 a6 2d 3e bd 72 0c 92 3d 7a a7 60 bd
       0.00024425687 -0.046430252 0.0713128 -0.054847218
000370 ac 76 b0 bd 0d 30 44 bc 4c 96 d0 bc d7 e9 23 3d
       -0.08616385 -0.011974347 -0.025462292 0.04001793
000380 68 ef 57 3d 7f f9 08 3d fa 5b b2 3c 5c 94 b6 39
       0.05271855 0.033441063 0.021772373 0.00034824281
000390 4d 19 4e 3d ce 8d a5 3b 18 2a b0 bc 85 9f 92 bb
       0.050317097 0.005052305 -0.021504447 -0.0044745826
0003a0 50 8e 20 3b 59 72 05 3d d6 6c 11 bc d2 1d 81 bd
       0.0024498887 0.032579754 -0.008876046 -0.06304516
0003b0 1f e3 83 3a 3d 4b 81 3c 12 57 87 3c 2a 3d 74 3c
       0.0010062194 0.015782947 0.01652101 0.014907161
0003c0 41 20 9c bd 99 fa 81 bd 9d 03 95 bd eb 48 ea 3c
       -0.076233394 -0.06346626 -0.0727608 0.028599223
0003d0 3e 96 e5 3c 85 cf ba bd 4b 5d 8f bd 5f 61 b1 3d
       0.028025743 -0.091216125 -0.07000216 0.0866115
0003e0 e5 0d 11 bd 34 56 2d 3d 2d 75 0d bd 68 6c df 3c
       -0.03541364 0.042318538 -0.034535576 0.027273372
0003f0 70 28 e7 3b 8c f9 62 bd 4b 92 1d 3d 82 35 8c 3d
       0.007054381 -0.055413768 0.038469594 0.06846143

output.bias f4 [4]
000000 38 ab 48 3d ce a9 98 3d 76 e8 a0 3d 77 65 b1 3d
       0.048991412 0.07454263 0.078568384 0.08661931

exp_avg f4 [64, 37]
000000 a3 c5 53 37 3a 4e 8d 36 68 b8 dd 38 7f 5a c7 35
       1.2622596e-05 4.211234e-06 0.000105724495 1.4852993e-06
000010 6d a2 a6 b6 61 11 12 38 f8 4e 1a b7 01 ee dc 38
       -4.9660944e-06 3.4825298e-05 -9.197502e-06 0.00010534749
000020 8f 96 e8 b6 ec 03 f3 35 51 ff 2e 35 32 03 df 38
       -6.931666e-06 1.8106052e-06 6.5191585e-07 0.00010634064
000030 14 df 02 37 b7 32 1b 37 87 db 38 38 78 a3 fc 37
       7.800543e-06 9.250528e-06 4.407347e-05 3.0116862e-05
000040 8a f1 2d b6 f4 a2 d0 38 6d 1b 47 b6 04 6b 93 b5
       -2.5919603e-06 9.948565e-05 -2.9669275e-06 -1.0983499e-06
000050 0e f0 2a 36 ec 2f e0 38 05 f7 c7 34 2d a0 6e 37
       2.5471704e-06 0.000106900785 3.724637e-07 1.4223199e-05
000060 44 b3 4e 38 82 89 1b 38 33 16 23 36 2b 68 b4 38
       4.928118e-05 3.7082944e-05 2.4301814e-06 8.602472e-05
000070 ce 8c c8 b5 b9 d0 64 35 aa 73 10 37 68 b5 e0 38
       -1.4942141e-06 8.524035e-07 8.609999e-06 0.00010714942
000080 0a 56 6e 37 37 b3 c6 b6 59 46 8c 38 93 9f 61 39
       1.4205938e-05 -5.921723e-06 6.6888235e-05 0.00021517118
000090 77 57 90 b9 fa 53 db b6 ea 26 6a b8 29 e2 51 36
       -0.00027530987 -6.5364848e-06 -5.582619e-05 3.127507e-06
0000a0 2c f8 9c b6 3a ac df b7 12 24 a8 36 4c 83 84 b8
       -4.6780533e-06 -2.666387e-05 5.0109893e-06 -6.3187064e-05
0000b0 8f 4e a1 b6 33 99 79 b5 21 1f 81 b8 5c 4d 92 b8
       -4.8073193e-06 -9.298266e-07 -6.1569976e-05 -6.976232e-05
0000c0 6d cc cd 34 42 31 a3 b5 e8 32 e0 36 fc 34 0f b7
       3.8332965e-07 -1.2158782e-06 6.6816465e-06 -8.535801e-06
0000d0 ff 1f 95 36 48 8d 80 b8 af e1 98 b6 6c f8 27 b6
       4.444271e-06 -6.129831e-05 -4.556226e-06 -2.502954e-06
0000e0 8c 0a 5e b8 fb 99 89 b8 62 ab 25 35 20 d6 c7 35
       -5.2938747e-05 -6.56135e-05 6.1716685e-07 1.4888974e-06
0000f0 46 da d9 b4 9c fa 71 b8 1f f9 22 b6 e7 5b b3 36
       -4.0578215e-07 -5.7692276e-05 -2.4284889e-06 5.3453145e-06
000100 21 39 8a b8 4a fd 76 b5 b4 af 7e b7 06 a2 7a b8
       -6.590994e-05 -9.2010725e-07 -1.5180489e-05 -5.975554e-05
000110 b5 cc 1b 2d 93 25 ab b6 29 1a 7d 35 ca d6 f2 b7
       8.856184e-12 -5.1005713e-06 9.428791e-07 -2.8948667e-05
000120 09 36 13 39 64 e8 87 39 05 17 a6 37 62 b0 54 b7
       0.00014039142 0.0002592235 1.9799461e-05 -1.2677252e-05
000130 a5 f2 81 b7 6b d6 69 36 fa 35 b0 b7 f2 d0 d8 37
       -1.5490989e-05 3.4844513e-06 -2.100597e-05 2.5846504e-05
000140 e6 1c dd b7 d6 88 99 b5 15 a4 58 b6 9c 90 c6 b7
       -2.635871e-05 -1.1439213e-06 -3.2282016e-06 -2.3670778e-05
000150 b9 a1 f5 b7 5c 94 bc 36 5f d5 9c 37 93 40 ae 33
       -2.9281584e-05 5.620108e-06 1.8696008e-05 8.1142524e-08
000160 8a 6d 19 37 45 e1 1f b7 8e 21 72 b7 f9 38 fb 37
       9.145015e-06 -9.529588e-06 -1.4432137e-05 2.9948062e-05
000170 28 61 36 b7 c5 b9 7a b7 ad 45 3a 37 69 ac 13 36
       -1.0870666e-05 -1.4944414e-05 1.1102687e-05 2.2005063e-06
000180 a8 95 ad b7 0d 22 28 36 c8 01 cd b6 85 a0 8e b7
       -2.0692896e-05 2.505377e-06 -6.1096835e-06 -1.7002467e-05
000190 dd 44 e8 37 0f 1c 82 b7 59 4d 81 b3 5a 08 07 37
       2.7688622e-05 -1.5510273e-05 -6.0211e-08 8.0485715e-06
0001a0 79 de 02 b8 3f a8 85 b6 44 3a 11 38 21 1a 91 b6
       -3.120161e-05 -3.9832953e-06 3.4624958e-05 -4.3243786e-06
0001b0 65 ed aa b6 97 2c be 37 5d 53 a3 b9 fd 2b 0a 36
       -5.094031e-06 2.2670529e-05 -0.00031151893 2.0589207e-06
0001c0 31 e1 e5 37 55 b0 d1 b5 e5 9a d2 34 73 22 9d 37
       2.740379e-05 -1.5623033e-06 3.922825e-07 1.87319e-05
0001d0 46 7c 83 b5 78 38 c6 37 21 7b 6e 36 0a 30 0c 36
       -9.796429e-07 2.3629735e-05 3.5536434e-06 2.0889588e-06
0001e0 21 7e de 37 7f 68 d1 37 93 fd 83 36 30 0c 32 b7
       2.6523196e-05 2.4963401e-05 3.933624e-06 -1.0612464e-05
0001f0 98 e8 27 37 bf a6 94 35 50 e8 c2 b5 34 d3 ea 37
       1.0008131e-05 1.1075389e-06 -1.4521738e-06 2.7993323e-05
000200 6f db 70 36 62 a0 f6 b5 61 d1 e7 37 bb 9a ce 37
       3.5890514e-06 -1.8375106e-06 2.7634846e-05 2.4629166e-05
000210 f7 c2 f3 33 67 01 01 b7 98 90 3c 37 67 07 94 37
       1.1351033e-07 -7.689326e-06 1.1239339e-05 1.7646422e-05
000220 b7 00 4b 37 dd e9 19 b7 ca 5f ba 37 00 57 53 36
       1.2099909e-05 -9.173961e-06 2.2217533e-05 3.149209e-06
000230 ac d5 5b 37 45 8f da 37 25 e0 47 b6 85 e1 f6 b5
       1.3103167e-05 2.605434e-05 -2.978378e-06 -1.8394063e-06
000240 bc c3 ec 36 d7 80 3d 37 6a 16 3a b8 91 65 64 b8
       7.0561346e-06 1.1295276e-05 -4.436673e-05 -5.4454027e-05
000250 da ae 38 36 98 be 54 37 df 67 99 38 c5 7d 38 35
       2.7519914e-06 1.2680561e-05 7.314956e-05 6.872836e-07
000260 a0 42 d8 36 33 7f eb 36 c5 5e 43 36 47 d9 92 38
       6.445058e-06 7.0183537e-06 2.9112427e-06 7.0022936e-05
000270 a4 4f 1c 37 25 99 7b b6 f4 d1 86 b7 be a2 ba 38
       9.316867e-06 -3.7491056e-06 -1.6071812e-05 8.899484e-05
000280 e0 6d e5 36 34 88 1f 37 d5 fc 32 38 0f 33 8a 37
       6.837523e-06 9.508851e-06 4.2673975e-05 1.6474658e-05
000290 e7 08 3a 37 b8 5d 7e 38 0c 5a 8e 35 91 49 b9 36
       1.1088537e-05 6.06456e-05 1.0606032e-06 5.521994e-06
0002a0 ad b8 08 36 60 46 ad 38 38 28 8b b6 16 e4 12 37
       2.0373075e-06 8.262391e-05 -4.147205e-06 8.7553835e-06
0002b0 78 f4 30 38 f0 e8 1b 37 66 80 8f 36 62 f0 a4 38
       4.218935e-05 9.292955e-06 4.2766796e-06 7.864904e-05
0002c0 47 ec 45 b6 42 6a 92 36 a4 c2 31 35 2d 4a a2 38
       -2.949282e-06 4.363509e-06 6.622088e-07 7.738578e-05
0002d0 bc 42 85 37 b7 83 9c b6 70 b9 3a 38 2c 28 08 39
       1.5885911e-05 -4.664496e-06 4.4518558e-05 0.00012984936
0002e0 f6 c7 9e b9 f7 1c c8 37 44 3a 94 b7 2e ab a4 38
       -0.0003028509 2.3855346e-05 -1.7670107e-05 7.852014e-05
0002f0 9f 38 49 35 80 8f d3 35 cd f1 e4 37 4d 5c ff b6
       7.496073e-07 1.5762489e-06 2.7292315e-05 -7.6103374e-06
000300 5f ea 92 38 1c ac 8f b6 c0 71 ab 35 11 06 ff b5
       7.0054775e-05 -4.2817683e-06 1.2773598e-06 -1.9000746e-06
000310 2f a8 87 38 71 2e d8 37 e3 2c 50 b6 a0 72 43 38
       6.468628e-05 2.5770833e-05 -3.1020543e-06 4.6598376e-05
000320 2f a7 73 37 f1 f9 42 b7 64 e3 a7 38 eb a7 27 36
       1.4522854e-05 -1.1621495e-05 8.005535e-05 2.498268e-06
000330 e7 b8 17 36 33 b6 97 37 78 b8 86 38 58 1a bd 36
       2.260838e-06 1.8085446e-05 6.423978e-05 5.6357057e-06
000340 c2 2b 28 b6 a3 a5 00 38 03 01 56 37 f8 41 33 37
       -2.5059421e-06 3.067184e-05 1.27556295e-05 1.0684591e-05
000350 b7 51 7e 38 50 44 b9 35 c2 11 58 37 25 55 25 b6
       6.0634422e-05 1.3803456e-06 1.2878738e-05 -2.4636477e-06
000360 65 f4 8a 38 f5 e8 c3 37 71 6b e3 b5 85 c2 45 38
       6.625875e-05 2.335429e-05 -1.6944088e-06 4.714962e-05
000370 c0 d3 0a 39 32 7a dd b9 57 3b a6 36 7d a4 85 37
       0.00013239589 -0.00042243447 4.9540936e-06 1.5931431e-05
000380 97 65 fe 38 40 8e 11 b7 4e f1 9a 35 f7 24 dc b7
       0.000121305864 -8.675794e-06 1.1544123e-06 -2.6243257e-05
000390 eb 4b 0b 38 58 34 1f 39 0f 13 d4 b7 a1 10 9a 36
       3.3210887e-05 0.00015182921 -2.5281244e-05 4.5914935e-06
0003a0 71 03 e4 37 47 d0 28 39 23 f0 78 b8 cc 74 9d 36
       2.718132e-05 0.00016099318 -5.9351452e-05 4.6925616e-06
0003b0 59 d5 9b 38 87 44 b3 37 a4 30 a7 37 77 09 13 39
       7.430715e-05 2.1370373e-05 1.9930601e-05 0.00014022538
0003c0 2d 5f 49 b8 6e 19 1c 37 13 3a 8e b7 6c be 2d 39
       -4.8010774e-05 9.304245e-06 -1.6954762e-05 0.00016569503
0003d0 a2 1f 67 b7 98 6e c2 b5 83 f7 98 38 2f e6 88 36
       -1.3776038e-05 -1.4486313e-06 7.2940275e-05 4.0799127e-06
0003e0 e6 3e 7e 37 89 95 25 39 59 01 37 b8 1d b2 b7 36
       1.51542245e-05 0.00015791332 -4.3631855e-05 5.47456e-06
0003f0 5d 8d 8c b6 4f 3e 3e 39 7e 1e 2a b8 8e 7c 54 b6
       -4.188782e-06 0.00018143024 -4.0559557e-05 -3.1662962e-06

exp_avg_sq f4 [64, 37]
000000 ea 1e 7c 33 5d f2 15 33 62 b1 2f 32 dc 70 e1 31
       5.870144e-08 3.4912194e-08 1.0226673e-08 6.5611925e-09
000010 76 a8 8a 32 3f 09 83 33 f5 93 f6 32 10 bb 1f 32
       1.6141922e-08 6.101845e-08 2.8705452e-08 9.297551e-09
000020 bb fa 10 32 15 94 76 32 54 58 f4 31 37 61 45 33
       8.438913e-09 1.43527545e-08 7.1113764e-09 4.5956053e-08
000030 fa 9b 53 33 7a 68 28 32 79 08 63 32 da d9 7b 33
       4.9269126e-08 9.802642e-09 1.32150655e-08 5.8638626e-08
000040 5f 2a 09 33 d6 cb 56 32 d7 97 d6 31 83 ed 88 32
       3.1936334e-08 1.2502786e-08 6.245482e-09 1.5940492e-08
000050 b4 3c 5a 33 2f 0d 1f 33 ae 60 10 32 cc f0 67 32
       5.081229e-08 3.7032063e-08 8.403886e-09 1.35007205e-08
000060 a9 b9 39 32 5d fe 66 33 ea b4 00 33 f2 e4 41 32
       1.08106315e-08 5.378239e-08 2.9966863e-08 1.1286135e-08
000070 59 61 22 32 70 ae 78 32 5a b9 7a 33 76 e2 f6 32
       9.451775e-09 1.4475162e-08 5.8376237e-08 2.8741152e-08
000080 49 74 c6 31 8d 11 41 32 27 79 90 32 22 09 12 34
       5.7757785e-09 1.1238069e-08 1.68189e-08 1.3600632e-07
000090 01 39 25 36 3c 84 fa 31 e4 d0 4b 32 6e 47 84 30
       2.4620097e-06 7.290991e-09 1.1863651e-08 9.624566e-10
0000a0 6b 65 e9 30 ba 2a 7f 31 c1 ed c5 31 d7 44 80 32
       1.6981806e-09 3.713167e-09 5.760484e-09 1.4932466e-08
0000b0 e1 70 61 30 34 f2 09 31 1e b3 02 32 eb 8d fa 31
       8.2014934e-10 2.00738e-09 7.6077225e-09 7.292092e-09
0000c0 08 21 22 32 3a fc 1e 31 0d 63 65 31 95 19 35 31
       9.4371515e-09 2.31354e-09 3.338019e-09 2.6353508e-09
0000d0 a4 b7 50 31 46 68 7e 32 7b ac 15 31 17 f2 95 30
       3.0372371e-09 1.4808455e-08 2.1780397e-09 1.0909983e-09
0000e0 37 87 07 32 2b bc 1a 32 a0 f4 0a 32 35 a9 ef 30
       7.8887785e-09 9.006764e-09 8.0882785e-09 1.743763e-09
0000f0 c8 c1 4b 31 e0 6f c2 31 0b 26 3f 31 f4 25 37 32
       2.965054e-09 5.658862e-09 2.7815783e-09 1.06606315e-08
000100 26 95 e8 31 a9 cc f1 30 3e 7f 9f 31 d3 b2 1d 32
       6.769045e-09 1.7593226e-09 4.641975e-09 9.179263e-09
000110 18 40 10 32 d1 8a e6 30 9e 62 a5 31 67 89 85 31
       8.396476e-09 1.6774157e-09 4.8133435e-09 3.8864303e-09
000120 fa 34 1f 33 ff 0f 55 35 f5 2f 44 32 aa fb 3f 33
       3.7068254e-08 7.937196e-07 1.1419606e-08 4.469954e-08
000130 e4 00 99 32 43 11 46 32 8d 02 9c 32 d6 e9 02 33
       1.781195e-08 1.1529042e-08 1.816195e-08 3.0480656e-08
000140 53 14 20 33 ff 42 1f 32 aa 8e 56 32 31 78 dd 32
       3.7271388e-08 9.270251e-09 1.24888775e-08 2.5782443e-08
000150 de 28 a0 32 e1 59 fa 32 72 3a db 32 d8 ca 01 32
       1.8645036e-08 2.9144703e-08 2.5521533e-08 7.55491e-09
000160 10 76 65 32 b6 2e e5 32 83 ac 33 33 40 e9 60 32
       1.3356399e-08 2.668035e-08 4.1833584e-08 1.3091551e-08
000170 df d9 e7 31 7b 51 9b 32 74 67 c5 32 21 52 b3 32
       6.747754e-09 1.8081428e-08 2.2980863e-08 2.087569e-08
000180 4b 18 c4 32 15 cc 75 32 fd 4f a1 32 3e 74 1d 32
       2.282845e-08 1.430728e-08 1.8779241e-08 9.165033e-09
000190 bf d4 4d 33 91 74 b5 32 6a 04 9c 32 55 93 9e 32
       4.7923773e-08 2.1124182e-08 1.8162797e-08 1.846062e-08
0001a0 ca 78 23 33 3e 11 b7 32 f2 66 92 32 91 15 63 32
       3.8061252e-08 2.1311845e-08 1.7043451e-08 1.3218043e-08
0001b0 81 cb a6 32 83 fc 21 34 ac 44 5e 36 6d b2 00 32
       1.9417486e-08 1.5086157e-07 3.312055e-06 7.49115e-09
0001c0 bc 99 56 33 9f dc e7 31 37 87 4d 31 d9 9a 84 32
       4.996558e-08 6.7480665e-09 2.9908287e-09 1.5437239e-08
0001d0 89 fd 31 32 db 4a 41 33 79 1a 04 32 f8 4c c9 31
       1.0360403e-08 4.5004395e-08 7.68943e-09 5.8586203e-09
0001e0 c6 8e 8c 32 ad b0 a0 32 5e e0 c5 32 5c ef 8f 32
       1.6363071e-08 1.8706794e-08 2.3035849e-08 1.6756239e-08
0001f0 36 04 e9 31 e3 f0 f9 31 a8 75 46 32 1b 8d 49 33
       6.7816712e-09 7.2742394e-09 1.1551869e-08 4.6927294e-08
000200 37 64 ea 31 2b 9b 8d 31 6f 77 84 32 e1 33 9b 32
       6.8216894e-09 4.1212807e-09 1.5421135e-08 1.8067967e-08
000210 19 d5 b9 32 1d ed 36 32 30 be 5e 32 6e d6 38 32
       2.163374e-08 1.0647708e-08 1.2965344e-08 1.0758965e-08
000220 16 fa db 31 e2 d3 42 33 4d 19 6f 32 43 72 ba 31
       6.4021703e-09 4.536185e-08 1.3917384e-08 5.4263025e-09
000230 75 ab 3b 32 41 ce b1 32 18 84 ce 32 7c 78 3b 32
       1.0923817e-08 2.0699305e-08 2.4041626e-08 1.0912228e-08
000240 be 8b 03 32 02 37 1a 32 2f 55 05 34 a2 01 ef 35
       7.656977e-09 8.976487e-09 1.241758e-07 1.7807363e-06
000250 9c bf 77 32 68 9b 43 33 b0 56 bd 32 66 24 1d 32
       1.4420859e-08 4.5543317e-08 2.2041917e-08 9.146879e-09
000260 e1 87 96 32 d2 04 09 33 b7 fd 39 33 7b f9 04 32
       1.7524089e-08 3.1902182e-08 4.330442e-08 7.7401365e-09
000270 80 1a 69 32 da cf c6 32 1d 04 a3 32 06 9b 37 33
       1.356841e-08 2.3144754e-08 1.8977568e-08 4.2749e-08
000280 d5 9d f9 32 52 c1 04 32 04 93 86 32 5c 69 0b 33
       2.9059189e-08 7.727367e-09 1.5666508e-08 3.2459283e-08
000290 69 88 21 33 7a 98 49 32 28 b9 38 32 4b 92 93 32
       3.7609798e-08 1.1734409e-08 1.0752309e-08 1.7179579e-08
0002a0 2a 22 db 32 8e f0 f2 32 ad 40 06 33 75 fb 4e 32
       2.5510491e-08 2.82819e-08 3.125813e-08 1.2047953e-08
0002b0 bf d2 9a 32 e4 f5 27 32 5d 0d 2b 33 43 2c 9a 32
       1.8023796e-08 9.776588e-09 3.9826194e-08 1.7948087e-08
0002c0 ab a8 c8 32 3f 21 83 32 25 dd 04 33 00 91 ca 32
       2.3359766e-08 1.5265526e-08 3.0934775e-08 2.3581833e-08
0002d0 f7 f1 c5 32 97 8a 90 32 6b 74 90 32 1f 02 16 34
       2.3043851e-08 1.682683e-08 1.6816747e-08 1.397061e-07
0002e0 6c 05 64 36 6d fb b3 32 d0 a6 1b 33 66 88 64 32
       3.3977803e-06 2.0952678e-08 3.6240465e-08 1.330236e-08
0002f0 fa 38 8c 31 ae be 86 32 b2 c8 04 33 35 6e d3 32
       4.0810137e-09 1.5686364e-08 3.0916176e-08 2.461375e-08
000300 53 46 27 32 fa 71 41 32 b9 14 81 32 79 5c 40 32
       9.736669e-09 1.1259994e-08 1.5027e-08 1.1196897e-08
000310 94 c5 63 32 04 91 2c 33 ed d0 42 32 21 bf 1b 32
       1.3258063e-08 4.017876e-08 1.133979e-08 9.065645e-09
000320 cc 64 07 33 be f9 ba 32 d2 d2 55 32 e0 68 1a 32
       3.152381e-08 2.176682e-08 1.2446167e-08 8.987826e-09
000330 b7 b0 3a 32 44 af dd 32 76 8f 26 32 f1 aa 04 33
       1.0866805e-08 2.5807488e-08 9.695091e-09 3.0889115e-08
000340 69 d3 39 32 fc 46 42 32 1e a5 93 32 8a 6c 03 33
       1.0816486e-08 1.1308426e-08 1.7188139e-08 3.059953e-08
000350 66 ee 86 32 48 48 44 32 51 98 6f 32 4b 7d d8 32
       1.5708064e-08 1.1425136e-08 1.3946264e-08 2.5202686e-08
000360 c7 f3 07 32 42 1a f6 32 09 7a 64 32 3c 94 3e 32
       7.913463e-09 2.865011e-08 1.3299094e-08 1.109316e-08
000370 c3 69 13 34 8b c8 2e 36 24 35 1e 32 e9 9a fb 32
       1.3728918e-07 2.6044752e-06 9.208893e-09 2.929069e-08
000380 61 03 d2 32 46 db 9c 31 a6 b6 82 32 dc 62 ab 32
       2.4448754e-08 4.565126e-09 1.521705e-08 1.9951976e-08
000390 cc 50 88 32 0e c0 92 32 c4 f3 66 32 93 32 34 32
       1.5869226e-08 1.7083973e-08 1.3443188e-08 1.0488878e-08
0003a0 00 fa b3 31 4c 87 a7 32 7a e6 12 33 2f 07 b3 31
       5.2380074e-09 1.9502885e-08 3.420289e-08 5.2104023e-09
0003b0 41 b8 06 32 40 90 68 32 44 f5 ad 32 94 a7 9e 32
       7.841721e-09 1.3536976e-08 2.0251385e-08 1.8469827e-08
0003c0 5b 23 3a 32 ee ff 38 32 3a 63 1e 32 1a 2a a1 32
       1.0834664e-08 1.0768401e-08 9.219372e-09 1.8762012e-08
0003d0 7f 3f cb 32 03 68 65 32 82 b7 21 32 99 87 0c 32
       2.3661185e-08 1.3353204e-08 9.413158e-09 8.179904e-09
0003e0 22 2a ed 32 d9 02 90 32 dd cc 7a 32 3a 10 6e 32
       2.7609591e-08 1.6765101e-08 1.4598496e-08 1.3857113e-08
0003f0 99 5b b2 32 f9 6d 92 32 6a 40 c8 32 45 8c cc 31
       2.0763581e-08 1.7046647e-08 2.3312356e-08 5.953128e-09

exp_avg f4 [64]
000000 b6 11 02 39 27 09 86 b8 08 e4 a3 b6 17 56 ed 37
       0.00012404364 -6.391323e-05 -4.884325e-06 2.829269e-05
000010 25 36 bb 38 4b 36 b3 38 51 00 0c 39 ca f4 a1 37
       8.92694e-05 8.545498e-05 0.00013351558 1.9306684e-05
000020 de 79 91 36 5d 93 d9 b6 0a 5a fe 37 a9 da b5 37
       4.335524e-06 -6.4842593e-06 3.0321087e-05 2.1678703e-05
000030 d1 2d 30 37 08 bb 5a 38 b6 17 b4 37 66 68 76 38
       1.0501085e-05 5.2149437e-05 2.1468713e-05 5.87482e-05
000040 53 b3 8a 37 f4 3c 21 37 6a 01 85 b7 ca ae c7 b7
       1.6534386e-05 9.61054e-06 -1.5855494e-05 -2.3804041e-05
000050 8a 9d 88 37 92 e3 bf b7 bc 4c 59 b8 bd 12 0a 36
       1.6285823e-05 -2.2874945e-05 -5.1808296e-05 2.057451e-06
000060 67 a2 72 b7 51 65 26 38 bd 8b 76 37 ec 5a 19 b9
       -1.4462136e-05 3.9671842e-05 1.4695278e-05 -0.00014625088
000070 30 d6 83 b8 da a1 9c b7 9c ad 82 b7 77 ec ac b7
       -6.286462e-05 -1.8672017e-05 -1.557805e-05 -2.061411e-05
000080 7f 33 11 b8 c7 7c 28 b8 36 80 e0 b8 0d 34 b5 b7
       -3.4618653e-05 -4.017053e-05 -0.000107050335 -2.160112e-05
000090 dd 13 26 b9 e1 c6 dc 36 9b 9c d8 37 7e 53 9b 38
       -0.00015838393 6.5796635e-06 2.5822132e-05 7.4065276e-05
0000a0 e8 73 b2 37 9b e1 40 b8 4f d1 c6 b8 39 ad 22 38
       2.1273227e-05 -4.598648e-05 -9.4803625e-05 3.8785136e-05
0000b0 3f 9c 38 38 fd fa 83 36 16 b2 df 38 62 ef 81 b8
       4.4014534e-05 3.933323e-06 0.0001066664 -6.195788e-05
0000c0 f9 c7 8c b7 94 ea 49 38 61 ff 76 b8 43 c7 08 b7
       -1.678242e-05 4.8140602e-05 -5.888881e-05 -8.152626e-06
0000d0 86 c8 f6 37 42 52 e8 37 cb a4 7f b8 4d f5 59 37
       2.9418861e-05 2.769486e-05 -6.0950213e-05 1.29913215e-05
0000e0 10 bf 1d 35 d9 3c bb 38 44 ad 38 38 82 e7 c4 37
       5.876509e-07 8.9281886e-05 4.4030385e-05 2.3472825e-05
0000f0 b2 c3 a6 36 97 bd 29 b8 27 11 9c b7 36 89 d2 b7
       4.9699674e-06 -4.046931e-05 -1.8604636e-05 -2.5097845e-05

exp_avg_sq f4 [64]
000000 50 5e e1 33 d5 5d d0 32 41 8b c2 33 71 fc 86 33
       1.0494534e-07 2.4257057e-08 9.059159e-08 6.28578e-08
000010 f8 64 c7 33 70 ce a5 33 60 f3 8e 33 76 3e 46 33
       9.285026e-08 7.720962e-08 6.65666e-08 4.6157275e-08
000020 7a 0e 93 33 1d cf 48 33 80 7b 51 33 22 2d 88 33
       6.847854e-08 4.6754497e-08 4.8773927e-08 6.341203e-08
000030 c7 89 92 33 73 99 cf 33 4d e7 fe 33 3d 05 99 33
       6.823716e-08 9.667101e-08 1.186987e-07 7.1255705e-08
000040 f1 ba a8 33 d5 52 01 33 ee 2e f3 33 ad 8f 3a 33
       7.857114e-08 3.011049e-08 1.1324106e-07 4.3437172e-08
000050 07 18 aa 33 88 52 ba 33 ce 1d 12 33 24 fe 67 33
       7.9206124e-08 8.676312e-08 3.402038e-08 5.401502e-08
000060 a0 0a a5 32 74 28 16 34 49 d8 ae 33 de 73 d6 33
       1.921336e-08 1.3984555e-07 8.1418484e-08 9.986228e-08
000070 5b 42 23 33 d1 26 86 33 58 b0 56 33 0a cb bd 33
       3.8011745e-08 6.246922e-08 4.998614e-08 8.837931e-08
000080 c6 5d 19 33 a2 f8 81 33 a0 04 8a 33 59 b2 93 33
       3.5708375e-08 6.052257e-08 6.426967e-08 6.877662e-08
000090 c6 a6 03 33 00 d0 c2 33 70 4f 8b 33 0d 88 b7 33
       3.0652494e-08 9.071664e-08 6.4871415e-08 8.546349e-08
0000a0 e9 14 e1 33 a3 dd a1 33 66 1e 8e 33 14 4c f3 33
       1.04811825e-07 7.537462e-08 6.61792e-08 1.1329408e-07
0000b0 fa 12 81 33 20 af 79 33 e9 9b 59 33 91 1d 22 33
       6.0104824e-08 5.8134106e-08 5.066605e-08 3.7745455e-08
0000c0 ac a3 46 33 a7 c0 90 33 23 e4 ad 33 18 42 bc 33
       4.6249326e-08 6.740566e-08 8.097438e-08 8.7664546e-08
0000d0 8e 92 a6 33 6e b2 d3 33 b9 36 44 34 e1 75 8f 33
       7.7566355e-08 9.857909e-08 1.827383e-07 6.6803985e-08
0000e0 5e b7 9d 33 76 98 72 33 b8 80 1e 34 63 42 15 34
       7.3442365e-08 5.6483678e-08 1.4761724e-07 1.3900858e-07
0000f0 26 d7 fc 32 4a bf 2f 34 5a db fd 33 69 0a 63 33
       2.94345e-08 1.6367736e-07 1.18211304e-07 5.2862024e-08
