p1_navigation/checkpoint_DQN_2019_01_25_20h53m40s.pth (torch_old, 85326 bytes, 18 tensors)

hidden_layers.0.weight f4 [64, 37]
00000000: 972d d63d 18ac a23c 7748 f1bc 0dbb 21be
00000010: bd2c f03d 95b3 d9bd 4335 0e3e 67e8 193e
00000020: 21a0 233d b845 5fbc 0fd1 153e ca15 c23d
00000030: c7f1 613d 02e8 6a3d d7b7 1cbe f49b 7f3c
00000040: 1742 833d eb82 253e 00aa 2c3d f03c 18be
00000050: f5d0 25be f390 93bd 8ef5 29be b2a3 0f3e
00000060: acbc ec3d 260e 16be c1ab 91bd 9a2a c8bc
00000070: a3be 19be f86c d2bd b731 2f3d 0292 643c
00000080: f9b5 063e ec5f babd 958b ad3c 538b 12be
00000090: ff9e 883c b061 05be 5643 ce3d 6d05 f8bd
000000a0: 6a7c 5abd 3f27 5abd 8e9e 18bc a8f8 94bd
000000b0: 440f 043d caec b1bd 3243 b63b 575b 3f3d
000000c0: 1bc2 e1bd 3fac 1a3e 4e1d 3d3d 3ab2 c6bb
000000d0: 514f 963d e1ff a5bb 41fc 183d 8e1c ecbd
000000e0: ec18 1bbe d1ee 1dbe 304e 6d3d 4b98 8cbd
000000f0: 9ee5 ffbd b940 33bc 12ca c7bd f3b8 bcbd
00000100: ea39 90bd b280 11be 6b71 033e 5687 a5bb
00000110: 8c24 27bc 6132 f43d 305f c9bd e8d5 34bd
00000120: fcf5 c33d de01 8abd 1af7 6a3d f503 043e
00000130: 10fd 94bd bb3a 13be ca2c e23d f479 bfbc
00000140: 82bc 12be 2bc6 12be 8b21 9d3d ad2e 9d3d
00000150: 6a0b 483d 8f89 423d 5a25 353d a75b 2a3e
00000160: 463a e43d 673f 233d 395c e73d 495c fcbd
00000170: b552 15bc f2c6 003e 2762 0cbe 5306 11bd
00000180: 67ec 0e3e 57f9 cd3c c1ad 3e3d f26c 04bd
00000190: 21da 3cbd f334 18bd 49d5 e53d 51ec 653d
000001a0: a651 16be a5b3 10be 8646 14be cc34 c7bb
000001b0: a08a 05be 3cec c33d d72c e13d d4d8 6d3d
000001c0: a39b 9cbc 7d57 90bd 82e8 2abe f68e e03d
000001d0: 3f1a e23d 4444 c8bc 1d2b 67bd a636 d93b
000001e0: d5da 193d e861 11be 74dd fcbd 990d 19be
000001f0: b225 19be a5c1 d8bd 591f 8c3d 66a7 fdbd
00000200: d8e1 fc3c 8d58 aebc 1084 1ebc c146 c73d
00000210: 32ff 593d 5901 ed3c 7563 c03b bf13 8a3d
00000220: aeba 143e 559c 403d 8bb2 163e ee75 c83d
00000230: d18d 7a3d 0166 fb3d 2e06 2a3c 77ad 3cbd
00000240: 9cd8 ec3d db74 dc3c 8a4b 4cbd 680f 3d3b
00000250: e037 d33b 17bd 03be b1e6 a7bd 4efa 15be
00000260: d50b 113e c106 943d 35cc fabd 3552 0abe
00000270: 787b 18be 8261 ce3c 03d9 26bd 5b50 15be
00000280: a768 0cbe 94f3 6ebd d758 d5bb a35c 33bc
00000290: 1a98 073e 73d9 27be e918 423d 3fdd d4bd
000002a0: 5e62 123e 24f8 033e 3642 ba3c 7749 efbd
000002b0: 4f47 073d f9f3 913c b0ba 603d 68ff 01be
000002c0: 11a3 a43c 599e 093e ae1a b83c 825c a23d
000002d0: 6fa2 af3d 1592 033e 6276 fdbb 96b5 c5bd
000002e0: a608 8c3c 44cf 01be a0e6 06bd df34 50bd
000002f0: a710 223e c69f 0d3e 5d59 41bd 21a8 19be
00000300: af6b 60bd b52f e7bc e1b5 6c3d 492b 943d
00000310: 910a 013e c49f 0e3d 210d 4fbd 5e58 d4bd
00000320: cad9 1abe 8206 cd3d aed6 c63d 3f8b 6cbd
00000330: cc92 e7bd 3c40 0c3e bc06 2abd 3bd4 aa3d
00000340: d95d a43b 4a6f b43c 2352 a73d d793 203e
00000350: 3800 8dbc d7ae b23d f687 f93d 4da0 adbc
00000360: e84d 54bd c1a4 edbd 0cf6 f93d 0c59 a1bd
00000370: 209a 2ebc 8e41 22bd 1ebb 0ebe 84d8 8bbd
00000380: 5623 afbd 11a5 9fbd a129 f4bd 5fed 0fbe
00000390: 0e39 d33d 304b c13d b1e3 8cbd 050e 17be
000003a0: 9857 f9bd bcb6 c5bc d9bc 06be e0a8 503d
000003b0: 5228 3b3c 804a bd3c 27b6 d3bb 45c3 9b3d
000003c0: 78ac 243e a62f 27bd 7675 013e 5a02 e93c
000003d0: a06e 0bbe 291f 8abd 1de2 bfbc 1920 e0bd
000003e0: 6f14 753d f6cb 8a3d 40e2 7b3d b50d 28be
000003f0: 5d28 d63d 9ba8 31bd 2f70 cdbc 825e 0bbd
0.10457914 0.019857451 -0.0294535 -0.1579401 0.11727283 -0.10629956 0.13887505 0.1503006
0.039947633 -0.013627462 0.14630531 0.09476812 0.055162217 0.057350166 -0.15304504 0.015601147
0.0640909 0.16163222 0.042154312 -0.14866996 -0.16192992 -0.07205381 -0.16597578 0.14027289
0.11559424 -0.14653835 -0.071128376 -0.024434377 -0.15014128 -0.102746904 0.04277202 0.013950827
0.13155355 -0.09100327 0.021184722 -0.1431096 0.016677378 -0.13025546 0.10071437 -0.1211041
-0.053341307 -0.053260084 -0.009315146 -0.0727399 0.03224112 -0.08687742 0.0055622095 0.046717968
-0.11023351 0.15104769 0.046170525 -0.0060637267 0.07339347 -0.0050659035 0.037349943 -0.11528884
-0.15146226 -0.15423132 0.057935894 -0.06864985 -0.12494968 -0.010940724 -0.09755339 -0.09214964
-0.07042296 -0.1420925 0.12836234 -0.0050515337 -0.010201585 0.119236715 -0.09832609 -0.04414931
0.09568402 -0.067386374 0.05736456 0.12892134 -0.0727483 -0.14377873 0.11043699 -0.023373581
-0.14329723 -0.14333408 0.076724134 0.07674918 0.04883901 0.047494467 0.044225074 0.16636525
0.11143927 0.039855387 0.11296887 -0.123222895 -0.009113957 0.12575892 -0.13709317 -0.035406422
0.13957368 0.025143309 0.046552423 -0.03233046 -0.04610646 -0.03715987 0.112223215 0.056133572
-0.14679584 -0.14131029 -0.14480028 -0.006079292 -0.13041162 0.095665425 0.10994881 0.05806811
-0.019117182 -0.07047937 -0.16690257 0.10964768 0.11040162 -0.024446614 -0.0564376 0.006628829
0.03756221 -0.14197505 -0.12346926 -0.14946593 -0.14955786 -0.1058381 0.068419166 -0.12385444
0.03086941 -0.021282459 -0.009675041 0.09730292 0.05322189 0.028931307 0.005871231 0.067420475
0.14524338 0.04702409 0.14716546 0.09788118 0.061170403 0.12275315 0.01037745 -0.046063866
0.115647525 0.02691119 -0.049876727 0.0028848294 0.00644587 -0.12865101 -0.08198298 -0.14646265
0.1416467 0.07227851 -0.12245981 -0.13507922 -0.1489085 0.02519298 -0.040734302 -0.14581434
-0.13711797 -0.058337763 -0.0065108347 -0.010947379 0.13241616 -0.16391544 0.047387037 -0.10393762
0.14295337 0.12887627 0.02273665 -0.11683934 0.03302699 0.01781653 0.05486554 -0.12695086
0.020097287 0.13439311 0.02247366 0.07927801 0.085759036 0.12848695 -0.0077350596 -0.096537754
0.017093968 -0.12676722 -0.032934785 -0.05083167 0.15826665 0.1383048 -0.047204364 -0.15005542
-0.054790195 -0.02822099 0.05779064 0.072348185 0.12601687 0.034820333 -0.05054963 -0.10368417
-0.15122142 0.10011007 0.09708916 -0.057749983 -0.11307296 0.13696378 -0.04151033 0.08341261
0.0050160703 0.022025723 0.08169963 0.15681396 -0.017212018 0.08724754 0.121841356 -0.021194601
-0.05183211 -0.1160369 0.12205133 -0.078783125 -0.010656863 -0.0396133 -0.13938567 -0.068284065
-0.08551662 -0.07795156 -0.119220026 -0.14055394 0.10313617 0.09438169 -0.06879366 -0.14751442
-0.1217491 -0.024134986 -0.13157977 0.0509423 0.011423187 0.023106813 -0.0064609232 0.07605604
0.16081417 -0.040816925 0.12642464 0.028443504 -0.13616419 -0.067442246 -0.023423249 -0.10943622
0.05983394 0.06777184 0.061495066 -0.16411479 0.104569174 -0.043373685 -0.025077907 -0.034025677

hidden_layers.0.bias f4 [64]
00000000: 5915 e5bd 7288 a93b 993f 2a3e daaa 0cbe
00000010: 5bd9 84bc d014 27be 3923 6e3d 5b26 0fbc
00000020: 9e12 87bc 9538 e13d 338c e3bd 67c1 98bc
00000030: 2f1f 3b3e 48fc 15be fed2 cfbc 1182 c5bc
00000040: 9042 a5bd ef41 80bb ef01 1cbd 0370 ae3b
00000050: 29aa db3d 1bf9 123c d695 9f3d 1df6 083e
00000060: 24af 20bd da8f f33d 23b8 023e 598b 9d3d
00000070: d4da 6b3d 98ad 233e 8692 e53c ffa9 b2bd
00000080: 0df5 103e 951a 96bd 2d27 26bb 148d b53d
00000090: 0247 ad3d 22d8 01be 379a 81bd b4ae a5bd
000000a0: d780 2b3d 7a54 3dbd 0cb2 3cbc 7533 ee3c
000000b0: d88c d7bd c767 8dbd 9dda f13d e083 103e
000000c0: b8be c63d 28d1 2ebd cc2a 623d 125b 22be
000000d0: c27e 3abe fb0c 0e3c 01ff 80bd 4a10 fabc
000000e0: 955f e8bb 0600 01be f479 0d3e f836 d23d
000000f0: 80f1 cebd 7015 c23d 2747 1abc 6367 7dbb
-0.11185712 0.0051737363 0.16625823 -0.1373705 -0.016216924 -0.16316533 0.05813906 -0.008737172
-0.01648837 0.1099712 -0.11110725 -0.018646909 0.18273614 -0.14647019 -0.025369164 -0.024109872
-0.080693364 -0.00391411 -0.03808778 0.0053234114 0.10725815 0.008970524 0.07792251 0.13375135
-0.039229527 0.11892672 0.12765555 0.07692594 0.057581738 0.1598419 0.02802397 -0.087238304
0.1415598 -0.07329289 -0.002535294 0.08864799 0.08460809 -0.12680104 -0.06328242 -0.080899626
0.041870918 -0.04622314 -0.011517059 0.029077271 -0.10524911 -0.069045596 0.11809275 0.14112806
0.097043455 -0.042679936 0.055216596 -0.15855053 -0.18212417 0.008670087 -0.06298638 -0.030525345
-0.0070914724 -0.12597665 0.13816053 0.10264391 -0.10104656 0.09476745 -0.009416378 -0.003866636

hidden_layers.1.weight f4 [64, 64]
00000000: c102 b8bd 5ae5 843d ef68 03be d18d b93d
00000010: fa2d 6abd 23b6 023c e4b0 103d 63bd 43bd
00000020: 16ad 1f3d 575c 9bbd a9c6 b4bd df74 08be
00000030: e183 11bd 3faf e33d c656 38bc 6107 3f3d
00000040: 2cfc 99bd c284 85bd 2fd2 af3c 1264 fa3b
00000050: d68b 8abd cef5 943d 9e2a e1bd c705 6ebc
00000060: 5ddd 71bd b622 6dbd d8dd 82bd 16cb e63d
00000070: 78a1 073d b7fe 79bd 0e88 eabd 2ed5 703d
00000080: 1425 1b3d 9786 f5bd d9bd b53d c62f ccbd
00000090: d7b4 e53d fdd6 213d de3f d83d 8954 0abc
000000a0: 0d13 e73c a4af fd3b ff23 fabd c534 f3bc
000000b0: 1fd0 cf3c 1f0f 7d3d bbc5 99bd f837 7f3d
000000c0: e55c 2b3d c9be cb3d f831 cdbd 63c9 f03c
000000d0: 7e67 563d fe85 5b3d 936f a2bd 1dd9 1d3d
000000e0: 77cd 203d 4481 593d 0b24 c53d 82a6 e7bd
000000f0: a6c5 fbbd e97e 653d 2d77 853d 8501 2d3d
00000100: bd1b 9c3d ae04 4f3d 8cbe 733c 578f 5cbd
00000110: f9a1 ba3c 0baf 8dbd adad ecbd 9c6b c93d
00000120: 6762 453d d29e 18bd a17d 893d d5cd cabd
00000130: 0027 8dbd cca3 41bc d760 903d 3f7a 7cbd
00000140: 9758 eebc 95ea b83d 70eb 773c 6cb3 c63d
00000150: c4b2 a83d 7b5d f8bd e279 25bd 9579 983c
00000160: 349e 3dbd 2e63 61bd 97d6 683d 77fe bd3d
00000170: 9624 c03d 537c 17bd 8d85 86bd 7a90 093d
00000180: 86c6 e4bd f28e 6e3c fbd3 583d 6be3 e2bd
00000190: 30d5 163d beea 68bd 76a9 843d 52a9 413d
000001a0: 441a 7f3d 8e46 d8bd 6743 bd3d 68fc 8f3d
000001b0: 0867 fcbd 362f 86bd 73f9 203d 3b88 a1ba
000001c0: 961d 0abc a505 d5ba 8871 5c3d c965 993d
000001d0: 9eda d6bd 009a 12bc 92b2 bfbc bb2e 89bd
000001e0: 0e0b 333b 48da 3fbd c41d d7bd 6f95 bc3c
000001f0: 95c2 2fbd 3a17 6d3d 3382 8b3d 9b5f 55bb
00000200: b19d 4b3b f091 573d adb2 d1bd 961b 943d
00000210: 7463 c43d 0eb4 97bc 6003 d13d eefa 8cbd
00000220: 6909 3ebd e483 d13d e6a7 b0bc 6fc0 653d
00000230: 4147 17be 0e3c e83d 113b c23d 95ae dbbb
00000240: 2031 1f3d 4214 ad3d 76e7 b5bd 9772 473d
00000250: 7cb8 b73d 505c c5bd 6a82 a4bd a204 c6bb
00000260: 7310 e4bd f0af 82bd 5182 34bc 795b a13d
00000270: 64e8 02bd 9de0 bf3d 2615 b23d 935d f3bd
00000280: 14f1 6a3c eddd c8bd 8b7f 94bd 6dc3 5ebc
00000290: f5ed b6bd f74a 163d 7af7 20bd 3f21 3abd
000002a0: a530 9dbd 9065 123d e204 eebd 6f29 cc3c
000002b0: b25e 65bd 6e9c f1bd 9ddc 643c e1d1 c93d
000002c0: 7a6a fbbd 20e8 75bd 34cf 67bd a73d ecbc
000002d0: 73b7 cf3d d09b de3d 048f 813d a8bc f6bd
000002e0: 3ce8 ce3d 5f36 1bbd fa7d a13d fc21 893d
000002f0: a8fa 973d 3fd8 e23d 5220 77bc 843e 58bc
00000300: ef2f 50bd 6dd0 a7bc 7e11 b43c 49ff d03d
00000310: 5b9e 62bd 2739 eabd 7300 ac3d 49a8 b83d
00000320: 523e 3abd 6f69 abbb 6c43 66bd 74a5 093d
00000330: 1e0d c7bd dd94 933d 5d3e 27bd 1cdd 523d
00000340: 7380 95bc c756 483d 9b5a d73d cc6e ef3c
00000350: b59e 8fbd 4d2d edbd 3dd7 e13c b730 7dbd
00000360: a13c 713d 8285 9dbd 2e63 2ebd 8c25 25bd
00000370: 53a4 9a3c 3af3 a0bd f88e 1cbd 6c9c 45bd
00000380: 83ed b8bd d8fc 3bbd f74f eabd 5d58 9bbd
00000390: fd02 cc3d 0621 0cbe 775d 29bd 73fa 6e3d
000003a0: 8b3b b33d d330 a2bd ff26 d2bd cfe4 a8bd
000003b0: 5eac debd f426 8b3c 91a2 03be 4333 d53c
000003c0: 2b1b 213d 0b6f 30bd 94a2 f2bc 6354 d3bd
000003d0: cbb4 1d3d 4fb9 dbbd 1356 883d ddd2 c13c
000003e0: 5724 e53d 906f 8fbd 1a26 9c3d d9a7 d0bd
000003f0: 201a 2a3d 4c8b d53d cb83 983d 058d 683d
-0.089849 0.06489058 -0.12832998 0.090602525 -0.057172753 0.007977995 0.035324946 -0.047788035
0.038983427 -0.07585972 -0.08826954 -0.13325833 -0.03552616 0.1111741 -0.011251157 0.046637896
-0.07518801 -0.06519462 0.021462528 0.007641324 -0.06764953 0.07273446 -0.10994457 -0.014527745
-0.059049 -0.05789443 -0.063899696 0.11269204 0.033112973 -0.06103393 -0.114517316 0.058797054
0.037877157 -0.119885616 0.08874101 -0.099700496 0.11216133 0.03951167 0.10559057 -0.008443006
0.028207326 0.0077418853 -0.12213897 -0.029688248 0.025367795 0.061782 -0.07508417 0.062309235
0.041836638 0.09948499 -0.100192964 0.029392904 0.05234479 0.05359458 -0.07931437 0.038537133
0.039258447 0.053101793 0.09626015 -0.11311056 -0.12293558 0.056029234 0.065168716 0.042237777
0.07622478 0.050541572 0.014876973 -0.053847637 0.022782313 -0.069181524 -0.115565635 0.09834978
0.048189547 -0.037260838 0.06713415 -0.099025406 -0.06892204 -0.011818837 0.07049721 -0.06164002
-0.029094977 0.09029118 0.015131816 0.09702191 0.08237222 -0.12127205 -0.04039944 0.018612662
-0.046293452 -0.055026226 0.056845274 0.09277051 0.09381978 -0.0369838 -0.065684415 0.03358505
-0.11170678 0.014560448 0.052936535 -0.11078533 0.036824405 -0.056864493 0.064776346 0.047280617
0.06228091 -0.10560332 0.092413716 0.070305645 -0.12324339 -0.065519735 0.039300393 -0.0012323925
-0.008429905 -0.0016252293 0.05381921 0.07490117 -0.10490917 -0.008947849 -0.023400579 -0.06698366
0.0027319822 -0.04683903 -0.10503724 0.023020474 -0.042910177 0.05788348 0.06811943 -0.0032558206
0.0031069333 0.05262941 -0.10239158 0.07231824 0.09589282 -0.018518474 0.10205722 -0.068837985
-0.046395693 0.10230234 -0.021564435 0.056091722 -0.14773275 0.113395795 0.09483922 -0.0067041614
0.03886521 0.084511295 -0.08882038 0.048693266 0.089707345 -0.09636748 -0.08032687 -0.0060430327
-0.1113595 -0.06381214 -0.011017398 0.07878775 -0.031959906 0.093690135 0.0869544 -0.11883082
0.014339704 -0.09807954 -0.072508894 -0.013596398 -0.089321055 0.036692586 -0.039298512 -0.045441862
-0.07675294 0.03574139 -0.11622025 0.0249221 -0.05599851 -0.11797415 0.013968614 0.09854484
-0.12276168 -0.060035825 -0.05659409 -0.028837992 0.10142412 0.108695626 0.06326106 -0.12047702
0.10102889 -0.03789365 0.07885356 0.06695935 0.07420856 0.11076402 -0.015083389 -0.013198499
-0.050826963 -0.020485127 0.021980997 0.10204942 -0.0553268 -0.11436682 0.08398523 0.09016473
-0.04546959 -0.0052310745 -0.056216642 0.033605054 -0.09719299 0.07206128 -0.04083096 0.051480398
-0.018249726 0.048910882 0.105153285 0.029227637 -0.07012693 -0.11580906 0.027568454 -0.061814036
0.05889571 -0.0769148 -0.042575054 -0.04031901 0.018877184 -0.07858892 -0.038222283 -0.04824488
-0.09029677 -0.045895427 -0.11441033 -0.07585213 0.099615075 -0.13684472 -0.0413489 0.058344316
0.08751591 -0.07919469 -0.10261344 -0.08246767 -0.1087272 0.016986348 -0.12854983 0.02602542
0.03933255 -0.04307465 -0.029618539 -0.1031883 0.038502496 -0.10728704 0.06657042 0.023660118
0.11188572 -0.07003701 0.07624455 -0.101882644 0.04152882 0.104269594 0.074470125 0.05677511

hidden_layers.1.bias f4 [64]
00000000: 7dc4 86bd d92b 55bd d9f4 ad3d bd05 b63d
00000010: 5f46 8d3a d865 97bd 6a7d a3bc 8996 43bd
00000020: 6088 bfbd 85e4 f43d 2082 4c3d 8302 91bc
00000030: 90a5 b43d 82d7 ad3a cc73 05be b848 95bd
00000040: bcfd eebc 3f27 0bbd 727e a13d 2c43 693d
00000050: dae1 803d cb30 ec3d 5854 353d 7c92 fb3c
00000060: 60d1 8bbd 153e 6cbd 498a 563d 781d 98bd
00000070: 1939 98bd 8f75 973d 6dd8 883d a576 69bd
00000080: d282 29bd e78b 3f3d 6f17 e7bc 076c 68bd
00000090: 3abd bfbd 610e bdbd 6ef9 103d 3aa5 d5bb
000000a0: 5dda 023e 9f8c 7abc f1aa ac3c 00b5 04bd
000000b0: 87af ce3d f1cd cfbd 231e b63c 9a52 10be
000000c0: 9bdb 033e 209d ecbd 5d3e cb3d 8dfb 1d3d
000000d0: ead8 1b3d 34e4 8e3d 385e 0cbd 914e 3f3c
000000e0: ca90 46bc d735 e13c da8c 303a 2139 9fbd
000000f0: d3c7 e9bd 22d1 e1bd 64dd ccbd 6f34 d83b
-0.06580446 -0.05204377 0.084939666 0.08887813 0.0010778419 -0.07392472 -0.019957263 -0.047750983
-0.09352183 0.11957649 0.049928784 -0.017701393 0.08820641 0.0013263079 -0.13032454 -0.072892606
-0.029173724 -0.033972975 0.07885446 0.056948826 0.06293078 0.11532744 0.04426989 0.030709498
-0.068270445 -0.057676394 0.052377973 -0.07427496 -0.074327655 0.073954694 0.06681905 -0.056997914
-0.041384526 0.04676428 -0.028209416 -0.056743648 -0.09362264 -0.09231258 0.035394125 -0.0065199407
0.12778611 -0.015292316 0.021077605 -0.032399178 0.10092073 -0.10146702 0.022231167 -0.1409401
0.12876742 -0.11553407 0.09924004 0.038569976 0.038048662 0.0697712 -0.03426954 0.011676447
-0.012119481 0.027491493 0.00067348557 -0.07774568 -0.114150666 -0.11026217 -0.100031644 0.0065980474

output.weight f4 [4, 64]
00000000: d70c a7bc c0f8 c83d db62 5b3d 7cf5 9a3d
00000010: 234c dd3d 9102 893c 3986 a2bd 885b 6abd
00000020: dbb6 573d 0182 6b3d 1722 c63d 853a 4abd
00000030: 77a4 843d c665 ebbc 30e2 493d 1fc2 dcbd
00000040: 42b2 8fbd e8e9 f53c 228d 72bd 6bb0 e4bb
00000050: 007e e0bd 9294 aabd ea0e a13d 7eef 42bd
00000060: 23a3 953c 74bf 1ebd 9ef9 a0bb 1d42 723d
00000070: d76e e43d ba5d c7bc 0fe7 093d 844a 753d
00000080: ff6e 72bd 1990 43bd 216e 983c 7126 b3bc
00000090: 4ebf 3cbd 0c4d 553d 1f7b 44bd a49e 78bd
000000a0: b4d8 5cbc dfd0 ad3b 6cec 72bc 24d2 963c
000000b0: cd77 193c 1301 0d3d 8c0e 1cbd 0c7b f93d
000000c0: f876 93bd 56c8 87bc 7a20 c73d 4c2f 25bd
000000d0: 6217 783d 899c b2bc 091f 76bd c1aa cabd
000000e0: d94d 923d a95b c23b 12be 48bd bd39 b13d
000000f0: 3f9f b33d 3656 eb3d ba0e 253d 8fbd b33d
00000100: c1f3 2dbd fda0 e43c 9f89 21bd 4de1 9bbd
00000110: d12b 703d e06d b7bd c158 e83d 7561 1dbd
00000120: d303 7b3d 705b 9a3d d50f b53d bc0e 46bd
00000130: 70c4 b7ba 5fe7 233d c80d 9cbc e915 92bc
00000140: ff50 c9bd 3a84 5e3d 10e6 03bd f259 b9bd
00000150: dcfd 563d 417f 473d b07f bd3d fc54 9d3d
00000160: f834 e4bc 4902 8d3d 6bc9 4dbd 5f0e 8abb
00000170: 993f 263c 5829 a0bd 1d0b 743c c002 153d
00000180: 31a7 17bc cc0b a83a 11fb 82bd 367e 36bd
00000190: ae0c b1bb 45e6 46bb 7b0f 7cbd 1407 48bc
000001a0: 6713 8a3d 5079 ddbb 9b3c 433d 8aeb 3fbd
000001b0: cf12 f73d 5cfe 0fbc acd8 6f3d 5bce c3bd
000001c0: 6881 763d 8990 99bd adf5 c6bb 4512 823c
000001d0: 03bf d53d 1c56 88bd 5475 2fbd 6f19 b9bc
000001e0: 6e61 c13d 58e3 013d 45ee 53bd f705 813d
000001f0: 8556 36bb ae6a 81bd bc38 9a3d b33a 113e
00000200: b253 7cbd 011b b1bd ab57 6c3c 1b2f 0b3e
00000210: 68d2 84bd a439 0c3d 7e44 94bb 702c 253d
00000220: 0580 dcbc 5b67 743d 1caf ebbb de9a a5bd
00000230: ecb9 af3d af16 c6bd 3ab1 4e3c b6eb 86bd
00000240: 1b61 15bc 32cd 653d 5e96 11bd f01a d3bd
00000250: dc96 b0bd 63d9 493d c7ca fabc 44af 743d
00000260: f880 ba3d d411 febc 64b0 cb3d 53f4 82bd
00000270: 7852 7ebd 05f3 053e 5570 1cbd 4ab7 d43d
00000280: e36d 973d b2d5 a6bb f2c0 de3d 2436 a43c
00000290: 0f9a e23d ebe7 cd3d 1703 87bc 3d18 6b3d
000002a0: 3cca ce3d 54e5 b93d a136 babb 58a7 6c3d
000002b0: d571 aebd 29db c7bc 412e b13d 89aa 963d
000002c0: 3cc9 b13d b806 3fbc b86d a0bd 02f4 91bb
000002d0: dae7 74bd a15c 99bd 0d61 c5bc f307 ff3d
000002e0: a9af 65bd d91e a33d 72a8 1f3c 0520 9fbd
000002f0: f476 b5bd 433a d1bd 1798 9d3d a930 34bd
00000300: e3fd 103c 1361 8cbd 4b55 8f3b 29d1 a53d
00000310: 1c94 64bd 57d3 163b 2815 d53d fdff e03d
00000320: 4453 3f3d 4de4 2d3d 1193 c5bd 8f29 9ebd
00000330: 5cc7 99bd 0e16 b63c 49b4 c63d 23ca 063e
00000340: e52c cdbd 49d7 833d ec84 89bc 9805 413d
00000350: b2fb ad3d 2141 293d 07eb ba3d 743a 843c
00000360: 67a2 d33d 0613 cfbd 22ed 6d3d c306 a93b
00000370: 759a 803d 19a8 283d 8e15 b53d 0e8f 8e3c
00000380: f919 25bd e197 8dbd 627b 103d 05ea e83c
00000390: 6b84 d63d bf2e b9bd b1dd 99bc 75c8 64bd
000003a0: cae1 0ebc 04c2 e23d 62f1 6fbd 1f45 aebd
000003b0: e660 923b ee97 c63d 7930 b1bd 6fcb 85bd
000003c0: 50d0 abbd d842 5b3d 2144 913d 2793 313d
000003d0: 76e7 86bd 1702 693d 0d5d db3d 7456 5c3d
000003e0: 73a8 5fbd 4b8b 60bc 4612 d9ba 6980 6d3d
000003f0: 5ac7 26bc b40d 913d 4a53 c03d 3e0a f33c
-0.020391865 0.0981307 0.053561073 0.07566354 0.108055376 0.016724857 -0.07935757 -0.057216197
0.05266462 0.05749703 0.09674471 -0.049372215 0.06476682 -0.028735053 0.049287975 -0.10779213
-0.07016422 0.030018762 -0.059216626 -0.0069790385 -0.109615326 -0.08329119 0.07864173 -0.04759168
0.018266266 -0.038756803 -0.004912569 0.05914508 0.111539535 -0.024336684 0.03366762 0.059885517
-0.059187885 -0.047744844 0.018607201 -0.021868916 -0.04608088 0.05207543 -0.04796898 -0.060698166
-0.0134794 0.0053044404 -0.014826875 0.01841075 0.009366942 0.034424853 -0.03809981 0.121816725
-0.07200426 -0.01657502 0.09722991 -0.04032831 0.060569175 -0.021803157 -0.06008819 -0.0989585
0.071437545 0.005931337 -0.04900939 0.08653591 0.08770608 0.11491053 0.040297247 0.0877639
-0.04246879 0.027908796 -0.039437886 -0.07611332 0.058635537 -0.08956504 0.113450535 -0.03842302
0.061282944 0.075369716 0.0884091 -0.048353896 -0.0014020335 0.040015575 -0.01904954 -0.017832713
-0.09829902 0.05432532 -0.032201827 -0.09050359 0.052488193 0.048705343 0.0925287 0.07682225
-0.027857289 0.068852015 -0.050240915 -0.004213139 0.010146999 -0.07820386 0.014895228 0.036379576
-0.00925617 0.0012820899 -0.06395543 -0.044553958 -0.005403123 -0.0030349654 -0.0615382 -0.012208719
0.06741982 -0.0067588463 0.04766522 -0.046855487 0.12064134 -0.008788671 0.058556244 -0.095608436
0.060182005 -0.07498271 -0.0060717673 0.015877852 0.10436823 -0.06657049 -0.042836502 -0.022595135
0.09442411 0.031710953 -0.051740903 0.06299966 -0.0027822566 -0.06319176 0.075303525 0.14182548
-0.061603256 -0.08647729 0.014425199 0.13592188 -0.06485444 0.034234658 -0.0045247665 0.040325582
-0.026916513 0.05966888 -0.0071925055 -0.08086179 0.08580384 -0.09672295 0.012615496 -0.06587927
-0.00911739 0.056103893 -0.035543792 -0.10307872 -0.08622524 0.04927958 -0.03061427 0.05973746
0.0910663 -0.03101436 0.09945753 -0.063942574 -0.062090367 0.13080986 -0.038193066 0.10386522
0.07394006 -0.0050913924 0.10876645 0.020045348 0.110645406 0.100540005 -0.016480966 0.057396162
0.10097167 0.09076944 -0.005682782 0.05777678 -0.085178055 -0.024396496 0.086514 0.07356746
0.086809605 -0.011659317 -0.07833427 -0.004454137 -0.059791423 -0.07488371 -0.024094129 0.12452688
-0.056075726 0.07964868 0.00974475 -0.07769779 -0.08860579 -0.10216191 0.076950245 -0.04399172
0.008849594 -0.06854453 0.0043741814 0.08096535 -0.05580531 0.0023014152 0.10404426 0.10986326
0.046710268 0.042454053 -0.09647191 -0.077227704 -0.07508728 0.022227313 0.097023554 0.13163047
-0.100183286 0.06437547 -0.016787015 0.047124475 0.08495273 0.041321877 0.09126859 0.016141154
0.1033371 -0.1011105 0.058087476 0.0051582768 0.0627946 0.041175935 0.08842002 0.017402198
-0.040307973 -0.06913734 0.035273917 0.028431902 0.104744755 -0.09042119 -0.018782469 -0.055855233
-0.0087208245 0.11072162 -0.05857981 -0.085092776 0.0044671176 0.09696947 -0.086518236 -0.065329425
-0.08389342 0.053530544 0.07093073 0.043353226 -0.065871164 0.05688676 0.107111074 0.053793386
-0.054604005 -0.013705085 -0.0016561232 0.05798379 -0.010179365 0.07082692 0.09390886 0.02966797

output.bias f4 [4]
00000000: 212d e73d 0ed6 d4bb 13c0 0abd f187 bb3d
0.112879045 -0.006495244 -0.033874582 0.09156788

exp_avg f4 [64, 37]
00000000: 3a30 4ab6 ac64 0638 8799 d836 a191 40b6
00000010: 37dc e137 42f2 3eb7 1c0a 6f37 f516 1738
00000020: 6889 d2b6 b4db 7e37 d511 bb36 17db ee37
00000030: b977 e036 f94b 08b7 76d8 e936 398f 05b7
00000040: e79e 9b37 5d0e 0f37 0772 6237 5a4d 7b37
00000050: da76 89b7 e1c7 0638 dfe2 5138 9523 0bb8
00000060: b9b2 1c38 8f98 8a37 72bd 3838 1224 0bb8
00000070: c830 af36 4f93 5637 0c1d 7ab7 639f c437
00000080: 1036 0a38 05cb 14b7 6c2e 0438 08ac 61b7
00000090: c8d0 0b39 96c7 fbb7 e987 c836 9ced dbb7
000000a0: 1930 54b8 71df bc34 08a5 cfb8 6c7a 89b7
000000b0: a0c7 3cb4 7029 7737 045c 06b8 dc56 7db7
000000c0: 1f53 1ab8 cc3e b3b8 b92c 1938 3652 84b8
000000d0: cf33 b137 7fee b4b8 7917 c2b7 85ab 52b7
000000e0: 9fde 56b8 7fa5 d6b7 f5c5 29b8 452d 15b7
000000f0: 5d2b d9b7 3594 00b8 706c 8237 4112 a9b7
00000100: 063a 3eb8 cb6c 55b8 39a0 cb36 83d9 73b8
00000110: 6e15 35b8 19ee 6835 9d3e d7b4 eee5 c1b7
00000120: 974c 11b9 4fe0 a139 91cd 5a39 0825 2036
00000130: ba52 c0b7 598a e3b6 1b1c 0037 e940 5d39
00000140: a8f9 8137 00d2 e7b7 0bf3 92b7 2146 2638
00000150: b3d5 f838 5178 acb6 f8df bb38 c37c b6b7
00000160: 0dfa 1738 1a0a 8338 ffd2 0a39 fc63 c3b7
00000170: dbbe 2337 be69 3038 1bd7 9d38 896a ceb7
00000180: d054 7136 ec43 0539 480b 18b8 887b 4438
00000190: beab c7b7 ef4e 1239 1279 9d37 9931 0fb8
000001a0: ab22 bb38 e416 c4b7 731a 2837 b52e dd38
000001b0: 81b5 be35 2a91 c439 b01e 0d39 e0ef f2b8
000001c0: 074b 4336 44fe 8838 8304 2fb7 b382 7138
000001d0: d2f4 1db9 797a f5b6 cafb 6738 2117 3b38
000001e0: d931 3438 7f42 26b9 b2e6 7b38 6c2c 1138
000001f0: c539 c436 554c 9538 8910 f9b8 deb1 cf36
00000200: f25d db34 7004 6338 50f4 1c38 617f 1db9
00000210: c199 f036 571a 3738 5660 2d38 bd9d 2538
00000220: 8267 c7b8 ed4a 9ab5 d45f 1c38 4778 7435
00000230: ac4c be38 5d19 2eb9 cb52 0a38 24dd 2338
00000240: dac5 1638 9e08 9138 0d2b 9db9 fe99 5eba
00000250: 12cb b3b7 3e15 efb7 3a78 c537 2e64 ebb5
00000260: 6360 4a37 a4d8 aa33 41a5 12b8 6180 3b37
00000270: 9bfb 94b6 24b3 9a36 35fc 2538 87a8 2cb8
00000280: a6f1 54b6 8027 c4b7 827b 5bb7 8ffc 42b7
00000290: 0ef3 06b8 f644 4636 d4fa 5437 13a7 33b7
000002a0: db7e 00b8 fdb6 1cb8 817e 6037 130e de37
000002b0: 385b 0cb7 78d6 4537 d998 18b8 7f13 e336
000002c0: 8439 2db7 c430 e136 7d2f b9b8 0f4a 26b7
000002d0: e6ea 7a38 aedd 2b37 5432 a737 3134 88b8
000002e0: 430c 05ba 55cf 7338 ffd1 c337 4a2f 31b8
000002f0: 4e26 fab7 e613 6637 bf6c 02b8 e7df eb37
00000300: efa8 08b6 03f5 7137 a901 6537 4f7f dcb7
00000310: a376 0338 1082 57b6 4fb8 fd36 f2b3 0536
00000320: aa23 8bb7 5aa2 9238 0ae1 5db8 2d90 1637
00000330: ed95 a236 d4ca 8cb7 5643 8d37 0025 bbb7
00000340: 21cc 0438 d970 dbb7 4c9e 2738 8139 f1b4
00000350: 46e3 0f38 9f14 87b8 46c8 ee36 21cf bdb7
00000360: c373 0437 f3c1 b6b7 7ba1 4038 bb8b 7fb7
00000370: ffd5 e038 948e 99b8 c914 3c38 e27e 0438
00000380: 196b 49b8 7e16 4737 5afa 41b7 f4cd 7f38
00000390: 1a39 2438 a5d6 09b7 35a3 58b8 c213 cf37
000003a0: 8398 d635 ea44 3d37 b6d9 e737 e254 82b4
000003b0: 82a8 3c37 d7c8 08b7 c5f9 0638 34cb bd38
000003c0: e3b7 9bb8 bf08 4d38 b35f b0b7 7c6f 1b38
000003d0: 8e1c ba36 f9d5 9c37 c82f 3137 f3d2 d7b7
000003e0: f75c 2838 8ce2 4a38 abcf bcb7 0421 0e38
000003f0: b961 8c38 98d6 c937 88e6 2bb7 e8c6 29b8
-3.0128417e-06 3.2041848e-05 6.4551746e-06 -2.8694997e-06 2.6924636e-05 -1.1381288e-05 1.4247864e-05 3.6022586e-05
-6.274484e-06 1.5190733e-05 5.57511e-06 2.8473833e-05 6.6896578e-06 -8.12392e-06 6.9691405e-06 -7.960764e-06
1.8551435e-05 8.526808e-06 1.3497199e-05 1.4978776e-05 -1.6387017e-05 3.213424e-05 5.0040773e-05 -3.317332e-05
3.7359747e-05 1.6521923e-05 4.4045453e-05 -3.3173776e-05 5.2210853e-06 1.2789692e-05 -1.4907924e-05 2.3439241e-05
3.2952114e-05 -8.868757e-06 3.1514486e-05 -1.3451099e-05 0.0001333385 -3.0014471e-05 5.9762865e-06 -2.621748e-05
-5.0589533e-05 3.5180304e-07 -9.901269e-05 -1.638868e-05 -1.7581488e-07 1.4731995e-05 -3.2033786e-05 -1.5100199e-05
-3.6793874e-05 -8.547082e-05 3.6519694e-05 -6.3095635e-05 2.112417e-05 -8.627492e-05 -2.3137532e-05 -1.255691e-05
-5.1228908e-05 -2.5587853e-05 -4.04771e-05 -8.891632e-06 -2.5888608e-05 -3.0655607e-05 1.5547703e-05 -2.015487e-05
-4.535357e-05 -5.088448e-05 6.068524e-06 -5.813829e-05 -4.317372e-05 8.677321e-07 -4.0092428e-07 -2.3114462e-05
-0.0001385681 0.00030875436 0.0002086668 2.3863413e-06 -2.2926706e-05 -6.781233e-06 7.635938e-06 0.00021100383
1.5494254e-05 -2.7635135e-05 -1.7517732e-05 3.9642797e-05 0.00011865366 -5.140006e-06 8.958572e-05 -2.1754187e-05
3.6234083e-05 6.248448e-05 0.00013239308 -2.329237e-05 9.759994e-06 4.206015e-05 7.52641e-05 -2.4606723e-05
3.5961166e-06 0.00012709171 -3.625013e-05 4.684509e-05 -2.3802622e-05 0.0001395305 1.8772236e-05 -3.414005e-05
8.923312e-05 -2.337568e-05 1.00197385e-05 0.00010546801 1.4208928e-06 0.0003749219 0.0001345824 -0.000115841394
2.9100936e-06 6.532346e-05 -1.0431863e-05 5.75806e-05 -0.0001506389 -7.3158267e-06 5.530919e-05 4.4605815e-05
4.296177e-05 -0.00015855765 6.0057915e-05 3.4612065e-05 5.8479804e-06 7.1190916e-05 -0.00011876325 6.189787e-06
4.0860283e-07 5.412515e-05 3.7420832e-05 -0.00015020139 7.1704567e-06 4.365513e-05 4.1336134e-05 3.948597e-05
-9.508339e-05 -1.14957e-06 3.7282545e-05 9.107211e-07 9.074187e-05 -0.00016603382 3.297887e-05 3.906818e-05
3.594705e-05 6.915744e-05 -0.0002997745 -0.00084915746 -2.1433025e-05 -2.8500912e-05 2.3540215e-05 -1.753802e-06
1.206258e-05 7.9556486e-08 -3.4963017e-05 1.1175959e-05 -4.4400344e-06 4.6104124e-06 3.957395e-05 -4.116495e-05
-3.173112e-06 -2.3383414e-05 -1.3082174e-05 -1.16221045e-05 -3.2174452e-05 2.954444e-06 1.2694585e-05 -1.0708131e-05
-3.063572e-05 -3.736372e-05 1.3380894e-05 2.6471016e-05 -8.365889e-06 1.179205e-05 -3.6381974e-05 6.767397e-06
-1.0324995e-05 6.7111996e-06 -8.830333e-05 -9.911614e-06 5.982341e-05 1.0244008e-05 1.9931387e-05 -6.494707e-05
-0.00050753745 5.8128808e-05 2.3343599e-05 -4.224413e-05 -2.982016e-05 1.3713701e-05 -3.1095693e-05 2.8118446e-05
-2.0363912e-06 1.4421766e-05 1.364985e-05 -2.6285326e-05 3.1343323e-05 -3.2113203e-06 7.561444e-06 1.9923286e-06
-1.6586699e-05 6.992063e-05 -5.290009e-05 8.974265e-06 4.84543e-06 -1.678375e-05 1.6839866e-05 -2.2309367e-05
3.1661362e-05 -2.6159383e-05 3.9963328e-05 -4.4931588e-07 3.430552e-05 -6.4411426e-05 7.1162676e-06 -2.2627008e-05
7.894766e-06 -2.1786405e-05 4.5926758e-05 -1.5231718e-05 0.00010721012 -7.322166e-05 4.484205e-05 3.158942e-05
-4.8021877e-05 1.1866561e-05 -1.1561986e-05 6.0988546e-05 3.9153827e-05 -8.215812e-06 -5.165041e-05 2.4685523e-05
1.5988629e-06 1.1281323e-05 2.7638725e-05 -2.4276147e-07 1.1244907e-05 -8.152993e-06 3.2180706e-05 9.050072e-05
-7.4252275e-05 4.8883954e-05 -2.1025398e-05 3.7058708e-05 5.546556e-06 1.8696288e-05 1.0561147e-05 -2.5728228e-05
4.01409e-05 4.837154e-05 -2.250805e-05 3.3886186e-05 6.6939225e-05 2.4060995e-05 -1.0246069e-05 -4.0477986e-05

exp_avg_sq f4 [64, 37]
00000000: 91d6 a731 500e 0033 6506 5831 6511 d12f
00000010: f325 d431 9a34 6631 8297 b732 383e c731
00000020: c370 af31 f54c ce31 5889 3e32 33f4 4232
00000030: 29ae 6031 069a eb31 7ebf d131 12e6 ea31
00000040: 8a3b ed32 a2ec a431 a6b6 b530 e074 ce31
00000050: e5ff d331 1ab8 9032 e46e b831 e2d8 ed31
00000060: faac 1132 0cc8 0232 bdec bb32 8607 9a31
00000070: 5429 fe30 efe3 d631 aa9b 0732 d94b a432
00000080: 863c eb31 0988 be30 675c f331 f74d 1133
00000090: 978b 7635 4788 3a32 fb12 2b33 b56f 7c31
000000a0: abf4 4831 c7b6 3f32 5084 8d32 0a33 0533
000000b0: 2992 1032 f76c 8f31 73db 3332 a729 8732
000000c0: 782d 9d32 fa64 9232 a8f9 0f32 6add 5432
000000d0: 10a8 a831 c567 3133 23cf 2b32 fa49 3e31
000000e0: 7a40 4232 98da a332 b3a6 c432 44d0 1932
000000f0: df68 0232 d966 5e32 7ce7 3832 4830 1833
00000100: a24d 3e32 0a90 8f31 4ca4 3232 3540 8932
00000110: 2912 d332 4fbe 1d32 9a20 2832 b281 1a32
00000120: d4e0 b933 27c8 3836 a2bf db32 009c 8333
00000130: bf03 f831 6dfc 9631 ead2 6432 8143 2133
00000140: bd3a 2d33 7b19 0032 a663 4032 1c9e 8e32
00000150: d853 0833 a72c be32 41ce be32 856c 8b32
00000160: a3c1 8f32 db78 d732 9646 8f33 f449 fa31
00000170: 7098 3131 5f44 7132 2747 1a33 3d78 e032
00000180: c7d0 a932 88f2 6932 bde9 b332 7d15 fc32
00000190: 9d6f 4433 4421 6532 3345 0632 b6ff 6432
000001a0: bc63 f932 6f4b 1733 41ef 4532 abc0 a532
000001b0: a614 6332 5b9e 2234 1110 1736 6337 0d33
000001c0: 043f 5b33 2473 1632 fdc6 0131 4a94 7b32
000001d0: ad15 3a33 69fd a632 10d7 6032 2767 ce31
000001e0: 48aa ab32 bb22 1733 d0d7 a032 69a8 0f32
000001f0: a82e a232 44f3 1832 d08c 1833 9a3f 4833
00000200: 4ea2 3e32 b58b b831 f38d 7d32 0aa5 4333
00000210: e820 8332 7fe6 7f32 13d9 a931 4567 ae32
00000220: 9f1c 4d33 0eb7 c132 5139 2132 31b6 ce31
00000230: 54b3 8d32 632b 5533 6446 7c32 b16c a231
00000240: 593f 7532 0a6a 1332 4ffd a033 8036 7a36
00000250: 1c57 4532 b94b 2033 34b3 8831 0641 852f
00000260: 07af 2732 5b05 a732 547d 0533 5148 c731
00000270: ef7e 6d31 f669 2232 02ba e532 2f2c 6132
00000280: 937a 0232 569e 1532 f193 3532 ec5f 2c32
00000290: 3043 1d33 6f4b 6a31 8805 2531 72a0 0e32
000002a0: dd85 b132 52fc af32 cfc8 4832 b4ad f630
000002b0: fb40 5632 ed0a 8632 9458 1c33 f71e 8e31
000002c0: d1de 9231 b69d 2e32 506e 8232 2d1c c632
000002d0: da81 e631 1a54 3d32 6ffa dc31 0ad0 2f33
000002e0: c9ae c635 120e 8632 73c2 6133 1dde 9f31
000002f0: 0218 5631 009f 5732 86fa ca32 f0fc df32
00000300: b0e7 6b32 517e 9331 ea65 a732 bb5f 9232
00000310: 65de 8332 417e 8232 602a 7732 944d 4132
00000320: a868 ec31 ae2c 6d33 a2ce b731 b376 9431
00000330: 5cd7 4632 167e 0033 14dc 9432 199a 3a32
00000340: aa21 4b32 3ca7 8232 afb3 c232 1c5d 0633
00000350: 860f 6332 3966 2d31 c62f 7b32 baa7 7332
00000360: c1aa bc32 d2bd ab31 e217 d232 37e2 ec31
00000370: 4e6a c233 0979 f335 916f 6f32 9731 9b33
00000380: 5a66 9a32 4488 e831 002d ca32 3daa 6632
00000390: 841b 8633 8093 d132 f667 8e32 09eb cb32
000003a0: 3397 2333 8c5b 6e33 ba8c 4a32 022d a132
000003b0: b410 d532 9087 ff31 a1a1 9a33 48a3 6632
000003c0: a408 b332 510e b732 cffa 6333 5d16 7f33
000003d0: 3ea9 0932 fff3 ec31 0183 cb32 bba7 f832
000003e0: 02cc 7933 9375 3b32 896e 9e32 5805 a632
000003f0: 385a 0a33 bfa1 7d33 978e 3632 05af c732
4.884733e-09 2.981534e-08 3.1435772e-09 3.8029238e-10 6.1743264e-09 3.3499306e-09 2.1372902e-08 5.7987357e-09
5.10599e-09 6.004138e-09 1.1090684e-08 1.1347811e-08 3.2695289e-09 6.8569106e-09 6.1044707e-09 6.8364523e-09
2.7617507e-08 4.7999302e-09 1.3221395e-09 6.0086762e-09 6.17e-09 1.6847526e-08 5.3677116e-09 6.9222645e-09
8.479441e-09 7.612481e-09 2.1877321e-08 4.482845e-09 1.8492678e-09 6.2541328e-09 7.893428e-09 1.9126604e-08
6.846281e-09 1.3862983e-09 7.0827357e-09 3.3831352e-08 9.184527e-07 1.0857611e-08 3.9831303e-08 3.6734324e-09
2.9242908e-09 1.1159222e-08 1.647473e-08 3.1012895e-08 8.415136e-09 4.1742356e-09 1.0469068e-08 1.573501e-08
1.8297882e-08 1.7042556e-08 8.380461e-09 1.2390368e-08 4.90855e-09 4.13054e-08 1.00006075e-08 2.769069e-09
1.13069465e-08 1.9075102e-08 2.2893209e-08 8.953126e-09 7.590841e-09 1.2945486e-08 1.0762843e-08 3.543417e-08
1.1077107e-08 4.178223e-09 1.039832e-08 1.5978097e-08 2.4571891e-08 9.181874e-09 9.7863e-09 8.993469e-09
8.65563e-08 2.753464e-06 2.55821e-08 6.128539e-08 7.218176e-09 4.394272e-09 1.3319303e-08 3.7547128e-08
4.0333124e-08 7.456374e-09 1.1198528e-08 1.6602876e-08 3.1741223e-08 2.2139217e-08 2.2212705e-08 1.6231079e-08
1.6735447e-08 2.5084253e-08 6.671796e-08 7.284365e-09 2.584354e-09 1.4043592e-08 3.5920632e-08 2.613171e-08
1.976913e-08 1.361753e-08 2.0944634e-08 2.9346433e-08 4.5736318e-08 1.3337118e-08 7.815561e-09 1.3329489e-08
2.9032769e-08 3.5226034e-08 1.1521309e-08 1.9296143e-08 1.3217834e-08 1.5145035e-07 2.2510105e-06 3.2879495e-08
5.1047223e-08 8.757329e-09 1.8885082e-09 1.464384e-08 4.3326214e-08 1.9440181e-08 1.3087416e-08 6.007116e-09
1.9984455e-08 3.5189014e-08 1.8724592e-08 8.3619875e-09 1.8880499e-08 8.902877e-09 3.5518326e-08 4.6623974e-08
1.1096359e-08 5.3709877e-09 1.4758814e-08 4.5552078e-08 1.5265371e-08 1.4895362e-08 4.943226e-09 2.0303228e-08
4.7756313e-08 2.25514e-08 9.384466e-09 6.016102e-09 1.649611e-08 4.9632387e-08 1.46843355e-08 4.7271773e-09
1.42752805e-08 8.580637e-09 7.496657e-08 3.7284626e-06 1.1486716e-08 3.7321772e-08 3.978494e-09 2.423876e-10
9.760476e-09 1.9443794e-08 3.108046e-08 5.7998837e-09 3.4560192e-09 9.453734e-09 2.6743695e-08 1.310677e-08
7.594866e-09 8.708943e-09 1.0569225e-08 1.0033528e-08 3.6615518e-08 3.409436e-09 2.4013804e-09 8.301969e-09
2.0666386e-08 2.0487423e-08 1.1687191e-08 1.7948225e-09 1.2471214e-08 1.5604622e-08 3.640214e-08 4.136264e-09
4.2744905e-09 1.0163992e-08 1.5184156e-08 2.3063047e-08 6.7086434e-09 1.102037e-08 6.4313137e-09 4.0934573e-08
1.4803019e-06 1.5606052e-08 5.2563745e-08 4.6527604e-09 3.1154745e-09 1.25507995e-08 2.362982e-08 2.607564e-08
1.373148e-08 4.2926236e-09 1.9487704e-08 1.704017e-08 1.535154e-08 1.5191405e-08 1.4386927e-08 1.1251718e-08
6.880402e-09 5.52215e-08 5.3494924e-09 4.3208614e-09 1.1574084e-08 2.9916997e-08 1.7329548e-08 1.0861663e-08
1.18238095e-08 1.5210041e-08 2.2666283e-08 3.128399e-08 1.3216669e-08 2.523292e-09 1.4620985e-08 1.4182598e-08
2.196373e-08 4.998335e-09 2.4458078e-08 6.8942216e-09 9.053166e-08 1.8140137e-06 1.3936998e-08 7.22677e-08
1.7974504e-08 6.7675803e-09 2.3536359e-08 1.342647e-08 6.244866e-08 2.4397877e-08 1.6578252e-08 2.3739192e-08
3.808891e-08 5.5496955e-08 1.1789945e-08 1.8763334e-08 2.480406e-08 7.4368884e-09 7.200584e-08 1.3424888e-08
2.0842272e-08 2.1310514e-08 5.3080665e-08 5.9392153e-08 8.012931e-09 6.896243e-09 2.3691884e-08 2.8947275e-08
5.8160374e-08 1.0911566e-08 1.8443886e-08 1.9327373e-08 3.2212682e-08 5.905326e-08 1.06262155e-08 2.3246239e-08

exp_avg f4 [64]
00000000: bfcb 0838 d97c d3b8 7c27 3e39 ab6f 73b8
00000010: 5b1e ecb7 96d7 1d37 32ee 2838 b4a8 3bb9
00000020: d34b 4d39 a15a eeb7 d698 0c38 9f29 f336
00000030: a521 a336 2fb2 a3b6 1392 da38 63ee 8a36
00000040: fb76 1437 f859 e438 d02e 80b8 ee70 9838
00000050: a236 3039 a871 4139 430e c238 6c99 2b39
00000060: 960b 0337 e075 b7b8 c3b3 bbb8 c142 2439
00000070: 7c11 a136 99ec 8ab8 992a 39b9 ee11 a6b8
00000080: 815f 71b7 50f6 09b8 8d39 4eb7 e544 aab9
00000090: 0435 3c38 978f 40b6 8ae5 6438 4a1d 52b8
000000a0: b37e 6ab9 480b 89b8 e2a3 3036 3037 4cb5
000000b0: 5f45 0cb9 7f05 8338 4da2 8c39 8796 08b8
000000c0: fa4e de37 2261 75b9 5b60 1fb9 b987 51b6
000000d0: b14f 3bb7 2ad6 0bb9 4aa4 7a38 51cd 0638
000000e0: 62f0 c0b8 06fb cc37 62f6 36b7 f715 10b8
000000f0: 4e61 a8b8 d9a6 a638 5f63 9038 af7e 1539
3.261468e-05 -0.00010084519 0.00018134521 -5.8039714e-05 -2.8147528e-05 9.408124e-06 4.0276158e-05 -0.00017896557
0.0001957857 -2.8414013e-05 3.352094e-05 7.2468097e-06 4.8616953e-06 -4.878522e-06 0.000104222585 4.1404724e-06
8.84919e-06 0.00010888645 -6.112235e-05 7.2689596e-05 0.0001680502 0.00018448255 9.253297e-05 0.00016364985
7.810906e-06 -8.748076e-05 -8.950338e-05 0.00015665127 4.8002094e-06 -6.6244225e-05 -0.00017658844 -7.9188365e-05
-1.4386956e-05 -3.289274e-05 -1.2291956e-05 -0.00032476257 4.4872068e-05 -2.869381e-06 5.457321e-05 -5.009518e-05
-0.00022363178 -6.5347704e-05 2.6321436e-06 -7.607623e-07 -0.00013377283 6.2475905e-05 0.00026823804 -3.2565116e-05
2.6501239e-05 -0.00023401206 -0.00015199317 -3.1222428e-06 -1.1164623e-05 -0.00013335855 5.975765e-05 3.2139305e-05
-9.200048e-05 2.4435587e-05 -1.0905411e-05 -3.435273e-05 -8.028989e-05 7.9465746e-05 6.8849644e-05 0.0001425694

exp_avg_sq f4 [64]
00000000: 4a0f 3133 e06c 8433 eb54 de33 7d56 d133
00000010: 2a60 6233 15ff a533 ddc2 f833 aa53 bd33
00000020: d678 8f34 2c97 6a33 b1fe 2033 1659 9f33
00000030: 5317 9734 3c03 de2f 326d 7033 1f82 0832
00000040: eecf 0c33 e50d 7433 c9b0 1633 58d0 5633
00000050: a358 b734 b776 ca33 0515 8434 b8a8 2534
00000060: 31ca 8f33 4feb 7a33 2a81 7c33 c465 2434
00000070: 96d1 e133 892a 2634 9b7d 0934 2e54 0f34
00000080: e02c 0634 5a34 a632 40a6 8533 e6fe e133
00000090: 09a7 7433 1dce 8233 b695 5233 68c7 f333
000000a0: dc41 b833 94a8 4734 46b3 e333 ee97 ce31
000000b0: 32c6 1633 3a8c 9033 3c54 ab34 317c be33
000000c0: f080 7c33 8df2 0934 ede7 3533 88f5 7933
000000d0: 7b0a 8c33 3e5a 2233 9a08 4333 96cb 0a34
000000e0: 64c9 7833 fe1a 6033 bd75 be33 bc63 c133
000000f0: eed5 0733 e7e4 9a33 2fbb a734 a836 8333
4.122493e-08 6.166533e-08 1.0353127e-07 9.748053e-08 5.2707186e-08 7.7298104e-08 1.1583845e-07 8.816217e-08
2.6723745e-07 5.461986e-08 3.7484543e-08 7.420219e-08 2.8142912e-07 4.0383863e-10 5.5978667e-08 7.945828e-09
3.27854e-08 5.6823314e-08 3.508538e-08 5.0015245e-08 3.4150898e-07 9.427952e-08 2.460221e-07 1.5428202e-07
6.695735e-08 5.8421673e-08 5.8790796e-08 1.5310712e-07 1.05155024e-07 1.5475429e-07 1.2804814e-07 1.3348537e-07
1.2496048e-07 1.934875e-08 6.223536e-08 1.0523745e-07 5.6962595e-08 6.0910885e-08 4.9030596e-08 1.1351841e-07
8.5801474e-08 1.8594648e-07 1.0603121e-07 6.0126615e-09 3.5104854e-08 6.7310296e-08 3.191252e-07 8.870155e-08
5.879059e-08 1.2847359e-07 4.235328e-08 5.819814e-08 6.5211644e-08 3.780064e-08 4.54098e-08 1.2926316e-07
5.7925163e-08 5.2178613e-08 8.868981e-08 9.0054044e-08 3.1626705e-08 7.212821e-08 3.1242368e-07 6.110105e-08

exp_avg f4 [64, 64]
00000000: 4416 2f36 b90f d8b6 2137 d4b4 1812 1bb7
00000010: c99a 28b6 f000 a3b6 b9a9 f9b6 50c4 1936
00000020: 432a 8bb6 d0da cbb7 36f3 8236 b586 bdb7
00000030: 5910 83b7 42bd ce2f 4c43 08b8 cf9d 8e35
00000040: 2fe5 e1b5 0174 c3b7 fdb1 c836 302b a337
00000050: 1bdc 0535 5790 95b5 cf14 f6b6 10f7 d135
00000060: 2bdd 26b8 ebed deb7 d1f2 98b6 4198 3836
00000070: 7f54 46b8 0c9d 6c37 d6c2 ad36 1d2a 9037
00000080: f2a2 4b37 7a4e 6fb5 728c 38b5 0c18 f5b6
00000090: c100 a3b7 1a66 61b7 ee64 8037 dbf2 9437
000000a0: c669 8936 9e8c 8fb6 5427 b736 9a5c 2530
000000b0: cdf1 4e34 5add 4c37 6a34 9cb7 d082 8bb8
000000c0: a247 33b8 7422 a5b7 3a82 75b7 23d4 afb4
000000d0: da37 a137 251c 0737 4afa c436 eaa9 0d36
000000e0: 821a 7f35 d393 6db7 2da6 2eb8 f1f5 4cb7
000000f0: 4f79 0136 8000 a0b7 37ce 62b7 7274 cdb7
00000100: 1366 44b6 2550 bd37 7f68 8fb8 c6b7 9f36
00000110: 6e3d fab8 8837 e436 7b56 1c37 37be 8636
00000120: 3a71 a3b7 5f68 6d36 d9e1 46b9 8799 9c38
00000130: 2602 1ab9 52f9 93b2 02bd a438 4601 72b6
00000140: 7884 e337 82f8 db37 b448 80b8 82c7 53b9
00000150: e62e 3bb8 a5f3 0437 0efe ceb8 e613 8738
00000160: 0ed1 88b7 3084 e837 d875 1039 878e fb37
00000170: a492 8cb7 9420 52b8 4e9d 1638 3d89 2db8
00000180: e6f4 acb8 1a51 2038 d9ee 54b7 0695 6d38
00000190: 1323 8338 049b cab7 834a 11b9 2ce9 5eb8
000001a0: 1ed5 c538 1677 3d37 eb78 0ab8 5a57 37b4
000001b0: 1246 0ab7 ed86 99b8 ce77 dbb8 3da3 1db6
000001c0: 46aa 0138 92ed 4b38 f005 bbb6 28a2 2fb7
000001d0: 1596 d4b8 8ffb f0b8 9d9a 9f38 a724 9337
000001e0: 2beb 3cb7 d3a6 fdb7 a31f 4738 be0b fbb7
000001f0: 4db1 5ab8 e4be a138 b456 90b8 5d3f 9937
00000200: bb9c 4437 240a 8838 5c8a 2739 ab90 0637
00000210: 8658 9b37 659b c737 b6a3 cd36 1572 7a38
00000220: f802 6938 45c7 ae38 cd61 b338 8c61 e7b6
00000230: e0c7 7e38 6259 8834 eead 8d37 a346 4035
00000240: acdb 1738 a503 08b7 20d9 f237 b28a 3138
00000250: 9d13 db38 a189 cc37 e289 0e38 2505 8b38
00000260: c81c c337 9917 f338 2966 3938 365b 5338
00000270: eb78 4038 e53f 2d39 90e4 7238 e686 b437
00000280: 6aa5 a638 3b01 d136 14ea ac36 deff 0739
00000290: 2a01 c4b5 c18a 2238 e77f 0938 b94c 5838
000002a0: cb10 a937 e79b a537 ca1e 4535 e89a c135
000002b0: 15fe 2337 0b70 2d37 de9f 9838 13d2 8b38
000002c0: df9e 7039 1b4b 6938 e7a6 02b7 dc74 01b7
000002d0: fffa 1d38 c026 9037 e707 9138 a2e9 ef37
000002e0: 66c7 b038 07eb 4238 a915 0d38 706b 7038
000002f0: 28d4 8536 fba2 0438 7a17 dd37 1f82 0ab7
00000300: 319e a737 87e7 b737 f846 34b9 f80a 1bb9
00000310: d4a8 3ab8 d40c aa37 6705 0c37 0cda a7b8
00000320: 4b06 22b8 e5a9 5fb8 531d a6b9 f0b7 05b8
00000330: 479e 5fb8 7f2e b6b4 0e55 b636 2091 1136
00000340: f54e 6737 58f8 65b5 28a4 dbb8 e03d b4b8
00000350: ac12 2637 3500 2c36 270e 7b37 a27a 00b9
00000360: 9266 7237 d8df 3ab7 04e2 3e37 63db e137
00000370: 0660 cfb7 4087 71b8 b25b 4f38 8dd1 d0b8
00000380: d786 ddb7 3984 b8b8 ec20 4036 fc6a 8bb9
00000390: 220e 5d37 423c f037 d37e 91b8 7e56 7bb9
000003a0: 1612 c3b9 1d4c a337 4ffd 1037 fb37 9d33
000003b0: 5f43 edb8 d176 d9b9 fe06 f4b8 be0a ae38
000003c0: 8376 e237 55e5 5138 8c36 a0b8 ed47 06b7
000003d0: d386 20b9 d834 1fb9 331c 53b9 ddfe 3db8
000003e0: 3153 f3b8 7f50 9a37 83a0 99b7 8e5f 53b6
000003f0: 7287 0fb9 87c0 9938 f3b0 04b9 53fd 3036
2.6089992e-06 -6.439132e-06 -3.952819e-07 -9.242933e-06 -2.5124048e-06 -4.8578877e-06 -7.4405366e-06 2.2913046e-06
-4.1474427e-06 -2.4301378e-05 3.9026154e-06 -2.2593284e-05 -1.562403e-05 3.7605657e-10 -3.2487602e-05 1.0625753e-06
-1.6830508e-06 -2.329983e-05 5.981185e-06 1.9451225e-05 4.9866657e-07 -1.1143374e-06 -7.3337937e-06 1.5643618e-06
-3.9783463e-05 -2.6575251e-05 -4.5582206e-06 2.750676e-06 -4.728557e-05 1.41032615e-05 5.1784837e-06 1.7185748e-05
1.2137682e-05 -8.9148637e-07 -6.8749716e-07 -7.3043684e-06 -1.9431465e-05 -1.3434817e-05 1.5305788e-05 1.7756063e-05
4.095232e-06 -4.278102e-06 5.4584034e-06 6.0158245e-10 1.9273212e-07 1.2210885e-05 -1.8621056e-05 -6.652402e-05
-4.274364e-05 -1.9685576e-05 -1.4633459e-05 -3.275064e-07 1.9218704e-05 8.05318e-06 5.8703927e-06 2.110954e-06
9.5033477e-07 -1.4160719e-05 -4.1639596e-05 -1.221661e-05 1.9293109e-06 -1.907372e-05 -1.3518663e-05 -2.4492128e-05
-2.926569e-06 2.2567876e-05 -6.838235e-05 4.7599633e-06 -0.00011932371 6.801394e-06 9.31846e-06 4.015655e-06
-1.948384e-05 3.5376504e-06 -0.00018966886 7.4672564e-05 -0.00014687385 -1.722643e-08 7.855335e-05 -3.6061551e-06
2.7122194e-05 2.6222555e-05 -6.117058e-05 -0.0002019685 -4.4627952e-05 7.924541e-06 -9.870167e-05 6.441008e-05
-1.6309812e-05 2.771811e-05 0.0001377681 2.9987901e-05 -1.6757585e-05 -5.0098242e-05 3.590929e-05 -4.1374227e-05
-8.247215e-05 3.8222504e-05 -1.2691796e-05 5.6643992e-05 6.2531e-05 -2.4152461e-05 -0.00013856035 -5.3146083e-05
9.433388e-05 1.1293005e-05 -3.3014378e-05 -1.7074981e-07 -8.2417555e-06 -7.3207404e-05 -0.00010465049 -2.348984e-06
3.0914576e-05 4.8620226e-05 -5.5737255e-06 -1.0468568e-05 -0.00010136903 -0.00011490948 7.61051e-05 1.7540833e-05
-1.12604275e-05 -3.0237634e-05 4.747476e-05 -2.9927e-05 -5.2140374e-05 7.7126344e-05 -6.882605e-05 1.8268527e-05
1.1719002e-05 6.486874e-05 0.00015977904 8.0207055e-06 1.8518662e-05 2.379501e-05 6.1285346e-06 5.9710892e-05
5.5554294e-05 8.3340834e-05 8.553602e-05 -6.8956924e-06 6.0744467e-05 2.539701e-07 1.6889502e-05 7.1628364e-07
3.620579e-05 -8.10708e-06 2.8949755e-05 4.232926e-05 0.00010446387 2.4382784e-05 3.398385e-05 6.628995e-05
2.3259214e-05 0.00011591538 4.420258e-05 5.0391267e-05 4.588898e-05 0.00016522368 5.791016e-05 2.152049e-05
7.9463076e-05 6.2288286e-06 5.1532497e-06 0.00012969921 -1.4603477e-06 3.8753034e-05 3.2782464e-05 5.1569867e-05
2.015419e-05 1.974213e-05 7.3433023e-07 1.4424704e-06 9.774715e-06 1.0337691e-05 7.2777024e-05 6.667166e-05
0.00022947368 5.5621476e-05 -7.787464e-06 -7.716208e-06 3.7665475e-05 1.7184182e-05 6.915611e-05 2.8599814e-05
8.429475e-05 4.647209e-05 3.3637192e-05 5.7320518e-05 3.988407e-06 3.162304e-05 2.6356185e-05 -8.255737e-06
1.9981615e-05 2.1923113e-05 -0.00017192576 -0.00014786038 -4.450309e-05 2.0271553e-05 8.345908e-06 -8.003795e-05
-3.862967e-05 -5.332557e-05 -0.00031683836 -3.1880976e-05 -5.331475e-05 -3.3933972e-07 5.4339243e-06 2.1691158e-06
1.3787057e-05 -8.5670536e-07 -0.0001047331 -8.594594e-05 9.898718e-06 2.5630118e-06 1.4964061e-05 -0.00012252716
1.4448206e-05 -1.1138582e-05 1.1377506e-05 2.692425e-05 -2.4721037e-05 -5.758484e-05 4.9438044e-05 -9.957245e-05
-2.6408043e-05 -8.798432e-05 2.8629393e-06 -0.00026591856 1.3175917e-05 2.863829e-05 -6.937762e-05 -0.00023969446
-0.00037206773 1.9466557e-05 8.642047e-06 7.321065e-08 -0.000113135895 -0.0004147799 -0.00011636129 8.2989674e-05
2.6996486e-05 5.0043065e-05 -7.639555e-05 -8.003769e-06 -0.00015309015 -0.00015183107 -0.00020133033 -4.529847e-05
-0.000116026386 1.8395715e-05 -1.8313765e-05 -3.149707e-06 -0.00013688 7.3314695e-05 -0.0001265442 2.6373498e-06
