p1_navigation/checkpoint_DQN_2019_01_25_22h13m18s.pth (torch_old, 85118 bytes, 18 tensors)

hidden_layers.0.weight f4 [64, 37]
0	0xbe5d9864	-0.21640164
1	0xbbb3146c	-0.005465081
2	0xbdb9026d	-0.09033666
3	0xbe32cdf1	-0.17461373
4	0xbdc8ace0	-0.09798598
5	0xbe90b020	-0.28259373
6	0xbde691f5	-0.11258308
7	0xbc2b659e	-0.010461239
8	0x3e8f2264	0.27955925
9	0x3f62f204	0.88650537
10	0xbd633f1e	-0.055480115
11	0xbd14333a	-0.036181666
12	0x3d3a9d7c	0.045560345
13	0x3ba7b0a8	0.0051174946
14	0x3e2c0ba1	0.16801311
15	0xbe6605f8	-0.22463214
16	0xbd815c55	-0.06316439
17	0x3c9c487c	0.019077532
18	0x3cb98b5c	0.02264946
19	0x3d394548	0.045232087
20	0xbd878c82	-0.066185966
21	0xbe547031	-0.20745923
22	0xbd90f449	-0.07077844
23	0x3d354e05	0.04426386
24	0x3e311409	0.17292799
25	0xbe82f9bf	-0.25581166
26	0xbe2c317a	-0.16815749
27	0xbe004ed9	-0.12530078
28	0x3d993da6	0.07482462
29	0x3ee67828	0.45013547
30	0xbde47fc4	-0.11157182
31	0xbe88a5d0	-0.26689005
32	0x3d48b2f1	0.048998777
33	0x3dcbd695	0.09953038
34	0x3ee659e8	0.44990468
35	0x3bafbd4a	0.005363141
36	0x3b19bcce	0.0023458484
37	0x3d226d44	0.039654985
38	0x3d12c6e5	0.03583421
39	0x3d4318e3	0.047631156
40	0x3e2bacd6	0.1676515
41	0x3e0cc27c	0.13746065
42	0xbd514642	-0.051092394
43	0x3cdd9b46	0.02705158
44	0x3d7183b7	0.058963504
45	0x3e8f9872	0.28045994
46	0x3e940116	0.28907079
47	0x3c287cbd	0.010283646
48	0xbc43e48b	-0.011956344
49	0x3c93d755	0.018047014
50	0x3d286230	0.041109264
51	0x3dbf93c4	0.09354356
52	0x3d1afacd	0.03783684
53	0x3ca39e99	0.019973086
54	0x3d825537	0.0636391
55	0xbe01aad0	-0.12662816
56	0xbe83fd97	-0.2577941
57	0x3ca9d255	0.020730177
58	0xbc8a2646	-0.016863953
59	0x3951bf0c	0.00020002964
60	0xbcd9e67e	-0.026599165
61	0xbd3e7b05	-0.04650404
62	0x3e8cdf08	0.2751391
63	0xbf18daac	-0.59708667
64	0xbefad581	-0.48991016
65	0xbef146a0	-0.47124195
66	0xbfcf2466	-1.6182983
67	0xbb1b27b7	-0.0023674795
68	0xbcdcb09d	-0.026939685
69	0xbd3bb6f9	-0.045828793
70	0x3c385080	0.011249661
71	0xbc49cafc	-0.012316462
72	0xbc4ce534	-0.012505818
73	0x3c381157	0.011234603
74	0xbdcec6d3	-0.100965165
75	0xbe80cbf5	-0.25155607
76	0xbc40a243	-0.011757436
77	0xbc01fb65	-0.007933472
78	0xbd95cc05	-0.07314304
79	0xbdbecdfa	-0.09316631
80	0xbdfd1325	-0.12357167
81	0xbd11b0e3	-0.035569083
82	0xbe7d24c5	-0.24721058
83	0xbbceb307	-0.006307963
84	0xbe5d40e7	-0.2160679
85	0xbe83ff8e	-0.2578091
86	0xbd89b08d	-0.067231275
87	0xbde308dd	-0.11085675
88	0x3da5ee53	0.08102097
89	0xbd6576dc	-0.056021556
90	0x3d4a70d8	0.049424022
91	0x3d59320c	0.053026244
92	0x3e0981c2	0.13428405
93	0x3d8abaa0	0.06773877
94	0xbef1498d	-0.47126427
95	0x3c91936a	0.017770488
96	0x3e419e45	0.18908031
97	0x3dcd2c06	0.100181624
98	0xbe851dde	-0.2599935
99	0xbe22389b	-0.15841906
100	0xbe358593	-0.17726736
101	0x3e8bae5f	0.27281472
102	0x3e614560	0.2199912
103	0x3e6dc8a1	0.23221065
104	0xbe31051a	-0.17287102
105	0xbcd39e2c	-0.025832258
106	0xbb59bc0d	-0.003322366
107	0x3ba211fd	0.004945992
108	0x3ee0f942	0.4394017
109	0xbc8cdfb8	-0.017196521
110	0xbca7ed2b	-0.020498833
111	0x3d97ea75	0.07417766
112	0x3db6345f	0.08896708
113	0x3db7f4da	0.089822486
114	0x3d6dee79	0.058088753
115	0x3ba81241	0.005129129
116	0x3e224edd	0.15850396
117	0xbf400249	-0.75003487
118	0xbe03c9e5	-0.12869985
119	0xbeb6e401	-0.35720828
120	0xbf62d8ce	-0.8861207
121	0x3bac6cc5	0.00526199
122	0xbd0327be	-0.032020323
123	0xbcd6f75c	-0.026240997
124	0xbdff6897	-0.12471121
125	0xbdcbb54d	-0.0994669
126	0x3d989636	0.074505255
127	0x3cd37234	0.025811292
128	0x3dc88511	0.097910054
129	0x3db0e102	0.08636667
130	0x3a84fc6a	0.0010146026
131	0x3e193f05	0.14965446
132	0x3cd4f709	0.025996702
133	0x3dc1f347	0.094702296
134	0x3c4a6bca	0.0123548005
135	0xbd99c343	-0.07507946
136	0x3a3b423d	0.0007143354
137	0x3cb76868	0.022388652
138	0xbcc88c24	-0.024480887
139	0xbd282af0	-0.041056573
140	0x3c66ed22	0.014094623
141	0x3e700c0e	0.23442098
142	0x3e71ca8d	0.23612423
143	0xbdf76879	-0.120804735
144	0xbd33ea1c	-0.043924436
145	0xbf0c84c6	-0.54890096
146	0xbcb1d2eb	-0.021707019
147	0xbbd00189	-0.0063478393
148	0xbebafbe0	-0.3652029
149	0x3e94209e	0.28931135
150	0xbcef9220	-0.029244483
151	0x3d48ec83	0.04905368
152	0xbe2987fd	-0.16555782
153	0xbf37a0de	-0.7172984
154	0x3dd6d901	0.10490609
155	0xbe7fa850	-0.2496655
156	0xbe4773b6	-0.19477734
157	0xbfca2fc0	-1.5795822
158	0x3bf0ed82	0.007352532
159	0xbca93ed8	-0.020659849
160	0x3cc90245	0.024537215
161	0x3de9b806	0.11412053
162	0x3e49653c	0.19667524
163	0x3c642bd0	0.013926461
164	0x3d1fbf64	0.039000884
165	0x3d50aaa7	0.050943997
166	0xbef10969	-0.47077492
167	0x3ec4a1fd	0.38404837
168	0xbe986878	-0.29767203
169	0x3e2e194b	0.17001836
170	0xbd7f02bc	-0.062258467
171	0xbe0298ce	-0.12753603
172	0x3dd06d0b	0.10177048
173	0xbf2a066e	-0.6641606
174	0x3de8d66d	0.113690235
175	0x3c463d9f	0.012099653
176	0xbe5f3c95	-0.21800454
177	0xbf8112ca	-1.0083859
178	0xbf0c967e	-0.5491713
179	0x3e032da5	0.12810381
180	0xbd339910	-0.043847144
181	0xbcb8a4ba	-0.022539485
182	0xbe90d816	-0.2828986
183	0x3e041e2f	0.12902139
184	0xbcbb0de2	-0.022833768
185	0xbd205d0f	-0.039151248
186	0xbd3f8066	-0.04675331
187	0xbb8bb94c	-0.0042640325
188	0x3bb4896c	0.005509546
189	0x3ba2b702	0.004965664
190	0x3e680364	0.22657543
191	0xbf052d28	-0.5202203
192	0xbf20957c	-0.62728095
193	0xbf51e1e0	-0.8198528
194	0xc01156f9	-2.2709334
195	0x3d5bd6e0	0.053671718
196	0x3d8d8a39	0.069111295
197	0x3d419200	0.047258377
198	0x3ce23498	0.02761297
199	0xbd697182	-0.056993015
200	0x3dfbc1b0	0.12292802
201	0x3dcc7eb4	0.09985104
202	0x3de930e6	0.1138628
203	0x3e0b6d7a	0.1361598
204	0x3cb41849	0.021984236
205	0x3d16a85d	0.036781657
206	0x3d77cfe5	0.060500998
207	0x3d2f61fe	0.042818062
208	0x3da9f612	0.08298887
209	0x3d44ae89	0.048018012
210	0x3d98173e	0.07426308
211	0x3da97f16	0.08276193
212	0x3dddc0a3	0.10827758
213	0x3e73d584	0.23811918
214	0x3e34ad17	0.17644154
215	0x3d775f25	0.06039347
216	0x3ced62ca	0.02897777
217	0x3da0d0c4	0.07852319
218	0x3df3829a	0.11890145
219	0x3dcf075a	0.10108824
220	0xbc0dcc2c	-0.008654635
221	0x3b884a32	0.0041592354
222	0xbe6be197	-0.23035274
223	0xbd98a568	-0.07453424
224	0xbe08b830	-0.13351512
225	0xbd97de0d	-0.074154
226	0x3bd2ea15	0.006436596
227	0xbe6806c5	-0.22658832
228	0xbf0b2715	-0.5435651
229	0xbe9ffbcf	-0.31246802
230	0x3e872ecf	0.264029
231	0x3f32bff4	0.6982415
232	0xbdafc95c	-0.08583328
233	0xbccf9bc2	-0.025342826
234	0xbcb35847	-0.02189268
235	0x3b221a58	0.002473494
236	0x3d973fc6	0.07385211
237	0xbe78a794	-0.24282676
238	0x3dc5d1df	0.0965917
239	0xbc6a9f39	-0.014320188
240	0xbbf6fca6	-0.0075374423
241	0x3e1ddd67	0.1541649
242	0xbe14c934	-0.14529878
243	0xbdac95bc	-0.08426997
244	0xbdd66e3b	-0.104702435
245	0x3decb77c	0.11558434
246	0x3e161bd1	0.14659049
247	0xbe175bab	-0.14781062
248	0xbe63f2f2	-0.22260645
249	0xbd03b2f2	-0.032153077
250	0x3eb2804d	0.3486351
251	0x3ec33b4d	0.3813118
252	0xba74391f	-0.0009316373
253	0xbdaefedc	-0.08544704
254	0x3d0e78d2	0.034783192
255	0x3dd59827	0.104294114

hidden_layers.0.bias f4 [64]
0	0xbd40fa73	-0.047113847
1	0xbd1d8f9f	-0.038467046
2	0xbe797f03	-0.24364857
3	0x3d0c9765	0.03432407
4	0x3c68c8a9	0.014207997
5	0x3d0b6996	0.03403624
6	0xbe2fcd5d	-0.17168184
7	0xbe5df08f	-0.21673797
8	0xbe0492b1	-0.12946583
9	0xbe5fad49	-0.21843447
10	0xbd8deb51	-0.06929649
11	0xbe3aff14	-0.18261367
12	0xbe2dd6e6	-0.16976508
13	0x3d2e2092	0.04251153
14	0xbd46b068	-0.048508078
15	0xbdb095b3	-0.08622303
16	0xbdfcabcd	-0.12337456
17	0xbe350798	-0.17678678
18	0x3dd88d94	0.10573879
19	0xbc32c2af	-0.010910674
20	0xbdf44840	-0.11927843
21	0x3d2d0833	0.042244148
22	0xbded80f9	-0.11596865
23	0xbca0234d	-0.019548083
24	0xbd47bf12	-0.048766203
25	0xbe8618cc	-0.26190794
26	0xbd8ced0b	-0.0688115
27	0xbe81da39	-0.25361803
28	0x3d5a80a6	0.053345345
29	0xbcfe2705	-0.031024465
30	0x3b5b11d9	0.0033427386
31	0xbde6dff2	-0.11273183
32	0xbe232eef	-0.15935872
33	0xbd7b8924	-0.061410084
34	0xbc9db878	-0.019253
35	0x3c1ac7c4	0.009447042
36	0x3dad12c2	0.084508434
37	0xbe4fdb8d	-0.20298596
38	0x3d14c548	0.036320955
39	0xbe814fa3	-0.2525607
40	0x3db8f93f	0.09031915
41	0xbd8e8f40	-0.069609165
42	0xbc5deb37	-0.013544849
43	0xbe778ea7	-0.24175511
44	0x3c835794	0.016032971
45	0xbe6fd8ba	-0.23422518
46	0xbd92460d	-0.071422674
47	0xbe847691	-0.2587171
48	0xbe68950c	-0.22713107
49	0xbd8012be	-0.06253575
50	0x3d0c0764	0.034186736
51	0xba4f82cb	-0.0007915913
52	0xbd66b795	-0.05632742
53	0xbe46e2e7	-0.19422494
54	0x3d70df89	0.05880693
55	0xbe06a9d9	-0.13150729
56	0xbe1b0241	-0.15137579
57	0xbe791672	-0.24324968
58	0xbd87ba22	-0.06627299
59	0xbe5a22cb	-0.21302335
60	0xbb02fba0	-0.0019986406
61	0xbe648da3	-0.22319655
62	0xbd2fee60	-0.04295194
63	0xbe11a5ea	-0.14223447

hidden_layers.1.weight f4 [64, 64]
0	0xbde17789	-0.11009128
1	0x3e099ace	0.1343796
2	0x3c6ed19e	0.014576344
3	0xbcf6e4a6	-0.030138325
4	0xbd5e1427	-0.054218438
5	0x3d4f9ceb	0.050686758
6	0x3d8725af	0.065989845
7	0xbe5f4b73	-0.21806125
8	0xbf295a3c	-0.6615331
9	0xbd10d940	-0.035363436
10	0xbe15a771	-0.14614655
11	0x3d54a6e0	0.051916957
12	0xbdf4d70d	-0.1195508
13	0xbe07e530	-0.13271022
14	0x3d727cb9	0.059200976
15	0xbd7505db	-0.059820037
16	0xbe8def30	-0.27721548
17	0xbe7517ef	-0.23934911
18	0x3c20e4b7	0.009820155
19	0xbe4483d7	-0.19190918
20	0x3caeb9a2	0.021328751
21	0xbdae3b96	-0.08507459
22	0xbe35f43d	-0.17768951
23	0xbe241787	-0.160246
24	0x3e4998fd	0.19687267
25	0xbe99bdca	-0.3002761
26	0xbc9ab78a	-0.018886346
27	0x3ab2e88f	0.001364963
28	0x3d3c6e2f	0.046003517
29	0xbe31a6f3	-0.17348842
30	0x3d08215e	0.033234946
31	0xbc342e5c	-0.010997381
32	0x3e1eae81	0.15496255
33	0xbda4ed24	-0.080530435
34	0xbe065368	-0.13117754
35	0x3d443241	0.04789949
36	0x3ce428d4	0.0278515
37	0xbe8d2203	-0.2756501
38	0x3d0bb8df	0.034111854
39	0x3c900dfc	0.017584793
40	0x3dcd5718	0.100263774
41	0x3dab100b	0.08352669
42	0x3e105b90	0.14097428
43	0xbc9a3837	-0.018825633
44	0xbddad348	-0.1068483
45	0x3c979a1d	0.018506104
46	0xbe827475	-0.25479475
47	0xbeb4cc44	-0.35312092
48	0xbdc98056	-0.09838931
49	0x3cb84391	0.022493156
50	0xbea7d280	-0.32777786
51	0xbdfd60aa	-0.12371953
52	0xbda7732a	-0.08176263
53	0x3cf27b8c	0.029599927
54	0x3e9f6221	0.31129554
55	0xbe45d9ae	-0.1932132
56	0x3e2d7a45	0.16941173
57	0xbe816986	-0.2527582
58	0xbd7616b8	-0.06008026
59	0x3d12d6bb	0.035849314
60	0x3b7c4c23	0.003849753
61	0xbd864160	-0.06555438
62	0x3e8c1141	0.27356914
63	0xbe4adc78	-0.19810665
64	0xbc8ff7a3	-0.017574137
65	0x3d606700	0.05478573
66	0x3cdefd81	0.02722049
67	0x3b8ca35a	0.004291934
68	0xbcc063a2	-0.023485009
69	0xbe573619	-0.2101673
70	0xbac5445a	-0.0015050278
71	0xbbb97246	-0.0056593744
72	0xbcdbb05c	-0.026817493
73	0xbc8ff915	-0.017574826
74	0xbc061838	-0.008184485
75	0xbf17688c	-0.591439
76	0xbd036f0b	-0.03208832
77	0xbcc61055	-0.02417771
78	0xbbc059d4	-0.0058700833
79	0x3e615dea	0.22008482
80	0xbe3aa0ca	-0.18225399
81	0xbe36f92b	-0.17868488
82	0xbdc60888	-0.09669596
83	0x3d19a9a3	0.037515294
84	0xbe1f695f	-0.1556754
85	0xbdace004	-0.08441165
86	0x3c99c953	0.018772757
87	0xbf04cd4e	-0.5187577
88	0xbe086328	-0.13319075
89	0xbd8725d1	-0.0659901
90	0x3d47b09a	0.048752405
91	0xbd363762	-0.04448641
92	0xbe9d1acd	-0.3068451
93	0x3bd04390	0.0063557103
94	0xbe1b6d3a	-0.15178385
95	0xbcc768c7	-0.024341954
96	0xbdf30931	-0.118669875
97	0xbd196c17	-0.037456598
98	0x3d4bec0a	0.04978565
99	0xbdc9eee6	-0.098600194
100	0xbe0b77e1	-0.13619949
101	0xbd79f786	-0.061027072
102	0x3e12b7fa	0.14327994
103	0x3ce2a202	0.027665142
104	0xbe81dd3c	-0.253641
105	0xbdb06423	-0.086128496
106	0x3f0b66c7	0.544537
107	0x3e9a086d	0.30084553
108	0xbd9f83ca	-0.07788809
109	0xbd0bcea7	-0.034132626
110	0x3e923503	0.2855607
111	0x3e09bb6f	0.13450406
112	0x3c3cdde9	0.011527517
113	0x3e01508f	0.12628387
114	0xbd1b8164	-0.037965193
115	0xbec9a86f	-0.39386317
116	0x3cb5633a	0.022142041
117	0xbc705e26	-0.014670884
118	0x3f566a5f	0.8375606
119	0x3c85c165	0.01632757
120	0x3e176490	0.14784455
121	0xbd18b6db	-0.03728376
122	0x3d08a11c	0.03335677
123	0x3e047a52	0.12937286
124	0x3d7850c6	0.060623907
125	0x3da39d4e	0.07988988
126	0xbe5db8b8	-0.21652496
127	0xbd48ce5b	-0.04902492
128	0xbb834288	-0.004005734
129	0x3db98058	0.09057683
130	0xbd9b7273	-0.07590189
131	0x3d53f970	0.051751554
132	0xbd5fc00a	-0.054626502
133	0x3cb74672	0.022372458
134	0xbd946b6b	-0.07247051
135	0x3e1f82f8	0.15577304
136	0xbc7a3bec	-0.015273076
137	0xbdf7ee80	-0.12106037
138	0xbd206bfb	-0.03916548
139	0x3e02c556	0.1277059
140	0x3daa209e	0.083070025
141	0xbcf0baba	-0.029385913
142	0xbc38e276	-0.011284461
143	0x3e073453	0.13203554
144	0xbdbacfc2	-0.09121658
145	0xbe6ca9d0	-0.23111653
146	0xbd3716ba	-0.044699408
147	0x3e2b8870	0.16751266
148	0xbe91cc6a	-0.28476268
149	0xbe3c916f	-0.18414854
150	0xbcbe585e	-0.023235496
151	0x3e851e3f	0.25999638
152	0xbbe38852	-0.006943741
153	0xbdd35a3b	-0.103199445
154	0x3def60ad	0.11688361
155	0xbd4bf685	-0.049795646
156	0x3d1fe1b7	0.039033618
157	0x3c0a514a	0.008442232
158	0x3d328d92	0.043592043
159	0xbd881b91	-0.06645883
160	0x3dc8fd7d	0.09813974
161	0x3d49654b	0.049168866
162	0xbe036595	-0.12831719
163	0x3d9fe419	0.07807178
164	0x3d29c60d	0.04144864
165	0xbc6ed574	-0.014577258
166	0x3ddc165f	0.107464544
167	0xbe98a446	-0.2981283
168	0x3e85e3ca	0.26150352
169	0x3d35eae2	0.044413455
170	0x3dcb80a2	0.09936644
171	0x3d182cd9	0.037152145
172	0xbe5647ce	-0.20925829
173	0xbe0a91fe	-0.13532254
174	0x3e1bea92	0.152262
175	0x3d722818	0.059120268
176	0xbe313c59	-0.17308177
177	0xbc1f012f	-0.009704872
178	0xbd51bc65	-0.051205058
179	0x3e0bace5	0.13640173
180	0x3daa6b6a	0.08321269
181	0xbdf9d8d5	-0.121995606
182	0x3dd905d5	0.105968155
183	0xbd725ae7	-0.059168722
184	0x3d33aa2e	0.043863468
185	0xbd813e3f	-0.063107006
186	0xbda1be50	-0.07897627
187	0x3dd283e6	0.10279064
188	0x3d3f0190	0.04663235
189	0x3dcbce8d	0.09951506
190	0x3e0cb4f7	0.13740908
191	0x3d353da3	0.044248234
192	0xbf1ee53a	-0.6206852
193	0xbd69b97f	-0.05706167
194	0xbce3aa77	-0.027791245
195	0xbdf29603	-0.11845019
196	0xbee42867	-0.44562075
197	0xbd968260	-0.07349086
198	0xbf3881fe	-0.7207335
199	0xbd6250b0	-0.05525273
200	0xbec75823	-0.3893443
201	0xbee1b464	-0.4408294
202	0xbf32c27b	-0.69828004
203	0xbd817d37	-0.06322711
204	0xbd8efa81	-0.069813736
205	0xbf151b1d	-0.58244497
206	0xbea81adb	-0.3283299
207	0xbe5ab4e1	-0.21358062
208	0xbe8f8dea	-0.2803796
209	0xbdb8eef7	-0.09029954
210	0x3f10dc61	0.5658627
211	0x3c8f46ff	0.017489908
212	0xbdf26e8a	-0.1183749
213	0xbea84011	-0.3286138
214	0xbdfa7b55	-0.12230555
215	0xbd421750	-0.047385514
216	0x3cbef54d	0.023310328
217	0xbefe44c7	-0.49661848
218	0xbdfee7ea	-0.12446578
219	0xbf04062a	-0.51571906
220	0xbd967bc2	-0.07347824
221	0xbf638892	-0.88880265
222	0xbda01522	-0.07816531
223	0x3c2a0bcd	0.01037879
224	0x3df24553	0.11829629
225	0xbe1acdcf	-0.15117572
226	0xbdd28a40	-0.10280275
227	0xbda4b8e0	-0.080430746
228	0xbdd884f0	-0.10572231
229	0xbf0978ef	-0.53700155
230	0x3cbbd7bf	0.022930024
231	0x3b5a35d4	0.0033296244
232	0xbc5ca421	-0.013466866
233	0xbd0abdc1	-0.03387237
234	0xbdf0e681	-0.11762715
235	0xbd9eb96a	-0.07750209
236	0xbcf69494	-0.030100144
237	0xbe2dbaad	-0.16965742
238	0xbdcd3785	-0.10020355
239	0xbce5a819	-0.028034257
240	0xbee50f75	-0.44738355
241	0xbdc0c6d5	-0.09412924
242	0xbe161097	-0.14654766
243	0xbd28fedb	-0.041258674
244	0xbd9157c8	-0.07096821
245	0xbc84439a	-0.016145516
246	0xbd1ef69c	-0.038809404
247	0xbf17df4a	-0.5932509
248	0x3cd35b96	0.025800508
249	0xbf1c32d4	-0.6101506
250	0x3de13bdc	0.109977454
251	0xbd3fdc88	-0.046841174
252	0xbdd6a644	-0.104809314
253	0xbd9debdd	-0.07711003
254	0x3c03a775	0.00803553
255	0xbf52fe83	-0.82419604

hidden_layers.1.bias f4 [64]
0	0x3e0bd05d	0.13653703
1	0x3cd0526f	0.025429932
2	0x3d9fc10b	0.07800492
3	0x3d3d30e9	0.046189222
4	0xbd95beaa	-0.07311757
5	0xbcccc861	-0.024997892
6	0x3da3822e	0.07983814
7	0x3dd27f79	0.1027822
8	0x3e6ffd9b	0.23436587
9	0xbdd31a07	-0.10307699
10	0x3d9f273f	0.077711575
11	0x3d7693f1	0.06019968
12	0x3dbf204c	0.09332332
13	0x3e1918e2	0.14950898
14	0xbc98c14a	-0.018646855
15	0x3e320e94	0.17388374
16	0x3df3d9c9	0.119067736
17	0x3d3a6535	0.045506675
18	0x3de67893	0.112534665
19	0x3db04102	0.08606149
20	0x3e0fdfca	0.14050213
21	0x3e62ed64	0.2216087
22	0x3d800225	0.06250409
23	0x3d935e80	0.07195759
24	0xbabcf786	-0.001441703
25	0x3e0bfa03	0.1366959
26	0x3a2e8044	0.00066566863
27	0xbdf00d40	-0.11721277
28	0x3d889013	0.06668105
29	0xbf0769d8	-0.5289588
30	0xbdf0cb59	-0.117575355
31	0x3e0e6917	0.13907276
32	0xbd6e6352	-0.058200188
33	0xbdf2bd12	-0.118524686
34	0x3e3024b0	0.17201495
35	0x3dc1417c	0.09436318
36	0x3dc1d667	0.09464722
37	0xbb49bd78	-0.0030783098
38	0x3dc496d0	0.09599078
39	0x3d8a5c43	0.06755879
40	0xbc126c2c	-0.008936923
41	0xb9d9822d	-0.00041486454
42	0x3da76fc5	0.08175615
43	0xbb96178e	-0.0045804447
44	0x3db7dd10	0.08977711
45	0x3cc7da33	0.024396038
46	0x3e818aad	0.25301114
47	0xbe058057	-0.13037239
48	0x3dd3cf8f	0.10342323
49	0x3e3050c2	0.17218307
50	0xbca22376	-0.0197923
51	0x3e2b2990	0.16715074
52	0x3dbc91ee	0.092075214
53	0x3ddea723	0.108717225
54	0x3e686fca	0.22698894
55	0x3d934416	0.07190721
56	0x3db9a545	0.09064726
57	0xbe1a139b	-0.15046541
58	0x3e122925	0.14273508
59	0xbd2a7939	-0.041619513
60	0xbd48eea1	-0.0490557
61	0x3ddb3e26	0.10705213
62	0x3d979a28	0.0740245
63	0x3e792962	0.24332193

output.weight f4 [4, 64]
0	0x3d98c3e6	0.0745924
1	0x3e14d5f2	0.14534739
2	0x3d7230f9	0.059128735
3	0x3ece1239	0.40248278
4	0xbeb27354	-0.34853613
5	0x3e04335f	0.12910222
6	0x3d71fa3a	0.059076525
7	0xbe58f27f	-0.21186255
8	0x3dd10e01	0.10207749
9	0xbe0bdb5e	-0.136579
10	0x3d6e22fb	0.05813883
11	0x3d2c6fbc	0.042098746
12	0x3d60733f	0.054797407
13	0xbe2453df	-0.1604762
14	0x3e42f6eb	0.19039504
15	0xbdee9d9f	-0.116511576
16	0x3d80320d	0.062595464
17	0x3dab4574	0.083628565
18	0x3d80657a	0.06269355
19	0x3d9a9373	0.07547655
20	0x3d689107	0.056778934
21	0x3dbe64a1	0.09296537
22	0x3d4ce422	0.050022252
23	0x3d5ecf1e	0.05439674
24	0x3e71f9d1	0.23630454
25	0xbe3525e2	-0.17690232
26	0x3e287af8	0.16453159
27	0xbd3f63aa	-0.046725906
28	0x3d5a3d49	0.053281102
29	0xbe745a66	-0.2386261
30	0xbd812fc1	-0.063079365
31	0xbe42c716	-0.19021258
32	0x3e07f509	0.13277067
33	0x3b2b552e	0.00261433
34	0x3d785a86	0.060633205
35	0x3ccc5826	0.024944376
36	0xbe4b2edf	-0.19842099
37	0x3dbd08a4	0.09230164
38	0x3d53eb8f	0.051738318
39	0x3d96b38d	0.07358465
40	0x3e5a0659	0.21291484
41	0x3e2550e9	0.16144146
42	0x3d479a6c	0.048731253
43	0x3dce8b1f	0.10085129
44	0x3d6cab3e	0.057780497
45	0x3d85381a	0.06504841
46	0xbdc8d59c	-0.09806368
47	0xbc2972cf	-0.010342314
48	0x3db5f3fe	0.088844284
49	0xbe0d3624	-0.13790184
50	0x3e21e48f	0.15809844
51	0xbe59a01f	-0.21252488
52	0x3d57c23d	0.052675474
53	0x3d7d2fb5	0.061813075
54	0xbda2bb49	-0.07945878
55	0x3d5b11ac	0.05348365
56	0x3d6f44a3	0.058415066
57	0xbc6645a1	-0.014054687
58	0x3dabfa23	0.08397319
59	0x3e98fbef	0.2987971
60	0xbe8eb6cb	-0.27873835
61	0x3d898e8f	0.06716644
62	0x3d969af3	0.07353773
63	0xbdd13008	-0.10214239
64	0x3d8ae267	0.06781464
65	0x3e61bb64	0.2204414
66	0x3d3b7117	0.045762148
67	0x3ebc95c3	0.3683301
68	0xbe845775	-0.25847974
69	0x3e1c9e72	0.15294817
70	0x3d36d15b	0.04463325
71	0xbd996b66	-0.07491188
72	0x3dc512d5	0.096227325
73	0x3b1121fb	0.0022145498
74	0x3d7042dd	0.058657516
75	0x3d2c20c2	0.042023428
76	0x3d509459	0.050922725
77	0xbd80310c	-0.06259355
78	0x3e897b85	0.2685205
79	0x3c89128f	0.016732482
80	0x3dbe7953	0.093004845
81	0x3da0b8b0	0.07847726
82	0x3d51aa61	0.051187877
83	0x3daa7984	0.083239585
84	0x3d86b16a	0.06576808
85	0x3d837dee	0.064205036
86	0x3d813786	0.063094184
87	0x3d9c2612	0.07624449
88	0x3e9f444a	0.31106788
89	0xbd58eb01	-0.052958492
90	0x3e76aa48	0.24088395
91	0x3d193c8e	0.037411265
92	0x3d2d7228	0.042345196
93	0xbda2404e	-0.079224214
94	0xbc8594d7	-0.016306324
95	0xbe745ab3	-0.23862724
96	0x3e04b0d9	0.12958087
97	0xbdb3d47c	-0.087807626
98	0x3e093c43	0.13401894
99	0x3e023177	0.12714182
100	0xbd28f7c3	-0.04125191
101	0x3dd37b8e	0.103263006
102	0x3d7a85f3	0.0611629
103	0x3d622a60	0.055216193
104	0x3e6ac811	0.22927882
105	0x3e2818e5	0.16415747
106	0x3d6c6f97	0.057723608
107	0x3e106f46	0.14104947
108	0x3d63aaee	0.055582933
109	0x3d584a99	0.052805517
110	0xbdaec5a7	-0.08533793
111	0xbe987078	-0.29773307
112	0x3e28e193	0.164923
113	0xbdba3a06	-0.09093098
114	0x3e7826d2	0.24233559
115	0xbe538f59	-0.20660152
116	0x3d8b5075	0.06802455
117	0x3d716d86	0.05894234
118	0xbde4115a	-0.11136122
119	0x3d9f6c16	0.07784288
120	0x3d5fdc66	0.054653548
121	0xbd15c7fa	-0.036567666
122	0x3dd0a2a7	0.101872735
123	0x3ea3bc5e	0.3197965
124	0xbdf45ab5	-0.119313635
125	0x3d6c962f	0.057760414
126	0x3d4ed1c9	0.050493035
127	0x3cdc0cbe	0.026861545
128	0x3db866fd	0.090040185
129	0x3e8b572d	0.27214947
130	0x3d3cc081	0.046082024
131	0x3e928e7b	0.2862433
132	0xbe609df1	-0.2193525
133	0xbd7ccdcf	-0.061719712
134	0x3d529188	0.05140832
135	0xbde0848a	-0.1096278
136	0x3e0850ec	0.13312119
137	0xbc3ec97b	-0.011644716
138	0x3d914c7d	0.07094667
139	0x3d701683	0.05861522
140	0x3da7d3cd	0.08194695
141	0xbd8a7d79	-0.06762213
142	0x3e831b29	0.2560666
143	0x3dab6d3b	0.083704434
144	0x3da600a2	0.081055894
145	0x3db1b499	0.086770244
146	0x3d85016d	0.064944126
147	0x3d1440e1	0.036194686
148	0x3ddb7a7f	0.10716724
149	0x3da30a8d	0.07960997
150	0x3e08d114	0.13361007
151	0x3d59900d	0.053115893
152	0x3ea2c937	0.3179414
153	0x3d4bea88	0.049784213
154	0x3d5bff4c	0.053710267
155	0x3ca1e4f2	0.01976249
156	0x3d30ca63	0.04316176
157	0xbebcacbc	-0.36850536
158	0x3b9cbe5f	0.004783436
159	0xbe31f07b	-0.17376892
160	0x3d2022eb	0.0390958
161	0x3c021fa4	0.007942114
162	0x3e24d223	0.16095786
163	0xbe613c2c	-0.2199561
164	0xbdbf09a7	-0.09328013
165	0x3de9a9de	0.11409353
166	0x3db5726b	0.08859714
167	0x3dd6694d	0.10469303
168	0x3e84bbef	0.25924632
169	0x3d3d7f1c	0.0462638
170	0x3d8f220a	0.06988914
171	0x3e43af3c	0.19109815
172	0x3d4a18cc	0.049340054
173	0x3cf900a7	0.030395819
174	0xbd9e0d59	-0.077173896
175	0xbd3055b1	-0.04305047
176	0xbe4cc8cc	-0.19998473
177	0xbda7b093	-0.08187976
178	0x3e8cfb78	0.27535605
179	0xbe510002	-0.20410159
180	0x3d8f79a2	0.070056215
181	0x3c8da3d8	0.01729004
182	0xbe89497f	-0.26813886
183	0x3d350666	0.044195555
184	0x3d89e687	0.06733423
185	0xbd0c5241	-0.03425813
186	0x3dc7fb4e	0.097647294
187	0x3eaf73f8	0.34268165
188	0xbdc64eb8	-0.09682983
189	0x3d8c8316	0.0686094
190	0x3db4aa3b	0.088215314
191	0x3dc29121	0.095003374
192	0x3c780036	0.015136769
193	0x3e22118e	0.15827009
194	0x3d5e81ee	0.05432313
195	0x3e93bd24	0.2885524
196	0xbdf999af	-0.12187516
197	0x3e73f356	0.23823294
198	0x3d4e1c2e	0.050319843
199	0xbdbbbadb	-0.09166499
200	0x3dda4609	0.106578894
201	0xbc486d8a	-0.012233147
202	0x3d82b6b0	0.06382501
203	0x3d6b9136	0.05751153
204	0x3d2ade88	0.04171613
205	0xbd96f35f	-0.07370638
206	0x3e592df1	0.21208932
207	0xbe705032	-0.23468092
208	0x3dcfbf1a	0.101438716
209	0x3de1f819	0.11033649
210	0x3d9960ae	0.07489143
211	0x3dc80e68	0.09768373
212	0x3dced47f	0.10099124
213	0x3d99be49	0.07506997
214	0x3e0126e9	0.126125
215	0x3d3c3db6	0.04595729
216	0x3eb1f7e7	0.34759447
217	0xbde96d4c	-0.113978
218	0x3e663d4b	0.22484319
219	0x3c947508	0.018122211
220	0x3d8392f4	0.064245135
221	0xbe7ce8a5	-0.24698122
222	0x3d161302	0.03663922
223	0x3d538630	0.051641643
224	0x3e146767	0.1449257
225	0xbd36d932	-0.044640727
226	0x3e1ebb20	0.1550107
227	0x3e395236	0.18097767
228	0xbd7e1c04	-0.062038437
229	0x3dc09213	0.094028614
230	0x3d33dc0f	0.043911036
231	0x3c55c92b	0.01304845
232	0x3e4dcd19	0.2009777
233	0x3e66141c	0.22468609
234	0xbc154df7	-0.009112827
235	0x3dbdf12d	0.09274516
236	0x3d71c6f6	0.059027635
237	0x3ddd1502	0.107950225
238	0xbdd4dacd	-0.103932954
239	0xbe3484d5	-0.17628796
240	0xbe5f9de4	-0.21837574
241	0xbcaca69b	-0.021075537
242	0x3e58ed16	0.21184191
243	0xbe32904b	-0.17437856
244	0x3d3516c9	0.044211183
245	0x3dc07eab	0.0939916
246	0xbeb3aa19	-0.35090712
247	0x3d18025b	0.03711162
248	0x3daa71f2	0.083225146
249	0x3d334387	0.04376557
250	0xbceb15da	-0.028696943
251	0x3dd941e1	0.106082685
252	0xbea0b12e	-0.31385177
253	0x3da084e4	0.07837847
254	0x3cc78f5b	0.02436035
255	0x3dd0e601	0.1020012

output.bias f4 [4]
0	0x404789dc	3.1177893
1	0x403c95da	2.9466462
2	0x403f25bc	2.9866781
3	0x4040f45b	3.0149143

exp_avg f4 [64, 37]
0	0xb87bece1	-6.0063674e-05
1	0x395bfda4	0.00020979956
2	0x398dfd33	0.00027082264
3	0xb809e6ae	-3.2878183e-05
4	0x3905d746	0.00012764064
5	0x37e9ee53	2.7886743e-05
6	0x391af991	0.00014779555
7	0x3968753b	0.00022168916
8	0xb7229721	-9.69114e-06
9	0x39630814	0.00021651416
10	0x3956e187	0.00020492646
11	0xb6991544	-4.562231e-06
12	0x394e3102	0.00019663948
13	0xb71c6b9f	-9.323382e-06
14	0x3865ad42	5.4759214e-05
15	0x378da820	1.68868e-05
16	0x37e4771f	2.7235188e-05
17	0x39898e33	0.00026236623
18	0x38aa45b1	8.119213e-05
19	0x38e05a68	0.00010697992
20	0x3981948c	0.00024715473
21	0xb89ffcbb	-7.6287855e-05
22	0x39163cda	0.00014327784
23	0x389a3722	7.3535615e-05
24	0x3872cea6	5.7889752e-05
25	0x39a1ca78	0.00030859164
26	0xb8bd8fcf	-9.039009e-05
27	0x396b9aaa	0.00022468963
28	0xb8679240	-5.5210898e-05
29	0x38ba10aa	8.872275e-05
30	0x39b5a928	0.00034649041
31	0xb7e91cc6	-2.7789163e-05
32	0x386d21f1	5.6536814e-05
33	0x3750bf4a	1.2442304e-05
34	0x382516ee	3.936042e-05
35	0x394fa1d0	0.00019801338
36	0xba2cd2b1	-0.0006592675
37	0xb8739869	-5.8077658e-05
38	0xb9ca4a46	-0.0003858378
39	0xb9fc96e9	-0.00048177622
40	0xb7b32ece	-2.1360258e-05
41	0xb9d71ca9	-0.0004102935
42	0xb9843462	-0.0002521603
43	0xb8fa9c11	-0.000119499986
44	0xb9b34063	-0.00034189512
45	0xb974d6bf	-0.00023349652
46	0x37e5f1eb	2.741158e-05
47	0x38dcac8d	0.000105225576
48	0xba616818	-0.000859858
49	0x39362276	0.0001736971
50	0xb9bff357	-0.0003661166
51	0xb8ae1fee	-8.302914e-05
52	0xba464b98	-0.0007564365
53	0xb950331f	-0.0001985547
54	0x3902a9aa	0.00012460971
55	0xb8f4ad01	-0.00011667051
56	0xb999e368	-0.00029351865
57	0xb898c4b4	-7.2845636e-05
58	0xb9872536	-0.0002577693
59	0xba122f57	-0.0005576512
60	0xb87690af	-5.8785718e-05
61	0xb913b2b4	-0.00014085585
62	0xba838b59	-0.0010036036
63	0x00000004	6e-45
64	0xb3f2ae5a	-1.13007175e-07
65	0x386dab36	5.6664656e-05
66	0xb865a9ff	-5.4756176e-05
67	0xb9923674	-0.0002788786
68	0x39463233	0.00018901452
69	0xba358fc6	-0.0006926026
70	0xb92c9483	-0.00016458523
71	0x360481c5	1.9745069e-06
72	0xb9c11eb8	-0.00036834716
73	0xbc05269f	-0.008126884
74	0xb6acb752	-5.1473407e-06
75	0x3540a341	7.176314e-07
76	0xb7ec1b05	-2.8145974e-05
77	0x37399f6a	1.1063976e-05
78	0xb704ac8f	-7.90799e-06
79	0xb7c223d3	-2.3143284e-05
80	0xb71ea368	-9.45558e-06
81	0x36a90ee8	5.038328e-06
82	0x36caf705	6.048826e-06
83	0xb7cb33d9	-2.422363e-05
84	0xb77582b6	-1.46335715e-05
85	0x36e252ec	6.7449782e-06
86	0xb7ab1609	-2.039505e-05
87	0x36e33a6a	6.7719275e-06
88	0xb8654dc2	-5.4670272e-05
89	0x37e93058	2.7798276e-05
90	0x3700c2d3	7.674756e-06
91	0x36ed8a65	7.0792616e-06
92	0xb8865a18	-6.406399e-05
93	0x373b920b	1.1180072e-05
94	0x8006d395	-6.26914e-40
95	0xb5f6f807	-1.8400614e-06
96	0x384ba8c9	4.8556165e-05
97	0xb88f1584	-6.822779e-05
98	0x36a60e73	4.9488676e-06
99	0x37799e3e	1.48784e-05
100	0xb651389a	-3.1176373e-06
101	0x381a9654	3.6856465e-05
102	0xb893122f	-7.012893e-05
103	0x37b9eb7e	2.2163378e-05
104	0xb825c138	-3.9519015e-05
105	0x37013ed3	7.703627e-06
106	0x36e0a716	6.6951716e-06
107	0x3672299e	3.6085034e-06
108	0xb81d20f5	-3.746241e-05
109	0xb8bf339e	-9.117204e-05
110	0xba385ef4	-0.0007033192
111	0xb9418df3	-0.00018458795
112	0x393a4f15	0.00017767803
113	0x3a11fd1f	0.0005569029
114	0x39814e2c	0.0002466304
115	0x37755bfb	1.4624554e-05
116	0x3a5f3581	0.00085147476
117	0x00000004	6e-45
118	0xb7b8087b	-2.1938458e-05
119	0xb80a0c1e	-3.291305e-05
120	0x38aea8dc	8.328419e-05
121	0x388b175c	6.6323875e-05
122	0xb8a8dcd7	-8.051999e-05
123	0x3a3f076a	0.00072871766
124	0x38ac2e0f	8.210178e-05
125	0x3a398276	0.000707663
126	0xb9292be3	-0.00016133445
127	0x389814ed	7.2518225e-05
128	0x3a5fa4cb	0.0008531331
129	0x380780d8	3.2306503e-05
130	0x39c2a03d	0.0003712195
131	0x39a44001	0.00031328204
132	0xb8bc3536	-8.97445e-05
133	0x39477e79	0.00019025234
134	0x39c8b708	0.00038283342
135	0x3969e3a4	0.00022305414
136	0xb9923dab	-0.00027893236
137	0x392bebab	0.00016395624
138	0x3a30b10e	0.00067402504
139	0x39791d65	0.00023757441
140	0x393d1caa	0.00018035123
141	0x3a129a4a	0.0005592449
142	0xb7a17019	-1.9244895e-05
143	0x388f8581	6.8436384e-05
144	0x3945541b	0.00018818716
145	0x373a188e	1.1092181e-05
146	0xb9a2b02d	-0.0003103031
147	0x3bc2b6c0	0.0059421957
148	0x2d5e59eb	1.2639205e-11
149	0x37ec2723	2.8151617e-05
150	0x34c93602	3.7478463e-07
151	0x38b103a4	8.440696e-05
152	0x371bb2e0	9.2803675e-06
153	0x00000013	2.7e-44
154	0x386ca008	5.6415825e-05
155	0x386234b6	5.393169e-05
156	0x362d88bd	2.58586e-06
157	0x37458c06	1.1774717e-05
158	0xb7b43a61	-2.1484857e-05
159	0x390f53a0	0.00013668695
160	0xb66b4a6f	-3.5061055e-06
161	0x35a61471	1.2373913e-06
162	0x382f9282	4.1859697e-05
163	0x38d59320	0.00010184036
164	0x3736c86c	1.089471e-05
165	0x3454ece7	1.9830223e-07
166	0x80000004	-6e-45
167	0x3803298d	3.127153e-05
168	0xb60fb14a	-2.1411856e-06
169	0x3900b84c	0.00012275687
170	0xb6e5ff72	-6.8544696e-06
171	0xb55e3a08	-8.278589e-07
172	0x37f33a8e	2.8995124e-05
173	0x00000004	6e-45
174	0x3872b1ce	5.786289e-05
175	0x385fc83c	5.3353826e-05
176	0x35e66845	1.7166682e-06
177	0x37912da2	1.7306596e-05
178	0x0000031a	1.113e-42
179	0x3886242d	6.396356e-05
180	0x384e2670	4.9150025e-05
181	0xb4417f24	-1.8020779e-07
182	0x3756566a	1.2775514e-05
183	0x38b47886	8.605518e-05
184	0x39bcdf71	0.0003602463
185	0xba2c22b0	-0.0006566448
186	0x39e30fdc	0.0004330863
187	0xb9aaa74c	-0.00032549573
188	0xb8f4bf50	-0.000116704614
189	0xb9f4037d	-0.00046541906
190	0xba2e8653	-0.0006657589
191	0x00000004	6e-45
192	0x00000004	6e-45
193	0x80000004	-6e-45
194	0xb8da49e1	-0.00010408811
195	0xb888e7ba	-6.528148e-05
196	0xb995db59	-0.0002858292
197	0x39664d0a	0.00021963209
198	0xba0c0ef0	-0.0005342802
199	0x39eca672	0.0004513744
200	0xba952c1c	-0.0011380943
201	0x39ee6cbd	0.00045475914
202	0xb7ab8f7a	-2.04516e-05
203	0x381f8047	3.802802e-05
204	0xb8bb9261	-8.94412e-05
205	0x397a8aff	0.00023893638
206	0xba19ed44	-0.0005871842
207	0xb84dd7f1	-4.907692e-05
208	0xb98cbc9f	-0.00026843415
209	0xb5a90f3f	-1.2595918e-06
210	0xbab4aa23	-0.0013783615
211	0x3a6b442d	0.00089746976
212	0xb9b8eb61	-0.00035270586
213	0x392ffde0	0.00016783876
214	0x390514eb	0.00012691661
215	0x39af9a8a	0.00033493742
216	0xb977d2c6	-0.00023634275
217	0xba21bd1a	-0.0006169841
218	0xb91a872b	-0.00014736938
219	0xb9f20489	-0.00046161216
220	0xb99f1af9	-0.0003034694
221	0xbc7d0ec0	-0.015445411
222	0xb926b64d	-0.00015898906
223	0x3952467d	0.0002005342
224	0xb962ab8f	-0.0002161695
225	0x378d8876	1.6872054e-05
226	0xb949edd5	-0.00019257453
227	0xb72c7dbe	-1.02812755e-05
228	0xb8ff86ca	-0.00012184454
229	0xb8899155	-6.559739e-05
230	0x3827a66f	3.9970906e-05
231	0xb905d5e1	-0.00012763545
232	0x379f368b	1.8979676e-05
233	0xb898bf44	-7.283551e-05
234	0xb8275172	-3.9891755e-05
235	0xb8863a4b	-6.400476e-05
236	0xb8fb77a6	-0.00011990899
237	0xb78d1be8	-1.6821505e-05
238	0x38c0be79	9.190752e-05
239	0xb94d8543	-0.00019599967
240	0xb81a8349	-3.683873e-05
241	0xb8e57a11	-0.000109423076
242	0xb788e401	-1.6318636e-05
243	0xb8a5bf11	-7.903402e-05
244	0x393bfa4b	0.00017926951
245	0xb97d689a	-0.00024166927
246	0xb6fcba2a	-7.5318576e-06
247	0x38293261	4.033966e-05
248	0xb7e944ae	-2.7807746e-05
249	0x37e1287d	2.6840944e-05
250	0xb94eb368	-0.00019712525
251	0x36818392	3.8598164e-06
252	0xb98155b7	-0.0002466866
253	0xb8cbb48a	-9.713422e-05
254	0x38f10e8e	0.000114944865
255	0x3895282c	7.112356e-05

exp_avg_sq f4 [64, 37]
0	0x35c3d553	1.4590718e-06
1	0x370d15ca	8.409328e-06
2	0x362c7bb5	2.5702004e-06
3	0x354b16fc	7.565684e-07
4	0x3610722a	2.1524124e-06
5	0x372cf8f7	1.0309966e-05
6	0x353a74bc	6.946027e-07
7	0x353fc5b9	7.144077e-07
8	0x3594bc3a	1.108164e-06
9	0x35b935f0	1.3799272e-06
10	0x36b4c2a9	5.3870795e-06
11	0x359f3026	1.1860436e-06
12	0x36ad37f4	5.1623156e-06
13	0x35905676	1.0754e-06
14	0x369869a0	4.5422494e-06
15	0x35ab98b6	1.2784938e-06
16	0x37037b68	7.836941e-06
17	0x364136d7	2.8791162e-06
18	0x35885e0f	1.0160164e-06
19	0x36239e01	2.4380863e-06
20	0x36fe02e0	7.5701246e-06
21	0x351148a9	5.4122444e-07
22	0x35d3a4b0	1.5768655e-06
23	0x3663a51a	3.3921738e-06
24	0x35c9f021	1.5045554e-06
25	0x364e7f6e	3.0770566e-06
26	0x3707902c	8.080195e-06
27	0x35d78521	1.6057494e-06
28	0x354aebf3	7.5594215e-07
29	0x3682deab	3.900224e-06
30	0x36c42c44	5.8464084e-06
31	0x34af33c3	3.2633952e-07
32	0x3639955b	2.7654085e-06
33	0x36922cbc	4.356347e-06
34	0x35cf6185	1.5451084e-06
35	0x36ec33a6	7.0393608e-06
36	0x3a7ba2a9	0.00095991284
37	0x368d6e58	4.214973e-06
38	0x365daa77	3.303079e-06
39	0x367a4441	3.7292632e-06
40	0x3658397e	3.2219973e-06
41	0x3619d488	2.2922486e-06
42	0x36f5fd31	7.3310443e-06
43	0x364b7353	3.0316485e-06
44	0x3620968f	2.3929495e-06
45	0x35e66c4d	1.7167855e-06
46	0x3631a58f	2.6471423e-06
47	0x3685868b	3.9793717e-06
48	0x36b65110	5.4334596e-06
49	0x365d76d9	3.3000745e-06
50	0x35fc94d0	1.8818773e-06
51	0x3629b45e	2.528795e-06
52	0x36b113a1	5.277296e-06
53	0x364aa596	3.019673e-06
54	0x3623b043	2.439149e-06
55	0x366f13cb	3.5625296e-06
56	0x35f0abef	1.7931433e-06
57	0x3642c0ed	2.902055e-06
58	0x368484b5	3.9493557e-06
59	0x36c7da2f	5.956062e-06
60	0x359b79b3	1.1583819e-06
61	0x36458da7	2.943774e-06
62	0x37677f38	1.3798293e-05
63	0x08c96eff	1.21233425e-33
64	0x3164c603	3.3290923e-09
65	0x3518eec7	5.697188e-07
66	0x352109b8	5.9991316e-07
67	0x36c054ba	5.7319094e-06
68	0x367eb77c	3.7955751e-06
69	0x36011cb8	1.9239214e-06
70	0x363c51ac	2.8061722e-06
71	0x3624d795	2.456339e-06
72	0x3796058a	1.7883973e-05
73	0x3a72b165	0.0009258001
74	0x3482c246	2.435574e-07
75	0x33bc92c5	8.7811294e-08
76	0x3505264d	4.9602096e-07
77	0x3485c9dd	2.4920055e-07
78	0x34153181	1.3894716e-07
79	0x351123f2	5.4069017e-07
80	0x33b8f88e	8.6133795e-08
81	0x34dd51d1	4.1223987e-07
82	0x332dc858	4.0461913e-08
83	0x34567add	1.9975e-07
84	0x348eb7eb	2.658338e-07
85	0x340dd619	1.3209537e-07
86	0x3502e0f0	4.87561e-07
87	0x343dabea	1.7664539e-07
88	0x346fdd71	2.233917e-07
89	0x348e0010	2.6449607e-07
90	0x3432d0f7	1.6653563e-07
91	0x34dd6d08	4.1243788e-07
92	0x3479195f	2.3199162e-07
93	0x3463250a	2.1154497e-07
94	0x30c6a2b2	1.4452637e-09
95	0x33d6a547	9.995215e-08
96	0x3530cc6c	6.586258e-07
97	0x34adaed9	3.235098e-07
98	0x33dadf44	1.0192028e-07
99	0x33dc0162	1.02448e-07
100	0x32cf65f3	2.4144333e-08
101	0x355516aa	7.9381664e-07
102	0x34307d55	1.6436873e-07
103	0x34217d42	1.5039862e-07
104	0x34b007b9	3.2788174e-07
105	0x346c802d	2.2025843e-07
106	0x34e2818f	4.2190047e-07
107	0x33d67e5e	9.9881376e-08
108	0x34a28935	3.0274683e-07
109	0x357b2146	9.3553206e-07
110	0x388f16c8	6.823015e-05
111	0x3699674d	4.571781e-06
112	0x36416365	2.8817096e-06
113	0x36548019	3.1665024e-06
114	0x36779b7e	3.6896377e-06
115	0x361369a9	2.196621e-06
116	0x374bb616	1.2142138e-05
117	0x000001f4	7e-43
118	0x3612ba70	2.1864216e-06
119	0x35373967	6.8256344e-07
120	0x355fae16	8.33273e-07
121	0x36148e55	2.2136567e-06
122	0x36a032e6	4.774297e-06
123	0x36e2c145	6.7578244e-06
124	0x356ee756	8.899855e-07
125	0x360c6082	2.09178e-06
126	0x36547512	3.1658606e-06
127	0x36955444	4.450356e-06
128	0x36c44fe5	5.850556e-06
129	0x35924652	1.0898314e-06
130	0x3689e0fc	4.10911e-06
131	0x366c7a8b	3.523807e-06
132	0x36890f41	4.084694e-06
133	0x36d0e22f	6.2252143e-06
134	0x3533e704	6.701887e-07
135	0x35e1b141	1.6815394e-06
136	0x36dd499a	6.5948816e-06
137	0x35d35677	1.574589e-06
138	0x36588c4e	3.2268176e-06
139	0x365dee50	3.3070282e-06
140	0x35928902	1.0917722e-06
141	0x36e6f80b	6.88341e-06
142	0x3601f513	1.936515e-06
143	0x363b5d28	2.7919396e-06
144	0x366075cd	3.344717e-06
145	0x352921f0	6.300679e-07
146	0x3722ea1a	9.7104585e-06
147	0x3a9717f2	0.0011527522
148	0x3284b8ca	1.5450855e-08
149	0x3561d45c	8.4128055e-07
150	0x331818b3	3.541272e-08
151	0x32805715	1.4940762e-08
152	0x34938f9b	2.748537e-07
153	0x30ef8db4	1.7429813e-09
154	0x35530bb4	7.8620656e-07
155	0x33dc3d37	1.0255683e-07
156	0x33352f07	4.2185118e-08
157	0x33409944	4.4842878e-08
158	0x344268a7	1.810573e-07
159	0x35166cda	5.6037754e-07
160	0x33b8f582	8.612825e-08
161	0x33ba14da	8.665093e-08
162	0x3422f4a2	1.5176423e-07
163	0x34ea6ec1	4.366648e-07
164	0x34e6be09	4.2979107e-07
165	0x332eecaf	4.0727794e-08
166	0x2c9d453c	4.469895e-12
167	0x336142ca	5.244764e-08
168	0x336246ee	5.2684236e-08
169	0x35372055	6.821986e-07
170	0x341ef17a	1.4802745e-07
171	0x333c0ae7	4.3782077e-08
172	0x33bff244	8.9381984e-08
173	0x2f89d6bb	2.507273e-10
174	0x35568eb8	7.9928896e-07
175	0x340e2082	1.3236607e-07
176	0x31284098	2.4483935e-09
177	0x336610a1	5.3566172e-08
178	0x30aee7e3	1.2726072e-09
179	0x354efa14	7.710489e-07
180	0x33d0c509	9.721595e-08
181	0x3349e03c	4.70029e-08
182	0x33a1a00c	7.526259e-08
183	0x36170c8a	2.2508052e-06
184	0x37b93b55	2.2081347e-05
185	0x37898fad	1.6398577e-05
186	0x37a475b7	1.9605139e-05
187	0x375db733	1.3215281e-05
188	0x368d6ea2	4.215007e-06
189	0x374ef25c	1.23349855e-05
190	0x386d20b9	5.653568e-05
191	0x318f3981	4.168385e-09
192	0x30446eb7	7.146172e-10
193	0x2e827c92	5.933844e-11
194	0x361b1649	2.3109772e-06
195	0x3737e438	1.0960786e-05
196	0x37698050	1.3917757e-05
197	0x37ab694a	2.0433818e-05
198	0x3700fe48	7.688599e-06
199	0x37414a14	1.1520944e-05
200	0x375c9f04	1.3150046e-05
201	0x37cdf1d2	2.455051e-05
202	0x37610e9f	1.3414449e-05
203	0x364aca64	3.0218152e-06
204	0x3769bc20	1.39316835e-05
205	0x378cd2c3	1.6787444e-05
206	0x37934cb3	1.7559481e-05
207	0x375ccb8b	1.3160413e-05
208	0x36d98763	6.482865e-06
209	0x3734f097	1.0784853e-05
210	0x37cb963e	2.4269448e-05
211	0x37478a63	1.1893545e-05
212	0x376f3c9d	1.4259623e-05
213	0x3682751f	3.8879366e-06
214	0x370414a1	7.872616e-06
215	0x37df3afb	2.6611136e-05
216	0x374126e2	1.151275e-05
217	0x3761c4c4	1.3456858e-05
218	0x363f5ad7	2.8514094e-06
219	0x371de752	9.411788e-06
220	0x3808d05e	3.2618984e-05
221	0x3b8ba127	0.004261154
222	0x34a66c21	3.0998584e-07
223	0x352efb9c	6.518619e-07
224	0x355ecde3	8.300105e-07
225	0x34ee63c8	4.4403555e-07
226	0x34cbd745	3.7968326e-07
227	0x3599f31c	1.1470142e-06
228	0x341419d1	1.3792966e-07
229	0x34482c32	1.864253e-07
230	0x353d9647	7.062667e-07
231	0x3509b2fd	5.129694e-07
232	0x350d6e63	5.2687227e-07
233	0x34fa0425	4.6569144e-07
234	0x35671b66	8.6094076e-07
235	0x34af3c4d	3.2640165e-07
236	0x3523f5f9	6.108017e-07
237	0x34cfc726	3.8701654e-07
238	0x35548bfa	7.9179847e-07
239	0x353e485b	7.0885807e-07
240	0x34c9b449	3.7570342e-07
241	0x3522b47c	6.061234e-07
242	0x350ae980	5.1748793e-07
243	0x349367b6	2.7456343e-07
244	0x34eefe90	4.4516173e-07
245	0x3580fb5b	9.609897e-07
246	0x34b1c6fc	3.31136e-07
247	0x35291886	6.299309e-07
248	0x34c3af1a	3.6448984e-07
249	0x3529be95	6.323474e-07
250	0x351e6d08	5.901825e-07
251	0x34f3ffcd	4.5448397e-07
252	0x3587defe	1.0123183e-06
253	0x3492d73b	2.735122e-07
254	0x353f5ffd	7.1292726e-07
255	0x3468e0b2	2.1688427e-07

exp_avg f4 [64]
0	0x39cb4191	0.00038768028
1	0xba784394	-0.0009470519
2	0xb7b47411	-2.151172e-05
3	0x3a50d47d	0.00079662335
4	0x38ecd6a5	0.000112933376
5	0xba2e8651	-0.0006657588
6	0xb9256a54	-0.00015775237
7	0xba17a10a	-0.00057841896
8	0x390c13a8	0.00013358763
9	0xb915c39e	-0.0001428262
10	0x3a083852	0.00051963807
11	0x3a70352e	0.0009163198
12	0xba4fe39f	-0.00079303415
13	0x3a862ff3	0.0010237679
14	0x39bb01c1	0.00035668726
15	0xbaac8f90	-0.0013165344
16	0x39b9c2f1	0.00035431192
17	0x38cb43b5	9.692406e-05
18	0xbb4b5c35	-0.0031030301
19	0xba65681a	-0.0008751169
20	0x38d00e2f	9.920855e-05
21	0x3794567f	1.7683253e-05
22	0xb86ad844	-5.599136e-05
23	0xb9d6012a	-0.00040818128
24	0xba299452	-0.000646894
25	0xb7cf4f2a	-2.4713187e-05
26	0xbad2dcaa	-0.0016087492
27	0x37258766	9.866291e-06
28	0xb8317722	-4.231104e-05
29	0x3928b5d9	0.00016089472
30	0x3a21e364	0.00061755464
31	0x38ba275a	8.876501e-05
32	0xb96225ba	-0.00021567094
33	0xb82c3eef	-4.1066607e-05
34	0xb91852fd	-0.00014526765
35	0xb9e253a8	-0.00043168408
36	0xba9b955a	-0.0011870072
37	0x39893115	0.00026167245
38	0xbaefc3b5	-0.0018292578
39	0xb818fc47	-3.6474576e-05
40	0x3a9bf5c9	0.0011898811
41	0xbad5b64a	-0.0016304937
42	0x3b472aed	0.0030390576
43	0x386a6bdc	5.58904e-05
44	0x3921c31d	0.00015426842
45	0x3940436a	0.0001833566
46	0xb902048e	-0.00012399463
47	0x3907927c	0.00012929173
48	0x3952abe5	0.00020091196
49	0xbaa30ce8	-0.001243976
50	0x39ddf833	0.00042337328
51	0x37bf2f8a	2.2791111e-05
52	0xba872926	-0.0010311946
53	0x3837e0ff	4.3840144e-05
54	0xba8823f3	-0.001038669
55	0x39bb66d9	0.00035744047
56	0x38b6e392	8.7208246e-05
57	0xb84786b2	-4.7570742e-05
58	0x38fb8a17	0.00011994334
59	0x39b0e19d	0.0003373743
60	0x3b191c96	0.0023362986
61	0x3aeeff83	0.0018234107
62	0x3ac91f0b	0.0015344335
63	0x39cb0c72	0.0003872845

exp_avg_sq f4 [64]
0	0x375fc9c8	1.3338817e-05
1	0x37749804	1.4578927e-05
2	0x3590c61d	1.0786495e-06
3	0x377dace5	1.512023e-05
4	0x35794603	9.286161e-07
5	0x386d2e58	5.6548364e-05
6	0x3611c594	2.172169e-06
7	0x37e4a76d	2.7257682e-05
8	0x3621805e	2.406559e-06
9	0x35dce6bb	1.6458429e-06
10	0x3708b464	8.148232e-06
11	0x37b9b395	2.2137343e-05
12	0x3800ad31	3.0678875e-05
13	0x37194fb1	9.138065e-06
14	0x35fff705	1.9070873e-06
15	0x38cd1f9b	9.781049e-05
16	0x3588169c	1.013937e-06
17	0x3461ead1	2.1040184e-07
18	0x38a95a1f	8.075334e-05
19	0x387b7bc0	5.9958315e-05
20	0x35d071a6	1.5530284e-06
21	0x359547b7	1.1122237e-06
22	0x35d86c38	1.612475e-06
23	0x37b31644	2.1348831e-05
24	0x36afa8c5	5.235054e-06
25	0x36114fe1	2.165318e-06
26	0x381882ae	3.636133e-05
27	0x3505f228	4.9898745e-07
28	0x376184ac	1.3441935e-05
29	0x360cdb8f	2.0989426e-06
30	0x3739bf73	1.10714345e-05
31	0x35b77af4	1.3670347e-06
32	0x37f61a98	2.9337869e-05
33	0x361852b3	2.2697902e-06
34	0x35e24d40	1.6860795e-06
35	0x386fc184	5.7162266e-05
36	0x382a9c2b	4.06766e-05
37	0x36547dc7	3.1663674e-06
38	0x37c35989	2.3287505e-05
39	0x3515a397	5.574488e-07
40	0x37bbe4b1	2.239863e-05
41	0x38042843	3.150875e-05
42	0x384b49e3	4.8467784e-05
43	0x34c91e53	3.746123e-07
44	0x37004e38	7.647606e-06
45	0x35f051fe	1.7905256e-06
46	0x3749e390	1.2033517e-05
47	0x369b3aa0	4.626185e-06
48	0x35bc6c47	1.4038604e-06
49	0x3790f8a7	1.7281925e-05
50	0x363d03c3	2.8165384e-06
51	0x3799644a	1.8285722e-05
52	0x380344ff	3.129709e-05
53	0x3625155b	2.4599346e-06
54	0x388f01e7	6.819126e-05
55	0x36fc37aa	7.5166654e-06
56	0x378a0cca	1.6456837e-05
57	0x36607b66	3.3450428e-06
58	0x35b88b23	1.3749562e-06
59	0x36a38964	4.873773e-06
60	0x3945970d	0.00018843655
61	0x37a3160b	1.9441379e-05
62	0x3879f0cc	5.9590486e-05
63	0x3720ea06	9.591231e-06

exp_avg f4 [64, 64]
0	0x37161894	8.946419e-06
1	0xb98348da	-0.00025040546
2	0xb2376f6b	-1.06773355e-08
3	0x3913d630	0.00014098804
4	0x370c9cb1	8.381133e-06
5	0xb953b412	-0.0002018961
6	0xb70e58ee	-8.484565e-06
7	0xb9053daa	-0.0001270684
8	0xa80c7545	-7.79699e-15
9	0x361df471	2.3537107e-06
10	0x37aa524f	2.0303907e-05
11	0x37dcbe31	2.6314608e-05
12	0xb8e450d7	-0.00010886945
13	0xb8317702	-4.2310923e-05
14	0xb7afaf02	-2.094312e-05
15	0xb87fa887	-6.095369e-05
16	0xb55c9855	-8.217806e-07
17	0x2aafe7fb	3.1247213e-13
18	0x371a64de	9.2026e-06
19	0xb89f0c52	-7.584006e-05
20	0xb76d05c6	-1.4127645e-05
21	0x379541af	1.779277e-05
22	0xb7131b31	-8.768214e-06
23	0xb7caec85	-2.4190414e-05
24	0xb7a4bc67	-1.9638055e-05
25	0x3606151b	1.997984e-06
26	0xb9704921	-0.00022915426
27	0x36c4dc89	5.866929e-06
28	0xb83b6284	-4.4676024e-05
29	0x3600c6ce	1.9189206e-06
30	0xb8738cfe	-5.8067024e-05
31	0xb75d7257	-1.3199248e-05
32	0xb9340845	-0.00017169218
33	0x36fee76b	7.5967305e-06
34	0xb33ed6d8	-4.443322e-08
35	0xb8d28960	-0.000100391684
36	0xb92f55f1	-0.00016721316
37	0xb487dc4f	-2.5306005e-07
38	0xb851c126	-5.0009367e-05
39	0xb4c1b652	-3.6081707e-07
40	0xb6938919	-4.3969017e-06
41	0xb9f5aa0f	-0.00046856745
42	0xb9ac8b83	-0.0003291034
43	0x37eedf30	2.847574e-05
44	0x375120ed	1.2465037e-05
45	0x35b08d2a	1.3154106e-06
46	0x36a4500d	4.8969e-06
47	0xb7d1b04b	-2.4996834e-05
48	0xb74b04a5	-1.2100824e-05
49	0xb9144a93	-0.00014142161
50	0xb73b8c38	-1.1178716e-05
51	0xb881f011	-6.195915e-05
52	0xb8697387	-5.5659122e-05
53	0xb5770244	-9.201797e-07
54	0xb8adf655	-8.295166e-05
55	0x38034115	3.1293446e-05
56	0x3768b117	1.38695095e-05
57	0xb62883ba	-2.5110626e-06
58	0xb579f8ba	-9.3121673e-07
59	0x38993de6	7.307138e-05
60	0xb919b964	-0.0001466028
61	0x380d32fe	3.366451e-05
62	0xb8e2c80c	-0.000108137814
63	0x37bc9cca	2.2484357e-05
64	0x38e4e8ef	0.000109152745
65	0xb9ca58ce	-0.00038594607
66	0xb62fca21	-2.6194687e-06
67	0x3a425864	0.0007413684
68	0x37818a8d	1.5442516e-05
69	0xba066adc	-0.00051276176
70	0x39300f47	0.00016790359
71	0xb9f21773	-0.00046175308
72	0xb40de4b8	-1.3214856e-07
73	0x369d5ae6	4.6895466e-06
74	0xb967086f	-0.00022033018
75	0x381363da	3.5140525e-05
76	0xb9b7d2ee	-0.00035061635
77	0xb9c4d39e	-0.000375417
78	0xb9139f0f	-0.00014078266
79	0xb9aa4893	-0.00032479
80	0xb716ac21	-8.980774e-06
81	0x2b90d57a	1.0291067e-12
82	0x3a413c7d	0.0007371379
83	0xb8a33843	-7.782925e-05
84	0x362e1c00	2.5944319e-06
85	0xb4f38c20	-4.5364231e-07
86	0xb833d8d7	-4.2878874e-05
87	0xb891c6ae	-6.951146e-05
88	0xb7b60489	-2.1698203e-05
89	0x36f727b9	7.365798e-06
90	0xba1906bc	-0.00058374903
91	0x36c0c383	5.7448065e-06
92	0x380917ed	3.2685628e-05
93	0xb8cd7925	-9.797727e-05
94	0x3710bfe6	8.627749e-06
95	0xb7e9f45b	-2.7889551e-05
96	0x399beefe	0.00029741967
97	0xb85cb441	-5.2619962e-05
98	0xb72ff939	-1.04888395e-05
99	0xb823bb78	-3.9036822e-05
100	0xb97cd2bd	-0.00024111099
101	0xb8805c0d	-6.1206614e-05
102	0xb91a3275	-0.00014705381
103	0xb70a7099	-8.251657e-06
104	0x37e81597	2.7666609e-05
105	0x38690156	5.5552773e-05
106	0x3a3a7198	0.00071122637
107	0x37561bd6	1.2761875e-05
108	0xb5539185	-7.8815384e-07
109	0x36a6f00d	4.975131e-06
110	0x373ff1cc	1.1440785e-05
111	0x37ee8730	2.8434762e-05
112	0xb81b098e	-3.696378e-05
113	0xb9c7ec58	-0.00038132328
114	0xb9705e4f	-0.00022923316
115	0xb81f23e1	-3.794197e-05
116	0xb91c98ab	-0.00014934193
117	0xb8b66f4c	-8.699167e-05
118	0xb92ead85	-0.00016658574
119	0xb8ee250b	-0.00011355624
120	0x38573d5e	5.1317147e-05
121	0xb849c4d8	-4.810546e-05
122	0xb773539f	-1.4503398e-05
123	0x38447c29	4.6845675e-05
124	0x3a8bae83	0.0010656867
125	0x3a47218a	0.0007596245
126	0x3a195b45	0.0005850087
127	0x382e4d23	4.1556672e-05
128	0x38bf27af	9.1149814e-05
129	0xb97a5ea9	-0.00023877122
130	0xb6545cfd	-3.1644588e-06
131	0x392249c2	0.00015477001
132	0xb769ca3b	-1.3934968e-05
133	0xb8a177d0	-7.699395e-05
134	0xb63989f8	-2.7647457e-06
135	0xb8fe5ccf	-0.00012128951
136	0xb6bee8e3	-5.689553e-06
137	0x350d378a	5.2607413e-07
138	0x390ca7d3	0.0001341396
139	0x37ed25fc	2.827029e-05
140	0xb902f735	-0.00012489858
141	0xb8b967ae	-8.840799e-05
142	0xb8649004	-5.449356e-05
143	0x36b07ae8	5.259517e-06
144	0xb02228f3	-5.899345e-10
145	0xa46291f2	-4.912956e-17
146	0x38e5452a	0.00010932454
147	0xb877bbb1	-5.906419e-05
148	0xb6d7e24e	-6.4338446e-06
149	0x372ecc1b	1.041873e-05
150	0xb726fb92	-9.952944e-06
151	0xb8077f9a	-3.2305346e-05
152	0xb7dc630d	-2.6272168e-05
153	0x372297a0	9.691255e-06
154	0xb96e6878	-0.00022736366
155	0x36852697	3.9682013e-06
156	0xb70fb8ce	-8.566492e-06
157	0xb868c144	-5.5493103e-05
158	0x3873d079	5.812987e-05
159	0x36a91a18	5.03963e-06
160	0xb8c93f3b	-9.5962045e-05
161	0x36bad0b0	5.5675264e-06
162	0xb210a76f	-8.419973e-09
163	0xb75afad2	-1.3052211e-05
164	0xb936b449	-0.00017424034
165	0xb815bda4	-3.5700985e-05
166	0xb89f877a	-7.606945e-05
167	0x365cc4fa	3.289721e-06
168	0x387e4072	6.061834e-05
169	0xb9c4ea43	-0.00037558572
170	0xb931b398	-0.0001694694
171	0x3776d25e	1.47117225e-05
172	0x3766100d	1.3712805e-05
173	0xb6223e04	-2.417598e-06
174	0x34153fec	1.3899961e-07
175	0x36c52e3e	5.876441e-06
176	0xb793baed	-1.761081e-05
177	0xb8f2672e	-0.00011558678
178	0xb8ac9b79	-8.230558e-05
179	0xb829cf54	-4.048583e-05
180	0xb8c83371	-9.546325e-05
181	0xb62b9c8c	-2.5572108e-06
182	0xb8670fe0	-5.5089477e-05
183	0x387213fe	5.7715915e-05
184	0x389cef8e	7.48328e-05
185	0xb5f6515a	-1.8352105e-06
186	0xb5929499	-1.0921095e-06
187	0x389ec4d9	7.570693e-05
188	0x38b05709	8.4085455e-05
189	0x3867f146	5.5299395e-05
190	0xb6a6694a	-4.959443e-06
191	0x3858de2c	5.1705327e-05
192	0xb40b33a0	-1.2964165e-07
193	0xba43c09b	-0.000746736
194	0xb401d2ce	-1.2090752e-07
195	0xba638db2	-0.0008680477
196	0xa640f1a7	-6.694088e-16
197	0xbb001b0c	-0.0019547371
198	0xb3a2833e	-7.567586e-08
199	0xb97078d2	-0.00022933193
200	0x00002107	1.1848e-41
201	0x32241f68	9.553197e-09
202	0xb4636c75	-2.1180479e-07
203	0x38d07b8c	9.941225e-05
204	0xb90c7ab7	-0.00013397155
205	0xb740558d	-1.1464011e-05
206	0x31d8aff5	6.3064314e-09
207	0xb979e342	-0.0002383115
208	0xb0f0d18e	-1.7521857e-09
209	0xb7315de9	-1.0571887e-05
210	0xbb0a765c	-0.0021127677
211	0xb930f3ce	-0.00016875492
212	0x3682b7b2	3.895687e-06
213	0x3085df5c	9.740506e-10
214	0xb3fc7ab9	-1.17569876e-07
215	0xb88db98a	-6.757963e-05
216	0xb7f39495	-2.9037046e-05
217	0x2e01af33	2.9486812e-11
218	0xb9af9743	-0.000334913
219	0x9e92116b	-1.5465555e-20
220	0x397e7dff	0.00024270265
221	0x3096590e	1.0939247e-09
222	0xba201df9	-0.0006107982
223	0xb889bed9	-6.568217e-05
224	0xba038c7d	-0.0005018188
225	0x3671dc62	3.6040078e-06
226	0x33b3a00e	8.364451e-08
227	0xbaafffdf	-0.0013427696
228	0xb9cefed4	-0.00039481244
229	0x302bae79	6.245738e-10
230	0xb990222b	-0.00027491277
231	0x33ae8ff8	8.128694e-08
232	0xb840d222	-4.597207e-05
233	0xbaee8428	-0.0018197345
234	0xbab7a847	-0.0014011943
235	0x395bd1a9	0.00020963572
236	0xb56c5094	-8.803411e-07
237	0x902d2834	-3.4149206e-29
238	0x3707ee4c	8.10211e-06
239	0x380edda6	3.4061864e-05
240	0x3101d1a0	1.8891129e-09
241	0xba39fe31	-0.00070950674
242	0xb6bdedce	-5.660323e-06
243	0xb782d22b	-1.5595075e-05
244	0xb860be23	-5.358284e-05
245	0xb5aba5aa	-1.2788707e-06
246	0xb89326cd	-7.0167334e-05
247	0xb5323a60	-6.6395114e-07
248	0x374b1fd9	1.2107158e-05
249	0x31093475	1.9965942e-09
250	0xb7200518	-9.537929e-06
251	0xb922676d	-0.00015488053
252	0xbaffe2ea	-0.0019522582
253	0xb9882115	-0.0002596459
254	0xb9ab5125	-0.0003267612
255	0x358c4fda	1.0454053e-06
