p1_navigation/checkpoint_DQN_2019_01_25_21h32m59s.pth (torch_old, 85106 bytes, 18 tensors)

hidden_layers.0.weight f4 [64, 37]
0	0xbd9f25df	-0.07770895
1	0x3c153d5c	0.0091088675
2	0xbd24d9f4	-0.04024692
3	0xbdc56113	-0.09637656
4	0x3d76c404	0.06024553
5	0x3c4d0755	0.012513955
6	0xbe2e73a8	-0.17036307
7	0xbdd37b16	-0.10326211
8	0x3d81d3f1	0.06339253
9	0xbdcdc42a	-0.10047181
10	0xbc07bb24	-0.008284364
11	0x3de631fb	0.11240002
12	0x3e0abd13	0.13548689
13	0x3d4e190e	0.050316863
14	0xbcc58852	-0.024112854
15	0x3e12c605	0.14333351
16	0x3de627ef	0.112380855
17	0x3c83d56f	0.016092984
18	0xbd3b626a	-0.04574815
19	0xbd8aff63	-0.067869924
20	0x3d9d264e	0.07673322
21	0x3dee5007	0.11636358
22	0x3decef2d	0.11569057
23	0x3dd1e16f	0.10248076
24	0x3c8cb612	0.017176662
25	0x3de42361	0.111395605
26	0xbbbef689	-0.005827729
27	0x3cc7c484	0.024385698
28	0x3d2767c2	0.040870436
29	0xbdb23ca1	-0.0870297
30	0xbda6c887	-0.08143716
31	0x3dc49870	0.09599388
32	0xbd994fb4	-0.07485905
33	0x3d83c8e5	0.06434802
34	0xbe2e3243	-0.17011361
35	0xbe1edeec	-0.15514725
36	0xbdc979e2	-0.098377004
37	0x3db01171	0.08597077
38	0xbc379e33	-0.011207151
39	0xbd4eb206	-0.050462745
40	0xbd84a48f	-0.064766996
41	0x3dd09e87	0.10186487
42	0x3ca9d838	0.020732984
43	0x3deade1c	0.11468145
44	0x3dba5072	0.09097375
45	0x3c8321af	0.016007273
46	0xbdbaa8df	-0.09114241
47	0xbe161a01	-0.14658357
48	0x3db62514	0.08893791
49	0x3b7ae592	0.0038283807
50	0xbcedd35f	-0.029031454
51	0x3e1b45aa	0.15163293
52	0x3e12762a	0.14302889
53	0xbcac213a	-0.021011937
54	0x3e112fee	0.1417844
55	0x3dd9895f	0.106219046
56	0xbd94bdb0	-0.072627425
57	0x3d230a19	0.03980455
58	0xbdce24d0	-0.10065615
59	0xbcf76daa	-0.03020366
60	0x3d84e662	0.064892545
61	0x3d943dc5	0.07238344
62	0xbdef6ca2	-0.11690642
63	0xbc080c27	-0.008303679
64	0x3d8fd502	0.0702305
65	0x3db9ea9d	0.09077952
66	0x3d88b330	0.06674802
67	0x3e23e347	0.16004668
68	0x3de52920	0.111894846
69	0xbe193898	-0.14962995
70	0x3de59e80	0.11211872
71	0x3e113ecd	0.14184113
72	0x3cffad26	0.031210493
73	0xbdaa8cae	-0.08327614
74	0xbe048486	-0.12941179
75	0xbde50b40	-0.111837864
76	0xbd1647b9	-0.036689494
77	0x3e06d87a	0.13168517
78	0x3dcc545c	0.09977028
79	0x3e0144c3	0.12623887
80	0x3deed01b	0.11660787
81	0x3e1f70fd	0.15570445
82	0x3d552323	0.052035462
83	0xbd961ef0	-0.073301196
84	0x3daeef0f	0.085416906
85	0x3ce5702e	0.028007593
86	0xbd9af8d3	-0.07566991
87	0x3cbf3216	0.023339313
88	0xbc864f67	-0.016395284
89	0xbd6350e1	-0.055497054
90	0xbda55908	-0.08073622
91	0x3e001132	0.1250656
92	0xbd26d835	-0.040733535
93	0x3e1e9114	0.1548503
94	0x3d99b028	0.07504302
95	0x3de269e7	0.110553555
96	0xbde209e3	-0.11037042
97	0xbc07f18c	-0.008297335
98	0x3d017ce4	0.031613246
99	0xbdd663e5	-0.10468272
100	0x3db174b6	0.08664839
101	0xbde3f9d4	-0.11131635
102	0x3debfcd8	0.115228355
103	0xbdbc865c	-0.092053145
104	0xbdce1502	-0.10062601
105	0x3c5bbfb1	0.013412402
106	0xbdbf7ae2	-0.0934961
107	0x3d40f7f2	0.04711146
108	0x3ce78d90	0.028265744
109	0x3d159b85	0.036525268
110	0xbde2edd9	-0.11080522
111	0xbd59f278	-0.05320975
112	0xbdcb91d9	-0.099399276
113	0xbc15dbf2	-0.009146677
114	0xbda3995b	-0.079882346
115	0xbe0f1993	-0.139746
116	0xbe34c9c6	-0.17655095
117	0xbdbb40c1	-0.0914321
118	0x3df71807	0.1206513
119	0xbe1c6bf5	-0.15275557
120	0x3d2eb477	0.042652573
121	0xbe1728e6	-0.14761695
122	0xbdacbf4d	-0.08434925
123	0xbe2039e3	-0.15647082
124	0x3da92a31	0.082600005
125	0xbdec5586	-0.1153975
126	0x3e0d235d	0.13783021
127	0x3d0638de	0.032769077
128	0xbe10b0c7	-0.14129935
129	0xbdaf224c	-0.085514635
130	0xbe0ccc0c	-0.13749713
131	0x3b8d0652	0.004303732
132	0x3c7ea4b5	0.015542199
133	0xbca925a5	-0.020647833
134	0x3dfd9a53	0.12382951
135	0x3daa38b2	0.08311595
136	0x3db35f92	0.08758463
137	0xbdc08a9c	-0.09401438
138	0x3d9bb496	0.076028034
139	0xbe2048a6	-0.15652713
140	0xbdce5c89	-0.100762434
141	0xbdc33cd2	-0.09533085
142	0xbc9cc04e	-0.019134667
143	0x3df2351b	0.11826535
144	0x3dd4a411	0.10382856
145	0xbd5dbeec	-0.054137155
146	0x3ddafb8a	0.106925085
147	0xbdb16ed6	-0.086637184
148	0x3db37841	0.08763171
149	0x3dc0ce9d	0.09414408
150	0x3e068014	0.13134795
151	0xbe1fa27d	-0.15589328
152	0x3dfcc7b3	0.12342777
153	0xbd26ed97	-0.040753927
154	0xbcaae523	-0.020861214
155	0xbdfc3d9e	-0.1231644
156	0xbdf049af	-0.11732804
157	0x3de78ac7	0.113057666
158	0x3df6dea8	0.12054187
159	0xbdc4f33a	-0.09616704
160	0x3ccbd275	0.024880627
161	0xbcb75da9	-0.022383528
162	0xbdf35bcc	-0.11882743
163	0x3d6f37ac	0.058402702
164	0x3d1d4ed9	0.038405273
165	0xbe289d54	-0.16466266
166	0x3d919e96	0.07110326
167	0x3de5f66d	0.112286426
168	0x3dbe85df	0.09302878
169	0x3def60f8	0.11688417
170	0x3db42601	0.08796311
171	0x3c9a8b36	0.01886521
172	0xbd9163e6	-0.07099132
173	0x3c9bd2ec	0.019021474
174	0xbd8bc007	-0.06823736
175	0x3bebfcb2	0.0072017545
176	0xbdbef06b	-0.093232
177	0x3d1f0ff4	0.038833573
178	0x3db851a9	0.089999504
179	0x3dbc3ac9	0.091909
180	0xbdc5def2	-0.09661664
181	0x3d925679	0.071453996
182	0x3dc375a1	0.0954392
183	0x3d888587	0.06666093
184	0xb940ee51	-0.00018399327
185	0xbd1fe225	-0.039034028
186	0x3d98ace9	0.07454855
187	0x3d08b6db	0.03337751
188	0x3c2e0e8d	0.010623586
189	0x3e0bec83	0.13664441
190	0x3be229cc	0.006901955
191	0xbb2cc76d	-0.0026363984
192	0xbd23712d	-0.039902855
193	0x3e0d3630	0.13790202
194	0x3c3d7e3e	0.011565743
195	0x3e1d8feb	0.15386932
196	0xbdddae8a	-0.10824306
197	0x3de75a01	0.11296464
198	0xbe13e252	-0.14441803
199	0xbe0ae512	-0.13563946
200	0x3d3ce656	0.046118103
201	0xbe3098fc	-0.17245859
202	0x3dd514c3	0.104043506
203	0xbd6422a9	-0.055697117
204	0x3dd5ef98	0.104460895
205	0x3d2dc296	0.0424219
206	0x3dcf2031	0.10113562
207	0xbd94045e	-0.072273955
208	0xbd0e3c1f	-0.034725305
209	0xbe03298c	-0.12808818
210	0xbd48eb11	-0.0490523
211	0x3d9c3c23	0.07628658
212	0xbdec073f	-0.115248196
213	0xbd0cd901	-0.03438664
214	0xbd01b7e0	-0.031669497
215	0x3d279b4d	0.04091959
216	0xbde17cc2	-0.11010124
217	0x3d9043cc	0.07044181
218	0xbdc131dc	-0.09433338
219	0xbe1370f4	-0.14398557
220	0x3d8394c9	0.06424863
221	0x3dfd82a3	0.123784326
222	0xbd9c45c9	-0.07630498
223	0xbe01ca30	-0.12674785
224	0x3d8ad273	0.06778421
225	0xbd29e002	-0.041473396
226	0xbe108c06	-0.14115915
227	0x3df9a744	0.121901065
228	0xbd74e310	-0.059786856
229	0x3d9088f3	0.07057371
230	0xbdcc50db	-0.099763595
231	0x3cd09252	0.025460396
232	0x3d26d871	0.04073376
233	0x3d0c9a0d	0.0343266
234	0x3db6e10d	0.08929644
235	0x3d55f856	0.052238785
236	0x3dd51b97	0.10405653
237	0x3d165529	0.03670231
238	0xbc39f882	-0.011350753
239	0x3ddbe192	0.107363835
240	0xbe0e9cb7	-0.1392697
241	0x3d224c20	0.03962338
242	0x3d85b32b	0.06528314
243	0xbd2139f9	-0.039361928
244	0xbe2c3f22	-0.16820958
245	0xbd3f16db	-0.046652656
246	0x3d82e118	0.063905895
247	0xbda539ad	-0.080676414
248	0x3dc91601	0.0981865
249	0xbe00de9c	-0.12584919
250	0xbe108431	-0.14112927
251	0xbd0c4173	-0.034242105
252	0xbd91da80	-0.07121754
253	0x3de5b312	0.112157956
254	0xbe052eb9	-0.13006105
255	0x3de273db	0.11057254

hidden_layers.0.bias f4 [64]
0	0xbc5a5f5a	-0.013328398
1	0xbe28c9f8	-0.16483295
2	0x3dacfe16	0.084469005
3	0x3d60994f	0.054833706
4	0x3dc4c93c	0.09608695
5	0xbd9cde56	-0.07659595
6	0x3d6fb31c	0.05852042
7	0x3dc65590	0.096842885
8	0x3ddff4cc	0.10935363
9	0xbd8fdb6e	-0.07024275
10	0x3e2813b7	0.1641377
11	0x3d8b9f7d	0.06817529
12	0x3dafaeb3	0.08578243
13	0xbd64727e	-0.05577325
14	0xbdb68684	-0.089123756
15	0x3e2634b7	0.16231047
16	0x3e0cb5ab	0.13741176
17	0xbe1bc153	-0.15210466
18	0xbde87dd9	-0.113521285
19	0xbc96aef0	-0.018393964
20	0xbdc06dc5	-0.09395937
21	0xbc03e431	-0.008050011
22	0x3dc59bb6	0.0964884
23	0xbe2d2c65	-0.16911466
24	0xbd61b27d	-0.05510186
25	0xbe24ab44	-0.16080958
26	0xbdd17807	-0.102279715
27	0xbe1973d6	-0.14985594
28	0x3db8fd30	0.09032667
29	0x3e157426	0.14595088
30	0x3d794b65	0.060862917
31	0x3a2a56e5	0.00064979336
32	0x3e098e11	0.134331
33	0x3cbe824f	0.023255495
34	0x3e13cd71	0.14433838
35	0x3d34907a	0.044083096
36	0x3c7ba457	0.015359006
37	0x3c93e27d	0.018052334
38	0xbe0ea1d0	-0.13928914
39	0xbdfaee14	-0.12252441
40	0xbcfceb99	-0.03087406
41	0x3d8efcc6	0.069818065
42	0x3e00b5a7	0.12569295
43	0xbc97c618	-0.018527076
44	0xbc9ff7db	-0.019527366
45	0x3d815325	0.06314687
46	0x3cf86000	0.030319214
47	0xbe03ac14	-0.12858611
48	0x3e16bad9	0.14719714
49	0x3dc5fda1	0.096675165
50	0x3dfac707	0.12244993
51	0x3d267dd2	0.040647335
52	0xbc4d5c24	-0.012534175
53	0x3cbe17e7	0.023204757
54	0x3e11fb98	0.14256132
55	0xba34b0c3	-0.00068927946
56	0x3dc559a2	0.09636237
57	0x3d05bdb2	0.03265161
58	0xbca13ead	-0.019683206
59	0xbe1a2274	-0.15052205
60	0x3e0b4789	0.13601507
61	0xbdd97256	-0.10617511
62	0x3d427cc3	0.047482263
63	0x3d188b35	0.037242133

hidden_layers.1.weight f4 [64, 64]
0	0xbd0a574f	-0.03377467
1	0x3d58ba6f	0.052912172
2	0xbd12c89e	-0.035835855
3	0xbda68f64	-0.08132818
4	0xbc8100e3	-0.015747493
5	0xbd0425b6	-0.032262526
6	0xbce43802	-0.027858738
7	0xbd8fe66b	-0.070263706
8	0x3d85f59f	0.06540989
9	0x3cfd3f9d	0.030914122
10	0x3c8cc0fb	0.017181864
11	0xbc649734	-0.013952065
12	0x3daa1d0f	0.08306324
13	0x3cc0f6c8	0.023555174
14	0xbccc3373	-0.024926877
15	0xbdacc621	-0.084362276
16	0x3d4e6ca2	0.05039657
17	0xbda5eb68	-0.08101541
18	0xbe0711d3	-0.13190393
19	0x3b681ea5	0.0035418656
20	0xbde7d848	-0.11320549
21	0xbdeafe00	-0.11474228
22	0xbc88a211	-0.016678842
23	0xbdb232b3	-0.08701076
24	0xbdfa7864	-0.12229994
25	0xbdca377c	-0.09873864
26	0xbcda5ba0	-0.026655018
27	0xbd293f7c	-0.04132031
28	0xbdab6344	-0.08368543
29	0x3dbaa63a	0.091137365
30	0x3c103fa4	0.008804236
31	0xbe06d1b0	-0.13165927
32	0xbd6aca0c	-0.057321593
33	0xbc474f87	-0.012164957
34	0xbdb478ec	-0.088121265
35	0x3daa37a5	0.083113946
36	0x3d9298ec	0.07158074
37	0xbbe86fa5	-0.007093387
38	0x3d9120e3	0.07086351
39	0x3c950eb2	0.018195484
40	0xbd9068cf	-0.07051241
41	0x3cfc0580	0.030764341
42	0x3d59e6e1	0.0531987
43	0x3d13554c	0.035970017
44	0xbce4ef3c	-0.027946107
45	0x3d4a1311	0.04933459
46	0x3d562ddb	0.052289825
47	0xbe0a3de6	-0.13500175
48	0x3d97b912	0.07408346
49	0xbd9e8f31	-0.07742155
50	0xbdd5bccc	-0.10436401
51	0x3d2e3c94	0.04253824
52	0x3cb29ded	0.02180382
53	0xbdb04a1d	-0.08607886
54	0x3cc8c71d	0.024509007
55	0xbaf4be8d	-0.0018672511
56	0x3d9d8e88	0.07693201
57	0xbd8a126b	-0.06741794
58	0x3d1f059c	0.03882371
59	0xbd71619b	-0.058930974
60	0x3d2e7a5e	0.042597167
61	0xbd7c0156	-0.06152471
62	0x3dba5c94	0.09099689
63	0xbd98bbaf	-0.07457673
64	0x3dc0b542	0.09409572
65	0xbd544980	-0.051827908
66	0x3d0c2b15	0.034220774
67	0xbdaed249	-0.085362025
68	0xbd35f46d	-0.044422556
69	0xbb19b8cd	-0.0023456097
70	0xbd00f119	-0.03147993
71	0x3dc84535	0.09778825
72	0x3d7b8fa5	0.061416287
73	0xbdfb3837	-0.122665815
74	0xbd76ea11	-0.060281817
75	0xbd08ccf5	-0.033398587
76	0x3ce43c19	0.027860688
77	0x3d2f4251	0.042787854
78	0x3d5501f8	0.05200383
79	0xbd350adf	-0.04419982
80	0x3d9a4378	0.075324
81	0xbd2c8104	-0.042115226
82	0xbc4468cc	-0.011987876
83	0x3da6628f	0.08124267
84	0xbdb23429	-0.08701355
85	0xbd793776	-0.060843907
86	0xbd3e325f	-0.046434756
87	0xbd73fe44	-0.05956866
88	0xbdd31a7a	-0.103077844
89	0x3dc18086	0.09448342
90	0xbd2138ad	-0.03936069
91	0xbb28bf36	-0.0025748736
92	0x3c02dd5f	0.007987349
93	0xbdda9d6b	-0.10674556
94	0x3dd0971e	0.10185073
95	0xbc83e091	-0.016098293
96	0x3db6d4d2	0.08927311
97	0x3d16fe01	0.03686333
98	0xbdf56116	-0.11981408
99	0x3db7c3d4	0.08972898
100	0xbdb67d1a	-0.0891058
101	0xbdf2d375	-0.118567385
102	0xbd97996e	-0.07402311
103	0xbd341f0a	-0.043974914
104	0xbd5a0440	-0.05322671
105	0x3cb089c9	0.021550076
106	0xbd618208	-0.055055648
107	0xbc8f366a	-0.017482001
108	0x3d9acc2a	0.075584725
109	0x3d8a070e	0.06739627
110	0x3c522915	0.0128271775
111	0x3d38556b	0.045003336
112	0xbdafb90d	-0.085802175
113	0xbc896b1b	-0.016774705
114	0x3c8608e6	0.016361665
115	0x3dcfed29	0.101526566
116	0xbdec3a64	-0.11534575
117	0xbddac036	-0.106811926
118	0xbcb22190	-0.02174452
119	0x3d6295be	0.055318587
120	0xbd93c50e	-0.072153196
121	0xbde736c5	-0.11289743
122	0xbdda3ba5	-0.106559075
123	0x3c4d0c7a	0.012515182
124	0x3dbbce31	0.09170187
125	0xbd227893	-0.03966577
126	0xbcaaedea	-0.0208654
127	0x3c9b04da	0.018923212
128	0xbdb664d7	-0.089059524
129	0x3d211188	0.03932336
130	0x3abf9b18	0.0014618365
131	0x3d2eb2af	0.042650875
132	0x3dcaf862	0.099106565
133	0x3d724330	0.059146106
134	0xbdace033	-0.084412
135	0xbd576cd1	-0.05259401
136	0x3ccc086f	0.024906365
137	0x3cc86309	0.024461286
138	0xbde95c28	-0.113945305
139	0x3ca7339a	0.020410348
140	0x3d9707d6	0.073745415
141	0xbd928bcc	-0.071555704
142	0x3db38f7b	0.08767601
143	0xbdc8344c	-0.097756
144	0x3cb8ad02	0.022543434
145	0xbddea034	-0.108704
146	0x3dc918ef	0.09819209
147	0xbda41b04	-0.08012965
148	0xbdd079d9	-0.101794906
149	0xbe080692	-0.13283756
150	0x3d2b8ba7	0.04188123
151	0xbbedf7b8	-0.0072621964
152	0x3d8c8be8	0.068626225
153	0x3ca4a0f6	0.020096283
154	0x3d2e0dcb	0.042493623
155	0xbd5bdc74	-0.053677037
156	0xbdcfd0fc	-0.101472825
157	0x3dd31858	0.103073776
158	0xbd981038	-0.074249685
159	0x3dc53b44	0.09630445
160	0xbda32324	-0.07965687
161	0x3d9b2058	0.075745285
162	0x3d4a61d8	0.049409717
163	0x3d1df0e7	0.03855982
164	0xbe00c3ac	-0.12574643
165	0x3c93e265	0.01805229
166	0xbd694fa7	-0.056960728
167	0x3d3e8b6a	0.046519674
168	0xbdecdcbb	-0.115655385
169	0xbd9dffcd	-0.07714806
170	0xbd92067a	-0.071301416
171	0xbc5e079b	-0.013551618
172	0x3ca8aefc	0.020591252
173	0xbd76862e	-0.060186557
174	0xbde65cf7	-0.112482004
175	0xbdc89aa1	-0.09795118
176	0xbdfd2eeb	-0.123624645
177	0xbd3eed1c	-0.046612844
178	0x3ceb3267	0.028710557
179	0xbda52a91	-0.080647595
180	0xbd31346d	-0.043262888
181	0xbd8c4add	-0.068502165
182	0x3d32fa2a	0.043695606
183	0xbddf466e	-0.10902105
184	0xbdbce887	-0.092240386
185	0x3d835c41	0.064140804
186	0xbda4db3d	-0.08049629
187	0xbdda372a	-0.10655053
188	0x3d24f378	0.040271252
189	0xbc9bf21f	-0.01903635
190	0xbda41c57	-0.08013218
191	0xbb2eca23	-0.0026670776
192	0xbd88e517	-0.066843204
193	0x3dcaa36a	0.0989445
194	0xbdbfdc7d	-0.09368227
195	0xbd7f9916	-0.062401854
196	0xbdd96ba7	-0.10616236
197	0xbcec66aa	-0.028857548
198	0xbc8c8fdb	-0.01715844
199	0xbd9f2097	-0.07769888
200	0x3dd258aa	0.102708176
201	0xbd60404f	-0.05474883
202	0xbdf17b0c	-0.117910475
203	0xbd65718a	-0.056016482
204	0xbe06f002	-0.13177493
205	0xbc520446	-0.012818402
206	0x3d9fac21	0.07796503
207	0x3dda080d	0.10646067
208	0xbd6e4a6a	-0.058176436
209	0xbd8992a6	-0.06717424
210	0x3c3a8e32	0.011386441
211	0x3dbc030b	0.09180268
212	0x3d7e8313	0.06213672
213	0xbd81a680	-0.063305855
214	0x3ce49539	0.027903186
215	0x3d70bf8d	0.058776427
216	0xbd97c11f	-0.07409882
217	0xbcf231d7	-0.029564781
218	0x3dc617c9	0.096725054
219	0xbd83ea47	-0.06441169
220	0xbdd577d2	-0.104232445
221	0x3c101881	0.008794905
222	0x3d46f646	0.04857471
223	0xbe055f22	-0.13024572
224	0x3cc236a5	0.023707697
225	0xbcd5fb7d	-0.026120896
226	0x3d087fed	0.033325125
227	0x3c907b83	0.01763702
228	0x3dc99fc2	0.098449245
229	0xbd4a68f3	-0.049416494
230	0x3d541475	0.05177732
231	0xbd59a661	-0.053137187
232	0xbce2edd8	-0.027701303
233	0xbdd30bf8	-0.10305017
234	0x3ccc42e2	0.024934236
235	0xbdb7dd7d	-0.089777924
236	0xbd71a817	-0.058998194
237	0x3d96a6e0	0.07356048
238	0xbd8a8353	-0.06763329
239	0x3db7f2bf	0.08981847
240	0x3cd48e1e	0.025946673
241	0x3d241830	0.04006213
242	0xbc802516	-0.015642684
243	0x3cd5455f	0.026034055
244	0x3db7a971	0.08967865
245	0xbd8b1689	-0.067914076
246	0xbd4b095b	-0.04956947
247	0xbc4d2a51	-0.012522296
248	0xbd6e1fed	-0.058135916
249	0x3dd65e70	0.10467231
250	0x3d08f07b	0.033432465
251	0x3d3f29c9	0.04667071
252	0xbca1e73b	-0.01976358
253	0xbd12fd7b	-0.03588627
254	0x38f73310	0.00011787389
255	0xbe049c54	-0.1295026

hidden_layers.1.bias f4 [64]
0	0xbce0129e	-0.027352627
1	0x3dbaf633	0.0912899
2	0x3b924a62	0.0044644335
3	0xbdf9ad8a	-0.12191303
4	0x3c08b2a5	0.008343373
5	0xbd0d9ed1	-0.034575287
6	0x3d667203	0.056261074
7	0xbd65d5e6	-0.056112193
8	0x3d90735f	0.07053255
9	0xbde02a54	-0.109455734
10	0x3c1143de	0.008866278
11	0xbdb652f1	-0.089025386
12	0x3dadf437	0.08493846
13	0xbdca65b3	-0.09882679
14	0xbd9e97b7	-0.07743781
15	0x3e07273d	0.13198562
16	0x3d3daa82	0.046305187
17	0x3da076d6	0.07835166
18	0xbc9549b5	-0.018223623
19	0xbdc56ab1	-0.096394904
20	0x3d2a7450	0.04161483
21	0x3cfd7da0	0.030943692
22	0x3dd9ffc9	0.1064449
23	0xbda69463	-0.08133771
24	0xbd93be9c	-0.0721409
25	0xbd418c8f	-0.047253188
26	0x3d9f4aca	0.07777937
27	0xbdc89d1b	-0.097955905
28	0xbc18dea2	-0.009330424
29	0x3de82a6a	0.11336215
30	0xbde6654b	-0.11249789
31	0xbdc2c930	-0.0951103
32	0xbe03c9f2	-0.12870005
33	0x3d8a8e32	0.06765403
34	0x3d033c1d	0.03203975
35	0xbe0045b7	-0.12526594
36	0x3d9bc25b	0.0760543
37	0xbd9e2b8d	-0.077231504
38	0xbd03a01c	-0.032135114
39	0x3cdc0b11	0.026860746
40	0x3e01a17b	0.12659256
41	0x3dae7022	0.085174814
42	0x3da00cc3	0.07814934
43	0x3de57de2	0.11205651
44	0xbd06aa2a	-0.032877125
45	0xbdbaeeb8	-0.09127563
46	0x3e038aff	0.12845992
47	0xbd9c9793	-0.07646098
48	0x3b9803b3	0.004639113
49	0xbde8dec5	-0.11370615
50	0x3d955499	0.07291526
51	0xbda0c19f	-0.0784943
52	0x3cc20476	0.023683768
53	0xbd993656	-0.07481067
54	0xbd628355	-0.05530103
55	0x3c72880c	0.014802944
56	0xbdbc182f	-0.091843
57	0x3d6ba2e6	0.0575284
58	0xbcd2dc78	-0.025739893
59	0x3d8415aa	0.064494446
60	0xbe00b63f	-0.12569521
61	0xbd8af4fd	-0.06785009
62	0x3d077945	0.033074636
63	0xbd830316	-0.06397073

output.weight f4 [4, 64]
0	0xbd2d6836	-0.04233571
1	0xbd83fad1	-0.06444324
2	0xbd86464e	-0.06556378
3	0xbddfbf2a	-0.109251335
4	0xbd8fec64	-0.0702751
5	0x3cd5e25c	0.026108913
6	0x3dc888d6	0.097917244
7	0xbdda467b	-0.10657974
8	0x3ce361dd	0.027756626
9	0x3df09dc2	0.1174884
10	0xbd8fff44	-0.0703111
11	0xbc184279	-0.009293192
12	0xbca90871	-0.020633908
13	0xbb8a0911	-0.0042125066
14	0xbced84f3	-0.02899406
15	0x3c54abb2	0.0129803885
16	0x3da556d5	0.080732025
17	0xbd6582bb	-0.056032877
18	0xbc848102	-0.016174797
19	0xbd3562c0	-0.04428363
20	0x3dd78880	0.10524082
21	0xbda9b424	-0.08286312
22	0xbd945901	-0.07243539
23	0x3dce5d84	0.100764304
24	0xbbb7f819	-0.0056142923
25	0xbd63d560	-0.055623412
26	0x3dd11ab7	0.102101736
27	0x3bad2d77	0.005284961
28	0xbd9c2ae7	-0.076253705
29	0x3dc2fba9	0.095206566
30	0x3dda3786	0.106551215
31	0xbc071b74	-0.008246291
32	0xbd6a649a	-0.057224847
33	0x3dbfaafc	0.093587846
34	0x3c1d93e9	0.009617784
35	0xbd5ea0e8	-0.05435267
36	0x3bc7b31a	0.0060943486
37	0xbd6f3a43	-0.058405172
38	0xbd0ee135	-0.034882743
39	0x3d632c50	0.05546218
40	0x3d853652	0.065045014
41	0x3e05ca08	0.1306535
42	0x3cd1f505	0.02562953
43	0x3deb8d06	0.115015075
44	0x3d33212b	0.043732803
45	0x3db1e247	0.08685737
46	0x3d47ada6	0.04874959
47	0xbdb4b6c7	-0.088239245
48	0xbc6498fb	-0.013952489
49	0x3cda52b8	0.026650771
50	0xbd4f6ed5	-0.050642807
51	0xbde1303d	-0.10995529
52	0x3af0c188	0.0018368224
53	0xbd050d19	-0.032483194
54	0xbd458f86	-0.048232578
55	0xbdda374b	-0.106550775
56	0xbd29de4c	-0.041471764
57	0xbdad9e91	-0.0847751
58	0x3d291672	0.04128117
59	0x3d863e21	0.06554819
60	0xbd6d9753	-0.058005642
61	0x3c880686	0.016604673
62	0xbd953408	-0.07285315
63	0x3d5f67ee	0.054542474
64	0xbdb755ca	-0.0895191
65	0x3db0820f	0.08618557
66	0xbdcd2f85	-0.10018829
67	0xbc859c46	-0.016309869
68	0xbd39f84c	-0.04540281
69	0x3d476e28	0.048689038
70	0x3dc3f39e	0.09567951
71	0x3d26296b	0.040566843
72	0x3d7145e7	0.058904555
73	0xbd918353	-0.07105126
74	0xbd472839	-0.048622344
75	0x3d279660	0.040914893
76	0xbdac6967	-0.084185414
77	0x3d72b621	0.059255723
78	0x3dbd918f	0.09256279
79	0xbc38d10d	-0.01128031
80	0x3dafa9c0	0.08577299
81	0x3d2eca37	0.042673316
82	0xbd284c0c	-0.04108815
83	0x3d62a2ca	0.05533103
84	0xbd49af87	-0.04923966
85	0x3d37d392	0.044879504
86	0xbdc171b1	-0.09445513
87	0x3dca4912	0.09877218
88	0xbd27d0e8	-0.040970713
89	0x3ceaf090	0.028679162
90	0x3d0cc56d	0.034367967
91	0x3cba9c86	0.022779714
92	0xbd4e7a58	-0.050409645
93	0x3d3a82f6	0.04553505
94	0xbddec821	-0.10878015
95	0x3d5fedc8	0.054670125
96	0xbda0aa01	-0.07844926
97	0x3df054ca	0.11734922
98	0x3dc63faf	0.096801154
99	0x3c44bab0	0.0120074
100	0x3df63cba	0.120233014
101	0xbd914617	-0.07093447
102	0xbd2d34f4	-0.04228683
103	0x3ca36bdb	0.01994889
104	0x3d12dcba	0.035855033
105	0x3d895697	0.06705969
106	0x3d1679b9	0.036737178
107	0x3c7824ca	0.01514549
108	0x3c22d366	0.009938097
109	0xbc7928cb	-0.01520748
110	0x3db3fcad	0.087884285
111	0x3dc3285e	0.09529184
112	0x3d92d171	0.07168854
113	0xbdca0448	-0.09864098
114	0xbc52e0ea	-0.0128710065
115	0xbccb70b0	-0.024834007
116	0x3ddecd2a	0.10878976
117	0x3ce13239	0.027489768
118	0xbd815602	-0.06315233
119	0x3df75c17	0.120781116
120	0x3d83d2b7	0.06436675
121	0x3c7fde60	0.015616983
122	0x3db3b159	0.08774061
123	0x3ce257c0	0.027629733
124	0x3d337b11	0.043818537
125	0x3cbe965e	0.02326506
126	0xba5e0096	-0.0008468715
127	0xbd5c45cb	-0.053777497
128	0xbddb5349	-0.10709245
129	0x3d18dc6d	0.03731959
130	0xbc48743d	-0.012234745
131	0xbd772340	-0.06033635
132	0x3e0fa635	0.14028247
133	0xbdc1f0bc	-0.094697446
134	0x3da6e066	0.08148269
135	0x3c8e589e	0.01737624
136	0x3d464e4e	0.04841452
137	0xbd9634b8	-0.07334274
138	0x3dbed3f2	0.09317769
139	0xbd91b159	-0.071139045
140	0xbda9162d	-0.08256183
141	0x3bf74793	0.007546374
142	0xbce6587a	-0.02811836
143	0x3d6219bd	0.055200327
144	0xbd0c22a4	-0.034212723
145	0x3dafd06c	0.08584675
146	0xbd438d57	-0.047742214
147	0xb98ebd84	-0.0002722555
148	0xbd23aae5	-0.0399579
149	0x3daaa761	0.08332706
150	0x3b889414	0.004168043
151	0x3dc86559	0.097849555
152	0x3d8d5aca	0.06902082
153	0x3dc82fde	0.09774755
154	0x3da37d39	0.07982869
155	0xbd65b010	-0.05607611
156	0xbd1482f1	-0.036257688
157	0x3d23e01a	0.04000864
158	0x3c99d733	0.018779373
159	0x3d820f2d	0.06350551
160	0x3d6a5987	0.057214286
161	0xbc66a964	-0.014078472
162	0xbd5685f0	-0.052373827
163	0x3cad0aec	0.021123372
164	0x3d8de8e0	0.06929183
165	0x3d98c144	0.074587375
166	0x3d66aed5	0.056319077
167	0xbb2764f6	-0.0025542355
168	0xbd29a739	-0.04141924
169	0xbd5a6256	-0.053316437
170	0x3cf82e5e	0.030295547
171	0x3d346bff	0.044048306
172	0xbce15974	-0.027508475
173	0x3d44f0d9	0.048081253
174	0xbd987e0b	-0.07445916
175	0xbbe9ac0a	-0.0071311044
176	0x3c412f46	0.011791056
177	0xbcc0e08d	-0.023544574
178	0xbc63e69e	-0.013909964
179	0x3c83412d	0.01602229
180	0xbd06460f	-0.032781657
181	0xbc41ede6	-0.011836505
182	0x3c8a476e	0.016879763
183	0xbd89e390	-0.06732857
184	0x3dcb92d9	0.09940118
185	0x3df106a8	0.11768848
186	0xbda9d313	-0.08292212
187	0x3c83b62d	0.01607808
188	0xbd6e1b75	-0.058131654
189	0x3c33af1a	0.01096704
190	0x3de0ffb0	0.109862685
191	0x3da5d81b	0.080978595
192	0x3d2419bc	0.040063605
193	0xbdacaeef	-0.084318034
194	0x3dc52024	0.09625271
195	0xbdd42a11	-0.10359586
196	0xbc8198e2	-0.01581997
197	0xbd2ae43b	-0.041721564
198	0x3cdd2172	0.026993487
199	0xbdbd1f15	-0.09234444
200	0xbd137f50	-0.036010087
201	0x3ddd2dc4	0.10799745
202	0x3d15d810	0.036583006
203	0x3ca7c0ff	0.02047777
204	0x3de6a526	0.11261968
205	0xbd1084d2	-0.035282917
206	0x3dcfe65e	0.10151361
207	0x3d9046f9	0.07044787
208	0x3cc1a7eb	0.02363964
209	0xbcad0964	-0.021122642
210	0xbd817117	-0.06320398
211	0xbddd395a	-0.108019546
212	0xbdcce0f4	-0.10003844
213	0x3c659c6c	0.014014345
214	0xbda3fbab	-0.08006986
215	0x3de2e386	0.11078553
216	0xbd2b718e	-0.04185634
217	0x3ddb1fcf	0.106994264
218	0x3cac580d	0.02103808
219	0xbd8d3a30	-0.06895864
220	0x3d9d9785	0.07694916
221	0xbd05e88d	-0.03269248
222	0xbda75137	-0.081697874
223	0x3d0bf380	0.034167767
224	0xbd88968a	-0.06669338
225	0xbc1b254d	-0.009469342
226	0xbd94a478	-0.072579324
227	0xbdbaa4a6	-0.091134354
228	0x3aca3c51	0.0015429353
229	0x3de13a23	0.10997417
230	0x3d80a057	0.062805824
231	0x3dc1ae2e	0.0945705
232	0x3d8d7252	0.069065705
233	0xbd94f830	-0.072739005
234	0x3d5a369a	0.05327473
235	0x3db9ca88	0.09071833
236	0xbcaa9fcc	-0.02082815
237	0xbda7291c	-0.08162138
238	0x3d6c1550	0.057637513
239	0x3d0a0343	0.033694517
240	0xbdcc9bd3	-0.099906586
241	0x3dcf6298	0.10126227
242	0x3d924393	0.07141795
243	0xbd91062e	-0.07081257
244	0xb998915d	-0.00029100003
245	0xbde19455	-0.1101462
246	0x3d20f0cc	0.03929214
247	0x3d41aaec	0.047282144
248	0x3d69f19c	0.057115182
249	0x3dbbdc47	0.09172874
250	0xbc8e7c2c	-0.017393194
251	0xbd7e9590	-0.062154353
252	0xbd874f6c	-0.066069454
253	0x3d45b2f6	0.048266374
254	0xbd1884cf	-0.03723603
255	0x3dc884e6	0.09790973

output.bias f4 [4]
0	0xbd35f483	-0.044422638
1	0xbbe446ab	-0.006966432
2	0xbc10c5bb	-0.008836205
3	0xbd2b5f27	-0.04183879

exp_avg f4 [64, 37]
0	0x37c99bfb	2.4033701e-05
1	0x38300774	4.196861e-05
2	0x375e68a0	1.3256591e-05
3	0xb762eade	-1.3525334e-05
4	0x3829135d	4.0310773e-05
5	0x37a6469a	1.9821618e-05
6	0x36ac54a8	5.1358547e-06
7	0xb6e6ff15	-6.8842296e-06
8	0x3847e6e2	4.7660324e-05
9	0x37e97e8a	2.7834689e-05
10	0x3842a486	4.640643e-05
11	0xb715c71d	-8.927452e-06
12	0x378dcb45	1.6903165e-05
13	0x373e7204	1.1351429e-05
14	0x37ecbc90	2.8221199e-05
15	0x3788e10a	1.6317255e-05
16	0x372d92e4	1.0345804e-05
17	0x37bb66a8	2.233994e-05
18	0x378c589a	1.6730559e-05
19	0x36959ef5	4.459051e-06
20	0x377663ef	1.468601e-05
21	0xb72a6937	-1.0157287e-05
22	0x373b0e6e	1.1149428e-05
23	0x3851f296	5.005541e-05
24	0x37519932	1.2493039e-05
25	0xb685759f	-3.977402e-06
26	0x349e997f	2.9541476e-07
27	0x3876a3c0	5.8803475e-05
28	0x37320a7f	1.0612071e-05
29	0x38036c48	3.133368e-05
30	0x3809abef	3.282347e-05
31	0x36cb07b5	6.0507687e-06
32	0x374874df	1.194814e-05
33	0x377a2b11	1.4911188e-05
34	0x37fd4eb9	3.0196608e-05
35	0x3876255f	5.8685775e-05
36	0xb9e5e04d	-0.000438454
37	0x37a93b85	2.0174086e-05
38	0xb60dddc2	-2.1139717e-06
39	0x382a5b3a	4.061612e-05
40	0xb7e8ca14	-2.7750655e-05
41	0x36f92210	7.4247437e-06
42	0x36cab053	6.040596e-06
43	0x38e6e303	0.00011009539
44	0xb8216d4a	-3.8487175e-05
45	0xb843f8b0	-4.672323e-05
46	0x383b2319	4.461696e-05
47	0xb63ca9c9	-2.811301e-06
48	0xb6f5556d	-7.311514e-06
49	0x383a6ad8	4.444536e-05
50	0xb663f733	-3.3969525e-06
51	0x3818bfc0	3.6418205e-05
52	0x3822b64b	3.8793583e-05
53	0xb7ec132b	-2.8142318e-05
54	0x3748520e	1.1940034e-05
55	0x370bd383	8.334292e-06
56	0xb7fc0842	-3.0044586e-05
57	0xb83354d8	-4.2755943e-05
58	0x3804e7fd	3.168731e-05
59	0x37d0bff4	2.4884917e-05
60	0x378f85f1	1.71093e-05
61	0x378845d7	1.6244985e-05
62	0x379fc178	1.9044368e-05
63	0x38717e99	5.757678e-05
64	0xb815025c	-3.5526566e-05
65	0xb72a9b76	-1.0168986e-05
66	0x37a0779d	1.9129186e-05
67	0xb6b37153	-5.3478084e-06
68	0x388348e1	6.2601415e-05
69	0x34ae9040	3.251498e-07
70	0xb7df9542	-2.6653175e-05
71	0x38132c4f	3.5088797e-05
72	0xb8ab86f4	-8.1790524e-05
73	0xb9a710eb	-0.00031865327
74	0xb791a9e9	-1.7364468e-05
75	0xb72304ef	-9.716706e-06
76	0x3738108e	1.0971109e-05
77	0xb7ec53ab	-2.8172353e-05
78	0xb70d615a	-8.426921e-06
79	0xb829cba2	-4.0482388e-05
80	0x36fddc48	7.5656317e-06
81	0x3820fddd	3.83834e-05
82	0xb850a9a5	-4.974906e-05
83	0xb78f9206	-1.7114926e-05
84	0xb7c7a578	-2.3799701e-05
85	0x37e85d92	2.7700127e-05
86	0xb7911145	-1.7293389e-05
87	0xb8018f4a	-3.0889445e-05
88	0xb7bfe698	-2.2876353e-05
89	0xb804a2d8	-3.1622913e-05
90	0x376b01da	1.4007523e-05
91	0xb713c0d9	-8.806784e-06
92	0xb795d299	-1.7860251e-05
93	0x34e29fd5	4.2212073e-07
94	0x37d667ba	2.555909e-05
95	0x37921990	1.741646e-05
96	0xb7868f73	-1.6040844e-05
97	0xb8955a67	-7.1217124e-05
98	0xb73f1ab7	-1.1390707e-05
99	0xb826de61	-3.978459e-05
100	0x3787e04c	1.61977e-05
101	0xb797e6a3	-1.8108001e-05
102	0xb62da53b	-2.5875186e-06
103	0xb802be7d	-3.117182e-05
104	0xb6d748e2	-6.415984e-06
105	0x3756f283	1.2811858e-05
106	0xb86727dd	-5.5111817e-05
107	0x3694c3af	4.4335243e-06
108	0xb8361b06	-4.341735e-05
109	0x38282419	4.008794e-05
110	0x39dc8bc4	0.00042065803
111	0xb603791a	-1.9591012e-06
112	0xb7ce35a1	-2.4582087e-05
113	0xb7baf447	-2.2286678e-05
114	0xb7536b38	-1.2601544e-05
115	0xb7aa9677	-2.0335645e-05
116	0x37ef2d86	2.8512219e-05
117	0x372489ed	9.807275e-06
118	0xb8187ca2	-3.6355697e-05
119	0xb884f1f7	-6.33932e-05
120	0xb7b0073e	-2.0984207e-05
121	0xb85afe83	-5.2212283e-05
122	0xb80a3271	-3.294874e-05
123	0x386dc301	5.6686815e-05
124	0xb80a3960	-3.29552e-05
125	0xb83dff85	-4.5299083e-05
126	0xb8274b1c	-3.9885854e-05
127	0x37ff67c3	3.0446687e-05
128	0xb80cbe6b	-3.355594e-05
129	0xb79aa358	-1.8434293e-05
130	0x36d31a9e	6.2913887e-06
131	0x36242d45	2.4464255e-06
132	0xb78c624e	-1.6735077e-05
133	0xb7d6a3d4	-2.5587076e-05
134	0xb7b4ce2d	-2.155368e-05
135	0xb8465469	-4.728549e-05
136	0xb7e77560	-2.7592003e-05
137	0x375b4c5b	1.3071195e-05
138	0xb84780a8	-4.7565118e-05
139	0x35303b51	6.5651426e-07
140	0xb8164798	-3.5829464e-05
141	0x36a7f7cf	5.0058366e-06
142	0x3793ebef	1.763363e-05
143	0xb828f6ac	-4.0284052e-05
144	0xb837a599	-4.3784825e-05
145	0xb7e02887	-2.6721753e-05
146	0xb86639bd	-5.4890046e-05
147	0x39bbd62f	0.00035827
148	0x37eb596d	2.8055825e-05
149	0xb7c8ac4e	-2.3922094e-05
150	0xb811c035	-3.47497e-05
151	0x37ee4448	2.8403607e-05
152	0x37f54709	2.9239354e-05
153	0x38a50bf0	7.870037e-05
154	0xb7f60ed5	-2.9332392e-05
155	0x34f3011c	4.5263084e-07
156	0xb85a3dfa	-5.203297e-05
157	0xb74495a2	-1.17173495e-05
158	0xb7887f70	-1.6271806e-05
159	0xb79fac0f	-1.9034398e-05
160	0x3848da12	4.788681e-05
161	0xb7782f5d	-1.47929795e-05
162	0xb633c73e	-2.6789053e-06
163	0x37da65a6	2.6034959e-05
164	0x375b004f	1.3053489e-05
165	0xb86a83a0	-5.5912533e-05
166	0x377524d7	1.4611715e-05
167	0x37fa2f15	2.9824247e-05
168	0xb5062c73	-4.998357e-07
169	0xb83bb26d	-4.4750446e-05
170	0x37a69d00	1.986185e-05
171	0x37c26a3d	2.3176073e-05
172	0xb808c4eb	-3.260832e-05
173	0x382494fa	3.9239392e-05
174	0xb807f8b4	-3.241813e-05
175	0xb808be55	-3.2602187e-05
176	0x37c5b51a	2.3568562e-05
177	0xb82f1a4e	-4.174775e-05
178	0x38cbe606	9.7226395e-05
179	0xb7f1491a	-2.876348e-05
180	0x36ff69e5	7.61192e-06
181	0xb8a42e1f	-7.82872e-05
182	0x36a4f9ed	4.916676e-06
183	0xb7fbd4a1	-3.0020545e-05
184	0xb73ba56b	-1.1184583e-05
185	0x38ab0ddb	8.156496e-05
186	0x3825f341	3.9565613e-05
187	0x38a9f7ca	8.104702e-05
188	0x38034ad3	3.130252e-05
189	0x38d6289d	0.0001021188
190	0x38c73daf	9.500549e-05
191	0x381041f6	3.4393706e-05
192	0x38840a4c	6.2961684e-05
193	0x382c7774	4.1119245e-05
194	0x38bbd3a4	8.956276e-05
195	0x38898826	6.558029e-05
196	0x38b8dfb1	8.8154695e-05
197	0x38448e8f	4.686281e-05
198	0x3809eb23	3.2882333e-05
199	0x38edd20c	0.00011340165
200	0x38adc516	8.285993e-05
201	0x38467376	4.731441e-05
202	0x387e96cb	6.0698756e-05
203	0x3832b4f3	4.260703e-05
204	0x38dffe08	0.000106807856
205	0x38a63b5c	7.9265534e-05
206	0x38a6ab4a	7.947402e-05
207	0x37d620f1	2.5526128e-05
208	0x384e6b99	4.9214435e-05
209	0x38cf5027	9.885459e-05
210	0x38be77f5	9.08225e-05
211	0x38754cbe	5.8484024e-05
212	0x3814b23b	3.545194e-05
213	0x384c5a7a	4.8721653e-05
214	0x38cb8ee3	9.706409e-05
215	0x388f0551	6.8197616e-05
216	0x387d9cde	6.0465994e-05
217	0x38851b22	6.346988e-05
218	0x382d6b98	4.134662e-05
219	0x38d15da7	9.983341e-05
220	0x38927016	6.9827e-05
221	0x3ab1b9b8	0.0013559377
222	0x386b02f3	5.6031113e-05
223	0x37b3d356	2.1436874e-05
224	0xb5f83926	-1.8494072e-06
225	0x3786eebc	1.6085214e-05
226	0x3811cb1e	3.475986e-05
227	0x3846140b	4.7225545e-05
228	0xb79fb0d4	-1.9036619e-05
229	0x37c5522b	2.3522492e-05
230	0x3827bd7a	3.9992367e-05
231	0x371ab241	9.220618e-06
232	0x38b73f87	8.737953e-05
233	0xb737b02f	-1.0948671e-05
234	0x377e34ea	1.51519e-05
235	0x3401f60b	1.2103571e-07
236	0x38258404	3.9462015e-05
237	0x387bb53f	6.0011862e-05
238	0x3697cf89	4.524311e-06
239	0xb62b03da	-2.5483228e-06
240	0x37f94681	2.9715944e-05
241	0x37850059	1.5854997e-05
242	0x37fa3f5c	2.9831826e-05
243	0x36c54036	5.8785326e-06
244	0x3737f60f	1.096494e-05
245	0x383cdcf9	4.502849e-05
246	0x37619937	1.3446718e-05
247	0x38c25c22	9.267802e-05
248	0xb78fcee8	-1.7143277e-05
249	0x37105cca	8.604673e-06
250	0x36fdd171	7.5643698e-06
251	0x37f0ed11	2.8720622e-05
252	0x37e7ebd0	2.7647155e-05
253	0x36d6e3af	6.404203e-06
254	0x37d6ad6a	2.559154e-05
255	0x3806791f	3.2060892e-05

exp_avg_sq f4 [64, 37]
0	0x32b775ce	2.1357575e-08
1	0x33f370e5	1.1336105e-07
2	0x325f5f18	1.300193e-08
3	0x32b9fd6d	2.165208e-08
4	0x3311650d	3.385235e-08
5	0x32bfe308	2.2338568e-08
6	0x33a85e20	7.840231e-08
7	0x321bc788	9.067556e-09
8	0x332d458f	4.0342965e-08
9	0x32a9b6f8	1.9757394e-08
10	0x32ee7516	2.7760091e-08
11	0x33d87481	1.0079476e-07
12	0x325233f6	1.2235423e-08
13	0x31ff1147	7.423441e-09
14	0x32c8c127	2.33709e-08
15	0x3305a074	3.1112407e-08
16	0x33a31929	7.5948556e-08
17	0x323c8dd2	1.09752865e-08
18	0x328e45f4	1.6562787e-08
19	0x32a7adf2	1.952046e-08
20	0x32ec8d56	2.7538288e-08
21	0x33b2478c	8.301785e-08
22	0x320358bd	7.64538e-09
23	0x32c1d2f4	2.2564087e-08
24	0x32862a69	1.5618939e-08
25	0x337caa9f	5.88285e-08
26	0x33a90e60	7.8722906e-08
27	0x32685230	1.3522865e-08
28	0x318a449e	4.0241295e-09
29	0x330b9153	3.249563e-08
30	0x32c5848e	2.2994097e-08
31	0x33bc8340	8.7783064e-08
32	0x3294fe4c	1.7345108e-08
33	0x32899fa6	1.6021499e-08
34	0x329d5172	1.8314243e-08
35	0x33e0e8f2	1.0473185e-07
36	0x36fb2b5f	7.485432e-06
37	0x330cde96	3.279873e-08
38	0x345476dd	1.9787281e-07
39	0x325f907f	1.3013163e-08
40	0x333e88dd	4.43623e-08
41	0x3360a52a	5.230428e-08
42	0x32d7f56c	2.51409e-08
43	0x3426a6e8	1.5520675e-07
44	0x32cfee69	2.4206388e-08
45	0x33c77a8b	9.28895e-08
46	0x337156aa	5.6191006e-08
47	0x339ce6a3	7.306269e-08
48	0x344fe6d8	1.9362358e-07
49	0x32991977	1.7823124e-08
50	0x32453334	1.1478551e-08
51	0x338b4a34	6.4861894e-08
52	0x33a59ac4	7.711563e-08
53	0x3402a072	1.2165563e-07
54	0x32855310	1.552101e-08
55	0x3322ddaf	3.7920184e-08
56	0x335bbfd7	5.116439e-08
57	0x33378a3c	4.273373e-08
58	0x34273fb8	1.5576268e-07
59	0x32822087	1.5148784e-08
60	0x3387df59	6.327054e-08
61	0x3339ddbd	4.327534e-08
62	0x33eacde1	1.0933923e-07
63	0x3424ff7f	1.5366639e-07
64	0x32e932a9	2.7147808e-08
65	0x31e78ab4	6.7387536e-09
66	0x33b70f61	8.524399e-08
67	0x3348c0d3	4.67415e-08
68	0x3411dc0e	1.3584233e-07
69	0x3380bacd	5.994443e-08
70	0x329c17bc	1.8171583e-08
71	0x33a10467	7.4979475e-08
72	0x345ba9df	2.0457763e-07
73	0x375383c8	1.2607263e-05
74	0x3249e265	1.1751216e-08
75	0x33a1ebfc	7.540072e-08
76	0x3213a329	8.5936245e-09
77	0x3296f105	1.7571901e-08
78	0x32b5c112	2.1158971e-08
79	0x32838865	1.5312432e-08
80	0x3381f133	6.0509045e-08
81	0x321332ab	8.568047e-09
82	0x32cf2c3f	2.4118092e-08
83	0x325a8b90	1.2721003e-08
84	0x3315ad24	3.4849236e-08
85	0x338b5c5a	6.4894905e-08
86	0x3218fc68	8.904955e-09
87	0x31cc72da	5.9502385e-09
88	0x32d16d00	2.438037e-08
89	0x32e68fbf	2.6840892e-08
90	0x338622c5	6.246186e-08
91	0x3231a7f5	1.0340945e-08
92	0x3206732f	7.826016e-09
93	0x328e42c4	1.6561337e-08
94	0x32b67cf6	2.1244414e-08
95	0x33957c3d	6.960952e-08
96	0x3208e2da	7.967822e-09
97	0x327aabd9	1.4590989e-08
98	0x3294c767	1.7320145e-08
99	0x33281889	3.9137863e-08
100	0x33813bdd	6.01792e-08
101	0x3204faef	7.740467e-09
102	0x31b4da2a	5.263492e-09
103	0x32ae0f2c	2.0263165e-08
104	0x32bcecb4	2.199372e-08
105	0x339e6ed3	7.377607e-08
106	0x3270c0c6	1.401367e-08
107	0x321a1648	8.969046e-09
108	0x3279826a	1.452336e-08
109	0x33e2a9eb	1.0554853e-07
110	0x36cf3a4f	6.1758687e-06
111	0x326a31f6	1.36319525e-08
112	0x3340ef75	4.492127e-08
113	0x31b1e3bb	5.177268e-09
114	0x322808a7	9.780854e-09
115	0x327d378c	1.4739168e-08
116	0x3250966f	1.2141398e-08
117	0x332058e5	3.7333752e-08
118	0x3251ccd8	1.2211977e-08
119	0x32df366e	2.5985369e-08
120	0x3256718a	1.2482255e-08
121	0x32ee26e2	2.7724528e-08
122	0x333d63aa	4.4095636e-08
123	0x3223a698	9.525728e-09
124	0x31d027ef	6.0581367e-09
125	0x328d21d3	1.6429942e-08
126	0x32d8294c	2.516449e-08
127	0x332e3074	4.05566e-08
128	0x319c63a5	4.551526e-09
129	0x3253ff22	1.2339827e-08
130	0x324e7d01	1.2019201e-08
131	0x32848e7b	1.5431615e-08
132	0x3323ada9	3.8109338e-08
133	0x31d12834	6.087271e-09
134	0x32a2eebb	1.8967844e-08
135	0x3218e251	8.899023e-09
136	0x333d1f86	4.4033662e-08
137	0x331e416d	3.6846746e-08
138	0x31ec9d0c	6.886358e-09
139	0x3131d873	2.5879927e-09
140	0x327caee1	1.4708093e-08
141	0x328e4dd5	1.656637e-08
142	0x33423136	4.5213902e-08
143	0x32b839a2	2.1446628e-08
144	0x3210ce78	8.428849e-09
145	0x3268f058	1.3558825e-08
146	0x33880af4	6.334986e-08
147	0x3699562b	4.5697866e-06
148	0x33660d07	5.3562896e-08
149	0x348c4a2b	2.6130996e-07
150	0x32df3cb8	2.5988228e-08
151	0x32cf2e62	2.4119064e-08
152	0x33e96845	1.08688745e-07
153	0x3333c23f	4.185335e-08
154	0x345adefd	2.0383955e-07
155	0x3299c784	1.7902273e-08
156	0x33ea0bf0	1.08986455e-07
157	0x33718d6a	5.62408e-08
158	0x338c389c	6.529555e-08
159	0x34cc67fb	3.8073617e-07
160	0x329e279f	1.8411638e-08
161	0x3246555c	1.1544525e-08
162	0x33d2ff5d	9.825337e-08
163	0x337e8a9b	5.9265044e-08
164	0x344b38c5	1.8926501e-07
165	0x32d71ccf	2.5042395e-08
166	0x33386634	4.293379e-08
167	0x3383f7a6	6.14521e-08
168	0x334b9b4e	4.740587e-08
169	0x34ae553a	3.2472036e-07
170	0x3291ec28	1.6987613e-08
171	0x33677c41	5.3896887e-08
172	0x337b31e9	5.8485885e-08
173	0x340bf952	1.3036086e-07
174	0x345ac138	2.0373125e-07
175	0x330f6b89	3.3392585e-08
176	0x31b0b952	5.1433426e-09
177	0x33e9c03c	1.0884875e-07
178	0x33800b77	5.96255e-08
179	0x3492111a	2.7207062e-07
180	0x3316f85a	3.515047e-08
181	0x32f211d8	2.8180622e-08
182	0x33c110f2	8.990345e-08
183	0x3421984c	1.5049699e-07
184	0x3713358d	8.774351e-06
185	0x328dd008	1.6509162e-08
186	0x330e834a	3.3181358e-08
187	0x32de958f	2.5912213e-08
188	0x32731ba6	1.4150748e-08
189	0x3288295f	1.5851297e-08
190	0x32b4bcc2	2.1040595e-08
191	0x32a43dd0	1.9120222e-08
192	0x32652ca3	1.3339704e-08
193	0x330b5344	3.243919e-08
194	0x324b7e49	1.1844869e-08
195	0x3319c288	3.5800014e-08
196	0x32d02810	2.4232605e-08
197	0x3277a1c3	1.4414073e-08
198	0x318bef08	4.072607e-09
199	0x328b4fee	1.6218078e-08
200	0x32b89aa5	2.1490743e-08
201	0x32d5a522	2.4871557e-08
202	0x32f6acb5	2.8716707e-08
203	0x3246a1e1	1.1561924e-08
204	0x3277ddfa	1.4427764e-08
205	0x32e5d6e3	2.6756828e-08
206	0x32c65f4f	2.3093575e-08
207	0x32a984a4	1.9734507e-08
208	0x326dc999	1.3841054e-08
209	0x32658030	1.3358701e-08
210	0x32fd4e6b	2.9488737e-08
211	0x32a68eaa	1.938982e-08
212	0x330f6a35	3.3391377e-08
213	0x3213ef5d	8.610951e-09
214	0x32a974c9	1.9727297e-08
215	0x32d94364	2.529277e-08
216	0x329f6d91	1.8559861e-08
217	0x32ae721d	2.0308159e-08
218	0x3298f6e4	1.7807402e-08
219	0x328296b6	1.5202527e-08
220	0x33ead676	1.0935484e-07
221	0x3689da34	4.1083204e-06
222	0x3276565c	1.433872e-08
223	0x3330107d	4.099319e-08
224	0x31daed6f	6.371628e-09
225	0x3229d92f	9.8864765e-09
226	0x32874d68	1.5751269e-08
227	0x3264fd43	1.3328932e-08
228	0x330d25d0	3.286351e-08
229	0x31e3deef	6.631914e-09
230	0x328763ee	1.5761511e-08
231	0x32372ebe	1.066263e-08
232	0x329a9ce6	1.7999309e-08
233	0x33295873	3.9428823e-08
234	0x321765c9	8.8125e-09
235	0x3196b033	4.385606e-09
236	0x325847e4	1.2589201e-08
237	0x3299104c	1.7818955e-08
238	0x3320f7ae	3.7478166e-08
239	0x31d5d653	6.2234817e-09
240	0x31e692a3	6.7105517e-09
241	0x327b571d	1.462993e-08
242	0x32940a4d	1.7234152e-08
243	0x330b14d2	3.2382395e-08
244	0x31849cbd	3.8595247e-09
245	0x326d8f8c	1.3827854e-08
246	0x3208c998	7.962079e-09
247	0x330136fe	3.0085168e-08
248	0x330900c3	3.189849e-08
249	0x31cf2b5f	6.0294236e-09
250	0x3154c615	3.0962657e-09
251	0x324c480b	1.18907435e-08
252	0x325e8ca5	1.295408e-08
253	0x33139cd9	3.4368757e-08
254	0x32841ca3	1.5379845e-08
255	0x31c3e072	5.7007634e-09

exp_avg f4 [64]
0	0x3889da70	6.573356e-05
1	0x3801b61a	3.0925592e-05
2	0xb839bbe2	-4.4282417e-05
3	0xb880d3a8	-6.14294e-05
4	0xb614784b	-2.2123738e-06
5	0x3974d256	0.0002334801
6	0x38c05119	9.170379e-05
7	0x372e4a94	1.0388572e-05
8	0xb7896ccd	-1.6382337e-05
9	0xb7fe95aa	-3.0348852e-05
10	0x382ff6fc	4.1953273e-05
11	0x388477a4	6.316535e-05
12	0x38c57952	9.41629e-05
13	0xb7d1c9ed	-2.500877e-05
14	0x3897e75c	7.243335e-05
15	0x39298173	0.0001616532
16	0x39700500	0.00022890046
17	0xb83069ad	-4.2060088e-05
18	0x3914acc4	0.0001417874
19	0x3824f847	3.9331873e-05
20	0xb612628f	-2.1813064e-06
21	0x387b01c6	5.9844715e-05
22	0x37a562dc	1.9715568e-05
23	0x388a073d	6.581701e-05
24	0xb84b17d6	-4.842117e-05
25	0x385fd468	5.3365162e-05
26	0x378754cb	1.6132739e-05
27	0xb757efa1	-1.2870792e-05
28	0x37c48a8a	2.3429533e-05
29	0x3814895c	3.5413876e-05
30	0x38617a4f	5.375809e-05
31	0x3932c317	0.0001704808
32	0x38a9543f	8.07424e-05
33	0x3860ef7b	5.3628795e-05
34	0x39963a62	0.00028653728
35	0x37b7cad0	2.1909742e-05
36	0x38e01285	0.00010684602
37	0x384eaf1a	4.9277303e-05
38	0xb741b8f3	-1.1546758e-05
39	0x384bbd40	4.8575224e-05
40	0xb8f86724	-0.00011844773
41	0x3913798b	0.00014064291
42	0x3902b04b	0.0001246344
43	0x37dc1b27	2.6238687e-05
44	0x38f4fbe7	0.00011681747
45	0x38d5cb40	0.0001019449
46	0xb8247c07	-3.9216156e-05
47	0x392c9632	0.0001645915
48	0x38b3f004	8.5800915e-05
49	0x38f27d46	0.00011562793
50	0x382ff716	4.1953368e-05
51	0xb8a47a71	-7.842936e-05
52	0x37b492fe	2.152612e-05
53	0xb7baeb72	-2.2282566e-05
54	0xb88fbac0	-6.853556e-05
55	0x37ee126c	2.838039e-05
56	0x3893849f	7.034209e-05
57	0x3894d033	7.09597e-05
58	0x382e22fd	4.1517418e-05
59	0x3715165e	8.8863e-06
60	0xb8b5d78b	-8.6709006e-05
61	0x3699e944	4.586911e-06
62	0x38bc6486	8.9832625e-05
63	0x38494f25	4.7995843e-05

exp_avg_sq f4 [64]
0	0x344c4749	1.9024914e-07
1	0x34eb8c9b	4.3874465e-07
2	0x3408ac70	1.272872e-07
3	0x33b0136a	8.19917e-08
4	0x3543249c	7.2696434e-07
5	0x33d9a4ec	1.0134849e-07
6	0x3398c553	7.1139446e-08
7	0x33e96ab2	1.0869316e-07
8	0x34c872ac	3.7336338e-07
9	0x332380dc	3.8068592e-08
10	0x340a1315	1.2859194e-07
11	0x3472af02	2.2601674e-07
12	0x34469301	1.8493667e-07
13	0x33a248b2	7.556936e-08
14	0x332e8ee6	4.0642497e-08
15	0x34369945	1.700583e-07
16	0x34c12601	3.5976703e-07
17	0x33a48ef7	7.66285e-08
18	0x3536a5fc	6.804182e-07
19	0x348479be	2.4675495e-07
20	0x33b34280	8.347433e-08
21	0x346e2a31	2.2180826e-07
22	0x34f79f56	4.6123267e-07
23	0x33d5b283	9.9510565e-08
24	0x344bd9c5	1.8985072e-07
25	0x33811c94	6.012229e-08
26	0x3538ede3	6.889151e-07
27	0x341b80b8	1.4482328e-07
28	0x34afec58	3.2768253e-07
29	0x34a0ab23	2.992684e-07
30	0x3522814c	6.0537855e-07
31	0x3491d174	2.7160752e-07
32	0x35381b49	6.8585047e-07
33	0x349db130	2.937245e-07
34	0x3438996e	1.7192153e-07
35	0x353c4edc	7.0150213e-07
36	0x33944d3d	6.9058366e-08
37	0x35a42abb	1.2231388e-06
38	0x33b2a078	8.31796e-08
39	0x337bfef9	5.8672388e-08
40	0x3443ce03	1.8235737e-07
41	0x34b56fa3	3.3795104e-07
42	0x34d0695d	3.881968e-07
43	0x35090f40	5.105867e-07
44	0x34d940c6	4.046653e-07
45	0x342de810	1.6196304e-07
46	0x3435449a	1.6881896e-07
47	0x341e4946	1.4741553e-07
48	0x3505826e	4.973616e-07
49	0x34a68ed2	3.1023825e-07
50	0x33d29663	9.806242e-08
51	0x33bcbd2e	8.788844e-08
52	0x34135173	1.3720073e-07
53	0x344e97fa	1.9240534e-07
54	0x34a69c18	3.1033483e-07
55	0x33e2c0a4	1.0558986e-07
56	0x351beb24	5.8084174e-07
57	0x34f9de81	4.6541757e-07
58	0x340b8594	1.2993979e-07
59	0x340d33e0	1.315052e-07
60	0x34a48e56	3.0650943e-07
61	0x346460a4	2.1269312e-07
62	0x35051def	4.958992e-07
63	0x33debbdc	1.0371852e-07

exp_avg f4 [64, 64]
0	0x3846fe79	4.7443875e-05
1	0x3895a3e8	7.1354036e-05
2	0x385c12bf	5.2469546e-05
3	0x36b2e023	5.3309063e-06
4	0x38167a40	3.587664e-05
5	0x35d64cc9	1.596659e-06
6	0x3867abc4	5.523466e-05
7	0x38541b24	5.0570015e-05
8	0x38ce0d0f	9.825278e-05
9	0xb6bab9a2	-5.5648425e-06
10	0x376f5ae0	1.4266669e-05
11	0x383948ee	4.417536e-05
12	0x381d83e0	3.7554535e-05
13	0x3614953e	2.214059e-06
14	0x37869385	1.6042739e-05
15	0xb660e2bd	-3.351058e-06
16	0xb53d95b8	-7.0625856e-07
17	0x3781a5ec	1.5455262e-05
18	0x3825b6aa	3.9509185e-05
19	0x38663d5f	5.489343e-05
20	0x374328bc	1.163239e-05
21	0x366ae461	3.5001651e-06
22	0x389849ca	7.261669e-05
23	0xb38cde27	-6.559667e-08
24	0x37c8bbf7	2.3929386e-05
25	0x360b284c	2.073607e-06
26	0x38959ac6	7.1337025e-05
27	0x3886b7c1	6.423845e-05
28	0xb689c515	-4.1058615e-06
29	0x37820bda	1.5502726e-05
30	0x38196b94	3.6578233e-05
31	0x36f95c1d	7.4315017e-06
32	0x38da32e8	0.00010404532
33	0x3509bdb1	5.1312514e-07
34	0x3741be94	1.1548069e-05
35	0x383921b0	4.413881e-05
36	0x38f9b9e5	0.00011907871
37	0x38b516bc	8.634987e-05
38	0x370b485a	8.301891e-06
39	0x3736920b	1.0882049e-05
40	0x36e60105	6.854653e-06
41	0x385593b7	5.0920728e-05
42	0x380547c2	3.17765e-05
43	0x385241e9	5.0129285e-05
44	0x388b1118	6.6312205e-05
45	0x385567fb	5.0879997e-05
46	0x37961a78	1.7893719e-05
47	0x34f4c383	4.5590795e-07
48	0x3868835e	5.5435456e-05
49	0x37d33497	2.517765e-05
50	0x35d83f43	1.6111666e-06
51	0x3702ed8c	7.803912e-06
52	0x3839683a	4.4204506e-05
53	0x3796ae07	1.7962431e-05
54	0xb56378ba	-8.473977e-07
55	0x374007ca	1.1445905e-05
56	0x390ad902	0.00013241547
57	0x377d0a5e	1.5082389e-05
58	0x36d93205	6.472927e-06
59	0x37858f58	1.5921585e-05
60	0x37f5bd0e	2.9294311e-05
61	0x37b32d56	2.1359574e-05
62	0x35f6ad19	1.8378806e-06
63	0x373db009	1.1306264e-05
64	0x3830cbc8	4.2151456e-05
65	0x37937ea1	1.7582732e-05
66	0x36eb014e	7.0036976e-06
67	0x3899f714	7.3416304e-05
68	0x389e3845	7.544508e-05
69	0x37fc4db0	3.0076917e-05
70	0x365734c3	3.2068208e-06
71	0x38effa21	0.00011442998
72	0x394708ab	0.00018981348
73	0x36022744	1.9394365e-06
74	0x37bbc8ee	2.2385702e-05
75	0x3843cb7c	4.6681133e-05
76	0x3857254d	5.1294734e-05
77	0x3660af03	3.3480471e-06
78	0x37026a40	7.773342e-06
79	0x37d62d5c	2.553191e-05
80	0xb63380b9	-2.6748005e-06
81	0xb4a7f060	-3.128107e-07
82	0x3917a19e	0.00014460689
83	0x39167868	0.0001434997
84	0xb76adabe	-1.3998417e-05
85	0xb7fc6bcc	-3.0090938e-05
86	0x395dd728	0.00021156354
87	0x38503396	4.9639108e-05
88	0x38afdd8e	8.385918e-05
89	0xb632f306	-2.6665525e-06
90	0x3908b201	0.00013036282
91	0x388ee597	6.813852e-05
92	0x38a96c7c	8.078755e-05
93	0x38146ada	3.5385463e-05
94	0x378e0ba5	1.6933142e-05
95	0xb74163ad	-1.1526904e-05
96	0x37b8ffa2	2.2053548e-05
97	0xb6352975	-2.6995233e-06
98	0xb707a25b	-8.084428e-06
99	0x382b176e	4.0791398e-05
100	0x386ffbfb	5.7216716e-05
101	0xb75760c3	-1.2837528e-05
102	0x37b58084	2.1636726e-05
103	0x36ad07fc	5.1567313e-06
104	0xb7b2da07	-2.132078e-05
105	0x38e6b3e2	0.000110007604
106	0x38a0e203	7.6714925e-05
107	0x384f717b	4.9458333e-05
108	0x3944a92b	0.00018755037
109	0x38ef0262	0.00011396852
110	0x37a57adc	1.9726744e-05
111	0x3826b82c	3.9749008e-05
112	0x394caf83	0.00019520339
113	0x38d18003	9.989741e-05
114	0x37e262a0	2.6987225e-05
115	0x386f6292	5.707384e-05
116	0x3766f4d5	1.3766073e-05
117	0xb5e81a3e	-1.7292984e-06
118	0x371910de	9.123438e-06
119	0x36ff83ec	7.61495e-06
120	0x38b2e4d7	8.530326e-05
121	0x38ead571	0.00011197746
122	0xb4e1b1a3	-4.2038764e-07
123	0x38a196bf	7.705157e-05
124	0x38f6391e	0.00011740833
125	0x386dfbc5	5.6739682e-05
126	0x37c66a2f	2.3652885e-05
127	0x38290cfb	4.030483e-05
128	0xb741f2cb	-1.1560226e-05
129	0x36afed82	5.243056e-06
130	0x35248534	6.1288597e-07
131	0x35bfdb86	1.4294499e-06
132	0x384c6695	4.8732927e-05
133	0x3810933b	3.4469394e-05
134	0x36ab928a	5.1132565e-06
135	0xb7212e36	-9.607107e-06
136	0x35648c82	8.5141085e-07
137	0xb5d23927	-1.5662853e-06
138	0x372f3e89	1.0445373e-05
139	0x3737ed35	1.0962879e-05
140	0x360d8e03	2.10933e-06
141	0x377620cb	1.4670378e-05
142	0x36a81a55	5.0098556e-06
143	0x36851f87	3.967379e-06
144	0xb47c97a8	-2.3524501e-07
145	0xb5037bea	-4.898162e-07
146	0xb6820693	-3.8750673e-06
147	0x36b4183f	5.3672406e-06
148	0x363318a9	2.6687433e-06
149	0x37bfa9bd	2.2848015e-05
150	0x37272415	9.962377e-06
151	0x378ed08d	1.7024833e-05
152	0x362d5279	2.5827014e-06
153	0xb3e7fc1f	-1.0802636e-07
154	0x37d98f62	2.5935184e-05
155	0xb6c25352	-5.7913503e-06
156	0x36d9d633	6.49204e-06
157	0x3812220e	3.484083e-05
158	0x37cf0ac0	2.4681329e-05
159	0x3824ea41	3.9318813e-05
160	0x3767f418	1.3825505e-05
161	0xb5238e00	-6.092887e-07
162	0x37ef80c0	2.8550974e-05
163	0x37064540	8.003146e-06
164	0x361985aa	2.287658e-06
165	0x3603492e	1.9563117e-06
166	0x37cfeef8	2.4787601e-05
167	0x377e4491	1.5155544e-05
168	0x378670b0	1.6026519e-05
169	0xb6995661	-4.569811e-06
170	0xb59694c5	-1.1219169e-06
171	0x36f018e2	7.155454e-06
172	0x37529127	1.2550771e-05
173	0x346d9b3e	2.2128822e-07
174	0x377020fd	1.4312795e-05
175	0x37bafe71	2.2291411e-05
176	0xb735fc5f	-1.08472e-05
177	0x37326db4	1.0635169e-05
178	0x3895d769	7.144997e-05
179	0x3629b0d4	2.528589e-06
180	0x3713f379	8.818571e-06
181	0x35d5f5df	1.5941295e-06
182	0xb5c09ff4	-1.4351667e-06
183	0x32d7f518	2.514075e-08
184	0x3817fc7a	3.6236343e-05
185	0x383779e9	4.3744138e-05
186	0x371f17b9	9.482662e-06
187	0xb2ac71de	-2.0075216e-08
188	0x380e7b6c	3.3970384e-05
189	0x35cfaf6e	1.5473759e-06
190	0xb68969b7	-4.095225e-06
191	0x35d7567d	1.604392e-06
192	0x380404fc	3.1475895e-05
193	0x38ae6ff6	8.317821e-05
194	0x36ce784f	6.153284e-06
195	0x3784d7de	1.5836147e-05
196	0x381e24bb	3.7704343e-05
197	0x388c353d	6.6856366e-05
198	0x38570069	5.1260376e-05
199	0x3840ec8c	4.599667e-05
200	0x38ad0e74	8.251975e-05
201	0x36a4691b	4.8998168e-06
202	0x38216845	3.84825e-05
203	0x37c177b9	2.3063143e-05
204	0x37309bed	1.0526722e-05
205	0x36c99dcc	6.008637e-06
206	0x38b5014d	8.630995e-05
207	0x38bbae4d	8.949321e-05
208	0x367166b1	3.5971573e-06
209	0x38017694	3.086643e-05
210	0x3830630d	4.2053918e-05
211	0x3854f049	5.076852e-05
212	0xb67bf63d	-3.7545244e-06
213	0x383172a4	4.2306856e-05
214	0x3874c2a2	5.83554e-05
215	0x38e7d07b	0.00011053771
216	0x37ecc26f	2.8223933e-05
217	0x35db7eb2	1.6353645e-06
218	0x38911cf5	6.9195325e-05
219	0x384ba8a0	4.8556016e-05
220	0x379d9134	1.8783474e-05
221	0x37c89316	2.391035e-05
222	0x3856bb0f	5.1195788e-05
223	0x371a9504	9.213811e-06
224	0x386f2615	5.7017507e-05
225	0x3591f79e	1.0875408e-06
226	0x3852af6f	5.0231287e-05
227	0x375d2785	1.3181828e-05
228	0x389fbae0	7.616519e-05
229	0x382d41e7	4.130779e-05
230	0x37b4f91f	2.1573678e-05
231	0x36d9384d	6.4736582e-06
232	0x374b7b17	1.2128402e-05
233	0x380d2a84	3.3656615e-05
234	0x388b980e	6.656359e-05
235	0x382f10c7	4.1738876e-05
236	0x38398da5	4.4239354e-05
237	0x381a6f4c	3.6820114e-05
238	0x387156c4	5.7539684e-05
239	0x38d2a171	0.00010043651
240	0x37a92061	2.0161448e-05
241	0x3865d57c	5.4796677e-05
242	0x3856804e	5.114107e-05
243	0x3810d701	3.4532513e-05
244	0x38894b31	6.5466746e-05
245	0x372c066b	1.0253493e-05
246	0x38373a72	4.368503e-05
247	0x37f14eee	2.8766193e-05
248	0x38711f3d	5.748797e-05
249	0x38d7816f	0.00010276108
250	0x3838e4df	4.408217e-05
251	0x37ba8650	2.2235472e-05
252	0x388afd5d	6.6275454e-05
253	0x37c1eeb9	2.3118557e-05
254	0x368227c4	3.8789312e-06
255	0x375c0f27	1.311655e-05
