p1_navigation/D2DQN_20190201_v29_500eps_14.73score.pth (torch_old, 89655 bytes, 18 tensors)

hidden_layers.0.weight f4 [64, 37]
0	0x3e5f80fe	0.2182655
1	0x3dd534a9	0.10410435
2	0xbed7638f	-0.42068145
3	0xbe2f8770	-0.17141509
4	0xbf5dcb7a	-0.86638606
5	0xbd2b1f71	-0.04177803
6	0xbd6df220	-0.058092237
7	0x3e90d192	0.2828489
8	0xbdbe474c	-0.092909425
9	0xbc38dc29	-0.011282959
10	0xbd229993	-0.03969724
11	0xbd6b7186	-0.05748131
12	0xbe75ac0d	-0.23991413
13	0xbc71a5b1	-0.014748977
14	0x3a8826bd	0.0010387521
15	0xbe8ab3d2	-0.27090317
16	0xbbf28fbe	-0.0074023893
17	0x3eaca96f	0.33723018
18	0x3dcabc05	0.09899143
19	0xbb0e36ee	-0.002170022
20	0xbdd95d83	-0.10613539
21	0x3e4ffd82	0.2031155
22	0x36e07648	6.68949e-06
23	0x3ec35b82	0.38155752
24	0x3df0c748	0.1175676
25	0x3dbbe175	0.09173862
26	0x3ea2cb1f	0.31795594
27	0xbe0ed729	-0.13949265
28	0xbea64f59	-0.32482412
29	0xbe05aac8	-0.13053429
30	0xbd10f0a7	-0.035385754
31	0x3e2b366e	0.16719982
32	0xbdf458c1	-0.11930991
33	0x3c19dfb8	0.009391718
34	0xbe952201	-0.29127505
35	0xbe11c476	-0.142351
36	0xbcefcece	-0.029273417
37	0x3d7b35ee	0.06133073
38	0x3e2af840	0.16696262
39	0xbd4e847f	-0.050419327
40	0xbe6fa655	-0.23403294
41	0xbe33f579	-0.17574109
42	0xbdf4d640	-0.119549274
43	0x3cb81f2f	0.022475807
44	0xbee2c45f	-0.44290444
45	0xbbfec927	-0.007775444
46	0x3eae292a	0.3401578
47	0x3e8df6bc	0.27727306
48	0xbe8b235c	-0.27175415
49	0xbe4fc7d0	-0.20291066
50	0xbee99100	-0.4561844
51	0x3e125f62	0.14294198
52	0xbd3054ec	-0.043049738
53	0xbdddf60a	-0.10837944
54	0x3e76cc71	0.24101426
55	0xbf5f58d3	-0.8724491
56	0xbed311bf	-0.41224477
57	0xbea94891	-0.33063176
58	0xbe91dccc	-0.28488767
59	0x3e0fb098	0.14032209
60	0xbe49419a	-0.19653931
61	0xbdd6b816	-0.1048433
62	0xbef8ea2a	-0.48616153
63	0x3d005aa4	0.03133644
64	0x3e86a9c0	0.26301384
65	0xbe1cd75c	-0.15316528
66	0xbf110261	-0.56644255
67	0xbe28f8c4	-0.16501147
68	0xbe03f806	-0.12887582
69	0xbe6ee481	-0.23329355
70	0x3ea39dc8	0.31956315
71	0xbed70a02	-0.41999823
72	0x3e279821	0.16366626
73	0xbbcd4f1c	-0.006265534
74	0xbda7f7a6	-0.08201532
75	0x3e144022	0.1447759
76	0xbcb8f52f	-0.02257785
77	0x3d3ab98a	0.0455871
78	0x3d2570a8	0.04039064
79	0xbf0b9801	-0.54528815
80	0x3d7dd448	0.061970025
81	0x3e1bfbf3	0.1523283
82	0xbe104765	-0.14089735
83	0xbdcf716d	-0.10129056
84	0x3e7b1097	0.24518047
85	0xbeb602b0	-0.35548925
86	0xbf483467	-0.7820496
87	0xbf772255	-0.9653676
88	0xbfdc3166	-1.7202575
89	0xbe17a3e1	-0.14808609
90	0xbe238db9	-0.15972032
91	0x3dd59330	0.104284644
92	0xbd243edb	-0.040099006
93	0x3e640797	0.2226852
94	0xbe4998b0	-0.19687152
95	0xbeb647d1	-0.35601667
96	0x3d6368ac	0.055519745
97	0x3ec653a2	0.38735682
98	0x3cbd8168	0.023132995
99	0xbf60db25	-0.8783439
100	0x3e4537cb	0.19259565
101	0x3e535252	0.20636871
102	0xbf045444	-0.5169108
103	0xbed2ed27	-0.41196558
104	0x3c550b50	0.013003185
105	0xbe6699e1	-0.22519638
106	0xbf2acabc	-0.667156
107	0xbdd31229	-0.10306198
108	0x3e85f2f2	0.26161915
109	0xbd08f308	-0.033434898
110	0x3c5b6165	0.01338992
111	0x3e2c10b0	0.16803241
112	0xbe3e7e6b	-0.18602912
113	0x3eb937de	0.36175436
114	0xbd7ce7e8	-0.0617446
115	0xbf0176fe	-0.5057219
116	0x3d56abf3	0.052410077
117	0xbe9efe94	-0.31053603
118	0xbb94feb4	-0.0045469645
119	0x3eb05125	0.34436908
120	0xbe6119cd	-0.21982498
121	0x3e2627eb	0.16226165
122	0xbd451d61	-0.04812372
123	0xbd6bd1da	-0.057573177
124	0xbe06dea4	-0.13170868
125	0xbf15a8e0	-0.5846081
126	0xbd5029c4	-0.05082108
127	0xbe2cdc79	-0.16880979
128	0xbc916c7f	-0.01775193
129	0x3c732cba	0.014842207
130	0xbdc9b572	-0.09849061
131	0xbc938f78	-0.018012747
132	0xbe5cd4cf	-0.21565555
133	0x3de023f9	0.10944361
134	0x3e98816d	0.29786244
135	0x3e9da0fc	0.30786884
136	0xbd0b6c1e	-0.034038655
137	0x3d0877e6	0.03331747
138	0x3d26da2d	0.040735412
139	0x3e824197	0.25440666
140	0x3e63e026	0.22253475
141	0x3e2c2b46	0.16813383
142	0x3e0526bf	0.13003062
143	0x3d801c47	0.062553935
144	0xbe46d2f9	-0.19416417
145	0xbdfbdd03	-0.12298014
146	0x3e4bf094	0.19915992
147	0xbbf5af87	-0.007497731
148	0xbd302d25	-0.043011803
149	0x3c2021ca	0.009773681
150	0xbe01bc17	-0.12669407
151	0xbd8f801c	-0.07006857
152	0xbe28f26b	-0.16498725
153	0x3eba6c41	0.36410716
154	0xbc178b64	-0.009249542
155	0xbe86583f	-0.262392
156	0xbf1906dd	-0.597761
157	0xbff4f6aa	-1.9137776
158	0x3e076c1a	0.13224831
159	0x3cf7f2e4	0.030267186
160	0xbccdc523	-0.025118416
161	0x3dfd9502	0.123819366
162	0xbd182bfc	-0.03715132
163	0xbdd73a12	-0.10509123
164	0x3d23e19c	0.04001008
165	0xbcaa035c	-0.020753555
166	0x3e10c2d0	0.14136815
167	0x3e0796f2	0.13241175
168	0xbe5b45d4	-0.21413356
169	0x3e764119	0.2404827
170	0x3e38410f	0.17993568
171	0x3e48001a	0.19531289
172	0x3ef9e164	0.48804772
173	0x3deb34b1	0.114846595
174	0xbb2f2d10	-0.002672974
175	0x3dbaf2ed	0.09128366
176	0x3d1a3c04	0.03765489
177	0xbe0f9aec	-0.14023942
178	0x3d7eac73	0.06217618
179	0x3d2fe197	0.04293975
180	0x3e3dfdb0	0.18553805
181	0x3d8e4d65	0.069483556
182	0x3dc533dd	0.09629033
183	0x3d0b0070	0.033935964
184	0x3b2af298	0.0026084539
185	0xbe27fe23	-0.16405539
186	0x3ce3a48c	0.027788423
187	0xbd471bca	-0.048610486
188	0x3d8df908	0.069322646
189	0x3deb2a34	0.11482659
190	0x3e2f0015	0.17089875
191	0xbddbe340	-0.10736704
192	0x3e2f7db1	0.17137791
193	0xbd89df9e	-0.06732105
194	0xbf1989ca	-0.59975874
195	0x3c909cad	0.017652834
196	0xbd91f258	-0.071263015
197	0xbe5e4d09	-0.21709074
198	0x3e50986c	0.20370644
199	0xbda77568	-0.0817669
200	0x3e0859b7	0.13315473
201	0xbe2cf291	-0.16889407
202	0xbdbbea0e	-0.09175502
203	0xbe6336b9	-0.22188844
204	0xbf173140	-0.59059525
205	0x3e07802f	0.13232492
206	0x3d1e3cdc	0.03863226
207	0xbd536e0b	-0.051618617
208	0x3ec01dd7	0.37522766
209	0x3e558a65	0.20853575
210	0x3d950545	0.07276396
211	0x3e03f460	0.1288619
212	0xbeb558a0	-0.35419178
213	0xbe504e69	-0.20342411
214	0xbede9489	-0.43472698
215	0xbe7db232	-0.24775007
216	0xbba407ef	-0.0050058286
217	0x3d83615c	0.06415054
218	0x3ed3c42a	0.413606
219	0x3ed42de5	0.41441265
220	0xbe846bd2	-0.2586351
221	0x3c258ddf	0.0101046255
222	0xbe38b068	-0.18036044
223	0x3e0a1fd7	0.13488708
224	0xbc4e9265	-0.012608145
225	0xbe17d63a	-0.14827815
226	0xbccb6504	-0.024828441
227	0xbd03b4e3	-0.03215493
228	0xbdb598b6	-0.08867018
229	0x3e13ee1a	0.14446297
230	0xbef80b44	-0.48446095
231	0xbe497d81	-0.19676782
232	0xbdf1c629	-0.11805374
233	0x3d96235a	0.073309615
234	0x3de078a8	0.10960513
235	0xbcf697a7	-0.03010161
236	0xbe2e19a8	-0.17001975
237	0xbe9796e3	-0.29607305
238	0xbeb8829f	-0.36037156
239	0x3e08b3c1	0.1334982
240	0x3e8d4b58	0.27596545
241	0x3efbb6c7	0.49162886
242	0xbef21db4	-0.47288287
243	0x3bcd84fa	0.0062719556
244	0x3e3d19ec	0.1846692
245	0xbe4f5cdc	-0.20250267
246	0x3ea8c21e	0.329606
247	0xbf1b141e	-0.6057757
248	0x3eb0506a	0.3443635
249	0xbe91ed0e	-0.2850117
250	0x3cb950a1	0.022621455
251	0x3df04443	0.1173177
252	0x3ee2c690	0.44292116
253	0xbef08a0c	-0.4698032
254	0xbefd36e1	-0.49455932
255	0xbd15ea9a	-0.036600687

hidden_layers.0.bias f4 [64]
0	0x3dd9c97a	0.10634132
1	0xbdd8a771	-0.10578812
2	0xbe50817d	-0.20361896
3	0xbd24e5ff	-0.040258404
4	0x3e6dfb2a	0.23240343
5	0xbdc96721	-0.098341234
6	0xbe020f2c	-0.127011
7	0x3c9aded5	0.018905083
8	0x3d679868	0.05654183
9	0xbe4fae26	-0.20281276
10	0x3e963489	0.29336956
11	0x3dd7b0a6	0.1053174
12	0x3eb23866	0.34808654
13	0x3aca7af0	0.0015448015
14	0x3b191bfc	0.0023362627
15	0xbdad55c8	-0.08463627
16	0x3b14a15e	0.002267919
17	0xbe078a69	-0.13236393
18	0xbd1810f9	-0.03712556
19	0xbe345063	-0.1760879
20	0xbd81db8d	-0.06340704
21	0xbdeb7c8a	-0.11498363
22	0xbd29dd8f	-0.04147106
23	0xbe256eb9	-0.16155519
24	0xbe54434f	-0.20728801
25	0x3e36f98c	0.17868632
26	0x3d1cc8f3	0.038277578
27	0xbe72ab38	-0.23698127
28	0x3ebd3772	0.36956364
29	0x3dda3888	0.10655314
30	0xbe236319	-0.15955772
31	0xbe68b3f7	-0.22724901
32	0x3e80ce32	0.25157315
33	0xbc56b7b4	-0.013105322
34	0xbe1af77a	-0.15133467
35	0x3dee64a3	0.11640289
36	0xbe236ac5	-0.15958698
37	0x3d0a0d77	0.033704247
38	0xbdd7d591	-0.105387814
39	0xbe80a992	-0.25129372
40	0xbe1b89ea	-0.15189329
41	0xbd681f53	-0.056670498
42	0xbd2f0bc8	-0.042735845
43	0x3e607918	0.21921194
44	0x3ded962a	0.11600907
45	0xbe571c95	-0.21006997
46	0xbe1583f2	-0.14601114
47	0xbe3012d8	-0.17194688
48	0x3d5eff32	0.054442592
49	0x3d59a3e9	0.053134833
50	0xbe6874ab	-0.22700755
51	0x3e8ca61a	0.27470475
52	0xbb05f320	-0.0020439103
53	0xbe8c9f37	-0.2746522
54	0xbe678bb4	-0.22611886
55	0x3e0a59df	0.13510846
56	0x3dd7f61d	0.10544989
57	0xbdf6bfe2	-0.120483175
58	0xbd836aec	-0.06416878
59	0xbeb5ba71	-0.35493806
60	0x3d322900	0.043496132
61	0xbdd1bcab	-0.10241064
62	0x3cb27905	0.021786222
63	0x3e38fbcd	0.18064804

hidden_layers.1.weight f4 [64, 64]
0	0xbebdbeec	-0.37059724
1	0xbe84cb2c	-0.25936258
2	0x3e3c5ccd	0.18394776
3	0xbe9eb6e0	-0.30998898
4	0xbe63d0a0	-0.22247553
5	0xbf00b032	-0.5026885
6	0xbe4bb7ec	-0.1989438
7	0xbe32e28a	-0.1746923
8	0xbe14ec9e	-0.14543387
9	0x3e999414	0.29995787
10	0x3d397c46	0.045284532
11	0x3ca1f3fc	0.019769661
12	0xbed2c938	-0.41169143
13	0x3e754918	0.23953664
14	0x3af169f5	0.0018418418
15	0x3deb5c68	0.114922345
16	0xbeb20212	-0.34767205
17	0xbe67326b	-0.22577827
18	0xbe453032	-0.19256666
19	0xbef0da4b	-0.47041544
20	0xbe8cc06d	-0.2749056
21	0xbf046d6d	-0.5172947
22	0xbe434e18	-0.19072759
23	0xbed439d0	-0.41450357
24	0xbf37f8a8	-0.71863794
25	0xbed2a0a9	-0.411382
26	0x3e49f09b	0.1972069
27	0xbe8d3d89	-0.2758601
28	0xbde87cc6	-0.11351924
29	0x3e3f9829	0.18710388
30	0xbf183596	-0.59456766
31	0xbcc43db1	-0.023955198
32	0x3e0a1329	0.13483872
33	0xbeb4fe0f	-0.3535008
34	0xbe8178e4	-0.25287545
35	0x3e192638	0.14955986
36	0xbe6086dc	-0.21926445
37	0xbe3e8612	-0.18605831
38	0xbe5584d2	-0.20851448
39	0xbed900c0	-0.42383385
40	0x3eae094b	0.33991465
41	0xbe54fac6	-0.20798787
42	0xbd54799a	-0.05187378
43	0x3c94277e	0.018085238
44	0x3c621c03	0.013800624
45	0xbf0d30f9	-0.5515285
46	0xbd772a00	-0.06034279
47	0xbea664d4	-0.324988
48	0xbe087cbe	-0.13328835
49	0x3da9fb01	0.08299828
50	0x3e699bbd	0.22813316
51	0xbdc066e9	-0.093946286
52	0xbce96a8f	-0.028493194
53	0x3eb4e025	0.3532726
54	0xbe488944	-0.19583613
55	0xbd0a8546	-0.033818506
56	0xbee358c2	-0.44403654
57	0x3db84e7e	0.08999346
58	0x3d216190	0.039399683
59	0xbe6989db	-0.22806494
60	0xbd07953e	-0.033101313
61	0xbf0faf27	-0.56126636
62	0x3eef6d3c	0.46763027
63	0x3d58744f	0.052845296
64	0xbdb64b9d	-0.08901141
65	0x3cba89da	0.02277081
66	0xbd7d989e	-0.061913125
67	0xbcce1799	-0.025157737
68	0x3d4d4cd7	0.05012211
69	0xbe8c99a6	-0.27460974
70	0x3d901df0	0.0703696
71	0xbe50b720	-0.20382357
72	0x3d669b1b	0.056300264
73	0x39709cfd	0.00022946666
74	0xbcbdc66e	-0.023165908
75	0x3e89e7a3	0.26934537
76	0xbd8573b3	-0.065162085
77	0xbad6e83a	-0.0016396113
78	0xbe693769	-0.22775044
79	0xbdafeb05	-0.08589748
80	0xbe77d4fb	-0.2420234
81	0xbe7913e7	-0.24323998
82	0xbd4a4dc4	-0.04939057
83	0xbe26f25f	-0.16303395
84	0x3de9de7c	0.11419389
85	0xbd757b19	-0.05993185
86	0x3d2076bb	0.03917573
87	0xbd926779	-0.07148642
88	0xbe078bf1	-0.13236977
89	0x3dd8dc1a	0.10588856
90	0xbe81dfee	-0.25366157
91	0xbe391e10	-0.18077874
92	0xbe2a6ef3	-0.16643886
93	0xbea4369d	-0.32072917
94	0xbeed36c6	-0.4633085
95	0x3d77bba2	0.060481675
96	0x3d2b6146	0.041840814
97	0x3df5194a	0.11967714
98	0xbcdcefd1	-0.026969822
99	0xbde542e6	-0.111944005
100	0xbdf73fa5	-0.12072686
101	0xbc9f8096	-0.019470494
102	0xbc106008	-0.008811958
103	0xbdc3184b	-0.09526118
104	0xbe4070e8	-0.1879307
105	0x3e308961	0.17239906
106	0x3ebbd37e	0.36684793
107	0xbcfc7081	-0.030815365
108	0xbe90f319	-0.2831047
109	0xbe85e70e	-0.26152843
110	0xbcb1d6bc	-0.021708839
111	0xbd211801	-0.039329533
112	0xbe07533b	-0.13215344
113	0x3d5e2ab7	0.054239955
114	0xbcd7b116	-0.026329558
115	0xbd90d530	-0.07071912
116	0xbd292037	-0.041290488
117	0x3e1b978b	0.15194528
118	0x3d473c8c	0.048641726
119	0xbe01a3d3	-0.1266015
120	0x3cd1ed54	0.025625862
121	0x3e13b1ba	0.14423266
122	0xbda32ade	-0.07967161
123	0xbd1e6389	-0.038669143
124	0xbc8f89e7	-0.017521812
125	0xbda2b9d6	-0.07945602
126	0x3de3c62e	0.11121784
127	0xbe737356	-0.23774466
128	0xbdcf661a	-0.10126896
129	0x3d46f0c0	0.04856944
130	0xbd004dc2	-0.031324156
131	0x3c99349e	0.018701848
132	0x3dca5413	0.09879317
133	0xbd46454c	-0.04840593
134	0xbdb25645	-0.08707861
135	0xbd09bd36	-0.03362771
136	0xbcd0b56e	-0.025477137
137	0xbd90051b	-0.07032224
138	0xbd2e5912	-0.042565413
139	0xbc3124cf	-0.0108119985
140	0x3c899142	0.016792897
141	0x3db656f5	0.089033045
142	0x3d9fb1f2	0.07797612
143	0xbb59b814	-0.0033221291
144	0xbc6f5459	-0.014607512
145	0x3cb43ee3	0.022002643
146	0xbb1d3b97	-0.0023991817
147	0xbcc73938	-0.024319276
148	0x3d148d17	0.036267366
149	0xbdead09b	-0.114655696
150	0xbe0af5da	-0.13570347
151	0xbcfce7a0	-0.030872166
152	0xbd64a2bf	-0.05581927
153	0xbd9e4964	-0.07728842
154	0xbe12b9b6	-0.14328656
155	0x3dab7bf0	0.083732486
156	0xbc6641f5	-0.014053811
157	0xbd898ade	-0.0671594
158	0xbda1c13f	-0.07898187
159	0x3cbb00f9	0.022827612
160	0xbdde5865	-0.10856704
161	0xbb016a41	-0.001974717
162	0xbd58cf62	-0.05293215
163	0x3ce33250	0.027733952
164	0x3cb1a23e	0.021683808
165	0xbe014d40	-0.12627125
166	0x3cef20c0	0.029190421
167	0x3d25c24e	0.040468507
168	0xbca7430e	-0.020417716
169	0x3d1b62e9	0.037936125
170	0xbd41d638	-0.047323436
171	0xbcc0d4cd	-0.023538971
172	0x3d00887f	0.031380173
173	0xbd84c3a7	-0.0648263
174	0x3cad7a2b	0.021176418
175	0xbe0f8988	-0.14017308
176	0xbd94225f	-0.07233118
177	0xbd9f46ab	-0.07777151
178	0xbd99cae5	-0.07509402
179	0xbda74dad	-0.08169112
180	0xbe0751e3	-0.13214831
181	0xbca20282	-0.019776586
182	0xbcffebde	-0.0312404
183	0xbe2550b8	-0.16144073
184	0xbccadea5	-0.024764368
185	0xbc9434fa	-0.018091667
186	0x3d46eddb	0.04856668
187	0xbdc88570	-0.09791076
188	0xbd5939bc	-0.053033575
189	0x3bdb67f5	0.0066957423
190	0x3d7e7904	0.06212713
191	0xbcccd469	-0.025003629
192	0xbddcc034	-0.10778847
193	0xbd0cd434	-0.03438206
194	0x3e8b17a9	0.2716649
195	0xbdc8547c	-0.09781739
196	0x3ec8d02d	0.39221326
197	0xbb991499	-0.004671645
198	0xbd05f4e1	-0.032704238
199	0x3d4cfe48	0.05004719
200	0xbcc6b4a2	-0.024256054
201	0xbcba8fe4	-0.02277369
202	0xbd86dc90	-0.06585038
203	0x3db8bf5b	0.09020873
204	0xbe68fc8d	-0.2275259
205	0xbd85d946	-0.06535582
206	0xbbafae9b	-0.0053613908
207	0xbf1964d3	-0.5991947
208	0x3e25be18	0.16185796
209	0x3d8defa1	0.06930471
210	0xbe99fb79	-0.3007467
211	0xbdd8c20d	-0.10583887
212	0xbeb38d53	-0.3506876
213	0xbde80969	-0.1132992
214	0x3c99d964	0.018780418
215	0xbda66ff1	-0.0812682
216	0xbc9ad4fa	-0.018900383
217	0x3c5e1cdc	0.013556685
218	0x3cfca023	0.030838078
219	0x3c75f946	0.015013045
220	0x3dc02668	0.093823254
221	0xbf0dc589	-0.5537954
222	0xbdca8504	-0.09888652
223	0xbcc4fd2e	-0.024046507
224	0xbddf3e0a	-0.10900505
225	0xbc8319dd	-0.016003544
226	0xbd80b616	-0.0628473
227	0x3dd7ac33	0.10530891
228	0xbc81db30	-0.015851587
229	0xbeccb6b4	-0.3998314
230	0xbd6bdf5c	-0.05758606
231	0x3c1e4203	0.009659293
232	0xbd17fc13	-0.03710563
233	0xbe3d4f4b	-0.18487279
234	0x3e3d8475	0.1850756
235	0x3d082e41	0.033247236
236	0xbce44c17	-0.027868314
237	0xbd1eef7e	-0.038802616
238	0xbcf9ecbf	-0.030508397
239	0x3c9d4b2e	0.019200888
240	0x3f359ae5	0.70939475
241	0xbe32f473	-0.17476062
242	0xbcac2353	-0.021012938
243	0x3d64e1ab	0.055879276
244	0x3c6ab213	0.014324683
245	0x3e1dd8c0	0.15414715
246	0x3cb639cf	0.022244362
247	0xbd9ac668	-0.07557374
248	0x3d9fcd17	0.0780279
249	0xbd9c15e2	-0.07621361
250	0xbe8923f3	-0.2678524
251	0x3e0160ee	0.12634632
252	0xbed67eec	-0.4189371
253	0x3d9ca259	0.07648153
254	0x3f13e1f1	0.57766634
255	0xbd1a0813	-0.037605356

hidden_layers.1.bias f4 [64]
0	0xbd88c0af	-0.066773765
1	0xbdd086ed	-0.10181985
2	0xbdd26ffc	-0.102752656
3	0x3e7958a7	0.24350224
4	0x3da012b5	0.07816068
5	0x3f65b22a	0.8972498
6	0x3e174551	0.14772536
7	0xbdd854cb	-0.10563048
8	0xba42f984	-0.00074376934
9	0xbdc7429e	-0.09729503
10	0x3e09801e	0.13427779
11	0xbd4c0c7e	-0.0498166
12	0x3e221490	0.15828156
13	0x3e33d9a4	0.17563492
14	0x3f26b54d	0.65120393
15	0x3ada1c02	0.0016640427
16	0xbdd9129d	-0.10599253
17	0x3d471a26	0.04860892
18	0x3d4648f6	0.048409425
19	0x3cbaf696	0.02282266
20	0xbe72dfb0	-0.23718143
21	0xbdad358a	-0.084574774
22	0x3e92ee5a	0.28697473
23	0x3cc4e912	0.024036918
24	0x3dace236	0.08441584
25	0xbde67cb7	-0.11254256
26	0x3aaf2b46	0.0013364337
27	0xbd2fcdd8	-0.042920917
28	0xbddf6de3	-0.10909631
29	0x3b75647c	0.0037443927
30	0xbe41dd8e	-0.18932173
31	0xbe22fcd6	-0.15916762
32	0x3bb8a449	0.0056348187
33	0x3e583644	0.2111445
34	0x3d3c2d6c	0.045941755
35	0x3d2a59c3	0.04158951
36	0xbe24c46c	-0.16090554
37	0x3f33bcad	0.7020977
38	0x3f7a9b48	0.9789319
39	0xbe0bc662	-0.13649896
40	0x3d94996a	0.07255824
41	0xbdd33d25	-0.10314397
42	0xbe2ab7d7	-0.16671692
43	0x3e097f90	0.13427567
44	0xbe182210	-0.14856744
45	0x3c9a3238	0.018822774
46	0x3deb9d61	0.11504627
47	0xbcbcfee0	-0.023070753
48	0xbdc2869f	-0.09498333
49	0xbdeb1f4d	-0.114805795
50	0x3e9aa535	0.30204168
51	0x3f3f6fab	0.74779767
52	0x3cd28e12	0.02570251
53	0x3d581b9e	0.052760713
54	0xbdebc184	-0.115115196
55	0xbdeb3319	-0.114843555
56	0xbdd27374	-0.10275927
57	0xbca901aa	-0.020630676
58	0xbda23093	-0.07919421
59	0xbca1ccc5	-0.019750962
60	0x3da222d1	0.07916797
61	0x3e8f405f	0.279788
62	0xbe170e56	-0.14751562
63	0xbe5fe3e8	-0.21864283

output.weight f4 [4, 64]
0	0xbe0736a2	-0.13204435
1	0xbbe1396c	-0.0068733003
2	0x3dee8f91	0.11648477
3	0x3e83911c	0.25696647
4	0xbd10c28d	-0.035341788
5	0x3e79e00b	0.24401872
6	0xbecc3fca	-0.39892417
7	0x3e482bee	0.19548008
8	0x3d1326eb	0.035925787
9	0xbd9fd800	-0.078048706
10	0x3ef497c9	0.47772053
11	0x3dcbe51a	0.09955807
12	0xbecb4660	-0.3970213
13	0x3e8ca790	0.2747159
14	0x3e583b54	0.21116382
15	0xbf0c9769	-0.54918534
16	0x3cf61373	0.030038571
17	0xbf2c4074	-0.6728585
18	0x3dcfcaed	0.10146127
19	0x3e916afe	0.2840194
20	0xbe21fa10	-0.15818048
21	0x3ce460fb	0.027878275
22	0x3e5f3841	0.21798803
23	0xbdbe2128	-0.09283668
24	0x3dfd6633	0.123730086
25	0x3d93a719	0.07209606
26	0x3d83e17e	0.064394936
27	0xbdaa994a	-0.08330019
28	0x3e899929	0.26874664
29	0xbf1643d8	-0.5869727
30	0x3da8a746	0.0823503
31	0xbe489c74	-0.19590932
32	0x3ed8bfcd	0.42333832
33	0x3e24d522	0.16096929
34	0x3aa04beb	0.0012229657
35	0x3de18ab1	0.110127814
36	0x3de1f4fb	0.110330544
37	0x3e6d70a4	0.231875
38	0x3eaaca2e	0.33357376
39	0xbf600db8	-0.87520933
40	0xbe2bab93	-0.16764669
41	0xbed0324d	-0.40663376
42	0xbddb8dea	-0.10720427
43	0x3e375cc2	0.17906478
44	0xbe48c576	-0.19606575
45	0x3df5d6d2	0.12003864
46	0x3ef08328	0.46975064
47	0x3e269c80	0.16270638
48	0xbd241591	-0.04005963
49	0x3d7b76e9	0.0613927
50	0x3dcd51a4	0.10025337
51	0x3dfd2a06	0.12361531
52	0x3d8c3ace	0.068471536
53	0x3e3929b2	0.18082312
54	0xbd121d99	-0.035672758
55	0xbb74a8df	-0.00373321
56	0x3da71fe5	0.0816038
57	0xbe82165d	-0.25407687
58	0xbea74af7	-0.3267438
59	0x3e0371ef	0.12836431
60	0x3e0bcbed	0.1365201
61	0x3dca562b	0.098797165
62	0x3e25b9a7	0.16184102
63	0x3c06c85b	0.008226479
64	0xbe2a48e5	-0.1662937
65	0x3e022865	0.12710722
66	0xbd936931	-0.07197798
67	0x3e8fd739	0.2809389
68	0xbda306d4	-0.07960287
69	0x3e88fda4	0.26756012
70	0xbd62c030	-0.055359066
71	0x3f1ea969	0.6197725
72	0x3cd84615	0.026400605
73	0xbd8e44aa	-0.069466904
74	0x3e9acbda	0.3023365
75	0x3e547cc7	0.20750724
76	0x3e29c8ff	0.1658058
77	0x3e78638b	0.24256723
78	0x3e1d259c	0.15346378
79	0x3d41dfe0	0.047332644
80	0xbc8c9872	-0.017162535
81	0x3d9844e2	0.07435013
82	0x3e08cacb	0.1335861
83	0x3ea91be3	0.33029088
84	0xbe2ed51b	-0.17073481
85	0x3e1231b2	0.1427677
86	0x3dc3ef16	0.095670864
87	0x3dd91d4d	0.10601292
88	0x3df5f0bb	0.12008806
89	0x3f0ba930	0.54555035
90	0xbd3a2ee3	-0.04545487
91	0x3eb522f0	0.35378218
92	0x3eeb9863	0.460147
93	0x3e55148d	0.20808621
94	0x3f28080f	0.65637296
95	0xbe198551	-0.14992262
96	0x3e67735d	0.22602601
97	0x3e3e0d79	0.18559827
98	0x3dca6c74	0.09883967
99	0x3dc179e9	0.09447081
100	0x3e78dddf	0.24303387
101	0x3e576407	0.21034251
102	0x3e915022	0.2838145
103	0xbe209dbe	-0.15685174
104	0x3e9249c1	0.28571895
105	0xbe2d5f54	-0.16930896
106	0x3d010d67	0.031506922
107	0x3df47d57	0.11937969
108	0xbd8a1f0c	-0.06744203
109	0xbf0e374b	-0.5555312
110	0x3ebacb34	0.36483157
111	0x3eae1e18	0.34007335
112	0xbd0d70d1	-0.03453142
113	0xbde95cad	-0.113946296
114	0x3dc89512	0.09794058
115	0x3e836019	0.25659254
116	0x3dd13d10	0.10216725
117	0x3e954364	0.29152977
118	0xbd053f38	-0.032530993
119	0x3d98cf79	0.07461447
120	0x3e17ac34	0.14811784
121	0xbe1a8188	-0.15088475
122	0x3e03efff	0.1288452
123	0x3e150e22	0.14556172
124	0x3e3eae9f	0.186213
125	0x3e22de00	0.15904999
126	0x3f18ef17	0.5973982
127	0xbe855e79	-0.2604864
128	0xbf163024	-0.58667207
129	0xbed9f0e4	-0.42566597
130	0x3d6802b0	0.056643188
131	0x3c1a7fe1	0.009429903
132	0xbf574123	-0.84083766
133	0x3e91125b	0.28334317
134	0xbea653a3	-0.32485685
135	0x3e105466	0.14094695
136	0x3ecb9a61	0.3976622
137	0xbd7d40bb	-0.06182931
138	0x3eee7e59	0.4658077
139	0x3e4004e0	0.1875186
140	0xbebfed0c	-0.3748554
141	0x3e29c6b1	0.16579701
142	0x3e336c12	0.17521694
143	0xbdc69398	-0.0969612
144	0xbbe5a43e	-0.0070081046
145	0x3dc2f94f	0.09520208
146	0x3e745dd6	0.2386392
147	0xbcba7500	-0.022760868
148	0xbe80f32f	-0.25185534
149	0x3d87df81	0.06634427
150	0xb7acc897	-2.0597405e-05
151	0x3f026b6b	0.50945157
152	0xbeb9fdc3	-0.36326417
153	0x3e6ac608	0.22927105
154	0xbd1df52c	-0.038563892
155	0xbec85dac	-0.39133966
156	0xbd9e92b3	-0.077428244
157	0x3ed8db28	0.42354703
158	0x3d012ecf	0.03153878
159	0xbdc5d2e6	-0.09659366
160	0x3e527ba6	0.2055498
161	0xbcb75fb8	-0.02238451
162	0x3e34c141	0.17651846
163	0x3e08e41b	0.13368265
164	0x3dbfc032	0.0936283
165	0x3e85a024	0.2609874
166	0x3e966db3	0.2938057
167	0x3b9529eb	0.004552116
168	0x3e10aedd	0.14129205
169	0xbf4f5065	-0.8098205
170	0xbd4afa48	-0.049555093
171	0x3dfbd4d2	0.12296452
172	0x3caaa5bf	0.020830987
173	0xbec10bcb	-0.3770431
174	0x3e896f50	0.26842737
175	0xbdc1a43e	-0.09455155
176	0xbcb8d81c	-0.022563986
177	0xbf05a0b3	-0.5219833
178	0xbd0045a7	-0.031316426
179	0x3e3198d3	0.17343454
180	0x3dc1bafa	0.09459491
181	0x3ea4ad11	0.3216329
182	0xbe6f9fd0	-0.23400807
183	0x3df988ad	0.12184272
184	0x3e79c904	0.24393088
185	0xbf111b8c	-0.5668266
186	0x3e95774f	0.29192588
187	0x3d6f666c	0.058447286
188	0x3e34edfb	0.17668907
189	0x3e4ff20f	0.20307182
190	0x3eb34770	0.3501544
191	0x3c110842	0.0088520665
192	0xbec0f2d9	-0.37685278
193	0xbd1043f6	-0.035221063
194	0x3dca8131	0.098879226
195	0x3d9858a1	0.074387796
196	0xbea23323	-0.3167964
197	0x3e39ab39	0.18131723
198	0x3ea06ba0	0.3133211
199	0xbda9429b	-0.08264657
200	0x3e7c5995	0.24643548
201	0x3e8e7e97	0.27830955
202	0x3e62775d	0.22115846
203	0x3e265c5a	0.16246167
204	0x3e25210e	0.1612589
205	0x3e2837a0	0.16427469
206	0x3e248544	0.16066462
207	0xbe1abbcc	-0.15110701
208	0xbec026d3	-0.3752962
209	0xbd42cec3	-0.047560465
210	0x3e0d3b15	0.1379207
211	0x3e5419d9	0.20712985
212	0xbd0e4bed	-0.034740377
213	0xbcd2d997	-0.02573852
214	0x3d7bc66d	0.06146853
215	0x3e4a9559	0.19783534
216	0x3e82efc3	0.2557355
217	0xbecad7d1	-0.3961778
218	0x3e068ce8	0.13139689
219	0x3e8c52c6	0.274069
220	0x3da518f3	0.08061399
221	0x3d3b3553	0.04570515
222	0x3eed266d	0.4631838
223	0xbe9fbfc2	-0.31200987
224	0x3e8c5e7d	0.2741584
225	0x3d765aa7	0.060145047
226	0x3dedc68a	0.11610134
227	0x3e1ff353	0.15620165
228	0xbf1a25a6	-0.60213697
229	0x3e40524a	0.18781391
230	0x3eaf6e7e	0.34263986
231	0xbed8cd70	-0.42344236
232	0x3e66f8c7	0.22555839
233	0x3db6ff47	0.08935409
234	0xbe41eb51	-0.18937422
235	0x3e687e1f	0.22704361
236	0xbf0fb327	-0.5613274
237	0x3d020ff3	0.03175349
238	0x3f0196a1	0.50620466
239	0x3f078810	0.5294199
240	0x3e88c5fa	0.26713544
241	0x3c151067	0.009098149
242	0x3e64ce6d	0.2234437
243	0x3e961f81	0.2932091
244	0x3e31b494	0.17354041
245	0x3dcf4d06	0.10122113
246	0x3ce480cd	0.027893448
247	0x3e3868db	0.18008749
248	0xbeb782b0	-0.35841894
249	0xbd35877c	-0.04431866
250	0x3e824805	0.25445572
251	0x3e52a873	0.20572071
252	0xbb80137a	-0.003908572
253	0x3e2111bf	0.15729426
254	0xbe13d6a0	-0.14437342
255	0xbf0bac0b	-0.5455939

output.bias f4 [4]
0	0x3f29cce6	0.66328275
1	0x3f121f46	0.5707897
2	0x3f1cf236	0.61307085
3	0x3f1523ae	0.5825757

exp_avg f4 [64, 37]
0	0xb8346955	-4.3013442e-05
1	0x375992b6	1.2968367e-05
2	0xb880cf97	-6.142182e-05
3	0xb9807287	-0.00024499392
4	0x350e7d4d	5.308146e-07
5	0xb7f7d3f1	-2.9543387e-05
6	0xb79bda85	-1.8579196e-05
7	0xb988c42c	-0.000260861
8	0xb7e67ec3	-2.7477165e-05
9	0xb91b35cc	-0.00014801993
10	0x36f77fa3	7.3760325e-06
11	0xb9c7e9fc	-0.0003813057
12	0xb910c683	-0.00013806862
13	0x3938107c	0.00017553748
14	0xb9a035e2	-0.00030557724
15	0xb921fcdf	-0.00015448358
16	0xb882e86b	-6.242174e-05
17	0xb89d91ba	-7.513487e-05
18	0xb83a504d	-4.442064e-05
19	0xb8eea15d	-0.000113787806
20	0x37aa11a9	2.0273803e-05
21	0xb9958f33	-0.00028526186
22	0xb8123b4f	-3.4864348e-05
23	0xb8198bee	-3.6608362e-05
24	0xb8ae85b2	-8.321869e-05
25	0xb99b87a6	-0.0002966497
26	0x37e96928	2.7824732e-05
27	0xb7a3bf7c	-1.9520281e-05
28	0xb849cf9f	-4.8115497e-05
29	0xb8edb11d	-0.000113340306
30	0xb815410e	-3.5584955e-05
31	0xb9696e05	-0.00022261597
32	0xb89648ae	-7.166095e-05
33	0xb6dd6c71	-6.5989375e-06
34	0xb7edc999	-2.8346478e-05
35	0x381f10ee	3.792432e-05
36	0x3ac57c6a	0.0015066986
37	0xb832aea0	-4.260114e-05
38	0xb731acab	-1.05902245e-05
39	0xb83be01a	-4.4792985e-05
40	0xb4cdc287	-3.8325763e-07
41	0xb7edcb69	-2.8347322e-05
42	0xb78854a2	-1.6251874e-05
43	0xb752e66f	-1.2570627e-05
44	0xb83f5f9e	-4.5627e-05
45	0xb7c8a3c2	-2.3918114e-05
46	0xb806a194	-3.209857e-05
47	0xb88ded12	-6.767562e-05
48	0xb808b0dc	-3.258964e-05
49	0x35b02716	1.3124397e-06
50	0x351d172c	5.852078e-07
51	0xb8a46a87	-7.839972e-05
52	0xb80501ac	-3.1711228e-05
53	0xb6c0a326	-5.741039e-06
54	0xb87f7f5a	-6.0915343e-05
55	0x24daef88	9.494821e-17
56	0xb7430e50	-1.1626238e-05
57	0xb70c0d5c	-8.347761e-06
58	0x37711460	1.4369463e-05
59	0xb89cb8ba	-7.473068e-05
60	0xb7f8cb72	-2.965864e-05
61	0xb82f2136	-4.175418e-05
62	0x35f2e8e8	1.809819e-06
63	0xb7b6d8cb	-2.1797043e-05
64	0xb8a2f928	-7.771171e-05
65	0xb5337f62	-6.686806e-07
66	0xb7dc14d2	-2.6235739e-05
67	0x34e73fa6	4.3073413e-07
68	0xb5c9d6f0	-1.5038222e-06
69	0xb6eaa144	-6.9925172e-06
70	0xb8bd6085	-9.0302005e-05
71	0xb6d08d10	-6.215305e-06
72	0x372ae872	1.018691e-05
73	0x38e9fc02	0.00011157246
74	0x3700a233	7.6671595e-06
75	0x38942f92	7.0660506e-05
76	0x3991d09b	0.00027811978
77	0xaeff30db	-1.1604736e-10
78	0x38c45e40	9.363564e-05
79	0x37bcd3d3	2.2509985e-05
80	0x399b73de	0.00029650232
81	0x38246b7c	3.920075e-05
82	0xb5ecfd1c	-1.7657035e-06
83	0x396eb5f5	0.00022765233
84	0x39badfcc	0.00035643426
85	0xa17bf011	-8.5359833e-19
86	0x1b8e509b	2.354402e-22
87	0x3260fbb7	1.3095749e-08
88	0x3832f573	4.26671e-05
89	0x37e0afe5	2.6784788e-05
90	0x3859bc43	5.1912164e-05
91	0x39916a92	0.00027735956
92	0x34d1d5e9	3.9084924e-07
93	0x39197054	0.00014633063
94	0x37b177df	2.1155864e-05
95	0x2da20b8a	1.8422392e-11
96	0x39721d6d	0.0002308988
97	0x38daed64	0.000104392675
98	0x3893f958	7.05595e-05
99	0x00000004	6e-45
100	0x39966975	0.000286888
101	0x3891e062	6.955933e-05
102	0x1f5c48b5	4.6646954e-20
103	0x394e176a	0.00019654413
104	0x3994096a	0.00028235774
105	0x38913235	6.9234906e-05
106	0x9bae662f	-2.885192e-22
107	0x36a2e5b0	4.8547154e-06
108	0x38fd036b	0.00012064617
109	0x3864b06d	5.4523745e-05
110	0x3a04a723	0.00050603057
111	0xb9c71ca9	-0.0003797759
112	0xb89a6f25	-7.3639945e-05
113	0xb719bf49	-9.164048e-06
114	0x387ccfb8	6.0274935e-05
115	0xb90273ac	-0.00012440857
116	0x382cf632	4.1237283e-05
117	0x390654cc	0.00012810825
118	0xb9be647f	-0.000363145
119	0xb95aa24a	-0.00020850557
120	0x38ffe5f0	0.00012202177
121	0x393e75d3	0.00018163705
122	0xb84b00e3	-4.8399797e-05
123	0xb964e914	-0.00021830603
124	0xb9a652ba	-0.00031723623
125	0xb90cf3f0	-0.00013442314
126	0xb9af53cb	-0.00033441032
127	0xb7d2ca2e	-2.5128098e-05
128	0x39132219	0.00014031715
129	0xb93ffa2d	-0.00018308377
130	0x392ec50a	0.00016667336
131	0x3885a762	6.373112e-05
132	0xb917e019	-0.00014483965
133	0xb9c97846	-0.00038427318
134	0x38844810	6.307673e-05
135	0xb8b439d2	-8.593839e-05
136	0xb9a95299	-0.00032295732
137	0x39974e5c	0.00028859347
138	0xb932eb8d	-0.00017063152
139	0xb94ee4e2	-0.00019730956
140	0x38477f32	4.7563757e-05
141	0x38a0612e	7.647496e-05
142	0xb9188c75	-0.00014548174
143	0xb9f88b13	-0.00047405864
144	0x39139916	0.00014076041
145	0xb9631338	-0.00021655567
146	0xb96697f9	-0.00021991124
147	0xbbd7ce66	-0.006585884
148	0x39dc59d8	0.0004202861
149	0xba1fc28e	-0.00060943596
150	0xb9ace9af	-0.00032980504
151	0xba26f738	-0.0006369236
152	0x39ccf635	0.0003909335
153	0xb9985fd7	-0.00029063105
154	0xba01f8e1	-0.00049580453
155	0x382a024f	4.053331e-05
156	0xb9d6f21f	-0.00040997655
157	0x395a639c	0.00020827207
158	0xba054401	-0.0005083681
159	0x38ac2a7c	8.2095125e-05
160	0xb993b7cb	-0.0002817496
161	0xb9eace2a	-0.00044785562
162	0x382e0dfc	4.1497857e-05
163	0xbab3c5fc	-0.001371562
164	0x39ea0d89	0.00044642042
165	0xb957e707	-0.00020590062
166	0xb7d05680	-2.4835812e-05
167	0x39e1a964	0.0004304155
168	0xba27e123	-0.00064040924
169	0xb9d85377	-0.00041260917
170	0x399fae51	0.0003045672
171	0xb9d59bf0	-0.00040742708
172	0x378c059c	1.6691913e-05
173	0xb8d95049	-0.000103623206
174	0xba59e68f	-0.0008312249
175	0xba3357d8	-0.0006841398
176	0x39f2cd84	0.00046310958
177	0xba436bf4	-0.0007454746
178	0xb9e13caa	-0.00042960542
179	0x3a7305ce	0.00092705793
180	0xba8e1bf8	-0.0010842076
181	0xba153134	-0.0005691231
182	0xb94fb515	-0.00019808517
183	0xb9d4b1ac	-0.00040568167
184	0xbb2521e3	-0.00251972
185	0xb921d00d	-0.00015431661
186	0x37cbe92e	2.4308069e-05
187	0xb7d22446	-2.5050842e-05
188	0x38b493a9	8.610573e-05
189	0x38d08c0a	9.944297e-05
190	0xb8e30694	-0.00010825429
191	0xb84c7eb0	-4.8755377e-05
192	0x39076df5	0.00012915565
193	0xb82c6262	-4.109962e-05
194	0x38264cc2	3.964897e-05
195	0xb8f0d6f2	-0.000114841285
196	0xb8d80975	-0.00010301444
197	0x388380e6	6.270576e-05
198	0x38b4c447	8.619628e-05
199	0xb8867049	-6.410533e-05
200	0xb92f139f	-0.0001669661
201	0x388a2791	6.5877226e-05
202	0x3797f779	1.8115841e-05
203	0x376b34aa	1.4019353e-05
204	0x391509a1	0.00014213334
205	0x37d77e64	2.5688852e-05
206	0xb8e52436	-0.00010926316
207	0xb6a8d2ce	-5.031331e-06
208	0x37a4da41	1.9651956e-05
209	0xb7c217bc	-2.3137654e-05
210	0xb8a1c18c	-7.713129e-05
211	0x36720361	3.6062777e-06
212	0x352f937d	6.5407204e-07
213	0x368370ee	3.917251e-06
214	0xb79a6658	-1.8405888e-05
215	0xb88a9921	-6.608875e-05
216	0x383f2726	4.557441e-05
217	0xb78d298f	-1.6827862e-05
218	0xb8049692	-3.1611482e-05
219	0x3911e5f5	0.00013913943
220	0xb8842c6f	-6.302527e-05
221	0x39a393e7	0.0003119998
222	0x37f0d6e2	2.8710292e-05
223	0x38c4d492	9.3856026e-05
224	0x39911bc4	0.00027677242
225	0x388b0336	6.6286346e-05
226	0x392ccf61	0.00016480453
227	0x395350db	0.00020152649
228	0x3937e7f8	0.00017538655
229	0x379206e2	1.7407761e-05
230	0x38958935	7.1304305e-05
231	0x38d0532e	9.933706e-05
232	0x397ac388	0.00023914699
233	0x394920f9	0.00019181137
234	0x37f16064	2.8774324e-05
235	0x36c5b73e	5.8923897e-06
236	0x3900ae0c	0.00012271869
237	0x36419f96	2.8852132e-06
238	0x36eae51a	7.0004144e-06
239	0x39d426ce	0.00040464703
240	0x38564c20	5.1092473e-05
241	0x390f21a0	0.00013650069
242	0x3928b790	0.00016090111
243	0x38f8c22e	0.0001186173
244	0x391faaec	0.00015227095
245	0x380dead6	3.3835728e-05
246	0x388b852d	6.6528424e-05
247	0x378971c5	1.638465e-05
248	0x39a7d39c	0.00032010383
249	0x37330bb0	1.0671953e-05
250	0x38f87039	0.000118464646
251	0x392589f6	0.0001578702
252	0x3a028771	0.0004979289
253	0x3804a912	3.162871e-05
254	0x36015208	1.9270246e-06
255	0xb88a1e09	-6.585947e-05

exp_avg_sq f4 [64, 37]
0	0x361c9729	2.3333798e-06
1	0x34e84922	4.326658e-07
2	0x34225292	1.5117465e-07
3	0x35d8fd6c	1.616701e-06
4	0x34800bfa	2.3850572e-07
5	0x3569197a	8.683634e-07
6	0x35662255	8.5731637e-07
7	0x3633e037	2.6803589e-06
8	0x34304dfe	1.641965e-07
9	0x350d4c87	5.2637955e-07
10	0x351560e5	5.5647826e-07
11	0x36170962	2.2506215e-06
12	0x35b4f402	1.3482061e-06
13	0x34c125c1	3.597652e-07
14	0x35056071	4.96867e-07
15	0x35dbe70b	1.6384014e-06
16	0x3529c25e	6.324025e-07
17	0x3602f7b3	1.951569e-06
18	0x34af4de5	3.2652966e-07
19	0x3580d214	9.597884e-07
20	0x35d7bc60	1.6073573e-06
21	0x35a6f7fa	1.2440134e-06
22	0x35b4dc05	1.3475079e-06
23	0x34e52754	4.268319e-07
24	0x351c44a1	5.8214397e-07
25	0x358a43be	1.0301517e-06
26	0x360c166c	2.0874677e-06
27	0x359fe214	1.191222e-06
28	0x347a2e2b	2.329986e-07
29	0x35c60ea1	1.4756407e-06
30	0x35641f3e	8.498208e-07
31	0x3578e7a6	9.272429e-07
32	0x3626fb0e	2.488206e-06
33	0x34a93254	3.1515322e-07
34	0x34dde34e	4.1329844e-07
35	0x363cf42b	2.8156308e-06
36	0x393de2ce	0.00018108936
37	0x335ff7ff	5.2146785e-08
38	0x340f9120	1.3370709e-07
39	0x339f947c	7.4310236e-08
40	0x316b5e9e	3.4250784e-09
41	0x32c3833a	2.2760663e-08
42	0x343e7787	1.7738613e-07
43	0x335137f3	4.871249e-08
44	0x32e48e8a	2.6607513e-08
45	0x32425a20	1.1312778e-08
46	0x332d728c	4.038388e-08
47	0x342cade2	1.6082006e-07
48	0x323d898b	1.1032522e-08
49	0x33c18577	9.01154e-08
50	0x31a17bb5	4.6997806e-09
51	0x338cfd3b	6.5653204e-08
52	0x32fc4230	2.936676e-08
53	0x330ee555	3.3270528e-08
54	0x34573156	2.0041384e-07
55	0x307c876f	9.186953e-10
56	0x3255448f	1.241382e-08
57	0x338b0b81	6.4747844e-08
58	0x31f7c2b3	7.210781e-09
59	0x3438ab26	1.7198599e-07
60	0x329ca8a0	1.8237472e-08
61	0x3349f8cd	4.7025242e-08
62	0x3193eec4	4.3054076e-09
63	0x332704e3	3.8887162e-08
64	0x34564bfd	1.9957947e-07
65	0x32b31606	2.0848358e-08
66	0x32b7843f	2.1364142e-08
67	0x3384e646	6.1886155e-08
68	0x3211951f	8.474017e-09
69	0x32e58f34	2.672423e-08
70	0x34339102	1.6723428e-07
71	0x3221b8fb	9.413493e-09
72	0x3436234a	1.6962909e-07
73	0x37b3f92c	2.1454493e-05
74	0x33197379	3.572811e-08
75	0x3534189b	6.709103e-07
76	0x33f1ea30	1.12650355e-07
77	0x338e97a3	6.639973e-08
78	0x34b7c089	3.4226494e-07
79	0x343f6823	1.7826146e-07
80	0x34b284c9	3.3251698e-07
81	0x34ca7a4e	3.771442e-07
82	0x32cfd0b6	2.4192882e-08
83	0x3492979c	2.730493e-07
84	0x35533761	7.868421e-07
85	0x33b18904	8.267128e-08
86	0x3092aee6	1.0672607e-09
87	0x32794d53	1.4511289e-08
88	0x32c9e68b	2.3504318e-08
89	0x32d9ec66	2.5369626e-08
90	0x34df3381	4.157446e-07
91	0x34c444ce	3.6557907e-07
92	0x33bcd5d1	8.793325e-08
93	0x349daf8a	2.937125e-07
94	0x344cb839	1.9066e-07
95	0x32cc1370	2.3757565e-08
96	0x349f807b	2.970954e-07
97	0x34cb2e65	3.7845453e-07
98	0x334f1e97	4.8223765e-08
99	0x2942edfa	4.3283065e-14
100	0x34f3e672	4.5429948e-07
101	0x34c1492b	3.6002288e-07
102	0x33bbb1c0	8.7401986e-08
103	0x34970746	2.8131234e-07
104	0x3532cad8	6.6605344e-07
105	0x3443880d	1.8210285e-07
106	0x329d403e	1.830642e-08
107	0x3307caee	3.16167e-08
108	0x3499e337	2.866379e-07
109	0x352c761e	6.4246876e-07
110	0x38760ed5	5.8664784e-05
111	0x35eced7e	1.765249e-06
112	0x34e28b5a	4.2197172e-07
113	0x364b008f	3.0249682e-06
114	0x354e24e2	7.679465e-07
115	0x35493794	7.495921e-07
116	0x35edd7a1	1.7720632e-06
117	0x35022809	4.848703e-07
118	0x35cd5e90	1.5301212e-06
119	0x360feede	2.14477e-06
120	0x358090c7	9.578879e-07
121	0x35c9e773	1.5043028e-06
122	0x35c24a04	1.4475668e-06
123	0x35c26fec	1.44867e-06
124	0x35db6f61	1.6349187e-06
125	0x3548b39d	7.476718e-07
126	0x35ecfd22	1.7657042e-06
127	0x353064c1	6.5711725e-07
128	0x36120fab	2.1764815e-06
129	0x35b9bdfb	1.3838866e-06
130	0x35756dc6	9.1429354e-07
131	0x35f18fe3	1.7997776e-06
132	0x35866346	1.001267e-06
133	0x36225dca	2.4194474e-06
134	0x3550d637	7.779776e-07
135	0x35ad5222	1.2913408e-06
136	0x35b3e739	1.3403834e-06
137	0x358a8ddd	1.0323089e-06
138	0x360ea135	2.1253484e-06
139	0x35bf87e9	1.4270164e-06
140	0x35d412c1	1.5800689e-06
141	0x36774a2f	3.6849049e-06
142	0x350999d9	5.1260355e-07
143	0x35b714cd	1.3640616e-06
144	0x3530f2ba	6.5918323e-07
145	0x35949d08	1.1072561e-06
146	0x36b8e110	5.509828e-06
147	0x399df23e	0.00030125858
148	0x37c38bf8	2.331099e-05
149	0x38161f39	3.5791865e-05
150	0x38063dfb	3.2005813e-05
151	0x3701f7e8	7.746719e-06
152	0x37ac8087	2.0563848e-05
153	0x38e95d56	0.00011127691
154	0x35f87624	1.8511823e-06
155	0x36220531	2.4142903e-06
156	0x368975d0	4.0966333e-06
157	0x364cbbae	3.0507613e-06
158	0x37c2d5d2	2.322617e-05
159	0x37e3bd81	2.7148753e-05
160	0x380c70dc	3.348371e-05
161	0x3769cd65	1.3935704e-05
162	0x378505c4	1.585752e-05
163	0x37fee411	3.0385361e-05
164	0x380385b1	3.1357344e-05
165	0x37eb6818	2.8062655e-05
166	0x3721e650	9.649972e-06
167	0x378f5ac1	1.7089189e-05
168	0x380ac634	3.3086355e-05
169	0x37dff59e	2.6698046e-05
170	0x37fd4416	3.0191655e-05
171	0x3709555c	8.185711e-06
172	0x37ada2d0	2.0699023e-05
173	0x385db402	5.285815e-05
174	0x3797dba2	1.8102877e-05
175	0x37b16b57	2.1150028e-05
176	0x36e4f54b	6.8234854e-06
177	0x3754f9d6	1.2694354e-05
178	0x38534453	5.0369952e-05
179	0x37a61fc4	1.9803534e-05
180	0x37bd134c	2.2539542e-05
181	0x370ee3fa	8.5169395e-06
182	0x379244f2	1.7436661e-05
183	0x384eb897	4.928614e-05
184	0x3c14570c	0.009053957
185	0x3580b9b5	9.590791e-07
186	0x355d61e3	8.247136e-07
187	0x34eb198b	4.3790746e-07
188	0x342d87bf	1.6161265e-07
189	0x34ec6688	4.4033027e-07
190	0x35c41eb0	1.4612069e-06
191	0x34a427aa	3.057624e-07
192	0x34b2a33e	3.3273858e-07
193	0x34bdbddd	3.5342137e-07
194	0x34d4f623	3.9667165e-07
195	0x35181483	5.665426e-07
196	0x350c9756	5.2374287e-07
197	0x357aee9f	9.3479497e-07
198	0x34d7b33b	4.0177278e-07
199	0x34d2fe03	3.9300366e-07
200	0x35cfb2ca	1.5474736e-06
201	0x34bd09df	3.5211175e-07
202	0x34d36d66	3.938141e-07
203	0x34351e7c	1.6868029e-07
204	0x3440f4ed	1.7970497e-07
205	0x3586c4bc	1.0041035e-06
206	0x34b01be1	3.280284e-07
207	0x354fda21	7.743093e-07
208	0x34d93298	4.0456212e-07
209	0x348eabec	2.657465e-07
210	0x3604e142	1.980065e-06
211	0x345e2e2a	2.0692156e-07
212	0x33bce89c	8.7967436e-08
213	0x3421491c	1.502089e-07
214	0x33e05718	1.0446655e-07
215	0x35071ab7	5.0330294e-07
216	0x35349571	6.727269e-07
217	0x354de1b0	7.669687e-07
218	0x34f79bc6	4.6120675e-07
219	0x34f42810	4.547769e-07
220	0x3699ac26	4.579796e-06
221	0x38e557c8	0.000109359215
222	0x3476e9a1	2.2995529e-07
223	0x35dc3a64	1.6408271e-06
224	0x35624aa7	8.4300194e-07
225	0x344aead5	1.8898147e-07
226	0x353ba060	6.9896305e-07
227	0x358abb67	1.0336342e-06
228	0x354427ad	7.3073426e-07
229	0x3595f08e	1.1171376e-06
230	0x337cfae6	5.8901513e-08
231	0x34fc95ee	4.7047746e-07
232	0x3534ed87	6.7400873e-07
233	0x352c8de7	6.428149e-07
234	0x353fc2fa	7.1436773e-07
235	0x356db378	8.855054e-07
236	0x34db954a	4.090055e-07
237	0x34aa6082	3.1735186e-07
238	0x359e7d27	1.1808341e-06
239	0x35a2e222	1.2135754e-06
240	0x34634fbb	2.1170028e-07
241	0x35361f96	6.7846247e-07
242	0x35203175	5.9676614e-07
243	0x35025ff8	4.8568427e-07
244	0x35e63f16	1.7154696e-06
245	0x340c1bb4	1.3048594e-07
246	0x3545833f	7.3579207e-07
247	0x34c263eb	3.6208016e-07
248	0x35ebf08b	1.7578872e-06
249	0x34cda7c5	3.8306294e-07
250	0x34edca86	4.4292045e-07
251	0x3552c378	7.851554e-07
252	0x35fea346	1.8971994e-06
253	0x345a84d8	2.035116e-07
254	0x3467708f	2.15545e-07
255	0x352ee830	6.515793e-07

exp_avg f4 [64]
0	0xb9b06702	-0.00033646083
1	0xb8ce4ab7	-9.836762e-05
2	0x39bae18e	0.00035644736
3	0xb9d2ec76	-0.00040230498
4	0xba9780d7	-0.0011558783
5	0xb8909b3a	-6.895368e-05
6	0x39f41f25	0.0004656251
7	0x39121018	0.0001392964
8	0xbabd1597	-0.001442599
9	0xb916202d	-0.00014317101
10	0x3ab7de72	0.0014028086
11	0x383f5cad	4.562426e-05
12	0x3ad0493e	0.0015890968
13	0xb9a516ac	-0.00031488144
14	0xba5659e3	-0.00081768463
15	0x3aee7deb	0.0018195485
16	0xb9bd3c8e	-0.00036094006
17	0xb8ae906e	-8.323869e-05
18	0xba2d3b45	-0.0006608258
19	0x388ad7be	6.620538e-05
20	0x393d8d2d	0.00018077037
21	0xb673ff77	-3.6358522e-06
22	0xbad9b6fc	-0.001661032
23	0x390dadb0	0.00013511511
24	0xb99dc8bb	-0.0003009493
25	0xba2aef77	-0.00065206684
26	0xb9dd9953	-0.0004226664
27	0x37a63124	1.9811625e-05
28	0x3b51cc4d	0.0032012642
29	0xbb840983	-0.004029454
30	0x39def77a	0.00042527524
31	0x392cdd0e	0.00016485548
32	0xb9a2e5c0	-0.00031070225
33	0x39a708e7	0.00031859355
34	0x3a524c56	0.0008022239
35	0xba1e99c0	-0.0006050132
36	0xb9feaed1	-0.00048576904
37	0x3a1435e4	0.0005653782
38	0x397f6006	0.00024354467
39	0x39e7af9d	0.00044190596
40	0x38d293c6	0.00010041105
41	0xb88c4428	-6.688415e-05
42	0xb88517bc	-6.346355e-05
43	0x38af1ad2	8.349646e-05
44	0xb9a6ac89	-0.00031790536
45	0x37810b3a	1.5383226e-05
46	0xb78471bf	-1.5788593e-05
47	0x3a050156	0.00050737464
48	0xbb55a746	-0.0032600923
49	0x38915ae7	6.931071e-05
50	0x3951e596	0.0002001732
51	0x3b70f263	0.0036765567
52	0x39445455	0.00018723433
53	0x37d6be1a	2.559931e-05
54	0x39340965	0.00017169637
55	0x3aae95c1	0.0013319777
56	0x3a07d33b	0.0005181317
57	0x39d21694	0.00040071143
58	0x3b14a25e	0.0022679786
59	0xb91dcc94	-0.00015048898
60	0x3c282651	0.010263042
61	0xba143acb	-0.0005654513
62	0xb80faadd	-3.4252986e-05
63	0x3b14c6cb	0.0022701498

exp_avg_sq f4 [64]
0	0x369c7c15	4.6636073e-06
1	0x348d80de	2.635706e-07
2	0x35741eef	9.09421e-07
3	0x36d4bf8f	6.3403927e-06
4	0x38f777db	0.000118002026
5	0x3623b7be	2.4395845e-06
6	0x364b63f9	3.030755e-06
7	0x36c77bbb	5.9450663e-06
8	0x38a338d7	7.783033e-05
9	0x3731de94	1.0601845e-05
10	0x38c951ce	9.599664e-05
11	0x3712b64f	8.744725e-06
12	0x3920b1b4	0.00015324989
13	0x36bbf64d	5.6017075e-06
14	0x36edac13	7.0831825e-06
15	0x380a7b44	3.3016564e-05
16	0x36fd05c8	7.5406606e-06
17	0x36a31c93	4.861105e-06
18	0x37a19693	1.9262812e-05
19	0x355b196b	8.1620846e-07
20	0x3929f735	0.00016209188
21	0x35340c55	6.707317e-07
22	0x378ffbbb	1.716415e-05
23	0x3606101f	1.997694e-06
24	0x370f8288	8.553856e-06
25	0x3785d21f	1.595268e-05
26	0x371c4340	9.313982e-06
27	0x3754a11d	1.2673697e-05
28	0x3a1a851e	0.000589447
29	0x393434ad	0.00017185761
30	0x36d4eb58	6.34549e-06
31	0x35d430c5	1.5809425e-06
32	0x36b2a363	5.323834e-06
33	0x368decd2	4.229697e-06
34	0x37282c2b	1.0023864e-05
35	0x368ed81b	4.2570878e-06
36	0x36920498	4.351674e-06
37	0x37a49045	1.9617504e-05
38	0x36743076	3.6387041e-06
39	0x368fa0ec	4.280466e-06
40	0x3630e836	2.6361208e-06
41	0x362121cc	2.4010542e-06
42	0x375bc1ca	1.3098537e-05
43	0x37abca20	2.047891e-05
44	0x38086336	3.2517324e-05
45	0x352753f5	6.233452e-07
46	0x371043e9	8.59888e-06
47	0x35dcb503	1.6443959e-06
48	0x39f2083e	0.00046163978
49	0x3606a6bf	2.0064615e-06
50	0x3590d5bd	1.0791042e-06
51	0x39cd477c	0.00039153907
52	0x36b326b4	5.3391213e-06
53	0x34d71b4e	4.0066737e-07
54	0x36213c12	2.4025835e-06
55	0x387e0f85	6.0572773e-05
56	0x377e8e5d	1.5172726e-05
57	0x35d26901	1.5676779e-06
58	0x391a2ace	0.0001470253
59	0x34f2307c	4.511129e-07
60	0x39aa8e9b	0.00032531176
61	0x361cd79f	2.337132e-06
62	0x365b5287	3.268158e-06
63	0x38fd66ef	0.00012083153

exp_avg f4 [64, 64]
0	0x00000004	6e-45
1	0x80000004	-6e-45
2	0x00000004	6e-45
3	0x326d533e	1.3814143e-08
4	0x0003662e	3.12162e-40
5	0x8000011c	-3.98e-43
6	0x80000004	-6e-45
7	0x918813e9	-2.1469287e-28
8	0x2fc25a81	3.53527e-10
9	0x342bcdaa	1.6000436e-07
10	0x345956d9	2.0241295e-07
11	0x00000004	6e-45
12	0x34816922	2.4104617e-07
13	0x00000004	6e-45
14	0x328215a3	1.5143831e-08
15	0x1918ae2d	7.89339e-24
16	0x33492469	4.6832074e-08
17	0x80000004	-6e-45
18	0x33321a7e	4.146795e-08
19	0x92bdc1f6	-1.1975392e-27
20	0xb00773de	-4.927737e-10
21	0x31cbb573	5.928706e-09
22	0x919638e0	-2.370088e-28
23	0xb02214b6	-5.896469e-10
24	0x3352a57d	4.9044946e-08
25	0x87fe95a0	-3.8305614e-34
26	0xafb8e1d2	-3.362986e-10
27	0xad85ed53	-1.5225743e-11
28	0x35009ffe	4.7916535e-07
29	0x22069c39	1.824309e-18
30	0x00000004	6e-45
31	0x3415e80b	1.3961123e-07
32	0x00000004	6e-45
33	0x19de6f9c	2.299934e-23
34	0x34143b71	1.3805199e-07
35	0x34b6ab5d	3.4024825e-07
36	0xaf68f938	-2.1188817e-10
37	0x21376580	6.2137146e-19
38	0x183f3d7b	2.4717211e-24
39	0x887a9728	-7.540932e-34
40	0x344635a9	1.8459708e-07
41	0xae76daff	-5.6128432e-11
42	0x80000004	-6e-45
43	0x3216c305	8.7754914e-09
44	0x3397145b	7.035188e-08
45	0x00000004	6e-45
46	0x80000004	-6e-45
47	0x00000004	6e-45
48	0x0006f001	6.3711e-40
49	0xadff8076	-2.9047192e-11
50	0x34c7766f	3.715281e-07
51	0x34704482	2.2376665e-07
52	0x325429a2	1.234949e-08
53	0x00000004	6e-45
54	0x34876ff6	2.5227172e-07
55	0x34a10936	2.999529e-07
56	0x878dd8e0	-2.134279e-34
57	0xb066094a	-8.3686713e-10
58	0x80000e7a	-5.193e-42
59	0x00000004	6e-45
60	0x19913679	1.501465e-23
61	0x00000004	6e-45
62	0x346bbeed	2.1955539e-07
63	0x349b590a	2.8935784e-07
64	0x00000004	6e-45
65	0x80000004	-6e-45
66	0x80000004	-6e-45
67	0x00000004	6e-45
68	0x00000004	6e-45
69	0x00000004	6e-45
70	0x00000004	6e-45
71	0x00000004	6e-45
72	0x00000004	6e-45
73	0x00000004	6e-45
74	0x80000004	-6e-45
75	0x00000004	6e-45
76	0x00000004	6e-45
77	0x80000004	-6e-45
78	0x00000004	6e-45
79	0x00000004	6e-45
80	0x00000004	6e-45
81	0x80000004	-6e-45
82	0x80000004	-6e-45
83	0x80000004	-6e-45
84	0x00000004	6e-45
85	0x80000004	-6e-45
86	0x00000004	6e-45
87	0x80000004	-6e-45
88	0x00000004	6e-45
89	0x00000004	6e-45
90	0x00000004	6e-45
91	0x00000004	6e-45
92	0x00000004	6e-45
93	0x00000004	6e-45
94	0x80000004	-6e-45
95	0x80000004	-6e-45
96	0x00000004	6e-45
97	0x80000004	-6e-45
98	0x00000004	6e-45
99	0x80000004	-6e-45
100	0x00000004	6e-45
101	0x80000004	-6e-45
102	0x00000004	6e-45
103	0x80000004	-6e-45
104	0x00000004	6e-45
105	0x00000004	6e-45
106	0x00000004	6e-45
107	0x00000004	6e-45
108	0x00000004	6e-45
109	0x80000004	-6e-45
110	0x00000004	6e-45
111	0x80000004	-6e-45
112	0x00000004	6e-45
113	0x80000004	-6e-45
114	0x80000004	-6e-45
115	0x00000004	6e-45
116	0x00000004	6e-45
117	0x00000004	6e-45
118	0x80000004	-6e-45
119	0x00000004	6e-45
120	0x00000004	6e-45
121	0x80000004	-6e-45
122	0x00000004	6e-45
123	0x00000004	6e-45
124	0x00000004	6e-45
125	0x00000004	6e-45
126	0x00000004	6e-45
127	0x00000004	6e-45
128	0x00000004	6e-45
129	0x00000004	6e-45
130	0x00000004	6e-45
131	0x00000004	6e-45
132	0x00000004	6e-45
133	0x00000004	6e-45
134	0x00000004	6e-45
135	0x00000004	6e-45
136	0x00000004	6e-45
137	0x00000004	6e-45
138	0x00000004	6e-45
139	0x00000004	6e-45
140	0x00000004	6e-45
141	0x00000004	6e-45
142	0x00000004	6e-45
143	0x00000004	6e-45
144	0x00000004	6e-45
145	0x00000004	6e-45
146	0x00000004	6e-45
147	0x80000004	-6e-45
148	0x00000004	6e-45
149	0x00000004	6e-45
150	0x00000004	6e-45
151	0x00000004	6e-45
152	0x00000004	6e-45
153	0x00000004	6e-45
154	0x00000004	6e-45
155	0x00000000	0.0
156	0x00000004	6e-45
157	0x00000000	0.0
158	0x00000004	6e-45
159	0x00000004	6e-45
160	0x00000004	6e-45
161	0x00000004	6e-45
162	0x00000004	6e-45
163	0x00000004	6e-45
164	0x00000004	6e-45
165	0x00000004	6e-45
166	0x00000004	6e-45
167	0x00000004	6e-45
168	0x00000004	6e-45
169	0x00000004	6e-45
170	0x00000000	0.0
171	0x00000004	6e-45
172	0x00000004	6e-45
173	0x00000004	6e-45
174	0x00000004	6e-45
175	0x00000004	6e-45
176	0x00000004	6e-45
177	0x00000004	6e-45
178	0x00000004	6e-45
179	0x00000004	6e-45
180	0x00000004	6e-45
181	0x00000004	6e-45
182	0x00000004	6e-45
183	0x00000004	6e-45
184	0x00000004	6e-45
185	0x00000004	6e-45
186	0x00000004	6e-45
187	0x00000000	0.0
188	0x00000004	6e-45
189	0x00000004	6e-45
190	0x00000004	6e-45
191	0x00000004	6e-45
192	0xb88b76b1	-6.6501445e-05
193	0x34de9b6c	4.1463807e-07
194	0xb7bcaf2c	-2.2492917e-05
195	0xb9a97318	-0.00032319943
196	0xb9b94240	-0.0003533531
197	0xb9c5b869	-0.00037712164
198	0xb921b252	-0.00015420586
199	0xb8dbfb66	-0.000104895604
200	0xba0a0da7	-0.00052663166
201	0xb8a305ef	-7.773551e-05
202	0xbaaf37ed	-0.0013368108
203	0x38888f8d	6.511724e-05
204	0xbad75ac5	-0.001643025
205	0xb950f227	-0.00019926635
206	0xba820294	-0.0009918981
207	0xb7164b74	-8.9582645e-06
208	0xb9a0f1b5	-0.00030697664
209	0x39254917	0.00015762854
210	0x383f8a25	4.5666606e-05
211	0xb98fd663	-0.00027434816
212	0xb9ecc844	-0.00045162637
213	0xb8a6909e	-7.942434e-05
214	0x379e09ad	1.8839573e-05
215	0xb7b93a00	-2.2080727e-05
216	0xb84d650b	-4.8969912e-05
217	0xb9c1cbee	-0.00036963768
218	0xb797170d	-1.8011337e-05
219	0xba349125	-0.00068880833
220	0xbb1db7b9	-0.0024065806
221	0xba933f15	-0.001123401
222	0x3901561d	0.00012334478
223	0x37559fa6	1.273296e-05
224	0x38e0e540	0.000107238535
225	0xb9a568df	-0.00031549387
226	0xba918d57	-0.0011104745
227	0x37cbd385	2.4297982e-05
228	0x383d8b23	4.5190693e-05
229	0x38e772e6	0.0001103634
230	0xba05dee6	-0.0005106762
231	0xb80ad798	-3.310255e-05
232	0xb8f08fa0	-0.00011470844
233	0x379a9766	1.8428731e-05
234	0x389cc2b6	7.4749274e-05
235	0xb688c67f	-4.076224e-06
236	0xb99f21ce	-0.0003035203
237	0x38381d03	4.3896038e-05
238	0xb8c6a07e	-9.47127e-05
239	0x398692e5	0.00025667917
240	0xba93dcfb	-0.0011281067
241	0x379dea7f	1.8825054e-05
242	0xb9143760	-0.00014135009
243	0xba98999b	-0.0011642458
244	0xb99f9b3b	-0.000304425
245	0xb5ac652d	-1.2844445e-06
246	0xb9444ae4	-0.00018719916
247	0xba98e8be	-0.0011666042
248	0xba81a93a	-0.0009892352
249	0xb8530264	-5.0308547e-05
250	0xba35bf90	-0.0006933147
251	0x35b5c80d	1.3543773e-06
252	0x39a5d6d8	0.00031631324
253	0xb9930d02	-0.00028047716
254	0x38a86110	8.0289436e-05
255	0xba5c1687	-0.0008395691
