p1_navigation/D2DQN_20190206_v43_300eps_11.45score.pth (torch_old, 87826 bytes, 18 tensors)

hidden_layers.0.weight f4 [64, 37]
0.24103902 0.019965596 -0.34702262 -0.17306863 -0.7355599 -0.028787792 -0.16650064 0.37732878
0.015909983 0.07329097 -0.040886246 -0.028402321 -0.23410033 0.010736128 -0.04023691 -0.20917815
0.026267145 0.28521115 0.0996569 0.03635889 -0.10255236 0.1895047 0.040071703 0.34602758
0.11518073 0.072711416 0.31633723 -0.109726265 -0.244802 -0.08558587 -0.13967757 0.2955485
-0.098898426 -0.10416205 -0.17154646 -0.08205874 -0.043886438 0.16274509 -0.006860367 -0.029450003
-0.10322921 -0.009918695 -0.026008004 -0.25327638 -0.31755275 -0.13554788 0.2682583 0.3364274
-0.18615118 -0.4255436 -0.39504832 0.23778811 -0.10194149 -0.14960618 0.27663934 -0.5973133
-0.30756927 -0.3040927 -0.22001302 0.05853269 -0.06461237 -0.100043006 -0.45831448 0.12541674
0.117126726 -0.006017015 -0.3883789 -0.022641864 0.03910629 -0.090550326 -0.021198334 -0.1957739
0.17541659 0.009324026 -0.22430219 0.15372327 0.027474847 -0.016817264 0.054656953 -0.4435188
-0.11792505 0.1783924 -0.21243665 -0.18147951 0.2434038 -0.51219404 -0.73871595 -0.8703878
-1.2939502 -0.07720267 -0.26692557 0.097447164 0.11474089 0.3267064 -0.28761658 -0.2809916
0.11236117 0.255869 -0.15645485 -0.81737614 0.05759794 0.25039697 -0.49251366 -0.46629885
0.026211388 -0.2682836 -0.69668436 -0.08545452 0.31427044 -0.020781698 -0.019419076 0.23927777
-0.20443362 0.3395147 -0.018753046 -0.41214672 0.19183587 -0.17097874 -0.21711303 0.35501635
-0.07294995 0.06340259 0.017611466 0.04823344 -0.18760067 -0.5234403 0.053360112 -0.17163683
0.0689671 -0.17202036 -0.04922041 0.0491453 -0.2528512 0.21358478 0.13552366 0.25908017
0.0717569 0.022619763 0.11067489 0.09765105 0.3401066 0.23153351 -0.08089605 0.0923575
-0.10852402 -0.05566555 0.12027021 -0.014530974 -0.070357725 0.004991717 -0.08011159 -0.21154273
-0.095919214 0.33547267 -0.07620462 -0.41922867 -0.4315208 -1.5422846 0.08129263 0.005172952
0.024196396 0.06552761 -0.037800476 -0.11972637 -0.031607807 0.011181426 0.12794453 0.116256215
-0.24513525 0.28792655 0.15701796 0.0913966 0.5429581 0.098236136 0.010000048 0.06710537
-0.027965836 -0.13431138 0.06280103 0.04676248 0.09042811 0.08179353 0.07903508 0.01816019
0.00017017192 0.003002175 -0.029366799 -0.047378227 0.070892245 0.12350633 0.21761198 0.052738383
0.05526041 -0.053602435 -0.5454714 -0.009555491 -0.017990315 -0.01625104 -0.06748202 0.08249602
0.18688624 -0.22554186 -0.01453878 -0.1516065 -0.56826746 0.05962731 0.07474102 0.10972066
0.2859268 0.25971362 0.06907062 0.25423732 -0.13156436 -0.27886057 -0.51896834 -0.2725082
0.06607029 0.14355505 0.3472461 0.3955675 -0.0849339 0.077026255 -0.105253644 0.1535909
-0.062446985 -0.03914099 -0.05818157 0.045531582 -0.02587097 0.13102098 -0.8170425 -0.25836563
-0.054502852 0.17045966 -0.054901637 0.04523812 -0.21484026 -0.088547185 -0.32535297 0.08316469
0.13319312 0.50254536 -0.3963915 0.060180105 0.1895597 -0.33570966 0.32534975 -0.5343274
0.35900798 -0.39448702 0.14639226 0.078983575 0.396898 -0.40050983 -0.3661011 -0.016494406
00000000: efd2 763e e48e a33c f3ac b1be e738 31be
00000010: a74d 3cbf 60d4 ebbc 257f 2abe 3d31 c13e
00000020: a755 823c 9319 963d 5678 27bd fcab e8bc
00000030: ffb7 6fbe 96e6 2f3c 75cf 24bd cc32 56be
00000040: 322e d73c 3207 923e eb18 cc3d 0fed 143d
00000050: f906 d2bd 850d 423e 3a22 243d 872a b13e
00000060: e0e3 eb3d b9e9 943d f4f6 a13e 2ab8 e0bd
00000070: 60ad 7abe a547 afbd a307 0fbe 2252 973e
00000080: 428b cabd ea52 d5bd e0a9 2fbe 6a0e a8bd
00000090: 44c2 33bd a6a6 263e eecc e0bb 2241 f1bc
000000a0: d669 d3bd 0682 22bc bd0e d5bc 71ad 81be
000000b0: 4696 a2be 10cd 0abe 2759 893e 3640 ac3e
000000c0: 6a9e 3ebe dae0 d9be c643 cabe ba7e 733e
000000d0: b3c6 d0bd 5d32 19be aca3 8d3e 86e9 18bf
000000e0: b879 9dbe 0ab2 9bbe 184b 61be f9bf 6f3d
000000f0: 7e53 84bd 59e3 ccbd 32a8 eabe 3f6d 003e
00000100: 23e0 ef3d 612a c5bb 99d9 c6be 6e7b b9bc
00000110: eb2d 203d 7372 b9bd 21a8 adbc f478 48be
00000120: 68a0 333e cdc3 183c 79af 65be a269 1d3e
00000130: ee12 e13c 5cc4 89bc f8df 5f3d e514 e3be
00000140: b082 f1bd 7fac 363e fe88 59be c4d5 39be
00000150: d93e 793e 261f 03bf 7d1c 3dbf bcd1 5ebf
00000160: 29a0 a5bf 6f1c 9ebd 78aa 88be 6192 c73d
00000170: 46fd ea3d 1046 a73e 7b42 93be 22de 8fbe
00000180: 9d1d e63d 4301 833e b335 20be 903f 51bf
00000190: d1eb 6b3d 0834 803e c02a fcbe b9be eebe
000001a0: 44b9 d63c 785c 89be e859 32bf c802 afbd
000001b0: 0ee8 a03e 613e aabc c114 9fbc 3b05 753e
000001c0: 0c57 51be dfd4 ad3e fd9f 99bc e504 d3be
000001d0: 9f70 443e 0d15 2fbe e152 5ebe b4c4 b53e
000001e0: c966 95bd 38d9 813d ec45 903c 6d90 453d
000001f0: 641a 40be 2f00 06bf 2290 5a3d 91c1 2fbe
00000200: 9f3e 8d3d 1b26 30be 579b 49bd 954c 493d
00000210: b675 81be f8b5 5a3e b7c6 0a3e 28a6 843e
00000220: 48f5 923d 154d b93c 84a9 e23d 46fd c73d
00000230: 7422 ae3e 1f17 6d3e d4ac a5bd ee25 bd3d
00000240: d741 debd 8f01 64bd 3a50 f63d 5313 6ebc
00000250: b617 90bd 8f91 a33b 8c11 a4bd a89e 58be
00000260: 4b71 c4bd 13c3 ab3e 2b11 9cbd 24a5 d6be
00000270: 4bf0 dcbe 9569 c5bf c07c a63d de81 a93b
00000280: 8537 c63c 5733 863d acd4 1abd 1933 f5bd
00000290: 3077 01bd 4d32 373c e403 033e bd17 ee3d
000002a0: bc04 7bbe 1c6b 933e 51c9 203e 242e bb3d
000002b0: 4dff 0a3f 0730 c93d 3ed7 233c 8a6e 893d
000002c0: 9c18 e5bc ec88 09be d49d 803d 048a 3f3d
000002d0: 5f32 b93d 5e83 a73d 25dd a13d aec4 943c
000002e0: 2d70 3239 23c0 443b a492 f0bc ac0f 42bd
000002f0: f42f 913d e3f0 fc3d add5 5e3e 3404 583d
00000300: bd58 623d 3a8e 5bbd 03a4 0bbf a28e 1cbc
00000310: 6d60 93bc e720 85bc 0334 8abd acf3 a83d
00000320: 1b5f 3f3e 72f4 66be 1034 6ebc bc3e 1bbe
00000330: fa79 11bf c43b 743d d211 993d 3ab5 e03d
00000340: ff64 923e 2ff9 843e e674 8d3d 652b 823e
00000350: cfb8 06be d0c6 8ebe 1cdb 04bf 3286 8bbe
00000360: dc4f 873d 1800 133e 3eca b13e d387 ca3e
00000370: d3f1 adbd f1bf 9d3d 398f d7bd ef46 1d3e
00000380: 69c8 7fbd 4d52 20bd cc4f 6ebd 537f 3a3d
00000390: 5bef d3bc 5d2a 063e b329 51bf 8048 84be
000003a0: 623e 5fbd fa8c 2e3e 8ae0 60bd 9b4b 393d
000003b0: 16ff 5bbe 3a58 b5bd aa94 a6be 4052 aa3d
000003c0: c763 083e d0a6 003f d4f3 cabe 6a7f 763d
000003d0: f01b 423e 23e2 abbe 3e94 a63e aec9 08bf
000003e0: e5cf b73e 34fa c9be dae7 153e 24c2 a13d
000003f0: 3736 cb3e a00f cdbe 9a71 bbbe 471f 87bc

hidden_layers.0.bias f4 [64]
0.15718202 -0.1314637 -0.19604486 0.014430341 0.20854907 -0.02377986 -0.087950386 0.03531458
0.04102649 -0.14445 0.26523802 0.111558504 0.31393096 0.045891013 0.031420473 -0.05186276
0.018172624 -0.107763134 0.018639654 -0.20540503 -0.06766487 -0.08915986 -0.037188035 -0.15822785
-0.10709263 0.21239144 0.057172343 -0.2038308 0.33038816 0.11910924 -0.12580332 -0.20667258
0.23364045 0.00074934575 -0.14137258 0.11686587 -0.13978516 0.030137198 -0.082178846 -0.26385862
-0.14168747 -0.054666318 -0.09168696 0.25256363 0.13523766 -0.19870348 -0.08925913 -0.19296303
0.0339592 0.054471023 -0.20808917 0.23102637 0.012554282 -0.21050534 -0.20202923 0.13106158
0.117651656 -0.11199446 -0.067524426 -0.29783553 0.055098414 -0.029511297 0.014756283 0.17759225
00000000: 53f4 203e 6c9e 06be fcbf 48be 3d6d 6c3c
00000010: e38d 553e fbcd c2bc 551f b4bd 05a6 103d
00000020: 650b 283d b3ea 13be 47cd 873e c978 e43d
00000030: 8fbb a03e 37f8 3b3d c1b2 003d 0c6e 54bd
00000040: c1de 943c ebb2 dcbd 30b2 983c b255 52be
00000050: e193 8abd 7299 b6bd 7b52 18bd 7b06 22be
00000060: 6153 dbbd 247d 593e 8c2d 6a3d 05b9 50be
00000070: a328 a93e 8cef f33d 96d2 00be faa1 53be
00000080: 713f 6f3e be6f 443a f9c3 10be 6057 ef3d
00000090: d723 0fbe 49e2 f63c 624d a8bd 7a18 87be
000000a0: 8516 11be cae9 5fbd 5fc6 bbbd 0550 813e
000000b0: be7b 0a3e ed78 4bbe 7ecd b6bd 1a98 45be
000000c0: cd18 0b3d 021d 5f3d 5415 55be 2d92 6c3e
000000d0: 7ab0 4d3c b68e 57be c0e0 4ebe 0235 063e
000000e0: 5af3 f03d 5a5d e5bd 3f4a 8abd e67d 98be
000000f0: e0ae 613d adc1 f1bc 56c4 713c beda 353e

hidden_layers.1.weight f4 [64, 64]
-0.1953192 -0.16860718 0.18394776 -0.21762522 0.018987438 -0.45922875 -0.17291631 -0.26753822
-0.0439676 0.23290293 0.05230404 0.12955451 -0.36338094 0.32406405 0.11936475 0.0908412
-0.24860868 -0.21665956 -0.029877376 -0.50851023 -0.20812425 -0.44883838 -0.22440751 -0.3547422
-0.64572436 -0.37698647 0.21498176 -0.19532274 -0.13017423 0.1815502 -0.3797326 0.027869923
0.16259126 -0.3552582 -0.17381808 0.13612546 -0.12979147 -0.0011824954 -0.1460019 -0.31450206
0.31260014 -0.12861034 -0.05187378 -0.0139199905 0.05792291 -0.5083631 -0.014012847 -0.22558874
-0.066610955 0.2311497 0.22924943 -0.097542875 0.05959332 0.34834325 -0.025775976 -0.04835589
-0.183541 0.21711084 0.11992318 -0.2956276 -0.17732011 -0.38534787 0.3751969 0.13966198
-0.08901141 0.02277081 -0.061913125 -0.025157737 0.05012211 -0.27460974 0.0703696 -0.20382357
0.056300264 0.00022946666 -0.023165908 0.26934537 -0.065162085 -0.0016396113 -0.22775044 -0.08589748
-0.2420234 -0.24323998 -0.04939057 -0.16303395 0.11419389 -0.05993185 0.03917573 -0.07148642
-0.13236977 0.10588856 -0.25366157 -0.18077874 -0.16643886 -0.32072917 -0.4633085 0.060481675
0.041840814 0.11967714 -0.026969822 -0.111944005 -0.12072686 -0.019470494 -0.008811958 -0.09526118
-0.1879307 0.17239906 0.36684793 -0.030815365 -0.2831047 -0.26152843 -0.021708839 -0.039329533
-0.13215344 0.054239955 -0.026329558 -0.07071912 -0.041290488 0.15194528 0.048641726 -0.1266015
0.025625862 0.14423266 -0.07967161 -0.038669143 -0.017521812 -0.07945602 0.11121784 -0.23774466
-0.10126896 0.04856944 -0.031324156 0.018701848 0.09879317 -0.04840593 -0.08707861 -0.03362771
-0.025477137 -0.07032224 -0.042565413 -0.0108119985 0.016792897 0.089033045 0.07797612 -0.0033221291
-0.014607512 0.022002643 -0.0023991817 -0.024319276 0.036267366 -0.114655696 -0.13570347 -0.030872166
-0.05581927 -0.07728842 -0.14328656 0.083732486 -0.014053811 -0.0671594 -0.07898187 0.022827612
-0.10856704 -0.001974717 -0.05293215 0.027733952 0.021683808 -0.12627125 0.029190421 0.040468507
-0.020417716 0.037936125 -0.047323436 -0.023538971 0.031380173 -0.0648263 0.021176418 -0.14017308
-0.07233118 -0.07777151 -0.07509402 -0.08169112 -0.13214831 -0.019776586 -0.0312404 -0.16144073
-0.024764368 -0.018091667 0.04856668 -0.09791076 -0.053033575 0.0066957423 0.06212713 -0.025003629
-0.06928405 0.05623239 0.3830902 -0.012359444 0.35377735 0.0041590924 0.06579796 0.026032628
-0.052495565 -0.04696758 -0.06580103 0.042529065 -0.28292203 -0.18451372 0.05900176 -0.47643226
0.16552164 0.05132571 -0.37135035 -0.0885159 -0.20006783 -0.09619784 0.09096316 0.02801199
0.0068434924 0.062563315 -0.023953982 -0.0306342 0.06490342 -0.49507758 0.007996068 0.051514857
-0.052630905 -0.090117134 -0.06489245 -0.023133067 -0.007817445 -0.35554937 -0.12534162 -0.088493764
0.053169806 -0.30379188 0.14719221 0.06061394 0.085708424 -0.069495656 -0.08561717 -0.010950331
0.6152155 -0.068946786 -0.107201695 0.02060357 -0.07111883 0.15036859 0.044214893 -0.055340383
0.056028545 -0.02135884 -0.23233876 0.1151304 -0.33194292 0.057574257 0.6701506 -0.02499332
00000000: c201 48be 5ca7 2cbe cd5c 3c3e 25d9 5ebe
00000010: 8b8b 9b3c 0820 ebbe f910 31be c5fa 88be
00000020: 5f17 34bd 1b7e 6e3e c33c 563d f0a9 043e
00000030: 110d babe b9eb a53e 8275 f43d f30a ba3d
00000040: 4693 7ebe 01dc 5dbe 66c1 f4bc ba2d 02bf
00000050: 861e 55be 25ce e5be 15cb 65be c5a0 b5be
00000060: 314e 25bf 5f04 c1be 2e24 5c3e af02 48be
00000070: 654c 05be 4ce8 393e 506c c2be 774f e43c
00000080: 537e 263e 67e4 b5be 5efd 31be 7964 0b3e
00000090: 0ee8 04be f6fd 9aba 8681 15be 6a06 a1be
000000a0: 200d a03e 6eb2 03be 9a79 54bd ac10 64bc
000000b0: 9340 6d3d 1624 02bf 2496 65bc bc00 67be
000000c0: 536b 88bd 82b2 6c3e 5dc0 6a3e 8fc4 c7bd
000000d0: 2018 743d 0c5a b23e 2428 d3bc d310 46bd
000000e0: 2cf2 3bbe 4e52 5e3e 499a f53d 805c 97be
000000f0: 6793 35be 514c c5be cf19 c03e 8d03 0f3e
00000100: 9d4b b6bd da89 ba3c 9e98 7dbd 9917 cebc
00000110: d74c 4d3d a699 8cbe f01d 903d 20b7 50be
00000120: 1b9b 663d fd9c 7039 6ec6 bdbc a3e7 893e
00000130: b373 85bd 3ae8 d6ba 6937 69be 05eb afbd
00000140: fbd4 77be e713 79be c44d 4abd 5ff2 26be
00000150: 7cde e93d 197b 75bd bb76 203d 7967 92bd
00000160: f18b 07be 1adc d83d eedf 81be 101e 39be
00000170: f36e 2abe 9d36 a4be c636 edbe a2bb 773d
00000180: 4661 2b3d 4a19 f53d d1ef dcbc e642 e5bd
00000190: a53f f7bd 9680 9fbc 0860 10bc 4b18 c3bd
000001a0: e870 40be 6189 303e 7ed3 bb3e 8170 fcbc
000001b0: 19f3 90be 0ee7 85be bcd6 b1bc 0118 21bd
000001c0: 3b53 07be b72a 5e3d 16b1 d7bc 30d5 90bd
000001d0: 3720 29bd 8b97 1b3e 8c3c 473d d3a3 01be
000001e0: 54ed d13c bab1 133e de2a a3bd 8963 1ebd
000001f0: e789 8fbc d6b9 a2bd 2ec6 e33d 5673 73be
00000200: 1a66 cfbd c0f0 463d c24d 00bd 9e34 993c
00000210: 1354 ca3d 4c45 46bd 4556 b2bd 36bd 09bd
00000220: 6eb5 d0bc 1b05 90bd 1259 2ebd cf24 31bc
00000230: 4291 893c f556 b63d f2b1 9f3d 14b8 59bb
00000240: 5954 6fbc e33e b43c 973b 1dbb 3839 c7bc
00000250: 178d 143d 9bd0 eabd daf5 0abe a0e7 fcbc
00000260: bfa2 64bd 6449 9ebd b6b9 12be f07b ab3d
00000270: f541 66bc de8a 89bd 3fc1 a1bd f900 bb3c
00000280: 6558 debd 416a 01bb 62cf 58bd 5032 e33c
00000290: 3ea2 b13c 404d 01be c020 ef3c 4ec2 253d
000002a0: 0e43 a7bc e962 1b3d 38d6 41bd cdd4 c0bc
000002b0: 7f88 003d a7c3 84bd 2b7a ad3c 8889 0fbe
000002c0: 5f22 94bd ab46 9fbd e5ca 99bd ad4d a7bd
000002d0: e351 07be 8202 a2bc deeb ffbc b850 25be
000002e0: a5de cabc fa34 94bc dbed 463d 7085 c8bd
000002f0: bc39 59bd f567 db3b 0479 7e3d 69d4 ccbc
00000300: cce4 8dbd ef53 663d 6624 c43e 447f 4abc
00000310: 4e22 b53e ff48 883b 15c1 863d 6142 d53c
00000320: 9705 57bd 1461 40bd b1c2 86bd f532 2e3d
00000330: 28db 90be 2af1 3cbe d4ab 713d eeee f3be
00000340: 817e 293e e83a 523d a221 bebe d347 b5bd
00000350: 95de 4cbe 6003 c5bd e54a ba3d 6779 e53c
00000360: 603f e03b 3221 803d 243b c4bc 93f4 fabc
00000370: 16ec 843d cf7a fdbe f101 033c 3e01 533d
00000380: 8193 57bd 558f b8bd 55e6 84bd 8f81 bdbc
00000390: be14 00bc 910a b6be 8e59 00be 383c b5bd
000003a0: 95c8 593d 9c8a 9bbe 8eb9 163e 5346 783d
000003b0: e687 af3d bd53 8ebd 0e58 afbd 0469 33bc
000003c0: c37e 1d3f f933 8dbd 908c dbbd d1c8 a83c
000003d0: c0a6 91bd 39fa 193e ad1a 353d 99ac 62bd
000003e0: 307e 653d bcf8 aebc 36ea 6dbe 7dc9 eb3d
000003f0: 6cf4 a9be fcd2 6b3d fd8e 2b3f cbbe ccbc

hidden_layers.1.bias f4 [64]
-0.055070627 -0.10181985 -0.102752656 0.15778348 0.041621678 0.7654154 0.17486547 -0.08460907
-0.0035023123 -0.09500897 0.114780985 -0.049697157 0.18050247 0.1409714 0.53448665 0.05870699
-0.09336752 0.054954924 -0.008362401 0.05958142 -0.17375438 -0.10271961 0.21572006 0.013673202
0.0796473 -0.11586099 -0.059811942 0.036660116 -0.11365904 0.029161898 -0.13742505 -0.1232248
-0.02049418 0.1547511 0.0350674 0.02088491 -0.124426834 0.57256985 0.8358086 -0.086523265
0.093108684 -0.11834022 -0.12493171 0.07222743 -0.0962073 -0.034610208 0.082434304 -0.016768338
-0.09498333 -0.07151785 0.24336469 0.6290123 -0.012780216 -0.0021537745 -0.11749378 -0.11904472
-0.13487929 -0.06559149 -0.0370347 -0.013869496 0.048475575 0.18588579 -0.11779435 -0.19353083
00000000: bd91 61bd ed86 d0bd fc6f d2bd fe91 213e
00000010: 7e7b 2a3d 43f2 433f ef0f 333e 8547 adbd
00000020: 0d87 65bb 1094 c2bd 4b12 eb3d 3f8f 4bbd
00000030: a4d5 383e cf5a 103e 1ed4 083f be76 703d
00000040: 7837 bfbd 6a18 613d 7402 09bc a60b 743d
00000050: abec 31be a95e d2bd b8e5 5c3e 9105 603c
00000060: 201e a33d 8748 edbd 5efd 74bd eb28 163d
00000070: 12c6 e8bd efe4 ee3c 27b9 0cbe 495d fcbd
00000080: 69e3 a7bc 1377 1e3e d6a2 0f3d d516 ab3c
00000090: 7fd3 febd f093 123f 8df7 553f 1c33 b1bd
000000a0: c4af be3d 5b5c f2bd 32dc ffbd faeb 933d
000000b0: 5508 c5bd 6fc3 0dbd 51d3 a83d c15d 89bc
000000c0: 9f86 c2bd f377 92bd 9834 793e f306 213f
000000d0: 1c64 51bc 5726 0dbb 94a0 f0bd b8cd f3bd
000000e0: cc1d 0abe d554 86bd b3b1 17bd e23c 63bc
000000f0: 538e 463d d858 3e3e 2a3e f1bd f22c 46be

output.weight f4 [4, 64]
0.031472202 -0.0068733003 0.11648477 0.2605186 -0.0078097656 0.22031495 -0.423838 0.16312718
-0.005369331 -0.06458296 0.2932213 0.11422575 -0.47694016 0.28297552 0.22340825 -0.54676396
-0.0011176976 -0.618031 0.15010774 0.15367849 -0.17191786 0.042577267 0.25226852 -0.21831761
0.14504974 0.06720474 0.05954798 0.0018117877 0.17454302 -0.4452543 0.11705113 -0.2247617
0.4531596 0.19802497 0.24290416 0.17580518 0.047090393 0.22858056 0.31157348 -0.8088158
-0.09940533 -0.2093744 -0.106715925 0.22121103 -0.20451215 0.058952127 0.2890145 0.07960005
-0.04005963 -0.02497973 0.1273115 0.107136294 0.13655987 0.19303565 -0.06343566 -0.028674474
0.25984284 -0.12149014 -0.24627277 0.22482172 0.16255873 0.082157925 0.045606807 -0.12440152
0.068192296 0.12710722 -0.07197798 0.27422735 -0.06803508 0.23943442 -0.14131574 0.66054535
-0.014605138 -0.12692454 0.21972638 0.35051945 0.17014633 0.19345231 0.17423494 0.052245814
0.024656668 0.30454716 0.16245957 0.5069477 -0.14985722 0.09067524 0.1354524 -0.0622068
0.0992714 0.5216828 -0.028921204 0.36975825 0.4195191 0.26932606 0.63893104 -0.10295871
0.20854619 0.16637649 0.22756891 0.11559951 0.040590607 0.20480368 0.26885545 -0.12505864
0.17182033 0.04540144 -0.03580867 0.108006984 -0.12401375 -0.41107982 0.2132055 0.28276545
-0.03453142 0.00039233008 0.23182343 0.23541088 0.18102312 0.31586072 -0.03180075 0.096986905
0.10721776 -0.09717295 0.089326054 0.42252088 0.20860077 0.12348062 0.62341905 -0.11261957
-0.5357212 -0.42566597 0.056643188 -0.00041420336 -0.6027516 0.27255744 -0.23763932 0.10888135
0.36817145 -0.1141741 0.30032203 0.19505689 -0.32103255 0.19140208 0.18244626 -0.08134049
-0.18629175 0.13075897 0.26772904 0.030231943 -0.2290537 0.13269193 -0.0028887028 0.378571
-0.33350652 0.27347326 -0.06430808 -0.3327707 -0.26920253 0.5031858 0.06637584 -0.07763411
0.17587593 0.01257389 -0.06612259 0.11535175 0.12610771 0.23325217 0.26946205 0.14074346
0.12575181 -0.7451688 -0.09561039 0.13001354 -0.0030923712 -0.4034125 0.27754164 -0.025170838
-0.022563986 -0.4704911 -0.03428796 0.14644143 0.12796639 0.37277988 -0.27373004 0.07593517
0.27433953 -0.48589507 0.34585345 0.17252171 0.09005391 0.21838015 0.28071 0.1532315
-0.46752518 -0.035221063 0.098879226 0.059062887 -0.38742438 0.16622363 0.3252412 -0.08182007
0.20370035 0.24867836 0.06726429 0.23066442 0.17289366 0.21444744 0.15397699 -0.0943744
-0.25906572 -0.06585219 0.151649 0.41258407 0.039482534 0.1572667 0.102469005 0.33880746
0.2864416 -0.38761702 0.20964646 0.31019732 0.2522379 -0.19122057 0.46475646 -0.2966156
0.29785872 0.013917781 0.0952207 0.15995988 -0.4585964 0.14764483 0.31415662 -0.32849878
0.38062242 0.17821464 -0.17136903 0.25392973 -0.4991193 0.19195777 0.33844873 0.41764686
0.26713544 0.06195885 0.27285916 0.28357413 0.2744063 0.005538425 0.115278915 0.18090908
-0.35335055 -0.25533926 0.35575333 0.3400806 -0.03978043 0.1504736 -0.10227586 -0.39724153
00000000: ffe8 003d 6c39 e1bb 918f ee3d b262 853e
00000010: 10e9 ffbb 3e9a 613e 4b01 d9be d00a 273e
00000020: 37f1 afbb 1244 84bd 1a21 963e 31ef e93d
00000030: 8031 f4be 2be2 903e 22c5 643e b9f8 0bbf
00000040: b57f 92ba 4837 1ebf d8b5 193e e55d 1d3e
00000050: 3c0b 30be 8065 2e3d 5729 813e a78e 5fbe
00000060: eb87 143e a4a2 893d 95e8 733d 8279 ed3a
00000070: 68bb 323e 5ff8 e3be 81b8 ef3d ee27 66be
00000080: 8904 e83e 0fc7 4a3e debb 783e 4606 343e
00000090: dbe1 403d 0611 6a3e 8f86 9f3e 8d0e 4fbf
000000a0: 0695 cbbd 3e66 56be e18d dabd 2585 623e
000000b0: a26b 51be c977 713d b5f9 933e 5a05 a33d
000000c0: 9115 24bd 4aa2 ccbc f25d 023e 466a db3d
000000d0: 5ad6 0b3e 23ab 453e 8eea 81bd bbe6 eabc
000000e0: 1f0a 853e d3cf f8bd ee2e 7cbe aa37 663e
000000f0: cc75 263e 6a42 a83d 34ce 3a3d 39c6 febd
00000100: 67a8 8b3d 6528 023e 3169 93bd 8767 8c3e
00000110: fa55 8bbd 4c2e 753e 13b5 10be 8019 293f
00000120: 644a 6fbc 82f8 01be f4ff 603e 4977 b33e
00000130: d73a 2e3e 5d18 463e a56a 323e b5ff 553d
00000140: c8fc c93c 9bed 9b3e cd5b 263e 53c7 013f
00000150: 2c74 19be f1b3 b93d 09b4 0a3e 8fcc 7ebd
00000160: ce4e cb3d 018d 053f 29ec ecbc f450 bd3e
00000170: 35cb d63e 1be5 893e fc90 233f 04dc d2bd
00000180: 228d 553e 995e 2a3e d307 693e 70bf ec3d
00000190: 5642 263d 0eb8 513e 6ca7 893e 5f0f 00be
000001a0: abf1 2f3e dcf6 393d 1dac 12bd c432 dd3d
000001b0: ecfa fdbd 0e79 d2be 8b52 5a3e a2c6 903e
000001c0: d170 0dbd a7b1 cd39 1f63 6d3e 8d0f 713e
000001d0: 205e 393e 7fb8 a13e 8141 02bd 12a1 c63d
000001e0: fc94 db3d 9d02 c7bd 94f0 b63d a854 d83e
000001f0: 719b 553e 68e3 fc3d 6498 1f3f 17a5 e6bd
00000200: 0625 09bf e4f0 d9be b002 683d 6f29 d9b9
00000210: ee4d 1abf a68c 8b3e b957 73be 2ffd de3d
00000220: f880 bc3e 1cd4 e9bd cfc3 993e febc 473e
00000230: 615e a4be e8fe 433e 31d3 3a3e d895 a6bd
00000240: 44c3 3ebe aee5 053e c813 893e fba8 f73c
00000250: 0e8d 6abe 65e0 073e 6450 3dbb 0fd4 c13e
00000260: 5ec1 aabe b004 8c3e f4b3 83bd ec60 aabe
00000270: ead4 89be c9d0 003f 0ef0 873d a2fe 9ebd
00000280: d218 343e b802 4e3c 486b 87bd 8a3d ec3d
00000290: 6122 013e a8d9 6e3e eef6 893e 0e1f 103e
000002a0: 15c5 003e 62c3 3ebf 61cf c3bd 4522 053e
000002b0: 61a9 4abb 158c cebe f019 8e3e 1333 cebc
000002c0: 1cd8 b8bc 36e4 f0be 8871 0cbd bef4 153e
000002d0: 9f09 033e 01dd be3e 5826 8cbe e683 9b3d
000002e0: 3b76 8c3e 3dc7 f8be b413 b13e 88a9 303e
000002f0: 2f6e b83d 0c9f 5f3e 39b9 8f3e b8e8 1c3e
00000300: 765f efbe f643 10bd 3181 ca3d edeb 713d
00000310: 7d5c c6be 8736 2a3e 0486 a63e 4891 a7bd
00000320: d396 503e 8aa5 7e3e dcc1 893d 4b33 6c3e
00000330: 090b 313e 1c98 5b3e 25ac 1d3e 5e47 c1bd
00000340: 43a4 84be 83dd 86bd e049 1b3e 383e d33e
00000350: 70b8 213d 860a 213e 45db d13d 2c78 ad3e
00000360: 79a8 923e bd75 c6be 90ad 563e 2fd2 9e3e
00000370: 5325 813e 53cf 43be 8ff4 ed3e 00de 97be
00000380: f080 983e 6807 643c 1203 c33d 86cc 233e
00000390: 26cd eabe 3530 173e 23d9 a03e fe30 a8be
000003a0: f1e0 c23e e67d 363e 5d7b 2fbe 1403 823e
000003b0: 918c ffbe 9490 443e 2749 ad3e cfd5 d53e
000003c0: fac5 883e 90c8 7d3d 32b4 8b3e a130 913e
000003d0: fc7e 8c3e ad7b b53b 5a17 ec3d 3b40 393e
000003e0: 5dea b4be d4bb 82be 4d25 b63e 0b1f ae3e
000003f0: cef0 22bd c015 1a3e 0276 d1bd 3e63 cbbe

output.bias f4 [4]
0.5415923 0.47442707 0.5272429 0.4888933
00000000: cba5 0a3f 1be8 f23e 64f9 063f 3950 fa3e

exp_avg f4 [64, 37]
-0.00066048384 -4.2979292e-07 0.00046700414 -0.00013829935 7.215524e-05 6.64509e-05 -0.00086511264 0.0004735162
-7.0633823e-06 -0.00013188383 0.00010823349 -0.0003403189 -0.00013833927 3.821576e-05 -5.6767258e-05 -2.4935562e-05
-0.00024452756 -0.0003213827 0.00025863692 -0.00013329802 0.0001372947 -0.00010984035 -0.00026093886 -9.872453e-05
0.000110670844 -0.0005026369 -0.00023000847 0.00035745505 4.2981534e-05 -5.7314223e-06 0.000190738 -0.00030192832
-0.0008098906 0.000588872 -0.00015810711 -0.0012767622 -0.0022026042 3.0671818e-05 2.3267268e-05 -1.9536003e-05
-2.506093e-07 2.1239066e-05 3.0836545e-05 -5.537429e-06 -4.3665173e-06 1.3219882e-05 1.9315128e-05 -1.4409973e-05
5.0359766e-05 -1.9267113e-06 1.2939346e-07 2.72525e-05 4.3178658e-05 3.269459e-06 -1.2296326e-05 6.760323e-10
1.7218466e-05 -1.7871685e-05 5.5031537e-06 4.331374e-05 3.2072635e-06 2.4682155e-05 1.1956463e-05 -7.5446533e-06
2.8319246e-07 2.9457467e-05 1.6243827e-06 -4.9444816e-06 3.6638445e-05 4.954834e-06 -2.4963222e-06 2.3640932e-05
0.00013163754 0.00018141155 2.429766e-12 3.967491e-05 1.4269833e-06 3.7005768e-05 -7.530102e-06 -5.431697e-09
-1.2613357e-05 8.3079816e-05 7.646616e-06 -5.51032e-07 7.818765e-05 6e-45 1.072577e-30 -7.998923e-08
2.7506894e-05 3.9809856e-05 -1.8796583e-06 4.0180865e-05 -3.406678e-09 9.421733e-06 -3.946457e-08 5.6159543e-08
-8.8574425e-06 8.694841e-05 -3.5984922e-06 6e-45 6.2436615e-05 1.5671036e-05 -1.4710654e-19 2.806837e-05
5.451677e-05 -1.593466e-05 -3.910429e-12 3.9525552e-05 8.3859163e-07 4.819691e-05 6.170348e-05 -0.0007882569
-7.63554e-05 -0.00026205854 -0.0003359262 -0.00021714417 -0.00074984937 -0.00041916265 0.00018206345 -0.00047564865
-0.0005663067 7.143829e-05 -0.000120858276 -0.0011938182 -0.00021935879 -0.0004449397 -0.0015116414 -0.00016251895
-5.879545e-05 0.0002703587 -0.0007167106 -0.00038620905 -0.0004665538 -0.0005571832 -5.2651027e-05 -0.000566352
-0.0012398643 -0.00026096147 -0.00025383604 0.0002920647 -0.0007837373 -0.0009851406 -0.0002023509 -0.000608498
0.00033339232 -0.00069874094 -0.0012611481 -0.0034320904 0.0016257991 -0.0010845922 0.00030934988 -0.00024625842
9.2718554e-05 0.00088872813 -0.0002583383 0.000119418124 -0.0001455094 0.00054151186 0.0012456853 0.0011427916
-0.0013948623 -0.00038931583 0.000112522095 -0.003179389 -0.0007390961 0.0018201915 0.0027025924 -0.000106555744
0.0012251576 0.0010973543 -0.001181213 -0.00053700025 0.0010833374 0.0015230713 -0.00028558585 -8.455078e-05
-0.0005486363 0.0005070202 -0.0010613536 -0.0006613897 0.0025400312 -0.00021298931 0.00047416586 -0.0021088298
0.022560127 -0.00014558024 -0.00047915577 6.9725924e-05 0.00012029964 -0.00055879384 -1.147985e-05 1.2987575e-05
-0.00017481155 -0.00026140668 -0.00024878886 0.00045506656 -0.00014639058 -0.0006604565 -8.2930055e-05 -0.00034022858
-0.00053714373 0.00012789144 -0.0001028382 7.737993e-05 -0.00012521118 0.00021321289 0.00010266591 -0.00039542193
-0.00035516729 -0.00012758072 -0.0003584416 0.00023857715 -0.00019712822 -0.00011771785 -0.00023305569 -0.00016329219
0.00017071131 0.00015574037 -0.0005978699 2.7087373e-05 -0.001062027 -0.0014771306 2.2907541e-05 -0.00012163572
-0.00011297861 -0.00011861529 6.7904116e-06 5.6654335e-05 -0.00035532497 -2.2590082e-05 -9.061361e-06 -0.00019140444
-5.848761e-05 -0.0001534834 -0.0001431484 2.4797331e-05 -0.00013792231 0.00010934675 -0.00017223229 -0.00025865124
-8.785273e-06 -0.00017390777 -3.9267747e-05 -0.0002149779 2.0220867e-05 -9.62973e-05 -4.3771877e-05 0.0003050918
-0.0004943269 7.437778e-05 -0.00021546478 -0.00012833743 7.806881e-05 -0.00019782767 -0.00012765116 -8.291203e-05
00000000: 5224 2dba 4abe e6b4 3cd8 f439 7304 11b9
00000010: 0d52 9738 8e5b 8b38 bac8 62ba 4542 f839
00000020: fe01 edb6 4c4a 0ab9 6afb e238 d46c b2b9
00000030: 2a0f 11b9 dc49 2038 6119 6eb8 b62c d1b7
00000040: ef33 80b9 417f a8b9 a999 8739 eac5 0bb9
00000050: c4f6 0f39 175a e6b8 9fce 88b9 540a cfb8
00000060: f517 e838 64c3 03ba 6e2e 71b9 ce68 bb39
00000070: 1247 3438 8b50 c0b6 d800 4839 224c 9eb9
00000080: d74e 54ba 885e 1a3a 8ec9 25b9 0859 a7ba
00000090: 9159 10bb 9da5 0038 142e c337 3fe1 a3b7
000000a0: 7b8b 86b4 8c2a b237 7d56 0138 27ce b9b6
000000b0: 1984 92b6 f6ca 5d37 ec06 a237 5dc2 71b7
000000c0: 6339 5338 a64c 01b6 67ef 0a34 4c9c e437
000000d0: bb1a 3538 e168 5b36 514c 4eb7 8bd3 3930
000000e0: 6070 9037 27eb 95b7 bba7 b836 c6ab 3538
000000f0: 5e3c 5736 860c cf37 9e98 4837 1428 fdb6
00000100: ad09 9834 6e1b f737 5d05 da35 c6e8 a5b6
00000110: 3bac 1938 b341 a636 7d86 27b6 8450 c637
00000120: 2f08 0a39 4b39 3e39 c6fa 2a2c 9c68 2638
00000130: c686 bf35 a436 1b38 15ab fcb6 b6a1 bab1
00000140: f59d 53b7 233b ae38 f749 0037 a1ea 13b5
00000150: adf8 a338 0400 0000 1b09 ae0d 8bc6 abb3
00000160: 9bbe e637 82f9 2638 9148 fcb5 e087 2838
00000170: ea1a 6ab1 0912 1e37 c17f 29b3 1234 7133
00000180: 6d9a 14b7 1258 b638 a07d 71b6 0400 0000
00000190: 67f0 8238 4b75 8337 39ac 2da0 5e74 eb37
000001a0: f0a8 6438 6cab 85b7 0396 89ac 3dc8 2538
000001b0: 941b 6135 0a27 4a38 ce66 8138 06a3 4eba
000001c0: fe20 a0b8 e764 89b9 401f b0b9 32b1 63b9
000001d0: 8a91 44ba 0fc3 dbb9 49e8 3e39 7b60 f9b9
000001e0: 3374 14ba 24d1 9538 4b75 fdb8 e479 9cba
000001f0: ad03 66b9 cc46 e9b9 4522 c6ba d969 2ab9
00000200: 229b 76b8 eebe 8d39 a2e1 3bba 1a7c cab9
00000210: cb9b f4b9 ee0f 12ba 9cd5 5cb8 3d77 14ba
00000220: f182 a2ba a8d1 88b9 4c15 85b9 4320 9939
00000230: b873 4dba d51f 81ba 282e 54b9 9c83 1fba
00000240: 29cb ae39 b62b 37ba 1c4d a5ba ecec 60bb
00000250: c418 d53a e028 8eba 3d30 a239 3f1c 81b9
00000260: e571 c238 89f9 683a 9471 87b9 1e70 fa38
00000270: e293 18b9 3ff4 0d3a 4346 a33a b9c9 953a
00000280: d0d3 b6ba 161d ccb9 d7f9 eb38 4c5d 50bb
00000290: e6bf 41ba 7e93 ee3a fa1d 313b ae76 dfb8
000002a0: 7895 a03a 1ad5 8f3a eed2 9aba 7ac5 0cba
000002b0: c5fe 8d3a cba1 c73a afba 95b9 db50 b1b8
000002c0: 5cd2 0fba 8de9 043a 1e1d 8bba 1d61 2dba
000002d0: a776 263b e255 5fb9 7799 f839 4b34 0abb
000002e0: 04d0 b83c e6a6 18b9 3337 fbb9 d239 9238
000002f0: 6149 fc38 057c 12ba 9599 40b7 36e5 5937
00000300: 9e4d 37b9 690d 89b9 e06f 82b9 0096 ee39
00000310: 6c80 19b9 7c22 2dba bcea adb8 b560 b2b9
00000320: 1bcf 0cba 991a 0639 d7aa d7b8 0947 a238
00000330: 1f4b 03b9 e691 5f39 574e d738 a250 cfb9
00000340: bf35 bab9 30c7 05b9 38ed bbb9 912a 7a39
00000350: 34b4 4eb9 4adf f6b8 6960 74b9 6a39 2bb9
00000360: f800 3339 3d4e 2339 5fba 1cba b139 e337
00000370: b633 8bba 479c c1ba 9229 c037 ae16 ffb8
00000380: eeee ecb8 19c1 f8b8 31d9 e336 21a0 6d38
00000390: e94a bab9 d57f bdb7 4006 18b7 bdb3 48b9
000003a0: 9850 75b8 63f0 20b9 1b1a 16b9 dd03 d037
000003b0: 3d9f 10b9 1751 e538 4199 34b9 959b 87b9
000003c0: 7664 13b7 035b 36b9 6cb3 24b8 b16b 61b9
000003d0: fb9f a937 38f3 c9b8 b297 37b8 baf4 9f39
000003e0: b795 01ba 44fb 9b38 63ee 61b9 5192 06b9
000003f0: e0b8 a338 f66f 4fb9 19da 05b9 0fe1 adb8

exp_avg_sq f4 [64, 37]
3.857307e-06 4.747642e-07 8.812572e-07 4.7587878e-07 8.02656e-07 1.2103674e-06 2.5800766e-06 1.7009149e-06
3.3147845e-07 1.25799e-06 6.9469695e-07 3.7807197e-06 6.225516e-07 5.96231e-07 8.093732e-07 1.3256779e-06
1.494561e-06 2.4769733e-06 5.221955e-07 7.7930247e-07 6.2725695e-07 3.8909648e-06 7.861502e-07 4.6383838e-07
1.0245403e-06 2.1363355e-06 1.7857959e-06 7.9267096e-07 9.038647e-07 8.880219e-07 9.079466e-07 3.065317e-06
1.1185118e-06 5.2872747e-07 1.1961913e-06 6.7716865e-06 0.00012655521 4.6657314e-07 1.2511505e-07 1.909737e-07
5.777042e-08 9.2331504e-08 6.175699e-07 7.8544396e-08 4.554054e-08 1.0055144e-07 2.2718788e-07 7.673641e-07
6.1601824e-08 1.4097733e-08 3.994445e-09 2.8356033e-07 3.604591e-07 5.6450347e-08 4.2323268e-07 6.6999193e-09
1.17677196e-07 9.600725e-08 6.273314e-08 5.83227e-07 1.041696e-07 2.3409441e-07 5.8610116e-08 9.237046e-08
2.7571136e-07 4.1667295e-07 5.5620912e-08 5.248482e-07 7.805796e-08 1.2842432e-07 1.19057155e-07 9.717114e-08
1.5951559e-06 3.4700828e-05 3.135827e-08 9.905565e-07 1.4268013e-06 2.6782936e-07 1.0828354e-06 3.07327e-08
8.121275e-08 2.4848214e-06 1.3534498e-07 2.8260214e-07 2.691356e-06 1.4492749e-14 1.4276951e-09 2.1525624e-08
6.64114e-08 2.5261158e-07 4.4015215e-07 1.822274e-06 2.2643393e-07 1.1874968e-06 6.2135973e-07 7.189661e-08
1.5811963e-06 4.4623607e-07 4.8178254e-07 2.1746192e-12 3.6510878e-07 2.2393904e-06 9.3953744e-08 3.7864498e-07
2.2802426e-06 1.8651649e-07 9.775144e-08 1.4055354e-07 1.4957316e-06 4.7994754e-06 6.2066676e-05 4.255735e-06
9.0358054e-07 6.0486263e-06 2.2384345e-06 1.8645403e-06 5.7786133e-06 1.4266838e-06 3.0347978e-06 3.104545e-06
2.2467732e-06 2.8921738e-06 4.9234327e-06 3.643523e-06 1.504209e-06 2.3195623e-06 4.590082e-06 1.2979721e-06
5.659236e-06 1.635566e-06 2.6432117e-06 4.3459686e-06 2.403566e-06 4.767491e-06 1.4123206e-06 2.2097918e-06
3.5306161e-06 2.1545172e-06 4.7796093e-06 2.4163844e-06 3.6274366e-06 8.139315e-06 1.1312738e-06 2.8138427e-06
1.3979405e-06 2.578212e-06 1.6485603e-05 0.0004682435 2.7158836e-05 3.627234e-05 2.910313e-05 1.588516e-05
2.1696327e-05 0.00012636269 1.6096745e-06 1.1401352e-06 2.4532303e-06 4.4498506e-06 2.6544694e-05 3.3233646e-05
2.9589837e-05 1.685948e-05 2.081564e-05 3.9128212e-05 2.6543541e-05 2.4718647e-05 1.6621041e-05 2.0981113e-05
4.2553205e-05 2.7658229e-05 3.1478266e-05 1.0022201e-05 2.2739274e-05 6.244444e-05 1.3393241e-05 1.950021e-05
1.2601919e-05 1.5775666e-05 6.503532e-05 1.6043268e-05 2.3132854e-05 5.966412e-06 1.8421197e-05 8.1724145e-05
0.0085306475 2.0637826e-06 2.4824287e-06 2.1654291e-06 8.8834e-07 1.3416853e-06 4.5634233e-06 1.3340118e-06
1.1011284e-06 8.0051547e-07 7.0354827e-07 1.4800212e-06 2.835067e-06 2.4291635e-06 1.1546979e-06 1.6138096e-06
2.9456965e-06 1.8658541e-06 1.6149154e-06 1.2477278e-06 1.107025e-06 2.2620854e-06 2.6628684e-06 2.1830213e-06
5.4602305e-07 1.9168378e-06 4.27623e-06 1.4973582e-06 1.1015287e-06 8.7468453e-07 9.581286e-07 3.2723867e-06
2.1633937e-06 1.3450185e-06 7.652089e-07 1.319226e-06 6.1913724e-06 0.00044241446 8.107561e-07 1.8852026e-06
1.4750179e-06 7.956492e-07 1.102536e-06 1.4207604e-06 1.6955853e-06 1.7799756e-06 6.632847e-08 1.0897335e-06
1.2293375e-06 2.0559416e-06 7.60383e-07 9.45154e-07 7.544302e-07 1.4038218e-06 1.4088096e-06 1.5935316e-06
4.5185735e-07 1.3134332e-06 1.0904469e-06 1.7935209e-06 1.8035416e-06 3.0734068e-07 1.1078367e-06 3.8052704e-07
2.9507503e-06 6.377149e-07 1.0068421e-06 1.4089863e-06 3.6113083e-06 8.4305145e-07 3.4034667e-07 4.0479014e-07
00000000: 046e 8136 18e3 fe34 898f 6c35 487c ff34
00000010: 1a76 5735 e873 a235 6125 2d36 fe4a e435
00000020: 0df6 b134 35d8 a835 367b 3a35 45b8 7d36
00000030: 6c1d 2735 af0c 2035 b443 5935 f2ed b135
00000040: ba98 c835 143a 2636 002d 0c35 4231 5135
00000050: c560 2835 228f 8236 d507 5335 7605 f934
00000060: f082 8935 f75d 0f36 7baf ef35 efc7 5435
00000070: 1ca1 7235 6660 6e35 9eb9 7335 bfb5 4d36
00000080: c61f 9635 e0ed 0d35 d28c a035 5838 e336
00000090: e8b3 0439 537d fa34 5d57 0634 730e 4d34
000000a0: 401f 7833 c847 c633 15c7 2535 3dac a833
000000b0: 5a98 4333 bdee d733 eef0 7334 dcfc 4d35
000000c0: f649 8433 7c32 7232 833f 8931 3c3c 9834
000000d0: 1f85 c134 d073 7233 a838 e334 1d35 e631
000000e0: b9b5 fc33 8b2c ce33 e9b7 8633 0e8f 1c35
000000f0: d8b3 df33 625b 7b34 81ba 7b33 335d c633
00000100: 7b05 9434 18b3 df34 d7e3 6e33 4be3 0c35
00000110: d1a0 a733 02e5 0934 5dac ff33 66ac d033
00000120: 2419 d635 bb8b 1138 c8ae 0633 43f3 8435
00000130: 8580 bf35 30ca 8f34 f155 9135 f6fe 0333
00000140: 2e67 ae33 e8c0 2636 5853 1134 8bb8 9734
00000150: 259d 3436 018a 8228 8e38 c430 59e7 b832
00000160: 0e9e 8e33 ac9e 8734 0d4e ec34 dc94 f435
00000170: af21 7334 1462 9f35 84cb 2635 9465 9a33
00000180: 7e39 d435 3892 ef34 d853 0135 7506 192c
00000190: 2b04 c434 6f48 1636 9ec3 c933 9248 cb34
000001a0: 4506 1936 4345 4834 6ceb d133 10eb 1634
000001b0: f2c0 c835 2e0b a136 cb29 8238 7ccc 8e36
000001c0: 958d 7235 4ef5 ca36 0338 1636 1e41 fa35
000001d0: e9e5 c136 7b7c bf35 6ea9 4b36 ad57 5036
000001e0: 45c7 1636 2b17 4236 f733 a536 4083 7436
000001f0: 3ae4 c935 c7a9 1b36 8104 9a36 fb35 ae35
00000200: 78e4 bd36 9f85 db35 0862 3136 96d3 9136
00000210: f34c 2136 70f8 9f36 f78e bd35 ef4b 1436
00000220: 86ef 6c36 5396 1036 8860 a036 2b29 2236
00000230: e36e 7336 178e 0837 46d6 9735 73d5 3c36
00000240: dfa0 bb35 5805 2d36 904a 8a37 947e f539
00000250: 28d3 e337 2123 1838 7f22 f437 1f41 8537
00000260: 8200 b637 3a80 0439 ff0b d835 bf06 9935
00000270: 2da2 2436 ed4f 9536 4cac de37 5b64 0b38
00000280: b137 f837 756d 8d37 3f9d ae37 991d 2438
00000290: d2a9 de37 e45a cf37 6a6d 8b37 9900 b037
000002a0: 287b 3238 9803 e837 8807 0438 0725 2837
000002b0: 38c0 be37 9af4 8238 88b3 6037 6294 a337
000002c0: d46c 5337 fc55 8437 9263 8838 a894 8637
000002d0: 6d0d c237 1733 c836 3887 9a37 5163 ab38
000002e0: 21c4 0b3c 847f 0a36 cd97 2636 ca51 1136
000002f0: 4376 6e35 f513 b435 821f 9936 4c0c b335
00000300: 7cca 9335 01e3 5635 78db 3c35 24a5 c635
00000310: 1542 3e36 b604 2336 1efb 9a35 139a d835
00000320: aeae 4536 426e fa35 12c0 d835 9a77 a735
00000330: 1795 9435 55ce 1736 bbb3 3236 0580 1236
00000340: 6b92 1235 06a3 0036 897c 8f36 d6f8 c835
00000350: 3dd8 9335 ddcb 6a35 0c99 8035 2d9b 5b36
00000360: d22e 1136 7c86 b435 c168 4d35 4310 b135
00000370: 7cbf cf36 ddf3 e739 bca2 5935 1107 fd35
00000380: 3bf9 c535 9994 5535 d9fa 9335 f5b0 be35
00000390: de93 e335 7fe7 ee35 7670 8e33 f542 9235
000003a0: b7ff a435 cff8 0936 1f1d 4c35 7db6 7d35
000003b0: 0c84 4a35 f36a bc35 5416 bd35 54e1 d535
000003c0: cd96 f234 3949 b035 785b 9235 e9b8 f035
000003d0: 3811 f235 9500 a534 fbb0 9435 3d4b cc34
000003e0: 8105 4636 6f2f 2b35 d522 8735 671c bd35
000003f0: ce59 7236 0e4e 6235 e4b8 b634 ef51 d934

exp_avg f4 [64]
-0.00033220885 3.4152472e-05 7.810767e-05 -0.001462597 0.00060429843 -0.0004347105 -0.00033032207 -0.0025194287
-0.0001620776 -0.0007253331 -0.0027641626 0.00075612863 -0.0032145565 -0.00042595516 2.2749207e-05 -0.0006917069
0.00015985662 0.0003646296 -0.0013143786 -0.00044311068 -0.000643911 4.2802923e-05 0.0003061895 -0.00013674736
-0.0004616907 -0.00048202017 -0.0010313452 0.00044671015 -0.006500262 -0.00574025 -0.0003786683 2.1695865e-05
-0.00040978033 -0.0006364242 -0.0006821376 0.0007350637 1.0077554e-05 -0.00083911925 0.00086027855 0.001028365
6.202529e-05 -0.0004482746 -6.254163e-05 -0.0015729112 -0.0028181402 -0.00042541852 -0.0012134105 -0.00016013754
0.00070495415 9.469048e-05 -0.00042363198 -0.0055456827 -0.0004837043 0.0002691635 0.00068150373 -0.0028768787
-0.00038364858 0.0007978957 4.6777917e-05 -1.6221953e-05 -0.0033474993 -0.00015889993 -0.00034427762 -0.003573145
00000000: 512c aeb9 f03e 0f38 bccd a338 9db4 bfba
00000010: c869 1e3a dbe9 e3b9 142f adb9 001d 25bb
00000020: 60f3 29b9 4824 3eba f426 35bb ef36 463a
00000030: 4fab 52bb bc52 dfb9 8dd5 be37 aa53 35ba
00000040: 2f9f 2739 c22b bf39 3a47 acba 4f51 e8b9
00000050: 23cc 28ba 4a87 3338 0f88 a039 d763 0fb9
00000060: 140f f2b9 a7b7 fcb9 342e 87ba 6c34 ea39
00000070: 2600 d5bb b518 bcbb 0088 c6b9 84ff b537
00000080: c9d7 d6b9 b5d5 26ba 7bd1 32ba 4ab1 403a
00000090: c412 2937 57f8 5bba 5184 613a 34ca 863a
000000a0: 9313 8238 6606 ebb9 c828 83b8 242a ceba
000000b0: 8cb0 38bb b50a dfb9 4d0b 9fba 98ea 27b9
000000c0: accc 383a 9094 c638 ec1a deb9 8fb8 b5bb
000000d0: b199 fdb9 831e 8d39 f1a6 323a 048a 3cbb
000000e0: 7124 c9b9 e029 513a 6833 4438 6114 88b7
000000f0: b861 5bbb 609e 26b9 2980 b4b9 6d2b 6abb

exp_avg_sq f4 [64]
5.80886e-06 8.4260796e-07 2.7115902e-06 1.4861951e-05 0.00013528965 7.836321e-06 5.2451273e-06 1.5295267e-05
5.466604e-05 1.9681189e-05 8.344686e-05 4.274002e-06 0.00011415331 7.013092e-06 2.3167633e-05 2.810664e-05
5.9569047e-06 5.6613126e-06 1.6384545e-05 1.6819897e-06 7.422368e-05 2.1331373e-06 2.0832955e-05 1.5752753e-06
9.693077e-06 1.4869283e-05 1.6919226e-05 5.658706e-06 0.00036046086 0.00013927612 8.85273e-06 2.0635152e-06
4.0975438e-06 9.064048e-06 1.1905996e-05 5.0228828e-06 4.3631167e-06 1.8975159e-05 7.813856e-06 3.0534742e-05
4.940951e-06 1.3891807e-06 5.463117e-06 3.860492e-05 6.5217966e-05 1.074076e-06 1.0452041e-05 3.7894947e-06
0.00023547189 3.7254224e-06 5.4872594e-06 0.00021942762 2.0848194e-05 4.9543514e-06 5.077807e-06 6.782154e-05
1.3769547e-05 2.5680185e-06 0.00012130825 9.599776e-07 0.00019113971 5.2296377e-06 5.62081e-06 0.00010749929
00000000: bae9 c236 942f 6235 c4f8 3536 9857 7937
00000010: 8adc 0d39 be78 0337 4dff af36 564e 8037
00000020: 3749 6538 0819 a537 3100 af38 6669 8f36
00000030: 9765 ef38 0052 eb36 1d58 c237 8dc6 eb37
00000040: 6ce1 c736 4ef6 bd36 8b71 8937 bac0 e135
00000050: 89a8 9b38 0527 0f36 6ec2 ae37 0c6e d335
00000060: 739f 2237 1677 7937 c3ed 8d37 eadf bd36
00000070: 3dfc bc39 a60a 1239 3086 1437 ec7a 0a36
00000080: a27d 8936 ca11 1837 ddbf 4737 3c8a a836
00000090: e366 9236 d82c 9f37 4218 0337 6e12 0038
000000a0: 72ca a536 e373 ba35 d14f b736 b8eb 2138
000000b0: a1c5 8838 f828 9035 2d5b 2f37 064f 7e36
000000c0: 01e9 7639 4502 7a36 331f b836 2716 6639
000000d0: 28e3 ae37 8e3d a636 0862 aa36 693b 8e38
000000e0: c103 6737 3956 2c36 df66 fe38 94d8 8035
000000f0: ad6c 4839 3f7a af36 649a bc36 3e71 e138

exp_avg f4 [64, 64]
-9.432295e-05 -9.691678e-09 3.8708853e-14 -6.2937295e-05 9.99672e-08 7.5169373e-07 1.5368578e-07 2.0082194e-05
7.0113456e-06 3.0058478e-05 2.6167296e-05 -6.789153e-14 0.00012391875 3.5580715e-06 -6.985075e-05 6.0641178e-05
-9.081957e-05 -8.702861e-09 -2.0604879e-05 -2.0302861e-16 5.0815957e-05 3.6435106e-06 -1.0042288e-12 -6.078943e-05
8.1676345e-14 3.6497884e-05 0.0001773556 3.1518148e-06 8.7172964e-05 -1.6425118e-05 2.4010278e-06 1.3980189e-05
-5.0215654e-09 0.00010141162 9.471883e-05 4.20311e-05 -8.5944885e-06 4.0473274e-06 7.1392374e-06 -6.147429e-06
0.0002605522 1.1637187e-05 -6e-45 -0.0001153961 6.129657e-05 5.622385e-13 1.5008535e-06 2.9541613e-07
-7.6310665e-05 -5.6537192e-05 -7.7346594e-05 3.1819283e-05 1.7586768e-05 8.1103155e-07 0.0001518393 0.00019357768
5.9338495e-06 -1.7130946e-05 7.68221e-06 -4.04397e-40 -2.5488593e-08 -1.8730561e-05 -6.045166e-08 -0.00015928973
6e-45 -6e-45 -6e-45 6e-45 6e-45 6e-45 6e-45 6e-45
6e-45 6e-45 -6e-45 6e-45 6e-45 -6e-45 6e-45 6e-45
6e-45 -6e-45 -6e-45 -6e-45 6e-45 -6e-45 6e-45 -6e-45
6e-45 6e-45 6e-45 6e-45 6e-45 6e-45 -6e-45 -6e-45
6e-45 -6e-45 6e-45 -6e-45 6e-45 -6e-45 6e-45 -6e-45
6e-45 6e-45 6e-45 6e-45 6e-45 -6e-45 6e-45 -6e-45
6e-45 -6e-45 -6e-45 6e-45 6e-45 6e-45 -6e-45 6e-45
6e-45 -6e-45 6e-45 6e-45 6e-45 6e-45 6e-45 6e-45
6e-45 6e-45 6e-45 6e-45 6e-45 6e-45 6e-45 6e-45
6e-45 6e-45 6e-45 6e-45 6e-45 6e-45 6e-45 6e-45
6e-45 6e-45 6e-45 -6e-45 6e-45 6e-45 6e-45 6e-45
6e-45 6e-45 6e-45 0.0 6e-45 0.0 6e-45 6e-45
6e-45 6e-45 6e-45 6e-45 6e-45 6e-45 6e-45 6e-45
6e-45 6e-45 0.0 6e-45 6e-45 6e-45 6e-45 6e-45
6e-45 6e-45 6e-45 6e-45 6e-45 6e-45 6e-45 6e-45
6e-45 6e-45 6e-45 0.0 6e-45 6e-45 6e-45 6e-45
0.00050303835 -4.7030077e-05 -5.357443e-10 -0.0003676489 0.0010468747 0.0012083247 -0.00019693293 -0.00035405677
-0.0019439593 0.0004992174 0.0017986922 -0.00024927178 0.0005635396 0.0012491631 0.00042932056 -1.3644427e-05
-9.3418705e-05 0.001214977 -7.046279e-05 -1.343764e-05 -0.00041192127 -5.343621e-05 -6.476147e-06 -9.072385e-05
-0.0005133419 -0.00032720494 -0.00019911994 0.0004329198 0.0014156449 -0.00036915703 -7.549798e-05 -2.664519e-05
-1.9054787e-05 0.0003073334 0.00025663926 -6.6049484e-05 -4.9105132e-05 0.00017101027 -0.00021324887 -8.073065e-06
-2.4422096e-05 -1.1849212e-05 -2.403833e-06 -0.00044388502 -0.00052233785 -3.494217e-05 0.0025561438 2.30374e-05
-0.0010393597 -6.124968e-05 0.00012419249 -0.0013583096 -0.0010168318 2.4646772e-05 -0.00014467968 0.00060804875
-0.0013246902 -0.00010844781 -0.0013171267 5.129734e-06 -0.00014517971 0.0009968899 -4.86861e-05 0.0008869577
00000000: 40cf c5b8 7380 26b2 4554 2e29 34fd 83b8
00000010: 8dad d633 00c8 4935 d304 2534 2f76 a837
00000020: 0043 eb36 1726 fc37 d781 db37 cde0 98a9
00000030: 30f0 0139 34c7 6e36 d67c 92b8 f858 7e38
00000040: 6376 beb8 9683 15b2 a4d8 acb7 7813 6aa5
00000050: 3823 5538 0983 7436 2855 8dab 27f8 7eb8
00000060: 35eb b729 4e15 1938 88f8 3939 c483 5336
00000070: a1d0 b638 acc8 89b7 5821 2136 748c 6a37
00000080: 288a acb1 f3ac d438 c9a3 c638 8d4a 3038
00000090: 0c31 10b7 47ce 8736 958d ef36 0346 ceb6
000000a0: b99a 8839 563d 4337 0400 0080 cf00 f2b8
000000b0: 588c 8038 8e41 1e2b ef70 c935 af99 9e34
000000c0: fa08 a0b8 5922 6db8 2335 a2b8 b275 0538
000000d0: 4c87 9337 aab5 5935 0d37 1f39 1dfb 4a39
000000e0: 611b c736 6db4 8fb7 d7e2 0037 4b67 0480
000000f0: 02f2 dab2 931f 9db7 a7d1 81b3 0307 27b9
00000100: 0400 0000 0400 0080 0400 0080 0400 0000
00000110: 0400 0000 0400 0000 0400 0000 0400 0000
00000120: 0400 0000 0400 0000 0400 0080 0400 0000
00000130: 0400 0000 0400 0080 0400 0000 0400 0000
00000140: 0400 0000 0400 0080 0400 0080 0400 0080
00000150: 0400 0000 0400 0080 0400 0000 0400 0080
00000160: 0400 0000 0400 0000 0400 0000 0400 0000
00000170: 0400 0000 0400 0000 0400 0080 0400 0080
00000180: 0400 0000 0400 0080 0400 0000 0400 0080
00000190: 0400 0000 0400 0080 0400 0000 0400 0080
000001a0: 0400 0000 0400 0000 0400 0000 0400 0000
000001b0: 0400 0000 0400 0080 0400 0000 0400 0080
000001c0: 0400 0000 0400 0080 0400 0080 0400 0000
000001d0: 0400 0000 0400 0000 0400 0080 0400 0000
000001e0: 0400 0000 0400 0080 0400 0000 0400 0000
000001f0: 0400 0000 0400 0000 0400 0000 0400 0000
00000200: 0400 0000 0400 0000 0400 0000 0400 0000
00000210: 0400 0000 0400 0000 0400 0000 0400 0000
00000220: 0400 0000 0400 0000 0400 0000 0400 0000
00000230: 0400 0000 0400 0000 0400 0000 0400 0000
00000240: 0400 0000 0400 0000 0400 0000 0400 0080
00000250: 0400 0000 0400 0000 0400 0000 0400 0000
00000260: 0400 0000 0400 0000 0400 0000 0000 0000
00000270: 0400 0000 0000 0000 0400 0000 0400 0000
00000280: 0400 0000 0400 0000 0400 0000 0400 0000
00000290: 0400 0000 0400 0000 0400 0000 0400 0000
000002a0: 0400 0000 0400 0000 0000 0000 0400 0000
000002b0: 0400 0000 0400 0000 0400 0000 0400 0000
000002c0: 0400 0000 0400 0000 0400 0000 0400 0000
000002d0: 0400 0000 0400 0000 0400 0000 0400 0000
000002e0: 0400 0000 0400 0000 0400 0000 0000 0000
000002f0: 0400 0000 0400 0000 0400 0000 0400 0000
00000300: 55de 033a 2942 45b8 a743 13b0 00c1 c0b9
00000310: 4937 893a a660 9e3a c87f 4eb9 b2a0 b9b9
00000320: 73cc feba eadd 023a 18c2 eb3a b1b0 82b9
00000330: 81ba 133a f5ba a33a 6e16 e139 5eea 64b7
00000340: c9e9 c3b8 dd3f 9f3a 6cc5 93b8 3972 61b7
00000350: 23f7 d7b9 b220 60b8 ae4d d9b6 ff42 beb8
00000360: cb91 06ba b48c abb9 daca 50b9 83f9 e239
00000370: 298d b93a 6b8b c1b9 ab54 9eb8 1c84 dfb7
00000380: d8d7 9fb7 9721 a139 8a8d 8639 0c84 8ab8
00000390: 3cf6 4db8 3851 3339 8f9b 5fb9 8d71 07b7
000003a0: 0dde ccb7 facb 46b7 8951 21b6 3db9 e8b9
000003b0: 80ed 08ba df8e 12b8 fa84 273b 7140 c137
000003c0: 203b 88ba 2c73 80b8 ab39 0239 4f09 b2ba
000003d0: 3747 85ba 8ac0 ce37 28b5 17b9 7665 1f3a
000003e0: 3aa1 adba 7a6e e3b8 70a3 acba 1420 ac36
000003f0: 623b 18b9 13aa 823a 4d34 4cb8 b982 683a
