p1_navigation/D2DQN_20190130_v15_600eps_5.20score.pth (torch_old, 90555 bytes, 18 tensors)

hidden_layers.0.weight f4 [64, 37]
00000000: 20c0 0c3e 9cdd 55be caf4 8dbd 7cc3 47be
00000010: bbf2 06bf 817c d8bc 203c b03b 536b 923d
00000020: 8e96 db3d 752c ac3d 46fb e2bd 2471 c5bd
00000030: f44f 91bd d5b0 0bbd a5d0 573d af8c 85bb
00000040: 1443 59bc 8711 4e3c 59d0 643d e3b7 203e
00000050: 18a7 993c 94d6 453d c8d0 3e3d e844 223e
00000060: 2100 9f3d cd21 1b3d 4d40 c13c af2d bbbd
00000070: 3655 f2bd d807 57be 110d 18be 35c5 513d
00000080: 00fc 9cbc a97b adbc 8729 8d3c 0fbe b03c
00000090: b3ac 67ba c654 1e3e 679e cd3d 733b 4a3d
000000a0: 31d1 2c3d b52b 8cbe 5930 30bd 7cd4 8fbc
000000b0: c02b 04be 4a5c 67bd e183 2d3e 9fda 983d
000000c0: f1d4 ebbc d576 6f3c b857 603d 06d6 8e3a
000000d0: b8e8 e53d fd5f 80bc 8df8 073d 7570 ccba
000000e0: 41fe 3bbe 7198 f0bd 36c9 9abd daf3 abbd
000000f0: 0a77 71bc 8c2b 11bd c8a5 36bd 443c 343d
00000100: 43b9 e23b 4384 6d3d b29c 4cbd 4a2c b8bc
00000110: fb38 143e d386 063e 3b48 513d 830b 3a3d
00000120: a6de 8d3d f743 5aba eec6 4dbd d938 1b3e
00000130: 3cf4 d23d a332 0cbe 9234 90be c80f 69be
00000140: 4d98 e03c b66e 53bc 5482 47bc a854 30be
00000150: 5bb9 cb3c 1ca7 6e3b b6fe fdbc a8b4 f5bd
00000160: 4f90 5e3d c924 73be 1efd 823d e54d 1d3e
00000170: 7cd5 70bc deaa 91be 70c0 87be be1f 003d
00000180: 2315 58bc 376a 9cbc ebc4 cbbd 7d9a 54be
00000190: 844e 553e c45f 8cbd fd1f cbbd c7d4 67be
000001a0: 9df0 a1be 193a f23c 378a c3bd fc80 0bbe
000001b0: 1267 19bd d345 71bd f979 33bb db5f 9e3e
000001c0: 6992 9dbe cf0f 09be 088e e1bd fb05 99bf
000001d0: fda4 d1bc 42e7 67bd 98c7 ce3c deba 343d
000001e0: a8f3 883d 14aa bcbc 55ab 42bc f342 b5bc
000001f0: aa41 74bd 5993 f3bc 0eba 08be 2898 523d
00000200: 029d 2bbc 39f8 92bd 2a73 2fbe 6c53 e8ba
00000210: edff 8fbc 0b0f eb3b 93be e43c 80fe 133d
00000220: 1464 e3bc 0fea 9b3c e1c9 d93d 5bc4 483e
00000230: ccdb 383e d5cb 773d a42f a73d 5083 173d
00000240: 39cb 423d 24a9 13bd 7d15 fd3b c6d2 93bb
00000250: 8407 02be f70e f9bd 8cd0 0fbe 44a1 0cbe
00000260: 19da 2ebd e14a 783e d6f2 e7bd 63d6 d2be
00000270: 6495 54be f64d 8ebf e987 3fbd d745 02bc
00000280: dd15 17bd 9ff5 8fbd d7f8 22bd 71b7 c7bd
00000290: ccb5 d3bd c42c 50bd da3b 913a cdb0 d23d
000002a0: 47dd 16bd cdcd 33bd 36db dbba b0c3 b53d
000002b0: ee9d 123e 1a42 89bc 2b79 d83c 5a6e ae3c
000002c0: cd14 ab3d e27a 8d3d 493d 24bc 6ca5 463d
000002d0: d03b 473d c2f9 913d a3a5 b43d 5548 1ebb
000002e0: f8ea 5b3a e5ef 153e 1b1a 95bd cfe1 2ebe
000002f0: 46e7 46be 77f7 083d 5704 173e 97b5 a43d
00000300: 2506 2abe 87a3 e0bc e066 233c 7a32 b0bc
00000310: 4a9c 04be 2a8f 413d a8a0 f8bd 3c89 123c
00000320: d79f 783d d2f3 82bc 7dc2 e6bd e6ae 2ebe
00000330: 224f 3fbe 0b4d 9c3d 62f6 3a3c 1992 8e3d
00000340: d017 103e 3dcc f53c fec5 623c b86a 1bbe
00000350: 57eb a23d 73cf 3fbd 633b 343e 317b 16bc
00000360: 10f8 00be 37e4 25bd ff24 833d 1c0f 1c3e
00000370: 43e6 e93c 006f 373c 1847 013e fd94 5f3c
00000380: 318f 5ebd 29dd 29bd 5a80 59be a636 623d
00000390: d1f4 31bd a71a 90bd 3a1e a3bd afbc 47be
000003a0: df41 f33d 5129 133e 7ee2 bb3d 2951 b5bd
000003b0: 49f3 253e a0d9 02bc 2310 7fbd 38dc 58bd
000003c0: e904 003e d042 763d 1a33 e1bd bf93 903d
000003d0: 88a2 493d 2bd6 03bd 784c 153e 5afe a5bb
000003e0: 9663 14bd dc6d b3bd 2f8e f1bd ab11 f3bd
000003f0: 45a0 133e 2ad3 9b3d 07b3 eebd da56 adbd
0.13745165 -0.20885319 -0.069314554 -0.19508165 -0.5271413 -0.026426556 0.005378261 0.07149377
0.107220754 0.08406917 -0.11083083 -0.096407205 -0.07095328 -0.034104187 0.052689213 -0.0040756087
-0.013260622 0.012577421 0.05586276 0.15695147 0.018756434 0.04830034 0.046585828 0.15846598
0.077636965 0.03787403 0.023590231 -0.09139573 -0.11832659 -0.20999086 -0.14848734 0.051213462
-0.019163132 -0.02117713 0.017231716 0.021575002 -0.0008837685 0.15462026 0.100399785 0.0493731
0.042191688 -0.27377096 -0.043014858 -0.017557375 -0.12907314 -0.056484498 0.16944839 0.07463574
-0.028788062 0.014615734 0.054771155 0.0010897524 0.11226028 -0.01567077 0.03319602 -0.001559748
-0.18358709 -0.11747826 -0.07557909 -0.0839612 -0.014737854 -0.03544192 -0.044591695 0.044002786
0.0069190576 0.057987463 -0.049954124 -0.022482056 0.14474861 0.13137369 0.051094275 0.045421135
0.069272324 -0.00083261676 -0.050238542 0.15158404 0.1030049 -0.13691191 -0.28165108 -0.22759926
0.027416373 -0.0129048135 -0.012177069 -0.17219794 0.024868658 0.0036415523 -0.031005245 -0.11997348
0.054336842 -0.23744501 0.063959345 0.15361746 -0.014699336 -0.28450674 -0.26514006 0.03128027
-0.013188633 -0.019093616 -0.099496685 -0.20762058 0.20830733 -0.06854203 -0.09918211 -0.22639762
-0.31628886 0.029568719 -0.09547847 -0.13623422 -0.03745181 -0.05890448 -0.0027385934 0.30932507
-0.30775765 -0.13384937 -0.110134184 -1.195495 -0.025591368 -0.05661703 0.025241658 0.044123523
0.06687099 -0.023030318 -0.011881669 -0.02212665 -0.059632935 -0.029733347 -0.13352224 0.05141464
-0.010474445 -0.07176251 -0.17133775 -0.0017725057 -0.01757809 0.007173424 0.027922904 0.036131382
-0.027757682 0.019032506 0.106342085 0.19606154 0.18052596 0.060497124 0.081633836 0.036990464
0.04755709 -0.036049977 0.007723509 -0.00451121 -0.1269818 -0.121610574 -0.14044398 -0.13733393
-0.042688463 0.24247314 -0.11325614 -0.4117919 -0.20760113 -1.1117542 -0.046760473 -0.007951221
-0.036886085 -0.070292704 -0.039788093 -0.097517855 -0.103374094 -0.05082394 0.0011080459 0.10287628
-0.03683212 -0.04389744 -0.0016773704 0.08875215 0.14318058 -0.016755152 0.026424965 0.021292854
0.08353577 0.06908204 -0.010024377 0.048497602 0.048641026 0.07127716 0.08820655 -0.0024152
0.00083892 0.14642294 -0.0728037 -0.17078327 -0.19424161 0.033439126 0.1474775 0.08042448
-0.16603906 -0.027421726 0.009973258 -0.021508444 -0.12950245 0.047255673 -0.12140018 0.008943852
0.06069931 -0.015985403 -0.112675644 -0.17058906 -0.1868253 0.07631882 0.011411281 0.0696146
0.14071584 0.030004615 0.01384115 -0.15177429 0.07955044 -0.0468287 0.17600779 -0.009184645
-0.12594628 -0.040500846 0.06403541 0.15240139 0.02855218 0.011195898 0.12624776 0.013646361
-0.054335777 -0.04147068 -0.21240368 0.055227898 -0.043446366 -0.070363335 -0.0796475 -0.19505571
0.11877798 0.1437123 0.09174059 -0.08853371 0.16206087 -0.007986456 -0.06227125 -0.052944392
0.12501873 0.06012231 -0.10996075 0.0705943 0.049227268 -0.03218667 0.14579952 -0.0050657215
-0.036227785 -0.087611884 -0.117946975 -0.11868604 0.14416607 0.07608636 -0.116552405 -0.08463831

hidden_layers.0.bias f4 [64]
00000000: 5fd2 973d b2bd 6dbc 57ab 15be 1ac7 99bd
00000010: e5e3 f03d 3d79 babd 4116 37bd 1de9 7fbc
00000020: d9b0 e93c 6233 4fbe bea6 403d 6e90 223d
00000030: 43d4 fa3d ed30 843d 500f b4bd c81e 0fbe
00000040: f93c 233b c26f a2bc b0da 3bbb 38ef 71be
00000050: 7a58 d2bd 0530 10bd 6701 85bd 03a4 c2bd
00000060: c634 32be 8678 2c3e 017b bb3c bc1c 1ebe
00000070: 8179 043e f20e f03c e517 63bd 29d6 3abe
00000080: 5e5c 263e 766b d0bc a558 cdbd 8b4d d03d
00000090: 5baa 3abd 9a8d 73bc 23f0 a9bd c52a edbd
000000a0: 91d2 ebbd f242 9ebd 3533 93bc d11c e93d
000000b0: 6389 58bd 5a7f 78bd a25f 9e3b 9926 4bbe
000000c0: a87a 9abd 735c dd3d 32d4 25be bb8d 22bd
000000d0: 004e 1abd c1e7 ccbd 9271 39be 965e 833c
000000e0: fb6c e73b c603 77bb d3a7 a9bd f98e edbd
000000f0: 6d10 91ba 6938 b0bd 8d79 a03c 4b7d 103d
0.07413172 -0.014510559 -0.14616142 -0.07508679 0.117622174 -0.091051556 -0.044698957 -0.015619543
0.02852671 -0.20234445 0.047034018 0.03968852 0.12247517 0.06454644 -0.08791983 -0.13976586
0.0024908169 -0.01982868 -0.0028664283 -0.23626411 -0.10270782 -0.035202045 -0.06494408 -0.09503939
-0.17402944 0.16842851 0.022885801 -0.15440649 0.12936975 0.029304001 -0.05544271 -0.18245758
0.16246173 -0.025441866 -0.10026673 0.1017104 -0.04557262 -0.014865303 -0.082977556 -0.11580423
-0.11514772 -0.077276126 -0.017968753 0.113824494 -0.052865397 -0.060668327 0.0048331777 -0.19838943
-0.07542926 0.10808649 -0.16194227 -0.039685946 -0.037672043 -0.10005141 -0.1810973 0.016036313
0.007062552 -0.0037691458 -0.08283963 -0.115995355 -0.0011067517 -0.086045094 0.01958921 0.03527574

hidden_layers.1.weight f4 [64, 64]
00000000: 6417 0abe d506 46bd 970a ec3d 3531 89be
00000010: b06e a83e da84 813c 5b17 b13d 153b 5a3d
00000020: 62bf 1f3e 912b 98bd 48ae f5bc 97d0 89bd
00000030: cdb0 61be d4a5 383e 079f 5fbe 2071 bebb
00000040: 703c 3f3e ea00 943d f0ed e0bd 0444 b7bc
00000050: e80f 9dbc 7dc3 0b3e 444a 84be c828 d5bc
00000060: 35ed c5bc 295e f5bc e85f 14be 1cbe 99bd
00000070: 6826 013c e418 4f3d 92bc 883c aba2 2a3d
00000080: 531e 62be f685 7fbe d4c8 39be cfb5 f3bd
00000090: 82c4 c8bc 1e12 b9bd 168f 94be 97d7 b8be
000000a0: 776e 5c3e 06d9 39bd 77af 96be 5c10 b2bd
000000b0: 28ee 77be aa49 42be 5cc9 8ebd 93f3 4b3e
000000c0: 9cc3 333e c89f d33d 9573 4ebe 5589 9c3d
000000d0: 9219 4d3c 1ab8 8cbe 42ba 40be a9f7 d2bd
000000e0: c1c9 413d 1bdf 6d3d e0ce 8f3d 885d 8dbd
000000f0: 9fa3 73be ad26 9c3c c747 e3be fe7d 323e
00000100: c426 8abe 7e85 4cbd 7039 53be b995 96be
00000110: 7eb6 7c3e a0a6 32bd 0fe4 7c3d a3c9 aabd
00000120: 5c17 9c3d 8173 58bd 4c39 9abd b629 133e
00000130: 1cd8 aabd 816b 043e 3008 a3be 65fc 12be
00000140: e133 233d e6a8 853c 1f61 fbbd 6e66 303d
00000150: ce0b b73d 5921 153d f47a 8dbe 22f1 ec3d
00000160: 2c88 07be 1b10 e13d 0e41 a4be ef80 6bbe
00000170: f782 c83d 57a4 2abe 87e3 07be eab7 e9bd
00000180: d213 3cbe 6b74 aabe 4c23 11be 012b 27be
00000190: 786c dfbd aa6b f2be 9ea5 a6be 73c0 1bbe
000001a0: 6df1 83bd 6d2b 09bd a69c c03c fc3a b5bc
000001b0: c56e acbe 6ed2 fabd f3cb 53be 6f76 273e
000001c0: 8cc1 313e 645f 1f3e 5911 f4bd 066b 793d
000001d0: c4cd 54bd ae5c 30bb 7b49 0abe 6b89 7abd
000001e0: 5c0c 5dbd 91aa dc3d dfaf 543d f3f0 36be
000001f0: 5dcf 95be ebb5 e9bd a920 a3be c04e b2bd
00000200: c605 8c3b bfca 8e3d e392 d0bc bdc8 413c
00000210: b54d 783e d4d7 70bb f397 06bc 63c0 9dbd
00000220: 4d11 073d 06a4 963c 8699 4b3d ef6b 8e3d
00000230: 4fd4 fe3d 452a ce3d 7abb 2f3d 35f4 713d
00000240: ba68 44bc 21a6 473d 6ccf 133c 60f1 78bd
00000250: 1140 b93d 7c95 01be 61b7 ba3c 9c83 1c3d
00000260: 4cb1 2e3d 61dc 1dbd e5f4 2fbc 2f76 8cbd
00000270: 48ee 043d 9c4a ed3d 9aa6 68bd 1d23 453d
00000280: f93c 23bd 6b48 b63d c5d2 8e3d 73de 493d
00000290: e706 913d 9daa bebd 0a13 f33d be7d 633e
000002a0: 2ca4 5c3d 307e e83d 5af2 ecbc 49ae 173e
000002b0: ed57 0b3e 344e e2bd b57c 0f3e f076 8abd
000002c0: f84c 893b f34c 16be 572c 3cbd 6dbb c03a
000002d0: 075a babd 0b2f 773e d7f8 6abe 9de3 04bd
000002e0: b06d ba39 cfba 9f3a c0e8 573d 0b8c 1bbe
000002f0: 7543 923d 4f2d 03bd d60b 9a3e 71c0 fa3d
00000300: cfc7 d13c 27ba cb3d 9648 11bd 45ed 4a3d
00000310: 8a76 213e 648d a9bd 05f4 27bc d9a0 803d
00000320: 1107 e33c 1aba 8e3d 05c4 f13b 4f06 d93d
00000330: 7df7 55bc a6d2 0abe 43be b33c a0f4 3f3d
00000340: 3a03 8b3d 6856 f339 657a a03d bd8f 463d
00000350: 6951 323c 8211 95bd 6041 e23d 5f7e a6bd
00000360: 228f 373d 9d03 6dbd 8f1a 563b 32f7 fcbd
00000370: c69d 873d 42d2 aabd 3c06 003e c987 213e
00000380: 7b02 94bd 6d26 473e c599 94bd 3435 363d
00000390: ca17 8bbc f921 2e3c 4e2e 393e c820 62bd
000003a0: fb4c f43c ec22 33bd f2a2 dbba a296 863e
000003b0: b8af 473e ca2c 9cbc b135 073d 559e 19bd
000003c0: 26a0 0b3e 69f6 b73c 2c1a a0bd 3b06 93bc
000003d0: 490d 743d b413 553e 1946 503d f783 e93c
000003e0: 89ca 40be 7c97 babc 26a3 ce3c b913 c03c
000003f0: 6445 26bd 7f13 10be 8372 ac3e c114 843d
-0.13485485 -0.04834636 0.11525457 -0.26795354 0.32896948 0.015810419 0.08647033 0.053279
0.1560035 -0.07430185 -0.02999033 -0.067292385 -0.220401 0.18032008 -0.21838008 -0.0058118254
0.18675399 0.07226737 -0.10982883 -0.0223713 -0.019172624 0.13648792 -0.2583791 -0.026020423
-0.02416096 -0.029952126 -0.1448971 -0.075069636 0.007882692 0.050560847 0.01669148 0.04165904
-0.2208188 -0.24953446 -0.18143016 -0.118999116 -0.024507765 -0.09036659 -0.29015416 -0.36101982
0.21526514 -0.045372985 -0.29430744 -0.086945266 -0.24211943 -0.18973413 -0.06972 0.19917135
0.17555088 0.1033321 -0.20161279 0.076433815 0.0125183035 -0.27484208 -0.18821052 -0.10301144
0.04731155 0.058074098 0.0702188 -0.06902605 -0.23792885 0.01906141 -0.443907 0.17430875
-0.269827 -0.049931996 -0.2062738 -0.29411104 0.2467899 -0.043615937 0.06174093 -0.083392404
0.07621643 -0.052844528 -0.0753046 0.1437138 -0.08342001 0.12931634 -0.31842184 -0.14354093
0.039844397 0.016315889 -0.12274384 0.043066435 0.089377984 0.036408756 -0.27632868 0.1156943
-0.13235539 0.109894 -0.32080883 -0.22998403 0.097906046 -0.16664253 -0.13270389 -0.11412032
-0.18366936 -0.33291945 -0.14173621 -0.16324998 -0.10909361 -0.47347766 -0.3254823 -0.15210132
-0.06442533 -0.03348868 0.023512196 -0.022122853 -0.3367826 -0.122471675 -0.20683269 0.16353773
0.17358989 0.15563732 -0.11917371 0.06089308 -0.051954046 -0.002691071 -0.13504593 -0.06116621
-0.053966865 0.107747205 0.051925536 -0.17865352 -0.29259768 -0.11411651 -0.31860855 -0.087064266
0.004273149 0.069722645 -0.025460666 0.011827645 0.24248393 -0.0036749737 -0.008214938 -0.077027105
0.032975484 0.01838876 0.04970696 0.069541804 0.124428384 0.10066656 0.0429034 0.059070785
-0.011987859 0.048742417 0.009021621 -0.06077707 0.09045423 -0.1265468 0.02279252 0.03821145
0.042649552 -0.038540248 -0.01073954 -0.06858479 0.032453805 0.11586496 -0.05679951 0.04812919
-0.03985307 0.089005314 0.06973795 0.04928441 0.07081395 -0.09309886 0.11868866 0.22215936
0.053867504 0.11352193 -0.028924156 0.14812578 0.1360776 -0.11050072 0.14012416 -0.06760967
0.0041900836 -0.14677791 -0.045940723 0.0014704295 -0.090992026 0.24139039 -0.22946487 -0.03244363
0.00035558408 0.0012186411 0.052712202 -0.15190141 0.07141773 -0.03202563 0.30087155 0.122437365
0.025607971 0.09947615 -0.035469614 0.049542684 0.15767875 -0.08278921 -0.01025105 0.06280679
0.02771333 0.0696909 0.0073781037 0.105969064 -0.013059494 -0.13556919 0.02194131 0.046864152
0.06787725 0.0004641295 0.07835845 0.048476923 0.0108836675 -0.0727873 0.110476255 -0.08129572
0.044814236 -0.057864774 0.0032669639 -0.12351836 0.0662189 -0.08340885 0.12502378 0.15774454
-0.072270356 0.19448252 -0.07255892 0.044484332 -0.016979117 0.010628217 0.1808407 -0.055207044
0.029821863 -0.043734476 -0.0016756936 0.262868 0.19500625 -0.019064326 0.03301019 -0.037504513
0.1363531 0.022456365 -0.07817492 -0.017947307 0.059582982 0.20808297 0.0508481 0.028505309
-0.18827261 -0.022777312 0.02522428 0.023446904 -0.04059352 -0.14069937 0.33681116 0.06449271

hidden_layers.1.bias f4 [64]
00000000: f5c8 9b3d f92d 113e 3a1a 6d3e 116d 973e
00000010: cd10 e13e f37c e73e 0750 223d 4e42 d93d
00000020: aeeb 213e 7145 9a3e 8c2f ea3e ae8a 833e
00000030: 6ccf c13e 4e29 a33e 9e08 e23e f0f3 e63e
00000040: 0bd0 673e 695c ea3e 3f65 a13e 1dfb ac3e
00000050: e560 863e 9564 303e 999f a53e 744d b73e
00000060: d0c3 cb3e 06e4 a73e 4ef3 703e 10f2 a93e
00000070: d936 a83e d3c8 0c3d 9745 813e 9cef 703e
00000080: 49c8 8abd 77d9 bc3e 784e bd3e a600 a13e
00000090: 6c79 12bd 2ed7 da3e b436 da3e 29b6 2abe
000000a0: 405a 9c3e 0379 033d ace5 d43e 13c2 953c
000000b0: 8d16 973e bec9 293d f9a4 b83e eda6 a83e
000000c0: 6659 6e3e 8ea1 ed3d 5279 1c3e d435 ed3e
000000d0: f841 4cbe cf7d 55be e81c 153e 749e b03e
000000e0: 55ca dabd d46c 22bd 925a ab3d 7d70 b53e
000000f0: 4292 413e 725d c93e e521 213d 9a1b f6bd
0.07606689 0.14177693 0.23154536 0.295754 0.4395813 0.45212516 0.0396271 0.1060835
0.15812561 0.30131105 0.457394 0.25691742 0.37853563 0.3186745 0.441472 0.45107985
0.22637956 0.45773628 0.31522557 0.33785334 0.262458 0.17225869 0.32348326 0.3580128
0.3979783 0.32791156 0.23530313 0.33192492 0.32854345 0.03437121 0.25248405 0.23528904
-0.067764826 0.36884663 0.3697393 0.31445807 -0.03576033 0.42742294 0.4261986 -0.16671051
0.30537605 0.032097828 0.41581476 0.018281018 0.29509392 0.041452162 0.36063364 0.32939854
0.2327629 0.1160308 0.15280655 0.4633013 -0.1994704 -0.20848773 0.14561808 0.3449589
-0.10683123 -0.039654568 0.08366884 0.35437384 0.18903449 0.39329106 0.039338965 -0.12016983

output.weight f4 [4, 64]
00000000: 1655 d23e ef6f c93e 39e3 623e 28cc 443e
00000010: 8a7c 263e 5e0a 163e 849c 01be adb3 e63d
00000020: e6bd 953e 19c8 3c3e 2d8e 1e3e ba7f 1e3e
00000030: d024 553e 3203 203e 24a9 213e 3a16 033e
00000040: 1f26 483e 9f9a 1b3e 4e51 003e 8dbf 2a3e
00000050: eef8 503e 0abf 533e 3c49 4c3e 2706 103e
00000060: e588 753e 86dd f53d db74 463e 698d 323e
00000070: 0f77 073e 9221 623e bb80 373e 9964 163e
00000080: ed8a 0e3e 6afb 2b3e 648c 223e 0c38 393e
00000090: 8515 c6bc 7445 2a3e d03a 2e3e 860f 8d3d
000000a0: 79ee 2a3e dac3 993e d76d 133e 3a86 c53d
000000b0: a39f 283e 2f32 ccbc 3e5e 343e 4c20 323e
000000c0: 49c1 0b3e ffe9 393e 526c 253d 337e 0f3e
000000d0: e8dc a1be 72b1 c1be 52ab 833e bafd 253e
000000e0: e44f 56be a648 883e 7c19 123e c7be 1d3e
000000f0: f9f6 833e 6844 503e 571c 373e 89a7 a0bd
00000100: da88 893e 839c ae3e 94c2 413e de6f 4d3e
00000110: 24d2 263e b3d2 213e 9f3e 9e3d 434d a93e
00000120: d978 7e3e 4bed 1c3e 5db9 1d3e cc48 523e
00000130: a288 713e 325c 353e 51c5 2a3e 6670 fe3d
00000140: 566c 413e 70be 1a3e 5efd 073e 9985 1f3e
00000150: 59e8 323e 8c5c 3f3e b217 1a3e 238c 073e
00000160: 7a04 6b3e 2cb4 033e 31b1 423e e9f0 1c3e
00000170: dcb2 0b3e 57a7 c33e 838a 2a3e bd2a 053e
00000180: 0bbd d33d c180 0d3e 8638 503e 02c2 353e
00000190: f515 0e3d 1409 283e a6dc 2d3e 4d10 f33d
000001a0: bea8 173e aecd 813e 8c8b 123e cb60 c93e
000001b0: b001 133e 8244 be3d fb23 213e 529d 223e
000001c0: 7af5 1c3e 3d23 e73d e3fe 9b3e fa8a 203e
000001d0: b8e2 2dbd 51e2 33be 35e0 3f3e 1f8f 2b3e
000001e0: 6766 5b3e fcdf 413e 0220 073e 98ba 223e
000001f0: c3a3 073e 01df 343e 32d9 3c3e 5201 1c3e
00000200: 5d47 633d f8ad 873d 9ed2 5f3e 9d17 473e
00000210: 92f6 283e 5f1e 1a3e 26c1 d03d 0a4c d33e
00000220: c742 a33e 1dc4 2a3e b81c 0c3e e163 1e3e
00000230: d0c4 8d3e f179 213e 82f9 223e e807 033e
00000240: e097 123e 8eb2 223e 1044 093e 2a0a 1e3e
00000250: fb4a 233e b8bf 843e 4a17 2d3e b276 023e
00000260: 7b8c 763e 803e 023e d8ba 5b3e ec96 343e
00000270: b250 0b3e 131c dd3e 7a81 143e c8ca 253e
00000280: ddda 5fbd 16b5 2d3e fa31 293e f079 303e
00000290: 5b32 793e 113d 333e cf44 2a3e d85b 9dbe
000002a0: e069 3f3e b4e8 213d 68e4 193e 6148 8bbe
000002b0: 5009 203e 2560 3d3d 4105 433e 31ec 223e
000002c0: 0219 333e e2eb 963d 313b 283e da55 153e
000002d0: 41eb a6be 3bd9 dfbd 7de3 fc3c 9fc7 1d3e
000002e0: 9442 f5bd 5915 98bd bdf0 833e 1f97 0f3e
000002f0: 351f 463e 6ffe 4f3e 0800 a43e 8c4a 8cbe
00000300: cb90 af3d 7415 853d 1f8e 513e e758 233e
00000310: ba44 303e 9fb1 213e b278 ad3b fb98 433d
00000320: de5c f83d 0096 0b3e a22e 203e 04cf 463e
00000330: fc4f 793e 40dd 393e 9b94 243e 4716 0e3e
00000340: eb67 4e3e 4271 223e 1a83 fd3d 3cbb 393e
00000350: cbaf 4c3e 9ef4 423e 3d68 333e af98 0a3e
00000360: d8ff 843e b18b fa3d 671a 4c3e 47d7 3b3e
00000370: 8679 0d3e e0a9 80be a6ec 243e a6d9 153e
00000380: 6403 5bbe 5484 103e 6996 643e 723b 4a3e
00000390: b73d 183d b4bb 393e 8858 293e 0f95 e3bd
000003a0: 70a8 363e 5917 c03e 79ff 1f3e 8a3d 9b3e
000003b0: 5b87 1b3e 2b13 a93e a258 2c3e 3de9 373e
000003c0: 7099 303e 0d3e 4d3e 002e de3d faf8 1b3e
000003d0: 0072 1a3e 29c7 de3c 8fca 083e 92a1 293e
000003e0: 9f97 babe 09c8 723e 5718 123e b8cd 2c3e
000003f0: 0e91 303e 7129 443e 8c1f b63d f671 85be
0.4108054 0.3934321 0.22156991 0.19218504 0.16258445 0.14652392 -0.12657362 0.11264739
0.29246444 0.18435706 0.15483923 0.15478411 0.20814824 0.15626219 0.15787178 0.12801448
0.19545792 0.15195702 0.12531015 0.16674633 0.20407459 0.20678344 0.19949812 0.14064847
0.23978002 0.12005143 0.19380514 0.17436756 0.13229011 0.22083119 0.179202 0.14686812
0.13920183 0.16795126 0.15873867 0.18087786 -0.024180183 0.16628057 0.17014623 0.068877265
0.16692533 0.30032235 0.1439737 0.09644742 0.16467147 -0.024926273 0.17614076 0.17395133
0.13647951 0.18155669 0.040386505 0.14012985 -0.3161385 -0.37830693 0.25716645 0.1621007
-0.20928913 0.26617926 0.14267534 0.15404807 0.25774363 0.20338595 0.17881905 -0.07844455
0.26862222 0.34103784 0.18921882 0.20062205 0.162911 0.15803032 0.07726788 0.3306676
0.24850787 0.15324895 0.15402742 0.20535582 0.23587278 0.17710951 0.16676833 0.12423782
0.18888983 0.15111709 0.13280246 0.15578307 0.17471446 0.18687648 0.15048102 0.13237052
0.22950926 0.12861699 0.19012906 0.15326275 0.13642448 0.38213608 0.166544 0.13004585
0.103387915 0.13818647 0.20334062 0.1774979 0.03468891 0.16409713 0.16978702 0.118683435
0.14810464 0.25352234 0.14311045 0.3933166 0.14356112 0.092904106 0.15736382 0.15880325
0.15328017 0.11286018 0.304679 0.15678015 -0.042452544 -0.17566802 0.18737872 0.16753815
0.21425782 0.189331 0.13195804 0.15891492 0.13246064 0.17663194 0.18442228 0.15234879
0.05548798 0.06624979 0.21857688 0.19442602 0.16500309 0.15050648 0.1019309 0.4126895
0.31886885 0.16676374 0.1368283 0.15467788 0.2768922 0.15769173 0.15915492 0.12795985
0.14315748 0.15888426 0.1340487 0.15433565 0.15946572 0.2592752 0.16903415 0.12740591
0.24077027 0.12719154 0.21457994 0.17635697 0.13605002 0.4318548 0.14502516 0.16190636
-0.054652084 0.1696361 0.16522971 0.17234015 0.24335615 0.17503764 0.16627811 -0.30734134
0.18692732 0.039528564 0.15028536 -0.27203658 0.15628552 0.04623427 0.19044973 0.15910412
0.17490008 0.0736921 0.1642883 0.14583531 -0.3260136 -0.10930105 0.030870194 0.1540818
-0.119755894 -0.07425947 0.25769606 0.14022492 0.19347842 0.20311902 0.32031274 -0.27400625
0.08572539 0.064982325 0.20464371 0.15951882 0.17213717 0.15790413 0.005293929 0.047753315
0.12127088 0.13631439 0.15642789 0.19414908 0.24346918 0.18150806 0.16072313 0.13875686
0.20156829 0.15863517 0.12378521 0.1813783 0.19988935 0.19038627 0.17520232 0.13534807
0.25976443 0.12233675 0.19931947 0.1834384 0.13815889 -0.25129604 0.16105899 0.14633808
-0.21388012 0.14112979 0.22323002 0.19749239 0.03716823 0.1813801 0.16537678 -0.11112415
0.17837691 0.37517813 0.15624799 0.30320388 0.15188353 0.33022436 0.16830686 0.17960067
0.17246032 0.20043202 0.108486176 0.15231696 0.1508255 0.027194576 0.1335852 0.1656554
-0.36443803 0.2370912 0.14267097 0.1687535 0.17242834 0.19156434 0.08892736 -0.26063508

output.bias f4 [4]
00000000: ce84 533f 181c 433f f3f4 503f f9ac 3f3f
0.8262452 0.7621474 0.8162376 0.7487331

exp_avg f4 [64, 37]
00000000: dedc a0bb 1efa 1c37 c6d3 20ba aba3 c1b9
00000010: eea3 94ba d170 15ba 49ba 48ba 8ce7 32bb
00000020: ae27 eeba 9291 d5ba 4b5f f8ba a73f e8ba
00000030: 81c6 07bb bc02 17b9 72a8 17bb 66e8 01bb
00000040: b72f 01bb 042d 09bb 84ef 2b39 7a1b 4bbb
00000050: 13fb 1cba f137 daba b789 d9ba 8d66 00bb
00000060: d019 e3ba 8813 11bb 8e15 e6ba 6e1e 19ba
00000070: 7940 aeba d8f7 f4ba dfd8 19ba cd3a d8ba
00000080: db25 0bbb 5e99 c7ba 773b 06bb c49d 31ba
00000090: 3ee5 c1bc 21fe 62ba 40c2 d8b9 8c4e 9bb7
000000a0: 3641 0638 2193 06ba cdef a738 2fbb 4aba
000000b0: 7811 c2b9 c43e 54b9 a896 f0b9 e5bb e7b9
000000c0: 5b80 bfb8 b2c1 feb9 994d 81b9 7d67 98b9
000000d0: 2c86 edb9 0858 1dba d48e 47b9 d9d9 bab7
000000e0: a979 ddb9 7bf5 1e38 37ff cfb9 2263 9eb9
000000f0: cd93 1eba 8dba aeb9 1c1f eb37 390a 85ba
00000100: b27c 52b9 e9d7 a3b8 d1a4 0fba 505e 36b8
00000110: 87d8 35ba db03 33ba 98b2 2139 1064 43ba
00000120: 9394 5bb9 8cd4 53bb 42b2 d537 af25 8839
00000130: 09b7 4eb7 0fa3 ab32 1320 a738 0400 0080
00000140: f963 ae39 dd43 75b8 cab2 adb5 a8fd 7538
00000150: 49e1 d0b7 8227 9c39 d37b 5438 f3d8 54b8
00000160: 8f1e 0139 0400 0000 c703 8039 13a2 f037
00000170: cfad 70b0 5b5f 1138 6285 432d 9f07 1e39
00000180: 70e9 0a39 cd57 2db7 a4be fb37 0400 0000
00000190: 8d16 8f39 3a36 9d31 d8f6 95b3 62de 2638
000001a0: 0400 0000 cb4b b839 3126 71b8 a493 b1b7
000001b0: dbd8 c538 2d0a 5f37 eb54 0839 b4ee b4bb
000001c0: 0400 0000 9b24 c036 9c2a eab8 27bb 1bba
000001d0: f4fb 333a 11e1 053a 5496 9cbb 4619 06bb
000001e0: d368 e8ba f37d 82bb 1a2c ed39 2051 13bb
000001f0: 5d8d 1d39 26ee a4ba 62fc afba fd7e 56bb
00000200: a040 30bb 46de db3a e0f5 4abb 60ea 09b9
00000210: 2a42 753a 597e 45bb 3a02 60bb 8a0f c5ba
00000220: b751 36ba 6b3a 24bb 8fcf 1cba e097 efba
00000230: 3da7 1fbb e089 15ba 7d38 d3ba 63d3 0ebb
00000240: 28f9 a5ba f7a4 44bb 82e8 1c3b 127f 74bc
00000250: fd51 3a3b a932 cfbb 3132 35bb e9fb 383a
00000260: 85e3 e0ba 1bf1 afbb 0400 0000 0400 0080
00000270: f944 32b9 5893 2eb9 661c b1bb 897e f938
00000280: 7fb0 10bb cd16 003b 590d 1cbb 1d90 4fba
00000290: 07f8 73bb 4aa2 38ba 590f a8b9 8164 3fba
000002a0: 34fe aaba 6bbb ebba 2657 c4b9 d61e 07bb
000002b0: a5db bcba 396d 8dbb 760a dbba 13c4 403a
000002c0: 1bbf 96b9 ef5b 7dba 3192 c2bb 32ef 2f3a
000002d0: 3aab 95ba a9de 633a d929 8dba bdcd 183c
000002e0: 53c0 063d 7b2f 24ba 34d3 8fb9 7c0c cab8
000002f0: cbee 6c38 5622 e9b9 8489 8139 52b3 37b9
00000300: 6a1f bcb9 f253 2bba 7eb0 5bb9 351a 9bb9
00000310: 9c29 053a c203 3eba f348 e0b9 7057 c1b8
00000320: 01e6 80ba e475 aab9 cbe0 8cb8 ad2e e439
00000330: 2cac efb9 2e38 f4b8 6546 8538 865a 6ab7
00000340: 1704 65ba 138f b1b7 ecf7 cdb9 80e2 00ba
00000350: fd82 1d39 fd37 58b9 be43 7ab9 571a 4f39
00000360: 3767 b9b8 b51c 32ba 6511 c2b9 c9b6 b0b9
00000370: 7523 1b3a e95c 1b39 ed46 8a39 839b 35ba
00000380: fb12 be38 cf25 cfb6 6d50 8bb6 0cc5 d8b6
00000390: 5491 97b9 2a70 df38 331f 23b9 a39d b1b8
000003a0: 8a81 98b8 a20d 41b7 1540 62b9 a3f8 3ab8
000003b0: 8137 a237 c6f8 45ba 9b73 14ba 2acc 6d39
000003c0: 5da5 443a 13c3 0bba 83db ad38 6f28 32b9
000003d0: d867 5eb9 71b5 3eb8 2134 9ab8 5aa0 22b9
000003e0: b411 c1b9 7214 5039 a704 a5b7 1367 7639
000003f0: 600a 8db9 d018 5538 8f29 2ab9 d8a0 1638
-0.004909142 9.3565595e-06 -0.00061350723 -0.0003693377 -0.0011340359 -0.000570071 -0.0007657153 -0.0027298657
-0.0018169784 -0.0016293994 -0.0018949298 -0.0017719165 -0.0020717683 -0.00014401501 -0.0023141173 -0.0019822358
-0.0019712278 -0.0020931372 0.00016397057 -0.003099172 -0.00059883407 -0.0016648752 -0.0016596828 -0.0019592375
-0.0017326418 -0.0022136886 -0.0017554031 -0.0005841021 -0.0013294361 -0.0018689586 -0.0005868803 -0.0016497016
-0.002123228 -0.0015228202 -0.002048222 -0.0006775523 -0.023668882 -0.0008659084 -0.00041343458 -1.8514016e-05
3.2008822e-05 -0.0005133618 8.007847e-05 -0.0007733581 -0.0003701558 -0.00020241278 -0.00045888615 -0.00044199746
-9.131498e-05 -0.0004859097 -0.00024662612 -0.00029068804 -0.00045304128 -0.00060021924 -0.00019031327 -2.2274371e-05
-0.0004224305 3.7898757e-05 -0.00039672267 -0.00030209968 -0.0006049246 -0.00033326857 2.802867e-05 -0.0010150141
-0.00020073613 -7.812662e-05 -0.00054795766 -4.3480017e-05 -0.0006936867 -0.00068288826 0.00015420688 -0.000745357
-0.00020940816 -0.0032322733 2.5474586e-05 0.00025968018 -1.2321173e-05 1.998117e-08 7.969155e-05 -6e-45
0.00033262352 -5.8475754e-05 -1.2941539e-06 5.8648788e-05 -2.4900439e-05 0.00029784074 5.066006e-05 -5.074679e-05
0.00012313783 6e-45 0.00024416877 2.8685701e-05 -8.755849e-10 3.46595e-05 1.1114084e-11 0.00015070893
0.00013247668 -1.0332046e-05 3.0010306e-05 6e-45 0.00027291887 4.5754662e-09 -6.983254e-08 3.9784594e-05
6e-45 0.00035151685 -5.7494446e-05 -2.1168795e-05 9.4340845e-05 1.3294205e-05 0.00013001605 -0.0055216197
6e-45 5.7263073e-06 -0.00011165926 -0.00059406686 0.0006865852 0.0005107085 -0.0047786627 -0.0020461841
-0.0017731435 -0.0039822995 0.0004523702 -0.0022478774 0.00015025349 -0.0012583181 -0.0013426656 -0.00327295
-0.0026893988 0.0016774617 -0.0030969307 -0.0001315265 0.00093558675 -0.0030135124 -0.0034181015 -0.0015034538
-0.00069549255 -0.0025059234 -0.00059818564 -0.0018279515 -0.0024361156 -0.0005704444 -0.0016114857 -0.0021793477
-0.0012662755 -0.0030005553 0.0023942296 -0.014922874 0.0028430216 -0.006323178 -0.0027648325 0.00070565805
-0.001715765 -0.005369318 6e-45 -6e-45 -0.00017001097 -0.00016648823 -0.0054049967 0.00011896814
-0.0022077856 0.001954484 -0.0023811667 -0.0007917898 -0.0037226693 -0.0007043226 -0.00032054892 -0.0007301048
-0.0013045729 -0.0017984932 -0.00037448964 -0.0020617745 -0.0014408721 -0.004315999 -0.0016711492 0.0007353436
-0.00028752614 -0.0009664883 -0.0059378375 0.0006711363 -0.0011418827 0.0008692542 -0.0010769918 0.009326396
0.03289826 -0.00062631787 -0.00027432444 -9.634436e-05 5.6489178e-05 -0.00044466805 0.00024707254 -0.00017519042
-0.0003588156 -0.0006535641 -0.00020951216 -0.0002958343 0.00050797476 -0.0007248485 -0.0004277896 -9.219244e-05
-0.0009834172 -0.00032512762 -6.717591e-05 0.00043522325 -0.0004571391 -0.00011645291 6.355046e-05 -1.39685635e-05
-0.0008736266 -2.1166668e-05 -0.00039285363 -0.00049165636 0.00015021484 -0.00020620222 -0.00023867094 0.0001975087
-8.840713e-05 -0.0006794439 -0.00037015523 -0.00033705521 0.0005918064 0.00014816564 0.00026374255 -0.0006927775
9.0634414e-05 -6.1734822e-06 -4.1518856e-06 -6.460241e-06 -0.00028909242 0.00010654361 -0.00015556514 -8.46938e-05
-7.272053e-05 -1.1506871e-05 -0.00021576912 -4.4577417e-05 1.9337751e-05 -0.0007552024 -0.00056629785 0.00022678138
0.00075014477 -0.00053314975 8.29017e-05 -0.00016990466 -0.00021210255 -4.546851e-05 -7.353002e-05 -0.0001550926
-0.00036825018 0.00019844042 -1.96717e-05 0.00023498786 -0.00026901346 5.0806266e-05 -0.00016227945 3.5912584e-05

exp_avg_sq f4 [64, 37]
00000000: 2c79 5d38 c23f 9034 2190 1137 56ff 0f37
00000010: 3181 bf36 1724 4937 cb2d 9337 e8fc c837
00000020: 48f1 7737 c867 8837 ceb6 2c37 97e4 c137
00000030: cee4 d937 d5bd 1637 8ba1 8637 55bb f737
00000040: 4d3b 9537 c800 8237 99d4 d736 1ac7 8737
00000050: c7f3 7d37 e027 c637 c3a2 b037 09a3 2937
00000060: c615 9437 8dbe 2838 4ba2 6937 dddc 3337
00000070: 75a3 ab36 a323 2b37 bbbe 0537 1dd9 af37
00000080: 5c9d fe37 7508 4337 b885 8037 df0f ab38
00000090: c581 f53a e538 5436 95ee 0736 d0f1 0336
000000a0: a452 8c35 62e1 ae35 f5cd 6536 f003 3536
000000b0: 3efb b135 f8b4 3a35 17e9 0236 20fc 1e36
000000c0: dfa4 1636 a425 1236 54f6 9e35 f5f2 d235
000000d0: 2078 8936 fa4f 8a35 6f4d 0536 8906 7735
000000e0: 83a3 5735 78a0 e635 d2b2 0636 029c 1b36
000000f0: a139 ec35 6315 c835 ef82 4436 04c5 1e36
00000100: 2269 d035 11cd ac35 2d0b b435 7d97 d635
00000110: 324c 3036 f790 4c36 55ef 5735 7daa f535
00000120: f3e5 2e37 ae5b 5239 eee2 2b34 289e f635
00000130: 880c 8835 3720 0733 100e 3234 5176 0932
00000140: 61da 3736 c227 5034 4ac5 3933 e021 ab34
00000150: 4c2a 5735 425a b535 0443 4835 93c2 0034
00000160: 2a68 2a35 bbb8 b431 33df 0836 7cd5 7535
00000170: 08d0 a532 7b5d 1234 236e 9d33 815d c935
00000180: dce6 9c35 2041 8f34 b460 cb34 6c7a 042c
00000190: af93 3436 0547 9834 2995 3532 f357 8e34
000001a0: 2207 8131 8f1b 3136 7303 8634 8f4b c133
000001b0: 08d1 5835 836f 8f36 6592 7938 f9f0 bf39
000001c0: 4bf2 5a2e a6e4 9d34 283a 9b37 77d8 9336
000001d0: 1c68 e438 acac f438 1f31 a438 b398 8238
000001e0: ec46 c038 0cf4 ab38 427b c338 a6da f338
000001f0: 6590 8e38 8f2f 8538 85b0 6439 9184 9538
00000200: 895a 4838 d139 1638 1e55 3438 3852 0c39
00000210: b6d9 bf38 60b1 cb38 307d 3038 05c2 b638
00000220: 2938 0339 a176 fc38 d518 a438 4b07 2938
00000230: f280 9d38 9b20 c538 3b5f d438 5762 0439
00000240: 3934 3638 99a0 9a38 d0da 243a 8bda 153c
00000250: d385 8a39 be5a f539 7460 ce39 f133 d438
00000260: e43f 9539 63a7 a23a a4f3 aa2f 4638 1322
00000270: 751a a636 d0ca a737 6ea0 b239 44c7 a239
00000280: 6eed be39 6ca8 2939 22c8 9439 6ec7 d939
00000290: 6868 b039 93b2 be39 25ca d038 23ab 6039
000002a0: b6dc bd39 901a a539 09c4 b739 b2d0 1839
000002b0: ff89 9339 10d1 2d3a 2e93 5c39 6b9f 7a39
000002c0: a863 8f38 3306 1239 71ca 1f3a 69ab 5739
000002d0: 510d 4f39 761d 2139 2f9a 2239 31b9 383a
000002e0: cf5d 623d f274 b437 edae 2d37 1635 7d36
000002f0: bcf2 3035 741e eb36 8dae d737 a237 a036
00000300: fd6c 3b36 715e 4b36 9572 ab36 55ed 2537
00000310: cd3e c936 2ad4 7a37 495a 8736 187e fe36
00000320: 07c5 ae37 bb12 f736 396a c036 80e2 0f36
00000330: 5af5 9936 19ec 4837 4cda b236 bcd7 3c37
00000340: 13e1 ce36 3f64 f336 bd95 b237 fdd9 9836
00000350: d99f f836 0e2c 0f36 2eb7 aa36 b4d1 8637
00000360: 4cdb aa36 15fe 0e37 6a60 ab36 f417 de36
00000370: 7af1 1e38 7b4a b23a 9822 7a37 3755 e836
00000380: c0f9 db36 8636 a336 66de d136 e66b dc37
00000390: dd63 8b36 7c91 c835 9b43 c235 ce06 0d36
000003a0: e541 db36 853c 8137 69f6 1337 66dd b535
000003b0: 5e29 1437 fd81 5737 9ea6 c036 644d 1d37
000003c0: 9d3d 8c36 610a 8f36 d8e4 bc36 e2c9 7037
000003d0: a86d 2b37 38ad 2936 87bb ed36 42fa 9837
000003e0: 9d8f c536 d259 b436 0045 3a36 ce43 4536
000003f0: b179 9f37 09c9 0e37 9198 1c36 826e 3136
5.2803356e-05 2.686848e-07 8.676231e-06 8.582914e-06 5.7072834e-06 1.1988936e-05 1.754509e-05 2.3959627e-05
1.4778525e-05 1.626079e-05 1.0294561e-05 2.3113838e-05 2.5974961e-05 8.984895e-06 1.604927e-05 2.9531928e-05
1.7789798e-05 1.5497571e-05 6.432249e-06 1.6185968e-05 1.5136734e-05 2.3622008e-05 2.1056627e-05 1.0111145e-05
1.7653114e-05 4.0231786e-05 1.3925669e-05 1.0720655e-05 5.115226e-06 1.0200692e-05 7.971826e-06 2.0962727e-05
3.0352436e-05 1.1624875e-05 1.5321057e-05 8.1568716e-05 0.0018730691 3.1623579e-06 2.025544e-06 1.9661275e-06
1.0454864e-06 1.3029605e-06 3.4243542e-06 2.6973394e-06 1.3260649e-06 6.9553744e-07 1.9507186e-06 2.369059e-06
2.244771e-06 2.1777605e-06 1.1843608e-06 1.5716929e-06 4.0969026e-06 1.0305077e-06 1.9863617e-06 9.202418e-07
8.033168e-07 1.7183038e-06 2.0071643e-06 2.3187608e-06 1.7600142e-06 1.4907386e-06 2.928249e-06 2.3658513e-06
1.5527805e-06 1.2874681e-06 1.3414298e-06 1.5988331e-06 2.6270395e-06 3.048275e-06 8.0442015e-07 1.8303541e-06
1.0424747e-05 0.00020061314 1.6008173e-07 1.8374458e-06 1.0136437e-06 3.1461436e-08 1.6582658e-07 8.001352e-09
2.7396238e-06 1.9385973e-07 4.3253102e-08 3.187588e-07 8.015529e-07 1.3511819e-06 7.4603327e-07 1.1991715e-07
6.3481514e-07 5.259691e-09 2.0395498e-06 9.1580273e-07 1.930313e-08 1.3631318e-07 7.330916e-08 1.500288e-06
1.1690095e-06 2.668321e-07 3.7882057e-07 1.8826286e-12 2.6908053e-06 2.836388e-07 1.0569502e-08 2.6513553e-07
3.755205e-09 2.6391097e-06 2.4961955e-07 9.001007e-08 8.077045e-07 4.274714e-06 5.9502567e-05 0.00036609898
4.978266e-11 2.9409892e-07 1.8504521e-05 4.406141e-06 0.00010891279 0.00011666989 7.829279e-05 6.2273255e-05
9.168484e-05 8.199373e-05 9.321283e-05 0.000116278694 6.797983e-05 6.350793e-05 0.00021809533 7.129566e-05
4.7768033e-05 3.5816633e-05 4.2994616e-05 0.0001338207 9.1481415e-05 9.712833e-05 4.207826e-05 8.714575e-05
0.00012514055 0.00012038393 7.824755e-05 4.0299532e-05 7.510361e-05 9.399765e-05 0.00010126686 0.00012625135
4.3440818e-05 7.373206e-05 0.0006288709 0.009146343 0.00026421118 0.0004679765 0.00039363245 0.000101186226
0.00028467097 0.0012409504 3.1095937e-10 1.9952006e-18 4.9502655e-06 2.0002393e-05 0.00034070335 0.00031047512
0.00036416523 0.00016179838 0.0002837787 0.00041538052 0.00033647125 0.00036372672 9.955865e-05 0.00021426058
0.00036213332 0.00031491043 0.00035050538 0.00014573595 0.0002814084 0.0006630579 0.00021035664 0.00023901246
6.837334e-05 0.00013925954 0.0006095535 0.00020567853 0.00019746019 0.00015365132 0.00015506962 0.00070466386
0.055265244 2.1512129e-05 1.0352332e-05 3.7730838e-06 6.5918334e-07 7.007091e-06 2.5711279e-05 4.774848e-06
2.792861e-06 3.030433e-06 5.1095362e-06 9.890025e-06 5.997578e-06 1.49505595e-05 4.033824e-06 7.584469e-06
2.0834164e-05 7.363354e-06 5.734412e-06 2.14405e-06 4.588318e-06 1.19759e-05 5.3302265e-06 1.1255903e-05
6.1654805e-06 7.2536345e-06 2.128898e-05 4.55533e-06 7.4095847e-06 2.1334304e-06 5.0877197e-06 1.6071695e-05
5.0919243e-06 8.523018e-06 5.107421e-06 6.618904e-06 3.7895028e-05 0.0013602519 1.4909216e-05 6.924059e-06
6.5557833e-06 4.864126e-06 6.254576e-06 2.6276288e-05 4.1541484e-06 1.4943503e-06 1.4473802e-06 2.1014598e-06
6.5343797e-06 1.540618e-05 8.819255e-06 1.3549986e-06 8.831119e-06 1.2845264e-05 5.7414427e-06 9.375948e-06
4.179498e-06 4.2629404e-06 5.6294775e-06 1.4352119e-05 1.0217926e-05 2.528379e-06 7.0849815e-06 1.8236347e-05
5.8877763e-06 5.3748745e-06 2.7756323e-06 2.9394755e-06 1.9010944e-05 8.510667e-06 2.3334617e-06 2.643938e-06

exp_avg f4 [64]
00000000: 14c3 c0bb d1ea a5ba cb0d 8f39 5667 b8bb
00000010: 4283 b5bb ba8b 76ba f2a7 b4b9 29b0 44ba
00000020: 0ee2 e1ba 3ed8 81ba f222 36bb b288 c6ba
00000030: 296b a83a 5fc9 d2ba 58cb d83a dd21 1eb9
00000040: e96d 5cba 9714 38b9 ef95 9dba cc7c 66ba
00000050: a815 a239 f9c1 8738 55aa 02bc aaa9 3cba
00000060: 97d4 bdb5 bea0 9eba ec55 ddba 6bd2 3038
00000070: a242 3dbb 3aa9 08bc 95ee 8139 7826 3c39
00000080: 1af1 b63a a11d bdba a38d 60ba 53ed 0bbb
00000090: da4b 6a3a f8d0 1fbb 5dda aaba b3f7 66bb
000000a0: 19fb 4dba 112a 20b9 033b 873a 49bd c9ba
000000b0: 94be 45bb 7185 69bb 34c6 c5bb fa1e d638
000000c0: 9850 30bb 8f0d d438 c8a4 4bba e83c 4439
000000d0: b780 8c3a 675e e6bb 1c94 cdba 2f89 a4ba
000000e0: 289c 0838 d030 d2ba f7b0 9eb9 ac5b 1cba
000000f0: 0ddb 1839 689c 6839 e0f9 3fbc 198d 26bb
-0.00588263 -0.0012658482 0.00027285362 -0.005627553 -0.005539329 -0.0009404976 -0.00034457404 -0.00075030565
-0.0017233507 -0.0009906364 -0.0027791825 -0.001514694 0.0012849319 -0.0016081742 0.0016540093 -0.00015080669
-0.0008408712 -0.00017555278 -0.0012022833 -0.00087924 0.00030915183 6.473432e-05 -0.007975181 -0.0007196913
-1.4143469e-06 -0.0012102348 -0.0016886569 4.2157637e-05 -0.0028878828 -0.008341128 0.00024782555 0.00017943408
0.0013957352 -0.0014428386 -0.00085660274 -0.0021351173 0.00089376944 -0.002438603 -0.0013035048 -0.0035242855
-0.0007857546 -0.0001527446 0.001031727 -0.0015391494 -0.0030173408 -0.0035632516 -0.0060355905 0.00010210085
-0.0026903506 0.00010111473 -0.000776839 0.00018714706 0.0010719512 -0.0070302966 -0.0015684399 -0.0012553091
3.257036e-05 -0.0016036276 -0.00030267957 -0.0005964588 0.00014577452 0.0002218351 -0.01171729 -0.002541369

exp_avg_sq f4 [64]
00000000: 5020 9838 653d 0637 2d06 4736 5e6a c939
00000010: 013c a33a 7e68 1738 f8e5 0938 1fee e636
00000020: 52eb a038 3ab5 a537 0cbf 1d38 0ce7 1d38
00000030: 8dd5 4c37 d68f 8238 2709 e537 aa86 5c36
00000040: f9ca c237 cf87 7d37 e830 e838 6fa2 0337
00000050: 188e cd37 053c 8d36 2a57 0a3a 2de3 6d37
00000060: 21be 8f38 be8f a238 aadb f537 6d03 4537
00000070: 834b 8938 ee89 7e3a 2851 e536 113b 1635
00000080: eaea cb37 d134 cc38 9348 8137 e191 7838
00000090: 158c 2137 65e6 b538 6cf4 4b38 a42b 1839
000000a0: 8cc8 1e38 b4a8 3637 60c5 0a38 1d96 b138
000000b0: dc9a 8839 b493 5138 991d 093a ebe3 1a37
000000c0: e4e2 7339 0e2f 1338 cbb6 5e37 11e2 b937
000000d0: dc74 ad37 a0f6 923a 312d 4b38 edfe d836
000000e0: 6672 2437 8942 1f38 9fb5 4538 c57c 1137
000000f0: c952 7b37 0675 1137 a821 903a 9660 2f39
7.2539435e-05 8.001317e-06 2.9656906e-06 0.00038416957 0.0012453796 3.609852e-05 3.287752e-05 6.882255e-06
7.673226e-05 1.9753923e-05 3.7609643e-05 3.7646896e-05 1.2209069e-05 6.2256746e-05 2.730319e-05 3.286094e-06
2.3221119e-05 1.51115955e-05 0.000110717316 7.846028e-06 2.4504072e-05 4.2091146e-06 0.00052772707 1.4179194e-05
6.8541856e-05 7.751536e-05 2.9308565e-05 1.1742913e-05 6.546734e-05 0.0009709884 6.8341797e-06 5.596531e-07
2.4308876e-05 9.737316e-05 1.5411793e-05 5.9263668e-05 9.628963e-06 8.673667e-05 4.8626607e-05 0.00014512107
3.785691e-05 1.0887325e-05 3.3085584e-05 8.4679785e-05 0.0002605532 4.9967042e-05 0.00052305456 9.232182e-06
0.00023258809 3.5091354e-05 1.3274791e-05 2.2158989e-05 2.0677624e-05 0.0011212416 4.844106e-05 6.466979e-06
9.801797e-06 3.797052e-05 4.7137608e-05 8.671724e-06 1.4980041e-05 8.66992e-06 0.0010996358 0.00016725282

exp_avg f4 [64, 64]
00000000: 142c 88b7 4e09 61b9 d0c7 9cb8 8caf b537
00000010: 3cad 61b9 a7fa 4ab8 bb0d 8cb9 cb39 2cb9
00000020: 7dae c9b9 dea0 ef37 b746 3eb9 5c5e 99b9
00000030: 3b1b bcb7 3f0b 13ba 477c e738 e34a 19b7
00000040: c290 a5b8 22fb b0b9 db43 19b9 b42e a7b8
00000050: 23c0 50ba 4677 6db5 b753 84b8 e3ba e937
00000060: 5eef fcb9 2c8e 63ba 272b 3bba 6703 d8b7
00000070: 2f30 3fba af45 f7b8 14dd 57b8 8c51 3236
00000080: 7226 e0b8 c7fb 3ab7 f59c fc36 ee73 1fba
00000090: a1be 0c39 e349 52b9 2a3f f8b6 d1cd d2b8
000000a0: face 20ba 9d3f e8b8 39e0 dfb9 f5d3 bf38
000000b0: 5d03 d835 ce09 9db8 d927 ecb7 4f6e 0838
000000c0: b05a 03ba ba56 35ba 7159 1239 1792 2938
000000d0: 102b 46b8 4151 05b5 ce2a ae32 385d ddb7
000000e0: 72ff 0d37 0aad 45ba 9d4d e1b9 2698 c238
000000f0: 53a5 e0b8 a4a8 13b7 d8c1 3eb8 6048 e2b9
00000100: 38a7 6638 f736 20b9 e495 a335 526f dc37
00000110: 3c3b bfb9 5f8c 16b9 eaaa 05ba c59a 84b8
00000120: c274 1bba 2f1a 87b8 654e 21b9 f87a 95b9
00000130: d644 55b8 0c4f 13ba f23c 1f38 0da2 c5b7
00000140: 28f0 44b9 19f6 b3b9 3149 5eb9 71b1 bab8
00000150: b65a 2bba 0e9a 5ab5 0a1a 46b7 0fb4 4eb8
00000160: 50ee 27ba be7a 70ba 3b90 18ba 9c0d 7c37
00000170: db0a 28ba b6f7 aab8 564c 32b8 c582 76b5
00000180: 7a1c 51b9 b4aa 16b8 3412 a2b8 85df 03ba
00000190: 5a57 37b9 27a3 ceb8 85c1 d3b6 1e17 42b9
000001a0: a6b3 07ba 6f54 f9b7 6046 d8b9 1f95 4538
000001b0: 25b0 0fb4 4ca0 1bb9 756c f4b6 e35c 3c38
000001c0: c2c4 11ba 5127 8fba 22ea 8238 100e 24b7
000001d0: 669b eeb7 84eb 13b9 5456 9236 7171 5f37
000001e0: 4c91 0437 3d51 71ba 5f77 45ba 99e3 a638
000001f0: cd10 27b7 e1f7 5fb6 d2d8 a6b8 410f 61b9
00000200: 57bb 11ba e8c8 7aba 2162 0bb9 e099 45b9
00000210: e5f0 b9b8 3206 aeb9 9b77 11b9 7afa 90b9
00000220: c737 c8b9 483b 23b9 986b 12ba 389b d9b9
00000230: 8320 0db7 9089 ebb9 3d50 b7ba b15a 2eb7
00000240: b372 96b9 f5af adb9 3d35 9db9 0106 4ab9
00000250: d5f2 29b9 bcbe 8a36 d9b6 a1b9 58fc 8db9
00000260: 788d 82b9 de74 2fba a1f4 51bb 9cf7 7c39
00000270: 9a5a 89ba c8f0 22b9 05cd 40b8 b7ab d338
00000280: c2b9 b6ba d631 40b9 76a9 f4ba 3a46 72ba
00000290: d7fe d8ba 3132 1eba aa6f 7ab9 f235 b1b9
000002a0: b293 46ba 8661 2fb9 a0e7 04ba 83b0 19b9
000002b0: c2c7 fbb7 f9b1 c1b9 465c 31b9 daf8 7e37
000002c0: 7900 c8b9 a354 c2ba b578 81b9 7737 9d38
000002d0: ffb0 80b9 ffc7 afb9 9279 1a3a 765b a1b9
000002e0: ac93 d5b6 afd8 78ba 840a 64b9 ae63 1eba
000002f0: 789b 14b9 a448 54b7 2f3f 52b9 5b96 2dba
00000300: 6fe0 24ba be64 4bba 2800 01b9 1988 79b9
00000310: b57f 88b8 5e90 83b9 e527 08b9 5055 8eb9
00000320: 7c40 17ba 2653 96b9 69fd 1aba eb7b b2b9
00000330: 68e9 1c39 e748 b9b9 019f a0ba 378e a537
00000340: eca6 49b9 52ba 4bb9 552d 9bb9 0b6d 44b9
00000350: 9814 b537 3947 1736 ca09 7db9 bf4e 83b9
00000360: 77ff 6cb9 231a f4b9 5dec 2bbb c93e 8539
00000370: 8be6 6dba ede7 1bb9 dd41 b1b8 cfb6 b238
00000380: 94f0 97ba 01d3 94b9 1fad e3ba 54a9 59ba
00000390: 474d b5ba 885f 01ba ea4c 55b9 03b3 d4b9
000003a0: 9de6 1cba 9e1e 97b7 c803 b3b9 3a71 5bb9
000003b0: f47c d6b8 2551 e2b9 3eb0 e7b8 a829 ea37
000003c0: 0387 95b9 6af9 aeba d171 73b9 1894 7e38
000003d0: 3b59 6fb9 ef59 7cb9 2c96 103a 2bb8 17ba
000003e0: 982e bdb6 b993 65ba 1238 45b9 5355 1aba
000003f0: 2d38 3cb9 a3f6 49b7 4961 0cb9 1c4f 14ba
-1.6232989e-05 -0.00021461138 -7.475878e-05 2.1658627e-05 -0.00021522207 -4.839399e-05 -0.0002671311 -0.00016424728
-0.0003846771 2.856593e-05 -0.00018146155 -0.00029252737 -2.2424027e-05 -0.0005609281 0.00011038087 -9.136947e-06
-7.894776e-05 -0.00033756444 -0.00014616495 -7.97188e-05 -0.0007963201 -8.8462946e-07 -6.3098436e-05 2.786279e-05
-0.00048243528 -0.0008680548 -0.0007139914 -2.575079e-05 -0.00072932517 -0.000117908574 -5.146589e-05 2.6571533e-06
-0.00010688313 -1.1145085e-05 7.5284574e-06 -0.00060826435 0.00013422455 -0.00020054686 -7.398329e-06 -0.000100519166
-0.00061343575 -0.00011074471 -0.00042700933 9.14707e-05 1.6094233e-06 -7.48817e-05 -2.8151948e-05 3.252766e-05
-0.0005010767 -0.00069175253 0.00013956965 4.0428797e-05 -4.7246984e-05 -4.96646e-07 2.0275731e-08 -2.6388661e-05
8.46373e-06 -0.00075407384 -0.0004297317 9.278981e-05 -0.000107119464 -8.8011475e-06 -4.548006e-05 -0.00043160003
5.4992008e-05 -0.00015279265 1.218807e-06 2.6277881e-05 -0.00036474492 -0.00014357407 -0.00050990155 -6.3230786e-05
-0.0005930179 -6.442179e-05 -0.00015383361 -0.00028511113 -5.0847266e-05 -0.0005619384 3.7965314e-05 -2.355969e-05
-0.00018781482 -0.00034324898 -0.00021198836 -8.902222e-05 -0.00065366493 -8.143551e-07 -1.1807782e-05 -4.928192e-05
-0.0006406056 -0.00091735634 -0.0005819832 1.5023539e-05 -0.0006410309 -8.1523714e-05 -4.25096e-05 -9.1832436e-07
-0.00019942402 -3.5921767e-05 -7.7281526e-05 -0.00050305604 -0.00017484781 -9.853235e-05 -6.3108187e-06 -0.00018509894
-0.0005176611 -2.972243e-05 -0.00041251164 4.710734e-05 -1.3381994e-07 -0.00014841667 -7.2843927e-06 4.49092e-05
-0.000556063 -0.0010921751 6.242494e-05 -9.778436e-06 -2.8444174e-05 -0.00014106749 4.361189e-06 1.3318248e-05
7.901643e-06 -0.0009205526 -0.00075327413 7.95789e-05 -9.957887e-06 -3.3373874e-06 -7.955883e-05 -0.00021463355
-0.0005559227 -0.00095666805 -0.00013292629 -0.00018844707 -8.8663575e-05 -0.00033192482 -0.00013872834 -0.0002765244
-0.0003818853 -0.00015566975 -0.0005585491 -0.00041505112 -8.411825e-06 -0.00044925185 -0.0013985705 -1.0392324e-05
-0.00028695687 -0.0003312823 -0.0002998504 -0.00019266458 -0.00016207558 4.134925e-06 -0.00030844545 -0.00027081626
-0.00024900935 -0.0006693135 -0.003203668 0.00024124834 -0.0010479272 -0.00015539222 -4.5967307e-05 0.000100932484
-0.0013940858 -0.00018329112 -0.0018666226 -0.0009242032 -0.001655544 -0.0006034701 -0.00023883456 -0.00033800263
-0.0007575109 -0.00016725631 -0.0005069915 -0.00014656973 -3.0014551e-05 -0.0003694443 -0.0001691441 1.519752e-05
-0.00038147325 -0.0014826249 -0.0002469473 7.4966745e-05 -0.00024545935 -0.0003352761 0.0005892749 -0.00030776457
-6.365086e-06 -0.00094927376 -0.00021747692 -0.0006042075 -0.00014172297 -1.2653098e-05 -0.00020050698 -0.0006621831
-0.0006289547 -0.0007758847 -0.00012302457 -0.00023797191 -6.508773e-05 -0.0002509383 -0.00012984833 -0.00027147913
-0.0005769802 -0.0002867218 -0.0005912395 -0.00034043132 0.0001496427 -0.00035340266 -0.0012254418 1.9735757e-05
-0.00019231037 -0.00019428998 -0.0002959768 -0.00018732638 2.1586471e-05 2.254221e-06 -0.00024131607 -0.00025044938
-0.00022601882 -0.0004655878 -0.0026233413 0.00025414515 -0.0009075186 -0.00014868351 -8.452286e-05 8.521752e-05
-0.0011592084 -0.0002838597 -0.001737032 -0.0008303125 -0.0013832235 -0.0004935195 -0.00020341916 -0.00040569165
-0.0005985292 -1.801486e-05 -0.00034144358 -0.00020927648 -0.000102275895 -0.00043166536 -0.00011047766 2.7914371e-05
-0.00028520086 -0.0013349478 -0.00023216686 6.0696242e-05 -0.00022826057 -0.00024066096 0.00055155414 -0.0005787636
-5.638063e-06 -0.0008757669 -0.00018808272 -0.0005887348 -0.00017950004 -1.2037958e-05 -0.00013387682 -0.000565754
