p1_navigation/D2DQN_20190206_v30_3eps_0.00score.pth (torch_old, 85176 bytes, 18 tensors)

hidden_layers.0.weight f4 [64, 37]
00000000: 0481 5b3c d26b 3b3d ee2f 28be bc4a dbbd
00000010: e135 89bd 0f60 4a3d 6c80 90bb 33ea f13d
00000020: 9998 48bd bad3 433d 374a 86bd 3e05 07bd
00000030: 85cc 22be efaa 20be 68af 7abd be8c 8a3c
00000040: 4c16 3e3d 5fe4 893d e298 d8bd 82fb a0bd
00000050: abba 923d b04f 0f3e 54af e5bd 1c82 bb3d
00000060: 241a cbbc c3de c93c a43a 0e3e d301 19be
00000070: fb57 ebbd 40e1 05bd dadd e7bd 728f 113e
00000080: 783f d3bd 16e9 9fbd f9c4 fcbd bf77 ffbd
00000090: 9753 d7bd a9f9 2d3e b86c 663b 1e6b 133e
000000a0: 52ae f3bc 0600 a0bd b7dd c43c 658e 1abe
000000b0: c0ea f3bd dcc6 a4bd ff94 db3d 5dc2 a23d
000000c0: c91e 7bbd 4535 0cbd 6732 de3d d44c 103e
000000d0: 2eb6 ab3d ffea 003b 771e cc3d 43dd 7cbd
000000e0: fd4f 363d 2009 38be 2457 babd 59c4 cabd
000000f0: 53a7 d33d 334c 5b3d 189c 97bd cdd7 293d
00000100: be4d 993d 9a34 103b 1e17 3e3a f512 133d
00000110: 202a ee3d 0fb1 ee3d 02df bbbd 0995 9ebd
00000120: 52c6 923d 039a c73d 46d4 fe3d 622b d93d
00000130: b3cb 433c cdb4 36be 891d c9bb fe50 a6bd
00000140: d09a 2cbe ada3 f23d 8d53 743d abf3 3bbe
00000150: 55c8 71bc dd0d 10bd 47f8 a4bd e7c3 b3bd
00000160: 4aca d33c 7ef4 cabd 66b2 e53c 74e7 b53c
00000170: b303 f83d 5d9f b83c 5d3d 2abe e103 01be
00000180: 6e0b 0b3d 24e9 a13c a83d 30be b3e8 e0bd
00000190: 908c 0a3e 7a77 763d 5575 babd f1f1 94bd
000001a0: 41f7 49be 25b1 9abc 3099 24be c7bd 2cbe
000001b0: aeaf 20bd 045d 613d c1ca 2dbd 26a8 a43d
000001c0: 5a88 f9bd e4c0 323e 351e bd3d 4a2e 09be
000001d0: 1ddf e4bc fe00 57bc 3267 303c 19ad 4a3d
000001e0: 5c88 253d d88d 083d 4b93 b4bd ec0c 033d
000001f0: c3fa 35be 6ce4 f1bd 45ce 3bbd 656d f6bd
00000200: c7c0 2dbc 9777 10be 5603 f2bc 9ef7 03bc
00000210: d575 dcbd 5fd1 b03c 189b ad3d 8e70 a6bc
00000220: bbbb 163d 6244 0cbd 6696 753d 1d97 c23d
00000230: 6dbb 0d3e 144e d03d 7101 293e 9351 35bd
00000240: 0578 17be 0cda 6cbd b170 c13d 3fd6 37bc
00000250: 3eca 8fbd ced6 18be a095 aabd 880d 22be
00000260: 242e a8bc e241 a33d 0d91 d93d 2cb9 d8bd
00000270: 22a5 dd3d 714d e7bd 0a7b 89bc d261 77bd
00000280: 9c39 253d 812f d5ba 420e 17be 8a55 d0bd
00000290: 7c25 48bd 744e b4bb a2cf afbc f5de b13d
000002a0: 01db 24be 44d2 f53c ac10 2a3e a270 2cbd
000002b0: 013f 093e 38ba 033e 920d 2cbe 53dd 963d
000002c0: 3ba3 433c 4d3c cdbd fd87 063e 0d24 b1bd
000002d0: 12c8 ad3c 5133 653c d69d ee3d fddd 8c3d
000002e0: fdc1 4c3d 6598 593d 702f b4bb 397d 83bd
000002f0: 4453 f8bd b336 d23d 3e1a fb3d ed3e 033e
00000300: 881d ccbd 4c79 963c 571c e7bd b358 a5bd
00000310: e44b bebd ffab a23d 399a c0bd b9b6 4c3c
00000320: 5500 c83c 4b96 fd3d 5bdd 1bbe 34c4 03be
00000330: d30a c8bd b121 163e b714 84bd 90bd 123e
00000340: 6107 853d 12cd 6d3c c3d2 ca3b 5396 86bc
00000350: 1a50 7d3d 395a 89bd 2d83 443c 5184 583c
00000360: 08e5 e7bd 5242 29bd ed15 c93d d28d cdbd
00000370: d596 073c fd53 343e 4747 423d 48ee e4bc
00000380: d8e9 02be d94d 9a3d 6da2 00be e33b af3b
00000390: ff7b 94bd 32cb f4bc efbf 02bd 7415 033e
000003a0: b535 563c ce4b 183e 16f6 d43b 6373 acbd
000003b0: f362 8d3d 9d37 c5bd 3aa3 b3bd 4000 483d
000003c0: 73d1 373d 4772 053e 330b 6cbd 0898 b1bb
000003d0: 3761 b13d e155 15be e810 e63d 50e9 16be
000003e0: a8e0 70bc ec17 303c b1d2 9fbd 105e 133c
000003f0: 6c7b 2b3e 3bdf 50bd fb8f 21be 11e6 9fbd
0.013397459 0.045757122 -0.16424534 -0.10707614 -0.0669973 0.049408015 -0.0044098403 0.11812248
-0.048973653 0.04780934 -0.06557124 -0.032963984 -0.1589833 -0.15690206 -0.061202437 0.016912814
0.046407983 0.067330115 -0.10576035 -0.07860471 0.0716451 0.13995242 -0.11215082 0.09155676
-0.024792738 0.024642354 0.13889557 -0.14942102 -0.1149139 -0.03268552 -0.11321612 0.14214876
-0.1031484 -0.078081295 -0.12342257 -0.12474012 -0.1051399 0.16989769 0.0035160016 0.1439633
-0.029746208 -0.078125045 0.024031503 -0.15093382 -0.119100094 -0.08045742 0.10721778 0.07947228
-0.061308656 -0.03423049 0.10849457 0.14091808 0.083843574 0.0019671319 0.09966748 -0.06173445
0.044509877 -0.17972231 -0.09098652 -0.099007316 0.10334649 0.053539466 -0.074028194 0.04146557
0.07485531 0.002200401 0.00072513695 0.03590675 0.116291285 0.11654865 -0.09173395 -0.0774327
0.07166733 0.09746172 0.12442832 0.10603978 0.011950421 -0.17842408 -0.006137554 -0.08120917
-0.16855931 0.11847625 0.059649993 -0.1835467 -0.014757236 -0.03516947 -0.08055168 -0.087776
0.025853295 -0.099099144 0.028039169 0.022205092 0.121100806 0.022536928 -0.1662497 -0.12599136
0.033946447 0.01976449 -0.1721102 -0.10981884 0.13530183 0.060172535 -0.091044106 -0.07272709
-0.19723226 -0.018883297 -0.16074061 -0.1686927 -0.03923004 0.055020347 -0.04242969 0.08039884
-0.1218421 0.17456394 0.09234277 -0.13396564 -0.02793842 -0.013122795 0.010766791 0.049481485
0.040413246 0.033338398 -0.088171564 0.031994745 -0.17771439 -0.11811146 -0.04585101 -0.12032584
-0.010605044 -0.1410812 -0.029542606 -0.008054642 -0.10764662 0.02158421 0.084768474 -0.020317342
0.036800127 -0.034244902 0.059957884 0.09501479 0.13841029 0.10171142 0.16504456 -0.04426725
-0.14791878 -0.057825133 0.09445322 -0.011220514 -0.070209965 -0.14925691 -0.0832932 -0.15825474
-0.020529814 0.079715505 0.10623369 -0.10582194 0.10822512 -0.11294068 -0.016782302 -0.060396023
0.040338144 -0.0016264768 -0.14751533 -0.10172565 -0.048863873 -0.0055025164 -0.021461312 0.08685104
-0.16099168 0.030007489 0.16607922 -0.042099603 0.1340294 0.12864006 -0.16802052 0.07366433
0.011940773 -0.10021267 0.13137813 -0.08649454 0.021213565 0.013989286 0.116511986 0.068782784
0.04998969 0.05312385 -0.005498819 -0.06420369 -0.12125257 0.10264339 0.12260865 0.12816973
-0.0996657 0.018368386 -0.11284702 -0.08073559 -0.09291819 0.07942962 -0.09404416 0.012494736
0.02441422 0.12382182 -0.15221159 -0.12867814 -0.097676896 0.1466129 -0.064492635 0.14330125
0.06495548 0.014514225 0.0061896755 -0.016429102 0.06184397 -0.06706662 0.011994165 0.01321514
-0.11322981 -0.041323014 0.09818635 -0.10036816 0.008275707 0.17610164 0.047431257 -0.027945653
-0.12784517 0.075343795 -0.1256196 0.005347715 -0.07250213 -0.029882047 -0.031921323 0.12801152
0.013074328 0.14872667 0.0064990623 -0.08420446 0.06903639 -0.09629748 -0.08771367 0.048828363
0.04487748 0.13031875 -0.057627868 -0.005419735 0.086611204 -0.14583541 0.11233693 -0.14737439
-0.014702 0.010747891 -0.07803858 0.008994594 0.167463 -0.05099414 -0.1577758 -0.078075536

hidden_layers.0.bias f4 [64]
00000000: 9421 113e fb21 7abc 11ea 2ebe a910 b1bd
00000010: 96d9 303e 399a d2bc b72c a0bd 51ba 283d
00000020: c549 c33c 3713 0cbe 940c ea3d 0d8b af3d
00000030: 55c8 ff3d af75 5b3d a88d 39bd 607f a4bd
00000040: 3d10 0d3d 9190 97bd 382f 423a ee10 3bbe
00000050: f08e 7abd 90f6 243d 2476 17bc 4c2b 97bd
00000060: 9b12 0ebe c16b 933d 6312 71bd 007d 2cbe
00000070: 525d 243e a13d 363d 500e b3bd 6065 30be
00000080: ba4b 2d3e c83c 76bd f4ae f1bd a67b 9f3d
00000090: d146 a7bd ba30 3ebc cae0 b2bd dc0d 15be
000000a0: 1558 cfbd d59e 2dbc d384 d0bd 31a1 3c3e
000000b0: ff52 8cbc 8b6b f1bd 7591 783d 9b67 0dbe
000000c0: 9680 d0bd d46a 143d b544 2bbe 2a75 cf3d
000000d0: dc04 963c 7302 dabd 957c 4abe b39d 4d3d
000000e0: 49ca 853d b5d9 6fbd 8d32 17be f447 10be
000000f0: 5291 6abc c98b 913a 6798 073d c379 003d
0.14172965 -0.015266891 -0.17081477 -0.08645756 0.17270502 -0.025708305 -0.07821029 0.04119331
0.023838887 -0.13679205 0.1142818 0.08571444 0.12489382 0.05357903 -0.04530111 -0.08032107
0.034439314 -0.07400621 0.0007407549 -0.18268177 -0.061171472 0.040274203 -0.0092444755 -0.07381305
-0.13874285 0.07198287 -0.058855426 -0.16844559 0.16051224 0.044492368 -0.08742964 -0.17226171
0.16923419 -0.06011656 -0.11800948 0.07787256 -0.08167804 -0.011608297 -0.08734281 -0.14556068
-0.10124222 -0.010596951 -0.10181584 0.18420865 -0.01712942 -0.1178809 0.060685594 -0.13809054
-0.10180776 0.03623469 -0.16725428 0.10129769 0.018312864 -0.106449984 -0.19774087 0.05019922
0.065327235 -0.05855723 -0.14765377 -0.14089948 -0.014316874 0.0011104281 0.033104327 0.03136612

hidden_layers.1.weight f4 [64, 64]
00000000: 5d28 7ebd eef0 203d ea22 853d a167 723c
00000010: 2afd b33d 89e8 efbd 14dc aa3d 7ab3 bc3d
00000020: 79da 793d 75bb 2bbc 9419 ecba fb9b 06be
00000030: 1d67 3fbd 1cb1 413c 5c30 26bc 51b7 da3d
00000040: ea3c c33d adf3 8c3d 4ff5 50bd 0cb3 babd
00000050: c558 05be c859 c53c d7ba 00be 2190 11be
00000060: 1cbd ddbd 4571 ebbd d440 8dbd d3b9 7cbd
00000070: f152 fcbd c679 f43d e095 e5bc a45c d43d
00000080: d6ab 58bc 9661 39bc 6c66 70bd 0888 ccbd
00000090: dad0 b3bd ddb9 b33d d590 8cbd 7c60 cabd
000000a0: 4162 f83d c055 10bd 6063 e8bd c16a a6bd
000000b0: 57b2 8dbd 8051 d4bd 0f0f f53d 672f 8e3d
000000c0: 0ac2 61bd a942 93bd c571 57bd 21e1 f4bd
000000d0: 1b37 113d 39c7 003c 135e 3abd da39 0cbd
000000e0: 1ab3 b53b fcf6 d73c 4ef1 a1bc 28f5 42bd
000000f0: 2565 14bd 6127 29bc b88e 09be 042a 1f3e
00000100: fa4d 73bd 27d4 943d 336d 73bd 64b2 b43c
00000110: b39f 503d 9438 ecbd 9930 823d 9e2f f2bd
00000120: e862 0f3d 9e08 523c 5074 873d d81f 133e
00000130: c2ba e83c 94f0 ce3c 4794 80bd 2720 9c3c
00000140: cc81 25bd 6b08 1c3d 6b15 6fbd de32 a73d
00000150: 89b0 cf3d 19be 683d 4a31 72bb 85c7 173c
00000160: 303f fbbd ec47 a63d 9eda b2bd 7147 843d
00000170: cc96 43bd 9ee4 5bbd d464 8fbd 652a c43d
00000180: ebe1 62bd 2916 1d3a eef2 753d ea88 4cbb
00000190: c8de c0bd 0bed c7bd f2ad 9abd 7d83 e93d
000001a0: d850 fdbd 4587 ab3d 62f2 163e 9aa9 f6bc
000001b0: 2f23 4ebd 4000 8ebd 1fa1 db3c d488 cd3b
000001c0: 1465 72bb 0023 8e3d bee7 963d 2437 f2bc
000001d0: 76da 273b 06f0 043e b019 6ebb c69e bb3c
000001e0: 6b50 46bd 27bb a13d 5d2b 2cbd e962 52bd
000001f0: 0a78 c7bd 6725 e0bc 54dc 203d 0e07 06bc
00000200: 6ea8 abbd 41e6 513d 4059 37bc f3d4 0c3d
00000210: fff0 d33d 9a26 46bd e951 b2bd d06d 80bc
00000220: a02d d0bc 8b83 92bd d378 2cbd 3023 31bc
00000230: 437f 133d 128b c63d 8964 a43d 2fae 96b9
00000240: 2e45 133c 153f b43c 7c23 1dbb a639 c7bc
00000250: 4dc2 163d 94cf eabd f5e5 0abe 00bb 043a
00000260: fb2b 1dbd c046 9ebd 24b8 12be f07b ab3d
00000270: 635d 43bc de8a 89bd 688f 50bd 2b01 bb3c
00000280: 2355 debd 9668 01bb 8212 ffbc 4621 003d
00000290: ced6 bf3c f30f dcbd b013 5d3d b804 a83d
000002a0: b029 a7bc 38ae 1e3d 38d6 41bd 4c62 27bc
000002b0: 7dc3 263d 187d 7bbd 994f 3c3d 7e87 0fbe
000002c0: 3e40 95bd 1d50 98bd b963 98bd aab5 a2bd
000002d0: 5160 06be 4847 083b 1aad 04bd b559 10be
000002e0: b8d1 cabc c44b 93bc cb7a 473d 7085 c8bd
000002f0: 3933 59bd 646d 743c 38d9 7e3d 77f8 12bc
00000300: ae32 f03c 7bfc ec3d a10f 28bd 59b9 c33d
00000310: abf0 c53d cfd6 febd d8ae b13c 40a4 853d
00000320: 31cf bbbc 113f 8d3d fac4 cdbb 4d97 b23d
00000330: c6b9 0dbc 9ebb a6bd 9bfe 7e3d 5e9a 213d
00000340: 31e4 ec3d 21fd b03c 9847 7f3d fe6e bb3d
00000350: 7464 b63b 5c41 8cbc 9ab0 89ba caae 97bd
00000360: dbd8 57bc 774b 6cbd 23fe 94bc b9a4 cfbd
00000370: 8007 733d 69ad ddbd dd54 8c3d fe57 ab3d
00000380: f628 03be bcca e73d 1bb7 c2bd eefd cbbc
00000390: cb0c 803d cd5b 15bd 5e92 ce3d 019f 70bd
000003a0: e009 97bc 089b bfbd 63a3 82bd 764f fe3d
000003b0: 09d5 bc3d d590 453c 9827 183a 1a75 efbd
000003c0: 7de0 bf3d 2702 38bc 9a68 58bd e5c9 e7bd
000003d0: b777 ad3d 520f 063e 3df7 973d db53 5f3c
000003e0: 462c cabd 04a4 ea3c 3209 143c 384c c93c
000003f0: cb8c 1bbd 22d6 b4bc 0d74 a13d 13bf 063d
-0.062050212 0.03929227 0.065008 0.014795215 0.087885216 -0.117142744 0.08342758 0.0921392
0.060999367 -0.010481705 -0.0018012994 -0.1314544 -0.046729196 0.011822011 -0.010143366 0.10679496
0.09533103 0.06882415 -0.051015195 -0.09116182 -0.13022144 0.024090663 -0.12571274 -0.14215137
-0.108270854 -0.11496214 -0.068971306 -0.061700653 -0.12320507 0.11937289 -0.028025568 0.10369232
-0.013224563 -0.01131477 -0.058691427 -0.099868834 -0.0878007 0.08775685 -0.06863562 -0.09881684
0.121281154 -0.035238028 -0.11347079 -0.081258304 -0.06918781 -0.103671074 0.11965763 0.06942635
-0.05511669 -0.07190449 -0.052598733 -0.119570024 0.035452943 0.007859998 -0.045499872 -0.03423486
0.005545032 0.026362889 -0.019768383 -0.04759708 -0.03622927 -0.01032433 -0.13433349 0.15543371
-0.059400536 0.07267027 -0.059430312 0.02205772 0.05093355 -0.11534229 0.063569255 -0.118254885
0.035006434 0.012819437 0.06613982 0.14367616 0.028409366 0.025261201 -0.06278282 0.0190583
-0.040406987 0.038093966 -0.058370035 0.08163999 0.10141093 0.056821916 -0.0036955648 0.009263878
-0.122679114 0.08119187 -0.08733104 0.06458939 -0.047751233 -0.053684823 -0.07001653 0.095783986
-0.055391233 0.0005992377 0.06004613 -0.0031209537 -0.09417492 -0.09762009 -0.07552709 0.114020325
-0.12368935 0.0837541 0.14740899 -0.03011017 -0.050326522 -0.069336414 0.026810227 0.0062724147
-0.0036986517 0.069402695 0.0736842 -0.029567309 0.002561239 0.12982187 -0.003633123 0.022902858
-0.048416536 0.078970246 -0.042033542 -0.05136386 -0.097396925 -0.027361585 0.03927262 -0.008180393
-0.08381735 0.051244978 -0.011190712 0.03438277 0.10348701 -0.048376657 -0.08707029 -0.015677363
-0.02541238 -0.07153996 -0.042107414 -0.010811612 0.036010038 0.09694494 0.08026988 -0.00028740006
0.008988662 0.022002736 -0.002397745 -0.024319481 0.036806393 -0.11465374 -0.13564284 0.00050632656
-0.03837202 -0.07728338 -0.14328057 0.083732486 -0.011924121 -0.0671594 -0.050918013 0.022827705
-0.10856082 -0.0019746176 -0.031136755 0.031281732 0.023417857 -0.107452296 0.053973854 0.08204025
-0.02040562 0.038740367 -0.047323436 -0.010216307 0.040713776 -0.061398596 0.045974348 -0.1401653
-0.07287644 -0.074371554 -0.074408956 -0.07944806 -0.1312268 0.002079444 -0.032391645 -0.1409672
-0.024758205 -0.017980464 0.04870109 -0.09791076 -0.053027365 0.014918659 0.062218875 -0.008970371
0.029321041 0.11571594 -0.04103053 0.09556837 0.096650444 -0.12443315 0.021689817 0.06525469
-0.022925945 0.068967946 -0.006279585 0.087202646 -0.008650249 -0.08141254 0.06225453 0.039453857
0.115669616 0.021605076 0.062324136 0.091520295 0.005566174 -0.01712101 -0.0010504902 -0.07406385
-0.013174261 -0.057689156 -0.018187588 -0.1013884 0.059333324 -0.10824091 0.06852124 0.083663926
-0.12808594 0.113179654 -0.09507581 -0.024901357 0.0625244 -0.0364645 0.10086511 -0.058745388
-0.018437326 -0.09355742 -0.0637882 0.124175 0.09220321 0.012058456 0.000580424 -0.11692257
0.093689896 -0.011230982 -0.05283413 -0.11317805 0.084700994 0.13091782 0.07420204 0.013630833
-0.09871726 0.028642662 0.009035395 0.024572477 -0.037976068 -0.022074763 0.07883463 0.032897066

hidden_layers.1.bias f4 [64]
00000000: 940b 05bd 446a 5f3c fb4a bfbd 02db dd3c
00000010: 92dc 413d dcbf 013e 8162 af3d c5a2 a8bc
00000020: aac9 da3c bf2a 35ba d345 8d3d 1319 84bd
00000030: 6d21 f63d e4d5 a8bb 5b76 8b3d 8d3f de3d
00000040: 963f 233b b704 cf3d f311 53bd aba5 443d
00000050: 3958 093d 2fd0 cabd 59c4 27bd 485e fa3c
00000060: 1de5 cf3d debd e4bd 5d1c c0bd 7daf 193d
00000070: c10f 7ebd 4750 54ba 3d5c b5bd 9d6d 70bb
00000080: b8ff afbd b8c0 a23b be2b 213d 7d85 913c
00000090: a77c c9bd ffdc a13d 9fca d63d f0e4 f0bd
000000a0: 2fb5 9f3d 76e1 d2bd 6724 2a3d 19cd a8bc
000000b0: ce21 f6bc 081b 9ebd c771 a13d 735f 0dbc
000000c0: 9f65 9dbc 9f58 c2bc a521 c23d 5a36 083e
000000d0: 34ce 88bd 62d3 eabd cf3a c7bd 361a a4bd
000000e0: b00d eabd 7db6 f5bc 3309 73bd b0c8 19bc
000000f0: 83e1 683c d407 643d bc99 bebd 38e9 e1bd
-0.032481745 0.013636176 -0.09340473 0.02708197 0.047329493 0.12670845 0.0856371 -0.020585427
0.026707489 -0.0006910972 0.068980835 -0.06450095 0.12018094 -0.005152451 0.06809684 0.10851965
0.0024909726 0.10108321 -0.05153079 0.048009556 0.0335314 -0.09902989 -0.040958736 0.030562535
0.10151122 -0.11169027 -0.0938041 0.037520874 -0.062026743 -0.00080991205 -0.08855484 -0.0036686428
-0.08593696 0.0049668215 0.039348356 0.017763847 -0.09838229 0.0790348 0.10487866 -0.11762416
0.0779823 -0.102969095 0.041538622 -0.02060561 -0.030045416 -0.077199996 0.078830294 -0.008628714
-0.019213496 -0.023723898 0.094790734 0.13301983 -0.06679955 -0.11466099 -0.09728014 -0.08012812
-0.11428392 -0.029994244 -0.059334945 -0.009386227 0.014213922 0.055671528 -0.09306666 -0.11030811

output.weight f4 [4, 64]
00000000: 6adb b1bc e0f9 8a3d 4973 d33d 4aa1 bd3d
00000010: 4c48 ae3d 5e90 71bd 4010 e2bc 5bb8 83bc
00000020: 17f3 893c acf3 0d3d 7cfa 94bc 8ecc b4bd
00000030: 0d76 0bbe 94f6 f63d 85aa 0cbd 798c ebbc
00000040: 3d91 53bd 27a7 a1bd c62a 193d bef3 303d
00000050: aedb 34bd f354 d43c ace3 b73d 5c13 a6bd
00000060: 9cb4 c5bd 3cf8 d4bc de30 d43d 602a 4c3c
00000070: f7f8 b23b 353b e9bc 8701 8b3d c939 79bd
00000080: 499c 9a3d f984 483c 4538 3b3c 5c64 273d
00000090: ad6d 6bbd db98 943d 9d46 313d 8782 a0bd
000000a0: 6908 e8bd 2b15 29bd c6d4 623d a4f9 44bd
000000b0: 544f c53d e116 86bd 2b13 edbd 119d 293d
000000c0: 9fb2 89bd bb76 8ebc b27a 04bd 2655 0bbd
000000d0: 0c2c acbd af14 cbbd d018 5c3d 9ec9 bbbc
000000e0: 9c84 1cbd 8d6b 703c 61f7 dcbd 92d4 a03b
000000f0: c132 933d dbec d23d e070 94bd 8f18 103a
00000100: 124f e23d 9885 9e3d f76b 93bd f903 723d
00000110: fbf0 4e3d 017b 923d 2ed8 50bd c2a4 b73d
00000120: 6e93 04bd 928b 81bd 9f3f e43c 92dd c43d
00000130: a45c fdbc 5094 1f3d fcbe 98b9 f613 393d
00000140: 2903 983d 9770 343d 899a 96bd 9137 babc
00000150: 0b66 3f3c 8ba3 8bbd 9fbc 343c 4a57 27bd
00000160: 8f38 b6bb 24a1 1e3d 487e bbbd 8456 8ebd
00000170: 8bdc 3e3d d0c9 e4bd d60c a63d 29e0 aabd
00000180: 4ba5 d03a 27e3 5f3c 6252 153d 9be0 1abd
00000190: bd4a c83c 8831 663d 11df e13d 2d4b c7bd
000001a0: 0d45 3cbd 58de a83c 4b57 a3bb e409 8abd
000001b0: e2bb b6bd 47c1 c7bd 21eb 90bd 3520 0abd
000001c0: 1cc4 a5bd de2c bbbd 1025 883c d5e7 ac3d
000001d0: 44ff 76bd 4cd9 a83a cd72 f53c a10b 533d
000001e0: 31d9 8fbd eafe c2b9 ff17 b83d 7ed4 ba3d
000001f0: 8f58 d8bd 6d68 a9bb a414 713c 62cc e5bc
00000200: 810d cabd 7bf5 e1bd 87b1 9a3d ba20 30bd
00000210: 3baa 20bd f1d3 243c 4d56 3bbd e123 a23a
00000220: 85eb dc3d 97bc aabd d000 d83b 9c53 b9bc
00000230: ebf2 bd3d c970 9a3d be54 bd3c 888c 99bc
00000240: 8e45 ebbd bc2d 353d 3fc7 773d 111e a5bd
00000250: ee91 29be d978 213e 9f6e 74bd 50b2 c2ba
00000260: 9197 bebd 2554 6f3d cc86 f83d 08c8 283d
00000270: 09ad 92bd f0c5 ad3d 7a6f 893c 16a8 483b
00000280: 9655 edbd 1fee abbd b6a6 fbbd b456 0f3e
00000290: fc46 f23d 596c d03c 4847 1b3c f1a2 af3c
000002a0: cec6 da3d d4dd c2bd 5fed 94bd 2f0c 12be
000002b0: 3daa 3abb edf9 34bc 6d63 49bb 4253 90bd
000002c0: 37f6 14bd 1299 b5bd 6de2 ddbd d05d 02bd
000002d0: bdfe 02be 19de 413d 1a76 d6bd 9dfd 97bd
000002e0: 664f 0e3c a1d3 1ebe fef6 743d d04b 6a3d
000002f0: 277c aabd 743c 1d3c 1524 b43d f467 233d
00000300: 7bac 19bd fcbf 05be 40ca cb3d d958 d6bd
00000310: a45a 11bd f459 37bc 5435 adbc 4864 d4bd
00000320: f90e afbd 504e 81bb 28f0 1abd d256 be3d
00000330: 232a d8bd 5f14 903d b257 60bc 19f3 63bd
00000340: e2a0 02bd e382 90bc b472 953c f990 5abc
00000350: 57be b83c 6dfc f83d 3b6a 16bb 222a 953d
00000360: c002 833d 3094 4f3c 5068 443d bcf6 853d
00000370: 9271 b93d 560a 2cbe 8769 483d 6f1e bb3a
00000380: 7b43 b7bc 3a69 64bd 2ce7 5d3d e405 e73d
00000390: 5c67 0fbe 6c30 843d 2ca2 a13d 2d8d 5e3c
000003a0: 61e0 033c 4bcf 8e3d 10da 9fbc 8568 f2bb
000003b0: 4d8d 7ebb a320 a03d 1ea5 453d bd39 023c
000003c0: cf96 2f3d 48fe c73c 5588 b3bd 4860 d03c
000003d0: 0eee 953d 72ac 28bc c21c deba 6150 ab3d
000003e0: 1ebd a1bd a91f 09bd 54bf 97bd 85bd bd3d
000003f0: 4699 d1bd fa09 273c 5c63 d6bd edef 25bc
-0.02171107 0.06785941 0.10324723 0.09259279 0.08509883 -0.05897557 -0.02759564 -0.016079118
0.016839547 0.03465621 -0.018185847 -0.08828078 -0.13619252 0.1205875 -0.034342308 -0.028753506
-0.051652182 -0.0789321 0.037394308 0.0432012 -0.044154815 0.025919413 0.08978972 -0.08109161
-0.09653589 -0.025997274 0.10360883 0.012461275 0.005461808 -0.028470615 0.06787401 -0.060846124
0.0754934 0.012238734 0.01142699 0.040867195 -0.05747764 0.07255717 0.043280233 -0.07837396
-0.11329729 -0.041279953 0.055378698 -0.04808964 0.09634271 -0.065473326 -0.115759216 0.041409556
-0.067235224 -0.0173906 -0.032343574 -0.03401675 -0.08406839 -0.099160545 0.0537346 -0.022923287
-0.038212404 0.01467408 -0.10789371 0.004908153 0.07187415 0.10299083 -0.07248092 0.00054968236
0.11050238 0.07740325 -0.07198327 0.05908582 0.050522786 0.071523674 -0.050987415 0.08966972
-0.032367162 -0.06325449 0.027862368 0.09612574 -0.030927964 0.0389598 -0.00029133994 0.04518505
0.07422478 0.044052687 -0.07353694 -0.022731574 0.011682044 -0.06818303 0.011031299 -0.04085473
-0.0055609415 0.038727894 -0.091549456 -0.06950095 0.046597045 -0.11171305 0.08107917 -0.083435364
0.0015918402 0.013664997 0.03645552 -0.037811857 0.0244497 0.05619958 0.11028875 -0.097311355
-0.04596429 0.020613834 -0.0049847714 -0.06740168 -0.089225546 -0.097536616 -0.07076097 -0.03372212
-0.080940455 -0.09139417 0.016619235 0.08442656 -0.060302034 0.0012882142 0.029961968 0.051524762
-0.07023848 -0.0003719249 0.08988952 0.09122561 -0.10563766 -0.005169919 0.014714394 -0.028051559
-0.09865857 -0.1103315 0.07553392 -0.04299996 -0.039224844 0.010060296 -0.0457366 0.0012370312
0.10787109 -0.08336752 0.0065918937 -0.022622876 0.092748486 0.07541043 0.023111697 -0.018743768
-0.11487876 0.04423307 0.06049275 -0.08062375 -0.16559574 0.15768756 -0.05967581 -0.0014854167
-0.09306253 0.058429856 0.121350855 0.04120639 -0.0716191 0.08485019 0.016776789 0.0030617765
-0.1158859 -0.08395027 -0.12287657 0.13997918 0.118299454 0.02544229 0.009477444 0.021440001
0.1068245 -0.095149666 -0.072718374 -0.1426246 -0.0028482818 -0.011045915 -0.0030729428 -0.0704713
-0.03636762 -0.088670865 -0.10834203 -0.031827748 -0.12792487 0.04733095 -0.10471745 -0.0742142
0.008685922 -0.15510418 0.059805863 0.057201207 -0.083244614 0.009596933 0.087959446 0.03989406
-0.037518006 -0.13061517 0.099506855 -0.10466165 -0.035486832 -0.01119088 -0.021143593 -0.1037069
-0.08547778 -0.003946103 -0.037826687 0.092939034 -0.10554912 0.070351355 -0.013692783 -0.055651758
-0.03189171 -0.017640537 0.018243171 -0.013340228 0.022551699 0.121575214 -0.0022951502 0.07283427
0.06397009 0.012669608 0.047951043 0.065412015 0.09054865 -0.16800818 0.048928764 0.0014276038
-0.022371044 -0.055764414 0.05417554 0.112804204 -0.14004272 0.06454548 0.0789226 0.013583464
0.008049102 0.06973132 -0.01951316 -0.0073977136 -0.0038841546 0.07818725 0.04825317 0.007948336
0.04286843 0.024413243 -0.08766238 0.025436535 0.07320796 -0.01029502 -0.0016945826 0.083649404
-0.07897399 -0.03347746 -0.0740954 0.092646636 -0.10234313 0.01019525 -0.1046817 -0.010128004

output.bias f4 [4]
00000000: 8b30 fd3c 6280 43bc 4fdb b63d dcbd 263b
0.030906936 -0.011932464 0.089285485 0.0025442755

exp_avg f4 [64, 37]
00000000: f259 51b8 01ed 58b7 d010 41b7 6d93 9437
00000010: 7549 28b7 9cc1 e4b7 2192 ce36 0132 fab7
00000020: 3141 bfb6 f75a 41b7 2a42 7cb8 2d16 8d37
00000030: fb05 86b7 f9a5 3236 a908 2cb8 061b 72b8
00000040: a036 c1b7 b43b 6136 d025 ae37 99bf b6b6
00000050: 521d 0fb8 4dce 2537 8388 8eb7 6843 81b7
00000060: c5c7 05b8 6cd8 a9b7 8a46 0cb7 d1a2 14b7
00000070: 4cd2 a0b7 37e0 d6b5 5988 3cb8 3871 3c38
00000080: 75c0 cfb7 5298 05b8 c232 9bb7 6f96 9138
00000090: 18cd 8439 879b a0b6 d519 9738 8321 33b6
000000a0: ff2a e937 0c62 1e38 e332 b438 19b3 a6b7
000000b0: ca8e 5f38 c02e e2b7 5e3f 0038 1289 b6b7
000000c0: 1bf5 6336 3fe4 c738 b580 8137 fdf8 7e38
000000d0: 1eda e6b6 4985 9938 7812 2338 95f8 56b7
000000e0: abfc 8738 d2f3 c438 2a5a e4b7 47f6 a037
000000f0: 776f da36 81af 0a38 ca9e 9338 7f96 9837
00000100: 6135 09b8 3530 1938 faa0 b7b7 8680 bb38
00000110: b30a 2fb8 fec7 db38 b702 7cb8 3932 1238
00000120: 9737 7938 42fa 563a a5c7 ad36 d785 ecb6
00000130: 264d 2ab8 ba3b ae34 3c7d 9cb7 0ccb dbb5
00000140: 8844 1a37 9f8b 27b8 7ebe 23b7 c7d6 ebb5
00000150: 1b26 8bb8 ee02 fc36 4c0e 2f37 8efe d136
00000160: 9a02 e9b6 ffc0 8c36 05ee 11b7 e26a 38b8
00000170: 772e d436 4a74 08b8 9255 e534 c326 0937
00000180: 8cf5 43b8 273a 87b6 ebf8 c1b7 2bb7 f3b5
00000190: 388a 05b7 a5fa feb7 a6ad 04b6 af8e 66b7
000001a0: b5c9 75b8 84fd 2237 b800 8a36 8d1c 3036
000001b0: 8e7a 14b8 f3a6 99b8 0255 6a39 d90f 83b7
000001c0: 642d 3837 be5b 3bb8 e330 a436 4a77 a3b7
000001d0: 9f4c b3b6 bc69 fa36 4593 e536 3ae8 5fb8
000001e0: 1103 35b7 3960 e7b6 41b6 0f36 e316 1bb8
000001f0: 85aa 34b6 b96a 1ab8 c3bc 4fb8 4de1 9737
00000200: a7ff b6b6 dc30 fdb6 6e7d 06b8 b092 f937
00000210: 0395 69b7 1ef7 4db8 9dfc 3ab7 c5a1 05b8
00000220: 79ea 45b8 ee5f 3838 8966 d8b7 c528 81b7
00000230: 3e85 f935 56c7 45b7 d657 1fb7 d821 c9b7
00000240: 24a2 6135 af0e 39b8 3e20 83b8 760e 2db9
00000250: e6e1 9e38 7d87 1e36 1d75 afb9 ea59 5db8
00000260: 8831 81b9 cf23 0138 95f8 81b8 ca9a 8eb9
00000270: 5497 cdb6 d6fd 87b8 865b 0139 1ee5 98b8
00000280: ad73 9db9 025d 79b8 8e5d 24b7 f809 c6b9
00000290: b443 5236 78ed 1439 7bf0 a0b8 b03e 5bb9
000002a0: 8eeb 42b6 ac25 8bb8 2498 69b9 f1f7 90b7
000002b0: f29f 6338 ead7 d6b9 8e07 86b7 42aa 3639
000002c0: 7f3c 72b8 d398 d3b7 f4b2 c838 e9b6 3ab9
000002d0: 9690 94b9 d4a3 6c38 a49d cfb5 86e6 1639
000002e0: 1cb1 5dbb 1ab6 c437 3e9b 8cb6 11fe 1439
000002f0: 1402 d6b7 bcaa 1e39 1b24 4eb8 f8a4 cab6
00000300: b5a4 4339 3126 9536 6239 d1b7 25e6 1db6
00000310: 4822 45b8 0583 5439 1699 92b7 024f e3b7
00000320: 1c6a bf38 c2a2 8a37 53a0 1ab8 ce1c 8838
00000330: dffa dc38 d41a 0437 fb73 91b8 32d4 4039
00000340: 553d 6137 513f 6db8 0328 de38 98fd 3a37
00000350: a5a5 3b38 6aec d9b7 d2ab 0b38 fbbd d5b8
00000360: d210 2938 2bea 2839 5481 1838 09b9 deb7
00000370: 0050 a938 ea68 1f3a 6f8b c037 e391 1538
00000380: 6cd1 80b8 6fe3 1838 ba77 e334 ff82 9e38
00000390: ce1e 8db8 cbee 92b6 4c5b f937 8166 30b7
000003a0: a71f 3638 797a c635 83b3 f5b6 fe26 84b6
000003b0: 333b 4d38 776a dc37 7149 cfb7 6505 4637
000003c0: a80c aa37 af8d 48b8 483d 8938 fa88 38b8
000003d0: b5e0 acb6 5d85 9137 7fe6 0b38 28b1 8937
000003e0: 0d81 1fb8 923c b737 5f22 0c38 07cc bfb6
000003f0: f6ae 2038 6ec3 0eb8 e4b0 11b7 e298 1f38
-4.991325e-05 -1.2929785e-05 -1.1507611e-05 1.7711625e-05 -1.0030683e-05 -2.7269874e-05 6.15629e-06 -2.9825607e-05
-5.699833e-06 -1.1524876e-05 -6.0143102e-05 1.6818836e-05 -1.597683e-05 2.6620676e-06 -4.101606e-05 -5.7722464e-05
-2.303283e-05 3.3562364e-06 2.0760024e-05 -5.4463276e-06 -3.4121163e-05 9.8827995e-06 -1.6991287e-05 -1.5409387e-05
-3.189572e-05 -2.024715e-05 -8.361074e-06 -8.859396e-06 -1.9171413e-05 -1.6009498e-06 -4.4949677e-05 4.4928136e-05
-2.4765943e-05 -3.185153e-05 -1.8501076e-05 6.942159e-05 0.0002532981 -4.7864773e-06 7.205053e-05 -2.6692585e-06
2.7795786e-05 3.776145e-05 8.592547e-05 -1.9872141e-05 5.3300326e-05 -2.696307e-05 3.0576593e-05 -2.1759919e-05
3.3968306e-06 9.5315736e-05 1.5437932e-05 6.0790207e-05 -6.8799263e-06 7.320435e-05 3.887943e-05 -1.28132715e-05
6.484365e-05 9.3914234e-05 -2.7221704e-05 1.9188168e-05 6.5098825e-06 3.3065215e-05 7.039083e-05 1.8189892e-05
-3.271306e-05 3.652294e-05 -2.189026e-05 8.940794e-05 -4.1733216e-05 0.00010479985 -6.008401e-05 3.4855886e-05
5.9418e-05 0.00082007435 5.1790435e-06 -7.048929e-06 -4.060301e-05 3.2453482e-07 -1.8654966e-05 -1.6375866e-06
9.1950715e-06 -3.9945935e-05 -9.7599095e-06 -1.7571373e-06 -6.635134e-05 7.5105263e-06 1.0434142e-05 6.2583194e-06
-6.944244e-06 4.194793e-06 -8.698092e-06 -4.396856e-05 6.3235016e-06 -3.253323e-05 4.2716835e-07 8.174861e-06
-4.6720306e-05 -4.0300833e-06 -2.3123304e-05 -1.815822e-06 -7.959599e-06 -3.0395875e-05 -1.977061e-06 -1.3742289e-05
-5.8600406e-05 9.714979e-06 4.112804e-06 2.6242662e-06 -3.5400088e-05 -7.326705e-05 0.00022347647 -1.5623797e-05
1.0977823e-05 -4.4669716e-05 4.893272e-06 -1.9486662e-05 -5.3435356e-06 7.4628897e-06 6.8418763e-06 -5.338362e-05
-1.0789155e-05 -6.8955383e-06 2.1414746e-06 -3.6976195e-05 -2.6921346e-06 -3.6815854e-05 -4.9528444e-05 1.8105517e-05
-5.4537845e-06 -7.5456755e-06 -3.2064905e-05 2.975142e-05 -1.3922577e-05 -4.9105955e-05 -1.114528e-05 -3.186033e-05
-4.718683e-05 4.395836e-05 -2.5796953e-05 -1.5396983e-05 1.8590724e-06 -1.17885265e-05 -9.497589e-06 -2.3976827e-05
8.405498e-07 -4.4121112e-05 -6.252572e-05 -0.00016503953 7.576104e-05 2.36227e-06 -0.00033465857 -5.2774245e-05
-0.000246417 3.0789346e-05 -6.197501e-05 -0.00027199677 -6.127093e-06 -6.484582e-05 0.00012336494 -7.290601e-05
-0.0003003156 -5.9452846e-05 -9.796944e-06 -0.0003777293 3.1331847e-06 0.00014202844 -7.6741875e-05 -0.0002090882
-2.9045364e-06 -6.6350534e-05 -0.00022277288 -1.7281594e-05 5.4269978e-05 -0.0004097813 -1.5977563e-05 0.00017420299
-5.7753638e-05 -2.5224324e-05 9.570076e-05 -0.00017806482 -0.00028336485 5.641936e-05 -1.5468581e-06 0.00014390991
-0.003382749 2.3449818e-05 -4.1903977e-06 0.00014209027 -2.5511756e-05 0.00015131658 -4.9147853e-05 -6.039274e-06
0.00018658007 4.444992e-06 -2.4941462e-05 -2.3528785e-06 -4.7000387e-05 0.00020266704 -1.7475842e-05 -2.70973e-05
9.127354e-05 1.6526672e-05 -3.6865775e-05 6.490351e-05 0.00010537146 7.8740595e-06 -6.935742e-05 0.00018389596
1.3425325e-05 -5.656417e-05 0.00010593238 1.1145508e-05 4.4738543e-05 -2.5978505e-05 3.3300203e-05 -0.00010192018
4.0308405e-05 0.00016108963 3.636007e-05 -2.6550626e-05 8.073449e-05 0.0006081002 2.2953112e-05 3.5660236e-05
-6.1425235e-05 3.6451438e-05 4.2369157e-07 7.558427e-05 -6.729142e-05 -4.3789382e-06 2.9725627e-05 -1.05142835e-05
4.342166e-05 1.4787794e-06 -7.322467e-06 -3.938446e-06 4.8930942e-05 2.627562e-05 -2.4710522e-05 1.1802976e-05
2.0271473e-05 -4.781567e-05 6.5440836e-05 -4.3996588e-05 -5.152159e-06 1.734745e-05 3.335485e-05 1.6414167e-05
-3.8028742e-05 2.1843505e-05 3.341061e-05 -5.7159955e-06 3.8309918e-05 -3.4037446e-05 -8.683859e-06 3.8050937e-05

exp_avg_sq f4 [64, 37]
00000000: fc99 fb32 e250 1f32 938a 4931 9967 1531
00000010: fa10 8632 6fad 1631 65a3 4833 7941 5131
00000020: 487d 9e30 d004 7632 d092 9131 4d4b 5433
00000030: d629 f930 cede da30 ec45 8e31 141e b831
00000040: f152 ac32 f267 9c31 28c5 c231 667c 3d32
00000050: d518 8131 f287 4f33 357f 4931 8160 4930
00000060: 2cd0 0232 d051 bf31 a9f0 ef32 8831 5531
00000070: 8fbe 4631 3092 7a32 fb75 bb31 7a48 4b33
00000080: 3a58 0c31 2577 e930 2ad3 3832 a0f6 be32
00000090: 9e70 9635 1970 e332 2274 f231 e84c 1332
000000a0: 8a16 e031 f50a 5b32 b720 2032 62c9 0c33
000000b0: ae08 b831 a1c8 7731 4bb0 4e32 3004 0f32
000000c0: a968 1833 fb5d 0232 fb85 ac30 92c1 d631
000000d0: 514a bc32 c1d3 3032 6ff4 e831 b3c0 7831
000000e0: f7ff 6832 c212 4032 f7f7 1133 30e1 e531
000000f0: e869 9230 54a2 2c32 e457 1532 c1be f332
00000100: 1594 d031 8953 c231 916f 8532 42ae 1732
00000110: 6d5c f432 bdea 5b32 eb05 cc30 aa1d 3432
00000120: fd6e 7433 9761 5235 cbad b531 dcae c530
00000130: 6fcf 1131 796a a52e 7555 3a31 8b22 4f30
00000140: 823a 9831 65d4 3a31 4f16 9330 be7c d230
00000150: 4e86 4031 f44e 9231 59dd cb30 8394 562f
00000160: bfff 3e30 26f0 8d2f f5b5 8231 d2c8 5631
00000170: c8be b330 a606 4331 90d3 6230 3bc8 a931
00000180: 216e 3031 b8e7 902f 5abd 0531 a52b e42f
00000190: 0aef 7631 ac22 4b31 a6d5 1330 fae1 2531
000001a0: 6723 0d31 2bb7 a031 4cf0 9f30 a6db 6830
000001b0: 5bc1 2731 b774 2631 8699 1535 651c 2b32
000001c0: a260 0a30 5d20 2932 e1f9 8031 135a a831
000001d0: fb0d 0632 ff6a 0f32 5f96 ae31 7d61 2331
000001e0: 5598 be31 ea79 1e32 86ef 1b32 0fc4 9731
000001f0: 6328 5e2f e4cd 7b31 87cf 7b32 d0c1 1031
00000200: cc77 1c32 3cbc e72f b987 ab31 d4ac e331
00000210: bac9 2232 665b ae31 0054 b230 c1a2 c631
00000220: 2629 1531 3224 4f32 c437 1732 9e13 2231
00000230: 6d3d 3a32 2788 c631 6375 fb31 fddb 0232
00000240: cf26 a730 6bf1 b831 92fb 0533 09f8 0a35
00000250: 3b87 0133 63ff 9b32 d676 6533 e4d5 9331
00000260: d0e5 4833 feea 0c33 679b 9c32 5d63 0a33
00000270: 0082 9732 94f3 3732 2acc 0033 ee4b ad32
00000280: 9e80 4d33 65e0 a231 895d 8232 57d3 7b33
00000290: af9c ab32 ae6a b432 7f73 3932 8787 3e33
000002a0: fd9b d232 0a38 e132 a321 5c33 750b 4e31
000002b0: 25b4 c732 eb89 3a33 e519 3e32 d9e3 2133
000002c0: a7f8 0932 d035 cc32 7f87 1833 07c6 8232
000002d0: a74d 2333 ab14 4b32 bd8b 9532 c3de 1234
000002e0: 23ed 6936 f626 2032 70ec 2432 9e9b a231
000002f0: 1a14 2331 b6a3 2132 f58d af31 5db3 8232
00000300: 44d6 9c31 3b54 e730 6a19 b931 a1cb b131
00000310: f8b6 7e32 1f1b f131 877f 9b30 761b 6531
00000320: c270 1732 4202 3432 2bba 5731 3eaa 1731
00000330: ce10 1432 18a9 db31 5dc1 7b32 41bd f131
00000340: f80d d32f 76ae b031 86f7 b031 b0e9 6f32
00000350: c324 d631 9ca9 0531 6224 ed31 aa39 d331
00000360: e8f5 6732 2800 f431 813c c230 6112 c731
00000370: 2568 f932 a0b3 7a35 2601 7b33 5a80 0032
00000380: c3ea 0f32 cdfe f331 776b b632 23fa 4b32
00000390: 3851 5f33 64e1 0332 a79f e231 a30b cc32
000003a0: d7cd 2432 2304 9733 a21c 1e32 0bc2 c930
000003b0: 517d 4832 494e b032 e2ae b032 a882 5e32
000003c0: c677 8432 9363 a232 cfec cc31 6b41 9533
000003d0: eb94 2b32 122c 7730 3633 af32 c213 4d32
000003e0: 479d d432 415c 6a32 19fc 2532 f7df c932
000003f0: 1731 4c32 c07e 7333 f119 c931 6cc2 e631
2.929027e-08 9.273409e-09 2.932812e-09 2.1741242e-09 1.5607373e-08 2.1926458e-09 4.6714735e-08 3.045072e-09
1.153162e-09 1.4320179e-08 4.236746e-09 4.9428582e-08 1.8129025e-09 1.5924912e-09 4.140693e-09 5.3585243e-09
2.0061153e-08 4.5520148e-09 5.668557e-09 1.1029533e-08 3.757217e-09 4.8319585e-08 2.9321658e-09 7.3260514e-10
7.614329e-09 5.5681326e-09 2.7932701e-08 3.1023735e-09 2.8921112e-09 1.4585154e-08 5.455829e-09 4.7330538e-08
2.0422832e-09 1.6986844e-09 1.0758223e-08 2.2231063e-08 1.1208647e-06 2.6477254e-08 7.0563297e-09 8.574013e-09
6.5218204e-09 1.2749969e-08 9.320664e-09 3.2779447e-08 5.3560916e-09 3.6057275e-09 1.20308625e-08 8.324648e-09
3.5485446e-08 7.588365e-09 1.2552727e-09 6.250226e-09 2.1919876e-08 1.0292696e-08 6.7798775e-09 3.6198287e-09
1.3562377e-08 1.1180136e-08 3.3985966e-08 6.690378e-09 1.0652998e-09 1.0048627e-08 8.6929255e-09 2.8375668e-08
6.0704317e-09 5.65564e-09 1.5533972e-08 8.828978e-09 2.8447369e-08 1.2800851e-08 1.4844636e-09 1.0484124e-08
5.691162e-08 7.837311e-07 5.2875513e-09 1.4383335e-09 2.121819e-09 7.5222446e-11 2.711514e-09 7.535525e-10
4.430434e-09 2.7187295e-09 1.0701998e-09 1.5314965e-09 2.801602e-09 4.258135e-09 1.4833105e-09 1.9515949e-10
6.9485034e-10 2.5818386e-10 3.804184e-09 3.1255252e-09 1.3078187e-09 2.8380014e-09 8.251897e-10 4.941311e-09
2.5673972e-09 2.6358093e-10 1.9461681e-09 4.150397e-10 3.593359e-09 2.9560097e-09 5.37819e-10 2.4139113e-09
2.0538324e-09 4.6774367e-09 1.1637069e-09 8.471325e-10 2.4411608e-09 2.4222524e-09 5.573023e-07 9.959966e-09
5.034143e-10 9.844453e-09 3.7536982e-09 4.8996838e-09 7.803005e-09 8.348024e-09 5.0811617e-09 2.3775037e-09
5.547046e-09 9.2245305e-09 9.076649e-09 4.4169677e-09 2.020513e-10 3.6642342e-09 1.4657309e-08 2.1064928e-09
9.107634e-09 4.2152404e-10 4.992185e-09 6.626218e-09 9.475508e-09 5.0744573e-09 1.2975079e-09 5.7810614e-09
2.1705744e-09 1.2057216e-08 8.802036e-09 2.3585254e-09 1.08405915e-08 5.778037e-09 7.3184068e-09 7.6170155e-09
1.2161879e-09 5.382551e-09 3.1195277e-08 5.1769945e-07 3.0158144e-08 1.8160511e-08 5.3426298e-08 4.3025796e-09
4.6775142e-08 3.2810014e-08 1.8231459e-08 3.2221e-08 1.763783e-08 1.0707385e-08 2.998801e-08 2.017438e-08
4.784726e-08 4.7403312e-09 1.5176527e-08 5.8632704e-08 1.9978271e-08 2.100327e-08 1.0794678e-08 4.4361084e-08
2.4518153e-08 2.6218931e-08 5.1253334e-08 2.9983458e-09 2.324857e-08 4.3431935e-08 1.1065343e-08 3.769296e-08
8.0309865e-09 2.3773197e-08 3.551349e-08 1.5224044e-08 3.802202e-08 1.18208545e-08 1.7409429e-08 1.367835e-07
3.4857737e-06 9.322084e-09 9.599816e-09 4.732512e-09 2.3731048e-09 9.408657e-09 5.109309e-09 1.5215557e-08
4.5645567e-09 1.6831402e-09 5.387098e-09 5.174528e-09 1.4826348e-08 7.0171065e-09 1.131398e-09 3.3339496e-09
8.814995e-09 1.0477892e-08 3.1392442e-09 2.2070163e-09 8.618555e-09 6.3929626e-09 1.4654089e-08 7.035539e-09
3.8390602e-10 5.142108e-09 5.1504143e-09 1.3964765e-08 6.232399e-09 1.945046e-09 6.901744e-09 6.147464e-09
1.3501882e-08 7.1013524e-09 1.4132554e-09 5.7937517e-09 2.9034775e-08 9.3393646e-07 5.8441536e-08 7.479764e-09
8.377074e-09 7.1011983e-09 2.1236458e-08 1.187303e-08 5.19951e-08 7.6764515e-09 6.595616e-09 2.3754017e-08
9.592859e-09 7.032238e-08 9.203321e-09 1.4679825e-09 1.1670026e-08 2.0524697e-08 2.0568624e-08 1.29518085e-08
1.542129e-08 1.8904563e-08 5.9641034e-09 6.9502526e-08 9.98737e-09 8.9920704e-10 2.039597e-08 1.1937063e-08
2.475157e-08 1.3641569e-08 9.661584e-09 2.3501327e-08 1.1885525e-08 5.6693125e-08 5.852819e-09 6.715984e-09

exp_avg f4 [64]
00000000: b18f 6db8 d1c1 c138 74c8 30b8 3252 3ab8
00000010: d12a a2b9 b76f 0e39 3118 0d38 d7d1 1339
00000020: 2cc3 b6b8 b43d ce39 7971 4e39 3a86 c0b9
00000030: 3fa0 a0b9 8b80 67b8 27a7 50b9 2b74 3939
00000040: 5fd6 5539 a858 8038 54c6 04b9 ec15 50b8
00000050: fa00 94b9 1d63 3638 eed1 feb9 4986 e938
00000060: f291 82b9 c7ff 0838 0d22 fd38 246f 0ab8
00000070: 85e4 4237 2de3 63b8 e137 58b7 583a 0339
00000080: 0caa 8db9 7825 c638 45c8 1f38 fc15 8d38
00000090: 938d 2db8 4e90 65b9 c628 7838 cffb bab6
000000a0: c4a3 1ab9 786c 72b9 4416 deb9 6cf5 19ba
000000b0: 846a e438 32f8 e5b7 4166 5bb9 aef7 8a39
000000c0: 947b 9639 24b5 70b8 08c6 cb37 3205 e438
000000d0: 386c 1cb9 2834 e6b9 db49 7cb8 d16a 6cb9
000000e0: 09ce 4739 8c4a 3839 ebff 5739 f481 74b8
000000f0: 991e 2c38 6478 5db9 4331 cfb9 9a10 42b9
-5.6639026e-05 9.239058e-05 -4.2148356e-05 -4.4422406e-05 -0.0003093095 0.00013583792 3.363955e-05 0.00014097184
-8.71479e-05 0.00039337354 0.00019687963 -0.000367211 -0.0003063697 -5.5194407e-05 -0.00019898695 0.00017686251
0.00020393122 6.120029e-05 -0.00012662384 -4.961148e-05 -0.00028229487 4.3484488e-05 -0.00048603065 0.00011135318
-0.0002490427 3.2663138e-05 0.000120703226 -3.300527e-05 1.1616507e-05 -5.433259e-05 -1.2887614e-05 0.00012514868
-0.0002702031 9.448355e-05 3.809507e-05 6.727499e-05 -4.1378265e-05 -0.000218929 5.916578e-05 -5.5725463e-06
-0.00014747592 -0.00023119326 -0.0004235973 -0.00058730575 0.00010891727 -2.7414502e-05 -0.0002092356 0.00026505947
0.00028702302 -5.738916e-05 2.4291701e-05 0.00010872855 -0.00014917634 -0.00043907878 -6.0150265e-05 -0.00022546506
0.00019054873 0.00017575378 0.00020599335 -5.829516e-05 4.1036492e-05 -0.00021121051 -0.0003951882 -0.00018507466

exp_avg_sq f4 [64]
00000000: a301 8733 7c13 8933 12b7 3132 607d e132
00000010: ba48 1034 3ee1 2233 bc97 d633 5c86 6633
00000020: a121 0033 d1e7 9b34 795e 9533 6726 0a33
00000030: ce4b f033 f422 ce33 bf71 d232 eb91 e233
00000040: c3c6 0b33 2a08 8031 bed7 8233 baad 8633
00000050: ec68 ac33 89a2 9a33 8fb6 ce33 138b 9333
00000060: 1042 5333 3e2a 0d32 0259 7933 46ec 5233
00000070: ce81 9a33 24db 4432 aaa5 0231 1d93 9032
00000080: 975e f132 93ec 9b32 62d7 6533 830a 4333
00000090: 456e a633 5089 df33 442a b233 cb62 8232
000000a0: b1f8 c433 43ed d832 b965 1733 cfa2 5b34
000000b0: a97c 8f33 3a77 af33 c6f3 b733 beef cd32
000000c0: a760 0533 58f7 1234 7881 2333 e1d1 ed33
000000d0: 2df8 2533 a353 b132 b61a 1b33 7226 3633
000000e0: ec58 eb32 4bf2 8e33 4a92 2733 552c 3f32
000000f0: 8215 af32 4c85 5c33 6ec1 5033 d686 5b34
6.286725e-08 6.383104e-08 1.0344381e-08 2.6250461e-08 1.3437503e-07 3.792342e-08 9.992752e-08 5.3673247e-08
2.9832908e-08 2.9039668e-07 6.955538e-08 3.2165556e-08 1.118966e-07 9.5989805e-08 2.4498943e-08 1.05504874e-07
3.2544232e-08 3.7262184e-09 6.09284e-08 6.271462e-08 8.028459e-08 7.200749e-08 9.62583e-08 6.8705184e-08
4.918735e-08 8.216885e-09 5.8055782e-08 4.9109325e-08 7.194795e-08 1.1458528e-08 1.901166e-09 1.6830706e-08
2.8099107e-08 1.8151956e-08 5.3514107e-08 4.5411536e-08 7.750035e-08 1.0409224e-07 8.296459e-08 1.5178918e-08
9.172198e-08 2.5253604e-08 3.5249943e-08 2.0455194e-07 6.681632e-08 8.17076e-08 8.565944e-08 2.3974163e-08
3.105438e-08 1.3687293e-07 3.8069146e-08 1.1074349e-07 3.864277e-08 2.0643546e-08 3.6113043e-08 4.2410143e-08
2.7398038e-08 6.656463e-08 3.9015767e-08 1.1127743e-08 2.0382462e-08 5.1343974e-08 4.8604697e-08 2.0445017e-07

exp_avg f4 [64, 64]
00000000: b377 36b8 db55 05b7 0000 0000 b735 01b6
00000010: 4095 e3b7 287f c137 4673 a537 01de 6036
00000020: b216 a6b8 7ba5 95b7 2790 1fb7 55ec 9bb4
00000030: d893 5a37 38aa 8ab8 182c ffb7 42fb 0ab6
00000040: 39aa 0438 a040 dd36 859c b637 cfe9 5137
00000050: 8ffa e635 caff 1837 8f83 b736 e0aa a737
00000060: b261 f936 9e33 1b36 ffe2 7c36 8e34 99b3
00000070: a76f cd36 28b6 3536 d602 52b5 0000 0000
00000080: 0135 a3b5 820a b335 fa66 86b8 0e1a 6a37
00000090: 1a2a dcb7 74bd f9b7 a429 f635 1416 0cb5
000000a0: 184d dfb7 9422 a6b5 f2be 8d36 ee25 94b8
000000b0: c22f d836 225b ad37 5123 1ab9 84d8 cd36
000000c0: 2396 2d37 649e 71b4 d3d0 e1b6 8581 84b7
000000d0: a99c 9d36 44d4 2eb8 f609 cb32 1bef c9b8
000000e0: 5dbe 8737 5d28 4536 2343 7837 4b61 1835
000000f0: d7d7 89b7 675c 8537 a56b 7135 d069 aab8
00000100: 197b 0f39 8ecb 65b9 baa0 3e37 c0d0 e237
00000110: 9b97 42b9 9a0d 27ba 84dc f538 5835 dd38
00000120: 93d7 22ba cf1c 41b9 2b70 9bb9 9bd6 32ba
00000130: 2333 b638 2c80 16b6 54f4 a5b7 d426 9739
00000140: 7e3b 3d39 c448 35b6 b63c 7839 9ec0 4839
00000150: 3e0e 2fba 6e69 5339 c07f 62b9 2731 d439
00000160: e6ae d7b9 8241 e937 36cb 8f37 9137 bd36
00000170: 34e3 12b9 f565 87b7 96d9 7b37 2608 0339
00000180: 253f 2cba 6101 0339 7fd1 e138 808e 8e39
00000190: 45af f638 ddd7 85b9 7bf3 2e38 8242 af38
000001a0: 7fdd c438 8d7c 31ba 3d4b bdb9 d7e1 24ba
000001b0: bb4e 1d39 cb67 9038 372a 3cba d1a0 0eba
000001c0: b882 d8b8 7291 8238 1410 bbb8 d3a5 4cba
000001d0: a8f1 e8b9 c914 4eb9 4b9e 8db6 e660 3037
000001e0: 5df1 0aba 33c8 63b8 8327 7138 1898 51b6
000001f0: d80d a3b9 a239 2e38 3a75 ccb9 606f 87b5
00000200: 1ab8 e631 fab4 4235 0000 0000 3db9 2934
00000210: 891f ba34 fc7e 3c33 b43b 2231 d65c 77b0
00000220: 5de8 8a34 e813 ab33 2667 8234 cea4 492d
00000230: 8ad1 2730 fd88 9834 6eac 8b34 b83c 1e2f
00000240: 2ad9 2633 1990 4a2e 5553 2731 1697 83af
00000250: ae96 9135 4397 f12f 6d7b cd33 0000 0000
00000260: 1189 a12d bbf8 cd2f ec09 9831 0000 0000
00000270: a6f8 be33 0000 0000 0000 0000 fc51 9f2e
00000280: e7dc ce31 fe85 202e 56f9 3c31 ff78 1d2f
00000290: 17cd 8434 5f87 5832 0000 0000 35b9 e230
000002a0: 11cd 8c32 a733 b431 0000 0000 ea80 e032
000002b0: c1cd ce33 eac0 f431 0462 be33 a04e 1b32
000002c0: 4e40 9631 1e43 522f 605b 8b34 3a9d 2635
000002d0: eb58 8633 e836 7c32 200f 752b 5e69 2832
000002e0: 97d6 0f32 f087 cd34 797d 3c34 0000 0000
000002f0: 52df c431 a899 bb34 fee5 8834 951c 1c35
00000300: 22ae 4b39 d685 ef37 e51f 1937 6ade 8c38
00000310: ada4 be38 5c49 bfb7 84f2 9339 5d44 9639
00000320: 3fa8 0db8 0b11 3639 9885 45b4 f5b3 e0b7
00000330: a912 b839 6e75 02b7 f00d 81b7 3a7d bf39
00000340: 53db 9c39 d0c5 f836 4c25 ea39 e507 4b39
00000350: 2800 d037 970c 7739 370f 5338 7934 113a
00000360: 7c28 5838 c21a 8337 39a8 8938 45f5 e0b5
00000370: 43af 0539 e56f e8b6 3fef a6b6 d8aa 5239
00000380: 2bbd 0e38 91c6 7039 afb6 2339 1def d039
00000390: 3f10 7839 6520 4db8 32b1 9c38 a197 7b38
000003a0: 1478 7638 9c87 3b38 2e37 44b7 c718 de37
000003b0: fc96 6639 1edf c938 d60f 87b8 9b0c a237
000003c0: 0c8a c1b6 ac48 3f39 45aa ba37 7b14 cd37
000003d0: 171a ae38 76b5 23b8 3fd4 a0b4 9b4b c538
000003e0: 11ce c737 6ddf 7e33 8f9d e2b7 d1b2 c237
000003f0: 4c22 feb6 e0d0 b238 12b8 beb6 4abb 3cb8
-4.350366e-05 -7.9474075e-06 0.0 -1.9253764e-06 -2.7130009e-05 2.3066605e-05 1.9723211e-05 3.3507824e-06
-7.919724e-05 -1.7839242e-05 -9.510702e-06 -2.9042954e-07 1.3028235e-05 -6.6120585e-05 -3.0418902e-05 -2.0709854e-06
3.1629785e-05 6.5938366e-06 2.1768976e-05 1.2511809e-05 1.7209258e-06 9.1194615e-06 5.4691404e-06 1.9987521e-05
7.4321515e-06 2.3126845e-06 3.7683055e-06 -7.134177e-08 6.122474e-06 2.707713e-06 -7.8235223e-07 0.0
-1.2159873e-06 1.3339597e-06 -6.408799e-05 1.3953553e-05 -2.6245649e-05 -2.9771334e-05 1.8340547e-06 -5.218619e-07
-2.6619571e-05 -1.2378027e-06 4.2243564e-06 -7.064255e-05 6.4428614e-06 2.0665644e-05 -0.00014699741 6.134682e-06
1.034656e-05 -2.2502496e-07 -6.729833e-06 -1.5795938e-05 4.6972023e-06 -4.168252e-05 2.363684e-08 -9.628964e-05
1.6181899e-05 2.9378782e-06 1.4797583e-05 5.676599e-07 -1.6432181e-05 1.5897864e-05 8.993614e-07 -8.125941e-05
0.000136834 -0.00021914972 1.1362305e-05 2.7038506e-05 -0.00018557759 -0.0006372571 0.000117235846 0.00010548037
-0.00062119326 -0.00018416646 -0.00029647475 -0.000682214 8.687961e-05 -2.2426348e-06 -1.9783307e-05 0.00028829894
0.00018046607 -2.7013457e-06 0.0002367374 0.00019145242 -0.00066778425 0.00020161804 -0.0002160063 0.00040472412
-0.00041138305 2.7806269e-05 1.7141556e-05 5.6391077e-06 -0.00014008285 -1.6140732e-05 1.50114265e-05 0.00012496169
-0.00065706886 0.00012493647 0.00010767858 0.0002719052 0.000117628406 -0.00025528567 4.171159e-05 8.357038e-05
9.387265e-05 -0.00067705737 -0.00036104946 -0.0006289756 0.00015002016 6.885788e-05 -0.00071779214 -0.00054408336
-0.00010324031 6.225974e-05 -8.91985e-05 -0.0007806692 -0.00044430536 -0.00019653434 -4.220555e-06 1.0512978e-05
-0.0005300248 -5.4307468e-05 5.7495676e-05 -3.1231957e-06 -0.00031100097 4.1538508e-05 -0.00038997253 -1.0090698e-06
6.714811e-09 7.253399e-07 0.0 1.5806741e-07 3.4668145e-07 4.3887653e-08 2.360804e-09 -8.9990004e-10
2.587357e-07 7.966429e-08 2.4289437e-07 1.1462121e-11 6.105202e-10 2.8411878e-07 2.6016227e-07 1.4391588e-10
3.8847396e-08 4.6057467e-11 2.4349067e-09 -2.3936114e-10 1.0847195e-06 4.3945123e-10 9.5685074e-08 0.0
1.836445e-11 3.7466016e-10 4.42491e-09 0.0 8.892793e-08 0.0 0.0 7.245046e-11
6.0205028e-09 3.6498797e-11 2.7499332e-09 1.4322053e-10 2.4736138e-07 1.2603635e-08 0.0 1.6496303e-09
1.6391398e-08 5.2445617e-09 0.0 2.6135655e-08 9.630049e-08 7.1232664e-09 8.8653934e-08 9.040065e-09
4.372885e-09 1.9123234e-10 2.5957252e-07 6.2068614e-07 6.256035e-08 1.4680815e-08 8.7062475e-13 9.802845e-09
8.372488e-09 3.8283133e-07 1.7554511e-07 0.0 5.7297393e-09 3.4943264e-07 2.5499315e-07 5.815612e-07
0.00019424458 2.8553342e-05 9.126937e-06 6.717148e-05 9.090579e-05 -2.2803135e-05 0.00028218713 0.00028661164
-3.377371e-05 0.00017363222 -1.8395656e-07 -2.678668e-05 0.00035109118 -7.775945e-06 -1.5384489e-05 0.0003652366
0.00029918048 7.4140044e-06 0.00044659746 0.0001936253 2.4795605e-05 0.00023560446 5.032049e-05 0.000553913
5.1536117e-05 1.5628877e-05 6.564003e-05 -1.6760683e-06 0.00012749158 -6.927165e-06 -4.9750374e-06 0.00020090805
3.4031615e-05 0.00022962155 0.00015612946 0.00039851005 0.00023657175 -4.890598e-05 7.471665e-05 5.998428e-05
5.8762802e-05 4.471057e-05 -1.1695358e-05 2.6476e-05 0.00021990755 9.625986e-05 -6.440251e-05 1.9317775e-05
-5.767919e-06 0.00018242252 2.2252216e-05 2.4447441e-05 8.301826e-05 -3.9031227e-05 -2.9956752e-07 9.4077746e-05
2.3818606e-05 5.9342188e-08 -2.7014668e-05 2.320987e-05 -7.5737826e-06 8.5266074e-05 -5.68387e-06 -4.499712e-05
