p1_navigation/D2DQN_20190130_v14_1800eps_12.09score.pth (torch_old, 101369 bytes, 18 tensors)

hidden_layers.0.weight f4 [64, 37]
0.05390462 -0.066877365 -0.031810705 -0.16607177 -0.08959635 0.036676016 -0.03288657 0.1124389
0.004914707 0.016144602 -0.022481116 -0.09636179 -0.18637949 -0.064514875 -0.041723624 0.049009982
-0.0003382808 0.009356571 -0.023254702 0.024287172 0.08699938 0.04926526 0.029949624 0.07898103
0.014322627 0.03086568 -0.021641267 -0.01571307 -0.031649005 -0.2512244 -0.03375011 0.044119686
-0.069388874 -0.11410477 -0.07249468 -0.11755675 0.01676837 0.117926165 0.1698364 0.03136758
0.054217923 -0.10955132 0.030633733 -0.029988086 -0.32292637 0.09092878 -0.021904133 0.05161092
0.053210605 -0.0012194124 0.029178258 -0.047702827 0.14400633 0.0335307 0.014353037 -0.03573598
-0.26293457 -0.06698093 -0.075564004 -0.07683292 -0.00028218114 0.11108537 0.033880875 0.008012099
-0.044618443 0.05807085 -0.07938118 0.16149606 0.036082666 0.07318249 -0.052976124 -0.23962425
-0.04892317 -0.003965082 0.08353715 0.059149165 0.057188142 0.0769825 0.08770972 -0.5521657
0.21587065 0.06817931 -0.23157424 -0.751402 -0.10961979 -0.037590407 0.06518456 -0.014599025
0.06382597 0.0039403373 0.111680806 0.10569652 -0.10437918 0.015032616 -0.3342892 0.072586924
0.03914191 -0.15333667 -0.4675722 -0.17984839 0.23447457 0.051323812 -0.16295691 -0.42722416
-0.42226884 0.0701912 0.08066394 -0.28541893 -0.6169304 0.039161853 0.004187951 0.31858173
-0.25859007 -0.09102373 -0.20035098 -1.1022654 0.008341706 0.004308673 0.025281576 -0.025026781
0.015548985 -0.07226222 0.0038977116 -0.0038753902 -0.0065853815 0.015162528 -0.07063292 -0.12755372
-0.06746674 0.011445886 0.12340226 0.01643657 0.0036912202 0.024270654 -0.015384173 0.0652028
-0.034773428 0.09089704 -0.005085336 0.084160864 0.13785015 0.034024157 0.038396753 0.06549186
0.11998334 -0.087518446 0.0062769726 -0.0035818983 -0.101152524 -0.09404263 -0.12485151 -0.14044884
-0.06660767 0.23790112 -0.19086184 -0.28582197 -0.27457097 -1.2103686 -0.023775594 -0.0054331603
-0.043532237 -0.08609893 -0.010075383 -0.09373899 -0.067157686 -0.026627846 0.0042279777 0.098860055
0.010212117 -0.013723437 -0.030031001 0.019584592 0.033505373 -0.027384982 0.057152893 -0.0044706855
0.109701775 0.10165808 0.02170673 0.049257133 0.046901245 0.0958813 0.16278742 -0.016435584
-0.0049434756 -0.11963588 -0.080198005 0.05565479 -0.060768425 0.15430221 -0.08670934 0.17675363
0.076183654 0.050394144 0.057180237 -0.05450213 -0.025204828 -0.103833154 -0.10172096 0.014916901
0.13026744 -0.033520535 -0.32260856 -0.14642356 -0.579044 -0.31998888 0.10803187 0.120382875
0.08493037 -0.11416528 -0.035290927 -0.11764627 -0.0079564415 0.03955274 0.13005109 -0.069463596
0.020342845 0.0026935874 -0.05467159 -0.035819247 0.0031541877 0.013539766 0.035965983 0.08663015
-0.09181841 0.023174474 -0.106540374 0.027953869 -0.035927247 -0.10950386 -0.121969014 -0.08656708
-0.07266343 0.16946606 0.056656882 -0.09658741 0.014564252 0.04767862 -0.03764511 -0.03856708
0.01759362 0.012559071 -0.24625571 0.0021972852 0.13825037 -0.04993412 -0.105227925 -0.053880047
0.05093123 -0.15232885 -0.18631281 -0.04952293 0.12361589 -0.13124451 0.12697269 -0.13516812
00000000: 17cb 5c3d 00f7 88bd f14b 02bd b80e 2abe
00000010: 4b7e b7bd 9739 163d 11b4 06bd 5e46 e63d
00000020: 8d0b a13b af41 843c 512a b8bc 5559 c5bd
00000030: 44da 3ebe 6020 84bd 64e6 2abd b1be 483d
00000040: 485b b1b9 4e4c 193c a580 bebc e4f5 c63c
00000050: bb2c b23d 5fca 493d ea58 f53c cec0 a13d
00000060: 74a9 6a3c 06da fc3c 0749 b1bc b2b8 80bc
00000070: 63a2 01bd 7ca0 80be 8e3d 0abd d8b6 343d
00000080: c11b 8ebd c3af e9bd 1778 94bd 98c1 f0bd
00000090: d25d 893c 4683 f13d 98e9 2d3e 4b7b 003d
000000a0: 9d13 5e3d 715c e0bd 98f3 fa3c 93a9 f5bc
000000b0: 9b56 a5be de38 ba3d 4c70 b3bc f965 533d
000000c0: 5df3 593d b1d4 9fba 3e07 ef3c 0a64 43bd
000000d0: 6576 133e 7d57 093d 0029 6b3c e45f 12bd
000000e0: 5c9f 86be 4c2d 89bd 4dc1 9abd 945a 9dbd
000000f0: b6f1 93b9 ba80 e33d acc6 0a3d 2e45 033c
00000100: d4c1 36bd b3db 6d3d 9a92 a2bd 395f 253e
00000110: 6bcb 133d b4e0 953d 7efd 58bd 0f60 75be
00000120: a963 48bd 85ed 81bb 8615 ab3d 6546 723d
00000130: 1d3e 6a3d 00a9 9d3d 27a1 b33d bb5a 0dbf
00000140: 320d 5d3e 98a1 8b3d cc21 6dbe e25b 40bf
00000150: 5780 e0bd 66f8 19bd 7c7f 853d c030 6fbc
00000160: 31b7 823d f21d 813b e8b8 e43d 6b77 d83d
00000170: c0c4 d5bd 5d4b 763c f427 abbe 74a8 943d
00000180: 4453 203d 4a04 1dbe a065 efbe 2d2a 38be
00000190: 1a1a 703e eb38 523d 2dde 26be 20bd dabe
000001a0: 9f33 d8be 67c0 8f3d 2333 a53d 6e22 92be
000001b0: 27ef 1dbf 2e68 203d 143b 893b 251d a33e
000001c0: eb65 84be a66a babd cf28 4dbe 0817 8dbf
000001d0: a7ab 083c c52f 8d3b 4f1b cf3c f704 cdbc
000001e0: 2cc1 7e3c 37fe 93bd c070 7f3b 42fa 7dbb
000001f0: 2fca d7bb 406c 783c fea7 90bd 719d 02be
00000200: 012c 8abd 8787 3b3c 53ba fc3d fca5 863c
00000210: 66e8 713b 40d3 c63c e60d 7cbc 0c89 853d
00000220: 956e 0ebd 3a28 ba3d e4a2 a6bb 885c ac3d
00000230: 9728 0d3e ea5c 0b3d ea45 1d3d 9920 863d
00000240: d3b9 f53d df3c b3bd 10af cd3b 48be 6abb
00000250: 0e29 cfbd 6c99 c0bd 26b2 ffbd d2d1 0fbe
00000260: 9a69 88bd 5a9c 733e 4971 43be 4257 92be
00000270: 9194 8cbe 5ced 9abf 09c5 c2bc a708 b2bb
00000280: dc4e 32bd a354 b0bd 3813 25bc 3afa bfbd
00000290: f889 89bd a422 dabc d98a 8a3b 2477 ca3d
000002a0: b950 273c 44d8 60bc 9303 f6bc de6f a03c
000002b0: ee3c 093d 7856 e0bc 2719 6a3d d47e 92bb
000002c0: 53ab e03d 1d32 d03d 50d2 b13c d9c1 493d
000002d0: 851b 403d 6a5d c43d bfb1 263e eba3 86bc
000002e0: e1fc a1bb a803 f5bd da3e a4bd 47f6 633d
000002f0: 50e8 78bd 6601 1e3e ab94 b1bd e7fe 343e
00000300: 2d06 9c3d 176a 4e3d d335 6a3d a03d 5fbd
00000310: 5b7a cebc 7aa6 d4bd 1453 d0bd 0466 743c
00000320: d464 053e d44c 09bd f32c a5be 0ff0 15be
00000330: 3a3c 14bf 95d5 a3be d03f dd3d 4c8b f63d
00000340: f9ef ad3d 7ccf e9bd 388d 10bd 87f0 f0bd
00000350: bc5b 02bc 0e02 223d 1d2c 053e ee42 8ebd
00000360: 0aa6 a63c e686 303b 51ef 5fbd 34b7 12bd
00000370: 7db6 4e3b e5d5 5d3c 1151 133d 266b b13d
00000380: 4a0b bcbd 65d8 bd3c d731 dabd 83ff e43c
00000390: 7328 13bd 8f43 e0bd e4ca f9bd 154a b1bd
000003a0: 90d0 94bd 8388 2d3e 0c11 683d 9fcf c5bd
000003b0: e79e 6e3c a84a 433d c231 1abd 84f8 1dbd
000003c0: 7f20 903c 90c4 4d3c 752a 7cbe 5400 103b
000003d0: 8191 0d3e b887 4cbd bd81 d7bd 53b1 5cbd
000003e0: 449d 503d 18fc 1bbe c9c8 3ebe 8ed8 4abd
000003f0: 542a fd3d f664 06be 2105 023e 8369 0abe

hidden_layers.0.bias f4 [64]
0.05908156 -0.075178765 0.017684653 -0.14049686 0.10585717 -0.14220192 -0.18748878 0.06413941
0.06920807 -0.23252445 0.02175706 0.04676739 0.019675752 -0.0047031296 -0.11055664 -0.18447047
0.030722685 -0.09597963 0.03914237 -0.20287251 -0.11215204 -0.02312204 -0.08894242 -0.17456324
-0.2473802 0.048296995 -0.1276637 -0.24869359 0.08229005 0.0140156355 -0.14760879 -0.16125031
0.057146374 -0.11918173 -0.11553177 -0.023180079 -0.08205766 -0.081697814 -0.12547502 -0.20668587
-0.15206407 -0.108719334 -0.08338494 0.09941162 -0.06701605 -0.06379282 -0.016508281 -0.19806632
-0.10299827 0.036828067 -0.21576889 0.01963362 0.12152334 -0.18684034 -0.18838966 -0.005824381
0.041411147 -0.05057093 -0.17769882 -0.13548693 -0.08011291 -0.042314406 -0.011993705 -0.018438874
00000000: 81ff 713d 53f7 99bd 68df 903c 69de 0fbe
00000010: a5cb d83d 619d 11be 0ffd 3fbe 865b 833d
00000020: f6bc 8d3d e41a 6ebe dd3b b23c 2a8f 3f3d
00000030: 0b2f a13c b61c 9abb 856b e2bd d4e5 3cbe
00000040: 24ae fb3c f890 c4bd c053 203d d0bd 4fbe
00000050: f8af e5bd 6f6a bdbc 7227 b6bd b5c0 32be
00000060: 3c51 7dbe 12d3 453d 46ba 02be 88a9 7ebe
00000070: b087 a83d d6a1 653c c226 17be cd1e 25be
00000080: 5112 6a3d 8d15 f4bd ec9b ecbd 26e4 bdbc
00000090: d90d a8bd 2f51 a7bd 867c 00be 76a5 53be
000000a0: afb6 1bbe 3ea8 debd b9c5 aabd 5298 cb3d
000000b0: b63f 89bd cfa5 82bd 603c 87bc e6d1 4abe
000000c0: c2f0 d2bd 07d9 163d 85f2 5cbe afd6 a03c
000000d0: 3be1 f83d 1353 3fbe 38e9 40be 73da bebb
000000e0: bc9e 293d 7723 4fbd aef6 35be 16bd 0abe
000000f0: 3d12 a4bd df51 2dbd 3f81 44bc 1f0d 97bc

hidden_layers.1.weight f4 [64, 64]
0.017576432 0.010721623 0.0033069374 0.01583877 0.31838086 0.021461342 0.21339963 0.15584362
-0.027665906 0.042994503 0.09910546 -0.010817412 0.08001791 0.061376456 0.09324076 0.1260353
0.1951709 0.16068293 0.035931736 -0.059051353 -0.0214007 0.112679414 -0.06627613 -0.042715006
0.020747308 -0.060146008 -0.034301434 -0.006508655 -0.090442486 0.059572313 0.080171436 0.24181865
0.08548415 0.11534101 0.0484892 0.24144512 0.06915393 -0.07241429 0.14563558 -0.11621606
0.12911353 0.082123645 -0.029891219 -0.13105379 0.0014463544 0.05264688 -0.07030752 0.041347705
0.09562955 -0.04313262 -0.045395438 0.20939423 0.063270934 0.15261924 -0.020507174 -0.05277399
-0.13223244 0.07685383 0.07666889 -0.14318341 -0.10486671 0.015134944 -0.0054916195 0.18516207
-0.050691877 0.04649424 -0.12320743 -0.041470207 0.0783798 -0.12286523 0.0759143 -0.071109146
-0.0700343 0.0036506322 0.107680924 0.11669745 0.013092544 0.01146784 -0.029454295 0.007748917
-0.031228013 0.025442764 -0.031818658 0.11248836 0.05389765 0.18759222 -0.03133848 0.007838977
-0.047604028 0.11468264 -0.019707993 -0.07615485 -0.031127285 -0.03323697 -0.11165336 0.114475645
-0.02734245 0.08250938 0.040895145 0.122331515 -0.04808699 -0.09548788 0.21372493 -0.03202269
-0.08114094 0.10778745 0.0638968 -0.0073045185 0.015292953 -0.08192726 -0.06602798 -0.017972063
0.032582223 0.08951731 0.17509009 -0.06396945 -0.030876378 0.06314672 -0.01585496 0.025769792
-0.06591089 0.079049304 0.047790285 -0.1277804 -0.040035274 -0.17308177 0.03854673 0.030543348
-0.01669055 0.07203643 -0.14971127 0.055674594 0.16992211 0.018570952 0.0131761115 0.0081087835
-0.041272495 -0.05084534 0.0007223172 0.010271738 0.08867355 0.09843685 0.033615362 -0.04043675
-0.003358991 0.039942876 -0.047743075 0.042374812 0.051581394 0.06454781 -0.044383053 0.036754772
0.06308198 -0.03210843 -0.09982893 0.07693558 0.013735221 0.005301638 -0.1592136 0.017795319
-0.09866406 0.008856113 -0.056398813 0.13416733 -0.032552365 -0.036217693 0.10623695 -0.08686855
0.0065159895 0.051941782 -0.04957111 0.04716764 0.06393396 -0.11094888 -0.01782453 -0.113483556
-0.032695774 -0.019999508 0.18852781 -0.1436137 -0.1321587 0.055349063 -0.13617449 0.016088592
-0.081942685 -0.00094008836 0.13228458 -0.25907025 0.12669045 -0.12515521 0.011900896 0.0080572385
-0.0038667691 0.082446165 -0.098913975 0.05431192 0.122275926 -0.111369886 -0.019724626 0.025014604
-0.09825977 0.013300932 0.05649535 0.06780393 0.00543739 -0.06633585 0.104583 -0.011496973
0.018585077 -0.0058708997 -0.031564616 0.078117885 -0.0041771242 0.10429191 -0.032651067 -0.161264
0.069680505 0.06397648 -0.012329784 -0.20079432 0.058337543 -0.014429092 -0.027946379 0.07730417
-0.09271129 0.14597742 -0.121388145 0.11665694 0.0166584 0.009191886 0.32418573 -0.1148404
-0.014767849 -0.020366728 -0.040477075 0.118125595 0.13449982 -0.035131164 -0.07050029 -0.099471904
0.11747752 -0.01676946 0.12837291 -0.1536437 0.00055669266 0.05511595 -0.052959386 0.009237258
-0.15040097 -0.010748314 0.08740371 -0.041039925 0.056252968 -0.23117723 0.0798955 0.02143178
00000000: 73fc 8f3c bfa9 2f3c 34b9 583b 4fc0 813c
00000010: d102 a33e b2cf af3c 6f85 5a3e 7895 1f3e
00000020: 9ca3 e2bc 011b 303d cef7 ca3d 843b 31bc
00000030: 6ee0 a33d e165 7b3d 03f5 be3d 660f 013e
00000040: e1da 473e 118a 243e 282d 133d d5df 71bd
00000050: 8550 afbc 77c4 e63d c8bb 87bd eef5 2ebd
00000060: 42f6 a93c a95b 76bd a97f 0cbd 8e46 d5bb
00000070: e939 b9bd 1902 743d ec30 a43d 4f9f 773e
00000080: 5012 af3d e837 ec3d 9d9c 463d 643d 773e
00000090: 93a0 8d3d f14d 94bd 7e21 153e b002 eebd
000000a0: 5636 043e 7130 a83d 6ede f4bc f732 06be
000000b0: 9a93 bd3a 41a4 573d 64fd 8fbd 365c 293d
000000c0: 6dd9 c33d d5ab 30bd 91f0 39bd 716b 563e
000000d0: 3194 813d 3848 1c3e a9fe a7bc 8a29 58bd
000000e0: f167 07be 8a65 9d3d 9404 9d3d ac9e 12be
000000f0: 5cc4 d6bd 8ef8 773c 0bf3 b3bb 209b 3d3e
00000100: 49a2 4fbd bf70 3e3d 2d54 fcbd aadc 29bd
00000110: 9785 a03d c4a0 fbbd f578 9b3d aca1 91bd
00000120: 256e 8fbd 723f 6f3b d187 dc3d 13ff ee3d
00000130: 1c82 563c 9be3 3b3c 224a f1bc a1ea fd3b
00000140: e4d1 ffbc 586d d03c 4854 02bd 4c60 e63d
00000150: c8c3 5c3d 2d18 403e c75c 00bd 0d6f 003c
00000160: 71fc 42bd bbde ea3d a872 a1bc 13f7 9bbd
00000170: a6fe febc 7d23 08bd 84aa e4bd 3572 ea3d
00000180: 46fd dfbc aefa a83d ab81 273d f288 fa3d
00000190: ddf6 44bd 268f c3bd b5da 5a3e 392a 03bd
000001a0: 392d a6bd abbf dc3d 53dc 823d be5a efbb
000001b0: 4b8f 7a3c 7bc9 a7bd ad39 87bd 263a 93bc
000001c0: f074 053d da54 b73d d14a 333e 6a02 83bd
000001d0: 75f0 fcbc 1153 813d 43e2 81bc 2c1b d33c
000001e0: 4afc 86bd 9ae4 a13d bfbf 433d ddd8 02be
000001f0: 07fc 23bd 593c 31be 2de3 1d3d 0b36 fa3c
00000200: 9fba 88bc d687 933d e94d 19be 0b0b 643d
00000210: 1000 2e3e 1c22 983c 9ee0 573c b4da 043c
00000220: 590d 29bd 3443 50bd e359 3d3a cb4a 283c
00000230: 7a9a b53d 4299 c93d 43b0 093d 01a1 25bd
00000240: 8422 5cbb 249b 233d 3e8e 43bd 3691 2d3d
00000250: 0347 533d a431 843d 01cb 35bd 2c8c 163d
00000260: 2031 813d 2184 03bd 1c73 ccbd 6790 9d3d
00000270: b109 613c 5db9 ad3b e408 23be 7dc7 913c
00000280: 6210 cabd 3b19 113c 7102 67bd 2963 093e
00000290: a155 05bd 0159 14bd c292 d93d 23e8 b1bd
000002a0: 1584 d53b e8c0 543d 140b 4bbd db32 413d
000002b0: cfef 823d 2b39 e3bd c004 92bc 116a e8bd
000002c0: 01ec 05bd 02d6 a3bc 6f0d 413e 780f 13be
000002d0: 9c54 07be b3b5 623d 5371 0bbe 39cc 833c
000002e0: 91d1 a7bd 4370 76ba 9c75 073e dba4 84be
000002f0: 24bb 013e b028 00be fafb 423c 8202 043c
00000300: 9f69 7dbb 89d9 a83d 6993 cabd 2d76 5e3d
00000310: cd6b fa3d e515 e4bd 8a95 a1bc 6deb cc3c
00000320: 6b3c c9bd 27ec 593c ab67 673d c9dc 8a3d
00000330: 222c b23b 17db 87bd 9d2f d63d cd5d 3cbc
00000340: bb3f 983c ad60 c0bb e649 01bd 45fc 9f3d
00000350: 42e0 88bb ff96 d53d 20bd 05bd 6422 25be
00000360: a7b4 8e3d 1a06 833d dd02 4abc 079d 4dbe
00000370: 59f3 6e3d 0068 6cbc ceef e4bc a651 9e3d
00000380: 6bdf bdbd 1b7b 153e 599a f8bd d5e9 ee3d
00000390: 3277 883c 9099 163c acfb a53e 7231 ebbd
000003a0: d9f4 71bc 20d8 a6bc 4acb 25bd d5eb f13d
000003b0: 52ba 093e b2e5 0fbd 7562 90bd edb7 cbbd
000003c0: 0e98 f03d 1b60 89bc 3074 033e c654 1dbe
000003d0: 03ef 113a 43c1 613d f1eb 58bd de57 173c
000003e0: b602 1abe b219 30bc b700 b33d 7b19 28bd
000003f0: 8369 663d b9b9 6cbe 40a0 a33d b391 af3c

hidden_layers.1.bias f4 [64]
0.16124266 0.27063513 0.30457398 0.33414075 0.37942266 0.4122459 0.18593399 0.34887016
0.29962337 0.36228758 0.43067136 0.3062266 0.29744592 0.31227732 0.38877705 0.41170537
0.22865364 0.41005346 0.2809908 0.36138573 0.28832337 0.17471841 0.25689676 0.34429917
0.33926204 0.32958177 -0.11293197 0.36325935 0.3392239 0.20436056 0.32487035 0.18365915
0.23035733 0.33709145 0.34882137 0.33905944 0.100074895 0.39753196 0.3849977 0.12504323
0.34790462 0.15176381 0.3735756 -0.095025904 0.12776124 0.10408439 0.15145615 0.37044212
0.1674839 -0.016432004 0.1187994 0.4239268 -0.39121395 -0.014574566 -0.105751604 0.26799944
-0.026562072 0.032222006 0.03264355 0.3373543 0.2010143 0.36604643 0.12780078 0.29036868
00000000: cc1c 253e b090 8a3e 1ff1 9b3e 7f14 ab3e
00000010: b043 c23e e511 d33e 7b65 3e3e 1c9f b23e
00000020: 3c68 993e c27d b93e f580 dc3e bcc9 9c3e
00000030: d54a 983e d0e2 9f3e c90d c73e 0ccb d23e
00000040: 2e24 6a3e 87f2 d13e 07de 8f3e 8d07 b93e
00000050: 1f9f 933e 62e9 323e f987 833e fb47 b03e
00000060: c1b3 ad3e f1be a83e e048 e7bd 21fd b93e
00000070: c1ae ad3e e543 513e 6855 a63e 2511 3c3e
00000080: cbe2 6b3e 4097 ac3e b798 b23e 3399 ad3e
00000090: 11f4 cc3d 4f89 cb3e 6b1e c53e 550b 003e
000000a0: 8e20 b23e f967 1b3e 4d45 bf3e f19c c2bd
000000b0: d8d3 023e 322a d53d 5217 1b3e 97aa bd3e
000000c0: e680 2b3e 699c 86bc 1a4d f33d ef0c d93e
000000d0: 324d c8be 29ca 6ebc 4c94 d8bd 3937 893e
000000e0: b498 d9bc 39fb 033d 3eb5 053d b4b9 ac3e
000000f0: b1d6 4d3e 706a bb3e 35de 023e 34ab 943e

output.weight f4 [4, 64]
0.1366098 0.11841684 0.116316505 0.10479142 0.10322882 0.0996929 0.19379927 0.098817974
0.11366823 0.10122587 0.089063644 0.102108315 0.13421267 0.1257767 0.09924285 0.08637901
0.11602819 0.093458086 0.11011014 0.09547355 0.109239206 0.15612188 0.14725702 0.09460478
0.13024543 0.085739985 0.113303326 0.114420995 0.09866584 -0.9199182 0.09597913 0.11033076
0.11152881 0.11186502 0.10652375 0.12353024 0.20618123 0.098286174 0.10597599 0.13740453
0.09964333 0.2510175 0.09744572 -0.015630603 0.1572797 0.1270765 0.12625961 0.107550435
0.12395475 0.33557832 -0.29455438 0.09148396 -0.65924364 -0.13525319 0.046806157 0.1159761
0.2794569 0.4220297 0.3582522 0.11903123 0.14770864 0.10435041 0.12001742 0.09836616
0.20053636 0.1645781 0.1559521 0.12869789 0.114172086 0.13340792 0.2770096 0.11941512
0.11176026 0.09479013 0.109750554 0.1596373 0.11630507 0.1528602 0.12986267 0.0760154
0.10850137 0.15778412 0.098201565 0.10348384 0.11321445 0.16226076 0.17115162 0.09070207
0.15903084 0.08297118 -0.0811938 0.13406295 0.099394694 -0.3833657 0.11025162 0.1453299
0.12887691 0.14068152 0.16609713 0.14709307 0.19054776 0.1379974 0.15707266 0.12222605
0.1075289 0.18337281 0.1012773 -0.091632485 0.09733486 0.14906135 0.1319718 0.11335861
0.124079 0.41732222 0.1643354 0.14141218 -0.65179044 0.3765333 -5.193292e-06 0.17837991
0.34585577 0.50430334 0.44806126 0.13230728 0.14171715 0.13566576 0.1426788 0.08366825
0.15586515 0.14012676 0.13770592 0.11505575 0.1072639 0.112823814 -0.2443652 0.12657262
0.12479988 0.10898234 0.102634124 0.12387012 0.16295011 0.16137642 0.12230916 0.095479034
0.12546033 0.11260878 0.11666157 0.107908785 0.11101754 0.1642136 0.14473933 0.11476938
0.14685167 0.09931713 0.1224451 0.12831753 0.10471442 -0.29783648 0.10605485 0.13357623
0.12289425 0.12002025 0.1337114 0.13906556 0.2847051 0.1260468 0.13329965 0.15023562
0.1259225 0.16401671 0.1196017 -0.047960177 0.14048846 0.15335396 0.15108234 0.118551895
0.124621294 0.05153026 0.14769965 0.12261782 -0.7734795 0.39610788 -0.100564994 0.13895191
0.24566925 0.0041211885 0.62403697 0.15190218 0.1658628 0.12659334 0.14401819 0.10329271
0.14173713 0.12185905 0.14197019 0.11786542 0.118299216 0.1085761 0.21253902 0.12059393
0.13769685 0.10823822 0.129617 0.12350383 0.13094394 0.14987357 0.1094254 0.108005725
0.13860694 0.10778751 0.12968315 0.11705317 0.12912841 0.16451648 0.16655594 0.1233783
0.16010864 0.10160523 0.046204727 0.11527377 0.11379194 -0.54606867 0.11714878 0.13925955
0.13426505 0.11910361 0.13194843 0.14247777 0.05766146 0.12985145 0.13848859 0.16670142
0.122339405 0.25247282 0.11747031 -0.0005136035 0.16003445 0.16703434 0.14797468 0.11495937
0.1713658 0.50762653 0.029117674 0.11404531 -0.8129987 0.43111077 -0.00032034918 0.13246018
0.18566974 -0.26662523 -0.074339665 0.13382661 0.17660347 0.11547356 0.14111994 0.11191115
00000000: 70e3 0b3e 8784 f23d 5937 ee3d e29c d63d
00000010: a269 d33d cb2b cc3d 5173 463e 1461 ca3d
00000020: e4ca e83d 824f cf3d 0067 b63d 2a1e d13d
00000030: 0c6f 093e 9bcb 003e d63f cb3d 7ae7 b03d
00000040: 30a0 ed3d f466 bf3d 6d81 e13d a387 c33d
00000050: ceb8 df3d 6ade 1f3e 8bca 163e 27c0 c13d
00000060: 0f5f 053e 7298 af3d 930b e83d 8e55 ea3d
00000070: 5111 ca3d c27f 6bbf b590 c43d 18f5 e13d
00000080: 3769 e43d 7d19 e53d 2029 da3d 6cfd fc3d
00000090: 2c21 533e 434a c93d f109 d93d c6b3 0c3e
000000a0: cd11 cc3d 5e85 803e 9f91 c73d c00b 80bc
000000b0: ee0d 213e 5820 023e 334a 013e 6743 dc3d
000000c0: fddb fd3d ecd0 ab3e d5cf 96be f15b bb3d
000000d0: 31c4 28bf d07f 0abe d0b7 3f3d e184 ed3d
000000e0: fa14 8f3e 4714 d83e d56c b73e a5c6 f33d
000000f0: ef40 173e abb5 d53d b1cb f53d 3374 c93d
00000100: 6759 4d3e 2987 283e e8b1 1f3e 61c9 033e
00000110: 0ed3 e93d 169c 083e 34d4 8d3e ea8f f43d
00000120: 90e2 e43d 5421 c23d e6c4 e03d f677 233e
00000130: 5a31 ee3d 6287 1c3e b8fa 043e f6ad 9b3d
00000140: f735 de3d 2992 213e e71d c93d 56ef d33d
00000150: fadc e73d af27 263e 5f42 2f3e 02c2 b93d
00000160: fbd8 223e cbec a93d ef48 a6bd cc47 093e
00000170: 728f cb3d 8248 c4be 9acb e13d 5cd1 143e
00000180: 4ff8 033e d10e 103e 5e15 2a3e 919f 163e
00000190: f41e 433e 314f 0d3e a8d7 203e a751 fa3d
000001a0: 1d38 dc3d 15c6 3b3e 796a cf3d d0a9 bbbd
000001b0: 8057 c73d 8aa3 183e 9e23 073e 8f28 e83d
000001c0: 211d fe3d 42ab d53e 8a47 283e 5bce 103e
000001d0: bddb 26bf f9c8 c03e 0a42 aeb6 39a9 363e
000001e0: 0214 b13e 061a 013f 4968 e53e 8f7b 073e
000001f0: 4d1e 113e f7eb 0a3e 641a 123e 425a ab3d
00000200: 1d9b 1f3e 647d 0f3e c802 0d3e 59a2 eb3d
00000210: 2dad db3d 2c10 e73d df3a 7abe 419c 013e
00000220: 1497 ff3d 2232 df3d d731 d23d 9eaf fd3d
00000230: 65dc 263e dc3f 253e 3a7d fa3d 838a c33d
00000240: ac78 003e 6f9f e63d 43ec ee3d 48ff dc3d
00000250: 2a5d e33d 9c27 283e 8c36 143e 350c eb3d
00000260: 4960 163e c866 cb3d 7fc4 fa3d ac65 033e
00000270: 8474 d63d 067e 98be 4933 d93d 35c8 083e
00000280: fbaf fb3d 2dcd f53d a4eb 083e 3467 0e3e
00000290: dec4 913e 6a12 013e b47f 083e 5ed7 193e
000002a0: d4f1 003e fff3 273e bcf1 f43d e471 44bd
000002b0: 35dc 0f3e d208 1d3e 54b5 1a3e 56cb f23d
000002c0: 7339 ff3d 6511 533d 943e 173e 0d1f fb3d
000002d0: c102 46bf a7ce ca3e 05f5 cdbd 6949 0e3e
000002e0: b890 7b3e 090b 873b e3c0 1f3f 3f8c 1b3e
000002f0: f0d7 293e afa1 013e 8179 133e 218b d33d
00000300: 8a23 113e 3d91 f93d a260 113e 6d63 f13d
00000310: dc46 f23d 255d de3d d4a3 593e f3f9 f63d
00000320: 6700 0d3e 00ac dd3d 52ba 043e 93ef fc3d
00000330: 2b16 063e 7578 193e 6d1a e03d 1b32 dd3d
00000340: faee 0d3e b3bf dc3d a9cb 043e 93b9 ef3d
00000350: 3d3a 043e 0277 283e a48d 2a3e c3ad fc3d
00000360: 85f3 233e 6716 d03d 2b41 3d3d a814 ec3d
00000370: c00b e93d 28cb 0bbf b3eb ef3d 0e9a 0e3e
00000380: c77c 093e 98ec f33d 7d1d 073e b1e5 113e
00000390: 6c2e 6c3d c7f7 043e f4cf 0d3e c7b3 2a3e
000003a0: 158d fa3d 1e44 813e 4694 f03d 59a3 06ba
000003b0: 12e0 233e 0d0b 2b3e ad86 173e d16f eb3d
000003c0: 847a 2f3e d0f3 013f 3088 ee3c 9690 e93d
000003d0: af20 50bf 8dba dc3e 8af4 a7b9 a4a3 073e
000003e0: 3520 3e3e 1a83 88be 653f 98bd d809 093e
000003f0: 8ad7 343e 677d ec3d bf81 103e ac31 e53d

output.bias f4 [4]
1.8900135 1.4192511 1.5347983 1.5118722
00000000: f6eb f13f 05aa b53f 4574 c43f 0785 c13f

exp_avg f4 [64, 37]
-6.287739e-05 -0.00031882196 0.000499183 0.00048445788 0.00037826732 -0.0003309734 0.00021210156 0.0007663601
-4.5546687e-05 0.0005159984 -0.0001550447 0.00012372746 0.0006789298 -4.5671113e-05 9.914746e-05 0.0010385526
-0.00038044708 4.180928e-06 -6.034493e-05 0.00060111436 -0.00016550954 0.00011981012 -0.00030518 0.000952821
-6.196467e-05 3.9118575e-05 -0.0001288995 -4.015271e-05 0.00073187513 0.0003056415 -0.00018498063 0.00021141827
-0.00025670903 0.0008322129 0.00020938291 -0.00065432145 0.005553026 -1.5520188e-06 0.0003834321 0.00014182294
0.001105661 0.00027272032 0.0003118078 0.0014158553 -5.9701927e-12 -9.829864e-05 0.0009782591 0.00076524616
-0.00050781487 0.0009969356 0.0003749974 0.00060609175 0.00031332602 0.00037053702 0.0011459566 -0.00020045569
0.00034579626 0.0014918847 2.077668e-05 4.5485023e-05 7.121773e-05 0.00045184768 0.0013156211 0.00054283545
-3.655893e-05 -0.00019253345 0.00077401 0.0021889093 -7.1025775e-06 -0.0001530823 -0.0003993604 0.0005129443
-0.0014680166 0.003818416 0.0003552995 0.000385386 0.0003684196 -9.036504e-06 0.00047398458 6e-45
0.0002254162 0.0008746524 1.073765e-14 6.9375375e-05 0.00017226806 0.0005985343 0.00018363612 0.0001456301
0.00037240968 0.0001589381 0.0003163337 0.0003539786 0.00027081813 0.00010079138 -1.4557831e-07 0.00057679415
0.0005349908 -1.157076e-05 0.00024078933 5.7375672e-08 0.00025466108 0.0007652697 8.008038e-05 7.978162e-05
-9.341494e-20 0.0002107126 0.000889356 -3.6526205e-14 8.241945e-05 0.00057401333 0.0026556868 -5.7314388e-05
-6e-45 -3.0979913e-06 -2.1338491e-07 -6.9782865e-05 -8.797429e-05 0.0002964083 -0.00015072434 -0.00011833545
6.558813e-05 -0.0001229724 0.00027006638 -7.35959e-05 -0.00013412377 -0.00016147071 0.00051552965 -0.00016158975
-0.00018476187 -0.00022980376 -1.4898516e-06 -8.428541e-05 0.0005346964 -0.00073990057 0.0002288638 -0.00023065048
3.333143e-05 0.0007658303 -0.0005622908 -0.0002974965 0.00030707664 0.00028316665 7.434586e-05 6.002772e-05
-0.00047816586 0.0003757482 0.00082899234 0.0034638518 0.0007464354 -0.00018690497 0.0019463899 0.00071480207
0.0014134449 0.003220734 6e-45 6e-45 -1.1232064e-08 0.0004560639 0.0008064375 -0.00024935053
0.0025916616 7.197368e-05 -7.157029e-05 3.9014514e-05 -0.0010928432 0.0027620248 0.0015125265 0.00050598057
0.0007098616 0.0006300239 0.0011374035 0.0007434332 0.00016059684 0.0014158819 -0.0005593642 0.0012814435
0.0010827611 0.00026230887 0.0023464137 0.00072887365 0.00079507934 -0.0006496443 0.0015015631 0.0064393356
0.0054267696 0.0001437831 -0.00034714537 -0.00039027416 0.0007056807 -0.0002779447 -2.201468e-05 0.0007055358
-0.0005637989 -7.677898e-06 0.0003862661 -0.00013289359 0.000198756 9.131447e-05 -4.5132652e-05 -0.000109326465
0.000638616 -0.0001927183 3.1042293e-07 -0.00033416392 0.00028343755 6.7631456e-11 0.0006227993 -0.0005983616
8.7606495e-05 -5.7891895e-05 0.000921346 -0.00020653916 -0.00062584813 2.3085608e-05 0.0003627787 0.00016116613
0.00057700084 -0.0005832585 -4.286416e-05 6.771834e-06 -0.0015524535 -0.0018781174 0.00039861354 -0.00015276835
-2.5601634e-05 -8.8974895e-07 9.956767e-05 0.00024878146 -1.3562406e-05 -1.571788e-05 -1.4735672e-07 8.6191284e-07
-1.836405e-08 0.000100064426 0.000119307784 -5.2412553e-12 0.00014143155 0.0002628502 -0.00011239728 9.536673e-05
-2.6465843e-05 0.00012707249 3.0169e-41 5.2922583e-06 0.00021386532 1.9623475e-07 6.986253e-05 0.00010403849
0.00012602824 5.506766e-07 -1.126356e-05 0.000117504984 0.00010116402 -7.7566326e-36 0.00011818982 3.2371e-41
00000000: 0bdd 83b8 8f27 a7b9 9bdb 023a d6fe fd39
00000010: 2e52 c639 7f86 adb9 9467 5e39 8ee5 483a
00000020: 6209 3fb8 1144 073a 7f93 22b9 d6bc 0139
00000030: 35fa 313a fc8e 3fb8 63ed cf38 0b20 883a
00000040: be76 c7b9 e649 8c36 e01a 7db8 1a94 1d3a
00000050: a18c 2db9 9242 fb38 9100 a0b9 bcc6 793a
00000060: 07f3 81b8 4013 2438 3229 07b9 a569 28b8
00000070: 4fdb 3f3a 823e a039 5cf7 41b9 29b0 5d39
00000080: e796 86b9 dd28 5a3a cc8d 5b39 c586 2bba
00000090: 29f6 b53b f64e d0b5 6307 c939 4eb6 1439
000000a0: d4eb 903a e7fb 8e39 227a a339 3894 b93a
000000b0: b70e d2ac ae25 ceb8 ee38 803a cd9a 483a
000000c0: e11e 05ba 9cab 823a 4d9b c439 21e2 1e3a
000000d0: e845 a439 a344 c239 ec33 963a 6a31 52b9
000000e0: fd4b b539 588b c33a 9549 ae37 2cc7 3e38
000000f0: ba5a 9538 f8e5 ec39 eb70 ac3a 124d 0e3a
00000100: da56 19b8 cee2 49b9 efe6 4a3a ce73 0f3b
00000110: ad52 eeb6 b884 20b9 3f61 d1b9 1c77 063a
00000120: 776a c0ba 643e 7a3b 7e47 ba39 a20d ca39
00000130: 7128 c139 7d9b 17b7 2281 f839 0400 0000
00000140: b35d 6c39 ee48 653a ac6e 4128 9f7d 9138
00000150: dba2 3439 f5e6 1c3a 728e 4039 48b4 1839
00000160: fb3f c339 9fa8 2639 97d9 a539 3496 b939
00000170: 98fc 8d39 f65f d338 4350 1cb4 0034 173a
00000180: a03e 0c3a 0920 42b7 657c 7c39 386d 7633
00000190: 0884 8539 619c 483a d4f0 a738 6e50 a738
000001a0: de91 dc9f bcf2 5c39 ac23 693a d97f 24a9
000001b0: 9bd8 ac38 6279 163a 080b 2e3b db64 70b8
000001c0: 0400 0080 16e7 4fb6 cc1e 65b4 6458 92b8
000001d0: d67e b8b8 4067 9b39 c20b 1eb9 dc2a f8b8
000001e0: 5c8c 8938 27f2 00b9 b297 8d39 7f57 9ab8
000001f0: 93a3 0cb9 7750 29b9 9c24 073a 6b70 29b9
00000200: a3bc 41b9 7af7 70b9 e9f6 c7b5 63c2 b0b8
00000210: de2a 0c3a e3f5 41ba 29fb 6f39 c4da 71b9
00000220: 5acd 0b38 00c2 483a b266 13ba 4ef9 9bb9
00000230: 21ff a039 fc75 9439 21ea 9b38 46c6 7b38
00000240: 56b2 fab9 1200 c539 bc50 593a ca01 633b
00000250: 6fac 433a ecfb 43b9 021e ff3a 8e61 3b3a
00000260: 5743 b93a f312 533b 0400 0000 0400 0000
00000270: 24f7 40b2 dc1b ef39 1b67 533a 43bb 82b9
00000280: ded8 293b 93f0 9638 0218 96b8 84a3 2338
00000290: bc3d 8fba 1603 353b f83f c63a c8a3 043a
000002a0: 0116 3a3a 3028 253a ee14 953a f5e2 423a
000002b0: e365 2839 1d95 b93a 4ca2 12ba 1cf6 a73a
000002c0: 6feb 8d3a 8086 8939 4ac6 193b e211 3f3a
000002d0: df6c 503a e44c 2aba 19d0 c43a 1001 d33b
000002e0: 0bd3 b13b 7bc4 1639 1001 b6b9 b69d ccb9
000002f0: 6efd 383a 1bb9 91b9 2aac b8b7 b5f3 383a
00000300: e7cb 13ba 52d0 00b7 c283 ca39 5a59 0bb9
00000310: 2869 5039 1580 bf38 d14c 3db8 3346 e5b8
00000320: cb68 273a 6d14 4ab9 34a8 a634 b932 afb9
00000330: 589a 9439 20b9 942e 5b43 233a 5edb 1cba
00000340: 61b9 b738 f3d0 72b8 7c86 713a 6f92 58b9
00000350: f50f 24ba f7a7 c137 5533 be39 b4fe 2839
00000360: df41 173a d1e5 18ba 0bc9 33b8 9c39 e336
00000370: b27b cbba 2a2b f6ba 01fd d039 7130 20b9
00000380: 17c3 d6b7 15d7 6eb5 fcce d038 e26e 8239
00000390: 178a 63b7 e4d9 83b7 1b39 1eb4 335e 6735
000003a0: f9be 9db2 aed9 d138 e134 fa38 0869 b8ac
000003b0: 3e4d 1439 28cf 8939 d5b6 ebb8 a0ff c738
000003c0: f702 deb7 c33e 0539 1954 0000 2794 b136
000003d0: 0941 6039 99b4 5234 2983 9238 3d2f da38
000003e0: 7326 0439 35d2 1335 9ff8 3cb7 026d f638
000003f0: 0528 d438 20f7 2485 addc f738 3d5a 0000

exp_avg_sq f4 [64, 37]
9.405639e-06 4.6201576e-06 5.0363224e-06 1.7481353e-06 3.2332146e-06 1.143011e-05 5.7369566e-06 3.1311208e-06
1.2347446e-06 2.662638e-06 3.9560637e-06 9.923933e-06 4.7657472e-06 2.6015355e-06 4.351838e-06 1.1599834e-05
3.65888e-06 4.841118e-06 1.56332e-06 3.1787552e-06 6.561944e-06 9.034811e-06 4.0425366e-06 1.8547299e-06
3.759159e-06 1.5600936e-05 1.850593e-06 2.33048e-06 1.5120821e-06 1.5475263e-06 1.0002029e-05 7.74578e-06
2.3955981e-06 1.1759132e-06 3.0360322e-06 1.8936942e-05 0.0015675193 1.5376523e-05 1.5744758e-05 8.445953e-06
5.884102e-06 5.252342e-06 3.0961586e-05 1.0224174e-05 7.3873515e-08 4.5293914e-06 3.4039872e-06 1.5725342e-05
1.3318537e-05 1.0604869e-05 5.5110636e-06 8.28644e-06 2.4156483e-05 1.0282211e-05 8.465829e-06 2.4320173e-06
4.6425166e-06 1.851422e-05 1.4155615e-05 9.4464685e-06 2.3172383e-06 8.446396e-06 2.8388165e-05 1.0450117e-05
2.6993912e-06 3.6577699e-06 3.8872236e-06 3.3977532e-05 5.2252312e-06 6.14662e-06 2.0073464e-06 2.6978314e-06
4.4462202e-05 0.002497708 3.5941914e-06 1.2373135e-05 2.103486e-06 5.1856733e-07 2.8260238e-06 1.5049347e-09
1.3573174e-05 4.7660324e-06 1.40118654e-08 9.958019e-07 3.318893e-06 7.8241565e-06 7.2135585e-06 4.1335915e-07
4.636802e-06 2.5026843e-06 1.2171803e-05 4.029574e-06 2.1111155e-07 1.6907176e-06 1.8125978e-07 8.658384e-06
5.865815e-06 3.95097e-06 9.620913e-07 4.4406397e-07 1.4990472e-05 3.3777758e-06 2.1410739e-07 1.326035e-06
6.6450108e-09 1.2071134e-05 7.3084802e-06 5.11683e-08 1.1711599e-06 2.5118996e-05 0.0008351096 8.434177e-05
5.882934e-23 1.8130886e-06 4.761732e-07 1.7706004e-06 4.0281968e-05 2.4650719e-05 2.0104371e-05 3.9627384e-06
1.2244701e-05 8.574094e-06 4.43814e-05 2.671649e-05 8.465304e-06 1.9353916e-05 6.0452898e-05 8.129804e-06
1.41325645e-05 5.0603285e-06 1.3453546e-05 2.5693435e-05 3.4593533e-05 2.0714326e-05 5.5493556e-06 1.6717742e-05
5.5709177e-05 1.6172839e-05 1.3754812e-05 2.9277658e-06 1.11310355e-05 3.282156e-05 2.8014547e-05 1.7952005e-05
7.6781225e-06 1.2123181e-05 0.000110458794 0.004965556 9.5707845e-05 5.49904e-05 6.743921e-05 1.356929e-05
4.3563145e-05 0.0002580974 3.937177e-09 7e-43 2.3040734e-07 3.3205001e-06 5.0314742e-05 8.521225e-05
6.400197e-05 2.9474051e-05 4.596514e-05 9.867873e-05 5.541437e-05 6.206627e-05 2.3594428e-05 4.531095e-05
8.226283e-05 8.099819e-05 4.5187735e-05 1.9175583e-05 5.0883773e-05 0.00016420234 3.232931e-05 2.9352334e-05
1.004349e-05 2.391379e-05 0.00014156749 5.4234155e-05 2.2508933e-05 2.2015158e-05 3.4563975e-05 0.00021311892
0.018388487 2.9053122e-06 2.6484524e-06 8.451779e-06 2.0945065e-06 3.0280542e-06 3.0082053e-06 7.1606455e-06
5.4509856e-06 1.0462317e-06 3.2367918e-06 2.6213115e-06 8.726075e-06 3.0243225e-06 1.9930458e-06 3.0293158e-06
1.2988196e-05 1.2450897e-06 3.148163e-08 1.980792e-06 1.3760629e-06 1.1816253e-08 8.008991e-06 5.5949745e-06
2.936389e-06 1.5630641e-06 7.436174e-06 3.6659421e-06 4.5649354e-06 9.763439e-07 3.6410383e-06 1.5418184e-06
6.8558247e-06 6.08166e-06 2.1525498e-06 2.065371e-06 2.0752821e-05 0.00092214736 2.0901168e-06 1.9643521e-06
1.1767513e-06 4.7045944e-07 7.0949346e-07 4.292061e-06 1.2811628e-06 2.5613286e-07 3.192712e-08 6.9369713e-07
1.3210355e-07 3.3379702e-06 2.1171459e-06 1.4320648e-07 1.519382e-06 3.1748405e-06 1.6929046e-06 6.451171e-07
2.2245432e-07 1.5497606e-06 1.00560314e-07 2.2910244e-06 3.3171466e-06 5.6606105e-08 7.856894e-07 3.2954947e-06
2.2496276e-06 9.112795e-08 1.7430231e-07 9.2394015e-07 3.5198932e-06 2.7398937e-07 2.0292603e-06 3.9371266e-09
00000000: e9cc 1d37 da06 9b36 aefd a836 79a1 ea35
00000010: 34fa 5836 f3c3 3f37 1580 c036 3f20 5236
00000020: 80b9 a535 c6af 3236 54be 8436 f87e 2637
00000030: 75e9 9f36 0a96 2e36 0106 9236 e89c 4237
00000040: 148b 7536 e370 a236 44d3 d135 9952 5536
00000050: ab2e dc36 3894 1737 20a5 8736 09f0 f835
00000060: dc45 7c36 c1de 8237 e461 f835 5765 1c36
00000070: bff2 ca35 99b4 cf35 63ce 2737 dff3 0137
00000080: 10c4 2036 12d4 9d35 a3be 4b36 c6da 9e37
00000090: 3875 cd3a d5fc 8037 9c13 8437 18b3 0d37
000000a0: 0d70 c536 463d b036 c0dc 0138 7e88 2b37
000000b0: 65a4 9e33 2dfb 9736 0e70 6436 eae9 8337
000000c0: ae72 5f37 91eb 3137 adeb b836 fd05 0b37
000000d0: a7a3 ca37 c381 2c37 7508 0e37 bd35 2336
000000e0: eac6 9b36 fc4e 9b37 e77d 6d37 467c 1e37
000000f0: da81 1b36 ffb4 0d37 1f23 ee37 e952 2f37
00000100: 3027 3536 0278 7536 ff6e 8236 1983 0e38
00000110: 6554 af36 103f ce36 f3b5 0636 640c 3536
00000120: ed7c 3a38 96b0 233b bd33 7136 3696 4f37
00000130: 9d29 0d36 ad33 0b35 b8a6 3d36 2fd6 ce30
00000140: 57b8 6337 e8eb 9f36 d6b8 7032 7ea7 8535
00000150: 26ba 5e36 7f44 0337 ff0b f236 a6eb dd34
00000160: d395 9b36 caf3 2736 7f35 4c37 c735 8736
00000170: e7ad 6234 9dec e235 4fa0 4234 7a43 1137
00000180: f8d2 c436 9392 8436 3521 8135 b067 ee34
00000190: 967f 7b37 bfad 6236 64e5 6534 37fa b135
000001a0: 2252 e431 2085 4a37 5e3b f536 24c4 5b33
000001b0: bf30 9d35 a2b6 d237 42eb 5a3a a5e0 b038
000001c0: 993d 8e1a 4059 f335 bfa4 ff34 5ea5 ed35
000001d0: 6ff4 2838 04c9 ce37 cfa5 a837 aaf7 8436
000001e0: 976e 4d37 74d9 0f37 2a26 3a38 3a1d e037
000001f0: 3406 0e37 385a a237 ce8e 7d38 3e65 0837
00000200: e71a 6d37 e4cb a936 8ab6 6137 3b88 d737
00000210: 8618 1138 adc3 ad37 9a34 ba36 143d 8c37
00000220: 46a9 6938 e8aa 8737 78c4 6637 a27a 4436
00000230: 6fbf 3a37 e2a9 0938 c800 eb37 a397 9637
00000240: 49d1 0037 aa64 4b37 1da6 e738 1ab6 a23b
00000250: c2b6 c838 7ea5 6638 266e 8d38 a8a7 6337
00000260: 92b7 3638 3f51 8739 c647 8731 f401 0000
00000270: e365 7734 c2d5 5e36 0b09 5338 fab3 b238
00000280: cc38 8638 0b3f f737 b1ca 4038 bdf1 ce38
00000290: ba6c 6838 9329 8238 a6ec c537 430c 3e38
000002a0: 8584 ac38 92dd a938 f687 3d38 40db a037
000002b0: 096c 5538 bb2d 2c39 5599 0738 a839 f637
000002c0: 7680 2837 799a c837 bc71 1439 7b79 6338
000002d0: 91d1 bc37 31ad b837 c9f8 1038 ad78 5f39
000002e0: 74a3 963c e2f8 4236 11bc 3136 1dcc 0d37
000002f0: 598f 0c36 9335 4b36 93e0 4936 7a45 f036
00000300: 9ce7 b636 3f6c 8c35 a937 5936 cae9 2f36
00000310: 3566 1237 77f5 4a36 44c0 0536 404b 4b36
00000320: e1e7 5937 f51c a735 6b36 0733 bfed 0436
00000330: 29b1 b835 6e00 4b32 5b5e 0637 77bc bb36
00000340: c70e 4536 79ca d135 4084 f936 6804 7636
00000350: 7f2c 9936 ec0a 8335 9058 7436 7af0 ce35
00000360: 160b e636 1011 cc36 8674 1036 ce9a 0a36
00000370: 5816 ae37 43bc 713a ef43 0c36 50d3 0336
00000380: def0 9d35 7493 fc34 0574 3e35 8604 9036
00000390: 6bf4 ab35 a282 8934 3d20 0933 8136 3a35
000003a0: 59d8 0d34 e401 6036 4a14 0e36 4cc4 1934
000003b0: 91ed cb35 580f 5536 c237 e335 1c2c 2d35
000003c0: c7db 6e34 5e01 d035 9ef3 d733 80bf 1936
000003d0: 259c 5e36 121f 7333 2ae8 5235 2b28 5d36
000003e0: 4ff8 1636 1fb2 c333 db27 3b34 af04 7835
000003f0: 4e37 6c36 d018 9334 6d2e 0836 5547 8731

exp_avg f4 [64]
0.0006019414 0.0016293642 0.0011000686 -6.0625734e-05 0.0032207223 0.000112044196 0.00021935385 0.00025218792
0.00032026297 0.0007659288 0.003689744 0.0026696695 0.0016253865 3.6518708e-05 -0.0013258015 6e-45
0.0008861419 0.0012193511 0.0013432505 0.0007409156 0.0011826687 0.0014903923 0.0010959085 6e-45
0.0018493218 0.0052814437 0.00079925626 0.0006344726 0.0010394605 0.003341462 6e-45 0.0009134158
-7.67604e-05 -0.00029097483 -0.00085393665 0.0014842846 -0.0010522711 0.0005982122 -0.0035559037 8.768853e-05
0.0017954191 0.0010740417 0.0016028609 0.0015298969 3.142939e-05 -0.00039354738 -9.973572e-06 -0.00010242274
0.0024225183 0.002461263 -0.000703778 0.0008315453 0.0014670251 0.00086071325 -0.0003569553 0.0012147333
-0.00020516576 0.0024678968 0.0035931398 -0.00010043175 -0.00039873633 0.0005383629 0.00033426046 0.0011960552
00000000: 9bcb 1d3a 6490 d53a 2d30 903a 6348 7eb8
00000010: c112 533b 45f9 ea38 5a02 6639 1738 8439
00000020: f8e8 a739 9dc8 483a a2cf 713b 9ff5 2e3b
00000030: ec0a d53a aa2b 1938 84c6 adba 0400 0000
00000040: fa4b 683a a2d2 9f3a 0210 b03a 013a 423a
00000050: c703 9b3a 4459 c33a 96a4 8f3a 0400 0000
00000060: f164 f23a f60f ad3b 2e85 513a bc52 263a
00000070: 823e 883a 6efc 5a3b 0400 0000 4c72 6f3a
00000080: 6dfa a0b8 fb8d 98b9 b8da 5fba 548c c23a
00000090: 5cec 89ba 57d1 1c3a 2a0a 69bb 6ce5 b738
000000a0: 4554 eb3a dcc6 8c3a 1617 d23a d286 c83a
000000b0: 0dd3 0338 0955 ceb9 2a54 27b7 cacb d6b8
000000c0: 1dc3 1e3b 244d 213b be7d 38ba 0ffc 593a
000000d0: 3249 c03a 7da1 613a bb25 bbb9 b037 9f3a
000000e0: c421 57b9 70bc 213b e27a 6b3b e39e d2b8
000000f0: 7c0d d1b9 ec20 0d3a ae3f af39 f4c4 9c3a

exp_avg_sq f4 [64]
2.1863512e-05 4.640757e-05 1.9537396e-05 8.697914e-05 0.00025871 1.6547301e-05 5.8727146e-06 2.7168815e-05
3.9058417e-05 1.3613099e-05 7.6004464e-05 0.00012151102 4.6662182e-05 5.9220598e-05 7.768395e-05 1.7152081e-34
1.2942457e-05 4.2115575e-05 2.105451e-05 0.0002752041 5.3503576e-05 0.0005407446 5.4455842e-05 9.163e-28
0.00019662372 0.00011429426 3.0458277e-05 1.0322469e-05 3.922543e-05 0.00013555547 5.222356e-11 6.42222e-05
5.5574033e-06 0.00010492902 1.8239092e-05 0.0001168001 6.198936e-05 0.00015082388 0.0002782579 6.6420575e-06
3.1766212e-05 4.1761323e-06 0.00013136453 3.2323715e-05 4.7856287e-07 1.7158283e-05 2.1286287e-06 3.3189015e-06
0.00012885826 5.1596293e-05 0.00031007425 4.9136916e-06 2.9621626e-05 6.3133186e-05 2.5107934e-06 4.9970247e-05
2.4255705e-05 3.9633087e-05 0.00028576332 6.758942e-06 0.00060237286 7.982783e-06 1.0536512e-05 4.4020486e-05
00000000: 8967 b737 c0a5 4238 3de4 a337 9268 b638
00000010: 78a3 8739 0fcf 8a37 3c0e c536 96e8 e337
00000020: a8d2 2338 d163 6437 9664 9f38 bbd3 fe38
00000030: 23b7 4338 a263 7838 41ea a238 82fd 6307
00000040: 6e23 5937 41a5 3038 379e b037 4549 9039
00000050: 0769 6038 c1c0 0d3a 8467 6438 8b31 9112
00000060: c72c 4e39 43b1 ef38 a780 ff37 ab2e 2d37
00000070: fc85 2438 e523 0e39 80ae 652e 08af 8638
00000080: bb79 ba36 570d dc38 2700 9937 94f2 f438
00000090: 4900 8238 7a26 1e39 25e3 9139 d7de de36
000000a0: b63c 0538 b420 8c36 e6be 0939 5393 0738
000000b0: 9776 0035 22ef 8f37 90d9 0e36 4bba 5e36
000000c0: 201e 0739 1969 5838 7691 a239 4ae0 a436
000000d0: f57b f837 5f66 8438 1a7f 2836 2597 5138
000000e0: bb78 cb37 b43b 2638 81d2 9539 dfca e236
000000f0: 8fe8 1d3a cbed 0537 f9c5 3037 a3a2 3838

exp_avg f4 [64, 64]
-0.00023751336 6.446519e-05 -0.00021696741 1.9310992e-05 0.00011247544 6.9887086e-05 4.9799635e-08 2.5635263e-05
0.00014583432 0.00016854313 9.443097e-05 0.00046893925 0.00038429158 0.00024477963 3.3671768e-05 -6e-45
0.00011091099 6.5725064e-05 -0.00029298852 0.00023334478 0.0006704887 0.00012864532 0.0002535377 -6e-45
0.00010565555 0.00054614514 0.00028738493 -2.1018772e-05 0.00041456253 4.13735e-05 6e-45 3.1000538e-05
-2.3834707e-05 -1.0042144e-05 -2.1037682e-05 -3.514879e-06 -0.0005445634 0.00010796621 2.5937802e-06 2.4235007e-07
0.0003902515 -8.014247e-05 0.00030439376 0.00061028445 5.979221e-06 0.00024760485 5.4715533e-06 1.6386668e-05
0.00041062772 0.00043350522 -7.630072e-05 -0.0001678163 0.00015912941 3.9270155e-05 1.3919573e-05 0.00057077047
2.178836e-05 0.00031505726 7.399306e-05 -1.6780898e-06 -4.4330685e-05 -2.4708563e-05 0.00033805976 0.00024802017
-0.00012337127 8.113742e-05 -0.00018264551 3.246893e-05 5.0262366e-05 5.7482815e-05 9.006214e-06 4.4401488e-05
0.00012826547 0.00013281348 7.2864335e-05 0.00038577116 0.00033007722 0.0002204798 2.7802564e-05 -6e-45
0.00011031774 3.975094e-05 -0.00020293186 0.00017727437 0.000601527 9.7753895e-05 0.00022190127 -6e-45
6.728902e-05 0.00047677342 0.00024504625 -6.485315e-06 0.00034977272 -1.944722e-05 6e-45 2.80465e-05
-1.5107173e-05 -8.438623e-06 0.00023955942 -3.1206143e-06 0.00012499574 9.67751e-05 -1.4155327e-05 2.6154058e-07
0.00039023263 -9.111358e-05 0.00023332941 0.00051679596 5.4210377e-06 0.00016456947 5.8363003e-06 1.1737308e-05
0.00031270093 0.00036121727 -7.723765e-05 -0.00015025759 0.00013423974 7.3863675e-06 1.4151807e-05 0.0004979675
2.2804204e-05 0.00026122248 5.3285905e-05 -1.5723771e-06 -6.209983e-05 -2.2230364e-05 0.0002979572 0.00018427084
-0.00016019444 4.1097373e-06 -0.00022460795 1.7947057e-05 2.883977e-05 6.1057646e-05 -6.406047e-07 -1.8946723e-05
0.00015522257 0.000106022824 8.427334e-05 0.00027080494 0.0003269229 0.00017970675 1.9674864e-05 -6e-45
-5.1240506e-05 -8.95065e-06 -0.00048277932 0.0001420364 0.0005203993 0.00011206145 0.00020665213 -6e-45
4.5316265e-05 0.00042836205 0.0002596292 -1.7623192e-05 0.00029725838 -5.2758558e-05 6e-45 2.3275677e-05
5.881319e-07 -1.1550322e-05 0.00021156862 -4.4067488e-06 4.8831458e-05 7.731201e-05 -4.1035364e-05 -2.161495e-06
0.00032432014 -0.00016278891 0.00015448479 0.00051205297 5.3122935e-06 0.00014760035 5.8664696e-06 1.3448598e-06
0.00028099428 0.0002967392 -8.8764165e-05 -0.00015821628 -0.00023886508 1.2511689e-05 1.5245463e-05 0.00038658554
1.8060782e-05 0.00022499094 4.877263e-05 1.7792117e-06 -4.7681675e-05 -2.1303867e-05 0.0002831625 0.00015217211
-0.0001301266 6.589155e-05 -0.00016922076 2.0081448e-05 9.427621e-06 5.3397376e-05 -2.732426e-06 -4.98222e-05
0.00010055317 0.00012228881 4.092141e-05 0.00026411616 0.0002741295 0.00015080613 8.940752e-06 -6e-45
2.8208131e-05 1.6924623e-05 -0.0002118303 0.00010134886 0.00048517514 9.689836e-05 0.00016590161 -6e-45
6.3733896e-05 0.0004135111 0.00020856179 -1.6753826e-05 0.00023470147 -2.81995e-05 6e-45 6.459164e-06
-2.2206292e-05 -1.717845e-05 0.00026183444 -2.0116172e-06 9.7675984e-05 8.84085e-05 -2.312274e-05 1.9471962e-07
0.00025109798 -0.000109586974 0.00013800626 0.0004376295 4.6246982e-06 0.00014649221 6.1696924e-06 5.24028e-07
0.00022761627 0.00026921523 -6.5657856e-05 -0.00013522901 7.2668525e-05 -3.0228965e-05 1.3017835e-05 0.00036562255
1.529702e-05 0.00020005454 1.38329715e-05 -7.3021016e-07 -5.3661835e-05 -1.8227189e-05 0.00027073163 0.0001240691
00000000: 020d 79b9 7c31 8738 bf81 63b9 0afe a137
00000010: cbe0 eb38 5890 9238 47e3 5533 4f0b d737
00000020: 1aeb 1839 f4ba 3039 3e09 c638 f6db f539
00000030: be7a c939 c455 8039 c93a 0d38 0400 0080
00000040: e298 e838 e0d5 8938 419c 99b9 03ae 7439
00000050: bcc3 2f3a f7e4 0639 41ed 8439 0400 0080
00000060: 6493 dd38 2e2b 0f3a 27ac 9639 7851 b0b7
00000070: a459 d939 7588 2d38 0400 0000 9306 0238
00000080: a5f0 c7b7 ae7a 28b7 147a b0b7 29e1 6bb6
00000090: 08c1 0eba eb6b e238 ce10 2e36 571c 8234
000000a0: ab9a cc39 2912 a8b8 0a97 9f39 7ffb 1f3a
000000b0: 1ea1 c836 f6d0 8139 4998 b736 1a76 8937
000000c0: 8549 d739 1648 e339 a303 a0b8 d8f7 2fb9
000000d0: fadb 2639 02b6 2438 1c88 6937 c29f 153a
000000e0: 26c6 b637 452e a539 b92c 9b38 ba3a e1b5
000000f0: b6ef 39b8 3c45 cfb7 9d3d b139 b408 8239
00000100: 395d 01b9 5228 aa38 8884 3fb9 402f 0838
00000110: ced0 5238 b419 7138 6519 1737 bc3b 3a38
00000120: 007f 0639 d943 0b39 bece 9838 5441 ca39
00000130: 370e ad39 9830 6739 8d39 e937 0400 0080
00000140: 635a e738 3fba 2638 1bca 54b9 bae2 3939
00000150: cbaf 1d3a 3901 cd38 2bae 6839 0400 0080
00000160: 841d 8d38 72f7 f939 8d79 8039 6f9c d9b6
00000170: b361 b739 9622 a3b7 0400 0000 6645 eb37
00000180: d074 7db7 9c93 0db7 3e32 7b39 bf6b 51b6
00000190: 4a11 0339 bcf3 ca38 ab7c 6db7 dd69 8c34
000001a0: 2398 cc39 3b14 bfb8 e3a9 7439 9779 073a
000001b0: 5ce6 b536 4890 2c39 70d5 c336 5beb 4437
000001c0: 02f2 a339 c361 bd39 a6fa a1b8 778e 1db9
000001d0: b5c2 0c39 6ad8 f736 8c6d 6d37 098a 023a
000001e0: a84b bf37 b0f4 8839 4e7f 5f38 770a d3b5
000001f0: 983b 82b8 587b bab7 2337 9c39 d438 4139
00000200: def9 27b9 60e6 8936 bd84 6bb9 038d 9637
00000210: efec f137 130c 8038 05f6 2bb5 c7ef 9eb7
00000220: 3ec3 2239 9258 de38 e8bb b038 d3fa 8d39
00000230: d966 ab39 aa6f 3c39 730b a537 0400 0080
00000240: 13eb 56b8 c02a 16b7 8b1d fdb9 9bef 1439
00000250: 686b 083a 8802 eb38 c2b0 5839 0400 0080
00000260: f811 3e38 c895 e039 d71e 8839 84d5 93b7
00000270: 58d9 9b39 1249 5db8 0400 0000 2340 c337
00000280: 1ee0 1d35 41c8 41b7 85d8 5d39 afdd 93b6
00000290: 61d0 4c38 9222 a238 631d 2cb8 340e 11b6
000002a0: 8309 aa39 51b2 2ab9 32fd 2139 4b3b 063a
000002b0: 4140 b236 2bc5 1a39 97d8 c436 0881 b435
000002c0: 6a52 9339 a993 9b39 e626 bab8 dce6 25b9
000002d0: db77 7ab9 4ce9 5137 c4c6 7f37 a2ae ca39
000002e0: 3c81 9737 8ceb 6b39 3691 4c38 40cd ee35
000002f0: cffd 47b8 b5b5 b2b7 6d75 9439 6490 1f39
00000300: 9872 08b9 422f 8a38 da70 31b9 9574 a837
00000310: 532b 1e37 fff6 5f38 b95e 37b6 2ef8 50b8
00000320: 12e0 d238 a73a 0039 08a3 2b38 1279 8a39
00000330: 0ab9 8f39 b621 1e39 3d00 1637 0400 0080
00000340: 80a0 ec37 5af9 8d37 c31e 5eb9 418b d438
00000350: 1b5f fe39 e935 cb38 e0f5 2d39 0400 0080
00000360: e0a8 8538 85cc d839 61b1 5a39 918a 8cb7
00000370: 321a 7639 f78d ecb7 0400 0000 ccbb d836
00000380: a647 bab7 711a 90b7 d346 8939 52ff 06b6
00000390: 65d7 cc38 f467 b938 b5f7 c1b7 1f14 5134
000003a0: cda5 8339 0fd2 e5b8 c6b5 1039 a371 e539
000003b0: db2d 9b36 b49b 1939 4105 cf36 eeaa 0c35
000003c0: 47ac 6e39 7525 8d39 cbb1 89b8 43cc 0db9
000003d0: 9e65 9838 3594 fdb7 2d67 5a37 07b1 bf39
000003e0: 1a52 8037 bbc5 5139 2914 6837 a903 44b5
000003f0: f512 61b8 97e6 98b7 fcf0 8d39 8c18 0239
