p1_navigation/D2DQN_20190206_v31_15eps_0.50score.pth (torch_old, 85290 bytes, 18 tensors)

hidden_layers.0.weight f4 [64, 37]
00000000: 2beb 8d3d 034d 323d a8c9 69be a45b 06be
00000010: e705 b2bd 9a19 fd3c 0e66 55bc 2449 073e
00000020: 453b f6bc 6ebf 9f3d 064c d9bd 464c 94bc
00000030: a6a6 40be a4a3 76bd 2c88 603d 69ac 3bbd
00000040: 4941 b93d a421 823d 0e19 a0bd c683 16be
00000050: 493e 533e 778e 173e 503e 44be 6234 903d
00000060: b793 85bb b3fe d33d d5ae 263e 225d 30be
00000070: 5e52 51be a22e 9d3c 1070 d1bd 6b09 073e
00000080: 2924 efbd 726f 18bd 11ea 1dbe 3d6d dfbd
00000090: 8200 d6bd 7b98 1f3e 89bf 45bc 50f8 293e
000000a0: a0da c5bc 32a9 a2bd e4e1 cabd 819c fabd
000000b0: f2a2 c2bc adc8 a6bd 7d32 c33d 5b2a ef3d
000000c0: 824b 50bd b184 8fbd c286 703d b798 083e
000000d0: 2ae4 413c 270e 963c fb52 3c3e e1ae babd
000000e0: a5f3 7e3d 7d16 92be f924 acbd d230 253d
000000f0: a095 e63b 16a3 a13d d3b8 29be 2ba6 823d
00000100: 4d75 253e 2116 f1bc b397 233d 6b7e 14bc
00000110: 4a81 e13d 3e61 103e 0efc 2abd efd1 3cbd
00000120: 4294 963d 89dc bc3d ace5 1d3c 0a4a 473d
00000130: f90d d23d d9d4 6ebe 2a3f 783d 54a7 17be
00000140: 0b40 4dbe f1bb 393e d104 b0bd 086c 8cbe
00000150: f230 c43d 1cf8 16be f0de 54be 6455 8abe
00000160: f626 0fbe c3ee 2cbe 6a98 a7bd f483 ce3d
00000170: 9e64 473b 66f3 db3d 42c0 39be 9ae5 57be
00000180: edcd ce3d 77be 03be e070 00be 1a79 7abe
00000190: 3342 8f3d 6175 e43d 412c e0bd 2f00 6dbe
000001a0: 6f96 9abd bbdd 04be b156 adbe ac6d 74be
000001b0: edfc 803d c3b5 8d3d b689 69bd f213 593c
000001c0: d82a 06be bc3b 873e 8b1e d33d 1e64 10be
000001d0: 7b8a d33c acd7 bcbd 42f6 1f3d 9f35 2a3d
000001e0: b1f4 58bc a0a4 ec3d b7b9 d2bd 04d7 f83c
000001f0: 0548 b4be 9fdd 12be 51a2 60bc a312 17be
00000200: e847 a63c 2ccb 4cbe 378d 2a3d 667f fabd
00000210: 3f16 0abe fcbd e13d ce64 2a3e 0479 11bd
00000220: 18a4 59bd 294b a7bb 2b9b f13d e341 813d
00000230: 433c 123e 9e14 193e 7212 023e d1a1 afbc
00000240: 91a9 27be 1432 b7bc 618f 113e 9508 62bb
00000250: 062f 92bd 8586 07be a5c1 9fbd 00e1 50be
00000260: f388 40bc 6bec c33d 7683 8c3d 7d49 c4bd
00000270: f5a4 cb3d 3b8f 2cbe 5e46 1ebd bf41 3bbd
00000280: ad69 913d 7865 82bd 6ffc d5bd 4ecd d7bd
00000290: 5cf6 17bd 581c 6dba 53b8 24bd 612a c43d
000002a0: 7f85 afbd 0093 023d 31cf 063e d57d d7bd
000002b0: d11d e33d 51ad a23d c79b 12be 8c01 e43d
000002c0: 9e32 00bc ab93 edbd 38a5 c03d 13fe 75bd
000002d0: 43e5 3f3d c8c1 b63b 53a9 963d 58bd b33d
000002e0: af03 853d 3666 af3d 51f9 96bd e698 cfbd
000002f0: 5630 ddbd 93f2 563d cc01 183e 2d26 c73d
00000300: 60d8 2dbe 6366 543d 9abf f0bd 5338 dcbd
00000310: 9c5e 16bd f571 073c 04e3 f2bd 580a c43d
00000320: 2310 933c a621 e73d 5fd0 6ebe b67e d4bd
00000330: 2a93 0abe 6613 b53d 4292 45bd 9588 f63d
00000340: 6c79 283d 2fe1 563d 6ec1 9f3c d8d4 61bd
00000350: e4ef b43c 6c81 3ebd 05ca 9a3c fb18 243c
00000360: a857 dfbd 808c dbbd 89fd ff3d 121d acbd
00000370: 9340 ffbc 3501 383e 1649 8c3b 5a2c 85bd
00000380: aa46 04be 5fe2 0f3e 426b e0bd 7988 893d
00000390: b743 cfbd 4add 0abd 3337 06be b897 ec3d
000003a0: d0cd 173d 7f28 133e 00d9 e7bc 2b13 f9bd
000003b0: 2405 2fbd 1733 8ebd ffb0 1fbe b22f 233d
000003c0: a460 973d 7a8f 373e 877b 4bbe 9c67 3a3c
000003d0: 531d fb3d aa95 87be 8912 cf3d 4960 4ebe
000003e0: 1e87 d3bb 1c0e b6bc c9dc 19bd 2050 83bc
000003f0: ac4c 463e 3338 94bd 34ab 09be d24b 0cbe
0.0692962 0.043530475 -0.22830832 -0.13120896 -0.08692532 0.030895997 -0.01302482 0.13211495
-0.030057559 0.07800184 -0.106102034 -0.018102776 -0.18813571 -0.060214654 0.054817364 -0.04581872
0.09045655 0.06354073 -0.07817279 -0.14698705 0.20629229 0.1480044 -0.19164395 0.07041241
-0.004076447 0.103513144 0.1627763 -0.17223027 -0.20441577 0.019187275 -0.10226452 0.13187186
-0.11676819 -0.037215658 -0.1542132 -0.109095074 -0.104493156 0.1558551 -0.012069591 0.1659863
-0.0241521 -0.07942428 -0.099063665 -0.12236882 -0.023759339 -0.081437446 0.09531114 0.116780005
-0.05085326 -0.07007731 0.058722265 0.13339506 0.011834184 0.018317295 0.1839103 -0.09115387
0.062244076 -0.28532782 -0.084054895 0.04032976 0.0070368797 0.07892434 -0.16574411 0.0637935
0.16158028 -0.029429497 0.039939594 -0.0090633435 0.11010988 0.14099595 -0.041744284 -0.046098646
0.07352497 0.09221751 0.009637278 0.048654594 0.10256571 -0.23323382 0.060607113 -0.14809924
-0.20043962 0.181381 -0.08594669 -0.2742617 0.09579648 -0.14743084 -0.20788169 -0.27018273
-0.13979706 -0.16887955 -0.081833676 0.10083762 0.0030424963 0.10739784 -0.18139747 -0.2108368
0.10097871 -0.12865625 -0.12543058 -0.24460259 0.069950484 0.11155201 -0.10945941 -0.23144601
-0.07548224 -0.12975208 -0.33855203 -0.23869962 0.06298242 0.06919434 -0.057016097 0.013249384
-0.13102281 0.2641276 0.1030856 -0.14100692 0.025822869 -0.09220824 0.03905321 0.041555043
-0.013241933 0.11554837 -0.102893285 0.030375965 -0.35211197 -0.14342354 -0.013710574 -0.14753203
0.02029796 -0.19999379 0.04163858 -0.122313306 -0.13485049 0.11022565 0.16640016 -0.0355158
-0.053135008 -0.0051053953 0.11797174 0.06311395 0.142808 0.14949271 0.12702349 -0.021439465
-0.16373278 -0.022362746 0.14214851 -0.0034489979 -0.07137875 -0.13234909 -0.07800607 -0.2039833
-0.011751401 0.095665775 0.06861012 -0.09584329 0.099435724 -0.16851513 -0.038641326 -0.045716997
0.07100234 -0.0636701 -0.104485385 -0.10537206 -0.03710018 -0.0009045056 -0.040214848 0.09578396
-0.08570384 0.03187847 0.13164975 -0.105220474 0.110896714 0.07943214 -0.14317237 0.111331075
-0.007824568 -0.11600431 0.09406513 -0.060056757 0.0468495 0.0055772997 0.07356515 0.08776349
0.06494843 0.08564417 -0.07371772 -0.10136585 -0.10800235 0.05247743 0.14844435 0.09724078
-0.16977072 0.051855456 -0.11755295 -0.107529305 -0.03671132 0.008266916 -0.11859706 0.095722854
0.01795203 0.11285715 -0.23321675 -0.10375731 -0.13532701 0.088415906 -0.048235185 0.1203777
0.041131422 0.052460846 0.019501414 -0.055134624 0.022087045 -0.046510145 0.018895159 0.010015721
-0.10905391 -0.107201576 0.1249953 -0.08403982 -0.031158721 0.1796921 0.0042811735 -0.065026
-0.12917581 0.14051197 -0.10957958 0.06715483 -0.101203375 -0.033902444 -0.13106994 0.115523756
0.037061512 0.14370917 -0.028301716 -0.12161859 -0.04272951 -0.06943338 -0.15594862 0.039840408
0.073914796 0.17925826 -0.1987134 0.011377241 0.122614525 -0.26481372 0.10110957 -0.20153917
-0.006455316 -0.022223525 -0.037564073 -0.016029418 0.19365185 -0.07237282 -0.13444215 -0.13700798

hidden_layers.0.bias f4 [64]
00000000: fe0f 0f3e 54e2 8abc 0deb 3cbe 8ada 90bd
00000010: a125 313e 68e8 60bd b636 babd a679 b23c
00000020: 8ffd ea3c d890 1abe 5485 063e 7fa4 c03d
00000030: 3ec8 f63d 05d7 4d3d cb64 ccbc 070b c0bd
00000040: a607 723d 09d8 a6bd 425e 4dbc 8b63 4abe
00000050: e6e2 8dbd 9cd7 123d e4fc afbc 087f b0bd
00000060: 47b2 e8bd caae ee3d 90c6 9dbd 5a61 25be
00000070: fa76 2c3e 55ea a73d 5e6a a1bd c3fb 1ebe
00000080: 5ece 283e 21b5 97bd e713 debd 8518 cf3d
00000090: 4080 a2bd 16bb 7dbc 2b6b a4bd 5465 12be
000000a0: 688a e3bd 3ebe 8abc 5c21 50bd d908 403e
000000b0: 03d3 2bbb e1bf dfbd 6bb4 7d3d a7b6 26be
000000c0: 9914 61bd 2e4b 4a3d 4080 24be 7939 d23d
000000d0: 029a e33c 36f9 03be 4db6 3cbe e73f a83d
000000e0: 5592 8e3d 59d7 7ebd 524b 05be 75b9 22be
000000f0: 80cf 223d f9ee 9c3c 2842 ab3c 9e32 603d
0.13970944 -0.016953625 -0.1844904 -0.07072933 0.1729951 -0.05490914 -0.090924665 0.021786522
0.02868536 -0.15094316 0.13136798 0.09406375 0.12049912 0.050253887 -0.024950406 -0.09377103
0.059089325 -0.08146674 -0.01253468 -0.19764535 -0.06928043 0.035850152 -0.021482892 -0.08617979
-0.11362129 0.11654432 -0.077038884 -0.16150418 0.16842261 0.08198992 -0.07881616 -0.15525727
0.16484973 -0.074075945 -0.1084364 0.101120986 -0.07934618 -0.015486499 -0.08028253 -0.14296466
-0.11110383 -0.016936418 -0.050813064 0.18753375 -0.0026218302 -0.1092527 0.061939638 -0.16280614
-0.054951284 0.049388103 -0.16064548 0.10264868 0.027783398 -0.12888035 -0.18428917 0.082153134
0.06961504 -0.06221709 -0.13017014 -0.15891059 0.03974867 0.01915692 0.02090557 0.054735772

hidden_layers.1.weight f4 [64, 64]
00000000: 65f4 2cbd db2d 403d 8284 993d cd62 d1bd
00000010: 49b7 da3d c764 e3bd 1351 c43d 6b8f 4f3d
00000020: 2d56 7f3d 1149 353d 16a4 e0bb 460a 05be
00000030: 583e 0abe 0e31 c93c 0758 683d 3909 ea3d
00000040: 34d4 a6bc d96a a63d 9f5e b7bd 19fe f2bd
00000050: ef09 06be d133 ebba 9311 aabd 1b9f febd
00000060: 290a 02be 94b7 01be 4455 3fbc f9f4 d9bc
00000070: 2c01 0abe ee0a cd3d 87ad f7bd 0923 013e
00000080: df88 a2bc 499d 08bd 5ce2 c6bb 8f34 adbd
00000090: 5463 12bd 6243 9a3d e823 7fbd 2a7c 00be
000000a0: ac96 273e 8fcd 1ebd 056a d4bd 562d c7bd
000000b0: 2b85 3abc b26e 22be 76b2 fd3d 9e1f 933d
000000c0: 99f9 9dbc 6cc0 9f3d cd37 bebd 94ea f4bd
000000d0: 60ee 1c3d cb0d d13a 8e9f 83bd 35e4 fbbc
000000e0: f257 d83c 83c4 013e a6c7 31bc 464c bfbd
000000f0: 9918 14bd 2461 a639 6e9f f1bd 4e7c 393e
00000100: 8a2a 82bd 1e7e 8d3d caa5 7dbd df57 d83c
00000110: 7e64 3f3d 5889 febd bd2a 633d d295 04be
00000120: 4b4c 153d 9ee5 093d 0244 553d a595 4d3e
00000130: 5f00 9b3c 9b11 5abc 35ec e7bd 7a5c 393b
00000140: 1c12 4dbd 14aa ebbc a02a 9cbd e59f 1c3d
00000150: 5d1a e13d c17b f83c 0a36 c23c 6f5d 9fbc
00000160: dbdd c8bd 186f 893d 40a7 eabd df4d bb3c
00000170: 214c 56bd f106 05be ec51 60be 8599 b43d
00000180: 7229 f1bc 28a7 8dbb 4c67 733d f67f 8ebc
00000190: df61 d0bd fe22 84bd b5ff aebd e9d2 76bc
000001a0: 149a 17be 3379 003e 451e 7a3e fa8a 02bc
000001b0: d225 99bd 2243 b2bd 21d2 bf3c 3059 1cbc
000001c0: e32a 4cbd 808c 823d 1f5d b53d f2d3 dabc
000001d0: ebd7 bdba f16c 203e 95f0 b8bb 51e5 b7bb
000001e0: b0f7 e7bc a974 923d 7377 91bd 902c 94bd
000001f0: 3b53 6ebd dd88 ddbc 23ef fc3d 9d4b 0cbd
00000200: 8aac abbd 8d2f 4c3d c24d 00bd 5eab e33c
00000210: 84bf d33d 4c45 46bd 4556 b2bd ce69 80bc
00000220: 6eb5 d0bc b5c4 92bd 4f8b 2dbd cf24 31bc
00000230: ca7e 133d ba72 c63d 0e42 a43d 14b8 59bb
00000240: 5b39 f53b e33e b43c 973b 1dbb 3839 c7bc
00000250: f964 163d 9bd0 eabd daf5 0abe e195 aabc
00000260: 78f4 3bbd 6449 9ebd b6b9 12be f07b ab3d
00000270: f5c3 55bc de8a 89bd 688f 50bd f900 bb3c
00000280: 6558 debd 416a 01bb a91c ffbc 9fc3 f03c
00000290: 376b bb3c 9e5b debd b013 5d3d 04a9 993d
000002a0: 0e43 a7bc e962 1b3d 38d6 41bd 19f1 4fbc
000002b0: 6542 193d a484 7bbd 6c9e 313d 8889 0fbe
000002c0: 9243 95bd 8b05 9cbd 018b 98bd 7ce3 a2bd
000002d0: 376b 06be 3274 073b 1aad 04bd 1d7e 11be
000002e0: a5de cabc fa34 94bc dbed 463d 7085 c8bd
000002f0: bc39 59bd 9dbe 3c3c 0479 7e3d e7bd 14bc
00000300: c507 a2ba 42fb db3d 7e1c ebbc f145 143e
00000310: 1682 e03d 68f7 00be 3c66 113d 9b53 553d
00000320: f562 c9bb a0fc 813d ba13 5ebc 1726 f63d
00000330: 3da2 44bd a7e3 e5bd 54bc a93d 540d d33c
00000340: c5cb da3d 9d50 bdba ba50 503d 5ce0 853d
00000350: 8419 873c 413f 13bd 1cea bf3b 898a a3bd
00000360: b4f7 ddbc 5878 b83d 2567 243c 018e 14be
00000370: 4a02 ba3d 8845 1abe 1669 8cbc 876e ca3d
00000380: 50f7 ffbd 8c61 d83d 486f cebd 8426 b7bc
00000390: 9eac 1a3d 2f34 36bd 5956 bc3d 91aa c4bd
000003a0: 4936 a03d 01d6 94bd 1159 41bd 7372 db3d
000003b0: 87db b63d 739f a33b a0fc b0bc 976b 11be
000003c0: aac4 1f3e 7f23 16bd e30d 41bd 72ab 8dbd
000003d0: 1d12 7a3d 9bf2 013c 50a0 b23c b762 a33c
000003e0: be9e 7cbd 9afe 7e3d be10 153d 34ab bf3b
000003f0: f8a7 a1bc fb33 18bb bbef 073e c61b c13a
-0.04222526 0.04691873 0.07495977 -0.10223923 0.1067949 -0.11103206 0.09585776 0.050673883
0.062338043 0.044259135 -0.006855498 -0.129922 -0.13500345 0.024559524 0.056724574 0.1142754
-0.020364858 0.08125848 -0.089535944 -0.118648715 -0.13089727 -0.001794452 -0.08304133 -0.12432691
-0.12699188 -0.12667686 -0.011678044 -0.02660607 -0.1347701 0.1001185 -0.120936446 0.12611021
-0.019840656 -0.033353124 -0.0060694646 -0.084572904 -0.035739258 0.075323835 -0.062290102 -0.12547365
0.1636607 -0.038770255 -0.10371784 -0.09725444 -0.011384289 -0.1586254 0.12387554 0.07183765
-0.019284056 0.078003734 -0.09287987 -0.11958805 0.03831327 0.0015949545 -0.06426917 -0.030748466
0.026409123 0.1267262 -0.010850823 -0.0934072 -0.03615627 0.00031734363 -0.11797987 0.18113825
-0.0635577 0.069088206 -0.061925687 0.026409088 0.046726696 -0.1242854 0.05546068 -0.12947777
0.03644971 0.033666246 0.05206681 0.20076616 0.018921075 -0.0133098615 -0.1132435 0.002828388
-0.0500661 -0.028767623 -0.076253176 0.038238425 0.109913565 0.030332448 0.023707408 -0.019453732
-0.098079406 0.067106426 -0.11457682 0.02286428 -0.052318696 -0.12990929 -0.2190625 0.08818344
-0.029438708 -0.004322905 0.059424683 -0.017395 -0.101749174 -0.06451987 -0.08544866 -0.015064933
-0.1480487 0.12546234 0.2442561 -0.007967705 -0.07477917 -0.08704211 0.023415627 -0.009542748
-0.049845587 0.063744545 0.08855652 -0.026712392 -0.0014483904 0.15666558 -0.005643914 -0.0056120534
-0.028316349 0.071511574 -0.07102861 -0.07235062 -0.058184844 -0.0270428 0.12350299 -0.034251798
-0.083825186 0.049850035 -0.031324156 0.027791675 0.10339263 -0.04840593 -0.08707861 -0.015675452
-0.025477137 -0.07166425 -0.042369183 -0.0108119985 0.036009587 0.09689851 0.080204114 -0.0033221291
0.007483644 0.022002643 -0.0023991817 -0.024319276 0.03671739 -0.114655696 -0.13570347 -0.020823421
-0.04588744 -0.07728842 -0.14328656 0.083732486 -0.013047208 -0.0671594 -0.050918013 0.022827612
-0.10856704 -0.001974717 -0.031141596 0.029390154 0.022878272 -0.10857318 0.053973854 0.0750294
-0.020417716 0.037936125 -0.047323436 -0.0126917595 0.037416834 -0.061405793 0.043363973 -0.14017308
-0.07288279 -0.07618245 -0.07448388 -0.079535455 -0.13126837 0.0020668623 -0.032391645 -0.14208265
-0.024764368 -0.018091667 0.04856668 -0.09791076 -0.053033575 0.011520055 0.06212713 -0.009078479
-0.0012361935 0.10741283 -0.02870011 0.14479806 0.10962312 -0.12594378 0.03549789 0.052081686
-0.00614583 0.063470125 -0.013554508 0.12018984 -0.048006285 -0.11225062 0.08287874 0.025763191
0.10683397 -0.001444358 0.050858237 0.06536934 0.016491659 -0.035948996 0.0058567654 -0.07985408
-0.027095653 0.09007329 0.010034357 -0.14507295 0.09082468 -0.15065587 -0.017139953 0.09884363
-0.12498343 0.105654806 -0.10079819 -0.022357233 0.037762277 -0.04448336 0.09196157 -0.096028455
0.07822854 -0.072673805 -0.04720408 0.10715189 0.0892859 0.004993373 -0.021604836 -0.14201199
0.15602365 -0.036654945 -0.047132384 -0.06917466 0.06105243 0.007931377 0.021804959 0.019944532
-0.061674826 0.062254526 0.03639292 0.0058492664 -0.019733414 -0.0023224342 0.13275044 0.0014733009

hidden_layers.1.bias f4 [64]
00000000: a7c5 c2bc 77f2 d43a 4bcb c1bd 9704 3c3c
00000010: 02f8 373d 909a 023e f593 a13d 00c3 14bd
00000020: 4ad5 25bc 7fed 103b ffd4 a73d 9279 8fbd
00000030: 9705 ea3d b0d8 b9bc 26b2 033e 82d2 a73d
00000040: c66a 253c b189 983d 365b 96bd 2a39 703d
00000050: 6875 1cbb 68fd d6bd 9b9c e9bb bb9e 9c3c
00000060: e7ad ee3d 627f d2bd 5602 ebbd 2fa5 d53c
00000070: c72e 82bd 05f4 ffba 5077 c8bd cb29 2d3b
00000080: 3fb1 c5bd 458a b9ba d3ab 6b3d aaa4 903c
00000090: 670c f8bd 09fc 903d d1af 003e 7c5f babd
000000a0: fe8d 9a3d a4a6 05be eee7 2e3d 49d8 1cbd
000000b0: 66b9 bbbc 6016 9bbd dad6 653d 121a 023c
000000c0: ebdc 32bd 086b 22bc 2684 be3d fa20 093e
000000d0: b7c2 9ebd 8a3a 07be f4eb d5bd a043 aabd
000000e0: a7b1 f4bd dc8c 4fbd df0c 37bd 11ea e8bb
000000f0: 92a7 31bc 358c 823d 385e e3bd 0dec f2bd
-0.023775889 0.0016246577 -0.09462603 0.011475704 0.044914253 0.12754273 0.07889549 -0.03631878
-0.010121653 0.0022114215 0.08194923 -0.070056096 0.114268474 -0.022686332 0.12860927 0.08194448
0.010096258 0.074481376 -0.07341616 0.058648266 -0.002387369 -0.10497552 -0.0071292645 0.019118657
0.11654263 -0.102782026 -0.11475055 0.026079742 -0.06356578 -0.001952768 -0.09788382 0.0026422616
-0.09652948 -0.0014155587 0.05753691 0.017656643 -0.121117406 0.07079322 0.12567069 -0.091002434
0.07546614 -0.1305185 0.042701654 -0.038292203 -0.022915553 -0.07572627 0.0561131 0.007940786
-0.043667715 -0.009913214 0.09302549 0.13391486 -0.07751983 -0.13205925 -0.10445395 -0.0831368
-0.11947947 -0.050671443 -0.04469001 -0.007107981 -0.0108431745 0.063743986 -0.11101955 -0.11861429

output.weight f4 [4, 64]
00000000: be4e bcbc f5af 5a3d e372 d33d e61a ea3d
00000010: d184 db3d cc67 37bd e261 aebd 9fab 8538
00000020: bddd f83c f238 b43d abe4 573d acff 91bd
00000030: c727 8cbe 5153 df3d c889 183d 183e 43bd
00000040: 04fb 8ebd 00ba d0bd 5f48 e83d 3da1 783d
00000050: 9bfa 41bd e390 083e 8cf7 193e 6246 18be
00000060: c6b2 d8bd 881d 6cbc 576e 5f3d 7d5c 633c
00000070: 318d cf38 55b0 34be 7af7 733d de56 91bd
00000080: 3981 963d 01bb 4a3d a2f4 e33d ed62 663e
00000090: 98f0 5bbd 36e9 863d ba76 ac3d d955 41be
000000a0: a529 15be 76bc ebbc 5ae5 d33d b6eb 42bd
000000b0: 03cc e03d 5a88 2dbd e266 ccbd 90da 333e
000000c0: 751c 6cbd a66a 2fbc 4100 06bd c5af 81bc
000000d0: 20b1 54bd 2a3d cebc fa8c 873d fc24 523d
000000e0: 2f85 a3bc e553 443b 06d7 3bbe 357d 083c
000000f0: b90b 423e a870 f73d 7f9a 53bd 4b09 a63c
00000100: dce9 143e 7ef8 7b3d 3169 93bd de14 8a3d
00000110: 3bb6 793d 6a2d c13d 4522 5cbd ad49 483e
00000120: d70e a43c 8e4d b7bd cd6f 803d bda6 e23d
00000130: 7dfd 933c 2244 313d ca58 bd3d 8b1d 2f3d
00000140: d074 7d3d c44f ac3d 913d 5dbc ac09 873c
00000150: a3fa 7e3b aacb 263d 3075 dcbc cade 49bd
00000160: baa1 da3c 8ed5 833d 96d1 1fbe 3f4b 8fbd
00000170: 9bed 223d fedb 94bc d48d ae3d 7dc6 6fbd
00000180: 38e9 04bc bcf9 423c 216a bf3d 5cac 883d
00000190: 99c7 e83c 463e 613d 8d07 d93d 6d1a b0bd
000001a0: 08c4 e8bc ad4c 653b a352 ddbb 696e 84bd
000001b0: b378 bebd 3ec8 d7bd 020c 8bbd 5d43 2cbd
000001c0: 28ff 94bd 0215 b5bd d458 f03c 2de3 8b3d
000001d0: 3392 54bd 1d03 b13d fd32 bd3c 64bf 043e
000001e0: f264 3fbd 82fc 66bc f4b0 cd3d 0d42 fc3d
000001f0: f418 25bd 91a6 bebb 0e1e 483d fd1a cebc
00000200: f31c 07be 7115 5dbe f1d8 963d de9a 6abc
00000210: dc1c f0bd 8a0c 523d 5129 edbc feb5 f13d
00000220: a5f9 263e be56 0abe dd33 0d3e 02b4 123a
00000230: aee6 9e3d b208 893d 77ae ee3d b69c 10bd
00000240: 3ec5 0ebe eebd d83d 1487 f93d 06db 0cbe
00000250: d064 6bbe fbeb 3f3e 34de 98bd d544 81bc
00000260: 03c0 fcbd fbf8 ca3d 6ac1 5d3d b3b4 3e3d
00000270: 1627 f7bd 8b3b 323e bd0c f5bc 51cc 43bd
00000280: 8acb 1abe a984 b8bd 1750 3dbe d919 623e
00000290: f7e4 fd3d 192b 453d 5ebc d63c d4fc 1a3d
000002a0: 4bc5 3e3e 8473 54be 294f debd 0e80 06be
000002b0: 78a1 aabc 44d6 45bd 911c 333c 3e27 e53b
000002c0: a534 0cbd a028 ebbd fa5e 0abe 57e4 bfbc
000002d0: 5c81 0cbe 5958 2f3e fc75 d6bd cf99 cdbc
000002e0: 30d2 823d 8cf9 81be 2964 1d3e 5aa0 d23d
000002f0: 1ba8 e8bc 00c6 873d bc9e 373e e9d8 033d
00000300: 3969 d2bc 5a39 cbbd 3fb5 cb3d 2d9a 98bd
00000310: f181 19bd aed2 a73b ef34 153d 6d84 62bd
00000320: 90c7 51bd 9900 ac3c c600 ccba b9b6 be3d
00000330: 8408 94bd 360d 8a3d e4e6 9a3d 93ab fbbc
00000340: acab c4bc f230 63bc 8a22 b73c d549 633d
00000350: 6db2 373d bdf9 733e 03f5 513d 3614 023e
00000360: 4ca7 de3d 10fb 163d b0aa 9e3d 4968 e13d
00000370: 3f1c db3d cbc5 ffbd 44ed f93d 2185 cdbd
00000380: 7f16 a1bc 7113 94bd 0c49 4e3d 6681 6a3e
00000390: 9560 04be 3a0f 9a3d 5f73 e23d 9919 313c
000003a0: b734 073d 1d73 a53d cee5 89bd e97a c53c
000003b0: ecb6 4abc 0999 0d3e 1e3b cc3d a745 0e3c
000003c0: 45ea ad3d eee8 d63c 3a94 3abd 9b92 753d
000003d0: 2f0c ab3d ffcd 6d3d b31c deba d179 913d
000003e0: 71ac c2bd ad61 57bd b007 87bd 531b fa3d
000003f0: 5bb6 33be 4c04 ed3c 53d4 a7bd af52 8bbc
-0.022986766 0.053390462 0.10324647 0.11430912 0.10718692 -0.044776723 -0.085147634 6.373901e-05
0.03037917 0.08799924 0.05270831 -0.07128844 -0.27374098 0.10904563 0.037240773 -0.04766664
-0.06981471 -0.10191727 0.11341929 0.060700644 -0.047358137 0.1333652 0.15035838 -0.14870599
-0.10580973 -0.014411338 0.054548588 0.013877031 9.896828e-05 -0.1764539 0.059562184 -0.07096647
0.07348866 0.049494747 0.111306444 0.22498675 -0.053696245 0.0658745 0.08421083 -0.18880405
-0.14566667 -0.028776389 0.1034648 -0.047588073 0.10976412 -0.042366363 -0.09980561 0.17563844
-0.057644326 -0.010706579 -0.032715086 -0.015830884 -0.051926732 -0.02517565 0.06618686 0.051304802
-0.019960968 0.0029957232 -0.18343744 0.008330633 0.18949784 0.12082034 -0.05166101 0.020268103
0.14542335 0.061516277 -0.07197798 0.06742261 0.060964804 0.0943249 -0.05374362 0.19559355
0.020026607 -0.08950339 0.06271324 0.11066959 0.018065209 0.043277867 0.09245451 0.042752784
0.06187898 0.084136516 -0.013503448 0.016484104 0.0038906715 0.040721573 -0.026911348 -0.049284734
0.026688445 0.06437217 -0.15607294 -0.06996774 0.03977738 -0.018171307 0.08523145 -0.058538903
-0.008112244 0.011900362 0.09346414 0.066735 0.028415488 0.05499103 0.10597143 -0.0859879
-0.028413787 0.003498833 -0.006754236 -0.064663716 -0.09300365 -0.1053624 -0.067894 -0.04205643
-0.0727523 -0.088418975 0.029339232 0.0683044 -0.05189724 0.08643172 0.023095602 0.12963635
-0.04672713 -0.0140982885 0.10043517 0.12317286 -0.040307 -0.005818196 0.048856787 -0.025159353
-0.13194637 -0.2159021 0.07365597 -0.01431915 -0.117242545 0.05128149 -0.028950365 0.118022904
0.1630617 -0.13509652 0.13789316 0.0005596281 0.077588424 0.066911116 0.1165437 -0.0353057
-0.1394243 0.10583101 0.12183967 -0.13755426 -0.22987676 0.18742363 -0.07464257 -0.015779892
-0.12341311 0.099107705 0.054139532 0.046559047 -0.12068002 0.17405526 -0.0299133 -0.047802273
-0.15116706 -0.09009678 -0.18487583 0.22080173 0.12397187 0.048136804 0.026212867 0.037838772
0.18629949 -0.2074719 -0.10854942 -0.13134786 -0.020828947 -0.048300043 0.010932104 0.0069932034
-0.034229893 -0.11482358 -0.13512793 -0.02342431 -0.13721222 0.17123546 -0.104717225 -0.025097756
0.06387746 -0.25385702 0.1537024 0.10284491 -0.028400471 0.066295624 0.17931646 0.032189284
-0.02568494 -0.09923048 0.09946679 -0.07451282 -0.037477437 0.0051215505 0.036427435 -0.055302072
-0.05121571 0.020996379 -0.0015564195 0.09312195 -0.07228187 0.06740801 0.0756357 -0.030721461
-0.02400764 -0.01386665 0.022355337 0.055490334 0.044847894 0.23825736 0.051259052 0.12703022
0.10871753 0.036860526 0.077474 0.11006219 0.10698747 -0.12488898 0.12203458 -0.10035158
-0.019664047 -0.07230271 0.05036263 0.22900924 -0.12927468 0.075224355 0.110571615 0.010809326
0.033009257 0.08078597 -0.06733285 0.02410646 -0.012372714 0.1382791 0.09972213 0.008683599
0.08491949 0.026234116 -0.045551516 0.059954267 0.08351933 0.05805778 -0.0016945809 0.07103313
-0.09505547 -0.052583385 -0.06593263 0.12212243 -0.17550032 0.028932713 -0.081947945 -0.0170072

output.bias f4 [4]
00000000: 2069 873d 462a 173b 18a1 d03d 4b1e 4a3d
0.06611848 0.0023065968 0.10186976 0.049345296

exp_avg f4 [64, 37]
00000000: 28f7 e0b7 8d25 78b8 5e00 a3b8 785f 24b4
00000010: 14cf adb8 2670 e8b8 f929 36b8 2624 b037
00000020: 094e 00b8 0730 81b8 ae9b b8b7 a781 74b8
00000030: 4153 50b8 7723 0eb8 ea93 59b8 81f9 d7b7
00000040: 44b6 64b8 bc93 2eb7 2377 99b8 ac2a 12b8
00000050: 88f2 70b8 ffc4 bab8 9826 ae36 0b1d bdb7
00000060: 0d66 75b8 2100 88b8 1836 88b8 769a 05b7
00000070: 58e6 dab7 197b 7db8 27d0 cdb7 f39b 9eb8
00000080: 335a 65b8 3430 17b7 e43a 1cb8 70d7 5d39
00000090: 3e0d 3e3a 6ce2 6336 3633 b137 4f13 23b8
000000a0: 0861 42b8 36bb 76b7 8d5f c0b7 0ae5 09b8
000000b0: 533c 7db7 361d 2b37 f23a 18b8 9fb7 7cb8
000000c0: ee9b 0db8 c4bb 2537 1390 c437 baac d8b7
000000d0: e597 9c37 040b 2bb8 c1ae 26b8 e527 9a35
000000e0: f406 9fb8 d1d1 ee37 a23a e437 f03d 00b9
000000f0: 7ea7 c636 494e c2b6 4a80 9037 6ce1 e7b7
00000100: 93a7 38b8 7523 d2b6 a59c feb7 1fbb 70b8
00000110: 77fc 93b7 90c9 1536 ae00 4b37 ac5c 93b8
00000120: 607e 5637 e7d5 c839 33a1 8137 c432 1538
00000130: 1ddd 9cb7 fc4e 4014 4679 9036 a410 0939
00000140: a5c1 a737 cc07 f9b8 5183 c034 09b6 2e38
00000150: 9f9b bab8 95a0 8338 4817 4d38 69ce 2137
00000160: 04a9 7838 3b0f 1937 a11c 1537 7d42 8037
00000170: 19ed 82b5 9d8c 06b8 067a 1c37 606f c3b0
00000180: e69e 9537 1043 ad36 b5cd 2cb8 6470 1936
00000190: 95cc c838 6069 7ab8 0790 c9b6 3234 0439
000001a0: c92d e9b8 5dc5 bb38 693c 4738 164a d936
000001b0: a939 bcb8 3ec0 94b8 395b ffb9 73d7 1ab7
000001c0: e603 ddb6 0168 fb37 febf 0fb8 2016 aeb8
000001d0: 7e2d b6b7 472c 1f36 2683 9837 d4ff 9eb7
000001e0: cd6e 73b7 047b 0ab9 83d6 6cb7 bebb f138
000001f0: a11f 3537 3f56 3138 b400 d8b7 e9a2 a8b6
00000200: 20f5 df37 6790 86b7 3fa0 dbb8 b33c 1137
00000210: c10d 0139 8b1e 10b9 3eb9 71b7 6753 4b37
00000220: 8b24 74b8 562b aa37 9057 3337 17b5 ee36
00000230: 3887 6ab7 33e7 17b9 4080 6037 3ec2 f338
00000240: b550 a3b6 fceb d9b8 b295 9a39 440e 043a
00000250: b417 5bb8 eeac 3eb8 e7b4 26b7 8756 63b6
00000260: f759 c5b8 4dbe 63b8 e0bf 9837 cf08 88b7
00000270: 8044 76b8 26e3 3236 3d9e 95b8 61e8 51b8
00000280: 7847 fe35 6d2d 0e37 1197 01b8 4561 1cb8
00000290: 0026 4936 2240 c7b8 bc4f 9937 93d2 d9b8
000002a0: 0f8d fdb7 6523 9bb7 0335 75b8 3fd0 80b6
000002b0: 9eeb 76b8 5827 e6b7 469a fc36 81b8 ddb8
000002c0: 8228 7537 2ec6 81b8 6c43 f7b8 fa02 a0b7
000002d0: 3b0e 2937 093b 8537 c3d2 98b8 7c34 c937
000002e0: fc2f 0c3a 874c 23b7 fd60 3b37 2abb d938
000002f0: aee4 0037 8ad1 a937 4c21 5737 e893 7537
00000300: 912d ad38 16c3 4236 c2dd 8537 6077 d337
00000310: 7d37 0337 3762 a038 326a 6636 5b4d 1e38
00000320: 02d4 de36 bffb e036 411e dc38 c20e b4b6
00000330: 4282 f037 0786 9d37 e871 9338 29cd b837
00000340: cee6 f435 02ea 2c38 e51d 8937 dd40 8337
00000350: 582e 9338 3da2 3437 0b12 3137 1f3d 1236
00000360: 271e d836 2e6b bf38 96da 5a37 ebd7 7e35
00000370: 5860 fb38 b890 063a e7ac cbb6 847e 34b7
00000380: 65cd 13b8 2045 1db7 625c 0cb8 348e efb6
00000390: 7865 ceb7 d9f5 14b8 8833 c336 782d 30b7
000003a0: 74bd 89b8 6389 51b7 8696 e537 ba87 32b7
000003b0: 0181 e536 4971 4db6 781e 35b7 caf1 2cb8
000003c0: 771b d5b6 fc12 39b8 b2a9 9737 3289 36b8
000003d0: 9b97 04b8 bc3f 93b6 8ac1 f4b7 3cca 5cb7
000003e0: 1f99 afb7 b0ca 0ab8 16af c036 9478 8bb7
000003f0: 75ca 67b8 e954 beb7 7daa 4537 feb2 9e36
-2.6817972e-05 -5.916278e-05 -7.772514e-05 -1.5308422e-07 -8.287854e-05 -0.00011083511 -4.343127e-05 2.0997668e-05
-3.0590254e-05 -6.160145e-05 -2.2007003e-05 -5.829488e-05 -4.96686e-05 -3.3888467e-05 -5.1874587e-05 -2.5746182e-05
-5.4529184e-05 -1.0405605e-05 -7.3177995e-05 -3.4848854e-05 -5.7446334e-05 -8.9058645e-05 5.190097e-06 -2.254408e-05
-5.8507594e-05 -6.485009e-05 -6.495061e-05 -7.963381e-06 -2.6094887e-05 -6.0434544e-05 -2.4534833e-05 -7.563075e-05
-5.468186e-05 -9.0115245e-06 -3.7248145e-05 0.00021156459 0.0007249898 3.395743e-06 2.1123891e-05 -3.888021e-05
-4.634357e-05 -1.4706331e-05 -2.2932678e-05 -3.2876655e-05 -1.50940205e-05 1.01991955e-05 -3.629452e-05 -6.0252492e-05
-3.376224e-05 9.878484e-06 2.343211e-05 -2.5829639e-05 1.866738e-05 -4.0779836e-05 -3.9740236e-05 1.1485505e-06
-7.583006e-05 2.8469514e-05 2.7207021e-05 -0.00012230105 5.9203585e-06 -5.790764e-06 1.7225877e-05 -2.7642316e-05
-4.4025084e-05 -6.2626154e-06 -3.0352103e-05 -5.739473e-05 -1.7641329e-05 2.2320055e-06 1.2099901e-05 -7.026768e-05
1.2784818e-05 0.00038306342 1.5453063e-05 3.5571647e-05 -1.8699613e-05 9.7091e-27 4.3056525e-06 0.00013071537
1.9998124e-05 -0.000118746975 3.5858332e-07 4.1654366e-05 -8.898158e-05 6.2764775e-05 4.889749e-05 9.644406e-06
5.9285216e-05 9.123057e-06 8.887758e-06 1.528975e-05 -9.754759e-07 -3.2079046e-05 9.326735e-06 -1.4219772e-09
1.7836177e-05 5.163609e-06 -4.1199575e-05 2.2864197e-06 9.5748495e-05 -5.9702783e-05 -6.007034e-06 0.00012607945
-0.00011118834 8.9536166e-05 4.750156e-05 6.4757287e-06 -8.9752786e-05 -7.092998e-05 -0.00048705356 -9.2292785e-06
-6.586767e-06 2.9969962e-05 -3.4272663e-05 -8.301088e-05 -2.1717275e-05 2.371862e-06 1.8180883e-05 -1.8954197e-05
-1.45097265e-05 -0.00013206532 -1.4116641e-05 0.00011526745 1.0795805e-05 4.228041e-05 -2.5749534e-05 -5.0257554e-06
2.6697817e-05 -1.6041287e-05 -0.00010472582 8.656806e-06 0.00012307522 -0.00013744288 -1.4407849e-05 1.21191615e-05
-5.8208167e-05 2.028576e-05 1.0689619e-05 7.1140344e-06 -1.397897e-05 -0.0001448661 1.3381301e-05 0.000116233234
-4.867174e-06 -0.00010391322 0.000294847 0.0005037526 -5.2235744e-05 -4.5460583e-05 -9.936491e-06 -3.3876001e-06
-9.410449e-05 -5.429825e-05 1.820916e-05 -1.6216565e-05 -5.8714766e-05 2.6656285e-06 -7.134348e-05 -5.0045903e-05
1.8945275e-06 8.474436e-06 -3.089669e-05 -3.7283888e-05 2.9973453e-06 -9.501005e-05 1.827615e-05 -0.00010386589
-3.0225636e-05 -1.8493922e-05 -5.8461923e-05 -3.8389403e-06 -5.8870406e-05 -2.7436457e-05 7.528145e-06 -0.00010572468
1.4612569e-05 -6.188113e-05 -0.00011790436 -1.9074872e-05 1.0076498e-05 1.5882326e-05 -7.287182e-05 2.3985507e-05
0.00053477264 -9.733375e-06 1.116865e-05 0.00010382228 7.682638e-06 2.0243944e-05 1.2822751e-05 1.4637575e-05
8.25777e-05 2.9021808e-06 1.59581e-05 2.5208748e-05 7.821128e-06 7.6476885e-05 3.4334485e-06 3.774218e-05
6.6407965e-06 6.7050273e-06 0.00010496053 -5.366136e-06 2.8670886e-05 1.877827e-05 7.030723e-05 2.2030044e-05
1.824659e-06 4.1225932e-05 1.6345593e-05 1.5646621e-05 7.0181384e-05 1.076661e-05 1.0554223e-05 2.1791273e-06
6.440812e-06 9.1275535e-05 1.3044706e-05 9.4936576e-07 0.00011986558 0.0005133259 -6.07e-06 -1.0758293e-05
-3.523882e-05 -9.374024e-06 -3.346464e-05 -7.1393097e-06 -2.4604364e-05 -3.5514913e-05 5.817452e-06 -1.0501004e-05
-6.5679575e-05 -1.2489359e-05 2.736902e-05 -1.0641228e-05 6.83975e-06 -3.061332e-06 -1.0795535e-05 -4.123318e-05
-6.351092e-06 -4.4125118e-05 1.8079623e-05 -4.3519954e-05 -3.1612446e-05 -4.388361e-06 -2.917719e-05 -1.3160108e-05
-2.0932928e-05 -3.309053e-05 5.7424286e-06 -1.662624e-05 -5.5263245e-05 -2.2689304e-05 1.178181e-05 4.7296044e-06

exp_avg_sq f4 [64, 37]
00000000: 61b4 c032 d3d3 ec31 815f 0333 aac1 6932
00000010: b87a 9732 0815 f932 8b39 d132 37c9 cf32
00000020: a4f3 7431 43dd 9e32 cac2 e932 ebdc 0f33
00000030: 5cbe 9e32 19f9 0b31 ffa0 2432 edd5 af32
00000040: 221a 6932 3c76 0033 8e60 0732 13ac fc32
00000050: d7d2 f131 e97e 0b33 333e 2833 43a7 1131
00000060: becd 8832 a02a 3332 ce4c b632 2c80 ee32
00000070: 5f7d 6c32 5cb9 8632 2928 f432 c80e ec32
00000080: 0e97 9c32 38d7 bc31 dbab ed32 ebba 8133
00000090: 3e89 4c36 7bfa 9c32 8e13 2c32 12f6 8832
000000a0: 43d1 9731 a941 2f32 1df5 7f32 d2f3 8732
000000b0: 5a47 6832 b5c5 b031 7f26 0232 d799 a332
000000c0: 2030 9f32 b7b2 3132 889a 3231 0969 0432
000000d0: 6c85 8432 9c53 4632 50b0 8932 9d19 7131
000000e0: 0c35 4732 1889 7732 0c09 a432 549b 8532
000000f0: fa4f 1431 e5d5 4532 b9a6 4732 6750 7b32
00000100: e4f8 8c32 076f 9d31 1d6b 4132 5b34 9632
00000110: b0a6 7332 ec57 7d32 37b0 7731 9ff3 2232
00000120: 97d6 8133 2360 a535 739a 3532 0414 c831
00000130: f114 9d33 46b0 6030 cde8 f932 0b38 6d31
00000140: c290 1931 5c8a ac33 3e09 9d31 2312 e131
00000150: 0424 b033 fe94 c631 2ca1 3931 a666 e330
00000160: c6d7 1532 c2ac a830 2f01 ad31 ca6b b533
00000170: 1777 1c31 0d9b 5c33 2cd3 8231 45ce a531
00000180: c8d0 b533 f01c a230 3354 d232 686e 4a31
00000190: 7600 9831 0fc9 b233 eaac 9d30 95b9 0632
000001a0: 06d7 a533 e5b7 fe31 4ae3 9f31 cb5c 2c31
000001b0: 3da4 9833 096d 1733 bdc8 b736 7a80 3933
000001c0: fcec 6131 cce5 a833 38dc 7b32 a23d d632
000001d0: ca3f 5733 463c e131 b7ea 8533 15a0 e032
000001e0: fb8f 5c32 ad44 1433 9e58 d032 f8b2 ad33
000001f0: 6ebb d130 398b 9732 20c0 7b33 5755 3931
00000200: 5b6b 8f33 053f 5132 4cae 0b33 8d35 5c32
00000210: 85a2 3133 cbd1 a033 7a90 8e32 58e3 1533
00000220: 7751 3f32 19c2 d632 d5c3 c533 c9b0 6632
00000230: 72f1 4f33 417f 1033 b6c2 eb31 2aae b133
00000240: 70e1 af32 8765 d532 e497 3934 1185 b336
00000250: db64 1f33 62e6 8c32 c241 a033 23d1 8a31
00000260: bbd6 4833 07c8 2833 b08e 4732 f6e8 6433
00000270: 5097 d332 a071 2e32 e991 3733 f1d2 b232
00000280: 6a8c 8d33 eb0d e131 d223 b432 bfcc 6833
00000290: e008 8032 1a78 6833 f5da 4b32 d636 3e33
000002a0: b629 0633 0dc7 f232 378c 9c33 f9e3 8931
000002b0: bb53 0633 c394 3b33 606c ec31 c7af 9833
000002c0: 032d 2032 0f75 ef32 78b3 4e33 e3d7 4332
000002d0: 882d 7433 7898 9c32 930b e132 796e 4834
000002e0: 6eb9 9336 517b a232 3463 2032 9be0 6132
000002f0: 0427 f030 ffe4 2b32 79a7 2832 df3a 1832
00000300: 66f6 a432 164d 4531 1ea0 8431 1c65 3832
00000310: f500 0e32 153a c632 6e10 a730 c063 9f31
00000320: e6f2 4832 90ae 1432 63b2 2132 6d20 3732
00000330: 72e8 0c32 b1f2 4732 b861 3f32 fcde 9832
00000340: 9378 7230 d6d1 b131 62c1 4d32 172f 0d32
00000350: 5b13 b832 c651 de30 abe9 d131 f74f 5932
00000360: 135a dc31 69eb a932 0afd 3631 bf67 6f31
00000370: 8436 8033 05a9 7f35 9f3c 1233 345c 1232
00000380: 4d15 6c32 9ecd a532 0597 8d32 686b 0733
00000390: bea8 df32 f71a 5532 a230 9f31 ad78 c432
000003a0: d496 4732 7286 3933 b8f5 aa32 23e1 9131
000003b0: 216c 6832 a9fa c132 4b69 8932 d032 c032
000003c0: 8c2f 2532 92f9 be32 0499 8931 b2d8 2533
000003d0: bfd5 1f33 0474 6f30 c7e7 9c32 2ee6 f331
000003e0: 3f9c f832 3c73 a632 5d88 4d32 785c b332
000003f0: b39e ce32 e23b da32 86b0 8432 2e2b 2832
2.2433769e-08 6.8925856e-09 3.0587675e-08 1.3606419e-08 1.763452e-08 2.8996979e-08 2.435697e-08 2.4189474e-08
3.5645167e-09 1.8494239e-08 2.721335e-08 3.3495706e-08 1.8480186e-08 2.0368758e-09 9.582663e-09 2.0469964e-08
1.3568327e-08 2.9909856e-08 7.879988e-09 2.9414911e-08 7.037993e-09 3.2478884e-08 3.9172118e-08 2.1195354e-09
1.5926044e-08 1.0428863e-08 2.1222515e-08 2.7765132e-08 1.3765514e-08 1.5683945e-08 2.8423601e-08 2.7480738e-08
1.8229482e-08 5.4959877e-09 2.7668582e-08 6.041031e-08 3.0478254e-06 1.8274696e-08 1.0016164e-08 1.5944384e-08
4.4184687e-09 1.020127e-08 1.4898686e-08 1.5826945e-08 1.3520401e-08 5.144751e-09 7.575749e-09 1.9045656e-08
1.853192e-08 1.0343391e-08 2.599025e-09 7.7072935e-09 1.5427496e-08 1.1544127e-08 1.6029077e-08 3.5084675e-09
1.1595386e-08 1.4408464e-08 1.9096227e-08 1.5553873e-08 2.1582296e-09 1.1515543e-08 1.1621233e-08 1.4628404e-08
1.6411327e-08 4.5819237e-09 1.1258433e-08 1.7486107e-08 1.4182362e-08 1.4746529e-08 3.6043397e-09 9.485034e-09
6.046064e-08 1.2321437e-06 1.0570704e-08 5.8230416e-09 7.3146914e-08 8.1741225e-10 2.909328e-08 3.4519896e-09
2.2346716e-09 8.0345416e-08 4.570352e-09 6.5504238e-09 8.20219e-08 5.779497e-09 2.7012659e-09 1.6545598e-09
8.722003e-09 1.227271e-09 5.0350972e-09 8.448076e-08 2.2768682e-09 5.136376e-08 3.8075054e-09 4.825582e-09
8.4664464e-08 1.1795276e-09 2.4485507e-08 2.9457627e-09 4.4238346e-09 8.325343e-08 1.1472399e-09 7.842023e-09
7.722524e-08 7.4132793e-09 4.653349e-09 2.508204e-09 7.107926e-08 3.5256594e-08 5.477194e-06 4.3190518e-08
3.287652e-09 7.8649094e-08 1.4660195e-08 2.4940906e-08 5.0116604e-08 6.555214e-09 6.2359895e-08 2.6149829e-08
1.2838423e-08 3.4521396e-08 2.4254685e-08 8.0884945e-08 1.5260022e-09 1.7642025e-08 5.861523e-08 2.6969553e-09
6.678484e-08 1.217973e-08 3.252198e-08 1.2817861e-08 4.1358835e-08 7.488742e-08 1.6596676e-08 3.4898534e-08
1.1136186e-08 2.5001144e-08 9.209149e-08 1.3427958e-08 4.8415536e-08 3.364335e-08 6.8615362e-09 8.273885e-08
2.0475198e-08 2.4842633e-08 1.7284725e-07 5.3501067e-06 3.71118e-08 1.6402911e-08 7.462542e-08 4.0401047e-09
4.6761425e-08 3.9297472e-08 1.1615768e-08 5.3297263e-08 2.4632442e-08 1.0153968e-08 4.2740712e-08 2.0817852e-08
6.591365e-08 6.549944e-09 2.0971047e-08 5.4202925e-08 1.4905197e-08 5.412594e-08 1.186594e-08 4.4287695e-08
3.1237242e-08 2.8263026e-08 7.289821e-08 4.0131423e-09 3.127546e-08 4.367463e-08 6.880825e-09 7.110025e-08
9.32346e-09 2.7876494e-08 4.812634e-08 1.1399581e-08 5.6852087e-08 1.8230125e-08 2.619871e-08 1.8666641e-07
4.4025282e-06 1.891536e-08 9.335782e-09 1.3147793e-08 1.7473387e-09 1.0005578e-08 9.816966e-09 8.86095e-09
1.9204162e-08 2.8711091e-09 3.859909e-09 1.0733199e-08 8.2657055e-09 2.3076646e-08 1.2155519e-09 4.6388493e-09
1.1696761e-08 8.654425e-09 9.411994e-09 1.0659375e-08 8.2019245e-09 1.1638506e-08 1.1139882e-08 1.779653e-08
8.8210433e-10 5.1752336e-09 1.1976541e-08 8.217987e-09 2.1429221e-08 1.6175867e-09 6.1092655e-09 1.2649244e-08
6.413083e-09 1.9781242e-08 2.6628322e-09 3.483805e-09 5.970381e-08 9.524086e-07 3.404841e-08 8.519283e-09
1.3741851e-08 1.9302032e-08 1.6483236e-08 3.1529822e-08 2.6037352e-08 1.2404363e-08 4.633038e-09 2.287228e-08
1.1617619e-08 4.3195946e-08 1.9902345e-08 4.2456505e-09 1.3528763e-08 2.2582144e-08 1.599678e-08 2.2374849e-08
9.615075e-09 2.2232403e-08 4.0046206e-09 3.861414e-08 3.7214473e-08 8.711256e-10 1.826619e-08 7.098399e-09
2.8942052e-08 1.9377346e-08 1.1963576e-08 2.0880393e-08 2.4053724e-08 2.5405772e-08 1.5447096e-08 9.788705e-09

exp_avg f4 [64]
00000000: 90d1 2bb9 949c 7eb8 ce94 0738 9cc4 a8b7
00000010: a5d3 e8b8 4dda ec38 f6d9 80b8 e4a9 25b8
00000020: 71fe a438 44a8 f9b8 d1d7 d738 ef76 f538
00000030: 9e6b 0039 8a33 1db9 c610 0e38 5174 2438
00000040: d727 8bb9 b697 c038 4c92 1a38 9d2a 2db8
00000050: acf4 cd36 d160 9ab7 f086 0638 9754 1539
00000060: 7c63 61b8 cd6d 4a38 2386 4038 248f 7a38
00000070: 1760 2ab6 8053 84b8 d2f8 0db7 ae9d 2838
00000080: da6a a2b8 f639 50b7 7b72 b1b8 5359 14b9
00000090: 5d61 b438 b738 1337 98a2 9937 6c5f 0039
000000a0: a91e e136 5fd5 a1b6 31b7 e1b8 40d8 b3b8
000000b0: 4309 36b9 156d 9d37 3ccc 8e37 63ce 8a38
000000c0: d39b 5a37 c404 d838 915a 10b8 8ef7 ba38
000000d0: 4fe2 25b8 41d9 62b9 fc64 3338 9da6 7eb8
000000e0: f6d6 3b39 d27c b838 7f49 c937 cac2 d338
000000f0: 8284 cbb8 aaab 15b9 a50e 0e39 eefe 3d38
-0.00016385899 -6.0704144e-05 3.2325093e-05 -2.0118714e-05 -0.00011102044 0.000112940186 -6.144114e-05 -3.949729e-05
7.867523e-05 -0.00011904587 0.00010292198 0.000117046635 0.00012247122 -0.00014991887 3.387106e-05 3.9208975e-05
-0.0002654183 9.183532e-05 3.685271e-05 -4.12861e-05 6.1379596e-06 -1.8403314e-05 3.207376e-05 0.0001424126
-5.3736832e-05 4.8262813e-05 4.590129e-05 5.9737955e-05 -2.5387906e-06 -6.3098036e-05 -8.462188e-06 4.0201172e-05
-7.7446646e-05 -1.2411261e-05 -8.461341e-05 -0.00014147656 8.601204e-05 8.775088e-06 1.8314735e-05 0.00012242579
6.709092e-06 -4.8230136e-06 -0.00010762958 -8.575665e-05 -0.00017360323 1.8766654e-05 1.7022823e-05 6.618795e-05
1.3030093e-05 0.0001030057 -3.4416622e-05 8.915282e-05 -3.9549832e-05 -0.00021633973 4.2770975e-05 -6.071349e-05
0.00017913789 8.797053e-05 2.3995291e-05 0.00010097546 -9.704476e-05 -0.00014273697 0.00013547631 4.5298533e-05

exp_avg_sq f4 [64]
00000000: 9018 b733 f387 6b33 87ed cc33 398b 1434
00000010: 305c 2134 23a5 4c33 6225 b933 e692 9733
00000020: 10d2 6f33 0b19 a134 d7e8 b433 b1f3 3434
00000030: b7e6 b633 b059 0034 e61c 1b34 2480 b833
00000040: ea3c 1334 38a5 4b33 551c bc33 33cf e333
00000050: ca64 a033 99cc e733 71ae 3734 243a df33
00000060: 19c0 e133 0154 1934 537b 4534 ae03 1f33
00000070: c234 4b34 1d38 3134 058f 2634 81ba 2833
00000080: a09c a433 b746 a332 c938 4e33 05dd ec33
00000090: 5da2 f833 629a da33 0104 8233 53f7 b633
000000a0: b596 2734 184e ec33 5fe8 3734 6cbb 6c34
000000b0: 4568 f833 c8c3 0c34 dc13 1c34 96f7 7333
000000c0: 3f21 3634 46f7 2734 b560 0333 bac6 d733
000000d0: 9358 2833 0e74 9b33 aef3 dd32 fe3d e733
000000e0: 59e6 1134 cab5 0e34 ddcd 0334 639d 0434
000000f0: 1101 8133 a591 7934 449d bb34 6d91 2034
8.5260695e-08 5.4838846e-08 9.542696e-08 1.3834223e-07 1.5027831e-07 4.7647642e-08 8.621534e-08 7.058206e-08
5.5837575e-08 3.0006808e-07 8.4242565e-08 1.6852461e-07 8.517002e-08 1.1953557e-07 1.4446013e-07 8.591476e-08
1.3712602e-07 4.7414886e-08 8.759586e-08 1.06082005e-07 7.468914e-08 1.0793992e-07 1.7106665e-07 1.03948224e-07
1.0512321e-07 1.4279796e-07 1.839192e-07 3.702342e-08 1.8925041e-07 1.6504823e-07 1.5511985e-07 3.9285172e-08
7.665335e-08 1.9007855e-08 4.801476e-08 1.10298096e-07 1.15779336e-07 1.0179498e-07 6.054325e-08 8.5200234e-08
1.5607914e-07 1.10038116e-07 1.7127739e-07 2.2047396e-07 1.15673664e-07 1.3109741e-07 1.4535857e-07 5.6803025e-08
1.6962166e-07 1.5643045e-07 3.058877e-08 1.0047866e-07 3.9196106e-08 7.23886e-08 2.5838599e-08 1.0768052e-07
1.3587977e-07 1.3290915e-07 1.2275218e-07 1.2350715e-07 6.0072246e-08 2.3242917e-07 3.494589e-07 1.4954067e-07

exp_avg f4 [64, 64]
00000000: 6317 90b8 e8b2 3cb7 2751 1e09 025a e635
00000010: 87d1 6335 e9f7 a8b7 b013 9a33 19b4 2336
00000020: 6e9a a6b6 76da afb7 7fc0 61b8 5fe9 1a35
00000030: 0bae b536 4224 37b8 800e af35 d907 fbb6
00000040: f776 16b8 a8d5 b333 e00c 1b36 1ea7 cbb2
00000050: 9ed8 85b6 d432 37b4 2838 fcb5 95dc eab6
00000060: 061c 55b7 532d dfb4 e1ab dcb5 7205 e0b5
00000070: b950 5db7 39d6 2e36 b6f6 1eb8 9612 8eb4
00000080: ee14 c9b3 bd98 a035 f967 21b8 70b5 28b8
00000090: cf84 9fb5 9db3 e035 e87d beb6 7186 fdb6
000000a0: 12eb 01b8 3fa2 b7b3 1b9a 9733 e413 19b6
000000b0: 5730 60b7 506b 4b36 f7e3 93b8 4ed2 98b6
000000c0: 6b35 2535 6a6b 74b5 06f2 49b7 8819 04b7
000000d0: 408f b434 76b4 fab7 b134 74b5 de7a 88b8
000000e0: 2c53 8fb6 728d 9735 c9e0 22b6 510a 19b2
000000f0: 6c8e e5b6 5934 41b7 19d0 8a35 0349 c6b8
00000100: 7eea b435 9a45 8d38 a97c 4e12 e76b 2338
00000110: b9f5 f837 3964 68b8 b552 2f35 a7ba 87b3
00000120: 5b3f 48b8 1c43 15b7 e60f 8fb8 4340 40b8
00000130: e6fa e137 66fb 1fb7 0ac2 c3b3 7a0e 07b6
00000140: 1b9d 3ab6 f44e 43b7 b254 0bb5 baf1 df36
00000150: b5bc 1438 03a7 2b36 589a 9c37 0110 fd36
00000160: 5b43 2d38 6d77 eab2 7b8c bcb6 3478 e2b3
00000170: 894a 4437 2b41 61b6 470b d9b7 4934 0c24
00000180: 6549 3438 ceee 0c37 8d17 3d37 6a1a 72b6
00000190: dd6c 7e37 acbb 7e37 75c6 bb35 27a5 c837
000001a0: a021 46b6 6ea3 ec37 bb96 0636 8689 1138
000001b0: 439a 9936 c1bd 0e36 baa4 7437 e6e0 82b8
000001c0: 8230 d8b5 fbcc 9a37 8618 fbb7 c0e2 15b8
000001d0: b758 5838 2303 19b7 0641 c835 80e6 4c37
000001e0: 0064 82b8 d2a8 7435 ba98 36b7 4ae1 43ab
000001f0: cc58 9cb7 2783 9838 9648 3f36 f706 c837
00000200: 0400 0000 3f68 1010 8c3f 730e 2abc 2010
00000210: 0400 0000 0400 0000 0400 0000 0400 0080
00000220: 0400 0000 0400 0000 e0c7 470e 0400 0000
00000230: 0400 0000 0400 0000 0400 0000 b5a5 5a0f
00000240: 5709 2d0f 0400 0000 0400 0000 0400 0080
00000250: 0400 0000 0400 0000 0400 0000 e863 0e10
00000260: 77e3 c40e 0400 0000 0400 0000 0000 0000
00000270: 177c fa0e 0000 0000 0000 0000 0400 0000
00000280: 0400 0000 0400 0000 0400 0000 930f 230f
00000290: c536 e80e 19b2 c90e 0000 0000 aaa8 bc0f
000002a0: 0400 0000 5970 a40e 0000 0000 cea1 af0f
000002b0: 77be 1210 0400 0000 e8e6 0a10 0400 0000
000002c0: 0400 0000 afbc 580f 0400 0000 0400 0000
000002d0: 0400 0000 0400 0000 0400 0000 7345 a90e
000002e0: 0400 0000 0400 0000 0400 0000 0000 0000
000002f0: 0400 0000 7f3d 0d10 0400 0000 0400 0000
00000300: 367d 96b9 99b0 b737 9d39 52b8 09ee e6b7
00000310: 868b d2b6 18ff 10b9 76e1 23b8 7c41 11b9
00000320: 1a29 ae37 7371 5bb7 03e4 85b9 ea9c eb37
00000330: 2d62 22b9 c29f 0ab8 fa10 7fb8 0263 07b9
00000340: 4f43 8fb9 2f1e 33b8 df92 2fb8 751a 8fb8
00000350: 7373 9b37 58f8 eab8 e6b4 3d38 e660 5db9
00000360: e062 86b8 c7c9 3ab8 a67e 87b8 5a2e 89b6
00000370: 4ade 57b9 3dfb 6737 0c30 b3b8 a36d d1b8
00000380: 74f8 2a39 3712 82b8 c3fb 1eb9 dc69 88b9
00000390: ab4e 51b9 67b9 2638 69cd 3bb8 ff22 6bb8
000003a0: 56c1 bab8 f388 cb38 53fd cf38 cfea 84b8
000003b0: 7b97 5fb9 6fa6 13b9 adba 01b9 722c 6ab8
000003c0: bb62 12b9 1cf7 a8b8 c303 27b7 3e8d 36b9
000003d0: 52a5 7b36 93d4 33b7 6696 f5b7 bb11 80b9
000003e0: c614 9fb8 063d 29b8 7e1b 06b9 93c8 1cb5
000003f0: 2c24 5538 7b9b 7db7 33e6 3b38 667f 53b9
-6.870811e-05 -1.1247328e-05 1.9056716e-33 1.7162531e-06 8.486899e-07 -2.0142603e-05 7.174765e-08 2.4393723e-06
-4.9651635e-06 -2.0963354e-05 -5.3823456e-05 5.770907e-07 5.4144816e-06 -4.3664368e-05 1.3042736e-06 -7.4812965e-06
-3.587358e-05 8.374201e-08 2.3104294e-06 -2.3708306e-08 -3.9889264e-06 -1.7061694e-07 -1.8791807e-06 -6.9994226e-06
-1.2702314e-05 -4.1569965e-07 -1.6441301e-06 -1.6690885e-06 -1.3191421e-05 2.6052714e-06 -3.7899903e-05 -2.6463084e-07
-9.363599e-08 1.1965382e-06 -3.8482223e-05 -4.0223298e-05 -1.1885076e-06 1.6741575e-06 -5.6770987e-06 -7.5556386e-06
-3.0974923e-05 -8.551114e-08 7.059517e-08 -2.2810354e-06 -1.3362695e-05 3.0311821e-06 -7.051968e-05 -4.5544357e-06
6.1545023e-07 -9.105339e-07 -1.2036884e-05 -7.873758e-06 3.363184e-07 -2.9886356e-05 -9.097376e-07 -6.507871e-05
-4.2714146e-06 1.1291543e-06 -2.4270723e-06 -8.908118e-09 -6.841312e-06 -1.1515885e-05 1.0342366e-06 -9.454975e-05
1.3479291e-06 6.736368e-05 6.5155794e-28 3.896272e-05 2.9678327e-05 -5.540645e-05 6.5312935e-07 -6.320379e-08
-4.774272e-05 -8.896717e-06 -6.821733e-05 -4.5836216e-05 2.6938924e-05 -9.535672e-06 -9.1156906e-08 -2.0124994e-06
-2.7807607e-06 -1.1641288e-05 -5.1904783e-07 6.6740586e-06 3.5461697e-05 2.55782e-06 1.8668521e-05 7.5418507e-06
4.1309144e-05 -2.7295494e-08 -5.6191907e-06 -1.054581e-07 1.1699864e-05 -3.3565545e-06 -2.5873667e-05 3.0401948e-17
4.29837e-05 8.400251e-06 1.1270761e-05 -3.6076185e-06 1.51649265e-05 1.51832755e-05 1.3990344e-06 2.3918763e-05
-2.9523871e-06 2.8209495e-05 2.0055293e-06 3.4698773e-05 4.5777138e-06 2.12701e-06 1.4581887e-05 -6.240774e-05
-1.6107372e-06 1.8453682e-05 -2.9932951e-05 -3.5735546e-05 5.1581035e-05 -9.120241e-06 1.4920086e-06 1.2213015e-05
-6.2175095e-05 9.114275e-07 -1.0883605e-05 -6.959057e-13 -1.8637998e-05 7.272354e-05 2.8503468e-06 2.3845101e-05
6e-45 2.84793e-29 2.998266e-30 3.1699393e-29 6e-45 6e-45 6e-45 -6e-45
6e-45 6e-45 2.462488e-30 6e-45 6e-45 6e-45 6e-45 1.0780144e-29
8.531357e-30 6e-45 6e-45 -6e-45 6e-45 6e-45 6e-45 2.8081527e-29
4.853677e-30 6e-45 6e-45 0.0 6.1749252e-30 0.0 0.0 6e-45
6e-45 6e-45 6e-45 8.03952e-30 5.7245157e-30 4.9721827e-30 0.0 1.8603198e-29
6e-45 4.053731e-30 0.0 1.7318657e-29 2.8940152e-29 6e-45 2.7393585e-29 6e-45
6e-45 1.0685961e-29 6e-45 6e-45 6e-45 6e-45 6e-45 4.1728594e-30
6e-45 6e-45 6e-45 0.0 6e-45 2.7854722e-29 6e-45 6e-45
-0.0002870352 2.1897535e-05 -5.0121558e-05 -2.752898e-05 -6.2747304e-06 -0.0001382794 -3.9072205e-05 -0.00013852672
2.0761556e-05 -1.3079832e-05 -0.0002553762 2.8087252e-05 -0.00015486097 -3.305055e-05 -6.081255e-05 -0.00012911487
-0.00027325234 -4.2705036e-05 -4.1860036e-05 -6.8236994e-05 1.85312e-05 -0.00011204247 4.5229586e-05 -0.000211123
-6.408035e-05 -4.4533776e-05 -6.460892e-05 -4.088314e-06 -0.00020586807 1.3827169e-05 -8.5443346e-05 -9.986318e-05
0.0001630502 -6.202276e-05 -0.00015161843 -0.00026018813 -0.000199611 3.9750154e-05 -4.4775577e-05 -5.606096e-05
-8.905183e-05 9.705303e-05 9.9177145e-05 -6.337987e-05 -0.00021323368 -0.00014081014 -0.00012371941 -5.583134e-05
-0.00013960425 -8.056892e-05 -9.9548515e-06 -0.0001740949 3.7498144e-06 -1.0718725e-05 -2.927631e-05 -0.00024427273
-7.58558e-05 -4.0349572e-05 -0.00012789477 -5.84064e-07 5.0816845e-05 -1.5116176e-05 4.4798664e-05 -0.00020169988
