p1_navigation/DQN20190128_v12.pth (torch_old, 85603 bytes, 18 tensors)

hidden_layers.0.weight f4 [64, 37]
00000000: 454b 3e3e 845c 993e e971 da3d 651b 563d
00000010: 99af bebd 7d71 803e 92a5 433e 7116 ae3e
00000020: 1f72 503e 74c0 233d 05c4 f23d 3851 253e
00000030: 0ad9 143d b0aa a63c a753 edbd 96e5 373e
00000040: 0df4 833e 964b 883e 604b dd3d a75c a6bd
00000050: a9ac 963e cc39 b53e 6280 3b3e 618c 8f3e
00000060: 6288 21bd e315 503e c6f2 ac3e 63df f73c
00000070: c02e d33d 6efe 7fbd acc8 013e 5830 bd3e
00000080: a506 bc3d 5789 bc3d 6a83 19be 63e5 e0bd
00000090: 7346 3ebc 0593 9f3e cd8e 913e 05b9 953e
000000a0: c3cd 583e 1b5d 00be a908 5f3e a9c9 ea3c
000000b0: 8b2c 9b3d 892d a13d 67f3 d03d afe5 913e
000000c0: ad18 d83d 8922 093e 4ef8 573e 8dbb f63d
000000d0: 93bf 883e a081 313e 19e7 a33e b164 9c3d
000000e0: 85f2 4b3c b5f8 be3d 96e4 b63d 8b3a 193e
000000f0: ec3b 743e baf2 653d d573 e73d 7301 663e
00000100: 1260 853e b1f7 f73d 612b b0bb 50d5 763e
00000110: 2640 a03e 0f2e ae3e 6d71 bb3d 4172 dabd
00000120: 357a 6f3d bad5 a03d c64c ab3e b560 a93e
00000130: 9a7e 803e 9c91 903c 3b51 2f3c 85f6 623d
00000140: ebe2 483d 7366 c23e b69e ad3e 68b0 0abe
00000150: a558 203e 155f 403e 11fa 023e 0300 52bc
00000160: 67ec 3c3d 6c4b 923d 876b 643e 783e 863e
00000170: 4544 a23e eb06 c63d 27ab da3b c4c7 fc3d
00000180: 4970 783e 4dd9 323e 6f93 19be 23f5 443d
00000190: 1a8f ad3e 0e3b 883e 417f f23d 4f80 3abd
000001a0: 827b 75bd 9a11 613e 704f c93d fae8 eb3c
000001b0: ff81 0dbd 0902 50bd 6ea0 e4bc f146 8a3e
000001c0: 2530 a43d 790f ab3e 21f4 843e 64fa 43be
000001d0: 6a20 b73d 6191 373e 5ec0 393e 9646 7c3e
000001e0: 44a1 0b3d 3a76 183e f2c8 c33d 9c66 613e
000001f0: e360 bdbd 5e52 26be 4f7d 0f3e e832 8c3d
00000200: 7904 bd3d 8b62 103d c32c 6abd 6f36 3a3e
00000210: d683 c33d ede2 293e 8c20 543e e73c 72bd
00000220: 3ad0 463e 27e8 2a3e 50d3 103e 7f6a 7e3e
00000230: cdf0 e03d e605 603e 2ca4 b53e f4c5 3f3e
00000240: 9f6a 78bc 22b0 2abe 822a 023e 0dd0 303b
00000250: b80e e23d 15f4 b43d e2e8 d6bb 0bb6 323d
00000260: c72e e3bd 3293 863e 9ebb 8b3e c467 bf3b
00000270: 60ad 883e c116 34be 6ae8 053e 306c d63d
00000280: 6890 cc3d 30a3 313d 7783 54be e7dd 903d
00000290: 4fc1 0c3e 99c9 2f3e 7b2a dc3d 4215 783b
000002a0: 84b0 e13c fdca 393e 0f2a b53e 0359 0a3e
000002b0: 1a14 053e 9008 8b3e 2838 5f3d 6621 743e
000002c0: 82d7 d43d cafa dabd 3703 9d3e 1c9f 7f3d
000002d0: 4f97 273e 501b 3c3e be58 133d b236 ce3d
000002e0: 91b2 233d 801c f73c 0672 89bd f836 19be
000002f0: cd90 c13c 829e 0dbe 3b76 f53d 2ea3 403e
00000300: 1b63 21be ce95 08bd 94f7 98be 6f26 933e
00000310: d93e 01bf 42b3 bb3d 00f6 58be 30b0 b3bd
00000320: 9289 30be b79d 243e f6bb 9bbb b44e 53bd
00000330: da66 36be 6836 9f3c 73b8 8ebe 7225 f03d
00000340: e6a5 a63e 4f71 8fbe 910d 263d 4cbc 7dbc
00000350: bdbc af3d 1e1e 14be 8b6e 8bbe 1a4c 01be
00000360: 46d5 843d 73a1 08be 9022 b13d 3683 25be
00000370: 70e5 28bc 3a57 433c 9f51 873e 53a9 513e
00000380: 3bbd d33d ec60 8d3e 329d 1fbe 926f 0f3e
00000390: 8246 033e 91b3 453e 5df6 603e 268d f23d
000003a0: 0317 5c3e b647 ab3e 68b8 8f3e 4ead 953c
000003b0: efd6 d53c d945 c23d 1803 de3d d7d5 763e
000003c0: 3778 813e 3f65 f53d 0553 413e f43d 533e
000003d0: e531 983e 8951 77b7 5ea1 973d 4b08 aa3d
000003e0: fd1f 3f3e c84e 1a3e 5596 a63d 359d 733b
000003f0: f360 983e 15db 443e 7c8c 963d 6f6e ec3d
0.185834 0.29953396 0.10666258 0.05227222 -0.09310836 0.25086585 0.19106129 0.34001496
0.20356034 0.03997846 0.11853794 0.16144264 0.036339797 0.020345062 -0.11588221 0.17958674
0.25772133 0.26620167 0.10805392 -0.08123141 0.29428604 0.35395658 0.18310693 0.28036788
-0.039436705 0.20320849 0.3377897 0.030257886 0.10311651 -0.062498502 0.12674206 0.36950946
0.09180955 0.09205883 -0.14991537 -0.10981252 -0.011613476 0.31166855 0.2842926 0.2924272
0.21172242 -0.12535517 0.21780647 0.028660612 0.07576855 0.07870013 0.10202675 0.28495547
0.105515815 0.1339208 0.21090814 0.12047491 0.2670866 0.17334604 0.3201225 0.07636393
0.012447958 0.09324781 0.08930318 0.14963739 0.23850983 0.056139685 0.1130139 0.2246149
0.26049858 0.1210779 -0.005376265 0.2410481 0.3129894 0.34019515 0.091524936 -0.106663235
0.058466155 0.07853265 0.3345701 0.33081594 0.2509659 0.017647557 0.010700519 0.05541088
0.04904453 0.37968788 0.3391015 -0.13543856 0.15658815 0.18786271 0.12790705 -0.012817386
0.04612389 0.07143292 0.22306643 0.26219535 0.3169271 0.09669288 0.006673235 0.1234279
0.24261583 0.17465706 -0.14997648 0.048085343 0.3389824 0.26607555 0.11840678 -0.04553252
-0.05993224 0.2197937 0.098296046 0.028797615 -0.034547802 -0.05078319 -0.02790853 0.2700725
0.08016995 0.33410242 0.25967506 -0.19138485 0.08941729 0.17926551 0.18139789 0.24636301
0.03408934 0.1488885 0.09559812 0.22011799 -0.09246995 -0.16242358 0.14012645 0.06845647
0.09229369 0.035250228 -0.057171594 0.18184827 0.0954663 0.16590472 0.2071554 -0.059140112
0.1941537 0.16690122 0.1414311 0.24845313 0.10983429 0.2187725 0.35476816 0.18727857
-0.015162139 -0.16668752 0.12711528 0.0026979477 0.11037964 0.088356175 -0.0065585235 0.04363064
-0.110929064 0.26284176 0.27291578 0.0058412272 0.26694775 -0.17586805 0.1307694 0.10469854
0.09988481 0.04336852 -0.20753275 0.070735745 0.13745616 0.17166747 0.1075029 0.0037854468
0.02754999 0.1814384 0.3538365 0.13510518 0.1299595 0.2715497 0.054496914 0.23840865
0.10392667 -0.106923655 0.30666515 0.062407598 0.16366313 0.18369794 0.035973303 0.10069026
0.039965216 0.030164957 -0.06711201 -0.14962375 0.023628617 -0.13829997 0.11985441 0.18812248
-0.15760462 -0.03334599 -0.29876387 0.2874026 -0.5048652 0.0916505 -0.21187592 -0.087738395
-0.17239979 0.16075788 -0.0047526313 -0.05158873 -0.17812672 0.019435123 -0.278751 0.11725892
0.32548445 -0.28016135 0.04054028 -0.015486788 0.08580921 -0.14464614 -0.27232775 -0.12626687
0.06485991 -0.13342838 0.086491704 -0.16163334 -0.010308608 0.011922652 0.2642946 0.20474748
0.10338827 0.27613008 -0.15587309 0.14007404 0.12819865 0.1930678 0.2196898 0.11843328
0.21493153 0.3345315 0.28070378 0.018271115 0.026103465 0.09485979 0.10840434 0.24105011
0.2528703 0.11982202 0.18879326 0.20629102 0.29725567 -1.4741331e-05 0.07403825 0.08302363
0.18664546 0.15069115 0.08134142 0.003717256 0.29761466 0.19224198 0.07351014 0.11544501

hidden_layers.0.bias f4 [64]
00000000: f206 bc3e 12db 553e 4bb0 9a3d dbf9 d33d
00000010: 4fc9 bf3e 82c0 84bc b259 1a3e d36a 953e
00000020: 33d9 8d3e 653e 0f3d f58b a83e 726b 993e
00000030: 244b bd3e b3be 873e 53f0 273e 65ce 4c3e
00000040: bdcd 933e 0d60 523e 6919 7d3e fdc8 d03d
00000050: 75ba 313e d6fc 783e 1807 323e ae89 423e
00000060: 1e57 8e3d 55ad 903e b56c 193e 583e a23b
00000070: 9ed0 b73e 4ac9 8d3e 6602 31be fb85 423e
00000080: 4e11 d23e bef1 773e 021a e23d 5761 b23e
00000090: 21df 273e a0de 583e 01bc 053e 6236 df3d
000000a0: 4888 da3d 4cda 323e 38f1 1e3e ab6f be3e
000000b0: 8db9 583e 4c12 173e d71c 9a3e cdaf b93c
000000c0: fda4 133e bb24 873e ea78 193d 09f3 c13d
000000d0: f8d4 8c3e 1027 8f3d ece7 af3c 39c9 883e
000000e0: 74d6 973e b516 243e 027e b93d 6b91 303e
000000f0: 4de0 6f3e 8060 123e 2188 873e 36a4 713e
0.3672405 0.2088435 0.075531565 0.103503905 0.37458274 -0.016205076 0.15073279 0.29183063
0.27704772 0.034971613 0.3291928 0.29964787 0.3697139 0.2651268 0.1640027 0.20000608
0.28867903 0.20544453 0.24716724 0.101945855 0.17356284 0.243152 0.17385519 0.18997833
0.0695021 0.28257242 0.14982875 0.0049512796 0.3590135 0.27692634 -0.17286071 0.18996422
0.41028827 0.24213311 0.11040117 0.3483989 0.1639371 0.21178675 0.13059999 0.108990446
0.10670525 0.17466086 0.15521705 0.3719457 0.21164532 0.14753073 0.30100128 0.022666836
0.14418407 0.2639521 0.03746883 0.094701834 0.27506232 0.069898725 0.021472894 0.2671602
0.29655802 0.16024287 0.09057237 0.17242973 0.23425408 0.14294624 0.26471046 0.23597798

hidden_layers.1.weight f4 [64, 64]
00000000: 8b53 dcbd dfb6 fdbb d82e 083d b41c 03bd
00000010: 1f58 8b3d 1fda a8bd 3cba b03c ada2 203d
00000020: 5040 b03c a41c 25bd da18 06bb d8ab 0fbe
00000030: 10f6 0bbe 548a 4bbd bc31 70bd 3cff 5b3d
00000040: 6980 533d a125 373d c748 c5bd 3e00 05be
00000050: 59e0 03be e410 e03b 1759 00be de8d ffbd
00000060: 2a51 c9bd b81f e5bd 99c5 b4bd 1f37 f2bd
00000070: e258 cfbd 7717 a43d 03d1 f8bc 7451 933d
00000080: 4e39 1abd ee8f 61bd 717f 2bbd 8f8f 03be
00000090: e89b 0abe 5d48 303d 4377 9ebd 89e7 28be
000000a0: 74aa 933d 1906 0bbd 7bc6 9bbd ac5b 0abe
000000b0: a7e6 0bbe a5c2 10be ca2b 943d 9ae9 363d
000000c0: 63a4 f8bc b43a 14be 54f0 96bd 7795 f9bd
000000d0: e178 813b 9c03 85bd 1ba4 96bd 62f9 a4bd
000000e0: 7e5d ab3c 0e33 e23c 704c 4cbc 7700 5fbd
000000f0: 8d86 67bd f558 0abd eac9 debd e230 9e3d
00000100: 4359 2cbd ee2a 843d 83c2 2cbd f804 003d
00000110: ff56 3e3c 493b 4ebe b785 8e3d df94 73bd
00000120: 6e3d ad3c 805e 083c 0a5e 7d3d c0b4 ab3d
00000130: da66 c93c 2b49 44bb d946 7fbd e3aa 753c
00000140: 191f 1ebd 0a9a d23b 8a6a 6dbd b520 823d
00000150: 4e87 843d e349 843d 074f 833c b364 5f3d
00000160: 5676 f3bd bc1a b93d f22f 693c 3f26 c73c
00000170: da75 03bd 29fa 44bd 365c 51bd 5629 803d
00000180: 117a 86bd 5c0d 833a 2bb9 183d 26de a63c
00000190: 1591 bdbd abdd dcbd 5c33 95bd 5d2e f03d
000001a0: 6c2e 51bd 8b57 323d 6083 9d3d 67e8 5fbd
000001b0: a885 36bd e4b9 a7bd 678f 343c e1eb 4cbd
000001c0: e3cc d4bb a82b 1b3d 79b9 193d 877e abbd
000001d0: 6f2e 97ba 559d 0a3d 7d23 19bd 2d0d c13b
000001e0: ed81 09bd 7ab7 bc3d 4a74 12bd e3ca b23b
000001f0: 77d9 c6bd 77a0 6bbd 0f9e a4bc 01fc 9fbc
00000200: 0cca 0fbd a2bf 7e3d 3da9 71bb 13ef 9f3c
00000210: 1d19 c03d 7da4 8b3d 788e 29bd 3245 35bc
00000220: e4ea f2bb 3b75 19bd f26b a2bc 2cf2 9fbc
00000230: 5cea 553d 8d18 b63d 8da4 9a3d a3b1 f53c
00000240: 3dd0 863c c06e ad3c abca 1abb 2480 713c
00000250: e415 133d 60d4 c7bd a7f1 babd 19df 1c3d
00000260: c457 8dbc 5e63 82bd 0f0f 05be 2edd 883d
00000270: c692 e93a 3cbe 7abd 62de b4bc 39e4 383d
00000280: 802c 7cbd 1f24 af3c 21cc 233c b9ff 6b3d
00000290: c5e9 643d a9d7 83bd 97ef 013d 7a7f f23d
000002a0: 31ee 09bc c829 6f3d 3f57 02bd 8d61 be3c
000002b0: 384c 543d 97dd 61bd 03ca b93d fb37 a5bc
000002c0: 8fde 2abd 622d 84bd cb72 2dbd 3033 703d
000002d0: c7cc 95bd 24a1 86bb 82bb 54bd 04e4 a6bd
000002e0: 1078 9a3c d21e 91bc ea60 0e3d 75ad d3bd
000002f0: 2424 e6bc cf4b 30b9 874f 123d 9afe b3b9
00000300: 51cc 0b3d abf8 b03d 1386 7cbd 8b66 8b3d
00000310: d3b1 963d 613a 2fbe 18c1 963c c65c 923d
00000320: 6c28 a8bc 726b 9c3d f623 e3bb e494 353d
00000330: 2939 93bc 5dca c1bd e7e4 b73d 7f42 c7bc
00000340: cf0d b53d 98f8 52bc 00d7 c03c a4e9 d63c
00000350: 8fd1 28bc 7ffb 8abd 8678 1b3c 6933 fdbd
00000360: 8127 82bc e9fd 34bd 170f e33c 5397 05be
00000370: 8686 3d3d e54a 0bbe a31c 713d f969 013d
00000380: 1b20 f7bd 8938 aa3d ffcf f1bd 9658 08bd
00000390: 4d8c 383d d56f 55bd ceae 953d 40c4 38bd
000003a0: e4b4 0bbc 457c f4bd ed3f 87bd d33d ab3d
000003b0: 7174 823d e047 66bc d6a5 2fbb a415 d9bd
000003c0: 8155 743d 450b 25bd 532c 74bd b0d2 f9bd
000003d0: 1bc2 a53d 97a8 363d c76d a93c 1b57 82bc
000003e0: 21b0 84bd 1b2c 263d 8701 cebc ec52 ce3c
000003f0: 0806 2ebd 8f29 70bd 8cf5 773d e933 b83c
-0.10758122 -0.007742747 0.0332478 -0.032009795 0.06803917 -0.08244728 0.021573178 0.03921764
0.021515042 -0.040310517 -0.002046159 -0.14030397 -0.13668084 -0.049692467 -0.05864118 0.053710207
0.051636133 0.04471362 -0.09633022 -0.12988374 -0.1287855 0.006837951 -0.12533985 -0.12478231
-0.09829934 -0.111876905 -0.08826751 -0.1182692 -0.10124375 0.08012288 -0.030373102 0.0719327
-0.037652306 -0.055068903 -0.041869584 -0.12847732 -0.13536036 0.04303776 -0.07737591 -0.16494574
0.07210246 -0.033941362 -0.076062165 -0.13511533 -0.13662206 -0.14136751 0.072349146 0.044656374
-0.030351823 -0.14475518 -0.07370058 -0.12186711 0.0039511775 -0.06494829 -0.073555194 -0.080553785
0.020918604 0.027612235 -0.012469396 -0.054443803 -0.056524802 -0.033776242 -0.10878356 0.077241674
-0.042077314 0.06453501 -0.04217769 0.03125474 0.011617421 -0.20139803 0.06959098 -0.059468146
0.021147456 0.008323312 0.06185726 0.08384085 0.024585176 -0.0029950838 -0.062323425 0.014994356
-0.038603876 0.0064270543 -0.05796293 0.063538946 0.0647112 0.06459405 0.016028894 0.054539394
-0.11887805 0.09038302 0.014232622 0.02431023 -0.032094814 -0.048090134 -0.05111333 0.06257884
-0.06566251 0.0009998488 0.037285965 0.0203696 -0.09256188 -0.10784467 -0.07285187 0.11727593
-0.051069662 0.04354052 0.076910734 -0.054664996 -0.04456106 -0.08189753 0.011020518 -0.05002964
-0.006494151 0.03788343 0.037530396 -0.083737426 -0.0011534224 0.03384145 -0.03738736 0.0058914633
-0.033571173 0.09214683 -0.035755433 0.005456315 -0.09709447 -0.057526078 -0.0200949 -0.019529345
-0.035104796 0.062194474 -0.0036874556 0.01952318 0.0937979 0.06818483 -0.041395634 -0.011063861
-0.007413255 -0.037465315 -0.019826863 -0.019524656 0.052225456 0.088914014 0.07550917 0.02999193
0.016456718 0.021170974 -0.0023619335 0.014740024 0.03590955 -0.09757304 -0.09128123 0.0382987
-0.017253764 -0.06366609 -0.12994026 0.06682812 0.0017820231 -0.061216578 -0.022078697 0.045139525
-0.061565876 0.021379529 0.009997399 0.057616923 0.055887002 -0.06437618 0.03172263 0.118407205
-0.008418606 0.058389455 -0.031821486 0.023239875 0.0518305 -0.055142965 0.09071734 -0.020168295
-0.041716155 -0.064539686 -0.042345803 0.058642566 -0.07314449 -0.004108565 -0.051936634 -0.08148959
0.018856078 -0.017714892 0.034760393 -0.10335819 -0.028093405 -0.00016812909 0.035720374 -0.00034331233
0.0341304 0.0864118 -0.0616513 0.06806668 0.07358136 -0.17112114 0.018402621 0.071466014
-0.020527087 0.07637681 -0.006931777 0.044331446 -0.017971592 -0.09462426 0.089792065 -0.0243237
0.088405244 -0.012876652 0.02354002 0.026234455 -0.010303869 -0.0678625 0.009489184 -0.12363321
-0.015887978 -0.04418746 0.027717156 -0.13046007 0.04627087 -0.13602789 0.0588652 0.031595204
-0.120666705 0.083115645 -0.1180725 -0.033287607 0.045055676 -0.052108604 0.07308732 -0.045109034
-0.008527014 -0.11937765 -0.0660399 0.083614014 0.06369866 -0.014055222 -0.0026801727 -0.10599831
0.059651855 -0.04029395 -0.059612583 -0.121983886 0.08093663 0.044594374 0.020682229 -0.015910676
-0.064789064 0.040569406 -0.025147213 0.025186025 -0.04248622 -0.058633383 0.060536906 0.02248569

hidden_layers.1.bias f4 [64]
00000000: e9cf c5bd c47a df3e b789 c23e 3382 e43e
00000010: 3e86 ee3e c483 063f 352d 9c3d 4d7b dc3e
00000020: ec48 063f 661a da3e 6d99 fc3e edfa be3e
00000030: 67fb cd3d 73c8 f13e 8630 653d 7616 023f
00000040: b36f db3e 2537 093f 43bb bd3e 45fe f33e
00000050: b770 c93e 9e23 ae3e c8e0 d43e 6379 eb3e
00000060: fedf c13d 7ff3 9c3e 6281 acbd 7b75 f03e
00000070: 0d1f ad3e ac13 64bc 11fd b83e 0790 17bc
00000080: 4095 b83e e618 ee3e be05 fa3e b0a4 e73e
00000090: 410b be3e 1540 053f fe24 043f e2cb ae3e
000000a0: b186 0b3f 658e a13e e9d9 f63e de5d cdbc
000000b0: 42aa da3e b034 ad3e 455b 883d e5ac e33e
000000c0: 4538 3ebd f3f8 0bbd 609f 033d ae5c 093f
000000d0: 896a 02be 7c67 933e 987d b83e 8c45 c13e
000000e0: 4a31 29be 7d58 b2bd a340 c13e 121c de3e
000000f0: ba27 b63c 55b2 003f 8217 efbd 7ab0 ab3e
-0.09658796 0.4364835 0.37995693 0.44630584 0.46586794 0.5254481 0.0762581 0.4306282
0.5245502 0.42598265 0.49335805 0.37300816 0.10057717 0.47223243 0.05595448 0.5081552
0.42858657 0.5359977 0.37056932 0.4765493 0.39343807 0.3401155 0.41577744 0.45991048
0.09466551 0.30654523 -0.08423115 0.4696463 0.33812752 -0.013920706 0.36130574 -0.009250647
0.3605137 0.4650337 0.48832506 0.45242834 0.3711796 0.52050906 0.51618946 0.34139925
0.545024 0.3155395 0.48213127 -0.025069173 0.4270802 0.3382926 0.06658033 0.44467846
-0.04644038 -0.034172963 0.032134414 0.5365704 -0.12735952 0.2878989 0.3603332 0.37748373
-0.16522709 -0.08708284 0.37744626 0.4338079 0.02223574 0.50272113 -0.11674406 0.33533078

output.weight f4 [4, 64]
00000000: c128 b43b bdc7 4a3e 4504 6b3e 1a02 3b3e
00000010: c4a3 3c3e 11bd 113e 6231 fdbc c4c7 2e3e
00000020: 8e19 3f3e d002 3e3e b539 183e 6979 213e
00000030: 980e b1bd 69bd 6a3e 52e0 a4ba dd45 0d3e
00000040: c542 0f3e 64d8 2b3e f864 163e 124f 2c3e
00000050: 852b 1b3e 63db 243e 7dd2 363e d354 0f3e
00000060: 079a a2bd 37f8 163e 714d e83d 1b20 343e
00000070: eef8 2e3e 5d7b 24bc 4d6f 503e 9486 40bd
00000080: a2da 353e d77b 173e d85d 3a3e e7a7 3f3e
00000090: 43a0 193e 309b 563e fa32 583e 93b0 e53d
000000a0: d049 f93d f86e 213e b239 313e 9212 61bd
000000b0: bd01 5a3e c1c5 0e3e 1157 bfbd bbc5 393e
000000c0: 6b68 88bd 9de6 9fbc 2b0c 4ebc d494 283e
000000d0: c15e 8fbd 0db5 f43d d138 2d3e c782 363e
000000e0: 35ee b8bd 86d8 7e3c 865a 1d3e 8ef9 543e
000000f0: f831 9a3d ae85 5d3e 6683 41bd 4fd3 0b3e
00000100: 059f 6d3d 4628 543e 5676 213e 0f8c 433e
00000110: fda9 4b3e 6d60 443e de71 6cbd 4025 4a3e
00000120: 842c 283e 621e 123e f9f1 3c3e c8b5 553e
00000130: 49aa 94bd e8ef 6b3e ddab 77ba 09e1 1e3e
00000140: 8998 693e 2f24 473e 2da5 073e 3f64 273e
00000150: 6fd3 2c3e fa61 0e3e b372 323e 4a22 173e
00000160: 0efa 46bc ce37 2d3e 1628 bebd 29c8 203e
00000170: c3a1 363e 4e44 d4bd 1408 613e 485b acbd
00000180: 5bfe 2a3e c24c 243e c549 463e adc8 343e
00000190: 89d2 3b3e 963b 543e b84f 6c3e 0d8a f33d
000001a0: 45ac 203e 1acc 1f3e f543 273e 987b 8ebd
000001b0: b7da 113e 81a2 0b3e c806 84bd f80b 203e
000001c0: 96cb 83bd e600 b9bd 53a7 2e3d 087b 503e
000001d0: 0d0b 91bc acb6 1a3e 2de4 303e 6e19 3f3e
000001e0: 0da0 bcbd d050 ca3c ee3e 513e 3d27 673e
000001f0: d181 dabd e76d 363e 4b8f 063d 0d25 083e
00000200: 9340 39bd 9fd8 163e bb50 5d3e 60b2 143e
00000210: e2bb 2e3e b973 243e 0741 93bd ba7c 1c3e
00000220: 778c 533e 18d4 083e 9d8f 173e 01e6 333e
00000230: 7b72 973d 0614 643e 75be f83c c515 193e
00000240: 3128 033e b90b 3a3e fb74 2b3e 0f79 0a3e
00000250: df6d 003e 7756 593e e333 1a3e f192 223e
00000260: 12ad d1bc 18a2 353e e8ab f93d 8702 353e
00000270: 62ef 153e 0166 c63d a1a6 4f3e e957 ed3b
00000280: 8813 e73d 2453 da3d 8df9 083e 067b 633e
00000290: be96 543e cc0a 503e 18f7 573e 1572 1d3e
000002a0: 6a81 503e 0fdb 1c3e 2ff3 0f3e 83c4 edbd
000002b0: 516e 1d3e 1540 1f3e 0d23 e53c bad2 ea3d
000002c0: 50c5 5ebc 483f b0bd 7e01 41bd 04c6 253e
000002d0: b8f4 95bd 4383 343e b62b e03d 1100 213e
000002e0: 713e 66bc 22c9 b6bd 682b 673e 6ed4 5b3e
000002f0: 54c3 6fbd 9b37 303e 2c36 bf3d 0421 183e
00000300: b8ec d9bc a583 e73d 138a 6d3e 864e fd3d
00000310: c50f 283e b4b9 263e 9350 edbc e9ae 133e
00000320: 12bc d53d 443f 343e a432 283e a54f 5d3e
00000330: 4217 00bd 1ee6 7c3e 0899 a63c 3c92 0d3e
00000340: 4a90 103e f85d 253e c439 1b3e 35ea 143e
00000350: 2ada 453e 60fa 683e 5c44 213e ecac 3a3e
00000360: b686 b93d 4604 323e b341 813d 8ebd 473e
00000370: 38b5 663e c857 d1bd 868a 563e 327f fd3b
00000380: cbd9 223e faf1 f23d ce8e 533e dbef 743e
00000390: 4002 f63d 850f 5c3e 391b 753e f02c 203e
000003a0: 7e33 1c3e 39ae 5f3e 8042 2a3e f3ae 6abc
000003b0: 4aa5 3b3e 40e8 3c3e 5056 523d 7049 173e
000003c0: 74b4 5d3d 011b 3b3d 51db 55bd 296b 433e
000003d0: 677f c13d 2b3f 283e 1fa8 253e cd8f 673e
000003e0: ebb4 acbd 5270 2abd b082 173e 4816 7c3e
000003f0: 2f94 e8bd 8cc2 393e 46dd 9dbd bb5d 0b3e
0.0054980223 0.19802757 0.22950847 0.1826252 0.18421847 0.1423228 -0.030907337 0.17068392
0.18662092 0.1855576 0.14865763 0.1576897 -0.08645362 0.22923817 -0.001257906 0.13796182
0.13990314 0.16781765 0.14686954 0.16827038 0.1515332 0.16099314 0.17853732 0.13997202
-0.07939535 0.14743124 0.11342896 0.17590372 0.17087147 -0.010039178 0.20354958 -0.047003344
0.17759183 0.14793335 0.18199861 0.18716393 0.15002541 0.20957637 0.21113196 0.112153195
0.12172282 0.15764987 0.17307165 -0.05494935 0.21289726 0.13942625 -0.093427785 0.18141834
-0.06660541 -0.019519145 -0.012576143 0.16463023 -0.07000495 0.11948595 0.16916205 0.17823325
-0.090298094 0.015554553 0.15366563 0.20798323 0.07529062 0.21633026 -0.047244452 0.13654827
0.05801298 0.20718488 0.15767798 0.19096397 0.19889064 0.19177409 -0.05772578 0.19740772
0.16423231 0.14269403 0.1845168 0.20870125 -0.07259042 0.23040736 -0.0009447912 0.15515532
0.22812094 0.19447397 0.13246603 0.16346835 0.1687753 0.13904563 0.17426567 0.14759174
-0.012144579 0.16915819 -0.092849895 0.15701355 0.17835145 -0.103645906 0.21975738 -0.08415848
0.16698591 0.16044906 0.19364078 0.17654677 0.18342032 0.20725855 0.23077285 0.118915655
0.15690716 0.15605202 0.16334517 -0.069571674 0.1424359 0.13636209 -0.06446606 0.15629566
-0.06435315 -0.090333745 0.04264004 0.20359433 -0.017705465 0.15108746 0.17274542 0.18662044
-0.09210215 0.024696738 0.20434162 0.22573562 -0.10669292 0.17815362 0.0328515 0.13295384
-0.0452276 0.14731072 0.21612827 0.1452117 0.17063859 0.1605977 -0.07190137 0.15281954
0.20659052 0.13362157 0.14800878 0.17568208 0.07394882 0.22273263 0.030364254 0.1494971
0.128083 0.18168534 0.16743843 0.13522743 0.12541912 0.2122439 0.15058856 0.15876366
-0.025595222 0.17737615 0.12190992 0.17676745 0.14642099 0.096874245 0.20278408 0.0072431457
0.11283022 0.10660389 0.13376446 0.22214898 0.20760629 0.20316619 0.21090353 0.1537555
0.20361868 0.15317939 0.14057611 -0.11609747 0.15374114 0.15551789 0.027970815 0.11465974
-0.013596848 -0.0860582 -0.047120564 0.16188818 -0.07322067 0.17628197 0.10945837 0.15722682
-0.014052973 -0.08925082 0.22575152 0.21467754 -0.05853589 0.17208712 0.09336504 0.14856344
-0.026602134 0.11304406 0.23197202 0.12368493 0.16412266 0.16281778 -0.028969085 0.14422192
0.10436262 0.17602259 0.16425568 0.21612413 -0.03127218 0.24697158 0.020336643 0.13825315
0.14117542 0.16149127 0.15158755 0.14542468 0.19321504 0.2275176 0.15748733 0.18230027
0.09058897 0.17384443 0.06311359 0.19505903 0.22530067 -0.10221821 0.2095128 0.00773611
0.15903394 0.118625596 0.20659944 0.23919623 0.12012148 0.21490295 0.23936166 0.15642142
0.15254018 0.21843804 0.1662693 -0.014323938 0.18324772 0.18447971 0.051351845 0.14774108
0.05412717 0.04568005 -0.05221111 0.19083847 0.09448128 0.16430347 0.16177414 0.2261345
-0.08432945 -0.041611023 0.14795947 0.24617875 -0.11356389 0.1814062 -0.0770822 0.13609974

output.bias f4 [4]
00000000: 94e7 543f 276e 3d3f 83a9 683f 650c 3a3f
0.8316586 0.73996204 0.90883654 0.7267516

exp_avg f4 [64, 37]
00000000: efd4 6ab9 a6f1 4039 a8e7 9db8 0b1f 69b7
00000010: e64f 10b6 ecd3 77b9 9924 1738 c22f 2bb9
00000020: 79d1 7539 96d8 2bb9 1fa0 dfb5 79fd 9138
00000030: 8e31 97b7 59c2 3bb9 d329 2d38 b0d5 79b9
00000040: 0fe8 4e39 94ca 9e35 0a72 bbb8 0837 0538
00000050: 53f1 c437 2378 d3b8 afe6 9d38 7d3e 05b9
00000060: 9464 16b9 1602 4cb9 17cd 0a39 d351 87b7
00000070: 5b27 55b8 ea8d 9b37 17b5 73b7 8416 eeb6
00000080: d9ae 32b8 ab22 88b8 3cc5 fcb7 ef46 1e39
00000090: abb5 2ebb 70d5 d236 ad18 81b9 c18a c6b7
000000a0: 052e e0b7 4b07 02b9 f883 cbb8 de49 1eb9
000000b0: 956b adb8 7e3f 2938 e57e 44b9 4f4f b237
000000c0: 43aa 03b9 2a69 01b8 24b7 22b9 6b82 4237
000000d0: 5f10 1e38 2918 02b9 a016 bdb8 cea4 eeb8
000000e0: 7cce 80b7 a204 0cb9 e925 26b9 0c15 0638
000000f0: 0464 feb7 7d8e e4b8 c661 2db9 d27f 5b38
00000100: 4584 0cb9 bdae 35b8 0474 beb7 6b06 c5b7
00000110: f3e3 92b8 b581 6db8 93fe 12b9 c770 d8b8
00000120: aa47 c438 8080 1e3b 851c 65b9 ba15 6939
00000130: 9331 5bb8 465f 70b8 beaa 4b39 c4cd f0b9
00000140: 744a 1138 e7c4 ea37 a682 9839 df0d afb8
00000150: bff5 0039 11b1 2939 544d 0138 95f2 dcb9
00000160: e942 0539 3395 58b9 1072 eb39 ad96 a4b9
00000170: 5432 10b8 5103 4439 430f ad38 9b31 2b39
00000180: 8837 d8b9 4e2b 7f38 fc6a 07b9 314d beb9
00000190: 639c bc39 5510 af37 756b 01b9 3b00 8839
000001a0: 1c3f fbb8 4923 9c37 591b 4a38 d15a 5db8
000001b0: df03 c138 806a 05b9 91b3 0fbb 846d c839
000001c0: 25b0 5db9 7627 d1b7 541f c238 13fd 5eb9
000001d0: 6990 9539 6aae e5b8 8a9b 3c39 109f f5b8
000001e0: edd4 b6b8 b63b 07b8 a38e 38b8 5b0a 3f38
000001f0: d022 8d39 32fc a237 1ce9 313a 493b 24ba
00000200: 0e8d 7939 f1ba 58b8 249a dab8 e79a 29b9
00000210: 8baf fc37 b188 df39 2fdb 6bb8 a661 2639
00000220: ba66 c339 12b7 85b9 0c03 1139 e765 92b7
00000230: dee0 efb8 1276 4539 aff7 5939 826e 87b7
00000240: 556a 14b9 3a43 eeb7 d1a7 113a 1f05 cf3b
00000250: 8004 f9b8 638c 3ab9 9b2c b539 7e00 2339
00000260: 6d15 3e39 65ba 8ab5 f81a 6538 fbdc ecb6
00000270: b180 2539 ce97 2439 7776 1539 6d7c 9139
00000280: fb83 9d39 0d4b 07ba 7e0f 9439 d9ac 8439
00000290: 6eef 73b9 406d a9b7 770e 5639 4ebf fc38
000002a0: f782 2f39 b64a af39 5034 cab9 a436 b938
000002b0: fd47 feb7 db11 77b9 ce4a b638 463e 2939
000002c0: 43f9 4839 0936 3a39 4c10 30b9 5be6 8339
000002d0: f8f7 0739 2a95 16b7 b78b b739 05a1 73b9
000002e0: 4246 f4ba 85af 00b9 6118 a439 6414 bd38
000002f0: 5a32 1839 e6bc c638 e7db 0b39 6b6b c339
00000300: f7ae 2db9 0474 b238 44d6 5d38 64f0 9439
00000310: 0400 0080 f24f b238 09d4 6c38 ca2a 8a39
00000320: 5206 3039 3241 ca39 28d1 e6b8 b312 97b7
00000330: 44a8 4a39 06c4 13b9 aa5c 4337 6936 0b39
00000340: cc4a dd39 7e3e 7038 024a 0638 3e4b b639
00000350: 51f9 adb8 7a11 0739 247e 7d38 08ff dd36
00000360: 263d 2839 82be e038 69b1 1e39 3336 8c38
00000370: 725c 9cb9 0e1b c039 e2f7 8b39 447e 0538
00000380: 45ea 7039 95b8 7139 834a d638 a5cf ee39
00000390: 7552 fa38 174c 0339 4076 7738 6b1a 3539
000003a0: 3bf8 2b38 3706 bf39 2054 88b7 17f9 c139
000003b0: ad33 7039 4c82 1c3a 1f6f 07b9 3f9e bb39
000003c0: d4c8 8bb8 1e66 5b39 2ee8 4338 c82b ba39
000003d0: 0f9a e039 1a27 95b8 1a07 bd39 12ca eb39
000003e0: 9b31 8538 3bfd 8339 49a7 c6b6 8db3 ff38
000003f0: e413 a339 b287 ad39 5279 8e38 5af9 4d38
-0.00022395303 0.00018400568 -7.529493e-05 -1.389511e-05 -2.150418e-06 -0.00023634703 3.603529e-05 -0.00016325622
0.00023443055 -0.00016388515 -1.6661396e-06 6.961352e-05 -1.8023678e-05 -0.0001790611 4.1285366e-05 -0.00023826095
0.0001973214 1.1830875e-06 -8.938096e-05 3.1760923e-05 2.3477396e-05 -0.00010083641 7.5293116e-05 -0.00012707147
-0.00014342583 -0.00019455733 0.00013237107 -1.6131356e-05 -5.081981e-05 1.8543524e-05 -1.4526092e-05 -7.095574e-06
-4.2601347e-05 -6.491443e-05 -3.0132585e-05 0.00015094479 -0.0026658576 6.283335e-06 -0.00024623182 -2.3668052e-05
-2.672431e-05 -0.00012400483 -9.7043754e-05 -0.00015095572 -8.2693216e-05 4.035187e-05 -0.00018739288 2.1256184e-05
-0.00012556561 -3.085394e-05 -0.00015517749 1.1593666e-05 3.7685382e-05 -0.00012406766 -9.0164365e-05 -0.000113794216
-1.535494e-05 -0.00013353166 -0.00015845116 3.196769e-05 -3.0325733e-05 -0.00010898428 -0.00016534989 5.233271e-05
-0.00013400715 -4.33165e-05 -2.2703789e-05 -2.3487219e-05 -7.004281e-05 -5.6626002e-05 -0.00014018481 -0.00010320689
9.359357e-05 0.0024185479 -0.00021849766 0.00022228705 -5.225984e-05 -5.730919e-05 0.00019423195 -0.00045929675
3.4640034e-05 2.7986664e-05 0.0002908904 -8.347234e-05 0.00012298579 0.00016183058 3.0828014e-05 -0.00042142408
0.00012708794 -0.00020654946 0.00044907676 -0.0003139278 -3.4379147e-05 0.00018693252 8.2521256e-05 0.0001632631
-0.00041240104 6.083707e-05 -0.00012914458 -0.00036297136 0.00035974671 2.086923e-05 -0.0001234243 0.00025940113
-0.00011980368 1.861308e-05 4.8186022e-05 -5.2775085e-05 9.203678e-05 -0.00012723543 -0.0021927098 0.00038228568
-0.00021141821 -2.4933117e-05 9.256476e-05 -0.00021265847 0.0002852709 -0.00010952058 0.0001798702 -0.00011712138
-8.718097e-05 -3.224212e-05 -4.400186e-05 4.5547593e-05 0.00026919553 1.9429343e-05 0.000678675 -0.00062649377
0.00023799037 -5.1672516e-05 -0.00010423761 -0.00016174802 3.0122485e-05 0.00042635718 -5.6232497e-05 0.0001586737
0.00037269836 -0.00025504135 0.00013829413 -1.7452008e-05 -0.00011438293 0.00018831369 0.00020787002 -1.6144713e-05
-0.00014153992 -2.8403116e-05 0.00055563176 0.006317749 -0.000118740834 -0.0001779064 0.00034556244 0.00015545075
0.00018127794 -1.0336049e-06 5.462297e-05 -7.0590736e-06 0.00015783568 0.0001569681 0.00014253879 0.0002774926
0.00030043707 -0.0005161025 0.00028240302 0.00025305783 -0.0002326348 -2.0197243e-05 0.00020414019 0.0001205193
0.00016738089 0.00033434265 -0.00038567418 8.831665e-05 -3.0312682e-05 -0.00023562407 8.69237e-05 0.00016140295
0.00019166344 0.00017758472 -0.00016790739 0.00025157895 0.00012966979 -8.975427e-06 0.00035008576 -0.0002323427
-0.0018636661 -0.00012272417 0.0003129868 9.01602e-05 0.00014514607 9.476561e-05 0.00013337993 0.0003727333
-0.00016563745 8.509311e-05 5.2890056e-05 0.00028407865 -6e-45 8.5025924e-05 5.6464258e-05 0.00026353291
0.00016787022 0.00038577017 -0.00011006213 -1.800931e-05 0.00019326905 -0.00014092037 1.1644481e-05 0.00013276342
0.00042208133 5.727866e-05 3.2017015e-05 0.00034769805 -8.295722e-05 0.00012881114 6.0437378e-05 6.616003e-06
0.00016044508 0.00010716637 0.00015134145 6.6858156e-05 -0.00029823516 0.0003664125 0.00026696833 3.1827265e-05
0.00022975456 0.00023052313 0.00010218194 0.00045549605 0.00011936288 0.00012521479 5.8999518e-05 0.00017271347
4.100076e-05 0.0003643499 -1.6251637e-05 0.00036997415 0.00022907434 0.00059703435 -0.00012915999 0.00035785322
-6.665444e-05 0.00020923509 4.6707857e-05 0.00035509304 0.00042839392 -7.112157e-05 0.0003605418 0.00044973247
6.351174e-05 0.00025174938 -5.9203344e-06 0.000121927915 0.00031104602 0.00033098232 6.793685e-05 4.9108035e-05

exp_avg_sq f4 [64, 37]
00000000: 7b3b 4d3a 0932 db3a 37c0 773a 1a44 e739
00000010: 3a72 6b3a 6dcb ae3a 839e 613a fe98 bb3a
00000020: a434 af39 c1c2 263a d286 5e3a 57b8 893a
00000030: 4682 c33a cf72 043a b039 aa3a 85f6 433a
00000040: fccc bc3a e3c0 833a e5d5 303a df04 5f3a
00000050: 48a3 273a d123 843a 65e9 853a d043 9a3a
00000060: e9f5 2d3a acf8 653a e274 983a a2c7 c23a
00000070: 43a3 bb39 3438 843a 926e c13a 37cf 773a
00000080: a604 833a ef90 cd39 1a0a 613a bc0a 813b
00000090: 2c61 b43d 514d 3e3a 5d79 c53a 9f29 623a
000000a0: dafc d339 847f 523a 83c7 a13a 81d6 513a
000000b0: 5191 a53a a92a a239 b4d7 1b3a e6ce 4e3a
000000c0: 34c7 7b3a ece8 ad3a b5ae f839 173c 983a
000000d0: 9e2b 373a e5c0 ab3a 3285 6e3a 2b4a 213a
000000e0: 0486 4d3a 0960 1b3a 3f6c 753a cf20 733a
000000f0: d28f 8c3a 296e 1e3a c4ff 4f3a 599e 8e3a
00000100: 0f62 b23a 1ac3 ac39 7d76 743a 78be ac3a
00000110: 3c90 683a ef2d 703a c5a7 c139 c88e 4b3a
00000120: ae86 713b 1e8e a63d e2b4 533a af84 de3a
00000130: 46aa 7c3a a8a6 e739 3239 733a 50fc b13a
00000140: a5c1 693a 8596 b73a bf53 b739 1d3e 2e3a
00000150: 0d67 5c3a 32ce 8b3a 1cee c23a 539a 183a
00000160: ebde a53a 7d43 4b3a 576f c33a ed75 833a
00000170: 15b0 2e3a 1666 633a cb3e 2c3a 3095 873a
00000180: 4a81 8a3a c6f4 9a3a cf3c 303a 88f2 693a
00000190: 0d40 a13a f6d8 c53a d706 c039 b1e5 833a
000001a0: 9bf6 c53a c8b1 813a 05f4 833a b204 db39
000001b0: 368e 643a 135e 883b 21cf b83d 9a3c 943a
000001c0: 7cc1 1e3b 2800 af3a 2d10 1c3a 04eb a93a
000001d0: 73f1 f83a 85b0 a33a aad8 ff3a 6066 013a
000001e0: 4115 733a 4a69 9f3a 7cdb c03a eb2f 093b
000001f0: 0895 4b3a ffef eb3a eeda 8e3a 7a51 063b
00000200: 7488 b93a 1904 783a 7f72 9f3a 8363 753a
00000210: b704 be3a 21b4 c13a 8eed db3a 6b3e 773a
00000220: 6239 a33a d2e3 dc3a c9e3 0b3b 7d63 083a
00000230: c941 bb3a a02d 083b 39ac b43a 0d4f bb3a
00000240: 1fc1 1b3a 8bc7 a13a d2e8 ba3b 3113 013e
00000250: 19d0 823a 0b28 093b 8a30 993a fea6 0a3a
00000260: fb13 963a 9d94 d83a 5f37 8e3a a4c2 dc3a
00000270: a375 e139 25ee 533a 5501 893a 5452 a73a
00000280: af01 f03a 5b1d 313a 8732 ca3a 6813 7b3a
00000290: 44af ef3a b038 9e3a 8aa5 503a 3d85 8e3a
000002a0: bb2a 513a c248 a73a 6f9e a23a f4f9 bc3a
000002b0: 6195 543a 274d 8e3a ad5c c33a 6856 f03a
000002c0: e399 eb39 e0a8 a33a 9214 ea3a 8be5 9b3a
000002d0: 7613 a23a 4238 053a b5ce 8b3a 2420 a33b
000002e0: 2421 e13d 92b9 fa38 f96d 7939 7e8c 1039
000002f0: 4d50 4b38 64e4 fd38 c122 7139 4ef7 cb38
00000300: 3fcf 2e39 6c31 2938 3d7b a238 7189 3439
00000310: c08c 8b38 d1a7 8039 127f 4438 9393 4a39
00000320: 0fda f138 d69a 3a39 ed9a 0c39 7cbc e338
00000330: 8508 e038 e2c7 b638 27fc 9e38 475e 3639
00000340: 1ada 5539 e918 9d38 5745 0539 5a37 e538
00000350: 3bbf 8739 eb4d 2838 d88f 1139 213b 6339
00000360: 537e ca38 ad4c 2e39 0bcf 6538 ba58 f538
00000370: dd01 183a 6057 643c 701f 4b3a ec97 dc3a
00000380: ed81 743a 6439 df39 c214 6f3a 9128 ab3a
00000390: e4e4 603a 845e b63a 5c9a ae39 1eb1 283a
000003a0: 59ab 583a c556 883a 659e c13a 0bab 0a3a
000003b0: fa50 a63a 5ee5 423a a617 be3a 75f1 7a3a
000003c0: 9128 2b3a b27d 5e3a 06b3 283a fa97 863a
000003d0: 8c39 823a c5a8 9c3a f6d7 293a e59a 633a
000003e0: 1d35 9a3a ac88 be3a a5c3 b839 9cdb 813a
000003f0: c397 bd3a 6c96 7d3a 58be 833a d72a ce39
0.00078289927 0.0016723286 0.00094509445 0.00044110493 0.00089815597 0.0013335772 0.0008606689 0.0014312563
0.0003341782 0.0006361418 0.0008488718 0.0010507208 0.0014916144 0.0005052508 0.0012987163 0.0007475394
0.0014404352 0.0010051992 0.000674574 0.0008507501 0.0006394875 0.0010081475 0.0010216652 0.0011769477
0.000663607 0.0008772712 0.0011631513 0.0014860521 0.0003578906 0.0010087551 0.0014757684 0.00094531797
0.0009995892 0.0003920863 0.0008584574 0.003938047 0.088075966 0.0007259446 0.0015066076 0.0008627418
0.00040433445 0.00080298656 0.0012342784 0.0008004681 0.0012631809 0.00030930832 0.0005944923 0.00078891066
0.0009604574 0.0013268269 0.00047432413 0.0011614588 0.00069873955 0.0013103752 0.0009098827 0.00061527145
0.0007840099 0.0005927091 0.0009362138 0.0009274603 0.0010724014 0.0006043637 0.00079345354 0.0010880932
0.0013609546 0.00032951758 0.00093255175 0.0013179323 0.000887159 0.0009162118 0.00036936827 0.00077651115
0.0036853957 0.081325755 0.0008075965 0.0016976799 0.000963841 0.00044183922 0.0009278237 0.0013579223
0.00089171 0.001400665 0.00034966876 0.0006646829 0.000840769 0.0010666309 0.0014871988 0.0005821336
0.0012654936 0.0007753892 0.0014910501 0.0010029651 0.00066638115 0.0008674575 0.0006570636 0.0010344144
0.0010567096 0.0011822216 0.00067229284 0.00089243846 0.0012302414 0.0015094567 0.0003662619 0.001006296
0.0015103401 0.0009894902 0.001006723 0.00041774433 0.0008718701 0.004161605 0.09023882 0.0011309565
0.0024224212 0.0013351487 0.0005953338 0.0012963717 0.0018992856 0.001248852 0.0019519527 0.00049362145
0.00092728814 0.0012162116 0.0014713849 0.0020933102 0.0007766043 0.0018000602 0.0010898986 0.002049534
0.0014155046 0.000946106 0.001216486 0.00093608367 0.0014497255 0.0014778414 0.0016779171 0.0009431603
0.0012453014 0.0016852564 0.0021345487 0.0005202813 0.0014286573 0.0020779148 0.0013784237 0.0014290527
0.0005941558 0.0012342794 0.005704024 0.12604977 0.0009980231 0.0020928408 0.0011687439 0.0005289166
0.0011450046 0.0016523782 0.0010850242 0.0016842675 0.0004300299 0.00080844975 0.0010452667 0.0012765625
0.0018311049 0.00067563885 0.0015426435 0.0009577782 0.0018286486 0.0012071338 0.00079592376 0.0010873448
0.00079790846 0.0012762772 0.0012406836 0.0014417754 0.00081094174 0.0010856733 0.0014904939 0.0018336298
0.00044937347 0.0012486242 0.0017858914 0.0011893971 0.0012365419 0.00050819304 0.0010666462 0.0049781967
0.10992649 0.00011955494 0.00023787458 0.00013785248 4.8473757e-05 0.00012106521 0.00022996498 9.7258584e-05
0.00016671138 4.0338768e-05 7.747717e-05 0.00017217339 6.654253e-05 0.00024539095 4.6848385e-05 0.00019319197
0.00011532392 0.00017796023 0.00013409155 0.000108593114 0.00010682739 8.715667e-05 7.580994e-05 0.00017391994
0.00020394512 7.490983e-05 0.000127097 0.00010929881 0.00025891684 4.0126888e-05 0.00013881864 0.00021670434
9.65564e-05 0.00016622497 5.479068e-05 0.00011699037 0.00057986175 0.013936847 0.000774852 0.0016829944
0.0009327222 0.00042576634 0.00091202196 0.0013058354 0.0008579029 0.0013913666 0.00033302873 0.0006435084
0.0008265279 0.0010401836 0.0014771937 0.00052897696 0.0012688928 0.0007434691 0.0014502897 0.0009572723
0.0006529177 0.0008487358 0.0006435368 0.0010268681 0.0009935363 0.0011952153 0.0006479019 0.0008682444
0.0011765097 0.0014536581 0.0003524098 0.0009907368 0.0014464784 0.00096735987 0.0010051234 0.000393233

exp_avg f4 [64]
00000000: 0d69 07b9 e438 98b9 0ad6 ddb8 a015 7a39
00000010: 144b 5639 e41e df39 8bfc 463a d97b d4b9
00000020: a916 5a3a 6ec5 ad39 b4e9 9f39 a9a7 6339
00000030: bb14 c339 d6a6 1d3a 39ad be39 550d 08b9
00000040: d97e 1239 258e 80b9 ea5a e339 853d 39b7
00000050: 18f2 c7b7 7f49 083a dc8e 023a 431c 8cb8
00000060: ddb2 6139 2f1e b7b9 d26e 7639 8077 433a
00000070: ba7e b2b7 c4f0 6739 0400 0000 35c6 dab9
00000080: e057 e239 e052 533a dd7e 5637 7522 04b8
00000090: 8fa9 6b38 e1f9 8d39 1c50 2734 f1a0 7039
000000a0: e318 2f39 43f4 5738 e057 043a 9d04 53b9
000000b0: 3fe0 c9b8 8206 ba39 fc0c 2c39 78d6 4a3a
000000c0: c6f9 93b9 77fb bb39 6d66 3839 3233 883a
000000d0: 592d 0c3a 5376 a8b9 cf86 30ba eb99 4e3a
000000e0: 3f64 b439 0a72 d1b9 d5cb a038 63b2 8238
000000f0: 6046 da39 55d9 0d3a 9141 263a db99 e039
-0.00012913738 -0.00029034086 -0.00010577969 0.00023849914 0.00020436599 0.0004255689 0.00075907324 -0.00040528065
0.00083194167 0.00033144228 0.00030500966 0.00021710865 0.00037208744 0.0006013935 0.00036368685 -0.00012974937
0.000139709 -0.00024519968 0.0004336455 -1.1041183e-05 -2.3835382e-05 0.000519894 0.0004980394 -6.6809844e-05
0.00021524304 -0.00034926969 0.00023501672 0.00074564666 -2.1278265e-05 0.00022119569 6e-45 -0.00041727876
0.0004317155 0.00080613606 1.2784932e-05 -3.1503343e-05 5.618628e-05 0.0002707979 1.558223e-07 0.00022948139
0.00016698572 5.148748e-05 0.0005048495 -0.00020124247 -9.626196e-05 0.00035481533 0.00016408035 0.0007737647
-0.0002822412 0.00035854775 0.00017585764 0.0010391234 0.00053473335 -0.00032131615 -0.0006733955 0.0007881212
0.00034406965 -0.00039948552 7.667361e-05 6.23211e-05 0.00041632634 0.0005411108 0.00063421676 0.0004283924

exp_avg_sq f4 [64]
00000000: 0be4 893b 203f 7d3b a775 8d3b 8884 c53b
00000010: f006 ad3b e4d1 143a 3fd0 883b a4d1 853b
00000020: 2f3d 8c3b 2b72 9e3b fb1a 7c3b 71ad aa3b
00000030: 6ed7 9e3b 54e4 c23b 5953 9d3b fb62 573b
00000040: 2fd4 7e3b a873 bc3b af72 8d3b 07e9 843b
00000050: 0acd 693b f866 993b 5f24 a83b 4a90 673b
00000060: 12d0 823b 86c6 bf3b ede3 a93b e9cd 003c
00000070: e4c5 a43b 1320 b03b a1fb d72e 1825 523b
00000080: ae13 863b cf67 7a3b c5ff 903b edda 723b
00000090: 7f1c 613b f905 a03b 7acb c13b 8ecc 853b
000000a0: da2c 8f3b c085 b73b b5e2 233b 5be8 9a3b
000000b0: b3d5 923b 3772 913b 3b6a 523b ff2a 4f3b
000000c0: 04ec 913b 6118 913b b618 9e3b 9e2f 373b
000000d0: d78c 663b d688 023c ef6b c03b 6b36 893b
000000e0: f970 673b 9587 983b caf9 8a3b f97f 5e3b
000000f0: d6b7 9e3b 4f38 f63b ac9b 853b b8dd 863b
0.004208093 0.0038642362 0.004317004 0.006027762 0.005280368 0.0005677028 0.0041752155 0.004083829
0.0042797546 0.004835387 0.003846823 0.005208664 0.0048474586 0.005947629 0.0048011956 0.0032865393
0.0038883795 0.005751092 0.00431665 0.0040560993 0.0035675191 0.0046814643 0.005131289 0.0035333806
0.003992089 0.0058525233 0.0051846416 0.007861593 0.005028473 0.0053749173 9.821766e-11 0.0032065567
0.0040917015 0.0038208847 0.0044250214 0.003705676 0.003434926 0.0048835245 0.005914149 0.0040832227
0.0043693604 0.005600661 0.0025006954 0.004727406 0.0044810413 0.0044386643 0.0032106775 0.003161132
0.004453184 0.004427955 0.004824723 0.0027951966 0.0035179162 0.007967195 0.0058722417 0.0041873953
0.003531514 0.0046548345 0.004241203 0.003395079 0.0048436923 0.0075140367 0.0040773954 0.0041157864

exp_avg f4 [64, 64]
00000000: 0400 0000 0400 0000 0400 0000 0400 0000
00000010: 0400 0000 0400 0000 0400 0000 0400 0000
00000020: 0400 0000 0400 0000 0400 0000 0400 0000
00000030: 0400 0000 0400 0000 0400 0000 0400 0000
00000040: 0400 0000 0400 0000 0400 0000 0400 0000
00000050: 0400 0000 0400 0000 0400 0000 0000 0000
00000060: 0400 0000 0400 0000 0400 0000 0400 0000
00000070: 0400 0000 0400 0000 0400 0000 0400 0000
00000080: 0400 0000 0400 0000 0400 0000 0400 0000
00000090: 0400 0000 0400 0000 0400 0000 0400 0000
000000a0: 0400 0000 0400 0000 0400 0080 0400 0000
000000b0: 0400 0000 0400 0000 0400 0000 0400 0000
000000c0: 0400 0000 0400 0000 0400 0000 0400 0000
000000d0: 0400 0000 0400 0000 0400 0000 0400 0000
000000e0: 0400 0000 0400 0000 0400 0000 0400 0000
000000f0: 0400 0000 0400 0000 0400 0000 0400 0000
00000100: 6d95 de3a dd38 c53a 04e9 d53a 0377 263a
00000110: 8c6b 2038 3fb8 0d39 2ced e03a 2203 0d3a
00000120: a76a 6fb9 e78e 86ba 8292 bab9 ff4a 143b
00000130: 9fe9 7e3a 731b 1b3b 829b 41b9 b814 513a
00000140: c3f3 323a 5b55 903a 6fe2 973a e2b3 0e3a
00000150: 2ff4 b039 e8a4 0a3a d7ae be3a 56ab 6f3a
00000160: 8940 a03a 391c 203a 7eba ce3a abda bf3a
00000170: a2a0 d43a b8b0 183a 0400 0000 6892 9f3a
00000180: 0da3 e13a 8d66 b437 721d 043b 7883 b73a
00000190: 0bca c939 353d 7d39 253a 5a3a 4bc2 e239
000001a0: ad5e 1bba 0a88 88b9 d1cd 363a 21fa c63a
000001b0: cc6c 433a 4041 2f3a 0d0a 93b9 2b2b 0539
000001c0: 8744 743a 188e 5fb9 9aff cd3a 3f82 e039
000001d0: 5769 063b 74dc 563a 212a a83a 2de2 60ba
000001e0: add3 57ba 91d6 1b39 0265 fc3a 1dd3 053a
000001f0: fe62 663a 02f0 4d3a 22e4 7e3a caa8 9c3a
00000200: e7f2 c73a 5f30 333b b691 7f39 6c6c 0139
00000210: 1cc1 ef39 eacc c439 dc91 b2b9 d41a 21bb
00000220: 6bcb 3cba b983 4abb 18f2 c8ba ebd9 3b3b
00000230: e6ca aeb8 c974 b83a 98f9 06ba edcd 20ba
00000240: 9c4f 92ba 69ff 0d3a da3a 0cb9 cb06 a7b9
00000250: fc27 66b9 aefb 3e38 09c1 b139 1f81 75ba
00000260: 1402 703b de14 31ba 9356 90b9 ee96 f63a
00000270: c296 bf3a edb5 a639 0400 0080 58c7 003a
00000280: 012e 9739 d27d 11bb ed53 5939 654b 33ba
00000290: 333f 96b9 6234 153a b55f 9e39 f068 0039
000002a0: 45db 0cbb e799 cbb7 f569 28ba 9d64 783a
000002b0: 08f9 db39 8b96 a8ba e895 08ba 7f8f 2fb8
000002c0: 3289 8fb8 670e 1fba 6972 713a 58e4 7e3a
000002d0: 17c8 183b 2f00 6e3a df9c ed3a 7641 66bb
000002e0: 6b7f a1b9 8d44 9bba 6796 0a3b 9d41 f1ba
000002f0: bd3c 6039 46b6 933a 05c8 e039 442f 8839
00000300: 1834 b43a f08d d43a 7c18 873a cf4c 293a
00000310: 8686 2c3a 5e0e 3f39 b9cc 813a a7a8 45b8
00000320: b5ba e2b9 db16 a2ba 81c1 59ba b339 313b
00000330: b3d1 243a bb01 923a a041 6f39 8b26 d5b9
00000340: c7bf e4b8 5f72 763a 3b71 e639 7eb2 cfb9
00000350: 3aa3 b3b7 ad32 3ab9 6c1b 783a 551f 15ba
00000360: 36de ba3a c58c 3eb9 891d 493a a5ee a63a
00000370: 1410 d73a a41d fa38 0400 0000 1dbe 093a
00000380: af06 673a 02cc be35 289d 803a d660 fb37
00000390: 2dfa 84b9 2ced b939 298f 193a d27b 35ba
000003a0: 9fd9 8cba b988 8aba 4956 cd39 07ae 9c3a
000003b0: 39f4 6c3a e7a4 bd39 311d 7fba e4fc 34b9
000003c0: 068d 6f3a e44a 02ba f658 1e3a c5de e339
000003d0: 819f 4b3b 1152 813a 120d 8b3a 8d53 8cba
000003e0: 5958 5fba d2c6 05b9 02a3 fa3a d844 9f38
000003f0: 79b2 2b3a c291 623a fb3a 343a 918e 4b3a
6e-45 6e-45 6e-45 6e-45 6e-45 6e-45 6e-45 6e-45
6e-45 6e-45 6e-45 6e-45 6e-45 6e-45 6e-45 6e-45
6e-45 6e-45 6e-45 6e-45 6e-45 6e-45 6e-45 0.0
6e-45 6e-45 6e-45 6e-45 6e-45 6e-45 6e-45 6e-45
6e-45 6e-45 6e-45 6e-45 6e-45 6e-45 6e-45 6e-45
6e-45 6e-45 -6e-45 6e-45 6e-45 6e-45 6e-45 6e-45
6e-45 6e-45 6e-45 6e-45 6e-45 6e-45 6e-45 6e-45
6e-45 6e-45 6e-45 6e-45 6e-45 6e-45 6e-45 6e-45
0.0016981788 0.0015046854 0.0016320054 0.00063501316 3.8247133e-05 0.00013515445 0.0017160526 0.000537919
-0.00022832547 -0.0010265977 -0.0003558584 0.002262771 0.00097241433 0.0023667484 -0.00018463845 0.00079758046
0.00068264845 0.0011011766 0.0011587868 0.0005443675 0.00033751267 0.0005288855 0.0014547956 0.00091426575
0.0012226264 0.0006107721 0.0015772132 0.0014637312 0.0016222189 0.0005824673 6e-45 0.001217437
0.0017214731 2.1505426e-05 0.0020159152 0.0014000973 0.0003848824 0.00024150762 0.0008324704 0.0004325084
-0.00059268886 -0.00026041298 0.0006973418 0.0015180745 0.00074548717 0.0006685443 -0.00028045513 0.0001269995
0.00093180727 -0.00021319871 0.0015716434 0.0004282165 0.0020509565 0.0008196302 0.0012829938 -0.00085786247
-0.0008233141 0.00014861884 0.0019256177 0.00051050057 0.00087885547 0.00078558933 0.00097233255 0.0011952159
0.0015254886 0.0027342064 0.00024372977 0.00012342789 0.0004572951 0.00037536706 -0.0003405948 -0.0024582641
-0.00072019425 -0.0030901267 -0.0015330939 0.0028663825 -8.334759e-05 0.0014072891 -0.00051488867 -0.0006134201
-0.0011162641 0.0005416782 -0.00013373364 -0.00031857783 -0.00021949405 4.5533925e-05 0.00033903893 -0.0009365249
0.0036622332 -0.00067551236 -0.00027530323 0.0018813291 0.0014617073 0.00031797533 -6e-45 0.0004912517
0.0002883524 -0.002220024 0.00020725997 -0.0006839543 -0.00028657317 0.00056917046 0.00030207416 0.00012246124
-0.0021493 -2.4271152e-05 -0.000642448 0.0009475442 0.00041956478 -0.0012862248 -0.0005210326 -4.1856892e-05
-6.844326e-05 -0.0006067515 0.0009210469 0.0009723357 0.0023312622 0.0009079007 0.0018128416 -0.0035134233
-0.00030803247 -0.0011845991 0.0021146776 -0.0018406395 0.00021384931 0.0011269532 0.00042873636 0.00025975157
0.0013748435 0.0016216617 0.001030698 0.0006458284 0.0006581325 0.00018220532 0.0009902931 -4.712553e-05
-0.00043245187 -0.0012366431 -0.00083067274 0.0027042448 0.0006287351 0.0011139432 0.00022817263 -0.00040655243
-0.000109076085 0.0009401198 0.00043953382 -0.00039615104 -2.1414471e-05 -0.0001775722 0.00094645354 -0.0005688568
0.0014256898 -0.00018172253 0.00076719426 0.0012735917 0.001640799 0.0001192645 6e-45 0.00052544643
0.00088129466 1.4215477e-06 0.0009812461 2.9966624e-05 -0.00025363397 0.00035462657 0.00058578193 -0.0006923053
-0.0010746008 -0.0010569311 0.00039164934 0.001195372 0.00090390776 0.0003617175 -0.0009731828 -0.00017260347
0.00091381406 -0.0004970266 0.0006040478 0.0004346279 0.0031070414 0.0009866377 0.0010608754 -0.0010706052
-0.000851994 -0.00012757935 0.0019122066 7.594534e-05 0.0006549727 0.00086429354 0.0006875244 0.00077650795
