p1_navigation/DQN20190128_v16.pth (torch_old, 87853 bytes, 18 tensors)

hidden_layers.0.weight f4 [64, 37]
00000000: e131 be3e 0a4a c03e da39 653e 3b6b 8a3e
00000010: 86ce 5dbd 4db2 c13e c09b 903e c382 f43e
00000020: b96b c23e aeb3 3d3d 8b22 923e d1db 8c3e
00000030: 50a7 3d3e 0514 a23e ce09 52b9 15cb b83e
00000040: a174 a83e 9fda cc3e e5db 803e e0fa 7fbd
00000050: 8328 ce3e 496d e53e 2f53 983e 6c0b f43e
00000060: 8c98 d13c 5a0d b53e 4158 d43e 745f f73d
00000070: 51d5 9b3e cc08 843b 9c45 8e3e 9dde e23e
00000080: 729a 583e 778e ac3e e68a ccbd 1c16 3dbe
00000090: 7276 c0bd 806f eb3e 5ae6 bf3e e345 bc3e
000000a0: e75e b43e bee3 c1bd 3859 9b3e 2de9 1b3e
000000b0: 349e 513e 805a 733e 2f49 e03d 114e cf3e
000000c0: 8d9f 3d3e 2e9b 953e 2232 023f 40d3 383e
000000d0: 9669 ba3e 2035 963e 4438 c73e 65c9 813e
000000e0: e441 f33b 8222 1e3e 578f 3b3e 8130 783e
000000f0: 800d d93e 3f7f 9d3d 1c16 473e 4e77 a93e
00000100: 1fa4 b43e 96fd 9f3e 2f97 873c 6395 9d3e
00000110: 769d d53e 965d ef3e c872 733e 6a4c 6fbd
00000120: 4a5f c33c 5946 be3d 8259 fa3e f073 cf3e
00000130: e296 a83e ccda 103e 4c0c 97bc 7f38 3f3e
00000140: 7927 a93d 2d8b de3e 15df f73e 79c1 40be
00000150: b9fc b43e 1a77 613e 966e a03e b6e9 8d3e
00000160: 600c a43d 8b26 543e b616 963e 6773 ac3e
00000170: 08d9 ed3e be42 d93c 33ff 253e 908e 263e
00000180: 4986 de3e b33d 9f3e d809 84bd 5b59 423e
00000190: 9944 c33e 04ff bb3e 926e 933e 12e5 dcbc
000001a0: c827 0e3e 94ad 863e 62aa 433e 70a0 203e
000001b0: 0d81 833c a4f4 283d 420e 4abd b841 b93e
000001c0: cf33 343e 22ea df3e 965e e03e bca6 3bbe
000001d0: 2ef8 633e c3fd 803e 234e 8c3e aa12 b93e
000001e0: 28b0 17bc 6577 853e 8c2a 2c3e 20e3 ac3e
000001f0: 3029 3b3e 43f4 d1bd 6639 673e c78b 1e3e
00000200: c910 443e cc9c 283e 04ed b5bd 045d 853e
00000210: 6ded 2d3e d04c 903e bd0a e53e 56a5 47bd
00000220: 934e 6f3e 215a 4b3e 82cf 923e 506d df3e
00000230: d042 063e 03fe af3e 218c d43e 92a4 8b3e
00000240: 06ff 1f3e 514b ffbd 6141 103e 18d8 84bc
00000250: 7a1d 543e 04ec 203e c3aa 1f3e fbde 5e3e
00000260: 30c3 8fbd 0e54 c23e 2273 af3e 79f6 c83d
00000270: 9126 cf3e 9534 34be 7e99 8a3e 9b64 503e
00000280: 3dee 803e 94e4 9d3e 8b28 efbd 21f2 143e
00000290: 0350 5b3e 4ba6 823e 1e38 893e 4b80 883c
000002a0: 857f 113e bd12 7b3e 5729 e23e 31f3 823e
000002b0: ce62 d53d 747c ab3e 3f2a c93d 0c80 bc3e
000002c0: 2c23 8f3e 80d4 8abd b89c c33e 01ad 153e
000002d0: 965d 903e 3e31 973e 3d36 be3d d3db 813c
000002e0: 59e8 8f3d 379b 913e c262 cebd bb34 8d3d
000002f0: 1bf4 9e3c 9176 1abe bd51 12bc 7835 9bbd
00000300: eab4 a03e 34fe a03d 5e94 913c 736c 94bc
00000310: e392 d1be e2bb 063e 4e8c 9f3e cf54 cabd
00000320: e869 f3bd 6de1 56bd 9925 673e c033 113c
00000330: 998e 67be 3929 b03e 733f c3bd a52e 353d
00000340: 131b c23e a37d b83d 021b 26be 4992 f4bc
00000350: c28f cebb b514 bc3e e1cb 78be 415f 113d
00000360: cf8e 00be 962b 0bbd 9b05 b13e e2bf 12be
00000370: 92f7 dc3d d3ee da3d d737 c23e a2b1 a23e
00000380: 7ab0 593e 5ca7 ef3e 8264 f2bd a6ac 8a3e
00000390: a6da 6f3e a224 a93e a5c4 b23e 7bd7 093e
000003a0: a8f4 bc3e e332 db3e e701 db3e 9688 8c3e
000003b0: 37a7 ca3d 708a 523e d605 583e d39e b53e
000003c0: e952 c23e 7645 e93d f3fa 8f3e 2452 9b3e
000003d0: 4054 cf3e 20e4 6c3e 298a 093e 98cb 383e
000003e0: a546 893e 7b0a 7d3e c5ed 8d3e 3997 893d
000003f0: 1bdd de3e 8c71 893e 27f8 783e 0a22 9d3e
0.3714743 0.37556487 0.2238535 0.27034935 -0.054152034 0.37831345 0.28243828 0.47756013
0.3797281 0.046313934 0.2854198 0.27511457 0.18520856 0.316559 -0.00020030813 0.3609244
0.3290148 0.40010545 0.25167766 -0.062495112 0.40265283 0.4480994 0.29750964 0.47664964
0.025585435 0.3536175 0.41473582 0.12078753 0.30436185 0.004029369 0.27787483 0.44310465
0.21152666 0.33702442 -0.0998743 -0.18465465 -0.09397592 0.45983505 0.37480432 0.3677207
0.35228655 -0.094672665 0.30341506 0.15225668 0.20470506 0.23764992 0.10951459 0.40489247
0.18517895 0.29219955 0.50857747 0.18049335 0.3640868 0.29337406 0.38910115 0.25348964
0.0074236263 0.15442851 0.18316399 0.24237253 0.42393112 0.07690286 0.19442028 0.33098835
0.35281464 0.31248158 0.016551582 0.30778036 0.41721696 0.46751088 0.23774254 -0.058422484
0.023849148 0.092907615 0.48896414 0.4051814 0.32927614 0.14145964 -0.01843848 0.18673895
0.08259482 0.43465558 0.48412386 -0.18823804 0.35349062 0.2201809 0.3133437 0.2771737
0.08010173 0.20717828 0.29314202 0.33681795 0.46454644 0.026521083 0.16210632 0.16265321
0.43461826 0.3110176 -0.0644719 0.18979399 0.38138273 0.36718 0.28795296 -0.026964698
0.13882363 0.26304305 0.19107965 0.15686202 0.016052747 0.041248932 -0.049330004 0.36182952
0.17597888 0.43733317 0.43822163 -0.18325323 0.22262642 0.25193605 0.27403364 0.36147052
-0.0092583075 0.26067653 0.16813105 0.33767033 0.1827743 -0.10251667 0.2258049 0.15483008
0.19147028 0.16466063 -0.08883098 0.26047528 0.16985102 0.28183603 0.44734755 -0.04874166
0.23369817 0.198586 0.2867394 0.43638086 0.13111424 0.34373483 0.4151316 0.27273995
0.15624627 -0.12465537 0.1408744 -0.016216323 0.2071437 0.15715033 0.15592484 0.21764748
-0.07019651 0.37954754 0.34267527 0.09812636 0.4045911 -0.17598183 0.2707023 0.20350878
0.2518176 0.30838454 -0.11677655 0.1454549 0.21417241 0.25517496 0.26800627 0.016662737
0.14208801 0.24518867 0.44172165 0.25576165 0.10419236 0.33493388 0.09822511 0.36816442
0.27956522 -0.067788124 0.38205504 0.14616777 0.281964 0.29529756 0.09287689 0.01585189
0.07026739 0.28438732 -0.1007743 0.06894823 0.019403508 -0.15084292 -0.008930621 -0.07578558
0.31388026 0.078609854 0.017770942 -0.018118119 -0.40932378 0.13157609 0.3116173 -0.09879457
-0.118854344 -0.052461077 0.22572936 0.008862436 -0.2261299 0.3440645 -0.09533586 0.044233937
0.3791128 0.09008338 -0.1622124 -0.02985491 -0.0063037584 0.36734548 -0.24296524 0.03549123
-0.12554477 -0.033977114 0.3457459 -0.1433101 0.10789408 0.10690083 0.37933227 0.31776148
0.21258727 0.46807373 -0.118355766 0.27084845 0.23423252 0.3303576 0.34915653 0.13461106
0.36905408 0.4281226 0.4277489 0.27447957 0.09895175 0.20560622 0.21095976 0.35472736
0.3795388 0.11390202 0.28121147 0.30336106 0.40493965 0.23133898 0.1343161 0.18046415
0.2681171 0.24711029 0.27720466 0.067182966 0.43528065 0.26844442 0.24313413 0.30690032

hidden_layers.0.bias f4 [64]
00000000: 91bc fa3e e683 933e 9d66 203e fbf2 443e
00000010: 2914 da3e 2218 713e 0e78 813e 6afc bf3e
00000020: e1e3 c43e 770d 083e 4728 e23e e837 d23e
00000030: 7c56 f83e ab05 c43e e7e5 7c3e 3bf2 8d3e
00000040: a238 c53e fdb3 963e 3fe1 b13e 6df2 433e
00000050: 28a1 8f3e fd39 aa3e 561b 873e dd88 8d3e
00000060: 4900 163e e98f c63e aadb 703e 28c9 c33d
00000070: 4c44 ed3e b4ea bc3e 5962 5f3e 6912 7b3e
00000080: 6f52 023f 058e b73e 32dc 563e 8919 e33e
00000090: e3af 8e3e 3905 933e bcf5 563e f3fd 4e3e
000000a0: 2e6d 463e f383 803e 337d 633e 7243 fb3e
000000b0: a344 893e bdfe 813e 0035 db3e 2438 053e
000000c0: 28ef 723e b88b b63e 1df5 033e b939 693e
000000d0: d5f3 ae3e 7dc0 7dbd c041 cc3d 85cd be3e
000000e0: 007e ca3e a08b 8a3e 6b43 413e 2cdc 723e
000000f0: c94e b03e d85d 4d3e adfe b63e e963 b13e
0.4897199 0.28811568 0.15664144 0.19233315 0.42593506 0.23544362 0.25286907 0.37497264
0.38455108 0.13286386 0.44171354 0.41058278 0.48503482 0.38285574 0.24697076 0.2772387
0.3851977 0.29434195 0.34742162 0.19135447 0.2805264 0.33247367 0.26388043 0.2764348
0.14648546 0.3878167 0.23521295 0.09559852 0.4634117 0.36897814 0.2181486 0.24518742
0.50907034 0.3585054 0.20982435 0.4435542 0.27868566 0.28714922 0.20992178 0.20214061
0.19377586 0.2510067 0.22215728 0.49074894 0.26810178 0.25389662 0.42813873 0.13009697
0.23724043 0.35653472 0.12886472 0.22775926 0.34170404 -0.06195115 0.09973478 0.37266174
0.39549255 0.2705965 0.18873374 0.23716801 0.34435108 0.2005533 0.35741177 0.34646538

hidden_layers.1.weight f4 [64, 64]
00000000: 785b 57bd a165 a33c 6b55 413d 261b 2abc
00000010: afa1 243d 4295 66bd 3f57 433d bc4c 8a3d
00000020: f418 283d cd30 1b3b 674f 303d 8fe8 e3bd
00000030: 3a8b 7cbd f8b0 8e3b bf6c e4bc 7921 b43d
00000040: c405 af3d b425 103d 92a0 6bbd f956 d6bd
00000050: fe02 05be dc6e 273d 1ce7 e0bd b374 ccbd
00000060: 6b03 14bd 95b3 f5bd 3ea8 e6bc c91a a2bd
00000070: c1dc 8fbd 0eba 013e e023 6bbd 077b c53d
00000080: 1a8b 6a3b 130c af3c 7c36 34bd 443a b3bd
00000090: 3bf2 a3bd 0573 8e3d 1503 e6bc 35a9 09be
000000a0: 0f35 d43d cd5d f4bc c341 9dbd a6e4 c8bd
000000b0: ace3 b1bd 311b bcbd ee1e d33d 98f3 723d
000000c0: 74d8 01bc 0397 b0bd 390a 35bd 42da dfbd
000000d0: 3218 9f3c 68da 4c3d c9e6 24bd 08ca 8cbd
000000e0: e3ad 3c3d 8509 793d c909 acbb 7674 e33a
000000f0: ce88 343a 7f7f 1c3c 9111 f0bd 2cd5 e83d
00000100: 1928 33bd cfdd 4a3d da81 63bd fe30 b33c
00000110: 5b84 0dbd 1961 7f3c 3b20 db3c 51cf ecbd
00000120: 41d6 83b9 52e5 1b3c 0c5f 173d 4171 913d
00000130: 6f93 2e3d ed37 ff3b 8530 8cbd 7923 4c3d
00000140: a8e5 02bd 575c c9bb 25eb 56bd 5d1e a63d
00000150: 8454 2a3d 5426 3d3d cfca ad3b d13b 013d
00000160: 3843 debd 9619 b13d c6c9 c3bc 9990 953d
00000170: 3948 c4bc 3ddb 47bc 0392 45bd b3e4 1c3d
00000180: 2e93 acbd 3a44 363c 195a 5f3d 8719 e33c
00000190: badb 9fbd 7967 c6bd 5fea 40bd d9a1 7b3d
000001a0: 2cae 9bbd a7d3 3b3d 523a 783d f2ff 59bd
000001b0: 25bf 05bd 7bb0 69bd 656e 56bb bced 223c
000001c0: b1a5 1dbd 37a1 3e3d b157 833d 5af3 f43d
000001d0: b701 88bc e528 963e 4126 ce3c 5ed6 d6bc
000001e0: 13e8 8e3c 705e 963d d010 37bd 60c7 0cbc
000001f0: 4196 92bd e1cf 21bd c947 31bd 0f8e e1bc
00000200: 2596 8bbd b104 6b3d 4059 37bc 7810 343d
00000210: c49e d73d e497 83bd e4a2 88bd a192 f8bc
00000220: 17b5 98bc 8517 93bd a0d8 f5bc f9cd 3ebc
00000230: 1525 503d c3f0 d93d 1022 ad3d 30b1 023c
00000240: 9a2e 57bc a052 c43c 16ae 29bc 8d0b b1bc
00000250: a30f 0f3d 1a48 d0bd 9c2c eabd e83a 9bbb
00000260: a238 3cbd 043f 7dbd 4452 eebd f07b ab3d
00000270: dc9d 55bc 5543 93bd cdf5 6ebd 5436 e23c
00000280: c906 cabd afd1 353b 80a3 debb c6e5 183d
00000290: 0d8d 223d dbc8 b1bd aff0 3a3d 6a4f c13d
000002a0: 0382 bbba 9a6b 823d 38d6 41bd e846 8b3c
000002b0: bd49 003d 0cfa 80bd 0988 8d3d 1c0c f2bd
000002c0: 734a 60bd f65e a1bd 9af8 97bd a21f 9bbd
000002d0: f839 f1bd 50bc af3c 6c65 f5bc 9bc2 e2bd
000002e0: 00a0 57b8 fd79 ecbc 0939 323d 2139 d3bd
000002f0: 93fd 30bd 40c6 d23c b007 593d ff52 0e3a
00000300: 42dc b63c 1a0e ad3d db4b 48bd 6150 823d
00000310: c7c7 273d 1e93 bb3b 7785 94bc 3445 423d
00000320: 8a84 bdbc 7461 963d 0c42 f3bc 6cf9 203d
00000330: 63b7 adbc ea2e 84bd f181 8c3d d40e c23b
00000340: 4bd8 793d 8701 093c 0075 29bb 545f 3c3d
00000350: 0939 87bc 0be6 61bd dc41 043b 455d e4bd
00000360: 657f 353a 5df6 5fbd fd88 86bc 1119 07be
00000370: cf5e 3f3d 0593 dabd 5bf1 2a3d 2c60 6c3c
00000380: faf7 d5bd 0717 833d 1c98 bbbd 2b63 77bc
00000390: dc01 e73c 6757 6bbd 96ca b33d 7735 babd
000003a0: 1759 10bd 7281 c7bd a7f3 a7bd cc4d 903d
000003b0: 6c7c 983d d1bf bdbc ea70 97bc 5795 1dbd
000003c0: 58a1 ec3c d840 43bd a0fd 13bd 758f 893d
000003d0: ed41 823d fa41 aa3e 304e 6c3d 0904 59bd
000003e0: c1fd 15bd 4a20 2b3c d651 743b c30b 11bb
000003f0: e69b 1abd 43df 0a3c f7a1 c63c 2fc5 223b
-0.052577466 0.019945921 0.0472006 -0.010382449 0.040193256 -0.056294687 0.047690626 0.06752917
0.041039422 0.002368021 0.043044474 -0.111283414 -0.061656214 0.0043545924 -0.027883885 0.08795447
0.085460216 0.035192207 -0.05752618 -0.104658075 -0.12989423 0.040877208 -0.109815806 -0.09983196
-0.036136072 -0.11997143 -0.028156396 -0.07915265 -0.07024527 0.1266863 -0.05740726 0.09642606
0.0035788477 0.021368062 -0.043997273 -0.08751348 -0.08005186 0.06955532 -0.028077642 -0.13443454
0.103616826 -0.029829884 -0.07678559 -0.09809236 -0.08686003 -0.09184874 0.10308634 0.05931434
-0.007925142 -0.08622553 -0.044199202 -0.10930301 0.019420717 0.050012976 -0.040259156 -0.06874472
0.04606427 0.060800094 -0.00525019 0.0017353434 0.00068868406 0.009551882 -0.117221005 0.11368784
-0.043739412 0.04952794 -0.055543758 0.021873947 -0.034550052 0.015587115 0.026748767 -0.1156298
-0.000251459 0.009515123 0.03695588 0.071016796 0.042621072 0.0077886493 -0.06845192 0.049838517
-0.0319573 -0.006145041 -0.052470345 0.0811126 0.041584507 0.04617913 0.0053037177 0.031551186
-0.10852665 0.08647458 -0.023899924 0.073029704 -0.02396022 -0.012198267 -0.04823495 0.038304042
-0.0842651 0.011124665 0.054529283 0.027722133 -0.078055814 -0.096877046 -0.047098514 0.061433647
-0.0760158 0.045856144 0.060602494 -0.053222604 -0.032652993 -0.05705307 -0.003271961 0.009944376
-0.038488094 0.046540465 0.0641321 0.11960478 -0.01660238 0.29328075 0.025164725 -0.026225265
0.017444646 0.07342231 -0.044693768 -0.008592457 -0.07157565 -0.03950489 -0.04328135 -0.02753356
-0.06815747 0.05737752 -0.011190712 0.04396102 0.10528329 -0.06425455 -0.06671694 -0.030343356
-0.018641038 -0.0718222 -0.030010521 -0.011645787 0.050816614 0.10641625 0.084537625 0.007976815
-0.013133669 0.02396518 -0.010356447 -0.021611953 0.03492702 -0.10170002 -0.1143429 -0.004737247
-0.045952447 -0.061827675 -0.11636785 0.083732486 -0.013038125 -0.07190577 -0.058339883 0.027613796
-0.098645754 0.002774339 -0.006794393 0.037328504 0.039685298 -0.08680888 0.04563969 0.09438975
-0.0014305714 0.063681796 -0.047323436 0.017001584 0.031320322 -0.06297693 0.06910712 -0.11818716
-0.0547585 -0.078794405 -0.07420464 -0.07574393 -0.11778635 0.0214521 -0.029955588 -0.11072274
-5.1409006e-05 -0.028866762 0.043511424 -0.10313631 -0.043210577 0.025729299 0.052985847 0.00054292375
0.022321824 0.08449955 -0.048900466 0.06362987 0.040962007 0.005724325 -0.018130047 0.04742928
-0.023134489 0.073428065 -0.02969458 0.039300367 -0.02120561 -0.06454261 0.06860722 0.005922178
0.06099729 0.008362181 -0.002585709 0.04598935 -0.016506689 -0.055151027 0.0020180857 -0.11150602
0.00069235853 -0.05467831 -0.016422743 -0.13193156 0.046721276 -0.10672573 0.04173408 0.014427226
-0.104476884 0.064008765 -0.09159872 -0.015099327 0.028199129 -0.0574564 0.087788746 -0.09092229
-0.035241213 -0.097414866 -0.0820077 0.070460886 0.074456066 -0.023162754 -0.018486459 -0.0384725
0.028885528 -0.04766926 -0.036130548 0.067168154 0.063602306 0.3325346 0.057691753 -0.052982364
-0.03661895 0.01044471 0.0037280223 -0.0022132255 -0.037746333 0.008476081 0.024247153 0.002483677

hidden_layers.1.bias f4 [64]
00000000: 4fd3 853e 2e7d a93e 5b1c 9fbd 3ebb 993e
00000010: 0a08 b33e 1667 e03e 0928 423d e081 a83e
00000020: 141a b93e 2938 973e b899 ca3e 47be 9b3e
00000030: 4d7b d43d 358f 7a3e 8d69 e53e 6635 d43e
00000040: 9376 a93e 3a2b ce3e adb1 6c3e 5253 b03e
00000050: d688 c23e 7d07 8b3e 15cc 9b3e be4f 583c
00000060: 3bef 023f eeed 5e3e 29b6 2a3e 1658 a33e
00000070: 33c6 813e 8fe0 883d 6add 633e caa4 94bb
00000080: 1562 753e 9df2 c43e 14d4 de3e 44d7 8f3e
00000090: 3c38 e9bd 77b4 be3e 0678 cc3e 4fde 8d3e
000000a0: b175 d23e 7b5f 6f3e cffd a53e 1075 71bd
000000b0: 1c69 83bd 3920 cabd 9689 823d af36 26bb
000000c0: 8c4c 47bd d25f 2dbd 68b9 d03c c792 ce3e
000000d0: aad3 1dbe 7b9e 5e3e 18e7 c5bd 4c76 923e
000000e0: 0615 19be 1c85 b0bd 2057 663e 7444 813e
000000f0: 8648 c93c 4fa3 c53e d181 7c3e 32aa 7b3e
0.26137778 0.33103317 -0.0776908 0.30025667 0.3496707 0.43828648 0.04740146 0.32911587
0.3615271 0.29535034 0.39570403 0.30418608 0.1037508 0.24468692 0.4480709 0.4144699
0.33098277 0.40267354 0.23114653 0.34438568 0.37995023 0.2715415 0.3042914 0.013202606
0.51146287 0.2177045 0.16671051 0.31903142 0.25346527 0.06683456 0.22252432 -0.004536246
0.23963197 0.3846635 0.43521178 0.28093922 -0.11387679 0.3724706 0.3993532 0.2770867
0.41105416 0.23376267 0.32420203 -0.05894953 -0.064165324 -0.09869427 0.06373899 -0.0025362184
-0.048656985 -0.04232771 0.025479034 0.40346357 -0.15412775 0.21740143 -0.09663218 0.28605878
-0.14949426 -0.086191386 0.22494173 0.25247538 0.024570715 0.38601157 0.24658896 0.24576643

output.weight f4 [4, 64]
00000000: cea3 3f3e 7298 913e d052 f83d 2f06 903e
00000010: dfc0 983e 8c78 803e 6d9a ddbc 6f94 683e
00000020: 569e 593e 011f 543e b699 833e 9386 8d3e
00000030: 8cb1 c0bd e064 b43e 4c89 573e 46bc 533e
00000040: a70b 513e 0776 2e3e acd9 573e c3c8 593e
00000050: 1d11 833e fc9d 953e f127 843e 8a73 d4bc
00000060: 9ed8 6f3e 055d 813e a366 983e aea6 523e
00000070: 2db7 933e b609 193e 35cb 703e f2d2 4dbd
00000080: 426d 7c3e 5ee4 873e 6546 953e 6625 703e
00000090: 88ab b9bb 9707 7e3e d559 913e 7f0c 643e
000000a0: 577f 0b3e cbbe 873e 7480 433e 96dc 1ebd
000000b0: 349f e63d 1846 a5bd 9c99 abbd 0554 8e3d
000000c0: 67f5 8ebd 96d3 70bc 9efd 08bc 8cc5 413e
000000d0: c0cc 71bd 963c 803e d018 5c3d f2b4 8f3e
000000e0: 70a7 12be a0a5 ed3c f54a 793e 55cb 7d3e
000000f0: 99d6 a33d 414e 913e 50a4 6c3d 3aee 7c3e
00000100: 3866 5d3e 0a32 8d3e b9ba a5bd 81b6 713e
00000110: ad35 913e e154 8f3e b162 86bd e156 853e
00000120: c1ef 123e f977 193e c50d 6e3e cea6 923e
00000130: 879e 99bd b112 a53e 45e3 6c3e 8463 7e3e
00000140: cc21 813e a50b 3f3e d7fb 1e3e c8c0 213e
00000150: 2235 6a3e 7865 713e e429 813e 8a7e 0abd
00000160: 4280 793e 202d 753e 5556 163e 4ecd 013e
00000170: 10b9 743e dd17 543d 4006 643e 7265 c5bd
00000180: 26c6 333e 8962 853e 2856 8d3e 6d35 293e
00000190: e02b 203d 115e 653e 4ee5 b13e 54e7 4f3e
000001a0: 6930 313e eb04 903e 21ed 363e 3283 91bd
000001b0: 2ece aebd f1be bbbd 8d11 83bd 3320 f5bc
000001c0: cc0a 85bd 2287 aebd 75a3 143d 5b42 593e
000001d0: 775f 91bd 4504 7e3e c36d 713b 1447 933e
000001e0: ff99 263b 05be 0f3d aa37 b03e 3f9a 7f3e
000001f0: d4b9 fdbd d54d 883e e109 3d3e 9f74 6a3e
00000200: ac25 133e 1254 353e 881a aa3d 789a 663e
00000210: 611f 783e 1cce 893e 57c1 74bc 4eeb 6b3e
00000220: 6ef2 6c3e 6026 123e 531e 863e cb15 783e
00000230: ffaf 983d cc7e b33e 1c3d 893e f3a7 723e
00000240: e5d1 543e 7874 553e 68e9 3e3e 8b60 1b3e
00000250: 295a 5a3e 4395 a23e b78d 243e d991 7e3d
00000260: 79d7 6b3e c529 903e 07e4 963e c5a7 543e
00000270: ced0 853e 865e 903e e3ba 5a3e 3efb 1b3b
00000280: 621b 123e 563b 663e b33f 643e 37ba 873e
00000290: fec9 093e fea8 853e f4fa 9a3e 1d6e 7e3e
000002a0: 808c a13e 0fa6 7b3e 5684 223e 2aa2 9fbd
000002b0: 6abb 0ebc 36b6 b8bc 46a0 703d da54 94bd
000002c0: f56b 89bb 3fbd b0bd bea1 91bd 8e88 483e
000002d0: 0b76 b5bd 15c3 7b3e acd3 ebbd a412 873e
000002e0: 1ad1 223d eefc a3bd 5eb6 a53e ea81 8b3e
000002f0: a0c2 52bd ac37 8b3e 730e 2a3e 8eaf 8e3e
00000300: 4e82 353e 5e97 413e 845e b03d 8a3a 483e
00000310: a769 773e 8d30 893e a2b8 b4bc 6ddb 653e
00000320: 8dc1 fb3d 4bc3 333e 5583 773e b78f a63e
00000330: bcc5 d6bc 41a0 b93e aecb 713e 1049 623e
00000340: 561e 533e 3554 383e b452 193e c030 343e
00000350: 7f14 793e 3660 9f3e 47a0 5d3e 7afa 923d
00000360: b29a 8a3e 87c4 8e3e 1127 853e 9735 673e
00000370: 9187 9b3e 8a0f 6bbd aaee 523e 4073 0b3c
00000380: 122f 3d3e 503b 413e 49f7 9b3e 67d3 8d3e
00000390: 21a2 a0bb f64e 6f3e 047f b43e d238 523e
000003a0: efe3 523e af67 933e 35a2 383e 5125 a7bc
000003b0: 0476 ec3c b9c0 ac3c 8955 543d 3819 323c
000003c0: cf43 433d 1cbd 2f3d 341d 43bd 896c 603e
000003d0: 5170 3d3d 24ad 663e 4aca 753a c340 8f3e
000003e0: 445e 31bd a72e debc 92e2 603e 204d 953e
000003f0: f274 c7bd 5ac5 893e ad3b c63d 3574 643e
0.1871483 0.2843662 0.1212517 0.28129718 0.2983465 0.2509197 -0.027051175 0.22712873
0.21251807 0.20714952 0.2570321 0.27641734 -0.094088644 0.35233212 0.21048468 0.2067729
0.20414601 0.17037211 0.21079129 0.21267991 0.25598994 0.29222095 0.25811723 -0.025934
0.23422477 0.2526628 0.29765806 0.20571396 0.2885069 0.1494511 0.23515017 -0.05025
0.24651054 0.26541418 0.2915527 0.23451766 -0.0056662 0.24807583 0.2838885 0.22270392
0.13622795 0.2651275 0.1909197 -0.038784586 0.11260834 -0.0807001 -0.08378908 0.06949619
-0.069804005 -0.0146988835 -0.008361248 0.18923014 -0.059033155 0.25046223 0.0537346 0.28067738
-0.14321685 0.02900964 0.24345 0.24784596 0.07999916 0.28380015 0.057773888 0.24700251
0.21621025 0.2757724 -0.08092255 0.23604776 0.28361264 0.27994445 -0.06561793 0.26042846
0.14349271 0.14987172 0.2324744 0.28642887 -0.0750094 0.32240823 0.23133571 0.2484265
0.25221097 0.18656786 0.15525757 0.15796196 0.22871831 0.23573864 0.25227273 -0.033812083
0.24365333 0.23942995 0.1468137 0.12675974 0.2389872 0.05178057 0.22268009 -0.0963849
0.17556056 0.2605174 0.27604795 0.16524287 0.039104342 0.22399165 0.34745258 0.20303088
0.17303623 0.28128752 0.17863895 -0.07105102 -0.085354194 -0.091672786 -0.06399832 -0.02992258
-0.064962 -0.08521868 0.036288697 0.21216719 -0.070982866 0.24806316 0.0036839105 0.28765166
0.0025421379 0.035093326 0.34417468 0.24961184 -0.123889595 0.2662188 0.184608 0.2289605
0.1436984 0.17707852 0.08305842 0.22519863 0.2423072 0.2691506 -0.014938674 0.2303898
0.23139355 0.14272451 0.2619501 0.24227063 0.074554436 0.35057676 0.26804435 0.2369688
0.20783193 0.2084521 0.18643725 0.15173547 0.21323456 0.31754503 0.16069685 0.06215081
0.23031415 0.28156868 0.29470846 0.20767124 0.26135868 0.28197116 0.21360354 0.0023800875
0.14268258 0.22483572 0.22289924 0.26509258 0.1345596 0.26105493 0.30269587 0.24846692
0.31552505 0.24575065 0.15870795 -0.07794602 -0.008711675 -0.022547822 0.0587466 -0.07242747
-0.0041937777 -0.08629846 -0.07110928 0.19583341 -0.088604055 0.24586137 -0.115149826 0.2638141
0.039750196 -0.08007227 0.32365698 0.27247554 -0.05145514 0.27190912 0.16607074 0.27868313
0.17725489 0.18905398 0.086117774 0.19553581 0.24161397 0.26794854 -0.022060696 0.22446986
0.12292776 0.17554967 0.24171193 0.3253152 -0.026217334 0.36255077 0.23612854 0.22098184
0.20617041 0.18000872 0.14972955 0.17596722 0.24324225 0.3112809 0.21643172 0.07176681
0.27071148 0.27884313 0.26006368 0.22579037 0.30376866 -0.057387866 0.20598856 0.008511364
0.18474987 0.18870282 0.304621 0.2770035 -0.00490214 0.23369965 0.35253155 0.20529488
0.20594762 0.28790042 0.18030627 -0.020403536 0.028864868 0.021087991 0.051839385 0.01087027
0.04767209 0.042904958 -0.047635272 0.21916403 0.04624969 0.22526985 0.0009376152 0.27979097
-0.04330279 -0.027121855 0.2196143 0.29160404 -0.097391024 0.2690838 0.09679351 0.22309954

output.bias f4 [4]
00000000: 4976 8b3f 96dd 863f 99dd 8a3f 8517 803f
1.0895473 1.0536373 1.0848876 1.0007178

exp_avg f4 [64, 37]
00000000: 1cdc 7e39 dbe8 283a a8c9 573a 8fda c139
00000010: 9403 d439 2ec2 a6b8 1e7b 833a 866b 6a3a
00000020: 999a 8939 2868 3e3a b1cb 6939 49b1 ae39
00000030: 882e 923a 5c5c d639 4623 183a e132 b7b8
00000040: 1acb a63a 83ab ca39 3851 053a 8f4b 373a
00000050: 181b 4d3a fecb 513a 2106 0739 595c c139
00000060: 31b4 1d3a f685 db39 283a 303a c9d6 d539
00000070: 4b6e 183a b478 7c39 2297 e6b8 b720 6e3a
00000080: 1717 be39 6ffd 703a 42fc da38 1cb3 c03a
00000090: 3895 89bb 725e 3aba dd31 c73a ef67 2c3a
000000a0: d0db da38 7ff0 ff39 69c4 e938 f9ce 823a
000000b0: 308d 1338 ba72 df39 2712 383a b55a 2fb8
000000c0: c845 c9b7 9ac6 673a ee41 453a 0c58 9139
000000d0: 7c6f 8d39 d480 a83a a787 26b9 d9c4 3639
000000e0: c0ba f439 6267 143a e8b9 94b9 8df4 6e3a
000000f0: 7193 c539 042b 9e39 b5e5 6939 b2e7 7a3a
00000100: a3c0 0839 d16e 8839 86f6 293a 6735 de39
00000110: 462f 463a d5f3 af37 2afe c139 551b 0a3a
00000120: 1e03 923a 9c46 923a 93d8 c9ba 3738 4f3b
00000130: bee9 833a 045f 853b 3663 3c3a c2bd 2f3b
00000140: cef6 df3a b3e1 62b9 c773 253b 68f2 67ba
00000150: 6c2e 3a3b 78cb e83a 7c8d 963a bc8f 743a
00000160: a166 703b df0b 8f39 3cd3 983a 90bf 4f3b
00000170: 2cf4 083b 7d98 613a 8dee eab8 651c 153b
00000180: 7ea1 043b 6d98 243b 256b 513a c08e 953a
00000190: 56fc 403b e73f af3a 5936 a73a 463d 233b
000001a0: cc03 393b 517a 383b ed41 10bb a7c2 553b
000001b0: 7c79 9fb9 b778 303b 5534 cfbc 6fb5 46bb
000001c0: 0438 ce3b 879f fa3a 9c52 0e3c e7ee 9d3a
000001d0: 05d3 c33b b196 e53a 97b0 b939 ad56 bd3b
000001e0: 5d9d b6ba 1b87 c73b c495 523b 2e2b 633b
000001f0: 510b 8f3a ee38 dc3b ece3 97b9 bec8 313b
00000200: a77e e83b a045 8e3b ab4b 2d3b 5ef8 b837
00000210: eff9 593b 2dc5 d03b 4aaf 873b 87be 333a
00000220: 7b47 1c3b 579b 993b 2ccf a33b a470 ea3a
00000230: 4f81 a73b 534b dd3b f5af 983b de03 66bb
00000240: 0c31 c33b 819a 39b8 5e98 943b a3e0 24bd
00000250: 9188 adba 787b 533b b7ab 0d39 6797 853b
00000260: 1436 4c3a 83e1 b43a a20a 353b 19d2 c0b9
00000270: 995f 193b c69c 20ba 24d1 903a 2526 1a3b
00000280: ff4e d33a 0315 893a 9885 de3a 0d25 3bba
00000290: 0a24 1939 cc5a 793b ea9c 3c3b c615 33b7
000002a0: f1e5 92b9 3ea3 293b cdee 183b d716 c13a
000002b0: 8c9c 433a 635c 5ab9 9be7 3b3b f773 923a
000002c0: e844 193b dec2 aa3a dc88 c83a 93ce 763b
000002d0: d465 efba a060 2d3b 5b23 ecb9 f472 753b
000002e0: 4c10 dcbc 2f78 343a 9b07 c039 8eb2 503a
000002f0: ef2e bcb9 1513 7a3a ad42 2a3a e139 2e3a
00000300: 739d fb39 6f68 9eb9 7384 d43a 756c c3b9
00000310: ce9b b8b7 283f 253a 80a9 a43a 38bf 0db9
00000320: 54b2 033a 7d83 6a3a e977 16b9 f7fc 7939
00000330: 972b 2b3a c57e 933a e1d3 05b9 f5f7 373a
00000340: d7a5 59b9 38b5 903a 978e 9ab8 a6c9 303a
00000350: d5a7 5d38 c1c4 5b3a df35 8039 0a88 a83a
00000360: 1bb7 b3b8 5e7c 423a fffc ebb9 f46a b53a
00000370: b1a5 c9ba bd4b 53b9 e610 a8ba 3803 113b
00000380: 1443 dc39 c1a7 0e3b 47f3 023a 06b9 d83a
00000390: 7a01 013a 7c24 64ba 2a97 133b a74c f7b9
000003a0: 908d d93a b8ee 043a 45fe 6d3a 1e47 ed39
000003b0: 11aa b83a 1e79 01ba cedc e139 4361 0c3b
000003c0: aed8 bd3a acbd 183a d6d2 f5b8 5cdc e139
000003d0: dd14 053b 3612 9b3a da20 de37 bd55 ee38
000003e0: 9084 c33a b201 323a 15eb a23a 936c b43a
000003f0: 4e0d cc3a afcd c13a b2af 8eba 8e2a cf3a
0.00024305325 0.00064433896 0.0008231648 0.00036974667 0.00040438457 -7.9516656e-05 0.0010031199 0.0008942414
0.0002624586 0.00072634453 0.00022296493 0.00033319954 0.0011152783 0.00040886074 0.0005803596 -8.735597e-05
0.0012725324 0.0003865623 0.000508565 0.0006992155 0.00078241667 0.00080031145 0.00012876886 0.00036880633
0.00060159253 0.00041870744 0.0006722533 0.00040786553 0.0005814775 0.00024077558 -0.00010995405 0.00090838544
0.00036256827 0.0009193038 0.00010442037 0.0014701816 -0.0041986965 -0.00071094104 0.0015197356 0.00065767666
0.00010435993 0.00048816574 0.0001114689 0.0009979896 3.5179022e-05 0.00042619352 0.0007021748 -4.180773e-05
-2.3993562e-05 0.00088415446 0.0007524778 0.00027722155 0.00026976678 0.0012855777 -0.00015881528 0.00017430204
0.00046678446 0.0005661157 -0.0002836727 0.00091154204 0.0003768462 0.00030168158 0.00022306184 0.00095712685
0.00013041733 0.00026022506 0.0006483573 0.00042382927 0.0007560145 2.0975169e-05 0.00037001196 0.0005268355
0.0011139845 0.0011159959 -0.0015399627 0.00316192 0.0010064167 0.0040701646 0.00071864144 0.0026815985
0.0017087103 -0.00021637119 0.002524601 -0.0008848072 0.0028409017 0.0017760834 0.0011486257 0.00093292794
0.0036682265 0.0002728393 0.0011659632 0.0031699874 0.002089749 0.00086057914 -0.00011202423 0.002275252
0.0020237858 0.0025115267 0.0007988683 0.0011410341 0.002944728 0.0013370485 0.0012757286 0.0024908348
0.0028231023 0.0028149078 -0.002201195 0.0032617243 -0.00030417356 0.002692742 -0.025293509 -0.0030320545
0.0062932987 0.0019121029 0.008686688 0.0012049348 0.005976083 0.0017516223 0.0003541752 0.005778155
-0.0013932396 0.006089104 0.0032132724 0.0034663188 0.0010913407 0.0067206537 -0.0002897078 0.0027127708
0.0070951763 0.004341796 0.0026442807 2.2050164e-05 0.0033260544 0.0063711614 0.004140769 0.0006856699
0.0023846317 0.0046877074 0.004999062 0.0017886353 0.0051118503 0.006753364 0.0046596476 -0.003509752
0.0059567746 -4.425133e-05 0.004534765 -0.040253293 -0.0013239552 0.0032269638 0.00013510777 0.0040768865
0.00077900407 0.0013800118 0.0027624746 -0.0003677763 0.0023402928 -0.00061268767 0.0011048657 0.002352127
0.0016121565 0.0010458532 0.001697707 -0.0007139005 0.00014604643 0.0038048504 0.0028780052 -1.0674301e-05
-0.0002801861 0.0025884653 0.0023335696 0.0014731538 0.0007461987 -0.00020824517 0.0028671983 0.0011173476
0.0023387019 0.0013028046 0.0015299576 0.003765975 -0.00182646 0.0026455298 -0.0004503977 0.003745255
-0.02686324 0.0006884364 0.0003662676 0.0007961177 -0.00035893123 0.00095395866 0.0006494921 0.0006646198
0.0004799176 -0.00030213917 0.0016213789 -0.00037274105 -2.2007061e-05 0.00063036615 0.0012562722 -0.00013518042
0.00050238264 0.0008945985 -0.00014349785 0.00023840727 0.0006529628 0.001125299 -0.000127628 0.00070178445
-0.00020756513 0.0011040336 -7.369852e-05 0.0006743915 5.284681e-05 0.00083835056 0.000244542 0.0012857926
-8.569491e-05 0.0007419045 -0.0004501119 0.0013841079 -0.0015384463 -0.00020150743 -0.0012822419 0.0022127163
0.00042011647 0.002176747 0.00049953576 0.0016534633 0.00049211795 -0.00087029464 0.002252052 -0.00047168622
0.0016597975 0.0005070972 0.00090787216 0.0004525715 0.001408877 -0.00049390073 0.00043079857 0.0021420277
0.0014484131 0.0005826603 -0.000117217816 0.00043079525 0.0020306625 0.0011830989 2.647976e-05 0.000113646944
0.0014916826 0.0006790414 0.0012429679 0.0013765268 0.001556793 0.001478603 -0.0010886102 0.0015805529

exp_avg_sq f4 [64, 37]
00000000: 5c28 de40 1cc3 6141 2ead 1841 539f 5840
00000010: f54c 0641 ba4b 3041 f912 0441 4d10 0e41
00000020: 05b2 b740 dcb7 d340 c1ac 1941 5a12 1f41
00000030: e81d f740 17dd 9e40 9d42 1241 bc68 0441
00000040: 1fee 3841 51ad d340 981f 6440 9399 0841
00000050: c854 2e41 155c 1641 ec7b 3241 acf0 8c40
00000060: 8b2d db40 f95b fd40 53d4 3841 32ca fc40
00000070: e338 fc40 7801 e440 9876 4941 18a1 0541
00000080: 98d9 cd40 ecbd 8940 7917 e240 4216 2342
00000090: 09cd 9644 21c2 d840 d165 5741 2ac7 1a41
000000a0: 4460 4140 1932 0441 1ba2 2f41 94d9 0641
000000b0: f6a6 0f41 02bf b540 c44a cb40 9362 1b41
000000c0: 123a 2441 cd82 f340 9ca0 9840 6af4 1141
000000d0: f166 0141 1f31 3141 9672 d040 bbb2 6b40
000000e0: 4257 0841 2ad6 1941 2ef2 1641 5d77 2341
000000f0: 6101 8740 6550 d940 7721 ef40 202a 2d41
00000100: 3a8c 0541 9584 ec40 dbe9 d840 3328 4641
00000110: 15b2 0441 bf37 c340 b796 7c40 0575 e040
00000120: ab12 0e42 d39a 9144 ca00 0241 7f7b 7c41
00000130: 2f11 3c41 2172 8240 a351 2341 c640 4b41
00000140: 49c3 2241 aad8 1f41 b92b e440 faa9 f140
00000150: 5fa3 3541 20af 5241 eba2 0e41 4068 c040
00000160: d299 2d41 c558 1e41 8f9b 4f41 55c7 fd40
00000170: 9817 8b40 6aa1 2541 5d65 3641 5d75 3a41
00000180: 0866 5e41 5d99 9b40 44de 0241 610e 1441
00000190: cb5b 4c41 24f1 1341 a26b 0f41 7555 fe40
000001a0: 09ca 7241 1809 2a41 1d79 e340 9785 9440
000001b0: ca10 0c41 3dd2 3742 e6f9 9b44 2e74 0941
000001c0: 369a 8141 f5d9 2d41 c4ea 8140 4149 2741
000001d0: d1dd 3d41 6544 2441 99c7 2b41 601c d640
000001e0: bed7 0141 d51a 3741 3d02 4f41 8772 e740
000001f0: 8813 bf40 b8ab 2041 ed40 1c41 605e 5a41
00000200: 4b73 0941 6910 8840 4a4c 1941 59db 2f41
00000210: c1ab 2641 7b50 4c41 b4d9 a940 2caf d440
00000220: 8e1d 0941 0f19 4b41 c6a0 0041 6ad4 1841
00000230: 3aca f840 bda8 4941 da8b 2d41 de54 ef40
00000240: d277 a340 da1b 0a41 713f 3c42 f9ce ac44
00000250: aef0 e440 9445 4c41 a369 1e41 c636 4740
00000260: f43c 0341 9a4a 2741 ad33 0841 d338 0a41
00000270: f6b2 a740 e08e ba40 f5d4 1341 93ca 2841
00000280: b99d ec40 9729 9440 001c 0f41 ed96 0b41
00000290: 19d4 2f41 4dcf cd40 30c1 6540 a6e5 0441
000002a0: e961 0c41 2e17 1341 4eea 2f41 bb5e 7740
000002b0: 7015 d140 a738 dc40 90ce 2f41 434c e940
000002c0: 80ae e040 3db5 d440 4067 3941 6f13 0741
000002d0: 175d be40 5022 7b40 363d d140 d4db 1142
000002e0: 0b76 8544 78e9 1640 bc52 9740 083e 7e40
000002f0: a036 a73f cee3 2b40 2941 6440 87a4 2b40
00000300: 5897 5d40 fd31 1040 e90a 0640 05f2 7240
00000310: 4f27 3e40 529c 4b40 1487 b83f 4cf7 5640
00000320: 5799 5640 39fb 4840 37bf 1340 9787 c13f
00000330: b940 2d40 f256 8640 e049 0d40 776a 6c40
00000340: 01b6 ea3f 805b 1540 68c9 2140 1a98 3340
00000350: 87af 4d40 a158 0f40 799d f43f 7671 8940
00000360: 8f6c 1040 c342 0f40 178a e13f cfc7 1040
00000370: e380 6341 c109 b943 4674 f140 51d5 6141
00000380: e390 2341 391b 5d40 2d8f 0441 1257 3b41
00000390: 756e 0941 5b85 0d41 ee77 c540 d709 d640
000003a0: 5fa4 2941 7626 3041 1708 0a41 04ea a640
000003b0: 95d4 1941 fbed 0c41 8924 3941 a317 eb40
000003c0: eb15 8040 cf0f 0941 d878 2141 e646 2941
000003d0: a07c 4a41 fbf3 9640 ed1d ea40 5692 0041
000003e0: 6bf3 3641 c9b2 ef40 5b86 0341 c9bc e840
000003f0: 2014 4641 d604 1441 9c87 db40 3e29 9340
6.9424267 14.110134 9.54228 3.3847244 8.393788 11.018488 8.254632 8.87898
5.740481 6.616194 9.604676 9.94198 7.7224007 4.9644885 9.141263 8.27557
11.558135 6.614907 3.5644283 8.537494 10.895699 9.397481 11.155254 4.404379
6.8493094 7.917477 11.551837 7.899682 7.881944 7.1251793 12.591454 8.35183
6.4328117 4.304434 7.0653653 40.771736 1206.4073 6.7736974 13.4623575 9.673624
3.0215006 8.262231 10.977077 8.42812 8.978262 5.6795664 6.3528767 9.711566
10.264177 7.609717 4.7696056 9.122171 8.087632 11.074492 6.5139875 3.6827838
8.521303 9.614786 9.434126 10.216641 4.2189183 6.791064 7.472835 10.822784
8.346735 7.3911843 6.778547 12.384814 8.293477 6.100555 3.946699 7.0142846
35.51823 1164.8383 8.125193 15.78015 11.754195 4.0764318 10.207431 12.703314
10.172677 9.9903965 7.130337 7.551999 11.3523855 13.167755 8.914775 6.012726
10.850054 9.896672 12.975478 7.9305825 4.34663 10.351908 11.399747 11.653653
13.89991 4.862471 8.179264 9.25351 12.77241 9.246372 8.963778 7.947932
15.174325 10.62722 7.1085343 4.6413074 8.754099 45.95531 1247.8093 8.590864
16.200298 10.865712 4.059908 10.455384 11.866654 10.266698 10.73623 6.6909637
8.115171 11.444051 12.938046 7.2327304 5.971134 10.0419235 9.765851 13.648041
8.590648 4.252003 9.581125 10.991052 10.416932 12.769649 5.307825 6.6463833
8.5697155 12.693618 8.039251 9.551859 7.774686 12.603696 10.846643 7.47911
5.1083765 8.6318 47.061954 1382.4679 7.15438 12.766987 9.90079 3.112718
8.202381 10.455713 8.512616 8.638873 5.240596 5.829941 9.239491 10.549457
7.3942533 4.630077 8.944336 8.724347 10.989282 6.4315553 3.5899162 8.3060665
8.773904 9.193159 10.994703 3.865157 6.533867 6.8819156 10.98793 7.2905593
7.0213013 6.647124 11.5877075 8.442245 5.9488635 3.9239693 6.538722 36.464676
1067.6888 2.3579998 4.7288494 3.972536 1.3063545 2.685779 3.566477 2.681917
3.4623623 2.253051 2.094416 3.7960217 2.9711492 3.181416 1.4416223 3.3588438
3.3531091 3.1403334 2.3085458 1.5119504 2.7070754 4.1981134 2.207634 3.693998
1.8336793 2.3337097 2.5279179 2.8061585 3.2138383 2.2397845 1.9110557 4.2951
2.256626 2.2384498 1.7620267 2.2621953 14.2189665 370.0762 7.5454435 14.114579
10.222873 3.4547865 8.284955 11.708757 8.589467 8.8450575 6.17089 6.688701
10.60263 11.00939 8.626975 5.2160664 9.6144 8.808101 11.57142 7.3466353
4.0026755 8.5663595 10.092003 10.579809 12.655426 4.717283 7.316153 8.035727
11.434428 7.4905744 8.220302 7.273045 12.379913 9.251181 6.860304 4.5987844

exp_avg f4 [64]
00000000: b455 083b 58e4 cd3a 6a7f db3b 3515 633c
00000010: 5b60 c83b 898b c33a ec2a 673b 1248 a73b
00000020: 3090 ec3a 765a 6739 2435 10bb 6722 29bb
00000030: 7dd7 913a 8eaa 8e3b 4f53 b33a d0c6 083b
00000040: ce61 2fba 70c3 483b 1aac d539 efa3 f93a
00000050: 3969 ecba 508c 273b 8397 a63b 63f7 01bb
00000060: 5f4e 14ba 4fb8 e93a 7246 bc3b 2902 d73c
00000070: 8c50 203b 9cfc b63b 7b23 883a a787 943a
00000080: c729 0fb9 886a 6d3b 72dd 833b 3073 943b
00000090: 8810 a3ba 9adc b6b9 a367 0aba 2ad7 1c39
000000a0: fabd 11ba 32f7 a53b a225 feba 546c 583b
000000b0: 1b40 b839 77b2 7a3a 6098 d0ba 8e43 6d3a
000000c0: 0c5b 05bb a1a5 523a 0687 353b 30df 9039
000000d0: 51fb 093c 3e68 473d 4f98 ee3b e156 343a
000000e0: 4b23 a53a ff23 473b 06ed 263b 7336 a6ba
000000f0: e95f 0eb9 b545 0b3d 99c3 ca3a 2ce7 53ba
0.0020803036 0.001570831 0.0066985385 0.013860037 0.006115002 0.0014918904 0.0035273386 0.005105027
0.0018048342 0.00022063576 -0.002200433 -0.002580786 0.0011126843 0.004353828 0.0013681444 0.0020870455
-0.0006690294 0.0030634068 0.00040754752 0.0019046048 -0.001803673 0.002556581 0.0050839796 -0.0019831292
-0.000565743 0.0017831417 0.0057457024 0.026246147 0.0024462072 0.0055843126 0.001038655 0.0011331931
-0.00013653106 0.0036226828 0.004024201 0.004530333 -0.001244084 -0.00034878106 -0.00052797253 0.00014957474
-0.000555962 0.0050648684 -0.0019389878 0.0033023553 0.00035142977 0.00095633365 -0.0015914552 0.0009050899
-0.0020348458 0.0008035545 0.0027698888 0.00027632108 0.008421735 0.048683397 0.00728134 0.0006879401
0.0012599019 0.0030386446 0.0025470867 -0.0012681022 -0.00013577905 0.034002025 0.001546967 -0.00080834585

exp_avg_sq f4 [64]
00000000: ce4a 1542 ac90 1442 5657 3842 5cb8 3042
00000010: 9f42 1142 56e9 4c41 9df6 1a42 98a5 3442
00000020: 2a77 2b42 e77d 1942 bca1 1242 5088 e341
00000030: f1e2 2442 5362 2542 35a4 1e42 7e63 1542
00000040: ccb8 1742 d65b 1c42 e9f4 1c42 d232 1a42
00000050: 85f4 fd41 d7ab 0e42 4f0c 2442 06d9 1e42
00000060: 4583 1042 e34a 2842 78c5 1e42 4908 1142
00000070: 3ed9 3042 b661 3442 a647 1542 4436 0b42
00000080: 10cc 1842 2fa1 2242 4e8a 1c42 8e01 3042
00000090: 0ee8 1642 62ef 0f42 5650 1842 15ea 0b42
000000a0: ac97 0142 df84 3742 4271 df41 64f7 2e42
000000b0: c7e7 0d42 6e1d 1942 3090 1e42 d198 d741
000000c0: 566f 1242 1d98 2942 88ef 1c42 25ab c541
000000d0: 19cd 3242 3f38 3b42 e2a2 3d42 fa9f 1642
000000e0: c302 1942 cd27 3242 dabd 1c42 dafa 0f42
000000f0: 1e30 2642 a2af 5342 be50 1242 bf4e 0c42
37.32305 37.14128 46.08529 44.18004 36.31506 12.806967 38.740833 45.161713
42.86637 38.37295 36.657944 28.441559 41.221622 41.34602 39.66036 37.34716
37.930466 39.089684 39.23917 38.54963 31.744394 35.667812 41.01202 39.711937
36.128193 42.07313 39.69284 36.25809 44.21215 45.09542 37.31997 34.802994
38.19928 40.657406 39.135063 44.00152 37.726616 35.983772 38.078453 34.978596
32.398117 45.879757 27.930302 43.741592 35.476345 38.27874 39.64081 26.949617
36.608727 42.39855 39.233917 24.708567 44.70029 46.804928 47.409065 37.656227
38.252697 44.538868 39.185402 35.994972 41.54699 52.921516 36.57885 35.0769

exp_avg f4 [64, 64]
00000000: 0400 0000 0400 0000 0400 0000 0400 0000
00000010: 0400 0000 0400 0080 0400 0000 0400 0000
00000020: 0400 0000 0400 0000 0400 0000 0400 0000
00000030: 0400 0000 0400 0000 0400 0000 0400 0000
00000040: 0400 0000 0400 0000 0400 0000 0400 0000
00000050: 0400 0000 0400 0000 0400 0000 0400 0000
00000060: 0400 0000 0400 0000 0400 0000 0400 0000
00000070: 0400 0000 0400 0000 0400 0000 0400 0000
00000080: 0400 0000 0400 0000 0400 0000 0400 0000
00000090: 0400 0000 0400 0000 0400 0000 0400 0000
000000a0: 0400 0000 0400 0000 0400 0000 0400 0000
000000b0: 0400 0000 0400 0000 0400 0000 0400 0080
000000c0: 0400 0000 0400 0000 0400 0000 0400 0000
000000d0: 0400 0080 0400 0000 0400 0000 0400 0000
000000e0: 0400 0000 0400 0000 0400 0000 0400 0000
000000f0: 0400 0000 0400 0000 0400 0000 0400 0000
00000100: 8f5f 503c 36f0 c03b ba30 453c 84c8 9d3b
00000110: 4c80 b43b 766e 00bb 344e e13b 64d6 033c
00000120: fe6b 673b 8859 2d3c 89aa 113c 8037 d23b
00000130: 3634 7c3c b3bf 133c f2e3 d73b c8b8 653c
00000140: 9de7 4d3c 7a9a ed3a f168 783c e106 533c
00000150: f488 853b 59fc 0b3c 5cff 163c 7228 843c
00000160: 1aca b13b 69b8 0e3c d356 123c c43f 823b
00000170: cb6c 323c e20c 163c bba1 a23b 5782 853c
00000180: 8098 b83b 617c 973c f9d8 573c ac3e ac3c
00000190: 27e5 953c bd54 123c fae5 0b3b 882d d73b
000001a0: 0d19 fb3b 7991 153c cb4f 9b3b 291d ca3b
000001b0: 7c83 263c df7b 1b3c 2cc1 b13b 4d37 18b7
000001c0: d9e8 473a 2ab9 2c3c 592a ec3b 0cd1 893b
000001d0: 733c 843b 4035 05ba c653 ee3b a0c2 f83b
000001e0: 3b88 1f3c 8faa 2a3c b99d 543b ce9e 5d3c
000001f0: d4b7 9d3b e73c ec3b b0e1 af3b 4444 6f3a
00000200: 0400 0000 0400 0000 0000 0000 0000 0000
00000210: 0000 0000 0400 0000 0400 0000 0400 0000
00000220: 0400 0000 0400 0000 0000 0000 0400 0000
00000230: 0400 0000 0400 0000 0400 0000 0400 0000
00000240: 0400 0000 0400 0000 0400 0000 0400 0000
00000250: 0400 0000 0000 0000 0400 0000 0400 0000
00000260: 0400 0000 0000 0000 0000 0000 0000 0000
00000270: 0400 0000 0400 0000 0400 0000 0400 0000
00000280: 0400 0000 0400 0000 0400 0000 0400 0000
00000290: 0400 0000 0400 0000 0400 0000 0000 0000
000002a0: 0400 0000 0000 0000 0000 0000 0400 0000
000002b0: 0400 0000 0400 0000 0400 0000 0000 0000
000002c0: 0400 0000 0400 0000 0000 0000 0000 0000
000002d0: 0000 0000 0000 0000 0400 0000 0400 0000
000002e0: 0000 0000 0400 0000 0400 0000 0400 0000
000002f0: 0400 0000 0000 0000 0000 0000 0400 0000
00000300: de15 7a3b f174 073b c4a9 a73b dd6a 053b
00000310: dcf3 393b f606 b03a 3b07 77bb b1fe 923b
00000320: 9931 a53b e5ae 953b 2302 933b 39fe 803b
00000330: fccc e23b 04d5 a63b b759 853b 344a 8a3b
00000340: e4aa 5c3b cf6c 8a3b 79cc 823b 6194 8d3b
00000350: c51b b13a 4fc6 de3b c8d8 453b 16b9 0eb9
00000360: 1d56 2bb9 bc4e 753b ef8c 713b 2700 693b
00000370: 144d 883b 14b0 8d3a 86bc 703b fe22 903b
00000380: acad bc3b caee 2f3b 0c2a 9939 fae3 993b
00000390: 09fd 863b afee 1e3b a74f 483b 650c 2a3b
000003a0: 7ced 993a ff98 9e3b 6a33 10ba 6b7e 9c3b
000003b0: 84f2 563b 43f3 513b 1705 133b a720 1d3b
000003c0: 10a6 aa3b 0e6f 943b 3916 5b3b 106b 2a3b
000003d0: 5a4b 873b 518a 663a 6dc2 8f3b 9134 2b3b
000003e0: c25a 073b a1df 663b 67de ab3b 9a19 5d3b
000003f0: 11e9 663b 79b6 303b e29b 863b 8720 403b
6e-45 6e-45 6e-45 6e-45 6e-45 -6e-45 6e-45 6e-45
6e-45 6e-45 6e-45 6e-45 6e-45 6e-45 6e-45 6e-45
6e-45 6e-45 6e-45 6e-45 6e-45 6e-45 6e-45 6e-45
6e-45 6e-45 6e-45 6e-45 6e-45 6e-45 6e-45 6e-45
6e-45 6e-45 6e-45 6e-45 6e-45 6e-45 6e-45 6e-45
6e-45 6e-45 6e-45 6e-45 6e-45 6e-45 6e-45 -6e-45
6e-45 6e-45 6e-45 6e-45 -6e-45 6e-45 6e-45 6e-45
6e-45 6e-45 6e-45 6e-45 6e-45 6e-45 6e-45 6e-45
0.012718095 0.0058880104 0.012035543 0.004815163 0.0055084582 -0.001959709 0.0068757776 0.00804672
0.003531217 0.010580428 0.008890756 0.0064153075 0.015393307 0.009017873 0.0065884525 0.014021106
0.012567428 0.0018127703 0.015161739 0.012880058 0.004075164 0.008544051 0.009216156 0.016132567
0.0054257037 0.008710959 0.008931833 0.0039748866 0.010890196 0.009158345 0.0049631274 0.016297502
0.005633414 0.018491926 0.013174289 0.021025978 0.018297745 0.008931336 0.0021346794 0.006566707
0.0076628984 0.009128922 0.0047397367 0.006168027 0.010163184 0.009489982 0.005424639 -9.072782e-06
0.00076259446 0.010542193 0.0072071967 0.0042058285 0.0040355264 -0.0005081482 0.00727317 0.0075915605
0.00973707 0.010416641 0.0032442643 0.0135266315 0.004813174 0.0072094086 0.00536748 0.0009127299
6e-45 6e-45 0.0 0.0 0.0 6e-45 6e-45 6e-45
6e-45 6e-45 0.0 6e-45 6e-45 6e-45 6e-45 6e-45
6e-45 6e-45 6e-45 6e-45 6e-45 0.0 6e-45 6e-45
6e-45 0.0 0.0 0.0 6e-45 6e-45 6e-45 6e-45
6e-45 6e-45 6e-45 6e-45 6e-45 6e-45 6e-45 0.0
6e-45 0.0 0.0 6e-45 6e-45 6e-45 6e-45 0.0
6e-45 6e-45 0.0 0.0 0.0 0.0 6e-45 6e-45
0.0 6e-45 6e-45 6e-45 6e-45 0.0 0.0 6e-45
0.0038160007 0.0020669068 0.005116673 0.0020357885 0.0028374111 0.0013429809 -0.0037693519 0.004485928
0.005041313 0.004567968 0.0044863387 0.0039365557 0.0069214087 0.0050913114 0.0040695327 0.0042202715
0.0033671195 0.004224397 0.00399166 0.0043206667 0.0013512304 0.0067985426 0.0030189026 -0.00013611125
-0.0001633991 0.0037430963 0.0036857685 0.003555307 0.004159579 0.0010809922 0.0036733462 0.0043987026
0.005758008 0.002684521 0.0002921376 0.0046963664 0.0041195196 0.0024251153 0.0030565055 0.002594733
0.001174375 0.004840016 -0.00055008254 0.0047758124 0.003279836 0.0032035864 0.0022433454 0.002397576
0.0052077845 0.0045298403 0.0033429994 0.0026003756 0.0041288557 0.00087944145 0.004387191 0.0026123861
0.002065346 0.0035228508 0.0052450183 0.0033737184 0.0035234133 0.002696423 0.004107938 0.0029316263

exp_avg_sq f4 [64, 64]
00000000: c299 8f37 2c04 6437 fc74 0837 6002 cb36
00000010: f5bd 0537 e36c af35 8d5a 6337 d55f 6437
00000020: 259c a637 9470 2537 a1c4 8f37 9142 4537
00000030: 8b0f 9537 0d07 6637 eaa5 1437 0fe4 8437
00000040: 45b4 9137 972d 4f37 0431 9437 50a8 7937
00000050: 0d96 a337 f8e5 2e37 0c0c 3037 c889 8d37
00000060: cc78 3437 0b08 fa36 bb9e 0e37 442e 6334
00000070: 7035 6f37 94bf 1d37 e227 a136 9cc5 aa37
00000080: 8a58 8937 b74b a937 2f9f 7637 fe8d 8337
00000090: 0924 9637 c2fe 4337 2b39 1937 e441 2e37
000000a0: b03a 5937 e047 0037 af2f 2237 9dfb 6837
000000b0: 0975 1137 c5c0 7537 e4dc a337 7887 e536
000000c0: bc77 4d37 3fa0 5237 18f2 0237 559b a034
000000d0: ac36 8137 fd62 8332 bdb5 e136 a141 8737
000000e0: f0af 3337 17d9 6537 d9f3 4837 1c54 7a37
000000f0: 8ed8 5837 8dc3 be35 0dd8 5137 a7e5 6f37
00000100: d7d9 1341 331e 0a41 e7ce e440 e210 c740
00000110: a3ed d640 027e 9d3f 2f65 fc40 693e 1141
00000120: 4e15 3741 f865 dc40 9fbc 2341 387e ed40
00000130: e8e3 1041 f06c 1041 3c47 d940 45fd 0241
00000140: 287c 1341 d47a 0041 8558 1541 2a29 0941
00000150: 9861 1741 d5fb d740 ef4a fe40 65f0 0d41
00000160: ea22 f840 163a dc40 c23f d140 caca fd3f
00000170: a884 1941 6605 f440 77dc b040 caa9 0641
00000180: 4251 1541 0293 1841 2bce 0641 14fa 1a41
00000190: bcc1 1641 0cf0 f740 462b cf40 38bd fb40
000001a0: 42e5 ea40 8bfa ea40 f1f2 c340 70d8 1b41
000001b0: eb72 c140 9e02 0541 4edd 2f41 608b b640
000001c0: 0e73 fe40 9399 0741 5764 e040 bcbe d63f
000001d0: cccb 2141 d880 a13f 8401 d940 d584 1541
000001e0: 3af1 fe40 805f 0341 a36a 0a41 4ed2 ee40
000001f0: 7a22 0741 7d2f a040 1c63 0041 6b93 0441
00000200: b3d3 7c1e c118 3c1e 0000 0000 0000 0000
00000210: 0000 0000 668a 971a 1fdf d21a cc4f 951b
00000220: 8b2c f01e 4058 211e 0000 0000 4e91 441e
00000230: de5e 1b1d c820 431e 9a65 021e 171e 091d
00000240: 7037 721d edc7 b11e 205f 1f1d 3007 171b
00000250: 40af 041f 0000 0000 2eae a51d 8ed3 621c
00000260: a132 c71c 0000 0000 0000 0000 0000 0000
00000270: 75ef 0b1f e939 de17 8a0a 381b 7620 ba1c
00000280: 9dbc 391d 623e 231d 0247 0f1d 5d55 2d1d
00000290: 2fca 401e 4087 fd19 b2c6 c31b 0000 0000
000002a0: 6d9b 0f1e 0000 0000 0000 0000 8b78 0c1c
000002b0: 13a6 091b 75fb 431c 5347 cc1f 0000 0000
000002c0: 9c5a de1b bf9d 8a1c 0000 0000 0000 0000
000002d0: 0000 0000 0000 0000 23de b01b 8bc4 cb1e
000002e0: 0000 0000 3b9e 6c1e 109d dd1e 8046 991b
000002f0: 9119 c71d 0000 0000 0000 0000 282c 381f
00000300: 631c 1141 1adc 0e41 1bae e640 7511 cb40
00000310: 8aa1 e440 8a05 ae3f eb7b 0341 d9cf 1341
00000320: 39cb 4341 e068 e740 4109 2841 c050 fb40
00000330: 3253 1641 2c0a 1641 27b0 e340 7f14 0641
00000340: 1c64 1841 c9b1 0941 5e31 1741 3fa2 0b41
00000350: 7a90 2141 8c6f df40 1e77 0241 9076 0f41
00000360: c7f9 0141 34b6 de40 8800 d640 c887 0240
00000370: 8cfe 2141 ed6a 0041 aa61 ba40 f05f 0841
00000380: d19a 1b41 4234 1641 4699 0941 894d 2441
00000390: 9691 1e41 0910 0141 9559 d440 67c0 0341
000003a0: 2765 f440 ae3e f340 c529 d340 7c3c 1f41
000003b0: 1c6b c640 a1a5 0b41 a427 3841 ab14 c540
000003c0: cf27 0541 38ca 0941 de1e e840 d78f df3f
000003d0: b77b 2d41 0b57 ae3f 8a29 d640 a712 1c41
000003e0: f190 0441 9df8 0741 eb58 1141 9545 fb40
000003f0: 7dd5 0e41 6202 a640 2ced 0741 6389 0a41
1.7118527e-05 1.359083e-05 8.133469e-06 6.050148e-06 7.971646e-06 1.3070206e-06 1.3551337e-05 1.3612172e-05
1.9861453e-05 9.860978e-06 1.713849e-05 1.1757614e-05 1.7769422e-05 1.371071e-05 8.860117e-06 1.5841824e-05
1.7369292e-05 1.2348776e-05 1.76658e-05 1.4880745e-05 1.9500987e-05 1.0424752e-05 1.0493222e-05 1.687267e-05
1.0756961e-05 7.451517e-06 8.500817e-06 2.1157854e-07 1.4257952e-05 9.4025345e-06 4.802817e-06 2.0357598e-05
1.6372902e-05 2.0181627e-05 1.4699805e-05 1.5682537e-05 1.7898174e-05 1.1682221e-05 9.132821e-06 1.038655e-05
1.2947872e-05 7.646129e-06 9.667055e-06 1.3886861e-05 8.669923e-06 1.4648021e-05 1.9533974e-05 6.8405025e-06
1.224683e-05 1.2554286e-05 7.804971e-06 2.991534e-07 1.5403457e-05 1.5295422e-08 6.7266797e-06 1.6123815e-05
1.0710195e-05 1.3700009e-05 1.1977704e-05 1.4920744e-05 1.2925024e-05 1.4213016e-06 1.2507674e-05 1.429898e-05
9.240684 8.632373 7.1502566 6.220811 6.7165084 1.230408 7.8873515 9.077737
11.442701 6.8874474 10.23355 7.4216576 9.055641 9.026596 6.7899456 8.186833
9.217812 8.029987 9.334111 8.57255 9.461327 6.749491 7.946647 8.87119
7.754262 6.8820906 6.539033 1.9827511 9.594887 7.625659 5.526912 8.416452
9.332338 9.535891 8.425334 9.686054 9.422298 7.7480526 6.4740324 7.866848
7.3404856 7.343084 6.123406 9.740341 6.045278 8.313139 10.991529 5.7045135
7.951545 8.474994 7.0122485 1.6776958 10.112255 1.2617445 6.781435 9.34493
7.9669466 8.210815 8.651034 7.463172 8.445917 5.005797 8.024197 8.285991
1.3384547e-20 9.957756e-21 0.0 0.0 0.0 6.267573e-23 8.7214436e-23 2.470155e-22
2.5429411e-20 8.541519e-21 0.0 1.0406202e-20 2.0563124e-21 1.0329993e-20 6.9031534e-21 1.8147355e-21
3.2057094e-21 1.8823291e-20 2.1092653e-21 1.249275e-22 2.809705e-20 0.0 4.3855234e-21 7.5050555e-22
1.3181803e-21 0.0 0.0 0.0 2.963247e-20 1.4361032e-24 1.5223529e-22 1.2316838e-21
2.4582057e-21 2.1605122e-21 1.8962603e-21 2.2940491e-21 1.0206206e-20 2.6214214e-23 3.2388448e-22 0.0
7.602498e-21 0.0 0.0 4.647791e-22 1.1386036e-22 6.484509e-22 8.6515357e-20 0.0
3.6785374e-22 9.17285e-22 0.0 0.0 0.0 0.0 2.926031e-22 2.157475e-20
0.0 1.2526457e-20 2.3464245e-20 2.5357286e-22 5.2701296e-21 0.0 0.0 3.900004e-20
9.06943 8.928736 7.208753 6.345881 7.144719 1.359544 8.217753 9.238244
12.237115 7.231552 10.502259 7.853607 9.395311 9.377483 7.115253 8.380004
9.524441 8.605905 9.449553 8.727111 10.097773 6.9823666 8.154081 8.966446
8.123481 6.9597416 6.687565 2.0395374 10.124645 8.026105 5.824422 8.523422
9.725297 9.387758 8.59992 10.2689295 9.910543 8.066415 6.6359353 8.234473
7.6373477 7.6014013 6.598849 9.952267 6.200575 8.727937 11.509678 6.158773
8.322219 8.61187 7.253768 1.7465771 10.842704 1.3620313 6.6925707 9.754554
8.285386 8.498197 9.0842085 7.852244 8.927121 5.187791 8.495403 8.658542

exp_avg f4 [64]
00000000: 0400 0000 bad6 593b 0400 0000 9b57 963a
00000010: a45c 9c3b 3d39 773a 0400 0000 7859 563b
00000020: 0400 0000 0400 0080 8f68 013c e485 f73b
00000030: 0400 0000 cfe3 243c 16c7 413c 3b32 8b3c
00000040: 69df 0c3c 0400 0000 0400 0000 0400 0000
00000050: 4669 2a3b a37d 0f39 2eda 903a 0400 0000
00000060: 5787 8c3c 0f81 433b 0400 0000 0400 0000
00000070: 8905 633c 0400 0080 0400 0080 0400 0000
00000080: 0400 0000 4ede 663c 0bf7 9c3c 0400 0000
00000090: 0400 0000 0400 0080 77e6 5e3b e01d 393c
000000a0: 0400 0000 1d54 453c 0400 0080 0400 0000
000000b0: 0400 0000 0400 0000 0400 0000 0400 0000
000000c0: 0400 0000 0400 0000 0400 0000 0400 0000
000000d0: 0400 0000 aabe 7b3c 0400 0000 a845 82ba
000000e0: 0400 0000 0400 0000 dcda bb3a 0400 0000
000000f0: 0400 0000 b9d6 0f3b 0400 0000 a30b 403c
6e-45 0.003323956 6e-45 0.00114702 0.004771786 0.00094308314 6e-45 0.0032707136
6e-45 -6e-45 0.007898464 0.007553803 6e-45 0.010064079 0.011827251 0.016991725
0.008598187 6e-45 6e-45 6e-45 0.002600269 0.00013684346 0.0011051351 6e-45
0.017154379 0.0029831564 6e-45 6e-45 0.0138563 -6e-45 -6e-45 6e-45
6e-45 0.0140910875 0.019160768 6e-45 6e-45 -6e-45 0.003401188 0.011298627
6e-45 0.01204398 -6e-45 6e-45 6e-45 6e-45 6e-45 6e-45
6e-45 6e-45 6e-45 6e-45 6e-45 0.015365282 6e-45 -0.0009938972
6e-45 6e-45 0.0014332193 6e-45 6e-45 0.0021948053 6e-45 0.011721524
