p1_navigation/DQN20190128_v11.pth (torch_old, 85243 bytes, 18 tensors)

hidden_layers.0.weight f4 [64, 37]
000000 bf 4f 04 3e 51 29 5d 3e 30 2c 22 be fe bd 99 be
       0.12921046 0.21597792 -0.15837169 -0.30027765
000010 d1 92 3a 3b b3 59 c9 3d 7f 3e 8e 3d 12 5f 97 3e
       0.0028468857 0.09831562 0.06945514 0.2956472
000020 6c 66 66 bd cb e9 10 3e 48 35 95 3d 4e ea 13 be
       -0.05625002 0.14151685 0.07285553 -0.14444849
000030 3c 86 db bd 90 f8 a1 bd 8e d3 0d be 17 ab bd bd
       -0.107189626 -0.07908738 -0.13850233 -0.092611484
000040 ab c3 37 3e ea 96 01 3e 0a c9 85 3c c7 32 03 bd
       0.17945735 0.12655225 0.016331214 -0.032030847
000050 0f bb 87 3e 3e 24 4b 3e 84 90 1b be 99 c9 d3 3d
       0.26509902 0.19838044 -0.15191847 0.10341186
000060 91 63 21 3d bf 03 cc 3d aa fc 4a 3e 86 45 96 bd
       0.039401595 0.09961652 0.19822946 -0.07337479
000070 9d f8 1e be fe cd ba 3d 4f 0d fd bd 0d 50 30 3e
       -0.15524526 0.09121321 -0.12356054 0.17218037
000080 10 86 54 be 63 dc 93 3e 03 97 ad bc 4a 03 07 be
       -0.20754266 0.2887908 -0.021190172 -0.13184848
000090 c2 e2 93 bd 70 13 62 3e a0 cd 45 3b 95 f6 42 bc
       -0.07220985 0.22077727 0.0030182377 -0.01189961
0000a0 52 81 e4 3a 1f 28 ba bd 48 b7 03 bd 84 a8 74 be
       0.001743356 -0.09089684 -0.032157212 -0.23892409
0000b0 54 27 10 be 89 9b fb bc 42 3d 08 be 80 79 17 3e
       -0.14077502 -0.030713813 -0.13304618 0.14792442
0000c0 b9 2d f6 bd 9b 84 a4 3d 15 60 ae bd 0e e2 48 3e
       -0.1202044 0.08033105 -0.0851442 0.19617483
0000d0 bf 84 5e bc 0d 59 06 be 6a c6 80 3e de 88 81 bc
       -0.013581454 -0.13119908 0.25151378 -0.015812334
0000e0 9e 9b 4c bc 26 e0 84 be 3a cf 37 be 37 96 66 bd
       -0.012488274 -0.25952262 -0.17950144 -0.0562956
0000f0 2c 9c 10 3e b6 88 23 3d c7 72 33 be 2a 85 8f bd
       0.14122075 0.0399253 -0.17524253 -0.07007821
000100 c6 89 4d 3e aa 96 ac bd a0 4e 64 be 7f 59 1d be
       0.20072088 -0.084271744 -0.22295618 -0.15366171
000110 49 93 0a 3e ea d8 87 3e e1 b4 70 be e5 fb a4 bd
       0.13532747 0.2653268 -0.235065 -0.080558576
000120 96 9c f9 3d a6 a3 87 3d 35 09 88 3e 58 cb 7a bd
       0.121880695 0.0662301 0.26569524 -0.06122908
000130 e7 d2 47 bd 0d eb 7f be a1 45 1b bc 3d 60 4d be
       -0.048785117 -0.24992009 -0.00947705 -0.20056243
000140 c1 dc 76 be ed c7 91 3d ec a2 81 3e e1 d7 08 bf
       -0.24107648 0.07118211 0.25319612 -0.53454405
000150 2a 13 53 3c 02 3f 50 be c5 43 3c 3e 94 7e 3d be
       0.012882987 -0.20336536 0.18385227 -0.18505317
000160 2f e3 c2 3d 09 f7 44 bc 51 c9 c6 bd 5b 65 2c 3e
       0.09515988 -0.012021788 -0.09706367 0.16835539
000170 e5 45 4d be cf 91 96 bd 49 5e d0 be 65 bd 0e be
       -0.20046194 -0.073520295 -0.40696934 -0.13939436
000180 46 a1 70 3e 5c 32 43 bd 97 56 99 bd 2f 18 05 be
       0.23499021 -0.04765545 -0.07487219 -0.12997507
000190 37 ac 59 3e 43 15 16 3e 04 09 92 be a1 4e fb bd
       0.21257101 0.14656548 -0.28522503 -0.12270857
0001a0 15 58 09 bf 0f 24 d4 bc 78 6b 94 3d 31 f5 c8 be
       -0.5365003 -0.0258961 0.072470605 -0.39249566
0001b0 56 fa 58 be 63 03 22 3e dd 26 32 bc b2 04 c6 3d
       -0.21189246 0.15821604 -0.010873524 0.09668864
0001c0 1e d2 29 be 99 1f 0c 3d 7e 25 8c 3e 53 48 bd be
       -0.1658406 0.03420982 0.27372354 -0.36969241
0001d0 71 2a 4b 3d be 21 a3 bd 31 ca 7b be c7 40 40 3e
       0.049601022 -0.0796542 -0.24588849 0.1877471
0001e0 cc 6b 14 be a7 dc d4 3d a5 04 ad bd 9c 49 c8 bd
       -0.14494246 0.103936486 -0.084481515 -0.09779665
0001f0 8f 99 9f be c7 53 93 bd 97 24 a9 3c 03 16 53 be
       -0.31171843 -0.07193714 0.02064733 -0.20613866
000200 ad 7a f7 3c cb e8 df bd 17 a0 c2 3d 82 e4 20 bc
       0.030209864 -0.109330736 0.09503191 -0.0098201055
000210 95 11 10 be 53 d2 c5 bd e9 f4 5a 3e 80 85 66 be
       -0.14069207 -0.09659257 0.21382488 -0.22511864
000220 4c 72 cf bd 51 c4 f0 3b 44 1a 99 3d d7 6b 3d 3e
       -0.10129222 0.0073476215 0.07475713 0.18498169
000230 2d 2b 0d 3e 67 c3 1d 3e 67 ae a0 3d 35 18 32 bc
       0.13786002 0.15406571 0.078457646 -0.010870029
000240 33 34 ab be bf 7b 42 be 43 a0 11 bd 64 88 6c 3b
       -0.33438262 -0.18992518 -0.035553228 0.0036092037
000250 f4 41 8c bd 12 97 28 be 7b ed e0 bd b3 59 9c bd
       -0.06848517 -0.16463879 -0.10982796 -0.07634296
000260 4d 6e d4 3d bd df 17 3e 3a 8e 8d 3c b2 a0 46 bd
       0.10372601 0.14831443 0.017279733 -0.048493095
000270 43 f8 0f 3d e4 29 5d be 41 0e 43 be 8a bd 84 3d
       0.03514887 -0.21598011 -0.19048406 0.06481464
000280 9c 8c 95 3c d4 b7 bb 3b f9 a6 af bd 1b e4 83 be
       0.018255524 0.005728701 -0.085767694 -0.25759968
000290 87 da 0a be 55 65 77 3e 68 57 3a 3d 9b e9 1a 3d
       -0.13559924 0.24159749 0.045493513 0.03782044
0002a0 91 27 1f be 58 5d cc 3b 0d a7 51 3e 43 5a 1a be
       -0.15542437 0.0062367134 0.20473881 -0.15073495
0002b0 f2 b8 39 3e 0d 1f 85 3d 03 4e ff bd 96 b5 0d 3e
       0.18136957 0.06500063 -0.124660514 0.13838801
0002c0 44 6f d1 bd 58 59 fb bd 0b 2b 4b 3e cd 05 1b be
       -0.102263 -0.122729 0.19840638 -0.15138932
0002d0 ac 0f 98 3d ce a3 00 be 53 0c a7 3d a1 84 bd bc
       0.07424864 -0.12562487 0.081566475 -0.023134531
0002e0 f7 6c ae 3d 5a a2 0c bb 95 86 70 bd 50 ed 1a bd
       0.08516877 -0.0021459074 -0.058722097 -0.037823975
0002f0 da 44 d6 bd 38 ce a4 3d 14 83 01 3e d6 04 11 3e
       -0.10462351 0.080471456 0.12647659 0.14162001
000300 1d 7a 45 be 4b 45 29 bd cb b1 3d be cd 96 84 bd
       -0.19284864 -0.04132585 -0.18524854 -0.064740755
000310 33 d9 28 be 74 b7 0b bd dc fb fb bd 4a a8 28 be
       -0.16489105 -0.0341105 -0.12303898 -0.16470447
000320 5d ce 9c 3d c4 78 1e 3e 4d de a4 be 54 8e 90 be
       0.07656548 0.15475756 -0.32200852 -0.28233588
000330 af 2a f1 bd d2 9d aa 3d 56 7d b7 bd a8 70 72 3e
       -0.117757194 0.08330883 -0.08959453 0.23675787
000340 86 82 88 bd 6d 39 82 bd 4f 03 c2 bc c9 2f 0b bd
       -0.0666552 -0.06358609 -0.023683218 -0.03398112
000350 85 79 51 bd 81 04 3e bc 97 55 7e 3d 4c 39 35 3d
       -0.05114128 -0.0115977535 0.062093344 0.044244096
000360 73 d8 46 be 8c 41 4c 3c af a9 88 3c 78 0f 76 be
       -0.19418506 0.0124667995 0.016682474 -0.24029338
000370 6b 5f d8 bc ff 13 27 3e 45 77 c7 3c 45 32 5a 3d
       -0.026412686 0.16316222 0.024348864 0.053270597
000380 91 1b 34 be 3c f4 54 3e 3d ea 18 be 82 57 c7 3c
       -0.17588641 0.20796293 -0.14933105 0.02433372
000390 7b d1 6d bd f3 c2 eb bd d3 0e ee bb 5c c4 10 3e
       -0.058061104 -0.11511793 -0.007264951 0.14137405
0003a0 b2 95 92 3c 07 79 a0 3e 4f 58 76 3d 99 60 8d be
       0.017893646 0.31342337 0.06014281 -0.2761276
0003b0 ad 73 32 3e c1 13 66 bd 15 9c ec bc 25 8c 52 bd
       0.1742694 -0.056171183 -0.02888302 -0.051403183
0003c0 02 8e 80 3d 44 f1 8d 3e 78 08 58 be c1 97 36 3d
       0.06277086 0.27723134 -0.2109698 0.044578318
0003d0 ee ff a1 3d d8 67 9e bd 13 0a 89 3e 09 8f bf bd
       0.07910143 -0.077346504 0.267655 -0.09353454
0003e0 74 00 ba bd 1c e1 44 3d 3c fc 17 3c b1 e3 8c 3b
       -0.09082118 0.048066244 0.009276446 0.004299604
0003f0 4a cf 25 3e 4f c3 c3 bd 9b 70 8b 3d a8 25 0a be
       0.16192356 -0.095587365 0.06808587 -0.13490927

hidden_layers.0.bias f4 [64]
000000 3a 55 37 3e 65 43 ca bc 7c 90 02 be 36 fd 4d bd
       0.17903605 -0.02469034 -0.12750429 -0.05029031
000010 d8 92 35 3e 9a 79 8b bd 72 c6 20 bd e8 85 40 3d
       0.17731798 -0.06810303 -0.039251752 0.047002703
000020 d9 78 94 bd 17 81 32 be c5 bc 9f 3d 7c b9 e3 3c
       -0.07249612 -0.17432056 0.07799677 0.027798407
000030 74 30 65 3e ba 56 6b 3d 47 7e 43 bd 13 63 b9 bd
       0.22381765 0.057455756 -0.04772785 -0.090521
000040 10 ba 44 3d 16 23 d6 bd a5 63 08 bd 14 34 39 be
       0.048029006 -0.10455911 -0.033298153 -0.18086272
000050 d7 fb a4 bd 7e 8d 3c 3d ef 22 00 bd f7 36 11 be
       -0.08055847 0.046033375 -0.031283315 -0.14181124
000060 db 64 36 be b3 41 ea 3d e5 cc 33 bd b4 01 0f be
       -0.17811911 0.114383124 -0.043896575 -0.13965493
000070 7e 23 27 3e e0 eb fe 3d 13 2a eb bd 00 b7 de bd
       0.16322133 0.12447333 -0.114826344 -0.10874748
000080 5a 95 39 3e ee b1 b1 bc 39 82 04 be 71 80 7f 3d
       0.1812338 -0.021691289 -0.12940301 0.06237835
000090 ba 85 29 bd 06 2c 81 38 9c b2 77 bd 7b 43 1f be
       -0.041387297 6.159399e-05 -0.06047307 -0.15553086
0000a0 0a 7a ee bd 3e 1c 68 bc 40 fe ce bd 92 5e 37 3e
       -0.11644371 -0.01416689 -0.10107088 0.1790717
0000b0 89 b3 bb 3b ab 2e 21 be bb 96 05 3d c6 8b 1e be
       0.0057281894 -0.15740459 0.03261445 -0.15483007
0000c0 c0 a4 19 be 61 58 c8 3d 11 48 22 be 5c ef 35 3d
       -0.15004253 0.09782482 -0.15847804 0.044417724
0000d0 d2 b6 19 bd db 59 fe bd 2f 4e 29 be 4a 98 fa 3c
       -0.037527867 -0.12419482 -0.16533731 0.030590195
0000e0 e8 5d 6d 3c e0 50 90 bd 3d ba 10 be 82 fa 22 be
       0.014487721 -0.07046676 -0.14133544 -0.15915874
0000f0 40 fa c2 bb 45 bd 9f bc b1 a9 9a 3d 04 93 96 3d
       -0.0059502423 -0.01949943 0.07551897 0.0735226

hidden_layers.1.weight f4 [64, 64]
000000 b7 d7 03 be 36 bb 67 bc b0 58 f7 3d a1 a1 95 bd
       -0.12875257 -0.014143756 0.12077463 -0.07306219
000010 86 82 48 3d c2 2e 85 bd fa 63 e8 3b 95 35 87 bd
       0.0489526 -0.06503059 0.0070919963 -0.06602017
000020 f3 6d 67 3d dc 88 66 3d 0d 4b c7 3c 96 7e ac bd
       0.05650134 0.056282863 0.02432778 -0.08422582
000030 9b 22 99 bd 60 9a 4e bd 9f 71 9c bd 8d 6f de 3d
       -0.074773036 -0.050440192 -0.07638859 0.108611204
000040 64 c0 70 3d 93 0e 5e 3d 11 f7 cd 3a c2 c4 6f be
       0.058777228 0.054213118 0.001571389 -0.23414901
000050 03 18 16 be b3 d8 31 3e 15 20 ae bd 5d c8 b6 3b
       -0.14657597 0.1736782 -0.08502213 0.0055780844
000060 b2 00 a4 bd 04 c7 99 bd 22 86 c3 bd c2 17 29 bc
       -0.08007945 -0.07508662 -0.09547068 -0.010320606
000070 3d f5 bf bd 7c 89 13 3e d0 24 05 bd ec b3 74 bc
       -0.09372947 0.14407915 -0.03250581 -0.014935475
000080 28 82 eb bc 69 0b 1e be eb 7a cd bc 8c c0 0c be
       -0.028748587 -0.1543404 -0.025083026 -0.13745326
000090 fc b4 40 be a0 0b e8 3d 6d c0 5a 3d a1 11 27 be
       -0.1881904 0.11330342 0.053406168 -0.16315319
0000a0 0c 0a 22 3e 0e bd 5b 3d 4e 7b 1d be e4 c1 1a be
       0.15824145 0.053647093 -0.15379068 -0.15113026
0000b0 a0 a7 7d be 9c 62 1c be 8f 23 df 3d 97 bf c4 3d
       -0.24770975 -0.15271991 0.10895454 0.09606855
0000c0 65 fe a8 bb ac ac 60 be 72 1f 8c bd 19 a3 00 be
       -0.0051572793 -0.21940869 -0.06841935 -0.12562217
0000d0 70 0d 80 ba 20 6f 98 bd cf 96 97 bd 18 6e 49 bd
       -0.000976963 -0.074430704 -0.07401811 -0.04917726
0000e0 dd 8d 30 3d e8 2a a2 3d bc ef 66 3c af 80 0c 3e
       0.04310404 0.0791834 0.014095243 0.13720964
0000f0 08 8d e0 bc b5 34 2e bc 3b 1c 19 bd 41 39 0a 3e
       -0.027410999 -0.0106326835 -0.03738044 0.13498403
000100 85 2a 47 bd cb 91 4e 3d e7 d8 06 bd da 27 a7 bd
       -0.048624534 0.050432008 -0.032921698 -0.08161898
000110 06 c6 08 bc d6 aa 87 bd c9 1c 5f 3c a9 eb 09 bd
       -0.008347994 -0.06624381 0.013617703 -0.03367201
000120 ee 2d 5d 3d 09 68 f8 bc ee 3b a6 3d 63 81 2e 3e
       0.05399888 -0.030323045 0.081168994 0.17041545
000130 88 5a bd 3c dd ff bb bd 21 d6 dc bc 8e fa 01 3d
       0.023114458 -0.091796614 -0.026957573 0.03173309
000140 ff 9e 24 bd 43 f6 60 3d 10 8b 0d 3d 2b 81 01 3e
       -0.040190693 0.054922353 0.03455645 0.1264693
000150 84 99 85 3d ae 78 d8 3d 24 e5 38 bb b5 6b d1 3d
       0.065234214 0.10569893 -0.002821275 0.102256216
000160 84 3e cb bd 0c 30 12 3e 78 72 18 bd 9b d2 93 3d
       -0.09924033 0.14276141 -0.03721854 0.07217904
000170 39 09 08 bd 10 fb 98 bd d8 2e 78 bd d7 04 ed 3d
       -0.03321192 -0.07469761 -0.06059155 0.11573189
000180 bb e9 da bd f8 6a 63 bb c2 18 4f 3d 56 15 a9 3d
       -0.10689112 -0.003470121 0.05056072 0.08256023
000190 b6 c5 b3 bd a9 d3 a8 bd f1 93 48 bd 0b 4c 48 3d
       -0.08777945 -0.08243496 -0.048969213 0.048900645
0001a0 0c ad 85 bd 20 a9 63 3d b6 67 59 3d f8 d2 af bd
       -0.06527147 0.055581212 0.053077422 -0.08585161
0001b0 21 d5 e1 bd 8e 8e af bd b7 68 5c bc 4c 73 b9 3c
       -0.11026979 -0.08572112 -0.0134527 0.022637986
0001c0 f4 e0 68 3d fb ff 3e 3d ec e5 0e 3d 62 86 93 3b
       0.056855157 0.04663084 0.03488724 0.0045021037
0001d0 46 3f 02 3d 7e d2 50 bd 45 14 58 3c 10 82 bf 3c
       0.031798624 -0.05098199 0.013188426 0.023377448
0001e0 25 df d9 3c 14 5d 6a 3d 6e 10 03 3d 6b c0 bd 3d
       0.026595661 0.057217672 0.03199809 0.092652164
0001f0 3e 67 c3 bd 31 29 c9 bd 18 f4 7d bc 91 2c 0c be
       -0.09541176 -0.0982231 -0.015500091 -0.13688876
000200 bb 50 bf bd f3 d3 42 bc db 44 cb bd 32 54 e5 3c
       -0.0934157 -0.011891353 -0.099252425 0.027994249
000210 24 a8 f8 3b c7 79 a5 bd c8 39 b0 bd 89 71 dc bc
       0.0075884033 -0.08079868 -0.08604771 -0.026909607
000220 12 a0 1f 3c 1c 1d 0c be be 92 86 bd 7a 65 05 bd
       0.009742754 -0.1368298 -0.065709576 -0.03256748
000230 85 72 eb 3c 84 77 92 3d aa ad 02 3e 18 bb cb ba
       0.02874113 0.07151702 0.1276156 -0.0015543429
000240 a5 47 6d bd c5 be b2 3c c9 34 ba bc 1a 05 29 bd
       -0.057929654 0.021819482 -0.022730248 -0.04126463
000250 bf 8a c5 3b 10 81 fc bd 8c ef 1e be 92 df 18 bc
       0.0060285027 -0.12329304 -0.15521067 -0.009330647
000260 3e 8a 4e bd 4d 88 03 be 66 a1 c5 bd 82 01 2d bc
       -0.050424807 -0.12844963 -0.09649925 -0.0105594415
000270 f3 0a 3c bd d0 31 16 be ef c2 6c bd 84 9d 0a 3d
       -0.04590888 -0.1466744 -0.05780309 0.033841625
000280 cc 47 e2 bd 49 dc 90 3c da c4 47 bd 5d 81 16 3d
       -0.110488504 0.017683165 -0.048771717 0.036744464
000290 cd b4 ca bc 67 26 00 bd 5f 53 84 3d 9d 00 58 3d
       -0.024744416 -0.031286623 0.06461214 0.05273496
0002a0 7b 68 49 3d 2a 32 0e ba 62 ea ea bc 38 be a7 3c
       0.049171906 -0.0005424345 -0.028676216 0.020476446
0002b0 83 a4 2a bb 4d 8f d9 bd 9e e8 97 3d b2 aa f8 bd
       -0.0026037998 -0.106230356 0.07417415 -0.121419325
0002c0 60 2a 61 bd 6a 4a d5 bd 76 09 dd bd 33 56 f0 bd
       -0.054972053 -0.10414584 -0.1079282 -0.11735191
0002d0 2e 45 27 be c9 4b 33 bc 28 71 80 bd 4b 47 19 be
       -0.16334984 -0.010943362 -0.06271583 -0.14968602
0002e0 d1 f3 9a bc 7e 37 57 bd d9 95 02 3d 85 13 87 bd
       -0.018915089 -0.052543156 0.031881187 -0.0659552
0002f0 5e f5 71 bd a1 51 7a bc ed 20 d5 3d 91 68 af bd
       -0.05907189 -0.015278251 0.10406671 -0.08564866
000300 86 26 9d bc 1c e9 90 3d 95 77 ab bd cc 7e 79 bd
       -0.019183408 0.07075712 -0.08372418 -0.06091194
000310 6b 08 a8 3d 00 63 00 be 79 b5 d5 3c 57 df a8 3d
       0.082047306 -0.12537766 0.02608751 0.08245724
000320 01 f7 1c bc ad 90 85 bc 39 19 2e 3c ae bf b3 3d
       -0.009580375 -0.016304338 0.010626131 0.087767944
000330 db 48 70 bc 03 31 43 be 8c ca 13 3c 2e 05 33 bd
       -0.014665808 -0.19061665 0.009020459 -0.04370611
000340 19 41 2d 3d a2 49 1f 3c ce 97 bf 3d 33 9b f1 3d
       0.04229841 0.009722145 0.09355126 0.1179718
000350 75 e5 78 bb 37 5e e1 bc 09 9f c2 bc 8a 72 d7 bd
       -0.0037978564 -0.027510745 -0.023757474 -0.105198935
000360 ae 5e ad bc ae 62 81 3c 8f b2 02 be c4 37 88 be
       -0.02116331 0.015794124 -0.12763427 -0.26605046
000370 1e 50 47 3d 99 1c c1 bd 4b 9f 3b 3d e5 1e d1 3d
       0.04866039 -0.09429283 0.04580621 0.10210971
000380 14 b2 03 be 7e df a2 3d d3 46 09 be 05 30 d1 bb
       -0.128609 0.07952784 -0.13405924 -0.006383898
000390 c9 3c 16 ba c9 eb de bd a0 d0 3c bc 65 d6 1f be
       -0.00057311036 -0.10884816 -0.011524349 -0.15609129
0003a0 4f 55 98 bd e8 42 e7 bc 88 8a fc bd 95 f5 0f 3e
       -0.07438146 -0.028230146 -0.1233111 0.14058526
0003b0 ae e2 6e bd e2 31 01 bd f4 2e 24 bc 7f f6 e9 bd
       -0.058321647 -0.031541713 -0.01002096 -0.114239685
0003c0 a0 c1 c7 3d 7b c0 b6 bd 70 08 cd bd 67 8e be bd
       0.09753728 -0.089234315 -0.10011375 -0.09304505
0003d0 3e 3f 80 3d 15 86 44 bb 6b ad 9b 3c fd 90 1b 3b
       0.062620625 -0.0029987146 0.01900359 0.0023737543
0003e0 37 f7 e0 bd 3b 75 28 3d d5 cf ac 39 73 72 06 bd
       -0.109846525 0.041127425 0.00032961243 -0.03282399
0003f0 e6 5b 53 bd 6a d3 c3 3d e5 89 83 3d 6f 51 de bb
       -0.051601313 0.095618084 0.06422786 -0.00678461

hidden_layers.1.bias f4 [64]
000000 08 2e 40 bd b4 48 62 3c c2 e6 c2 bd 84 9d 44 3c
       -0.0469189 0.013811279 -0.0951667 0.012000445
000010 60 6e db 3d 44 89 04 3e 74 44 fc 3c c3 d7 09 3c
       0.10714412 0.12942988 0.03079436 0.008413258
000020 e9 10 3c bb 18 95 35 bd a8 93 46 3d b9 97 d7 bd
       -0.0028696603 -0.04433164 0.04848066 -0.10526986
000030 74 4a 74 3d aa 5a 7f bb fb 1e c6 3d 13 14 1c 3e
       0.059641317 -0.0038963952 0.09673878 0.15242033
000040 5d 9f f9 bc 07 e3 af 3d 65 d6 8d bd 94 89 fa 3c
       -0.030471498 0.08588224 -0.06925658 0.03058318
000050 e0 0b fa 3c e2 c5 07 be 75 ad cd bc 12 2d 82 3c
       0.03052324 -0.1325908 -0.025107125 0.015890632
000060 3e 42 b6 3d 8c cd b3 bd e4 85 f2 bd b3 0b a4 bb
       0.088993534 -0.08779439 -0.11841944 -0.0050062775
000070 bd 82 c7 bd 36 5f 2e bc 57 ca 63 bd 23 80 99 bc
       -0.09741733 -0.010642817 -0.05561289 -0.018737858
000080 a5 b4 b6 bd 44 fd 2e 3d 54 e7 83 3c 40 b9 77 3d
       -0.08921174 0.042722 0.016101517 0.060479403
000090 92 58 c6 bd 5d 63 e4 3d 74 e3 d4 3d 92 3c 16 be
       -0.09684862 0.111517645 0.10394946 -0.14671543
0000a0 4a db 48 3d 50 16 d2 bd 10 45 28 3d 1c b7 4d bd
       0.049037255 -0.10258162 0.041081488 -0.050223455
0000b0 1d 28 23 bd b6 48 c8 bd 43 90 70 3d 17 fe 95 3d
       -0.039833177 -0.097794935 0.05873133 0.073238544
0000c0 83 ce 76 bd 4f 10 82 bd e9 14 9b 3d 16 0c 0b 3e
       -0.06025554 -0.06350767 0.07572348 0.13578829
0000d0 6c 59 f6 bd 4f 54 cd bd 88 80 a2 bd 04 27 c4 bd
       -0.120287746 -0.10025846 -0.07934672 -0.09577754
0000e0 03 f7 1a be 70 3c 7b bd 72 1e 66 bd d3 fc 84 bc
       -0.1513329 -0.061336935 -0.05618138 -0.016233837
0000f0 c2 df 8c 3b cd 75 19 3d dd cb 5b bd ce 6c d8 bd
       0.004299135 0.03746586 -0.053661216 -0.10567628

output.weight f4 [4, 64]
000000 4b a6 ca 3d ba d7 81 bc 1b 08 45 bc 37 02 8d 3d
       0.09894999 -0.015849937 -0.012025858 0.06885188
000010 ca 9e dd 3c d0 73 63 3b e9 56 e2 bc 78 1d e2 bb
       0.027053256 0.003470648 -0.027629333 -0.0069004856
000020 e1 7c a3 bc a8 d1 e8 3b 4c a0 1e 3d 06 84 89 bd
       -0.019957008 0.007105071 0.03872709 -0.067146346
000030 e1 24 40 b9 dd 2d 91 3e 9d 0d e2 3c 11 f3 ab bc
       -0.00018324285 0.28355303 0.027594382 -0.020989927
000040 56 69 2f be ec 04 ff 3c 2e ff 2c 3e 00 5d 41 3d
       -0.17130026 0.031130277 0.16894218 0.047207832
000050 df 68 2d bc f7 d0 39 3d ce a4 1f 3d ca 76 0f bd
       -0.010584085 0.0453653 0.03897553 -0.035025395
000060 ca cb 0e 3d 8e cb bc 3c df 56 bc 3d f5 83 c6 bd
       0.034862317 0.023046281 0.09196257 -0.096931376
000070 e0 f5 11 bd 60 c2 8d be b9 32 e6 3c 59 27 d2 bd
       -0.035634875 -0.2768736 0.028100358 -0.10261411
000080 37 24 35 3d e3 b5 1d bd af ab ed 3c 1a 47 1d bd
       0.04422399 -0.03850354 0.02901253 -0.038397886
000090 40 9e e7 bc 1b 89 3c 3c 03 41 f5 3d 07 ed a1 bd
       -0.028273702 0.011507298 0.119752906 -0.079065375
0000a0 30 aa ae bd 17 86 a9 3c fd 20 ca 3d fd b2 90 3d
       -0.085285544 0.020693822 0.09869573 0.07065389
0000b0 64 32 38 3d fb 17 17 bd 4a d1 16 bd 66 7a 8a 3b
       0.04496993 -0.036888104 -0.036820687 0.004226017
0000c0 3a 96 17 bd e4 69 0d bc 14 70 0c 3d 87 fa d2 3c
       -0.0370085 -0.008631203 0.034286574 0.025754226
0000d0 09 96 e0 bd 0c 0f 33 bc bd b9 14 bc 31 b9 85 3c
       -0.10966117 -0.01092888 -0.009077487 0.016323658
0000e0 50 07 8b bd 26 ff 74 be 36 a0 82 be c5 8a ca bc
       -0.06788504 -0.23925456 -0.25512856 -0.024724374
0000f0 1b 74 dd 3c 2d de af 3d 8c d0 1f bd 8b 98 4a 3d
       0.027032902 0.085872985 -0.039017245 0.049461883
000100 9e 1f aa bc 33 67 1c 3d a6 63 02 3c 52 b3 55 3d
       -0.02076703 0.038184356 0.007958328 0.052172966
000110 1d 3e a8 3d 01 a7 c9 3d e7 61 87 bc 42 76 35 bb
       0.08214972 0.098463066 -0.016526176 -0.0027688895
000120 d3 98 2d ba 19 1d 5e bd 76 39 fa 3d f4 ff 3d 3d
       -0.0006622199 -0.05422697 0.12217991 0.046386674
000130 13 61 14 3d 06 2b cd bc 7e e7 53 ba a8 9c 64 3d
       0.03622539 -0.02504493 -0.0008083506 0.05581346
000140 ab e0 53 3d b7 10 fe 3d 4e 46 9c bd 3b 33 b1 bc
       0.051727932 0.12405532 -0.07630597 -0.021630874
000150 b3 78 62 3d 56 47 e3 3c 15 d1 1d 3c fa cd ea bc
       0.05529089 0.027743977 0.009632369 -0.02866267
000160 2e dc 6c 3c 82 4d 13 3d 70 89 b9 bd fb 4a 52 bd
       0.014456792 0.03596259 -0.09059417 -0.05134104
000170 e3 68 0d 3d 0b 5c 75 bd f0 92 80 3d 5f bc 77 bc
       0.034523856 -0.059902232 0.06278026 -0.015120595
000180 8f 47 c0 bb 75 39 5a 3d e4 6f 62 3e 24 d5 6d 3d
       -0.0058679054 0.05327745 0.22112995 0.058064595
000190 86 38 3e 3d ff ae 65 3d 42 44 cf 3d c5 59 0f bd
       0.046440624 0.056075092 0.10120441 -0.03499772
0001a0 5d 52 38 bd cf 43 17 3c 82 fd 0a 3d 21 b9 43 bd
       -0.045000423 0.009232475 0.03393317 -0.047783975
0001b0 3b 01 63 bd 2e be ba bd 81 2c 2d be 5a 70 bf be
       -0.055421095 -0.09118305 -0.16911508 -0.37390405
0001c0 f6 a1 77 bd 84 2f af bd 84 a5 4f 3d 6a f3 5c 3d
       -0.060457192 -0.08553985 0.050694957 0.053943075
0001d0 9e 75 48 bd 4b b2 d3 3c 59 6f 0b 3d a5 93 4a 3e
       -0.048940293 0.025841853 0.034041736 0.19782884
0001e0 96 21 82 bd ff e8 24 bd 49 db 62 3d c5 3a 4e 3d
       -0.06354062 -0.040261265 0.055384908 0.050349016
0001f0 1b 64 ab be 27 8c 97 bd 22 ab 8d 3b 5a 94 08 be
       -0.33474812 -0.07399779 0.004323379 -0.13337842
000200 2e bc 0a be ba a1 14 bd 41 2a 5d 3b 6a fc bb bb
       -0.13548347 -0.036287047 0.003374711 -0.005736877
000210 05 db 0c bc b0 35 11 3d 6d f8 da bd c5 54 5d 3e
       -0.00859714 0.03545159 -0.10691915 0.21614368
000220 80 ca 2b 3d dd c1 15 be 37 60 0f 3e 51 84 c3 3c
       0.041941166 -0.14624734 0.14001547 0.023866804
000230 31 d2 6e 3d 32 fa 9d bc 00 23 4b 3e 1e 5d 4c 3c
       0.058305923 -0.019284341 0.1983757 0.012473373
000240 01 aa e9 bd eb af e7 3d 67 fc f7 3d aa b0 61 bd
       -0.11409379 0.113128506 0.12108689 -0.05510012
000250 29 3d 3f bd 43 ce 71 3e 7d e9 40 be e9 1a c6 3d
       -0.046689186 0.23613839 -0.18839069 0.096731015
000260 73 71 d9 bd c4 d0 1c 3d 30 6a cb 3d 9f 10 3a bb
       -0.10617342 0.038285032 0.09932363 -0.0028391255
000270 fc f4 f3 bc 32 9d a4 3d 06 65 56 3c 2e 72 4a 3d
       -0.029779904 0.08037795 0.013085609 0.049425296
000280 78 76 6a be 7f 92 e8 bd 1d e9 82 3d e6 ad ea 3b
       -0.22896755 -0.11356067 0.06392119 0.0071618436
000290 73 a4 5a 3c 9d 2e 86 3c 08 99 86 3d 0c 50 9d bc
       0.013344872 0.016379649 0.06572157 -0.019203208
0002a0 bf fe a0 3d 5a 61 22 be 87 2d 10 bc 4e 8c c7 bd
       0.07861089 -0.15857449 -0.008799917 -0.09743558
0002b0 51 01 5b bd f9 f8 b4 3c a5 92 63 3c 1b ad 8d bc
       -0.053468052 0.022091376 0.013889943 -0.017294457
0002c0 f7 4d a2 bd 46 18 50 bd e9 12 19 bd 53 33 93 ba
       -0.07925027 -0.0508044 -0.03737155 -0.0011230506
0002d0 2c ba 98 bd b9 8a 1b 3e 9c 6e 26 be 99 66 d2 3d
       -0.074573845 0.15189637 -0.16253132 0.10273475
0002e0 24 9a a2 bc 6f 0b 53 be 1b 1b 1a 3e fd 97 a2 3d
       -0.01984889 -0.2060983 0.15049402 0.07939146
0002f0 fe d9 1a bd 8e 2d d1 3a 3d b1 8a 3e af d7 59 3d
       -0.03780555 0.0015959011 0.27088347 0.053184208
000300 bc 1f ca 3c c4 74 a8 bd d5 b8 3b 3e 93 f3 d0 bd
       0.024673335 -0.08225396 0.18332227 -0.10202708
000310 f1 e2 39 bd 29 7f eb 3d c3 7c 4f 3d 40 ba 43 bd
       -0.045382444 0.11498863 0.05065609 -0.047785044
000320 1d 60 6b be 6e 64 59 bd dd 42 9e 3d 7d cc 4b 3e
       -0.22985883 -0.053074293 0.07727597 0.19902225
000330 dd 14 8a bd bf 7e 9f bd 93 f9 ad 3b dc 1e 1f 3c
       -0.067422606 -0.07787847 0.0053092926 0.009711947
000340 b5 0e ef 3c d5 91 1b 3d d4 3c 97 3d 99 c7 76 bb
       0.029181818 0.037980873 0.07384649 -0.003765559
000350 38 e2 62 bc d3 a1 05 3e ec 2c dc bc 81 91 56 3e
       -0.01384788 0.13050012 -0.02687689 0.20953943
000360 3e 95 7e 3d 83 55 f1 3d e5 8b 1c 3d e1 07 4d 3d
       0.062154047 0.11783888 0.03821935 0.050056342
000370 c6 96 67 3e 8c 30 6b 3c 2d ab 62 3d f2 12 8a be
       0.22616109 0.014354836 0.055339027 -0.2696758
000380 f0 98 09 bd e4 18 5a bd f8 e9 21 3e 65 2f 84 3c
       -0.03359312 -0.053246394 0.15811908 0.01613588
000390 79 57 18 bd 9c f7 0b 3d 24 22 a3 3d 50 a1 a3 bc
       -0.037192795 0.034171686 0.07965496 -0.01997438
0003a0 2e 31 1f 3d ca aa 5e 3e 8f cb 1c be f9 79 64 bc
       0.03886526 0.21744838 -0.15312026 -0.013945096
0003b0 d2 38 b7 bd 0c 8f 68 3d 9c 30 6b 3e 71 a3 56 3d
       -0.089463845 0.056777045 0.22967762 0.052401964
0003c0 73 92 72 3d a0 70 2c 3e 0f 14 74 bd 04 d6 46 3c
       0.059221696 0.16839838 -0.059589442 0.012135986
0003d0 fe a1 00 3e d1 61 17 3d e9 e5 db 3b e1 72 64 3e
       0.12561795 0.03695852 0.006710757 0.22309448
0003e0 74 27 8c be 7b 71 56 bd 6c 99 0c 3c d4 ae 43 3e
       -0.2737385 -0.052354317 0.0085815005 0.1910966
0003f0 84 96 79 be f9 2f 3d 3e f9 e1 9c bd b7 0c 3c 3e
       -0.24373823 0.18475331 -0.07660288 0.18364225

output.bias f4 [4]
000000 52 93 ea 3d ae 6b 96 3d 93 c1 06 3e 06 60 04 3e
       0.1145388 0.07344757 0.1315978 0.12927255

exp_avg f4 [64, 37]
000000 f1 63 8d b7 77 2e 32 37 8e d2 9e 37 ab e6 a9 38
       -1.6855049e-05 1.0620445e-05 1.8933115e-05 8.101513e-05
000010 99 43 c2 36 e4 63 9a b7 6d fe 75 37 ce 39 bc 38
       5.78952e-06 -1.8404746e-05 1.4662376e-05 8.9753055e-05
000020 f8 3b 01 37 a6 8e 49 38 8f 48 3d b7 c6 3c b1 38
       7.702962e-06 4.8054986e-05 -1.1282172e-05 8.4513376e-05
000030 c8 2b 35 37 b8 77 22 37 36 c1 a4 38 5b df d6 38
       1.0798634e-05 9.683827e-06 7.856118e-05 0.000102459184
000040 0c ad d9 36 10 3c 83 b7 7f f8 dc 34 03 33 f1 37
       6.4872493e-06 -1.5644386e-05 4.1158998e-07 2.8753193e-05
000050 1b 3d 63 b7 0a fc c9 b5 13 16 e8 38 84 96 ff b5
       -1.3544482e-05 -1.504902e-06 0.00011066734 -1.9042786e-06
000060 a9 38 81 38 d7 e3 06 b7 8a 29 ca 37 76 46 85 b7
       6.161753e-05 -8.0400705e-06 2.409962e-05 -1.5887646e-05
000070 d7 2b c4 38 bd 84 b9 36 63 6a a0 38 8d c4 46 37
       9.354174e-05 5.5288824e-06 7.6492106e-05 1.1847483e-05
000080 cc 82 0f 37 44 65 55 b6 6b 12 90 37 20 78 17 37
       8.553918e-06 -3.1798418e-06 1.7174714e-05 9.02827e-06
000090 31 75 8b ba 69 87 62 37 87 b7 a5 35 73 27 c0 b6
       -0.0010639784 1.3502177e-05 1.2346871e-06 -5.7266384e-06
0000a0 a2 d1 9a b6 29 92 ca 35 a3 28 ce b5 31 c8 01 36
       -4.613962e-06 1.5092711e-06 -1.5360023e-06 1.9339025e-06
0000b0 7d b3 ef 33 e1 6a 82 36 7a 2b ae 35 bb 7a 6d 36
       1.11619535e-07 3.8867443e-06 1.2976664e-06 3.538719e-06
0000c0 f2 aa 66 b6 82 6a 1d b4 0e 07 95 36 bd aa 28 b5
       -3.4372174e-06 -1.4660512e-07 4.4413673e-06 -6.2833334e-07
0000d0 85 d0 e3 36 74 82 68 b5 1c ac 61 b6 db 65 f6 35
       6.789402e-06 -8.661657e-07 -3.3627794e-06 1.8358072e-06
0000e0 00 bc 11 b6 32 ab 1d 36 f9 51 bf 31 46 ee 0d 36
       -2.1716114e-06 2.3494472e-06 5.568151e-09 2.114933e-06
0000f0 50 3c 9e b3 33 03 0e 36 f9 d4 dc 36 0c 75 ae b5
       -7.368419e-08 2.116151e-06 6.581304e-06 -1.2998075e-06
000100 f7 ff 0a b6 8e 2f 9f 35 7b a0 81 34 51 e7 a6 b5
       -2.0712594e-06 1.1860263e-06 2.4144887e-07 -1.2435286e-06
000110 11 a8 58 36 34 c0 1e 33 d1 57 1f 36 ee 60 88 36
       3.2284336e-06 3.696205e-08 2.3743962e-06 4.0644e-06
000120 0f e3 21 37 dc e4 80 38 af f9 58 37 e9 2a 50 b4
       9.649214e-06 6.146144e-05 1.2932737e-05 -1.938712e-07
000130 4b f7 8b b7 ca 92 85 b5 f1 c2 95 b6 f3 80 fb 34
       -1.6685246e-05 -9.951993e-07 -4.46324e-06 4.6846216e-07
000140 d2 bd a3 36 7d 8c 34 b6 82 ff fe b6 c6 72 2b 36
       4.8798765e-06 -2.6903865e-06 -7.599535e-06 2.5547793e-06
000150 26 62 d9 36 42 0b 8c 35 17 76 3f b7 7a 22 8d b5
       6.47853e-06 1.0434089e-06 -1.1411982e-05 -1.0515353e-06
000160 2f fd 1d b6 d0 91 28 b6 66 de fd b3 d6 5e 59 b6
       -2.3542195e-06 -2.5118825e-06 -1.18216846e-07 -3.2390722e-06
000170 68 ff 78 35 ee fd 0a b6 90 89 66 36 c2 a3 06 35
       9.2758864e-07 -2.071141e-06 3.4352743e-06 5.015719e-07
000180 22 26 8d b6 ff c2 9c b6 f4 2f 49 b2 7e 36 95 36
       -4.2065667e-06 -4.671863e-06 -1.1710643e-08 4.4468898e-06
000190 82 f0 18 b7 f7 89 fa 34 cf 6f 46 b5 50 de f6 b6
       -9.115904e-06 4.666651e-07 -7.392345e-07 -7.357252e-06
0001a0 6e 7a 51 b4 7a 3c b9 b3 95 a7 85 b6 1d bc 35 b5
       -1.9509181e-07 -8.6257344e-08 -3.983218e-06 -6.7701495e-07
0001b0 3d 8c 97 36 29 fb 61 37 c7 d0 98 38 ec 38 e4 b6
       4.5164766e-06 1.3469523e-05 7.2868126e-05 -6.801556e-06
0001c0 c7 52 84 33 49 46 af 36 f7 87 8e 37 7d a6 6e 35
       6.161786e-08 5.2235887e-06 1.6991033e-05 8.890418e-07
0001d0 0d 96 1d b5 67 8e 7a b4 ae aa 32 37 63 70 bd 36
       -5.870541e-07 -2.333487e-07 1.0649366e-05 5.6457225e-06
0001e0 9f 2d 02 36 51 50 00 37 45 11 2a 37 f6 e2 3c b6
       1.9398065e-06 7.648095e-06 1.01368105e-05 -2.8146292e-06
0001f0 f2 66 07 35 34 63 30 37 fa 25 ea 36 4d 97 73 32
       5.0441224e-07 1.0513515e-05 6.9781645e-06 1.4178863e-08
000200 67 0e 36 37 fc fb 1e b6 24 b4 95 36 d4 a6 e8 b5
       1.0851399e-05 -2.369051e-06 4.461517e-06 -1.73339e-06
000210 e5 c2 c4 35 12 1d 39 37 5e fd 9d 36 fc 1f fe 36
       1.465986e-06 1.1033628e-05 4.7084604e-06 7.5735134e-06
000220 2e 52 04 36 9b 9b 87 b5 44 e9 68 36 dd 43 39 37
       1.9717368e-06 -1.0103571e-06 3.4706472e-06 1.104266e-05
000230 ec 38 c2 b4 9c fb 49 37 22 b8 b6 34 19 46 ba 35
       -3.6176732e-07 1.2039116e-05 3.4034116e-07 1.3878481e-06
000240 22 29 e5 35 92 f7 df 35 4b 84 02 37 32 ce ad b8
       1.7073801e-06 1.6686847e-06 7.779406e-06 -8.28769e-05
000250 d4 f8 06 37 fc 11 a0 36 d2 ec 20 b7 17 ca 68 b6
       8.044957e-06 4.7704652e-06 -9.591882e-06 -3.4688326e-06
000260 d2 3b 0a 36 7b 16 c9 b6 65 0b ae 36 23 b7 31 37
       2.0598422e-06 -5.992884e-06 5.1869306e-06 1.0592662e-05
000270 1d 4f 28 b7 8d a1 bf 36 05 31 48 b7 e6 17 1d 37
       -1.0032e-05 5.7110506e-06 -1.1932342e-05 9.3634935e-06
000280 98 79 10 36 9b 4d 37 34 3b 97 fb 36 cb 7a 3c b6
       2.152845e-06 1.7071436e-07 7.4979885e-06 -2.8085658e-06
000290 42 66 7b 36 99 09 42 32 2f 47 a0 b5 19 fc 93 b2
       3.7461436e-06 1.12944685e-08 -1.1941646e-06 -1.7227693e-08
0002a0 61 e0 48 36 31 ba 7f 36 6e cc 54 b6 1e 22 82 b6
       2.9932928e-06 3.8106339e-06 -3.1709455e-06 -3.8782737e-06
0002b0 59 aa a1 36 2a fc 95 35 66 90 82 b5 63 6d 52 36
       4.818005e-06 1.1174754e-06 -9.72778e-07 3.135611e-06
0002c0 5f 99 6c b6 9b fa ac b6 94 ed 69 b6 96 0b 7b 36
       -3.5256014e-06 -5.1551738e-06 -3.4857994e-06 3.7408658e-06
0002d0 5f a3 bf 36 67 6d d0 b6 d7 fd e5 34 fd 78 19 b7
       5.7112625e-06 -6.211619e-06 4.2839267e-07 -9.14768e-06
0002e0 19 05 74 b8 45 9a a7 b6 08 59 c5 b5 82 bc 25 37
       -5.817888e-05 -4.994947e-06 -1.4703555e-06 9.878657e-06
0002f0 08 1b 94 34 04 32 a7 35 d4 18 80 36 68 24 75 b6
       2.7586816e-07 1.2457026e-06 3.8175876e-06 -3.6529036e-06
000300 8b e7 95 36 ae 1f 7d b5 6f de 44 35 83 fe 10 37
       4.467501e-06 -9.4295945e-07 7.3339373e-07 8.642327e-06
000310 a0 5c 0b b6 c4 6e 90 35 34 a0 84 b6 cb b8 e2 34
       -2.076653e-06 1.0761073e-06 -3.9525567e-06 4.2230235e-07
000320 30 4c 15 b6 8a 08 9d 36 15 77 08 36 4c 9e 56 b5
       -2.2247077e-06 4.6799587e-06 2.0334894e-06 -7.9951565e-07
000330 00 74 1d 37 03 57 11 b5 ca f9 c4 35 0d 94 fb b4
       9.384938e-06 -5.414333e-07 1.4675836e-06 -4.6860114e-07
000340 c3 df 58 36 f8 a3 0c 36 4a 41 87 b6 e0 f6 29 36
       3.2316755e-06 2.0957068e-06 -4.030914e-06 2.5326663e-06
000350 67 ff c4 35 64 a0 79 36 39 53 52 36 1f 7c 74 34
       1.467747e-06 3.719725e-06 3.134088e-06 2.2769426e-07
000360 61 42 ab b5 da b8 83 36 59 f0 59 35 e1 b5 bb 36
       -1.2759812e-06 3.925624e-06 8.118855e-07 5.594208e-06
000370 37 98 3b b6 08 ed 0c 37 eb 28 90 37 6c bf 31 b8
       -2.7953772e-06 8.399838e-06 1.7185192e-05 -4.2378364e-05
000380 f3 27 b6 b6 0b a3 a2 b8 08 ac 44 b7 dd 33 f6 37
       -5.4286734e-06 -7.755131e-05 -1.17225645e-05 2.9349636e-05
000390 88 33 32 b8 8e c5 ec b8 4d dd 95 37 7b 0f 8c b8
       -4.24865e-05 -0.00011290154 1.7865235e-05 -6.678604e-05
0003a0 41 8c 20 b5 21 2b 90 b8 12 f1 29 37 dc 59 4d b8
       -5.980874e-07 -6.8744885e-05 1.01293135e-05 -4.8959497e-05
0003b0 ea f3 8e b8 bd b0 c7 b8 38 4f 37 b8 02 91 e5 37
       -6.81652e-05 -9.5219795e-05 -4.370438e-05 2.7366452e-05
0003c0 62 22 63 36 04 20 27 b8 b7 39 68 37 fe 78 0c 37
       3.384565e-06 -3.984572e-05 1.3841715e-05 8.372821e-06
0003d0 fd 7e 09 b9 10 4f 46 35 64 94 7c b8 3a 08 f0 35
       -0.00013112645 7.38758e-07 -6.021968e-05 1.7883788e-06
0003e0 b7 cc 2a b8 f0 bc e3 37 06 24 ca b8 d7 a6 c5 b6
       -4.0721814e-05 2.714849e-05 -9.6388205e-05 -5.89048e-06
0003f0 ff 9f ae b8 4d b5 23 b8 48 d4 14 37 96 51 b0 36
       -8.326768e-05 -3.9031078e-05 8.870913e-06 5.2547066e-06

exp_avg_sq f4 [64, 37]
000000 2b 3f b8 32 12 fa 0a 32 8a 4c ce 32 e0 b3 a1 32
       2.1449145e-08 8.089517e-09 2.4016362e-08 1.8824664e-08
000010 4f bf 2c 32 b0 16 e9 32 b4 2f 41 32 59 c3 b9 32
       1.0055216e-08 2.7135087e-08 1.1244925e-08 2.1625668e-08
000020 45 ad 73 32 a6 ce 46 32 ff 5a 05 33 b3 d7 ab 32
       1.41838585e-08 1.1572103e-08 3.1049236e-08 2.0005109e-08
000030 51 b1 1c 32 7f 1f 60 32 21 b2 a5 32 e6 fc 46 33
       9.120712e-09 1.3045677e-08 1.9289532e-08 4.6330477e-08
000040 79 aa 61 32 15 15 62 32 57 8a 6d 30 d4 21 a0 32
       1.3135485e-08 1.3159725e-08 8.641669e-10 1.8641835e-08
000050 c2 ba 77 32 8c e4 e4 31 12 cd 0e 33 65 4d a4 32
       1.4419756e-08 6.661656e-09 3.324846e-08 1.9127308e-08
000060 05 3d 27 32 aa dc c8 32 fc 4d 99 32 9f c8 66 32
       9.734554e-09 2.338341e-08 1.7847007e-08 1.3433378e-08
000070 95 6b 9b 32 5d 48 96 32 0a 50 07 33 c9 9b 5c 32
       1.8093298e-08 1.7495205e-08 3.1504932e-08 1.2841107e-08
000080 cd 61 f3 32 f2 f7 fa 30 d2 6b 60 32 d5 ba 26 33
       2.8333398e-08 1.8260364e-09 1.30630315e-08 3.881981e-08
000090 72 0e 5b 36 50 4f 30 33 8e 3e e8 30 45 3f 86 32
       3.2641951e-06 4.1050328e-08 1.6898001e-09 1.5628425e-08
0000a0 ab e2 a7 30 5c 33 27 32 c3 3e d1 31 95 53 fe 30
       1.2215272e-09 9.732357e-09 6.0898357e-09 1.8504688e-09
0000b0 fa 8d bc 32 ae e0 f1 32 82 6e c4 30 a5 e1 0a 33
       2.1950644e-08 2.8158265e-08 1.4292285e-09 3.233585e-08
0000c0 39 30 b9 30 d3 07 bb 32 9d 07 4c 31 a1 f4 83 32
       1.3474227e-09 2.1773223e-08 2.9690235e-09 1.5361652e-08
0000d0 2e f2 29 32 b4 77 4f 31 b2 f0 38 33 ec ac 3f 30
       9.89216e-09 3.0190508e-09 4.305975e-08 6.973113e-10
0000e0 9b cd 80 32 01 be 91 31 7c 63 ae 30 9a b0 84 32
       1.499466e-08 4.2416564e-09 1.2688441e-09 1.5447132e-08
0000f0 72 1d 1d 33 22 73 70 31 0c 9d 11 32 a0 35 2c 31
       3.658119e-08 3.4990042e-09 8.475819e-09 2.5059776e-09
000100 87 46 40 33 0e f0 7c 30 84 21 c3 31 21 31 f1 31
       4.4767628e-08 9.2018204e-10 5.6790572e-09 7.0196085e-09
000110 66 8c 4a 32 e8 22 27 33 08 4d 3b 30 ff fd 01 32
       1.178987e-08 3.8914465e-08 6.813967e-10 7.56654e-09
000120 a2 ae 8d 33 46 cd a9 35 e8 17 85 33 02 d9 16 31
       6.59759e-08 1.2651224e-06 6.1976436e-08 2.1951228e-09
000130 a8 66 09 33 39 c8 94 2f 88 0d e9 32 11 93 25 30
       3.1991163e-08 2.706331e-10 2.7130923e-08 6.0235644e-10
000140 39 13 85 31 25 a4 37 33 6e ba 54 33 6f 55 9b 30
       3.872995e-09 4.2757296e-08 4.9529653e-08 1.1302016e-09
000150 fb 7d 2b 33 9e f6 98 30 43 20 6a 33 c4 e0 e8 30
       3.992862e-08 1.1129548e-09 5.4511712e-08 1.6944104e-09
000160 05 44 e7 32 52 6f cd 32 b5 29 2c 31 76 e1 94 33
       2.6922871e-08 2.3915764e-08 2.5053002e-09 6.932798e-08
000170 46 13 21 30 09 2e 8c 32 fe db 98 30 3a 3c 87 30
       5.859885e-10 1.631908e-08 1.1121981e-09 9.83966e-10
000180 16 ad 5c 33 f5 48 3d 33 1e 71 09 32 4e f8 28 32
       5.1380162e-08 4.4071346e-08 8.000169e-09 9.835345e-09
000190 70 fa 84 32 92 f2 96 33 f1 02 3c 30 4a 8b 82 32
       1.5480708e-08 7.0290426e-08 6.839818e-10 1.5197333e-08
0001a0 98 19 3e 31 95 75 92 32 15 b7 9f 33 f2 da f6 30
       2.7663187e-09 1.7050107e-08 7.437317e-08 1.7961084e-09
0001b0 16 c5 37 32 f1 ff 3e 34 25 10 f9 35 8c e9 21 33
       1.0696814e-08 1.778824e-07 1.8556644e-06 3.7698143e-08
0001c0 9c 0a 4a 2f 61 05 c3 31 3f 55 c0 32 1a e6 d0 30
       1.8375562e-10 5.6758584e-09 2.2390507e-08 1.5199391e-09
0001d0 f8 4d c7 32 66 88 bf 30 60 71 9a 31 f5 8a 21 33
       2.3202105e-08 1.3935846e-09 4.494879e-09 3.7612114e-08
0001e0 57 be 05 31 bf dd 79 33 c3 86 a5 31 5a 24 1c 31
       1.9462243e-09 5.8176507e-08 4.8174527e-09 2.2721651e-09
0001f0 0a de f5 2f 9e 64 62 32 4c ce d4 32 48 99 00 31
       4.472301e-10 1.3177809e-08 2.4773861e-08 1.8713582e-09
000200 b5 05 28 33 6b 1b 20 30 3e 73 01 33 0e b4 9f 32
       3.912074e-08 5.8246624e-10 3.0139965e-08 1.8591916e-08
000210 ec 28 80 30 05 a6 07 32 c2 b4 25 33 ec 41 3a 31
       9.324856e-10 7.895783e-09 3.8581454e-08 2.7104035e-09
000220 61 53 14 32 e5 f8 85 32 c8 c1 20 33 0f ae 96 31
       8.633692e-09 1.5596422e-08 3.7429146e-08 4.3853627e-09
000230 12 24 ad 32 6f 47 ff 32 23 0d ed 30 da 0c 12 33
       2.0156254e-08 2.9718391e-08 1.7247753e-09 3.4004962e-08
000240 9f f7 5a 30 6c 02 e5 31 72 c9 83 33 e4 30 db 35
       7.965983e-10 6.6650525e-09 6.1368056e-08 1.6331e-06
000250 50 32 66 32 ea b2 fe 30 ef 8e 2b 33 ca 8a 0a 32
       1.3399202e-08 1.8531783e-09 3.9944037e-08 8.064214e-09
000260 84 5a ef 31 40 fb 42 33 ca ed ff 30 4e 84 f5 31
       6.966106e-09 4.5397655e-08 1.8621276e-09 7.1454798e-09
000270 86 ee 08 32 19 5f 80 32 54 57 2e 33 65 82 bf 31
       7.970476e-09 1.4944407e-08 4.0591956e-08 5.5736558e-09
000280 32 fe 04 32 27 43 09 32 4f 29 10 32 b1 53 41 33
       7.741209e-09 7.989718e-09 8.391296e-09 4.501243e-08
000290 f2 3a 9c 31 47 e0 50 32 68 ee a4 30 52 a2 3a 32
       4.546899e-09 1.2158188e-08 1.200033e-09 1.0863532e-08
0002a0 38 bc 21 32 41 99 36 31 e3 8f 29 33 6b a2 3d 32
       9.414229e-09 2.65716e-09 3.9479243e-08 1.10381775e-08
0002b0 7c f6 c4 31 e6 c6 3c 33 38 00 b6 31 1e 6c 46 32
       5.732373e-09 4.3953058e-08 5.296922e-09 1.15497e-08
0002c0 0b ce 64 30 dc 66 96 32 cc 33 50 32 17 72 c0 31
       8.323872e-10 1.7509073e-08 1.2118971e-08 5.600906e-09
0002d0 23 98 3b 33 5c ff e9 2f 22 c7 83 32 4d e9 70 33
       4.3677698e-08 4.2563897e-10 1.5340962e-08 5.609154e-08
0002e0 e1 80 76 35 7b 48 04 32 67 c9 46 30 8f f0 37 32
       9.1829685e-07 7.699891e-09 7.231819e-10 1.0706699e-08
0002f0 0c 04 d7 30 b4 78 46 31 e8 36 ce 31 dc 55 94 30
       1.5644459e-09 2.8881404e-09 6.001631e-09 1.079282e-09
000300 cd af 51 32 98 65 ae 30 40 5e 33 30 3e 9a cd 31
       1.2205374e-08 1.2689041e-09 6.525376e-10 5.9838206e-09
000310 6e be 83 30 2f 94 51 32 05 00 ba 30 57 94 db 31
       9.585628e-10 1.2199094e-08 1.3533287e-09 6.390603e-09
000320 4d c4 cd 31 3c ef 4f 31 a4 80 3e 32 ae 03 f7 2f
       5.988602e-09 3.0258454e-09 1.1088705e-08 4.4931653e-10
000330 d8 6b 71 31 62 1f ca 31 dd f2 2d 30 6b a7 8d 31
       3.5131418e-09 5.8825416e-09 6.3282163e-10 4.1226733e-09
000340 50 20 2d 32 31 43 67 30 27 ee 9a 31 ca 37 0f 31
       1.0077272e-08 8.4132795e-10 4.5090647e-09 2.0840951e-09
000350 29 bf 67 32 eb 4f a2 2f 22 66 92 31 84 74 bf 31
       1.34894345e-08 2.9524413e-10 4.2607704e-09 5.572078e-09
000360 68 29 1b 32 34 31 c4 31 cd d1 b2 2f 85 d2 0b 31
       9.031602e-09 5.7099445e-09 3.2527084e-10 2.0346829e-09
000370 ed f2 b6 32 2c 40 71 35 eb 09 4b 32 a8 4a bd 32
       2.1298058e-08 8.987288e-07 1.181841e-08 2.2036446e-08
000380 02 48 b6 31 6c 6b 85 32 17 66 f9 31 1e 99 04 32
       5.3050835e-09 1.5532088e-08 7.25846e-09 7.718226e-09
000390 89 c9 cb 32 09 10 82 32 8d 42 20 32 d8 47 2e 32
       2.3723958e-08 1.5141284e-08 9.328358e-09 1.0144468e-08
0003a0 be 76 81 32 cd 32 8d 32 ba b6 95 31 ec 9d a2 32
       1.5071574e-08 1.6437662e-08 4.3572443e-09 1.8931097e-08
0003b0 4d c3 72 32 dd 86 ac 32 d2 25 c6 32 84 eb 45 32
       1.413066e-08 2.0084764e-08 2.3067432e-08 1.1520459e-08
0003c0 f2 28 8d 30 e6 05 3d 32 23 b0 ae 31 4e bb a4 31
       1.0270738e-09 1.1002589e-08 5.084091e-09 4.7943223e-09
0003d0 4d 32 25 33 02 8f 04 32 e6 73 11 32 21 53 e8 31
       3.8462804e-08 7.7159275e-09 8.466463e-09 6.7615393e-09
0003e0 84 f8 d4 32 8a 62 2e 32 21 12 63 32 d0 9f 05 32
       2.479306e-08 1.0150538e-08 1.3217261e-08 7.777956e-09
0003f0 20 1d 95 32 05 81 d4 32 77 22 53 32 64 b9 dd 30
       1.7359127e-08 2.473872e-08 1.2289653e-08 1.6132558e-09

exp_avg f4 [64]
000000 25 88 c4 38 a0 83 93 36 e1 cf a5 b6 a2 cf 81 37
       9.371367e-05 4.3962646e-06 -4.9415835e-06 1.5474685e-05
000010 cd b0 83 b4 65 94 77 36 05 db e2 b8 46 c8 74 b8
       -2.452929e-07 3.6892245e-06 -0.00010817315 -5.8360652e-05
000020 73 9b 44 b7 38 15 85 36 74 95 28 b7 f7 80 25 b7
       -1.1718704e-05 3.966179e-06 -1.0048378e-05 -9.864793e-06
000030 2d 84 db 37 ec 18 b4 b8 8f de 07 b7 13 c7 45 b7
       2.6168384e-05 -8.587711e-05 -8.0984455e-06 -1.1788466e-05
000040 6d af 98 37 19 6d 15 b7 99 d0 41 38 d5 4b 9a b8
       1.8201501e-05 -8.906493e-06 4.6209057e-05 -7.357417e-05
000050 03 75 3a 37 60 69 b6 b7 94 61 30 34 36 61 d4 b7
       1.1113708e-05 -2.174516e-05 1.6426776e-07 -2.5317637e-05
000060 8d 7e 80 37 c5 31 4f b7 e9 a4 a0 37 7f 5a 0b b8
       1.5317719e-05 -1.2349749e-05 1.9150279e-05 -3.3224464e-05
000070 0b 07 de 35 d5 92 97 37 46 30 79 34 fa 38 c1 b8
       1.6542339e-06 1.8068977e-05 2.3207494e-07 -9.21357e-05
000080 84 01 8e b7 47 ca aa 37 95 a9 85 38 05 7f 0c b8
       -1.6928425e-05 2.0359772e-05 6.373521e-05 -3.3496897e-05
000090 5f b9 59 b4 7b a4 26 37 29 80 4f b7 65 ac 20 37
       -2.0277137e-07 9.932667e-06 -1.2368001e-05 9.576882e-06
0000a0 b5 5a 97 38 8c 97 9f 37 d7 c0 a3 37 fe 80 99 37
       7.2171366e-05 1.9024847e-05 1.9520912e-05 1.8299088e-05
0000b0 5c 55 82 b7 22 93 fc b5 ab 5c 15 38 56 eb 3a b6
       -1.5536956e-05 -1.8818284e-06 3.5610672e-05 -2.7853143e-06
0000c0 9a 5a c5 b7 f4 66 4d 38 99 de a4 b7 dd ed 87 b6
       -2.352642e-05 4.897169e-05 -1.9653979e-05 -4.0510045e-06
0000d0 4e ec 40 37 0f d8 01 b6 35 98 8c 38 ee ce 38 37
       1.1499111e-05 -1.934826e-06 6.704071e-05 1.1015434e-05
0000e0 4e e2 7c b7 84 fd c0 b5 24 fa 73 b6 7b d9 ca b7
       -1.5073061e-05 -1.4378898e-06 -3.6355423e-06 -2.4181549e-05
0000f0 2a 0a 0e 37 5f b6 e8 37 12 37 50 37 89 80 f0 b7
       8.466226e-06 2.7741478e-05 1.2410588e-05 -2.8670083e-05

exp_avg_sq f4 [64]
000000 ef 09 a5 33 2f 87 7c 33 49 d8 cf 33 5a 3e 90 33
       7.685218e-08 5.879627e-08 9.678531e-08 6.716864e-08
000010 92 03 85 33 f0 23 b3 32 e3 cb 73 33 30 3d 56 33
       6.1939446e-08 2.0854685e-08 5.676328e-08 4.9881407e-08
000020 ea e3 30 33 16 9b 79 33 42 c1 e1 32 7d c6 f5 31
       4.118548e-08 5.811588e-08 2.6281331e-08 7.153004e-09
000030 35 09 ef 33 50 57 f3 33 ac 0a c0 33 88 aa 25 33
       1.11309795e-07 1.1331451e-07 8.942638e-08 3.8572153e-08
000040 24 44 12 33 15 c9 e4 31 58 28 f8 32 70 b0 86 33
       3.4055248e-08 6.6585337e-09 2.8889346e-08 6.271955e-08
000050 4d 36 97 33 60 4e 8a 33 fa 68 83 33 9c 87 d5 32
       7.041363e-08 6.440382e-08 6.119258e-08 2.4858132e-08
000060 1f e1 81 33 27 7d f6 33 5b 17 55 34 4f d2 88 33
       6.04798e-08 1.1478033e-07 1.9845668e-07 6.3712484e-08
000070 85 a6 c0 33 f4 0a bd 33 91 8f 5e 2e ca 4d e2 32
       8.9709864e-08 8.802991e-08 5.060447e-11 2.6345237e-08
000080 c6 e9 07 34 b2 c9 18 33 bd d0 cf 32 50 7c d6 32
       1.2657901e-07 3.55737e-08 2.4192895e-08 2.496941e-08
000090 b6 33 27 33 20 bf d4 33 2b e1 09 33 22 3a 4b 33
       3.892975e-08 9.906785e-08 3.2102587e-08 4.7317492e-08
0000a0 a9 5a af 33 a7 8f a0 33 d6 11 4c 34 cc 3a 9b 33
       8.1655635e-08 7.476711e-08 1.9005469e-07 7.228445e-08
0000b0 6b bf 76 33 51 d0 68 33 72 1e 34 33 2e 81 87 32
       5.7450432e-08 5.4206172e-08 4.1937206e-08 1.5774813e-08
0000c0 84 29 c0 33 a7 a1 7a 33 b4 ab 8e 32 45 42 7a 33
       8.9482484e-08 5.8354683e-08 1.6609057e-08 5.8267933e-08
0000d0 23 01 8c 33 fb 02 c0 33 f0 8c c6 33 92 4c 97 33
       6.519465e-08 8.941239e-08 9.24573e-08 7.0454135e-08
0000e0 86 f0 26 33 33 5c 7c 33 01 ec b7 33 20 19 8c 33
       3.886864e-08 5.8757177e-08 8.5645304e-08 6.523828e-08
0000f0 ee 34 b7 33 13 4a 2f 34 bd 03 b9 33 01 75 a9 33
       8.5312294e-08 1.6325093e-07 8.615414e-08 7.8909586e-08
