p1_navigation/DQN20190128_v1.pth (torch_old, 247167 bytes, 12 tensors)

hidden_layers.0.weight f4 [100, 37]
00000000: 04f5 d33d 415e 8c3d 77fa 32ba 55a6 1e3e
00000010: 9731 c0bd 9e44 6e3d 8ffc ce3d 781a 823d
00000020: f275 173e f49d a0bb 0ab2 e7bd 4e9d ddbd
00000030: 631c b83d e58e efbc 12cb 7ebd 9cdf 813c
00000040: da43 1c3e d933 113e 0c79 8dbc c882 7a3d
00000050: f609 a73c 1ac3 043e e718 0fbe 4a7b 0c3c
00000060: 99b2 ab3d 43b9 a4bd e7fe cebd bbf0 24be
00000070: 3959 f93d 44a2 1fbe 8cd8 f1bd 7601 eb3d
00000080: d5f7 f7bb a325 bfbc ad25 2cbd a11a d1bd
00000090: cc09 8bbd 5e15 c93d 277e cdbd 75e0 073e
000000a0: e8b1 ad3c 8f6d 0bbe 0853 a5bd aa61 b23d
000000b0: 23f8 a93c 06f2 d53d 6080 2abc fd25 88bd
000000c0: 8a1c 3b3c 62d1 08be a113 a4bb e081 56bc
000000d0: 0111 093e ff9e 92bd ab46 093e f519 d93d
000000e0: 81c4 253e 28af b43c 20e5 01be 842c b1bc
000000f0: bda3 193e 9332 f3bd 93de 643d 8bc7 0a3d
00000100: 4643 f9bd a3e9 c23d 5603 e93c db64 1f3c
00000110: 8e98 953d d99b 04be 98c6 103e 419b fabd
00000120: e608 163c d1aa 89bc 2245 1a3c 1e38 06be
00000130: 96eb ce3c a429 1fbe 7cae cf3d 8b45 bf3d
00000140: f0be 59bc 48e2 023d b3fa f03d 42d3 e43c
00000150: 324a eb3d 8a14 3c3c 6147 4e3d da25 c3bd
00000160: e551 c0bd ba19 93bd 1dd8 123e 1cc2 f2bd
00000170: 4cf0 523c 8112 823b 6548 8a3d 8ffb 193d
00000180: b308 0639 8462 24bd 8b4e d03c fce4 b03b
00000190: da18 83bd 283d 6e3d 6d74 0d3e 2640 1cbe
000001a0: f73d 6dbd 4d78 bbbd 5320 393d 5b2b 8c3d
000001b0: c2db 063e c49a 93bd a6d8 febc d7da ab3d
000001c0: 0d01 723d d2b1 b33d 8e03 afbd b691 1cbd
000001d0: 4e0b 85bd f114 a13d 3d42 0cbd eac5 0c3e
000001e0: 8699 093e 0b45 03be 54c8 1cbe c50c 613d
000001f0: 10e6 783d 2d90 e63d 1994 8c3d 0ba1 16be
00000200: f7e9 b23d 92da 043e f3bf 813d cda7 ea3d
00000210: bb27 bf3d 5614 09be eb44 d3bd 804a f93d
00000220: d166 1cbd b41c 243e 8404 36bc 0a60 0f3e
00000230: 1c34 05be 5a01 89bd 21a4 cd3c 1e59 f6bd
00000240: e11f de3d 97e9 9f3d ef9d 0c3e 617b 2bbd
00000250: 8794 0bbe 9952 bfbb 0cdf 25bd 5629 93bd
00000260: 8669 c03d aa44 203e e7be 913d ad58 c83d
00000270: 1f82 2fbc 5359 48bd ca6b 0d3d 98ed b43d
00000280: 6720 a33d 606c 8c3c 5bf9 1fbe cf87 afbc
00000290: 0ca6 1abd e881 bfbc b296 c03c f8da c6bd
000002a0: a324 8abd 4cbf 18bd f3b5 1ebe e018 013e
000002b0: 5752 d83d 4e0d 403c c575 c43d 1faf e6bd
000002c0: bf4f 133e 0c96 203e 24b3 b13d 7a34 b5bc
000002d0: b9a1 58bd ae5a b8bd 121c ec3c f631 71ba
000002e0: ac55 c33c dea9 a63d c437 6cbd 424a 18be
000002f0: db12 ab3d d08a efbd 77af 283e 84bb 993d
00000300: 111d 173e ac44 fcbd 25ce 16be 08de 93bc
00000310: bf5c f8bd a19d ffbd 7842 b93d b19a 7fbd
00000320: 7d5f 853c e493 c8bc 5c00 5f3d 12ef 9cbd
00000330: c65d 15be 035d 08be 1a1f 403d 15ca 203e
00000340: 9ed8 c43c 6755 82bd d502 2f3d f2e0 0cbe
00000350: e5a1 5bbd 95fc d2bd 148f 083e 971f 18be
00000360: 6222 49bd 11de abbc eb14 e83d 4f98 edbd
00000370: 5450 cc3d bd9d 4b3d 02b8 17be 1b33 b0bd
00000380: 05d5 fdbd 0ac3 f53d de29 6e3d a3f6 2abe
00000390: 006d 06be 8766 e4bc 1b60 4d3c 1e90 0abe
000003a0: 0606 aabd 07a1 8dbd 61ce 8abd a845 0d3b
000003b0: 5f1d 893d e4f4 92ba 8dd0 bcbb cf34 c03c
000003c0: 1694 08be c6d6 9f3d 1e6e 97bd 83c7 593c
000003d0: 944e 23be 7905 dc3d 6e05 1d3e 6d08 453c
000003e0: d4a4 9a3d a373 073e 2586 c53d 7179 5b3d
000003f0: ad5e 0e3d d407 9cbc 28b3 c9bd 4e72 2ebd
0.103494674 0.06853915 -0.00068274833 0.15493138 -0.093844585 0.058170907 0.101067655 0.06352705
0.14791086 -0.004901642 -0.11313255 -0.10821019 0.08989789 -0.029242942 -0.06220538 0.015853696
0.15260258 0.14179935 -0.017269634 0.06115988 0.020390492 0.1296505 -0.13974343 0.008574316
0.08383674 -0.08043148 -0.101072125 -0.16107456 0.12175221 -0.15589243 -0.11808881 0.11474888
-0.0075673857 -0.023333376 -0.042028118 -0.10210157 -0.06788978 0.098185286 -0.10033827 0.13269217
0.021202996 -0.13616012 -0.080724776 0.08710034 0.020748204 0.10446553 -0.010406584 -0.06647871
0.011420378 -0.13361123 -0.0050072228 -0.013092488 0.13385393 -0.07159232 0.13405864 0.10600654
0.16188242 0.022056177 -0.1268506 -0.021627672 0.15003867 -0.11874881 0.055876326 0.033881705
-0.121710345 0.09517219 0.028443974 0.009728636 0.07304488 -0.12950076 0.14138258 -0.122366436
0.009157395 -0.016805084 0.009415897 -0.13107345 0.02525882 -0.15543228 0.10140702 0.09339436
-0.013290152 0.03195408 0.11766567 0.027932767 0.11488761 0.011479506 0.05036104 -0.09528704
-0.0939062 -0.07182641 0.14340253 -0.1185343 0.012874674 0.003969491 0.067520894 0.03759342
0.00012782477 -0.040133014 0.025428077 0.005398391 -0.064012244 0.058163792 0.13813944 -0.15258846
-0.057920422 -0.09153805 0.045196842 0.06844207 0.13169768 -0.072072536 -0.031109165 0.0839135
0.059083033 0.08774151 -0.085456 -0.0382249 -0.06496297 0.078653224 -0.034242857 0.13747373
0.13437471 -0.12819307 -0.15310794 0.05494382 0.06076628 0.11257968 0.06864185 -0.1470987
0.087360315 0.12974003 0.063354395 0.11457787 0.0933375 -0.13386664 -0.103158794 0.12172413
-0.03818399 0.16026574 -0.011109475 0.1400148 -0.1300816 -0.06689711 0.025102677 -0.120287165
0.10845924 0.078082256 0.13732122 -0.04186571 -0.13630877 -0.005838704 -0.040495917 -0.071856186
0.09395127 0.15651193 0.0711649 0.097825386 -0.010712176 -0.04891331 0.034526624 0.0883438
0.07965165 0.017141521 -0.15622465 -0.021427063 -0.03775601 -0.023377374 0.023509357 -0.09709734
-0.06745269 -0.03729181 -0.15499096 0.12607145 0.1056258 0.011721922 0.09592775 -0.112638704
0.1438589 0.15682238 0.086767465 -0.02211975 -0.052888606 -0.09001671 0.028821979 -0.0009200865
0.023844562 0.08137868 -0.05767037 -0.14872077 0.08353206 -0.11696398 0.16473185 0.07506469
0.14757182 -0.123177856 -0.14727075 -0.018050209 -0.12127065 -0.12481237 0.09045881 -0.062403385
0.016280884 -0.024484582 0.054443702 -0.076627865 -0.14586553 -0.13316731 0.04690466 0.15702088
0.024029072 -0.063639455 0.04272731 -0.13757685 -0.05362119 -0.103020824 0.1333583 -0.148558
-0.049105056 -0.020979913 0.11332115 -0.11601316 0.09976259 0.049710978 -0.14816287 -0.086034976
-0.12394146 0.120000914 0.058145396 -0.16695647 -0.13127518 -0.02788092 0.01253512 -0.13531539
-0.0830193 -0.06915479 -0.06777645 0.002155641 0.06695055 -0.0011211899 -0.005762166 0.023462681
-0.1333774 0.07804637 -0.0739405 0.013292196 -0.15947944 0.10743231 0.15334103 0.012025935
0.0755097 0.13227706 0.09644727 0.053582612 0.03475826 -0.019046701 -0.098486245 -0.04258948

hidden_layers.0.bias f4 [100]
00000000: afe1 763d 31bb 8abd 6ca9 3b3d eee9 393d
00000010: 2f17 bb3d ad6b 35bb fc5b 413c 7f98 9cbc
00000020: 4bf6 b93c 7351 8abd 90e2 8cbd 1a02 143e
00000030: 723d e93d 2e4b d3bc 81f0 debc f9c1 d03d
00000040: 1ec1 81bd 2f1f ea3d 3de2 363c 6cd2 a3bd
00000050: f984 1bbd bb94 31be a697 1cbe bfd5 d53d
00000060: 7300 eebd ecf5 fbbd 941b 073e e8cf 15bd
00000070: 3d97 9b3c ee85 0fbe 2e19 0c3d f439 133e
00000080: b7de a53c 2e8c 24be 46b6 98bc 9c54 013e
00000090: f68e ca3d 64ce 0e3e 7bb5 7e3d c15a ca3d
000000a0: 9f84 c53c 6ab9 a3bb e3f6 82bd f8fd 2bbe
000000b0: 0f7f 89bd 0be1 a1bd 35f6 60bd ed54 51bd
000000c0: 2a1b 02be 9017 cdbd f538 223c 4700 05be
000000d0: 9528 063e 3a8f d3bd f4ab 2bbe 13f2 ae3d
000000e0: 73bf 613d b921 c43d 7716 75bd 9b5b 9c3d
000000f0: 62e4 cb3d 0ad4 803c 85cb ec3c 3116 4c3d
00000100: 5bdf 553c 42bc 103e 9f13 6c3c 4063 e8bd
00000110: edee 973d 3181 1fbe 16de 013e 2cb1 02bd
00000120: 893a 4a3d 3b0e 29bd a023 25be ffb1 bc3d
00000130: 9006 eabd ef92 fa3d 7a32 a83d ec66 29be
00000140: 1ce8 403c d44f 01be 1a20 7a3d 0e21 f33c
00000150: 4c1a 45bc 1634 a7bd 8596 0fbd b299 bf3d
00000160: 6232 dbbd 7aab d93d e613 c13c 4c36 f73d
00000170: 1c47 13bd 0c53 d2bd 3d11 01be 61f9 ca3d
00000180: 95c9 ae3d 77ef c6bd 970d b6bd 7889 2cbe
0.060273822 -0.06773985 0.04581587 0.04538911 0.09135281 -0.0027682588 0.011801716 -0.019115685
0.02270045 -0.067538165 -0.06879151 0.14453927 0.11388673 -0.025792684 -0.02721429 0.10193247
-0.06335662 0.11431729 0.011162338 -0.07999119 -0.03796861 -0.17341892 -0.15292224 0.104411595
-0.116211794 -0.12302765 0.13194114 -0.036575228 0.018993014 -0.14015934 0.0342037 0.14377576
0.0202478 -0.160691 -0.018641602 0.12629932 0.09890549 0.1394592 0.062184792 0.09880591
0.02411109 -0.0049964683 -0.06394746 -0.167961 -0.06713688 -0.07904252 -0.0549223 -0.051106382
-0.12705675 -0.1001426 0.009901275 -0.12988387 0.13101418 -0.10330053 -0.16764814 0.08542266
0.05511422 0.095767446 -0.059835877 0.0763466 0.0995567 0.015726108 0.02890564 0.04982585
0.01305374 0.14134315 0.014408975 -0.113470554 0.07418618 -0.15576626 0.12682375 -0.031907246
0.04937223 -0.041273337 -0.16126871 0.092136376 -0.11427033 0.122350566 0.08212753 -0.16543168
0.011774089 -0.12628108 0.06106577 0.029678848 -0.012030195 -0.081642315 -0.035055656 0.09355487
-0.10702969 0.1062841 0.023569059 0.12070903 -0.035956487 -0.10269746 -0.12604232 0.099108465
0.085345425 -0.09713643 -0.08889311 -0.16849315

hidden_layers.1.weight f4 [250, 100]
00000000: 3555 d1bc 373d a03d e35d 67bd 9a87 8f3d
00000010: 80a7 3dbd 8c86 a9bd 1364 b03d 830d a6bd
00000020: dd77 c9bc 2a3a 4f3d 0744 393d 26aa 9abb
00000030: 8db4 b33c 5d63 6ebd 849e 763d 655f d43b
00000040: 80ee 913d 3e5e 5f3c 9701 9cbb 2a73 8c3c
00000050: bdfc c93d fc99 1cbc 30ec 8e3c 7a29 d83c
00000060: 2951 9d3d e505 423d 9a1f 063c e6fc e23c
00000070: c0a3 0dbc 0e1c b63d a1c6 98bd a939 63bd
00000080: 06fc 49bd 0881 77bd ce4f aabd 5d20 c13d
00000090: daf3 713d 3f05 8bbd 6b94 adbd bc70 45bd
000000a0: 32ac 0ebd 6de3 70bd eb63 e1bb 81ce 1abd
000000b0: f82a c03c d185 c6bc 7c50 013c 923d 80bd
000000c0: 0520 b73d c290 87bd 1852 373c 0444 463d
000000d0: 5371 b23d 4b6d 0ebd 3afa 7c3d 4aa5 aa3d
000000e0: 7ad7 2d3d 1147 ddbc 04a9 c6bc 8f08 7c3a
000000f0: 7358 e7bc fe27 9c3c 0f7b 7a3d ae09 08ba
00000100: 7c77 bcbc 7cd4 423c d5c9 b6bc 1450 593d
00000110: 059b 0a3d 6512 98bd 6059 433d 7d27 0abc
00000120: 63d4 553d 8cee 86bd 39b4 9b3d 9d49 62bc
00000130: 0e88 94bd c8b6 c4bd 7cba 99bd 70e4 8f3d
00000140: a917 873d b6df 53bd b27f 693d 84a9 293d
00000150: bfe3 203d c1cc 29bc e80e a03d 0a3e 28bc
00000160: 6d62 96bc 5f3a c83c e09e 693a 2a79 07bd
00000170: c95d 55bd 4272 9ebd 799f 8a3d 3b6d 623d
00000180: c2f1 42bc ac94 be3c 819f 2bbc b5bb 67bd
00000190: 1ea2 b0bd af70 7a3c 2957 5cbd 7003 abbd
000001a0: afc1 b4bd cbf7 17bc 11a1 8dbb eb4a c63d
000001b0: 3913 bdbc 9f1f 653c 88f4 90bd 905f bd3d
000001c0: 2e67 823c 9118 963d ec17 c13c d0b5 a83b
000001d0: dfd6 a23d 08b3 083d 1a82 a03d 597f b73d
000001e0: 2fae 95bd 82cb d43c 3ced a5bd 12d1 0fbd
000001f0: b689 90bd 3b0b b93c 716b bd3d 3a3d 9dbd
00000200: 7d93 bebd bcc2 81bd 5299 bebd 3e90 67bd
00000210: 0161 a6bd a5be fd3c cadf 823d 5749 aa3d
00000220: 5e04 abbd 37a8 94bb 6398 553d 0f6c 973d
00000230: 384f 8bbd 6964 57ba af1a ca3b ba01 423d
00000240: e52d 56bd 6c2d fc3c 84f7 77bc f62c 5fbd
00000250: 04d8 823b 4b2c 083d a9d1 42bd 10c3 733d
00000260: 717a 81bd 6547 b73b 1093 07bd b47f 283d
00000270: 1373 aa3d f3ea a3bb e9a5 973d 0498 f5bc
00000280: 7891 523d ae2a 44bd 781c 443d 4671 1dbd
00000290: a19a 9abd 8783 b63d abf5 423d 597f 40bd
000002a0: d114 e7bc 719c 173d a97a bc3c 3b32 573d
000002b0: 5196 acbc ec18 893d de35 b13d 7ef1 573d
000002c0: f12a b4bd ad56 a5bd ab0d 6d3d 432f 903c
000002d0: 4839 2bbd 3275 0bbc 7b2d 533d 218f b83d
000002e0: 4ded dfbc 0123 0f3d 9d23 e33c 8633 c4bd
000002f0: 29ae ecbb 49af ca39 be17 b8bd d0bf 5dbc
00000300: ee9e 8dbd 9470 cbbd 76f9 a9bc 688a 093d
00000310: d246 393d 34fb 523d 7d82 6bbd 75cf 81bc
00000320: 5c5a 01bd 1611 083c 23ea 663d 9f2c 87bd
00000330: 3cf5 273d f1b0 903d e800 6e3c 2b24 ab3c
00000340: 970b 30bc 79ba 823c e6c6 bfbd c326 9d3d
00000350: 25df b6bd 70de 98bc 06d9 9c3d 4766 e53b
00000360: 1065 1d3d b127 9b3d 0f3b a63d e9f9 333d
00000370: 484a ba3a 9457 03bd 15e1 333d a65f b1bd
00000380: 6163 c03d 38c6 c43d e39c 0e3c 86c4 343d
00000390: 4043 2abc b84a dd3c 9938 a13c 5e7a 00bd
000003a0: 84eb 673c ae09 dbbc 8c4d 70bc 1521 b0bd
000003b0: 020b c5bd ce90 7b3d 02c5 5d3d f689 4b3d
000003c0: bbd2 8c3d 31ab 6cbd 2029 afbd e589 8bbd
000003d0: 354b 85bd 7c93 2bbd e683 d63c af1f c33d
000003e0: c882 153d 16cc 66bc e4d6 3fba c855 8cbd
000003f0: f90d afbc 356f fb3b f0d7 8b3d a843 903d
-0.025553325 0.07824176 -0.05648602 0.07008286 -0.04630232 -0.08277616 0.08612838 -0.08108046
-0.024593288 0.05059258 0.04523089 -0.0047199903 0.02193668 -0.05820023 0.060209766 0.0064810985
0.071255684 0.013633309 -0.0047609317 0.017144758 0.09862659 -0.009558197 0.017446607 0.026386965
0.07681496 0.047368903 0.008186245 0.027708482 -0.008644998 0.0889207 -0.074597605 -0.05547491
-0.049312614 -0.06042579 -0.08316003 0.09430001 0.059070446 -0.0678811 -0.08475574 -0.048203215
-0.034832187 -0.05881064 -0.006878366 -0.037794594 0.02345799 -0.02423373 0.007892724 -0.062617436
0.08941654 -0.06619407 0.011189006 0.04840471 0.08713021 -0.0347722 0.061762072 0.08332308
0.042441823 -0.027011426 -0.024250515 0.00096143124 -0.028240418 0.019062039 0.061152514 -0.00051894307
-0.023006193 0.011891481 -0.022313038 0.053054884 0.033839244 -0.074253835 0.047692657 -0.008432266
0.0522045 -0.06588468 0.07602734 -0.013811496 -0.07252513 -0.09605175 -0.07506272 0.07025993
0.0659631 -0.05172702 0.057006545 0.04142143 0.039279696 -0.010363759 0.07815343 -0.0102686975
-0.01835748 0.024441896 0.0008911919 -0.033074535 -0.052091394 -0.07736637 0.06768698 0.05527995
-0.01189846 0.023264252 -0.01047504 -0.056575496 -0.086246714 0.015285655 -0.05379406 -0.08350265
-0.08826005 -0.009275387 -0.004322179 0.09682258 -0.023080455 0.01398459 -0.07077891 0.09246743
0.01591834 0.073289044 0.023570977 0.005148627 0.0795114 0.033373863 0.07837315 0.089598365
-0.073086135 0.025975946 -0.081018895 -0.035111494 -0.07057516 0.022588363 0.092490084 -0.07677694
-0.09305475 -0.06335971 -0.09306587 -0.056534044 -0.08123971 0.030974695 0.063903406 0.0831477
-0.08350442 -0.0045366543 0.05214728 0.073936574 -0.06802219 -0.00082165614 0.0061677317 0.047364928
-0.052289862 0.030783378 -0.015134696 -0.054486237 0.003993036 0.033245366 -0.04756323 0.059512198
-0.06322182 0.0055932277 -0.033099234 0.041137412 0.0832273 -0.0050023734 0.07404692 -0.029979713
0.05140826 -0.047892265 0.047878712 -0.038438104 -0.075490244 0.089118056 0.04759757 -0.04699645
-0.028208168 0.03701443 0.023007708 0.052538138 -0.02106777 0.066942066 0.086528525 0.05272054
-0.08797253 -0.08073173 0.057874363 0.017600661 -0.041802675 -0.008511828 0.051557045 0.09011675
-0.027334834 0.03494549 0.027726943 -0.0958014 -0.00722291 0.0003865904 -0.089889035 -0.013534501
-0.06915079 -0.09933582 -0.020748835 0.03357926 0.045233555 0.051509097 -0.05749749 -0.015845994
-0.031580314 0.008304855 0.056375634 -0.06600308 0.041005358 0.07064999 0.014526583 0.02089127
-0.010744951 0.015958058 -0.09364109 0.07673409 -0.0892928 -0.018660754 0.076585814 0.007000718
0.03842646 0.0757593 0.08116733 0.043939505 0.0014212811 -0.032065943 0.043915827 -0.086608216
0.09393955 0.0960812 0.008704397 0.04413273 -0.01039201 0.027013168 0.019680308 -0.0313667
0.014155272 -0.026738014 -0.014666926 -0.0860006 -0.0962124 0.061417393 0.05414296 0.049692117
0.06876131 -0.05778045 -0.08552766 -0.06813411 -0.06508485 -0.0418887 0.026185941 0.095275275
0.036501676 -0.014086744 -0.0007318093 -0.06852299 -0.021368967 0.007673169 0.06828296 0.070441544

hidden_layers.1.bias f4 [250]
00000000: 5f03 073d 8734 6dbd 5045 f2bc ed78 613c
00000010: ec67 913d f492 94bd caa1 3abd e960 bfbd
00000020: 0263 81bc 92c7 b7bd 25cd 11bd d65a 613d
00000030: f0a8 45bc 8c09 4abb 06cb c8bd aed7 33bd
00000040: f01a a03d 3fab a73c 1154 80bd 522a f7ba
00000050: 8958 5bbc f9d0 b53d 0431 c7bd 8ee2 abbc
00000060: e4e5 653d ab3a 39bb 46f8 10bd 77ec ef3c
00000070: 92c6 30bd 8c66 9d3d 6d8f 493c a198 7c3d
00000080: daab 79bd b30e 133d dc88 b1bd eae9 c7bd
00000090: cdc6 66bd 1595 923d 62cf 80bd 8c83 933d
000000a0: dfa3 b03d 215c 5c3d 9a84 22bd adb7 b43d
000000b0: 4c9c 19bd 6547 f73c 4728 f33c 32fe 623c
000000c0: f57a 8e3d 94f4 8b3d c87c a13d 84cf 913c
000000d0: fe7f 8b3c 1401 b4bd 9cb4 683d 9692 123d
000000e0: 406f 26bd 6230 f73c fda3 903d 6656 923d
000000f0: f2f2 1fbd 68d2 3abd 4657 7c3d 38d2 7ebd
00000100: 6174 2fbd 35d1 cabc afa2 a7bc 65fd 53bd
00000110: e566 2f3d 8b2e 7ebd ad8d 22bc 0deb c13d
00000120: 2106 e23c 2a0e b2bc 2002 7d3d 56e7 be3b
00000130: 5b66 6b3d 8464 35bd 778a 913d a7c6 063c
00000140: e150 723d 40e8 b9bc c154 7a3d a085 2fbd
00000150: 188c 0abc 7acb 733d 9a27 cfbd 525e ab3d
00000160: 9793 343d 8ebc 7abd a0d0 753d 83d6 113d
00000170: 151b 73bd 24f7 fe3c 9c18 2d3d fae3 72bd
00000180: 0248 89bd 1072 39bd 1b73 a03d c7aa bc3c
00000190: 0258 0fbd e561 b9bd b36b bb3c 31ba 7abd
000001a0: 2e8e 38bb c464 a23b d332 3b3d f096 993d
000001b0: ce69 303c b3b5 6c3d a77b 703d 81a7 733c
000001c0: 37b1 893d de97 453d 2a81 0b3d 2460 dc3c
000001d0: 8001 0b3d f22a 92bd ebaa d1bd b34b 473d
000001e0: 23e2 12bd ad05 d1bd ba95 973d 08d7 82bb
000001f0: dcca 893b 2eda 0d3d 1604 c03d eba1 23bd
00000200: e2d7 5f3d f4b4 96bd 25ee d7bd 59b9 ae3d
00000210: a621 17bd bed9 c9bd cb3f a23d 9801 31bd
00000220: be53 c4bd 870e bbbd 4bfb 7cbd 889a afbb
00000230: 34d7 bbbd 6140 9abd a518 acbc 2caa 93bd
00000240: cdba b73d c2a5 d8bc 3f5f b83d e397 8f3d
00000250: f7b3 69bc 1278 543c 7890 9d3d 6b78 323d
00000260: a6a4 163d f1d4 80bb bf20 153d c476 1abd
00000270: 6ece 61bc 92fb a3bd fa4b 4cbd 094c 69bb
00000280: 7bf9 81bd a486 af3d 0d1b 7b3d 95a0 59bd
00000290: e65c 473d 4b08 dcbd 7199 6e3d 7222 463d
000002a0: b6df 16bd e442 433c f7b5 4a3d 00bc 85bd
000002b0: a84a ad3c 69fd 9cbd 36aa 503d b965 f8bc
000002c0: 1838 93bd 531f 213d 2721 2c3d 6db6 9dbd
000002d0: 50f2 95bc 0a77 91bc 1fff bbbd d121 b7bd
000002e0: da79 3abc 1b8f 063d eda2 21bd 8523 9dbd
000002f0: 1adf 0cbd 7136 063c 22a5 99bd 15ee cfbc
00000300: 13b6 553d d7c1 20bd ad54 a73d 1d1a 61bd
00000310: a169 303d 0d99 2a3d 1702 cdbc ddad 0b3c
00000320: 0729 74bd bd67 41bd dd94 2dbd 8410 67bd
00000330: 013a c0bd 61cb b7bd 1ba8 2b3d 0ef0 93bd
00000340: a566 8fbd 1118 ad3a b66c a3bd 206f 9c3c
00000350: fe55 14bd 07f1 7dbc f090 f2bc a8a5 2cbd
00000360: f39a ed3c e42a 63bd 0a1d 953d 7c24 9ebc
00000370: 2002 d0bd 7902 9d3d 0001 03bd 3548 e9bc
00000380: 048a 7f3d 7670 8dbd 1534 a23d 065a cfbd
00000390: 8a4f de3c 0ebc 9ebd d001 813c 1f59 ae3c
000003a0: 4b5e 223d c2ea cbbd 3f83 d1bd fffb 37bd
000003b0: 8c1e 593d 7567 a8bc 711c 963d 8759 8fbd
000003c0: f209 e73c 99e7 51bd c5a4 80bd 6b8c 9e3d
000003d0: fa68 3abc 0ccc 9b3d 5ef0 593d efbb cf3c
000003e0: 5939 b13d d039 2fbd
0.0329622 -0.057911422 -0.029574066 0.013761741 0.070999 -0.072545916 -0.04556445 -0.09344656
-0.01579428 -0.08973612 -0.03559603 0.05501827 -0.012064204 -0.0030828444 -0.09804349 -0.04390686
0.07817638 0.020467399 -0.062660344 -0.0018857217 -0.013387808 0.08877749 -0.09726146 -0.020982053
0.056127444 -0.0028263729 -0.035393022 0.02928756 -0.04315812 0.07685575 0.012302262 0.061668996
-0.060954906 0.03590269 -0.08668682 -0.097614124 -0.056341935 0.071573414 -0.06289555 0.07202825
0.08625006 0.0537988 -0.03967724 0.08824096 -0.037502572 0.03018541 0.029682292 0.01385455
0.06957046 0.06833759 0.07885128 0.017799146 0.017028805 -0.08789268 0.056812868 0.035784326
-0.04063344 0.030174438 0.07062528 0.071453854 -0.03905005 -0.045610815 0.061606668 -0.0622122
-0.042835597 -0.02475796 -0.020463316 -0.051755328 0.042822737 -0.062056106 -0.009921473 0.094686605
0.027590813 -0.02173527 0.061769605 0.0058259172 0.05747066 -0.044285312 0.07106488 0.008226073
0.059159163 -0.022693753 0.061115984 -0.042852044 -0.0084562525 0.059520222 -0.10114975 0.083675995
0.044086065 -0.061214976 0.060013413 0.035604965 -0.059352 0.031123705 0.042259797 -0.059299447
-0.067031875 -0.045274794 0.078344546 0.023030652 -0.03499604 -0.09051875 0.022878503 -0.061212722
-0.0028160918 0.00495586 0.045702767 0.07499492 0.010767413 0.05779047 0.058711674 0.014871479
0.06723254 0.048240535 0.034058727 0.026901312 0.033936977 -0.071370974 -0.10237678 0.048656177
-0.035860192 -0.10206161 0.07401605 -0.003992919 0.004205091 0.0346319 0.09375779 -0.03994934
0.05464924 -0.07358733 -0.10543469 0.08531446 -0.036897324 -0.09855984 0.07922324 -0.04321441
-0.09586285 -0.0913363 -0.06176309 -0.0053589977 -0.09171906 -0.075318106 -0.021007845 -0.07210192
0.08971176 -0.026446227 0.09002542 0.07011392 -0.014264098 0.01296808 0.07693571 0.04357187
0.036778115 -0.0039316346 0.036408182 -0.03771092 -0.013782127 -0.080069676 -0.049877144 -0.00355983
-0.06346413 0.085706025 0.061305095 -0.05313166 0.04867258 -0.10743769 0.058251802 0.048372693
-0.03683444 0.011917803 0.04948994 -0.06529999 0.021153763 -0.07665522 0.050943576 -0.030321943
-0.071884334 0.039336514 0.042023804 -0.077008106 -0.01830402 -0.017756958 -0.0917952 -0.08941997
-0.011381591 0.03285132 -0.03946202 -0.076727904 -0.034392454 0.008191691 -0.075022 -0.025382081
0.052175593 -0.03924736 0.081704475 -0.054956544 0.043069486 0.041649867 -0.02502541 0.008525339
-0.05960944 -0.047218073 -0.042378295 -0.056412235 -0.09386063 -0.08974338 0.041908365 -0.07223521
-0.07002 0.0013206025 -0.07979719 0.019095957 -0.03621482 -0.01549936 -0.029610127 -0.04215017
0.02900455 -0.055460826 0.072809294 -0.019304506 -0.10156655 0.07666487 -0.031983376 -0.028476814
0.06238748 -0.06906216 0.0792009 -0.101245925 0.027137537 -0.07750712 0.015747935 0.02128273
0.039640706 -0.09956886 -0.10230111 -0.044918057 0.053007647 -0.020557145 0.073296435 -0.06999498
0.028202984 -0.05124626 -0.06281427 0.07741626 -0.011377567 0.07607278 0.053207748 0.025358168
0.08653516 -0.042779744

output.weight f4 [4, 250]
00000000: f03a 80bb 2e50 58bc 5377 a43a 4c6d 043d
00000010: 4674 04bd 010b 833c 282f bf3c e0ef 943b
00000020: 27bf 723b 7e28 4839 d019 a7bb 20d0 d2bb
00000030: 87a8 a2bc 0370 873c 6917 e8bc e515 0a3d
00000040: 0457 0cbd a68d 1a3c e76e bdbc 1aea 64bb
00000050: f540 0f3d 6dfd f6ba b98d 04bd 1767 943c
00000060: 13a9 e73b 125d cc3c d0a8 163d a0df 93bc
00000070: 9dd9 523c 9d5a 4cbc 96c9 26bd a122 f6bc
00000080: 087e 10bd 2d38 bd3b f87b 14bd ec88 f03c
00000090: 1504 eb3b 2b61 5dbc 754f 84bc 5c8a 7c3c
000000a0: 1b9c 503d 6461 8bba 9bf3 09bd 74ac e03c
000000b0: 054c 183d b46e 8f3b fb6e 103d 2002 823c
000000c0: 13ce 96bc e7bd 533b 045f acbc 8256 963c
000000d0: e450 beba f218 66bc 3a0e c1bb 589a ca3c
000000e0: 06fe d93b 9317 bd3c ca7d ef3c e540 813b
000000f0: 174f 4bbb 71c4 11bc 651e cdbc 4b9a 083d
00000100: f193 033d b11a 08bd 89b7 273d c00d be3c
00000110: 3e71 c73c f63b f93b 7b16 2b3d 03c4 6c3d
00000120: fcc1 2b3c 71c8 41bc 9ecc 43bc 0dc9 98bc
00000130: d21c 86bc 5716 ee3b e33a b83b 33cc 153d
00000140: ab27 13bc db00 733c 2c7d 933c a2dc 4cbd
00000150: aa55 8cbc 80e3 243d b65c 53bd 882a 603c
00000160: 1dc9 a6bc 7fb1 6c3a 10cf 9c3c 4020 da3b
00000170: d99a 1f3d 66a6 fbbb d777 d63c 25d0 1c3b
00000180: e677 8abc 325b 52bc 0f89 0e3c 6321 d33b
00000190: 5a28 ff3c fea0 12bd 158b 47bc 134b 81bd
000001a0: a816 86bc fc5f b13a 5586 36bb 89a7 413b
000001b0: 0cd6 c93a e387 e4bb db5d b9bb 4535 e03c
000001c0: e391 36bc 1e82 1bbc be8b e53c 75ae 7f3b
000001d0: 7643 08bd b77a 83bc 86dd 57bc 2467 043c
000001e0: db00 ba3c 95e3 10bc a858 84bc 441a 273d
000001f0: 9236 1f3c b98b 1fbd 49f4 87bc 561e b9bb
00000200: 42e0 42bc 45de 283c 1b2c 8539 0d83 97bc
00000210: 402f 9f3c bedb b43c d323 b4bc 132d bbbc
00000220: 53d0 4e3d c7d6 02bd 4219 d3bc 089d 00bc
00000230: c766 c1bc c367 023b 65a9 30bc 54bd 93bc
00000240: 7e9d 323d 577a 19bd 74a3 113d 9dd1 223c
00000250: 5b76 c83b 5e79 57bc 0d27 3abb 2228 bdbc
00000260: 6bcb 25ba 34e2 fbbc 5f94 4dbc 60a1 aebc
00000270: 4d17 7d3b 5a71 04bd 77b9 0aba 8499 853b
00000280: 4f0b ddbb 044a ba3c a669 f23c 8ea7 b73c
00000290: 6ed8 ea3c c9f4 813c e6d1 9d3b 43fc 503c
000002a0: 623b e5bc e6ac 35bd 8a7b 8b3b 470e 6f3d
000002b0: 43e1 eebc 24b7 0fbc c148 bfbc 857a fabc
000002c0: afe6 853b f7e3 ab3b c88d 2fbd 682d 1b3c
000002d0: 01b1 973c a670 433c 4973 4a3c 81b3 29bc
000002e0: 8854 36bc 56bc 2cbc ccc0 c8bc dfd2 a4ba
000002f0: a2be d2bc 5ce4 0cbd f731 68bb c8d8 853c
00000300: 53b5 fe3a ef98 caba 497e 8a3b 1bae b03c
00000310: e48a 0cbb 20e6 6a3c ed42 f7ba 3740 01bd
00000320: bfc3 a73c 7fe5 dbbc 7261 263d d5e6 023c
00000330: 4514 b1bc 293a f6b9 3015 a8bc 0357 03bc
00000340: 2258 4f3c 08e4 89bc 1545 583c 282e 8c3c
00000350: a50b cd3c ce32 a43c b83d 30bd bfd3 c7bc
00000360: 3415 4dbc e34e c1bc 135f adbb 0b57 42ba
00000370: 5d88 e33c 8359 933c e811 8dbc caea 9fbb
00000380: 2d39 b03c 202f 433b 092c e5bb db35 693b
00000390: 3f0f 96bc 92c4 15bd d350 3d3d eb2e 8aba
000003a0: 2181 ef3b f3be f9bb 66be b63b feed 54bd
000003b0: 7884 f3bc e507 32bc 5159 d7ba 28d8 30bd
000003c0: 3f66 a83c 6c5a 60bc c968 febc 048e 123b
000003d0: 532f ebbb c96e 0f3c 471a 7fbc f44f 00bc
000003e0: 0620 9d3c 4fa7 80bc a268 86bb d6ae 9fbc
000003f0: 5ff5 a03b 5c9a 063d 385b 0bbc d586 8a3b
-0.003913276 -0.01320271 0.0012547768 0.032330796 -0.03233745 0.015996458 0.023337916 0.004545197
0.0037040205 0.00019088571 -0.0050995126 -0.006433502 -0.01985575 0.016532904 -0.028331475 0.033712287
-0.034262672 0.009433186 -0.023124171 -0.0034929574 0.034974057 -0.0018843837 -0.03236172 0.018115563
0.0070697158 0.024946723 0.036782086 -0.018050969 0.012869266 -0.012472776 -0.04071959 -0.03004581
-0.035276443 0.005774519 -0.03625104 0.029362164 0.0071721175 -0.013511936 -0.01615117 0.015413847
0.050930124 -0.0010633883 -0.033679586 0.027425982 0.037181873 0.0043772105 0.03526209 0.015870154
-0.01840881 0.0032309236 -0.0210414 0.018351797 -0.0014519957 -0.014044033 -0.0058915885 0.0247318
0.0066525964 0.02308253 0.029234786 0.0039445036 -0.0031022483 -0.008896933 -0.025038907 0.03335027
0.03212351 -0.03322858 0.040946517 0.023199916 0.02434599 0.007606025 0.041769486 0.05780412
0.010483261 -0.011827574 -0.01195064 -0.018650556 -0.016371164 0.0072658467 0.005622254 0.036571693
-0.008981626 0.014831747 0.018004023 -0.0500151 -0.017130692 0.040256023 -0.051602088 0.013682015
-0.02035957 0.00090291345 0.019141704 0.0066566765 0.038966034 -0.0076797483 0.026180191 0.0023927775
-0.016902875 -0.0128391255 0.0086996695 0.006443189 0.03114717 -0.035798065 -0.012179156 -0.063131474
-0.016368225 0.0013532634 -0.0027851064 0.0029549322 0.0015398874 -0.006974207 -0.0056569404 0.02736915
-0.011143181 -0.009491472 0.028020736 0.0039013897 -0.03326746 -0.016049726 -0.013175374 0.008081231
0.022705486 -0.008843322 -0.016155556 0.040796533 0.0097176 -0.03895161 -0.016595976 -0.0056493683
-0.011894288 0.010306899 0.00025400598 -0.018495107 0.01943171 0.022077437 -0.021989739 -0.022848641
0.050491642 -0.03194311 -0.02576888 -0.007849939 -0.023608578 0.0019898273 -0.010782574 -0.018034615
0.043607228 -0.037470188 0.03555627 0.009937671 0.0061176247 -0.013151495 -0.0028404624 -0.023090426
-0.0006324562 -0.03074751 -0.012547581 -0.021317184 0.0038618625 -0.032334663 -0.00052919186 0.0040771384
-0.006745733 0.022740372 0.029591393 0.022418763 0.028667655 0.015863793 0.0048162816 0.012755456
-0.027982417 -0.044354342 0.0042566704 0.058363225 -0.029160148 -0.0087716915 -0.023350121 -0.030576
0.0040863375 0.0052456814 -0.042859823 0.009471275 0.01851702 0.011928713 0.012356588 -0.0103577385
-0.011128552 -0.01054295 -0.024505995 -0.0012575052 -0.025725666 -0.034397468 -0.0035430172 0.01633872
0.0019432701 -0.0015456955 0.00422648 0.021567395 -0.002144509 0.014337093 -0.001886455 -0.03155538
0.020479081 -0.02684283 0.040620275 0.007989605 -0.02161611 -0.0004696411 -0.020517915 -0.008016351
0.01265529 -0.016832367 0.013200064 0.017111853 0.025029967 0.020043757 -0.04302761 -0.02439296
-0.012517262 -0.023597186 -0.0052908747 -0.0007413483 0.027774984 0.017987018 -0.017220452 -0.004880284
0.021511639 0.0029782727 -0.006993775 0.003558508 -0.018317817 -0.036564417 0.046219658 -0.0010542547
0.0073090945 -0.00762164 0.0055768965 -0.05198478 -0.029726252 -0.01086614 -0.0016429817 -0.043174893
0.020556567 -0.013693433 -0.031055825 0.002236248 -0.0071772723 0.008754441 -0.01557023 -0.007831562
0.019180309 -0.015704779 -0.0041018287 -0.019492548 0.004912063 0.032862052 -0.008505635 0.004227499

output.bias f4 [4]
00000000: 1b78 423d 6af3 4cbd ff0a 11bd 8d79 0abd
0.047477823 -0.050036825 -0.035410877 -0.033807326

momentum_buffer f4 [100, 37]
00000000: 861d 123a 4473 b837 884f b2b8 1cba be37
00000010: 825b f337 19ac e339 dcc7 d738 9cc9 e837
00000020: 4485 48b8 1c43 9038 4f6c 3838 487f 4238
00000030: 8ae4 d939 bc00 3b37 42d5 ad38 938d 2939
00000040: 2e4f fe38 e643 7939 8442 71b6 b6d9 b538
00000050: fd3b beb7 d01e f838 2257 c939 54f7 1c38
00000060: a420 9d38 25c9 2f39 ee14 d738 cd23 b339
00000070: 6ace c6b8 63cf d238 3ee4 2f38 6805 3f39
00000080: b56e c739 b44f b7b8 4667 4b39 7963 10b9
00000090: 8523 ccb9 fcb3 98b9 0afb a5b8 02c5 9f39
000000a0: b2c1 3b37 c1e2 a9b8 daca 0239 c193 f7b8
000000b0: b694 0eb8 4ad9 e3b7 5f0c e2b8 b502 2a39
000000c0: 5b45 6cb9 e82f d337 a415 8ab7 70d0 acb8
000000d0: 40f9 5bb9 f085 ad35 d382 4939 f90f 20b8
000000e0: 7516 d937 c01a e435 26fe 06b9 e09b 2e38
000000f0: 6cbe 0138 1121 e4b8 d32f 0439 942b 19b8
00000100: 4c1b 23b7 94d2 0cb9 4bcb 89b7 4fdf 4639
00000110: 80c0 a6b8 5380 1eb8 56fe 04b9 925b 30b8
00000120: 1e10 2839 c6f3 e83a c024 fe38 8521 d9b8
00000130: 64ac 13b8 85b6 89b5 124d 22b9 b923 8db9
00000140: b011 d4b8 10e7 8a39 7e0a b638 f663 8d38
00000150: 4eb0 2eb9 0202 5d39 2eab 61b8 973d 16b7
00000160: 4b45 3e38 e377 f9b7 ae10 f6b8 5d51 8a39
00000170: 50e8 0db9 d861 8fb7 0893 c2b8 9169 20b8
00000180: de11 6639 c855 e0b8 34ae c638 98a2 e738
00000190: 3fda 06b9 e608 7938 c1d8 7ab8 b2ab c1b7
000001a0: 7c54 b1b9 841c 1438 4d36 8839 82c2 cd37
000001b0: 312f 3339 fd15 f2b9 3961 9c39 ab5c 81b8
000001c0: 9509 8239 f6c1 b4b8 0feb 8036 63e8 be37
000001d0: c062 0eb9 9a6b 8239 c043 4835 7218 23b7
000001e0: 93b0 dc37 07cf 2039 cb84 1ab8 9cd4 0738
000001f0: 225f 3cb8 f8f5 2938 9093 82b8 e803 0739
00000200: ec0b d338 cd69 84b8 1c15 9237 a70c 6e38
00000210: 3b50 4e39 79ee ffb7 c694 f9b8 807a 6039
00000220: 3274 1fb8 f81d 1939 f43e be38 6faa c6b8
00000230: fedc 31b8 bf78 bfb8 b1c6 7639 60e7 72b7
00000240: 6385 d6b7 4c14 0239 2597 c3b9 c24b ddb9
00000250: 1a64 b6b9 1508 bfb9 a7f6 3537 24ea fc37
00000260: 8818 27b9 d594 5cba 1a25 69b8 0314 e638
00000270: c06d f338 d53a e638 9278 8eb9 87b6 a9b9
00000280: 937d 40b9 1e00 e238 1332 9fb9 753c 6bb9
00000290: a08a 01ba 8c4b 9f38 4bd4 f0b7 7cf0 85b9
000002a0: 01f2 27ba 3af0 65b8 cc6b 8e38 1436 37b8
000002b0: 4090 7134 e122 e5b9 4045 9d36 5b78 cdb8
000002c0: f0c3 13b9 d044 5737 5b3d 43ba 3c89 5db8
000002d0: 260d b5b7 a91d 1b39 974c 45b8 0cf3 60b9
000002e0: 0387 8ebb ab46 02ba f657 0f39 d5cf ac39
000002f0: 3ec2 3339 a862 2e39 34df eab9 fbae 4239
00000300: 5efc 8e39 e4b5 0839 b087 7c39 46d1 8839
00000310: 60aa 57b9 b0e6 b938 8613 53b6 6cd0 1139
00000320: 4c5e 7f38 89ae 8fb9 7634 de39 7388 92b8
00000330: 8551 fb38 0f0d 5bb9 0323 4339 1e30 8639
00000340: 00ae c1b8 c2a4 5b39 2af2 3db9 6a9d 6ab7
00000350: ebb1 a239 d1ba d637 0b2e 9538 f347 a1b9
00000360: a947 a139 3c2e 1bb9 0067 9739 7dfb fa38
00000370: 4cc3 22b9 32b0 bd3a afd1 9938 8926 f538
00000380: 40f8 ce37 7cb0 9eb7 c44e ad38 9452 93b6
00000390: 2772 3d39 35d2 23b8 4488 7638 bb57 3e38
000003a0: 18fc 3239 94fa dab7 d08f dbb7 92b4 a238
000003b0: 193d a938 ebdc e338 4e44 0939 e945 14b8
000003c0: 43c3 09b7 f953 b538 b224 97b8 67ff 1339
000003d0: acc3 ba36 d183 fe38 60d7 dd38 7266 33b7
000003e0: 9689 5039 e3fe e437 b26f a3b7 e2de ec38
000003f0: b045 41b8 15dc 2e39 031a e638 564a 10b8
0.00055738573 2.1988184e-05 -8.502515e-05 2.2736429e-05 2.9010469e-05 0.00043425037 0.000102892256 2.7750437e-05
-4.780783e-05 6.878955e-05 4.396989e-05 4.6371744e-05 0.0004155974 1.114624e-05 8.289005e-05 0.00016169836
0.00012126412 0.00023771785 -3.5950516e-06 8.6713044e-05 -2.26777e-05 0.00011831301 0.00038402627 3.742364e-05
7.492423e-05 0.00016764233 0.00010255897 0.00034168214 -9.479823e-05 0.00010052209 4.193582e-05 0.00018217193
0.0003803872 -8.740966e-05 0.00019398061 -0.00013769967 -0.00038936376 -0.00029125798 -7.914573e-05 0.00030473626
1.1191167e-05 -8.100784e-05 0.00012473334 -0.00011805399 -3.3993936e-05 -2.7161692e-05 -0.00010778824 0.00016213472
-0.00022532551 2.5175468e-05 -1.646096e-05 -8.2404236e-05 -0.0002097832 1.2928485e-06 0.0001921759 -3.816185e-05
2.5878873e-05 1.6995109e-06 -0.00012873914 4.1630003e-05 3.093334e-05 -0.00010878046 0.00012606317 -3.6518628e-05
-9.721913e-06 -0.00013429887 -1.6426338e-05 0.0001896594 -7.951353e-05 -3.7789647e-05 -0.00012683248 -4.204695e-05
0.00016027733 0.0017772845 0.00012118509 -0.0001035361 -3.5208082e-05 -1.0260416e-06 -0.00015478235 -0.0002692023
-0.00010112242 0.00026493566 8.6803906e-05 6.742023e-05 -0.00016659612 0.0002107695 -5.3803604e-05 -8.955037e-06
4.5364064e-05 -2.973894e-05 -0.00011733301 0.00026382032 -0.00013533351 -1.709249e-05 -9.2780276e-05 -3.824529e-05
0.00021941165 -0.0001069713 9.4738236e-05 0.00011045224 -0.00012860539 5.9374514e-05 -5.9806513e-05 -2.3087345e-05
-0.00033823017 3.5312507e-05 0.000259804 2.452848e-05 0.0001708835 -0.0004617422 0.00029827075 -6.16846e-05
0.0002480267 -8.619197e-05 3.8420617e-06 2.2757979e-05 -0.00013578963 0.00024875702 7.4604395e-07 -9.721249e-06
2.6308267e-05 0.00015335913 -3.6840134e-05 3.2384516e-05 -4.4911292e-05 4.0521816e-05 -6.226369e-05 0.00012876058
0.00010063485 -6.3139574e-05 1.7414386e-05 5.6755405e-05 0.00019675579 -3.0509416e-05 -0.000119009565 0.0002140794
-3.801677e-05 0.00014602381 9.071632e-05 -9.4731215e-05 -4.2405904e-05 -9.1300804e-05 0.00023534407 -1.4478195e-05
-2.5572901e-05 0.00012405327 -0.0003730591 -0.0004220885 -0.00034788327 -0.0003643638 1.0845869e-05 3.0149771e-05
-0.000159355 -0.00084145117 -5.5586082e-05 0.00010970982 0.000116075855 0.00010978213 -0.00027174182 -0.00032370185
-0.00018357327 0.000107765416 -0.00030364151 -0.00022433868 -0.0004941616 7.5957825e-05 -2.8709086e-05 -0.00025546912
-0.0006406606 -5.4821583e-05 6.7911664e-05 -4.3680964e-05 2.2497352e-07 -0.0004370427 4.6870264e-06 -9.79758e-05
-0.00014092005 1.283102e-05 -0.00074478023 -5.2818315e-05 -2.1583004e-05 0.00014793001 -4.703979e-05 -0.00021452847
-0.0043495907 -0.0004969637 0.0001367031 0.00032961243 0.00017143131 0.00016630685 -0.00044798257 0.00018566467
0.0002727238 0.0001303773 0.0002408314 0.00026095862 -0.00020567467 8.864456e-05 -3.1452814e-06 0.00013905921
6.088456e-05 -0.00027405124 0.00042382226 -6.987238e-05 0.00011983797 -0.00020890332 0.00018609692 0.00025594322
-9.235367e-05 0.00020946845 -0.00018114658 -1.3984138e-05 0.00031031607 2.5597781e-05 7.11345e-05 -0.0003076192
0.00030761704 -0.00014799176 0.00028877705 0.00011967772 -0.00015522278 0.0014472066 7.334665e-05 0.00011689688
2.4672714e-05 -1.891725e-05 8.263954e-05 -4.3905547e-06 0.0001806697 -3.9058e-05 5.8777878e-05 4.5381235e-05
0.00017069315 -2.610431e-05 -2.6173802e-05 7.758396e-05 8.069928e-05 0.00010865353 0.00013090784 -3.535106e-05
-8.211299e-06 8.646394e-05 -7.207076e-05 0.00014114157 5.566011e-06 0.000121362165 0.00010578218 -1.0693084e-05
0.0001988768 2.7298409e-05 -1.9483126e-05 0.00011294872 -4.6079687e-05 0.0001667592 0.000109721 -3.4401506e-05

momentum_buffer f4 [100]
00000000: 018d 073a 707d 64b8 54e7 9bb7 6316 da38
00000010: ecf6 2fba 319f 1339 1585 4d39 3cd9 0a3a
00000020: 2e2d 8138 2859 64b8 66db d639 278a 9338
00000030: 6016 0939 1a20 1fba ab02 0539 8e27 de39
00000040: 5362 6dba 8643 0739 8e83 8339 7e98 48b9
00000050: 180c 3339 d9e1 eb39 5282 5fb8 0a89 7339
00000060: f1ce 97b8 7076 62ba f69f 9339 d463 1f37
00000070: 2a82 673a 3923 b43a d2dc 1138 30b7 3fba
00000080: 80d8 7ab4 6c3c d9b8 4056 2f35 8178 11bb
00000090: 4818 86b7 84ce 1239 5658 533a 36c9 3fb9
000000a0: 60b9 11b9 f8d8 0439 deb9 4cb8 921f be38
000000b0: 9287 a9ba af11 f939 ba0b 3239 e0ce a337
000000c0: b182 e6b9 f58f da39 6f85 67b9 5161 25b9
000000d0: aa89 9139 0e7f 6bba babd 7939 f5de d139
000000e0: ec1c a239 fe60 93b9 d88e 47b9 587f c437
000000f0: f4e0 f639 b4d8 44b9 67fb 8ab9 a21b 2a39
00000100: aa83 7e3a 2c2e a33a 416c 9b39 4090 2a39
00000110: 9c51 adb8 b2ee 8939 a7d3 ef38 0e12 f0b8
00000120: 8021 4f39 1c8a 84b9 6c57 5d3a a057 4a36
00000130: 409f fcb7 b26e 8238 f654 27ba b877 9ab8
00000140: f0a3 3337 ffc9 12ba fddb 94b8 b0d3 bab8
00000150: 5021 3237 9e77 89b7 fe32 ff38 2f80 1239
00000160: 3978 deb8 c091 c836 5c7f 6bb9 61af 8a3a
00000170: d14f 343a dc89 3939 93a6 2439 58a6 f038
00000180: 4ec7 2638 2e62 2cbb 00d5 6137 b298 2339
0.00051708525 -5.447626e-05 -1.858516e-05 0.0001039922 -0.00067125144 0.00014078316 0.000195999 0.00052966527
6.159615e-05 -5.444247e-05 0.00040980725 7.035239e-05 0.00013073673 -0.0006070152 0.00012684862 0.0004237261
-0.0009055484 0.00012899758 0.00025084283 -0.00019130294 0.00017075276 0.00044990962 -5.3288713e-05 0.00023225337
-7.238787e-05 -0.00086388644 0.00028157205 9.500382e-06 0.00088313466 0.0013743407 3.477635e-05 -0.0007313369
-2.3361827e-07 -0.00010358621 6.531809e-07 -0.002219707 -1.5985352e-05 0.00014000578 0.00080621743 -0.00018290136
-0.00013897335 0.00012669328 -4.8810492e-05 9.0657864e-05 -0.001293408 0.00047506156 0.00016979771 1.9527448e-05
-0.0004396639 0.00041687457 -0.00022079585 -0.0001577188 0.00027759123 -0.0008983471 0.00023817169 0.00040029702
0.00030920596 -0.0002811029 -0.00019031332 2.342432e-05 0.0004708838 -0.00018772745 -0.0002650872 0.00016222757
0.00097089505 0.0012449673 0.0002964456 0.000162662 -8.264484e-05 0.00026308518 0.000114358314 -0.00011447455
0.00019753538 -0.00025279901 0.0008443508 3.015135e-06 -3.0114898e-05 6.219502e-05 -0.00063832046 -7.3655916e-05
1.0707401e-05 -0.0005599558 -7.098166e-05 -8.908601e-05 1.0617383e-05 -1.6387374e-05 0.000121688456 0.00013971397
-0.00010608178 5.977432e-06 -0.00022458791 0.0010580831 0.00068783486 0.00017694331 0.00015702313 0.00011475076
3.97631e-05 -0.0026303637 1.3460638e-05 0.00015601775

momentum_buffer f4 [250, 100]
00000000: 6d92 1239 44bb 8cb7 80a1 5e38 8410 bd38
00000010: 9735 5f38 f794 5a38 3f34 1938 0e31 2238
00000020: fb64 0b38 8c5f b536 c647 4238 24b6 8c38
00000030: c052 8538 2f59 e538 cbd7 0339 8513 e138
00000040: bf8d 4f38 480c 0539 f0dd ee38 1255 8f38
00000050: a860 2535 588a f138 6076 da36 c4ce 4d37
00000060: 080f 0f37 9684 0c38 abda edb7 3a9c 0a39
00000070: 9282 4d38 4f63 2338 68d0 3b38 b3c6 4237
00000080: 534f 4338 a46b 2938 cdd5 0538 8bf0 1039
00000090: 9cff 6a38 b5db 5d38 795e 2738 5658 3838
000000a0: 3a86 8e38 0468 9038 54fc bc37 1e4b 82b6
000000b0: b2ff 6638 0217 1f37 afa3 3937 16f6 2e36
000000c0: 3a42 0039 a0c3 9c35 688d d636 d96e 9a37
000000d0: 257e a438 d64f 8738 969d 7638 fefd b138
000000e0: 469f df37 fa99 e438 de91 a037 bdf1 9fb7
000000f0: 511e 6e38 cf78 0139 d73f c338 d338 4438
00000100: 00b7 d734 7ac5 43b8 23d0 8a36 3d68 0538
00000110: b306 4bb6 340e a838 c8f6 2c39 30cf 7238
00000120: 5c9e c6b8 8419 1f38 09b3 a638 f2f6 5d37
00000130: 638a 2a38 6058 4238 766d 5538 4eec 01b8
00000140: 094c 8638 f4eb 9237 311f 5738 f016 d837
00000150: 64e9 8038 d352 7038 bb9d 9838 b6e9 5738
00000160: e3e0 4038 b28e 6038 8c91 68b5 4874 3438
00000170: d8c0 bf36 ce96 7638 9410 1d38 2c85 d538
00000180: 6d51 9e36 54c7 a638 26df c937 0e91 b736
00000190: 3f51 90b8 0807 1e37 983c 99b8 24b1 a636
000001a0: 30e8 b4b9 84c8 2cb9 20c1 ddb5 dd57 abb9
000001b0: 775b 96b7 0eff d5b5 5295 1eb9 7e79 bdb9
000001c0: f7d2 80b8 5514 05ba 487e 0db7 01cc b4b9
000001d0: 3dff bfb8 945c 8d37 9c92 2bb8 e2d0 9ab9
000001e0: ed76 abb7 aaff 8ab8 11da 2038 e663 cc38
000001f0: c00e 93b6 8591 61b9 40ff 1638 ba55 5fb7
00000200: 0f36 4ab9 84d3 f1b8 2b8a 68b7 3ed0 edb8
00000210: 39e6 3b37 5c5c 16b9 6119 c338 0975 cbb9
00000220: d6cf 20b8 68bd 55b7 08c1 c7b9 ded2 17b9
00000230: 8191 d3b8 36b4 95b9 92e6 2db5 99bc d136
00000240: 0eed 9eb9 2553 a2b6 ccf7 9a36 6fb9 b235
00000250: 3e2f c3b9 bbfb 6bb7 28a6 2938 6302 51b8
00000260: 0e5d 97b9 5f54 d4b9 4401 36b8 74e4 b8b8
00000270: dc2e c038 50f8 ecb6 ea0c c8b6 cfe8 d237
00000280: 1ec4 83b9 0626 b237 6296 34b9 80d7 1237
00000290: 47a9 a1b9 1856 cbb8 93f6 14b8 44e7 35b9
000002a0: 69a1 b338 7cf8 0b38 344e 66b9 7f15 d9b9
000002b0: ac78 dab6 5cf1 9636 4b14 72b9 5d52 d3b7
000002c0: f5be e7b8 8598 0538 4c47 c5b9 44c4 9b34
000002d0: 5e08 36b7 3e13 a0b7 9d00 b537 0e3b 1e38
000002e0: 0ad7 f4b8 2305 2337 8cdb 06b8 32fc 29b9
000002f0: 2ba4 8237 c514 0fb9 2ffa ffb7 9348 93b9
00000300: aa05 c8b8 f70e 42b9 0da1 8f38 be22 b6b9
00000310: 89d7 80b8 fb87 12ba bc7f 21b9 f4a0 a934
00000320: 783c a4b7 a7d4 d4b7 f004 ecb6 5d20 5637
00000330: fa22 f137 5ffc 0d36 3280 c437 feeb 47b7
00000340: ba41 0338 8390 aab6 9843 3035 08ed 4db8
00000350: 94da 50b6 57bc eeb7 b44b 6cb8 44d0 bcb6
00000360: 723d 18b8 38bd 36b6 1c27 64b6 91b6 b8b6
00000370: 246f 9236 22a0 1bb8 f4c5 eab7 526a 3238
00000380: f630 5037 92f1 0b37 ece8 93b7 165a be36
00000390: 01c3 8cb8 166e 1f37 7e04 79b6 c8e6 8e37
000003a0: 22ec 3836 6804 22b7 deae f436 749d 4eb6
000003b0: fd2f be36 e30f f937 c3d7 d537 f444 ce35
000003c0: 53ca b5b6 913a 4cb8 d6bc dcb6 664e 94b6
000003d0: 543b f637 e218 2bb7 f15b d1b6 b776 36b5
000003e0: 74c9 d237 3004 8db6 14a6 93b7 54b9 9ab7
000003f0: 6434 4238 61ae 5c37 e1b9 0a36 b83b 1db8
0.00013978193 -1.6776503e-05 5.3079333e-05 9.0152986e-05 5.3217253e-05 5.2113985e-05 3.65267e-05 3.8669496e-05
3.3234228e-05 5.4053435e-06 4.632005e-05 6.7096466e-05 6.3573476e-05 0.00010936183 0.00012573523 0.00010732472
4.9484657e-05 0.00012688444 0.000113900634 6.834617e-05 6.1607943e-07 0.00011517544 6.510687e-06 1.2267094e-05
8.526964e-06 3.350208e-05 -2.8354427e-05 0.00013218904 4.899741e-05 3.8954717e-05 4.4778368e-05 1.1609564e-05
4.65655e-05 4.0392988e-05 3.190879e-05 0.0001382252 5.6028002e-05 5.2895124e-05 3.9903887e-05 4.3951288e-05
6.796089e-05 6.8858295e-05 2.2528846e-05 -3.8830467e-06 5.5074408e-05 9.482495e-06 1.106497e-05 2.6071261e-06
0.00012231703 1.167984e-06 6.394159e-06 1.8409848e-05 7.843626e-05 6.452172e-05 5.8797734e-05 8.4873274e-05
2.6657839e-05 0.000109005676 1.9141411e-05 -1.9066845e-05 5.6771856e-05 0.00012347403 9.310216e-05 4.6782963e-05
4.018002e-07 -4.6675537e-05 4.136951e-06 3.180675e-05 -3.0253257e-06 8.01351e-05 0.00016495131 5.7890255e-05
-9.4708725e-05 3.7932317e-05 7.948845e-05 1.3230123e-05 4.066004e-05 4.633551e-05 5.08851e-05 -3.0976073e-05
6.4037806e-05 1.751443e-05 5.1289044e-05 2.5759888e-05 6.146988e-05 5.7297595e-05 7.2773044e-05 5.1477655e-05
4.598581e-05 5.3538657e-05 -8.6638534e-07 4.302364e-05 5.7146935e-06 5.879142e-05 3.7447157e-05 0.00010181437
4.718246e-06 7.9526246e-05 2.4064979e-05 5.4707116e-06 -6.881588e-05 9.419171e-06 -7.306895e-05 4.9678074e-06
-0.0003450527 -0.00016477896 -1.652199e-06 -0.00032681125 -1.7923985e-05 -1.5943967e-06 -0.0001512368 -0.00036139408
-6.142811e-05 -0.0005076577 -8.433657e-06 -0.0003448427 -9.1551316e-05 1.685162e-05 -4.0906118e-05 -0.000295288
-2.0440168e-05 -6.627974e-05 3.8350063e-05 9.7460856e-05 -4.3826585e-06 -0.00021511882 3.6000507e-05 -1.3311796e-05
-0.0001928436 -0.000115311734 -1.3860447e-05 -0.00011339829 1.11996715e-05 -0.00014339521 9.303052e-05 -0.00038806375
-3.8340535e-05 -1.2739889e-05 -0.00038100057 -0.00014479036 -0.00010088366 -0.00028553762 -6.4783046e-07 6.250641e-06
-0.00030312728 -4.8376555e-06 4.618405e-06 1.3316002e-06 -0.00037228497 -1.4065702e-05 4.0447485e-05 -4.9831706e-05
-0.00028870296 -0.00040498652 -4.339336e-05 -8.8163564e-05 9.164002e-05 -7.0622555e-06 -5.961968e-06 2.514236e-05
-0.00025132386 2.123696e-05 -0.0001722216 8.752453e-06 -0.00030834434 -9.6958305e-05 -3.551559e-05 -0.00017347658
8.56545e-05 3.33716e-05 -0.00021963642 -0.0004140548 -6.5109543e-06 4.4984463e-06 -0.00023086478 -2.5191513e-05
-0.00011050507 3.1851716e-05 -0.00037627888 2.9013802e-07 -1.08499935e-05 -1.9082447e-05 2.1577167e-05 3.7725134e-05
-0.00011674881 9.716753e-06 -3.215256e-05 -0.00016211046 1.5573654e-05 -0.0001364528 -3.051487e-05 -0.00028092097
-9.537798e-05 -0.00018506857 6.8487694e-05 -0.0003473963 -6.143662e-05 -0.00055897207 -0.00015401741 3.1595812e-07
-1.9578481e-05 -2.5371393e-05 -7.033923e-06 1.2762929e-05 2.8745726e-05 2.1157537e-06 2.3424716e-05 -1.19162705e-05
3.1294046e-05 -5.083218e-06 6.566347e-07 -4.909656e-05 -3.1121644e-06 -2.8459513e-05 -5.633729e-05 -5.627082e-06
-3.629685e-05 -2.7230253e-06 -3.3997412e-06 -5.504881e-06 4.3640775e-06 -3.7104015e-05 -2.7987153e-05 4.2537526e-05
1.2409166e-05 8.341291e-06 -1.7632228e-05 5.6729286e-06 -6.7120425e-05 9.50277e-06 -3.7106506e-06 1.7035185e-05
2.7555584e-06 -9.656978e-06 7.292124e-06 -3.0788042e-06 5.668028e-06 2.9690511e-05 2.549205e-05 1.5368264e-06
-5.417774e-06 -4.8691934e-05 -6.5784943e-06 -4.4198705e-06 2.9353112e-05 -1.0198188e-05 -6.2393888e-06 -6.7973036e-07
2.512776e-05 -4.202615e-06 -1.7601102e-05 -1.844453e-05 4.6301997e-05 1.3153623e-05 2.0671798e-06 -3.7487334e-05
