p1_navigation/DQN20190128_v5.pth (torch_old, 85243 bytes, 18 tensors)

hidden_layers.0.weight f4 [64, 37]
000000 3a e1 e3 bd 76 d4 d9 3d e8 b1 7e bd 24 ca 02 3d
       -0.11126943 0.10636227 -0.062181383 0.031931058
000010 f6 83 b6 bd a8 c3 79 3c 00 2a 30 3c 73 7f a6 3e
       -0.08911888 0.015244402 0.010752201 0.3251911
000020 d1 f3 65 bd d2 2f 8f 3d 87 68 2b bd 49 c4 c4 bc
       -0.056140725 0.06991543 -0.041847732 -0.024019377
000030 53 33 cf bd 19 ab 16 be 45 4d dc 3c d5 ce 35 3d
       -0.10117211 -0.14713706 0.026892314 0.044386704
000040 05 c1 fc 3d 3d 68 61 3d d3 f6 0c be 45 83 02 be
       0.12341503 0.05503105 -0.13766031 -0.12745388
000050 eb a9 f3 3d b3 b1 e7 3d cf 1e dc bc 10 bf ea 3d
       0.11897644 0.1131319 -0.02687016 0.114622235
000060 2a 82 21 bd 80 0a e1 3d 66 d9 53 3e 7b f8 a9 be
       -0.039430775 0.10988331 0.206884 -0.33197388
000070 3b e8 30 3c f0 4f 3f bd 9b 11 1d be c7 86 94 3e
       0.010797556 -0.046707094 -0.15338747 0.29009077
000080 73 9c 6b 3d d2 84 ec bd 2f 2e fb bd fd 2a 87 be
       0.05752225 -0.11548771 -0.12264668 -0.26399985
000090 d7 85 bf bd f5 ed 29 3e cd 2d ad 3a 76 dd c9 3d
       -0.093517 0.1659468 0.0013212502 0.098566934
0000a0 86 51 d2 3d 5e fa 34 bd 7c c7 62 3d b8 d9 2e be
       0.102694556 -0.04418408 0.055366024 -0.1707524
0000b0 6c ad 82 be 40 bc b7 3d e2 d5 83 3e 2d c5 a9 bd
       -0.25522935 0.08971453 0.25749117 -0.082895614
0000c0 cf 7e 60 3d ce 2f e0 bc 9f e4 74 3e 72 cf c0 3d
       0.054808434 -0.027366545 0.23915337 0.09414567
0000d0 4c 7f 05 be 52 7e a2 3d 03 d3 5e 3d d8 c5 eb ba
       -0.13036841 0.0793425 0.054400455 -0.0017988039
0000e0 29 f5 98 3d ef e7 64 be e6 e9 d1 bc 2a 3c 81 bc
       0.074686356 -0.223541 -0.025624227 -0.015775759
0000f0 62 a5 eb 3c 6a ec 38 3e 50 a6 0d 3e 77 5b 99 3d
       0.028765384 0.18058935 0.13832974 0.07488149
000100 00 73 a5 bd c5 c0 23 bd f4 47 66 3e be 66 54 3d
       -0.08078575 -0.03997876 0.22488385 0.051855795
000110 fa 44 47 bd e7 91 51 3e 1c 89 c6 bd a2 d2 81 3c
       -0.048649766 0.20465814 -0.0969412 0.015847508
000120 06 20 ff 3d b0 5e e2 3d 98 4c b5 3d b6 7e d6 3d
       0.1245728 0.110532165 0.088525 0.10473387
000130 cf 69 a4 3d ed f7 8a be c5 0f 03 be 3d ca ce 3c
       0.08027994 -0.27142277 -0.12798984 0.02524292
000140 35 3d 4a be d3 9a e2 bc 68 ab f6 3d 97 c3 66 be
       -0.19749911 -0.027661717 0.12044412 -0.22535549
000150 20 fe f9 bd 9a dc a8 bd 62 83 f6 bc 44 1c 82 3d
       -0.122066736 -0.082452014 -0.030091945 0.063530475
000160 de 05 ed 3c 90 78 5f be 97 29 bb 3c 28 cb 5d 3e
       0.028933462 -0.21823335 0.02284698 0.21659529
000170 69 ef 25 3c 84 f5 98 3e 9d 14 ac be 02 76 32 be
       0.010127881 0.29874814 -0.33609477 -0.17427829
000180 79 99 a1 3d 14 7a 38 3e 61 22 5d be 6b ba 50 be
       0.07890601 0.18015319 -0.21595146 -0.20383613
000190 ad c1 e9 3d 2b 78 a6 3e 73 55 b9 be 8b 1b 1c 3d
       0.11413894 0.32513556 -0.36198005 0.038112205
0001a0 ab 56 07 be 35 62 6e 3d 69 c2 99 be b6 68 0f be
       -0.13216655 0.058199126 -0.30031136 -0.14004788
0001b0 52 65 db 3c b8 b9 1b be 97 7c e9 bd 94 47 ff 3d
       0.026781712 -0.15207565 -0.11400717 0.12464824
0001c0 bd 64 f8 bd 50 b4 16 3e d2 cc a4 3e f2 c1 d7 bd
       -0.12128589 0.14717221 0.32187515 -0.10535039
0001d0 da 79 2c 3e 31 f6 ba bd 31 99 c0 bd 82 9e 06 3d
       0.16843358 -0.091289885 -0.09404219 0.03286601
0001e0 0d 3a 18 3e ef de 48 bc 27 37 40 be f4 bd 37 3e
       0.14865895 -0.012260183 -0.18771039 0.17943555
0001f0 3e 35 ca 3c 37 2a 57 be 0a f1 75 bd 52 ac 3b be
       0.024683591 -0.21012197 -0.060044326 -0.18327454
000200 a2 01 a6 bc 15 2f 80 3d 27 51 36 3c a3 7d 09 be
       -0.02026445 0.0625898 0.011127747 -0.13426833
000210 4d 3e 6e be 72 df 35 3e 95 bc c6 3e 31 37 de bd
       -0.23265953 0.17761019 0.38815752 -0.10850371
000220 23 d2 c1 bc 4f be 27 bb 68 c5 dd bd 8e d1 aa 3e
       -0.023659771 -0.002559561 -0.10828668 0.33363003
000230 33 73 b3 3e 18 97 3f 3e ae e8 3f 3e 72 a7 9a bd
       0.35048828 0.18709981 0.18741104 -0.07551469
000240 f7 8b f0 bd 00 b3 50 3d 4e 66 f8 3d 2d 76 62 3c
       -0.11745446 0.050951958 0.12128888 0.013822121
000250 55 7e ca bd 2c 32 57 be 59 60 fc bc 2e d9 9b be
       -0.09887377 -0.21015233 -0.03080766 -0.30439132
000260 b0 f5 96 bd 88 fa 85 3d 9f c2 3b be 2b 33 f1 3c
       -0.0737108 0.06541926 -0.18335961 0.029443344
000270 eb f6 1f 3e 7e 76 2f bf 27 2c 96 39 aa 2a 63 bd
       0.15621535 -0.6854018 0.00028643126 -0.05546061
000280 60 39 14 3d 5a 35 64 be 7b 8b 6d be 55 b8 24 be
       0.03618753 -0.22285977 -0.23197739 -0.16085942
000290 1c 3c 93 be a8 2a 96 3d 41 c7 48 3c 5d 25 0b 3e
       -0.28756797 0.07332355 0.012254537 0.13588472
0002a0 e8 9f 09 be af 9a 11 3d 15 29 3b 3e 18 74 e0 be
       -0.13439906 0.03554791 0.1827739 -0.43838573
0002b0 67 48 de 3c 1c 36 4e 3c 39 26 af be 2b 4b 77 3e
       0.027134134 0.012586143 -0.3420885 0.24149768
0002c0 9a 03 9d bd b6 67 b1 be 67 3e a3 3d ee 6f a7 be
       -0.076667026 -0.34649438 0.07970887 -0.32702583
0002d0 72 4f 41 3e a4 7f 40 be 77 89 22 be 0f 7e ed 3d
       0.18877962 -0.18798691 -0.15872751 0.115963094
0002e0 1c 94 66 3d 7b 07 82 3d 3b 55 b3 bd 12 ae 12 bd
       0.05629359 0.06349083 -0.08756491 -0.035810538
0002f0 14 4d 1c be 72 e4 00 3d 28 d9 c5 3d 1e 66 b1 3d
       -0.15263778 0.031467862 0.0966056 0.086620554
000300 5b 4f 88 bd 1f d3 41 bd 7b f4 8a be 5b 44 48 3d
       -0.06655761 -0.04732048 -0.2713965 0.048893314
000310 bf e9 fa bd 21 53 1b 3d d2 0d 89 be b7 9f bc ba
       -0.12251615 0.037921075 -0.26768357 -0.001439086
000320 da 50 75 be ea 45 e4 3d 04 8e 8d bd e8 d8 4e bc
       -0.23956624 0.111461475 -0.06911853 -0.012624957
000330 aa 57 48 be 11 87 77 3e 4f 6c 6b bd 9d 42 d3 bd
       -0.19564691 0.24172617 -0.057476338 -0.1031544
000340 a4 52 20 be dc aa 9e bd a4 35 68 be 8f ed 4f bd
       -0.15656525 -0.077474326 -0.22676712 -0.050763663
000350 8c 54 b9 3d 2a 4d 27 be ca 52 c8 bd 5a 20 8a 3a
       0.09049329 -0.1633803 -0.09781416 0.0010538206
000360 ed e8 f3 bd 43 48 ca bd 4a a1 24 3e e8 3a 51 be
       -0.119096614 -0.09877064 0.16077152 -0.20432627
000370 ce 34 5a bd f5 3c 25 3e 9d b7 11 be a4 8f 35 3c
       -0.053273015 0.16136535 -0.14230199 0.01108161
000380 4b 70 c7 bd 0c 5e b0 bd 43 35 96 3c 4a 83 34 be
       -0.09738215 -0.08611688 0.018335944 -0.17628208
000390 25 f5 8a be 32 50 30 3c d7 f0 d5 3d e4 78 f4 3c
       -0.27140155 0.010761308 0.10446327 0.029842801
0003a0 e4 9b 51 bd 6f b6 4e 3e b4 ce a5 3d 44 fb 52 be
       -0.05117406 0.2018678 0.08096066 -0.20603663
0003b0 6f cb b1 3d 0f 7d fc bd ea 8c 3c be 1c d5 cc bc
       0.0868138 -0.123285405 -0.1841313 -0.025003962
0003c0 d2 73 f5 3d bb 65 15 3d d7 6b a3 be a5 02 05 3e
       0.119849816 0.03647397 -0.31918213 0.1298929
0003d0 d6 b0 d8 3d 63 70 73 be c4 58 22 3e 81 0c 23 bc
       0.10580604 -0.23773341 0.15854174 -0.009951712
0003e0 ee 64 14 be d4 36 ed bd 7f 4d 14 be af 23 75 bc
       -0.14491627 -0.11582723 -0.14482687 -0.014962121
0003f0 f2 13 e0 3d d2 5c e5 bd 49 1c 6e be b4 fb 0c 3d
       0.10941304 -0.11199345 -0.23252977 0.03441973

hidden_layers.0.bias f4 [64]
000000 a7 78 16 3e 7e 94 08 bd a0 88 13 be bc 56 3c bd
       0.14694463 -0.03334474 -0.14407587 -0.045981154
000010 0b 9c 2b 3e 9a e4 99 bd 75 2c b9 bd bc fb 9d 3c
       0.16758744 -0.075143054 -0.09041683 0.019285075
000020 ad 53 1e 3c 7b 36 e8 bd 88 78 84 3d 36 c8 cc 3d
       0.009663505 -0.11338516 0.06468302 0.09999125
000030 c0 65 02 3e 1f a7 7d 3d 9f 77 e8 bc 90 34 b0 bd
       0.12734127 0.061926957 -0.028377352 -0.086037755
000040 29 ee 56 3d 0a 52 c3 bd a0 d8 18 bc ea ca 5d be
       0.05247322 -0.09537132 -0.009328991 -0.21659437
000050 02 1d 9f bd 32 61 f0 3a f3 c6 12 bc e9 2e 0f be
       -0.07769205 0.0018339513 -0.008958566 -0.13982739
000060 a0 37 1c be 37 21 0f 3e 11 e7 ef bc 9f 2f 37 be
       -0.15255594 0.13977514 -0.029284986 -0.1788926
000070 e2 81 0f 3e 57 e9 95 3c bd a6 c3 bd 61 03 23 be
       0.1401439 0.018299742 -0.09553287 -0.15919258
000080 f2 e2 14 3e 99 05 8a bd 61 31 36 be af 1a 05 3e
       0.14539698 -0.06739349 -0.17792274 0.1299846
000090 04 7d c5 bd 43 fc b5 3c 91 67 c0 bd 88 0b 27 be
       -0.096429855 0.022215014 -0.09394754 -0.16312993
0000a0 43 63 8c bd 5f 1f 92 bb 21 8a 08 be 9d ce 20 3e
       -0.0685487 -0.004459306 -0.13333942 0.15703817
0000b0 49 28 a4 39 68 c7 f9 bd cd 3a 0e bb 42 05 db bd
       0.00031310532 -0.12196237 -0.0021702528 -0.10694362
0000c0 91 d0 0b be 2d e8 a2 3d c4 7b 58 be 0d e9 84 3d
       -0.1365378 0.0795444 -0.21140963 0.064897634
0000d0 f9 69 18 bc d0 b0 2b bd 5d 24 17 be be c6 98 3d
       -0.00930261 -0.04191667 -0.14759965 0.07459782
0000e0 fc 08 6f 3d dc ff cf bd 0f 58 3f be 0c a7 22 be
       0.058358178 -0.10156223 -0.18685935 -0.15884036
0000f0 20 6a 57 3d f7 ed 55 3d e3 2a 0e bc 2c 42 14 3d
       0.052591443 0.052228894 -0.008677217 0.03619592

hidden_layers.1.weight f4 [64, 64]
000000 c4 bc 39 bd 09 00 4b 3d 92 dc 35 be 17 12 88 be
       -0.045346037 0.04956058 -0.17759922 -0.265763
000010 78 92 48 3e 14 3b 9c bd 1e be 34 3e a6 19 5a 3e
       0.19587123 -0.07628456 0.17650649 0.21298847
000020 13 77 6e 3d 1c b8 bd be df f3 38 3c 06 f7 41 be
       0.058219027 -0.37054527 0.011288612 -0.18941888
000030 ba eb 51 bd 5c d4 93 3c 2f 3b 15 be 58 ec c5 3b
       -0.051250197 0.018045597 -0.14573358 0.0060401373
000040 99 81 f9 3d 00 50 25 3e 27 5a 69 3d 47 c3 0c bd
       0.12182922 0.16143799 0.05697074 -0.03436592
000050 78 83 12 be 32 fe 23 3e 10 57 f4 bd bb 29 0d be
       -0.14307964 0.16014937 -0.11930668 -0.1378545
000060 33 9c 72 bd ec 9b 8f be a3 a5 85 be ea 18 60 be
       -0.059230994 -0.28048646 -0.26102933 -0.21884504
000070 28 08 cf bd 43 81 87 3e 79 d4 d6 3c da 12 fb 3d
       -0.101089776 0.26465806 0.026224362 0.12259455
000080 9e 5c fd bc 8f 96 6a be 10 d8 d1 3d 08 86 fa bd
       -0.030927952 -0.22908996 0.10246289 -0.12232596
000090 ac d8 d4 bd 9c c7 c3 3d 35 71 72 3d ed 65 a9 be
       -0.103928894 0.09559557 0.059189994 -0.33085576
0000a0 57 66 ae 3d 03 f7 e9 bd 30 33 c2 bc 82 9b 66 be
       0.085156135 -0.11424067 -0.023706049 -0.22520259
0000b0 42 35 33 be 1a c5 e8 3b 84 d1 f4 3d c1 e9 72 3d
       -0.17500785 0.0071035745 0.119540244 0.059304956
0000c0 83 9c db 3d b6 59 27 bd 76 8c 00 3e 34 fe e5 bd
       0.107232116 -0.04085704 0.12553582 -0.11230126
0000d0 ca 0d 91 3c 7e 11 4a be 48 df 34 be 23 40 99 3b
       0.01770677 -0.19733235 -0.176633 0.004676835
0000e0 c4 43 b7 3d cc a5 31 3e e2 a0 cd 3d e1 2d 19 3e
       0.08948472 0.17348403 0.100404516 0.14958908
0000f0 78 ec a5 bd 62 7d de be b2 c6 b3 3d 79 da 0f 3e
       -0.081017435 -0.43455034 0.087781325 0.14048184
000100 2a 6e 70 be 3b 43 57 3d fb cc 04 be ae 2b 61 be
       -0.23479524 0.05255435 -0.12968819 -0.21989319
000110 c3 60 26 bd 5f 30 30 be ee 6c 4e 3d 15 ed 4e bd
       -0.040619623 -0.17205952 0.050396852 -0.050519068
000120 02 c5 2b bd ad 98 4a be e5 1c cc 3d f5 d9 14 bd
       -0.04193593 -0.19784804 0.09966449 -0.036340673
000130 18 5f cb 3c 8a 1a e6 bd b8 31 1f be b6 25 1f 3d
       0.024825618 -0.11235531 -0.1554631 0.038854323
000140 83 ff 25 be 28 6a 06 3d 63 78 23 bd de f2 70 3d
       -0.16210751 0.032816082 -0.03990973 0.058825366
000150 57 4e 45 3d 99 2e 29 3d ee d3 84 3d 41 d5 43 bd
       0.048170414 0.041304205 0.06485735 -0.047810797
000160 a9 35 0b be 3a 46 ee 3d 0e 05 72 be f0 c5 7e 3d
       -0.13594688 0.116344884 -0.2363474 0.062200487
000170 59 de d9 bd 33 52 58 bd ab d8 79 be c0 6e 0b bd
       -0.106381126 -0.052812766 -0.24399059 -0.034041166
000180 53 38 3c be 16 46 e5 bd 2e ed 38 bd 61 ad 04 be
       -0.18380861 -0.111950085 -0.045148067 -0.12956764
000190 e1 01 37 be 79 ca 4f bd 8e 6e 69 bd ad 9d e4 3c
       -0.1787181 -0.050730202 -0.0569902 0.027907217
0001a0 c6 35 15 be 21 59 e7 3c 11 da 50 3c 64 d6 03 bd
       -0.14571294 0.028240742 0.012747304 -0.03218688
0001b0 9c d4 ea bd b7 eb 35 be e4 22 40 3d 3f b3 fc bd
       -0.11466333 -0.177657 0.046908274 -0.12338876
0001c0 c3 5c 03 bd 3a b2 5e 3d b6 14 18 3e fe 07 a0 bd
       -0.032070886 0.05436919 0.1485165 -0.078140244
0001d0 27 1c 13 bd c0 4d 05 be 4d 85 6c 3d 65 36 b2 3c
       -0.03591552 -0.1301794 0.057744313 0.021754453
0001e0 66 ca ca bd f1 c0 47 3e d9 90 8a bd 24 b1 6b 3d
       -0.09901886 0.19507195 -0.06765909 0.05754198
0001f0 5f 77 18 be 30 e5 b0 bd 8e f5 57 bc c4 09 53 bc
       -0.14889286 -0.08637464 -0.013181103 -0.012880746
000200 80 d1 12 bd 3a 66 4d be e5 88 dc bc b4 46 7d 3d
       -0.035844326 -0.20058528 -0.026920745 0.061835006
000210 88 ac 3b 3e 6f 28 12 be 88 10 06 3d e7 2b 83 3d
       0.18327534 -0.14273237 0.03273061 0.06404858
000220 cd 5f fc bc f4 42 e9 3d a5 b0 dc bd 2f a2 01 3d
       -0.0308074 0.113897234 -0.1077588 0.03164881
000230 02 de 7b 3c 1e 6c 9e 3d c1 5e 1a 3e f8 f5 52 bd
       0.015372755 0.077354655 0.15075208 -0.051504105
000240 f2 cd 13 3d 37 22 bc 3b 52 fa 7a 3d 48 f8 71 3d
       0.036085077 0.0057413834 0.06127388 0.05907467
000250 a7 af fc 39 4b 2e d3 bd bd 99 8e bd 24 bc 14 3c
       0.00048196057 -0.10311564 -0.06962917 0.009078059
000260 b9 64 5d 3b 50 e4 23 be 0b 55 88 3d 4f 28 62 3c
       0.003378196 -0.16005063 0.06656846 0.013803556
000270 3f c1 c2 bd d5 fc e6 bd ff 66 2e bd 15 a5 65 3d
       -0.09509515 -0.11278693 -0.042578693 0.056065638
000280 84 3b 1a bc 60 ae 72 bd e3 2e dc bc 60 9e 14 bd
       -0.009413604 -0.05924833 -0.026877826 -0.03628385
000290 98 d8 10 bd 1b 12 f0 bd 31 5f a8 3d ec 22 51 3d
       -0.03536281 -0.11722203 0.08221281 0.051058695
0002a0 9a d6 a4 3d 15 4b b1 3c af bb 7d bd 14 40 9e bd
       0.080487445 0.021642247 -0.061946567 -0.07727066
0002b0 ba ba e1 3c 30 51 b9 bd 23 cf 79 bd cc 9a 5c be
       0.027554858 -0.090486884 -0.060988557 -0.21543425
0002c0 d3 af 36 be 7b ef 02 be ff d6 13 bd 8e 21 5b be
       -0.17840509 -0.12786667 -0.036093708 -0.21399519
0002d0 68 2b 89 be 2c 65 21 bd 41 76 9f bd dd 5f 42 be
       -0.2679093 -0.039403126 -0.07786227 -0.18981881
0002e0 f8 02 68 3d c9 d5 a4 bd 45 d7 2e 3d 47 55 9e bd
       0.056643456 -0.08048589 0.042685766 -0.07731109
0002f0 53 8d d7 bd 3d 40 c3 3d 56 04 a0 bc fd dc 4b bc
       -0.10525002 0.09533737 -0.019533318 -0.012442824
000300 8e 7a 07 bd a1 a2 72 3d 0c 91 ad bc a6 3d 8f 3d
       -0.03307586 0.059237126 -0.021187328 0.069941804
000310 ef 62 cf 3d ab 0d fa bd 45 3a 05 bc a5 49 06 bb
       0.10126292 -0.12209638 -0.008131568 -0.0020490673
000320 1f 1a 31 bd 4f 12 9b bc 9f 95 0f bd 65 35 f9 3c
       -0.0432378 -0.018929629 -0.0350548 0.030420968
000330 cc 50 59 bd 98 09 89 bd be 54 99 bd 09 6f 32 ba
       -0.05305557 -0.06691283 -0.074868664 -0.00068067067
000340 fe a8 34 3d b7 05 00 3c 25 1a 16 3d 1c 92 ef 3d
       0.044106476 0.0078138625 0.036646027 0.1169779
000350 dd e7 2e bd 77 40 96 3c 7e 6f 36 bc cb 85 93 bd
       -0.04270159 0.018341286 -0.01113498 -0.07203253
000360 4d 4c 25 bd d9 dd ec bd d3 a0 93 bd 23 75 05 be
       -0.04035597 -0.115657516 -0.07208409 -0.13032965
000370 44 61 1b 3d ec 8b f1 bd bd 1e 0b 3d 8d 30 70 bd
       0.037934557 -0.11794266 0.03396486 -0.05864005
000380 07 51 1a be 1a 80 99 3d 72 a3 e1 bd 48 61 9a bd
       -0.15069972 0.074951366 -0.11017503 -0.07538086
000390 e7 61 62 3d 4f fb 64 bd 8b 76 05 3e 35 3d 8e bd
       0.05526915 -0.05590373 0.13033502 -0.06945268
0003a0 fc 8b b6 bd 82 66 ec bd 85 9d 8d bd 31 a5 d6 3d
       -0.08913419 -0.11542989 -0.0691481 0.104807265
0003b0 39 5c 33 3d a1 4b c8 bb 34 21 20 bd 8e 5c f5 bd
       0.043789122 -0.0061125313 -0.039094165 -0.11980544
0003c0 e1 e9 b3 3d 58 18 8a bc 39 21 a5 bd 97 47 18 be
       0.08784843 -0.016857311 -0.08062977 -0.1487106
0003d0 3a 6a 97 3d fb 80 b9 3d 56 cc 72 bd cf 88 06 bc
       0.07393308 0.09057804 -0.0592769 -0.008211329
0003e0 be 13 dd bd af ea 67 bd 38 d3 96 bc e6 db e3 3c
       -0.10794781 -0.056620296 -0.018411264 0.027814817
0003f0 5e 6d 1f bd 65 96 02 be 79 31 b1 3d 2d 69 87 bd
       -0.03892266 -0.12752683 0.08652014 -0.066118576

hidden_layers.1.bias f4 [64]
000000 6d de 89 bd f2 d1 c7 bc 59 cd b3 bd a6 6e f2 bc
       -0.067318775 -0.024392102 -0.08779401 -0.029593777
000010 3b 56 d7 3c 44 9d db 3d 01 10 4d 3d 02 83 0f bd
       0.026286235 0.107233554 0.05006409 -0.03503705
000020 8c fc 34 3c c7 d0 69 bd 72 55 9c 3d 50 70 23 bd
       0.01104654 -0.05708387 0.07633485 -0.03990203
000030 3b c9 8a 3d d2 90 f6 bb 86 55 93 3d 2d 1b 8d 3d
       0.06776663 -0.007524588 0.07194047 0.06889949
000040 37 51 1d bd 50 05 d2 3d 35 a9 d5 bd a7 3b ba 3c
       -0.03840753 0.102549195 -0.10432664 0.022733523
000050 98 2e a0 bc 22 d6 0c be 67 f6 9d bd c1 e7 6e ba
       -0.019553468 -0.1375356 -0.07713013 -0.00091135135
000060 02 3b eb 3d ee e7 c8 bd 0f 5d d1 bd e4 7f b9 3c
       0.11485864 -0.09809862 -0.10222828 0.02264399
000070 32 f0 06 bd 83 80 f7 bc 32 f5 b0 bd f6 88 26 3c
       -0.03294391 -0.030212646 -0.08640517 0.01016449
000080 78 19 a5 bd f6 1f db bc d4 be 08 3d 98 c9 5f 3c
       -0.080614984 -0.026748639 0.033385113 0.013658904
000090 8a 69 b3 bd 9d 37 fd 3d 4a c6 b6 3d d7 df 32 be
       -0.08760364 0.12364123 0.089245394 -0.174682
0000a0 85 87 69 3d 82 90 bc bd fd 16 84 3c 16 0a 69 bd
       0.057014007 -0.0920725 0.016124243 -0.056894384
0000b0 ba 2f 2e bd fd 2e ea bd b6 b3 e3 3c af 49 1f bc
       -0.042525984 -0.114347436 0.027795654 -0.009722157
0000c0 6d 2b 64 bd 77 ea 8e bd 91 95 e9 3c 4a 58 11 3e
       -0.055705477 -0.06978314 0.028513702 0.14193836
0000d0 a9 6a e6 bd 7e a8 a3 bd af 96 ed bd b1 e0 d1 bd
       -0.112508126 -0.07991122 -0.11601006 -0.102479346
0000e0 ac 4e 17 be f8 9b d6 bd 05 3d 8d bd 87 2a d1 3c
       -0.14776105 -0.104789674 -0.06896404 0.025532974
0000f0 e7 c2 98 bc ba 31 87 3d 83 51 df bd b7 68 20 be
       -0.018647624 0.066012815 -0.10904219 -0.15664946

output.weight f4 [4, 64]
000000 2a b6 00 3e 36 57 ca bc 3d 89 ab 3d 96 7f 8f 3d
       0.1256949 -0.024699789 0.083757855 0.07006757
000010 e7 41 0b 3e c8 13 4d ba 1b 1c be bc 69 3d 36 3d
       0.13599358 -0.0007823077 -0.023206761 0.04449216
000020 5b e3 88 3c 67 2f 9c 3d 64 22 7c bd 9a b1 3d 3c
       0.016709974 0.07626229 -0.061556235 0.011577988
000030 71 47 b1 bd 96 1d d2 3d 93 b6 5a be b7 24 a8 bd
       -0.086562045 0.10259549 -0.21358709 -0.08210128
000040 0e 6c 62 bd fd 1d 68 bd 82 be 27 3e 83 b4 cb 3b
       -0.05527883 -0.056669224 0.16381267 0.006216587
000050 9e 7e 9f bd 10 57 0d bd 43 c4 86 3e dc f8 2f bd
       -0.07787822 -0.034506857 0.2632161 -0.04296194
000060 67 07 91 bd 42 02 27 bd 3f 44 da 3c b2 87 ec 3c
       -0.0708149 -0.040773638 0.02664387 0.028873298
000070 9f 58 87 3b 7d ff db bb 3f 3d e9 3c 54 60 54 be
       0.0041304375 -0.006713806 0.028471587 -0.20739871
000080 eb 72 89 3d 57 5b 3d 3d 12 d9 37 bd cf 66 3e 3c
       0.06711372 0.046229687 -0.04488475 0.011621191
000090 9b a9 64 be 1e 22 69 3d 5b 79 c7 3d 6c 1e 65 be
       -0.22330324 0.056917302 0.097399436 -0.22374886
0000a0 61 a4 b3 bd c4 8b 4c bd d4 55 0f 3d a9 c0 3e 3c
       -0.08771587 -0.04993798 0.03499396 0.011642613
0000b0 6c 7f 5a 3d bf c7 a7 bd 20 15 6e bd ad 4e 30 3d
       0.053344175 -0.081923954 -0.058125615 0.04304378
0000c0 de ef 6f be 05 1c e1 bb a6 2b 4e bc 3c d0 ef bc
       -0.23431346 -0.0068697953 -0.012583649 -0.029274099
0000d0 00 27 00 be 44 6e 90 be 5a 32 96 bc f0 5d 37 3c
       -0.12514877 -0.28209126 -0.018334556 0.01119183
0000e0 54 a6 95 bd 16 05 0d be 5a 97 2e bd 6f 89 0f 3d
       -0.07307115 -0.13771471 -0.04262481 0.035043176
0000f0 7d 32 39 3b b7 e3 9e 3d f4 06 df bd a8 ff 76 3c
       0.0028258853 0.07758277 -0.10889998 0.015075602
000100 a9 52 6b 3e 10 7e 5a 3e b2 dc 0e 3b 85 72 27 3d
       0.22980751 0.21337152 0.0021799025 0.0408807
000110 5f 89 c7 3d 1b ba dc 3d ee 7e 4d bd bc 90 78 3e
       0.09742998 0.10777684 -0.050169878 0.24273962
000120 e0 9d d2 bc 7b 13 b6 bd f7 76 33 3e 0a 19 c2 3d
       -0.025710046 -0.08890434 0.1752585 0.09477432
000130 27 fc 5e bd 0f 10 48 3c 68 7e 12 3b f3 d7 d4 3d
       -0.05443969 0.01221086 0.0022353176 0.103927515
000140 29 48 82 3d 0e 8a cd 3d a1 c8 b6 bd 1c 45 75 3d
       0.0636142 0.100360975 -0.08924986 0.05988036
000150 fd 8c e4 3d c8 31 b0 bd 1d ea 3a bc 51 32 73 bd
       0.11159704 -0.08603245 -0.011408356 -0.059374157
000160 99 12 d0 3d 11 a3 29 3e 5b 63 a1 bd 38 7d 11 bd
       0.10159797 0.16566111 -0.07880279 -0.03551981
000170 5b b0 7e 3d 2e 07 aa bb cb 90 32 3e d6 5c e0 bd
       0.062179904 -0.005188844 0.17438047 -0.10955207
000180 a1 19 3e 3d c0 9e 73 3e d8 70 4d 3c a0 c5 14 bc
       0.04641116 0.23791027 0.012539111 -0.009080321
000190 a7 4f 8d 3e 19 3b 74 3d 7d 64 77 3d b4 72 80 bd
       0.27599832 0.059626672 0.060398567 -0.06271878
0001a0 16 1e 16 bd 25 10 33 3d 4f 46 b1 3c 19 29 59 bd
       -0.036649786 0.04371657 0.021639971 -0.05301771
0001b0 dd cc eb 3a 00 55 bb bd ca ef 4b bd 03 47 6b bd
       0.0017990131 -0.09147072 -0.049789228 -0.05744077
0001c0 d3 2b 84 bd 69 f9 9f bd 6e bd c3 3c b2 b4 a4 3d
       -0.06453671 -0.07811243 0.023894038 0.080422774
0001d0 3b c2 54 bd 9a 56 9f 3c 71 8c d4 3c 09 21 82 3e
       -0.051943045 0.019450475 0.025945874 0.2541583
0001e0 1a 26 cb bd ae 37 cb 3d fe e2 c0 3d e8 6f 88 3e
       -0.09919377 0.099227294 0.09418295 0.26647878
0001f0 1f 10 d5 bd af e5 d3 3c 1f 6e 71 bb d7 29 8a bc
       -0.104034655 0.025866358 -0.003683932 -0.016865654
000200 79 91 2a be 3d 45 72 be 0c a2 0b 3e 4b 9f 9c bd
       -0.16657056 -0.23659225 0.13636035 -0.0764757
000210 dd 25 80 3b 99 ad 75 bc 99 a8 2c be 6a 85 0e 3d
       0.0039107637 -0.014995002 -0.1686119 0.034795202
000220 44 f9 af 3d d7 66 e1 bd f2 09 ca bc 86 f5 40 3c
       0.085924655 -0.11005943 -0.024662945 0.011777287
000230 e3 f8 a7 3d 1b fd be 3d e1 ba cf 3c 41 8e 47 3d
       0.08201768 0.0932562 0.025357665 0.04871965
000240 b8 88 0d be ac b5 41 3d ae 9d 21 bd ae 04 78 be
       -0.13821685 0.047292396 -0.039457016 -0.24220535
000250 64 a1 ee bd 99 74 97 3d 1c c4 b3 3c 08 51 06 3e
       -0.116518766 0.07395286 0.021944098 0.13116848
000260 06 62 23 bd 2d 8d 65 3d c6 a4 1e 3e a7 03 7a 3d
       -0.039888404 0.05604284 0.15492544 0.06103864
000270 5e 08 9f 3b 4f 72 dd bd dc 6e 55 3d 3a 32 aa bc
       0.0048532924 -0.10812818 0.052107677 -0.020775903
000280 18 19 6f be 9b 17 4e 3d bc 0f 53 be b5 25 4c 3d
       -0.23349416 0.05031548 -0.20611471 0.049840648
000290 9a 05 95 3d 0b e2 ea 3c da 41 e9 3c ee 32 64 bd
       0.07276459 0.028672239 0.028473783 -0.055712633
0002a0 c2 b6 ce 3d 5a fd 39 3c f6 3b 63 be ae bf bf bd
       0.10093452 0.011351908 -0.22190842 -0.09362732
0002b0 e6 f2 00 be 8b 46 8c bd d9 ce 1e 3c a4 7b 33 be
       -0.12592658 -0.068493925 0.009692871 -0.17527634
0002c0 a5 02 ca bb 49 e8 24 be 2c 2b 43 be f8 2e 34 3d
       -0.006164866 -0.16104235 -0.19059438 0.043990105
0002d0 17 ef 92 bc 2f b0 76 bc ec 34 f0 bd b9 96 1c 3d
       -0.017936273 -0.015056654 -0.11728844 0.038229678
0002e0 fa 70 15 be 78 27 80 be 0c 0d 06 3e d5 50 f7 3c
       -0.14593878 -0.25030112 0.13090914 0.03018991
0002f0 70 67 7c bd f1 dc 8b bc d2 5b c7 3d a7 da 3c be
       -0.061622083 -0.017073127 0.0973431 -0.18442784
000300 f2 be 0e bc 0a f6 cb bd e4 04 86 3d 54 63 82 bd
       -0.008712517 -0.099590376 0.065439016 -0.063666016
000310 a6 b4 fd 3b 79 58 cf 3b 3f 35 ee bc 13 10 3f bd
       0.0077424822 0.0063276854 -0.029078124 -0.04664619
000320 f9 89 a6 bd d8 66 ba 3d 1a de 25 bd 9b a8 81 3c
       -0.08131785 0.09101647 -0.040495016 0.015827468
000330 70 30 b7 bc 4d b2 55 3e ba 4e 5b 3c 41 78 00 bd
       -0.022361964 0.20868798 0.013385469 -0.031364683
000340 98 88 01 bc 57 99 80 3b be 54 65 bd 3c 52 8b 3b
       -0.007906102 0.0039245295 -0.05598902 0.0042517465
000350 36 4c a0 3d 88 73 df 3d 1e c3 1d 3d 78 ec 9b 3d
       0.07827036 0.10910708 0.038516156 0.07613462
000360 bf 16 a8 3e 75 75 19 bc a6 85 75 3d e1 c4 54 3e
       0.32829854 -0.009366383 0.05994191 0.20778228
000370 80 f2 34 3e 1e 50 8f bd c3 a9 b7 bd be 0a 0c bd
       0.17670631 -0.06997703 -0.08967926 -0.034189932
000380 2b f2 cd 3c f2 46 ea bc 35 0c 83 bc b9 65 84 3e
       0.025139889 -0.028598282 -0.015997032 0.25858858
000390 6e bc 9c bd 6f 61 67 3c 37 8e 83 3d 32 c6 56 be
       -0.076531276 0.014122351 0.0642361 -0.20974043
0003a0 b5 e8 43 3c 78 92 27 3d d1 0c 35 3b a6 fa de bb
       0.011957337 0.040911168 0.0027626047 -0.006804782
0003b0 d4 d5 2b 3d 1a d7 54 3d 49 88 05 3d 78 49 76 bc
       0.04195197 0.05196295 0.032600675 -0.015032165
0003c0 b7 d3 dc 3c 06 0a 83 3d fe c5 7e bd 70 85 63 3d
       0.026956422 0.06398396 -0.06220054 0.055547178
0003d0 1c 68 c0 3d a7 b6 a1 bd 8f 0b 13 bd 1d 05 1f 3d
       0.09394857 -0.07896166 -0.035899695 0.038823236
0003e0 fe 69 9c bd d9 99 97 be 2a e5 a5 bc a0 df 12 3c
       -0.07637404 -0.29609564 -0.020250876 0.008964449
0003f0 16 53 da 3d ef 42 31 3d da 63 92 bd fc 27 0e 3a
       0.10660379 0.043276723 -0.071479514 0.0005422828

output.bias f4 [4]
000000 60 15 8f 3d 7c 08 dd 3d f2 2c e8 3d b2 15 d3 3d
       0.06986499 0.10792634 0.11336698 0.103068724

exp_avg f4 [64, 37]
000000 a0 e5 b4 38 ac 64 4e 37 da 7f a8 36 f8 ee 75 b6
       8.62584e-05 1.2301996e-05 5.021674e-06 -3.6646943e-06
000010 15 10 9e 37 57 13 f6 38 1f 69 0f 38 de 52 18 b8
       1.8842557e-05 0.000117337964 3.419176e-05 -3.63168e-05
000020 f1 4e 80 b7 66 b1 62 38 53 21 01 38 f1 6d bf b7
       -1.5295549e-05 5.4047814e-05 3.0787032e-05 -2.282017e-05
000030 72 2e d5 36 a8 82 b3 38 e6 89 94 b6 12 ec 91 b7
       6.3533016e-06 8.559722e-05 -4.426797e-06 -1.7395276e-05
000040 b8 b4 97 37 dc 7c ca 38 d1 76 33 36 0b d9 a3 38
       1.8084756e-05 9.6553675e-05 2.6742239e-06 7.812873e-05
000050 dd b3 00 b7 7b 90 18 37 17 fb 73 37 c3 0f b0 38
       -7.671272e-06 9.0935455e-06 1.454239e-05 8.39527e-05
000060 ad 7f 1c 37 96 2d 15 b6 c2 0f f2 37 f5 31 93 38
       9.328051e-06 -2.2229265e-06 2.8855986e-05 7.0188114e-05
000070 45 c8 4f 36 1e 3a 85 38 b7 b6 c7 38 7b fe 6c 37
       3.0961976e-06 6.3527594e-05 9.523093e-05 1.4125947e-05
000080 22 d9 97 36 f5 4a 6a b7 33 1e 91 38 13 93 12 b7
       4.5254283e-06 -1.3964939e-05 6.919764e-05 -8.7365215e-06
000090 56 49 6d ba 98 9e 3c 38 ec 40 1e 37 68 c8 0e 37
       -0.00090517604 4.4970395e-05 9.43265e-06 8.51052e-06
0000a0 25 d3 16 b7 f2 a9 dc 37 87 5a 7e 37 bb a1 e8 37
       -8.989858e-06 2.630518e-05 1.5160657e-05 2.7731867e-05
0000b0 ce 9c 38 37 ff 9a eb 32 cb a9 ee 37 b0 5f d7 37
       1.1003764e-05 2.7428085e-08 2.8450877e-05 2.5674555e-05
0000c0 2e bd 40 37 4f 70 8f 37 a0 95 b5 b4 6a be d8 37
       1.1488139e-05 1.7099226e-05 -3.3822744e-07 2.5837875e-05
0000d0 33 29 d0 35 69 f6 6e 37 ba ac d2 37 85 5b 5a 37
       1.5509198e-06 1.4243277e-05 2.5114383e-05 1.3015121e-05
0000e0 88 b4 90 37 ab 6c 55 b7 0e 7a 06 38 e1 a0 ff 37
       1.7250204e-05 -1.2721091e-05 3.2061762e-05 3.0473284e-05
0000f0 8c e6 89 36 b7 8b 06 38 c2 f1 81 37 00 01 c0 37
       4.1097574e-06 3.207821e-05 1.5490576e-05 2.288865e-05
000100 10 26 86 b6 06 ef a3 37 22 08 55 37 ee 40 69 37
       -3.9979423e-06 1.9542418e-05 1.2697683e-05 1.3903e-05
000110 eb 09 8d 37 73 6e 97 37 be fd ac 36 ec 8f b4 37
       1.6813128e-05 1.8052035e-05 5.155539e-06 2.1524691e-05
000120 9a 6b 80 36 c2 70 fa b7 be 52 a6 b8 dd a1 da 35
       3.8272237e-06 -2.985483e-05 -7.930909e-05 1.6289374e-06
000130 21 c5 64 b7 97 d3 e5 36 da 94 2a b7 e8 bf ad b8
       -1.3635757e-05 6.849364e-06 -1.0167447e-05 -8.285028e-05
000140 f9 42 67 37 e8 53 fc b6 ba 36 04 b7 ef d7 ba b7
       1.3784266e-05 -7.519953e-06 -7.880555e-06 -2.227348e-05
000150 06 a4 57 37 4c 60 17 b7 06 d8 0b 37 16 a7 ca b8
       1.2853188e-05 -9.022722e-06 8.3353425e-06 -9.663233e-05
000160 bf 8e 90 36 c8 5d ec b5 31 e1 de 36 52 cc 9c b8
       4.3081523e-06 -1.7610664e-06 6.6423313e-06 -7.476717e-05
000170 55 9f 74 b7 81 d9 97 b8 9f 16 51 b6 8f 5d 0d b7
       -1.4580631e-05 -7.240754e-05 -3.1156594e-06 -8.426038e-06
000180 23 78 ec 34 b1 db 99 b8 b7 e4 e8 b6 2b cf d2 b7
       4.4045836e-07 -7.336529e-05 -6.9407647e-06 -2.513042e-05
000190 fe a5 80 37 81 b6 ad b8 69 e9 08 37 12 50 57 b8
       1.5336085e-05 -8.283277e-05 8.160577e-06 -5.1334566e-05
0001a0 c7 8a c9 b8 ae f8 08 b6 97 73 23 37 81 07 84 36
       -9.610276e-05 -2.041033e-06 9.74247e-06 3.93478e-06
0001b0 50 90 73 b8 e6 5f 10 b7 98 8a 45 3a 4d 8b bd b8
       -5.8070116e-05 -8.605397e-06 0.00075356057 -9.038169e-05
0001c0 75 69 25 b6 48 47 0c b7 61 0a 10 b8 d5 69 a2 b5
       -2.46483e-06 -8.361247e-06 -3.434194e-05 -1.2100742e-06
0001d0 0c a5 7f b8 30 88 a2 b6 93 c2 52 b8 88 a1 a3 b7
       -6.095045e-05 -4.8438305e-06 -5.0249113e-05 -1.9506333e-05
0001e0 28 ac 63 b8 e1 51 1c b8 32 e4 52 b5 2a f3 62 b7
       -5.428135e-05 -3.7269554e-05 -7.8563164e-07 -1.3527266e-05
0001f0 95 17 b0 b8 fb 03 94 b6 7d 01 aa b7 69 05 a5 36
       -8.3967265e-05 -4.411207e-06 -2.0266272e-05 4.918013e-06
000200 a6 13 ce b8 10 04 b8 b7 c8 ea ac b8 d7 24 ef b7
       -9.826505e-05 -2.1936401e-05 -8.2453305e-05 -2.8508175e-05
000210 f5 cc 57 b7 7f 95 4b 36 89 de cb b8 53 05 bf b7
       -1.2862719e-05 3.0336375e-06 -9.721245e-05 -2.2771454e-05
000220 e8 be 36 b7 e3 61 26 b7 44 e1 03 b9 74 0f 39 37
       -1.0892494e-05 -9.917162e-06 -0.00012577052 1.1030457e-05
000230 33 57 af b8 91 6d 87 b8 8c 49 6e b5 65 4d 95 b8
       -8.3608924e-05 -6.45771e-05 -8.8768934e-07 -7.1192895e-05
000240 13 b6 94 35 1f 1c 96 b8 85 12 b6 36 54 ae e7 39
       1.107985e-06 -7.157795e-05 5.4261786e-06 0.00044189638
000250 11 89 8d 37 65 31 d1 35 b1 1a fc 34 3f 68 10 36
       1.6872336e-05 1.5586089e-06 4.6958078e-07 2.1518351e-06
000260 dd 84 04 36 ad 1b 93 36 bb f8 b5 b1 c2 ce 1f 38
       1.974687e-06 4.3841633e-06 -5.2960707e-09 3.8101112e-05
000270 7a bf b3 b7 7f f0 1f 37 7d e8 d2 36 67 8d 04 b7
       -2.1427626e-05 9.533133e-06 6.285553e-06 -7.900736e-06
000280 fa ab ca 37 b9 5c c8 b5 66 d5 1e 37 2e 80 d3 36
       2.416036e-05 -1.4928147e-06 9.46722e-06 6.303212e-06
000290 23 38 81 34 7c 9a d9 37 9c cb 3f b7 59 22 50 b5
       2.4068967e-07 2.5940353e-05 -1.1431894e-05 -7.753602e-07
0002a0 89 00 15 37 83 f5 44 b7 a2 a6 37 37 8b 81 59 37
       8.881217e-06 -1.1739673e-05 1.0946447e-05 1.29643695e-05
0002b0 86 21 13 37 5b b4 78 b7 8f c8 96 34 31 e2 31 38
       8.769688e-06 -1.4823944e-05 2.8085603e-07 4.2410746e-05
0002c0 03 af e4 b6 f7 bc 15 37 f3 b9 45 b7 ec 0d 97 35
       -6.8153035e-06 8.925089e-06 -1.178541e-05 1.1254429e-06
0002d0 ce e7 08 38 4f 3d 79 b5 16 de 4a 36 25 77 1c b8
       3.264081e-05 -9.2848944e-07 3.0229617e-06 -3.730426e-05
0002e0 d6 13 21 39 a5 6e e5 b6 b0 51 d2 35 08 a2 a1 36
       0.00015361546 -6.8376125e-06 1.5669993e-06 4.817037e-06
0002f0 75 b7 5e b5 8c c5 24 b7 82 55 40 b7 e6 31 ad 36
       -8.296841e-07 -9.821157e-06 -1.1464001e-05 5.1616107e-06
000300 cf 2e 2e 37 98 f3 b3 b6 ad 8c 8c 36 44 8b b8 b6
       1.0382107e-05 -5.3629738e-06 4.188702e-06 -5.49984e-06
000310 f6 9b 57 36 be 73 c2 b6 ef 21 e4 36 32 f6 c4 35
       3.2128278e-06 -5.7951247e-06 6.79888e-06 1.467479e-06
000320 ca 1a 66 b6 4f 8f f9 36 63 b4 f3 36 b3 a2 52 b7
       -3.4288264e-06 7.4374616e-06 7.262964e-06 -1.2554857e-05
000330 7a 37 80 34 13 03 e1 b6 f7 f2 5d b6 69 b8 c5 b1
       2.3882222e-07 -6.7058804e-06 -3.307299e-06 -5.7544196e-09
000340 74 8f 12 37 dd 55 32 b6 5b 81 9a b5 1a 6a 47 36
       8.735678e-06 -2.6574046e-06 -1.1511542e-06 2.971507e-06
000350 80 fa 11 37 6a 0c 46 b7 a3 72 9e 36 7d 8e ce b6
       8.700998e-06 -1.180461e-05 4.7221124e-06 -6.1558662e-06
000360 d0 ca 96 36 13 69 cb 36 7c b4 be b6 64 83 95 b3
       4.493959e-06 6.0621037e-06 -5.6834524e-06 -6.962253e-08
000370 4a d6 b5 b6 67 94 2e b7 99 f3 c6 36 21 5f 98 37
       -5.419167e-06 -1.0405761e-05 5.9292183e-06 1.816411e-05
000380 09 e7 e9 b6 46 b3 4f 36 a1 43 94 37 01 77 11 34
       -6.970837e-06 3.0949755e-06 1.7674467e-05 1.354747e-07
000390 ac de 26 37 41 59 1b 37 fb 38 6b 35 a0 18 d6 36
       9.946216e-06 9.259501e-06 8.762724e-07 6.3805637e-06
0003a0 aa 35 25 37 63 fe 95 36 0e 62 47 b5 42 e5 de 36
       9.847261e-06 4.4701605e-06 -7.4275965e-07 6.6428047e-06
0003b0 ce a0 e3 36 18 2a 2c 37 a9 51 38 37 63 cc 0d b6
       6.7838473e-06 1.02618e-05 1.0986268e-05 -2.1129606e-06
0003c0 ae 45 91 35 9a 2d d5 36 09 a1 ac 36 a1 22 a4 36
       1.0823621e-06 6.3532034e-06 5.1447464e-06 4.891612e-06
0003d0 b9 9f 23 37 78 f9 e5 34 c4 29 e4 36 25 8c e2 36
       9.752745e-06 4.2836086e-07 6.7997917e-06 6.75164e-06
0003e0 59 01 6c 36 3c d2 81 37 03 73 b9 b6 79 29 03 37
       3.5167525e-06 1.5475896e-05 -5.5268188e-06 7.817865e-06
0003f0 fc f0 d1 36 03 6c 94 36 39 fe 96 35 13 23 0d 37
       6.2567397e-06 4.423318e-06 1.1249859e-06 8.412421e-06

exp_avg_sq f4 [64, 37]
000000 23 29 79 33 4e 7a 3e 32 13 5a e4 33 93 6a a1 30
       5.8012244e-08 1.1087264e-08 1.0633462e-07 1.1744582e-09
000010 d7 56 04 33 31 bc d9 32 87 8f 24 33 19 06 69 32
       3.0812625e-08 2.5347704e-08 3.8314763e-08 1.3563771e-08
000020 14 8a db 33 59 27 22 33 24 9a e2 31 1a 5f e3 33
       1.02230985e-07 3.775435e-08 6.5949894e-09 1.058781e-07
000030 03 03 40 32 03 f7 70 33 1f 47 ae 32 75 ae 29 32
       1.1176556e-08 5.610401e-08 2.0288608e-08 9.876762e-09
000040 35 5e 27 33 2d aa c8 33 e8 6e 20 33 f9 e2 bf 33
       3.89684e-08 9.3441805e-08 3.735377e-08 8.935417e-08
000050 2e 1c 20 33 3b b3 e1 33 3b 79 60 32 25 0e c2 32
       3.7278532e-08 1.0509981e-07 1.3066081e-08 2.2591005e-08
000060 67 3c 3f 33 b1 5d f2 33 e5 4e 23 33 bd ef e0 32
       4.452559e-08 1.12860455e-07 3.802315e-08 2.6186052e-08
000070 3a 5b 0d 31 d3 e6 6e 33 0a 63 2b 34 c5 63 9f 31
       2.0570057e-09 5.5623627e-08 1.5961646e-07 4.6388515e-09
000080 59 c9 14 32 12 da fe 31 59 5a 3a 33 17 8e 1e 34
       8.660515e-09 7.4171647e-09 4.338867e-08 1.4766589e-07
000090 33 ad f5 36 17 af 6b 33 3d 66 ab 31 95 2c c6 32
       7.321732e-06 5.4874445e-08 4.988378e-09 2.3070507e-08
0000a0 e7 af db 30 2e dd 1b 32 93 70 84 32 89 77 b9 32
       1.5984342e-09 9.072478e-09 1.5418015e-08 2.1591193e-08
0000b0 42 63 0c 33 65 b3 43 32 1a 8c 98 32 66 4e fc 32
       3.2686565e-08 1.13912835e-08 1.775884e-08 2.9372313e-08
0000c0 4a 1e 81 32 39 b2 64 32 25 e1 c2 32 bc ae 01 32
       1.503135e-08 1.331187e-08 2.2686956e-08 7.548518e-09
0000d0 6a a3 ba 31 9f 88 b6 32 d0 ca c1 32 e4 e0 0a 33
       5.4318905e-09 2.1249717e-08 2.2560386e-08 3.2335166e-08
0000e0 bf 68 cb 32 43 91 93 32 c5 a4 ad 32 68 12 21 33
       2.3679943e-08 1.717911e-08 2.021478e-08 3.7502474e-08
0000f0 93 d5 ff 31 c7 af 7b 32 80 e7 a7 32 a5 ac bc 32
       7.4457573e-09 1.465009e-08 1.9546633e-08 2.196459e-08
000100 ac 7a 26 33 ee be 50 31 55 c7 9e 32 52 1f 0f 33
       3.8761456e-08 3.0376515e-09 1.8484267e-08 3.3323268e-08
000110 5d c0 0b 32 7b 5a 29 33 d3 2e 9b 30 33 98 87 32
       8.134603e-09 3.943067e-08 1.1291043e-09 1.578528e-08
000120 68 27 ad 33 ed be aa 35 a3 86 24 33 85 38 c0 32
       8.063108e-08 1.2721554e-06 3.8306677e-08 2.2377444e-08
000130 bb e5 09 34 e6 62 20 30 9c 37 5d 33 7a 14 d8 32
       1.2842695e-07 5.8348204e-10 5.150615e-08 2.5155021e-08
000140 2b e5 15 31 d4 1e 3c 33 0c 4e f8 33 e4 f0 88 32
       2.181262e-09 4.38002e-08 1.15625966e-07 1.5942028e-08
000150 53 d9 9c 31 21 de 11 34 76 6d c4 32 c4 2c d0 32
       4.5649045e-09 1.3584987e-07 2.286718e-08 2.4234744e-08
000160 eb 10 ec 32 e5 66 c7 32 b4 55 7e 31 3b 2c e3 33
       2.748171e-08 2.321344e-08 3.7010581e-09 1.0578557e-07
000170 20 1e 6b 33 5b b3 a9 33 4c e9 95 31 f7 60 0e 34
       5.47426e-08 7.9023e-08 4.3629935e-09 1.3260056e-07
000180 c2 30 c4 32 a8 12 e3 32 47 e2 2a 33 54 bc 26 34
       2.2839576e-08 2.6434762e-08 3.9787007e-08 1.5528468e-07
000190 2d b4 6d 31 79 cf f8 32 fe 67 90 30 66 2f 25 33
       3.4590457e-09 2.8965347e-08 1.0506935e-09 3.8460165e-08
0001a0 8e 21 11 34 94 3e 8e 31 94 d9 c6 32 eb 2e c6 32
       1.3516384e-07 4.1398582e-09 2.3149177e-08 2.307157e-08
0001b0 44 bf 04 33 50 24 8c 33 41 a6 43 37 ea 51 ad 33
       3.09076e-08 6.525863e-08 1.1661615e-05 8.07084e-08
0001c0 fa 2e cc 33 05 b9 97 33 2e f1 86 31 21 58 b2 33
       9.508035e-08 7.06514e-08 3.9273322e-09 8.3048015e-08
0001d0 e4 47 a4 33 e8 5b 08 33 18 18 dc 33 f7 b4 50 33
       7.649922e-08 3.1748556e-08 1.0248931e-07 4.859336e-08
0001e0 a3 4a 1f 33 6c 0e 26 33 ea 49 3b 33 d6 69 13 34
       3.7087954e-08 3.8663003e-08 4.3606555e-08 1.3728945e-07
0001f0 f7 e1 0c 33 12 c7 e4 32 47 35 53 33 18 4f bb 32
       3.2801804e-08 2.663322e-08 4.917572e-08 2.1805633e-08
000200 0a b6 15 34 47 2c 4a 33 f5 36 9a 33 81 97 e6 33
       1.3942932e-07 4.707206e-08 7.1811805e-08 1.0737768e-07
000210 a6 21 12 33 d3 18 bb 33 25 8c be 32 76 f8 29 33
       3.4023877e-08 8.7123816e-08 2.2182642e-08 3.9574353e-08
000220 8e 2b b9 33 39 37 12 33 f4 2d 12 34 f6 b6 c6 31
       8.6226564e-08 3.40435e-08 1.3614027e-07 5.7833587e-09
000230 4d ce 85 33 17 ce 1c 34 46 19 aa 31 cc 70 8e 33
       6.230821e-08 1.4603607e-07 4.9505244e-09 6.632908e-08
000240 b3 6d 20 33 8a 33 e3 32 d2 b8 65 34 09 bf 2d 37
       3.7352674e-08 2.6449715e-08 2.1394524e-07 1.0356082e-05
000250 2a e1 eb 33 41 2b 4b 32 d1 62 89 34 fd a8 09 31
       1.09839974e-07 1.182599e-08 2.5590137e-07 2.0032183e-09
000260 32 56 92 33 59 b9 62 32 d4 e7 c5 30 2a 1e 1c 34
       6.8143336e-08 1.31970745e-08 1.4399526e-09 1.4539606e-07
000270 1d 22 6e 34 3a b8 4a 31 b4 1b e4 33 d3 40 6f 34
       2.2177888e-07 2.949959e-09 1.06221165e-07 2.2282192e-07
000280 5c 2b 67 33 71 e4 b9 30 28 8f 2d 33 ff 07 8a 32
       5.3823314e-08 1.3525449e-09 4.04099e-08 1.606895e-08
000290 fd 43 30 31 4c 6f 89 34 a6 05 e4 33 fa 75 3d 34
       2.5650018e-09 2.5599218e-07 1.0618105e-07 1.7644916e-07
0002a0 f7 49 d8 32 89 3d 6f 34 5b 1b 12 34 01 35 20 31
       2.5179345e-08 2.2280996e-07 1.3607261e-07 2.3313194e-09
0002b0 fe 4b 40 33 de d2 70 34 c5 77 4a 31 03 7d 23 34
       4.4772598e-08 2.2428455e-07 2.946295e-09 1.5226037e-07
0002c0 07 d2 06 31 3d 0e f1 32 ba a4 7a 34 10 41 3a 30
       1.9618953e-09 2.8062567e-08 2.3342992e-07 6.7758865e-10
0002d0 b2 e5 1d 34 47 ff 83 30 a5 d8 ea 32 da aa b0 34
       1.4705327e-07 9.604059e-10 2.7339704e-08 3.2906865e-07
0002e0 0b ac ff 36 e2 71 b4 31 dc 03 bc 31 63 81 8b 31
       7.6196206e-06 5.2516365e-09 5.471959e-09 4.060142e-09
0002f0 6a c6 92 2f d6 6d 86 31 f9 de 9c 31 50 98 b9 31
       2.6698227e-10 3.9124e-09 4.5655466e-09 5.4015246e-09
000300 cd 50 8d 31 14 e0 6d 30 45 a7 5a 31 a9 59 96 30
       4.112826e-09 8.653853e-10 3.1818257e-09 1.0939419e-09
000310 39 cf b4 30 46 10 26 32 1a fe 56 31 c2 46 06 31
       1.315562e-09 9.666172e-09 3.1285539e-09 1.9539788e-09
000320 ff ac 9d 30 ec ae ae 31 f3 f0 08 32 35 0d 7f 30
       1.1472422e-09 5.083953e-09 7.971027e-09 9.278723e-10
000330 4f 90 46 31 1d f2 32 32 f9 ac 0c 31 03 69 22 31
       2.8894822e-09 1.0416014e-08 2.0471005e-09 2.3633795e-09
000340 3c 56 39 30 61 41 4b 31 35 f3 5c 30 fa 5b c6 31
       6.7425154e-10 2.9577552e-09 8.038115e-10 5.773015e-09
000350 9b fa 0d 32 58 1e 19 30 68 de 75 31 31 41 05 32
       8.264261e-09 5.5704197e-10 3.5778616e-09 7.756442e-09
000360 a7 fe 07 31 ca b9 a1 31 9b bd 1e 30 ca 4f 33 31
       1.9789839e-09 4.7068385e-09 5.774951e-10 2.6093283e-09
000370 0a fe b8 32 ab 93 24 35 af fa eb 31 80 63 65 32
       2.1535943e-08 6.1309646e-07 6.8678996e-09 1.3352178e-08
000380 c2 f8 eb 33 87 45 b5 30 1c aa 0e 33 43 59 84 31
       1.0988289e-07 1.3189244e-09 3.3216665e-08 3.8518535e-09
000390 3b 4d cb 31 4c bd 72 32 11 a5 e6 33 5c 5c d3 31
       5.9168577e-09 1.4129295e-08 1.0740235e-07 6.1514083e-09
0003a0 16 87 fc 30 2c b3 fe 33 21 6c 4d 32 06 03 81 30
       1.8373807e-09 1.1860388e-07 1.1957156e-08 9.386845e-10
0003b0 47 4c bd 32 b6 80 80 32 e8 f3 63 31 80 ff bd 33
       2.2037183e-08 1.4959692e-08 3.3171492e-09 8.8474735e-08
0003c0 f7 5c df 32 7e aa 99 33 22 a8 ae 31 fb a6 f5 33
       2.6002892e-08 7.15563e-08 5.083181e-09 1.1439075e-07
0003d0 aa 44 52 32 94 29 be 30 80 2b f8 32 8d e0 03 34
       1.2239221e-08 1.3836137e-09 2.8890781e-08 1.2282017e-07
0003e0 5a 12 7a 31 98 c6 59 31 6d bf ac 30 0c 25 af 32
       3.639022e-09 3.1690544e-09 1.2569054e-09 2.0389528e-08
0003f0 dd 27 fa 33 61 30 d9 30 db b5 48 31 62 7f 3e 32
       1.1648783e-07 1.5802578e-09 2.9207203e-09 1.1088419e-08

exp_avg f4 [64]
000000 bb 8a d1 38 23 2c 62 38 a1 23 b1 b8 5a 22 0e b9
       9.991737e-05 5.3923704e-05 -8.446654e-05 -0.00013554972
000010 9a 99 b0 37 58 3c ac b5 b0 98 a9 37 ff 15 5a 37
       2.1052361e-05 -1.2832561e-06 2.021747e-05 1.2998934e-05
000020 ec 66 81 37 30 e5 c3 37 60 3b 30 b8 27 54 63 b5
       1.5425925e-05 2.3352535e-05 -4.2016967e-05 -8.468655e-07
000030 b9 24 35 35 8f 12 dd b8 83 75 92 b6 9a 0c 4c 38
       6.7481193e-07 -0.00010541558 -4.3648192e-06 4.8649126e-05
000040 3f 73 55 38 84 eb 14 36 59 46 75 b8 4f e3 ba b8
       5.089049e-05 2.2190807e-06 -5.847807e-05 -8.911511e-05
000050 3d a9 1d 38 7e eb a8 b8 71 ca c9 b6 4b e2 40 38
       3.7589332e-05 -8.054728e-05 -6.013834e-06 4.598712e-05
000060 f0 43 d0 b7 0a b2 13 38 b8 79 bc 37 21 d5 97 37
       -2.4827168e-05 3.5213343e-05 2.2468026e-05 1.8099849e-05
000070 51 be 67 b6 af e8 69 b7 36 38 27 b7 c0 5e 00 38
       -3.453246e-06 -1.3942058e-05 -9.967063e-06 3.060582e-05
000080 2b 2e 7b 38 ce 2e 9e b6 07 ec 1b 38 02 91 37 b8
       5.988606e-05 -4.7142157e-06 3.7174697e-05 -4.376565e-05
000090 fa 0d d5 b8 56 1e 36 b8 d1 7d 0e b7 dc 4a 42 b8
       -0.00010159235 -4.3420434e-05 -8.4931535e-06 -4.6322923e-05
0000a0 11 60 07 b8 9b 54 aa b7 4e e5 1b b8 66 a1 40 b6
       -3.2275977e-05 -2.0304977e-05 -3.7168436e-05 -2.8704176e-06
0000b0 cd f4 fb b7 6a 80 1e 37 75 f9 03 b8 de 5d 10 38
       -3.0035526e-05 9.447433e-06 -3.146516e-05 3.4419696e-05
0000c0 ac 95 96 b7 aa ee e8 37 cd b1 18 37 a6 7e d3 b7
       -1.795109e-05 2.7767692e-05 9.1013035e-06 -2.5212135e-05
0000d0 31 a8 72 b8 a9 71 0a 38 e4 bd 94 b7 94 a2 ad b6
       -5.7853937e-05 3.300762e-05 -1.77314e-05 -5.1747284e-06
0000e0 39 0e 88 38 34 1e 32 37 d3 59 f3 b6 47 73 a7 37
       6.4876345e-05 1.0616659e-05 -7.2524213e-06 1.9961632e-05
0000f0 3a 0a f2 b6 9e 98 c5 38 ed 92 d4 b7 4d c1 5a 38
       -7.2133525e-06 9.422119e-05 -2.5340787e-05 5.2155276e-05

exp_avg_sq f4 [64]
000000 64 c8 43 34 69 59 b3 33 34 5c 49 34 64 3a 90 34
       1.8233692e-07 8.351601e-08 1.8753127e-07 2.6864575e-07
000010 19 4c cc 34 e5 d1 85 32 0e 3a 10 34 58 e3 7a 34
       3.805333e-07 1.5578687e-08 1.3432165e-07 2.3365772e-07
000020 ab 12 58 33 f8 0e af 33 e4 29 3c 33 c3 47 9b 33
       5.0308397e-08 8.151795e-08 4.381026e-08 7.230803e-08
000030 95 1a 20 33 6d 74 41 34 a4 8c fc 33 6d b9 ad 33
       3.727708e-08 1.8016881e-07 1.1760247e-07 8.089669e-08
000040 41 d3 aa 33 f0 82 90 32 42 75 db 33 d7 cb a5 33
       7.954669e-08 1.682335e-08 1.0219311e-07 7.7204895e-08
000050 b2 bc 3c 33 41 85 5a 34 96 79 b9 33 c3 3a 62 33
       4.394378e-08 2.035131e-07 8.63685e-08 5.267317e-08
000060 ce 8d 7b 33 68 aa e0 33 6a f7 d2 33 a8 5b 8a 33
       5.8569462e-08 1.04618096e-07 9.8238914e-08 6.442798e-08
000070 27 eb 82 33 5d d4 ed 32 bd a3 39 31 6f 75 05 34
       6.096371e-08 2.7687003e-08 2.7014118e-09 1.2429312e-07
000080 ab 1a ee 32 e0 89 48 34 39 43 20 34 97 d3 ce 34
       2.7718974e-08 1.867661e-07 1.4925617e-07 3.8524442e-07
000090 1b d1 f5 33 ed 15 4d 34 9c b4 5e 34 5a 96 c6 34
       1.14467376e-07 1.910009e-07 2.0741066e-07 3.698977e-07
0000a0 c1 ef a2 33 b1 cc f0 33 20 d1 69 33 c4 15 40 33
       7.587324e-08 1.1213104e-07 5.4439738e-08 4.472328e-08
0000b0 96 bf 4b 34 e3 62 42 34 fa 9a 3c 33 45 11 69 33
       1.8975547e-07 1.8103633e-07 4.391311e-08 5.4265247e-08
0000c0 37 7f 2f 33 51 23 b1 33 e0 7d 89 34 1e 74 a6 33
       4.0861064e-08 8.248629e-08 2.5609825e-07 7.751099e-08
0000d0 ac 0c a0 33 34 51 bd 33 01 c5 0a 34 9e 90 3c 34
       7.4528856e-08 8.815769e-08 1.2923921e-07 1.7561476e-07
0000e0 b4 57 d5 33 f7 1c 22 33 63 19 b8 32 ed 01 20 34
       9.9345385e-08 3.7744908e-08 2.1431964e-08 1.4901862e-07
0000f0 ec b6 3a 33 20 2d 5b 34 3b 46 6f 33 bb 3c a8 33
       4.3472866e-08 2.0412381e-07 5.5710398e-08 7.8341564e-08
