p1_navigation/DQN20190126_v1.pth (torch_old, 57049 bytes, 12 tensors)

hidden_layers.0.weight f4 [64, 37]
0.058607973 0.0011119879 -0.10752449 -0.045517303 0.08872891 0.1159542 0.04268627 0.08940653
-0.06544877 0.005536523 -0.042812217 0.0600812 0.15225023 0.13942002 -0.014096041 0.11252925
0.14841345 0.00863418 0.068118066 0.09369473 -0.13207513 -0.06808965 0.121879734 0.013896549
-0.015319648 -0.08763015 -0.1005353 -0.0007389408 -0.03854408 0.104168095 -0.043681815 -0.037582695
0.033334605 -0.05352965 0.09804063 0.15584488 -0.07547962 -0.14219768 0.060033396 0.10886268
-0.13266191 0.057826415 -0.12732984 0.07840254 -0.0022879357 0.07673192 -0.083199546 -0.044548117
0.10159386 -0.13558036 0.05698047 -0.0047070575 -0.10675161 -0.06802967 -0.06547299 -0.056085028
-0.05045715 0.02512489 0.07171676 0.1281751 0.033426773 0.025371613 0.015358842 -0.13571638
-0.020818368 0.021147992 -0.031917337 0.12009722 -0.09443725 -0.13313511 0.09902062 -0.0810683
0.024867276 0.14501509 -0.0257432 0.06266243 -0.09222457 -0.11936205 0.052812226 -0.09102499
-0.021535583 -0.038573667 0.14801669 -0.09413089 -0.14525178 0.14011589 -0.11009689 0.15784198
0.07398696 -0.08364151 -0.13267554 0.1214211 -0.14916348 -0.120009884 -0.010197513 -0.044888195
-0.16278079 -0.025758564 0.12466262 0.03252231 0.113721915 0.12245198 0.0030189662 0.05178494
0.15383825 0.04563493 -0.10282629 -0.017539669 0.06598797 -0.0047910996 -0.12448673 0.13363972
-0.08558924 -0.08928374 -0.09946841 -0.108631074 0.12752244 0.01942949 -0.08974133 0.033616915
-0.02175133 0.04259058 -0.011252751 -0.03109265 0.021383727 -0.08296451 0.009991802 0.022745993
0.06553103 0.023485845 -0.021983244 -0.16488819 -0.10696375 -0.073722646 0.1491225 0.06498015
0.04537629 -0.13171765 -0.12247923 0.049220733 0.118865654 -0.12052488 0.11060431 -0.14409746
0.11124742 -0.10034329 0.07276775 0.02351045 -0.03875832 0.13730581 -0.035200924 -0.05555211
-0.12594229 -0.008383151 -0.1601924 0.0036353746 0.0902744 -0.019240985 -0.016507097 0.084814824
-0.13285434 0.088873215 -0.026078107 0.050312486 -0.07159952 -0.07066803 -0.029484285 -0.10253724
0.13262223 0.12679665 0.14416163 0.03806697 -0.027609706 0.15619615 -0.08510534 -0.06475835
-0.033801086 0.06715797 0.041956242 0.07095865 0.07925171 -0.13007943 0.031572398 -0.027136067
-0.065814696 -0.12200256 -0.120889366 0.09450617 -0.03965449 0.07677626 0.049982674 -0.015623631
-0.15269792 -0.053076927 -0.16272 0.09160684 -0.12169488 0.111017905 -0.08547755 0.068687424
-0.006346108 0.0988368 -0.10454551 -0.08872905 0.072321 0.11047925 -0.059666086 0.09354551
-0.13519304 -0.0681273 -0.009750755 -0.052137595 0.010112355 -0.080315255 -0.12718615 -0.0036329317
0.09186679 0.06109213 -0.12208811 -0.15795447 0.1160465 0.14122352 -0.024071407 -0.054500036
-0.111456014 0.06883524 -0.08611072 -0.145816 0.02495193 0.03973023 -0.01847763 -0.10729414
-0.085844986 -0.113786966 -0.15396838 0.062273093 0.11020032 -0.103779905 0.010749238 -0.06511928
0.00813641 -0.12016643 -0.101742774 -0.02165775 0.110915646 -0.14309049 0.055527773 0.14148882
-0.055149697 0.057574935 -0.084969856 -0.026324775 0.096629076 0.020565795 -0.07774499 0.07356646
00000000: ea0e 703d 1fc0 913a cd35 dcbd 5a70 3abd
00000010: 81b7 b53d 6579 ed3d ccd7 2e3d c51a b73d
00000020: 010a 86bd b96b b53b dd5b 2fbd b417 763d
00000030: 7ce7 1b3e 1fc4 0e3e 15f3 66bc bc75 e63d
00000040: b2f9 173e 6076 0d3c 7c81 8b3d 06e3 bf3d
00000050: b43e 07be 9672 8bbd 159c f93d 5aae 633c
00000060: 43ff 7abc 7077 b3bd 74e5 cdbd 7ab5 41ba
00000070: 66e0 1dbd 1556 d53d b4eb 32bd 50f0 19bd
00000080: de89 083d e841 5bbd 87c9 c83d cd95 1f3e
00000090: 0f95 9abd 459c 11be 94e5 753d 66f3 de3d
000000a0: 86d8 07be 64db 6c3d c162 02be 8391 a03d
000000b0: 31f1 15bb a025 9d3d 8664 aabd 1678 36bd
000000c0: 7110 d03d 94d5 0abe 5a64 693d a93d 9abb
000000d0: 97a0 dabd 2453 8bbd b416 86bd 6ab9 65bd
000000e0: 28ac 4ebd b7d2 cd3c 3de0 923d 5540 033e
000000f0: 83ea 083d 21d8 cf3c a7a3 7b3c 3cf9 0abe
00000100: 488b aabc 8e3e ad3c c1bb 02bd 88f5 f53d
00000110: 5168 c1bd 9254 08be 53cb ca3d 2307 a6bd
00000120: 75b6 cb3c d67e 143e 67e3 d2bc 2955 803d
00000130: 3ce0 bcbd 1774 f4bd a251 583d 4f6b babd
00000140: 646b b0bc 6cff 1dbd b091 173e b2c7 c0bd
00000150: e2bc 14be 8a7a 0f3e 7a7a e1bd 54a1 213e
00000160: 7a86 973d 3d4c abbd 19dc 07be a0ab f83d
00000170: 50be 18be bec7 f5bd 7813 27bc afdc 37bd
00000180: 02b0 26be a003 d3bc 1e4f ff3d 1d36 053d
00000190: 09e7 e83d 1bc8 fa3d d9d9 453b 721c 543d
000001a0: c687 1d3e b1eb 3a3d 9796 d2bd 5aaf 8fbc
000001b0: b324 873d a8fe 9cbb e6f2 febd dad8 083e
000001c0: 6949 afbd 65da b6bd 18b6 cbbd f879 debd
000001d0: 3e95 023e 982a 9f3c 4dca b7bd e4b1 093d
000001e0: d82f b2bc 7673 2e3d 755d 38bc 03b6 febc
000001f0: ed2c af3c 4ce9 a9bd a8b4 233c ce55 ba3c
00000200: 2235 863d 6365 c03c 3416 b4bc 73d8 28be
00000210: d00f dbbd e6fb 96bd 92b3 183e 5014 853d
00000220: 7ddc 393d fee0 06be 64d6 fabd ae9b 493d
00000230: d66f f33d c0d5 f6bd 8384 e23d 498e 13be
00000240: b0d5 e33d c880 cdbd 4207 953d fd98 c03c
00000250: 0bc1 1ebd e599 0c3e d82e 10bd 9c8a 63bd
00000260: 04f7 00be 7c59 09bc 7a09 24be 773f 6e3b
00000270: c9e1 b83d 459f 9dbc e439 87bc 65b3 ad3d
00000280: f80a 08be 2903 b63d c1a1 d5bc 7714 4e3d
00000290: c5a2 92bd 66ba 90bd 0789 f1bc 0bff d1bd
000002a0: 1fce 073e fbd6 013e 1b9f 133e 1cec 1b3d
000002b0: c02d e2bc e2f1 1f3e b54b aebd 07a0 84bd
000002c0: 0273 0abd 1e8a 893d 4fda 2b3d c552 913d
000002d0: b84e a23d 8b33 05be 0f52 013d 754c debc
000002e0: dbc9 86bd 7adc f9bd d894 f7bd 738c c13d
000002f0: bf6c 22bd df3c 9d3d a2ba 4c3d 42fa 7fbc
00000300: d85c 1cbe 3167 59bd 12a0 26be 5e9c bb3d
00000310: 2a3b f9bd 5b5d e33d db0e afbd feab 8c3d
00000320: 03f3 cfbb f36a ca3d f51b d6bd 93b7 b5bd
00000330: 081d 943d f242 e23d 6d64 74bd ca94 bf3d
00000340: 0b70 0abe 5386 8bbd a1c1 1fbc 3b8e 55bd
00000350: 4bae 253c 537c a4bd 163d 02be 7b16 6ebb
00000360: a824 bc3d be3b 7a3d 5509 fabd d1be 21be
00000370: caa9 ed3d e69c 103e 6631 c5bc 6e3b 5fbd
00000380: 0d43 e4bd 7ef9 8c3d d15a b0bd ca50 15be
00000390: fd67 cc3c 2abc 223d 665e 97bc 08bd dbbd
000003a0: 7fcf afbd 2409 e9bd e3a9 1dbe 1212 7f3d
000003b0: b5b0 e13d 8f8a d4bd 921d 303c 425d 85bd
000003c0: 944e 053c d119 f6bd 845e d0bd 986b b1bc
000003d0: be27 e33d 5086 12be 1771 633d 72e2 103e
000003e0: a6e4 61bd b2d3 6b3d ad04 aebd 0ea7 d7bc
000003f0: 77e5 c53d 9979 a83c c438 9fbd 03aa 963d

hidden_layers.0.bias f4 [64]
0.015210681 0.12823398 -0.012594629 0.08017928 0.050356764 -0.03394447 -0.127188 0.025634533
-0.10555022 -0.003876211 0.060421534 0.066884555 0.15489782 0.07986874 -0.13758795 0.104207605
0.15136437 0.15266448 -0.16534224 0.053356092 0.052090053 -0.08636086 0.08038404 -0.08487043
0.15901044 -0.088533625 -0.014263787 -0.077474214 0.0861045 0.1038701 0.08245259 0.05825838
-0.1478192 -0.15135142 0.02774679 0.13942188 0.16271737 0.0012366967 -0.11281662 0.1578478
0.0053917672 0.12220143 -0.08569738 -0.13368753 -0.16082312 -0.00022199757 -0.1473477 0.051404182
0.11055743 0.012704413 0.14076914 -0.12999396 -0.022681748 0.021063402 0.16007972 -0.003435214
-0.12995107 0.14187199 -0.12975438 -0.09268574 0.07567729 0.12512766 0.070161626 -0.16554098
00000000: 3836 793c c54f 033e b459 4ebc 0935 a43d
00000010: e542 4e3d 5b09 0bbd 923d 02be 83ff d13c
00000020: b72a d8bd 0708 7ebb 927c 773d c5fa 883d
00000030: 899d 1e3e 3992 a33d dbe3 0cbe cc6a d53d
00000040: 43ff 1a3e 1454 1c3e 7a4f 29be eb8b 5a3d
00000050: 615c 553d f6dd b0bd 63a0 a43d 8cd0 adbd
00000060: a2d3 223e 1e51 b5bd a9b2 69bc cdaa 9ebd
00000070: 8e57 b03d d9b9 d43d e7dc a83d 57a0 6e3d
00000080: eb5d 17be defb 1abe 3c4d e33c 9cc4 0e3e
00000090: 629f 263e a818 a23a 660c e7bd dba2 213e
000000a0: 6cad b03b be44 fa3d 1c82 afbd 62e5 08be
000000b0: d1ae 24be 05c8 68b9 51e2 16be 318d 523d
000000c0: ef6b e23d 2c26 503c c925 103e 231d 05be
000000d0: 13cf b9bc 288d ac3c f0eb 233e 5421 61bb
000000e0: e511 05be e446 113e 55de 04be 05d2 bdbd
000000f0: b2fc 9a3d 7721 003e e6b0 8f3d 9383 29be

hidden_layers.1.weight f4 [64, 64]
0.10676785 0.11160616 0.038708143 0.04639255 0.07138404 -0.06797649 0.04061608 -0.004687159
0.1127706 0.0007530147 0.016170815 0.09564527 -0.008776085 0.018288858 -0.07648271 0.06809469
-0.052609853 -0.07958848 0.020565059 0.0030898903 -0.0038720192 0.040939733 0.09309314 -0.0014866192
0.05282988 0.033359457 0.10127218 -0.037004102 0.045334827 -0.11720726 -0.045338284 0.08563231
-0.009239715 0.030769147 -0.049444977 0.024997799 0.07083734 -0.085234255 -0.029878141 -0.04710213
0.12184803 -0.062640205 -0.020856565 -0.07717431 -0.11427406 -0.030549375 0.10029605 0.06143577
0.0037939476 -0.033126164 0.113027126 0.08731487 0.070404604 0.10539218 -0.0526686 -0.09811748
-0.016511392 0.056948565 0.0077346163 0.015453465 -0.11428235 0.054390457 0.048255302 0.022217955
0.098750316 0.08336572 0.06992522 0.024812436 -0.04461554 0.116486564 -0.11750401 0.0816159
0.026182914 -0.082664266 -0.05247033 0.015336385 -0.0074009076 -0.06960496 0.036554288 0.08970464
0.009871506 0.1095183 -0.028439587 -0.029785663 -0.11927664 -0.015489577 0.07413372 0.08336556
0.043897547 -0.08100843 -0.055474687 0.019691173 -0.09283749 -0.026621537 0.047272984 0.09110092
-0.05439768 0.03112545 -0.07012273 0.048312258 -0.008836898 0.11578737 -0.08074853 0.07647829
-0.108765386 -0.084176525 0.009954351 -0.03470391 0.0075340625 0.08192354 0.013199046 0.047616206
0.0076304125 -0.0069231503 0.12679969 -0.09382531 -0.023002248 0.017239083 0.073312074 -0.057703994
0.046635326 -0.043674197 0.034173537 0.08243042 -0.07615687 0.0054486296 0.001887456 0.08705927
-0.086356804 -0.03481005 -0.036871344 -0.0120997345 -0.09454044 -0.021878498 0.022949893 0.013474997
0.091562785 0.09495667 -0.063219 0.022876563 -0.113434106 -0.0433781 -0.013813613 0.06494724
0.016831316 -0.114907734 0.06614222 -0.0069664996 0.08816197 -0.08211244 -0.022844424 0.037709553
-0.07077154 0.078897364 0.01807034 -0.025082823 0.07499894 -0.04105086 0.023882776 0.040169936
-0.04456275 0.05162726 -0.07966299 0.041268628 -0.073240384 0.08078254 0.11287573 -0.08104725
-0.026395591 -0.09397067 -0.048627254 0.02447224 -0.079510055 -0.07939988 -0.046249956 -0.026641442
0.09915918 0.0025123206 -0.06889665 0.10645541 0.022767538 0.08241885 0.030679362 0.11909094
0.110125855 0.044186104 0.02842562 0.091775976 0.028711515 0.018930027 -0.043852527 -0.014076228
-0.06177313 0.09614028 0.08831028 -0.06446617 0.023169944 -0.092932664 0.1021313 0.05460087
0.04343157 -0.011591686 -0.08349707 0.078006975 0.0061905575 0.04027617 -0.0466055 0.023698328
0.09342372 -0.086700924 0.09907735 0.117960736 0.09022478 0.0803469 -0.0052854447 -0.08338676
0.08585553 -0.017270138 0.03943946 0.04674892 -0.08109978 0.10393216 0.09875614 -0.061042536
-0.09233246 -0.02972743 -0.1025752 -0.018534545 0.10086839 0.03359195 -0.01877803 -0.03954061
-0.036806878 -0.080413595 -0.020762276 -0.026999542 -0.09571424 0.123542525 -0.030479297 -0.029443037
0.0012807011 0.065752566 0.077857725 -0.10796777 -0.05694132 0.050348446 0.04308832 0.056551367
-0.027230065 0.08783419 -0.051843405 -0.09512399 -0.10626001 0.0035422281 0.10596649 -0.02422097
00000000: 1aa9 da3d c591 e43d 6e8c 1e3d 1d06 3e3d
00000010: cc31 923d 4237 8bbd 0c5d 263d bd96 99bb
00000020: 46f4 e63d f665 453a a878 843c abe1 c33d
00000030: 92c9 0fbc 84d2 953c f8a2 9cbd 3b75 8b3d
00000040: 6e7d 57bd 49ff a2bd 0e78 a83c c27f 4a3b
00000050: b4c1 7dbb 6cb0 273d 9ea7 be3d aada c2ba
00000060: 2564 583d eda3 083d ca67 cf3d 9d91 17bd
00000070: 03b1 393d 5c0a f0bd a3b4 39bd fe5f af3d
00000080: 2c62 17bc 940f fc3c d186 4abd 2fc8 cc3c
00000090: 2b13 913d 4c8f aebd 01c3 f4bc 2aee 40bd
000000a0: 768b f93d 8249 80bd 63db aabc 910d 9ebd
000000b0: 8508 eabd af42 fabc 0468 cd3d 13a4 7b3d
000000c0: e1a3 783b 4daf 07bd c47a e73d 23d2 b23d
000000d0: 4a30 903d dbd7 d73d 08bb 57bd d1f1 c8bd
000000e0: e642 87bc e642 693d aa72 fd3b 8830 7d3c
000000f0: dd0c eabd 87c8 5e3d 5aa7 453d 6e02 b63c
00000100: 9b3d ca3d a6bb aa3d f434 8f3d 7343 cb3c
00000110: c9be 36bd 8290 ee3d f1a5 f0bd 3d26 a73d
00000120: 8d7d d63c e24b a9bd 21eb 56bd 7645 7b3c
00000130: 5083 f2bb 0c8d 8ebd f3b9 153d 11b7 b73d
00000140: 19bc 213c 214b e03d 23fa e8bc 1001 f4bc
00000150: 5047 f4bd ffc7 7dbc 6bd3 973d 90bb aa3d
00000160: eacd 333d bfe7 a5bd 6d39 63bd 624f a13c
00000170: 9521 bebd 6915 dabc 51a1 413d 1f93 ba3d
00000180: 1ad0 5ebd cdfa fe3c 829c 8fbd 13e3 453d
00000190: a3c8 10bc ee21 ed3d 7c5f a5bd a6a0 9c3d
000001a0: 63c0 debd be64 acbd 9317 233c b025 0ebd
000001b0: 4ce0 f63b 87c7 a73d d040 583c 3609 433d
000001c0: 8a08 fa3b 98db e2bb c7d7 013e 7c27 c0bd
000001d0: 366f bcbc fa38 8d3c a424 963d 065b 6cbd
000001e0: af04 3f3d b7e3 32bd 8df9 0b3d 48d1 a83d
000001f0: 22f8 9bbd 6b8a b23b 8464 f73a 214c b23d
00000200: d6db b0bd fc94 0ebd 6806 17bd f73d 46bc
00000210: 6b9e c1bd 893a b3bc 6a01 bc3c 3cc6 5c3c
00000220: 4585 bb3d a578 c23d f778 81bd a167 bb3c
00000230: 2450 e8bd 3cad 31bd 7e52 62bc 0f03 853d
00000240: d4e1 893c bf54 ebbd 9275 873d 3c47 e4bb
00000250: 438e b43d 912a a8bd 3b24 bbbc 5575 1a3d
00000260: abf0 90bd f194 a13d 4008 943c 7e7a cdbc
00000270: 0b99 993d f224 28bd d0a5 c33c 3b89 243d
00000280: 6e87 36bd 1b77 533d 5a26 a3bd 4b09 293d
00000290: 0eff 95bd 5171 a53d 642b e73d 1afc a5bd
000002a0: 913b d8bc b273 c0bd 5f2d 47bd 027a c83c
000002b0: 2bd6 a2bd 679c a2bd 9870 3dbd 273f dabc
000002c0: f813 cb3d bfa5 243b b019 8dbd 4b05 da3d
000002d0: fd82 ba3c 37cb a83d 4953 fb3c f3e5 f33d
000002e0: aa89 e13d 7dfc 343d d9dc e83c 0bf5 bb3d
000002f0: 6934 eb3c 2513 9b3c b59e 33bd fb9f 66bc
00000300: d205 7dbd 32e5 c43d 05dc b43d d706 84bd
00000310: e5ce bd3c 7b53 bebd 372a d13d 29a5 5f3d
00000320: 4de5 313d 0eeb 3dbc 8300 abbd 1fc2 9f3d
00000330: 29da ca3b a0f8 243d 69e5 3ebd ff22 c23c
00000340: ef54 bf3d 4190 b1bd 11e9 ca3d 6695 f13d
00000350: c5c7 b83d ea8c a43d 8631 adbb adc6 aabd
00000360: 06d5 af3d 1b7a 8dbc 458b 213d cc7b 3f3d
00000370: a417 a6bd 62da d43d a940 ca3d bd07 7abd
00000380: cd18 bdbd f086 f3bc f212 d2bd c2d5 97bc
00000390: 1694 ce3d b697 093d 62d4 99bc 56f5 21bd
000003a0: cfc2 16bd e2af a4bd a615 aabc 252e ddbc
000003b0: d405 c4bd dd03 fd3d b8af f9bc 8632 f1bc
000003c0: 33dd a73a 48a9 863d df73 9f3d 351e ddbd
000003d0: 4d3b 69bd 2c3a 4e3d 617d 303d 68a2 673d
000003e0: 9611 dfbc 69e2 b33d c059 54bd 5ed0 c2bd
000003f0: d99e d9bd ba24 683b f604 d93d 0e6b c6bc

hidden_layers.1.bias f4 [64]
-0.12891558 -0.088354684 -0.10396454 0.06888477 -0.10520643 0.11548378 0.11689425 -0.05076678
0.045411848 -0.08584923 0.080775276 -0.037293267 0.05650192 0.07537868 -0.07463028 -0.12502109
0.07211426 -0.015141079 0.041850593 0.055624872 -0.04129907 0.025822133 0.058828518 -0.107995324
-0.017199699 0.046921775 -0.01945059 -0.08114846 0.11762094 0.036229584 -0.12948194 -0.09358259
-0.03732694 -0.05565187 -0.059528176 -0.038597777 -0.067405544 -0.021421436 -0.0368827 0.10537453
-0.0031283873 0.07474531 -0.065318614 0.01119949 0.0872289 0.058031343 0.1130767 -0.008181968
0.09483465 -0.03439665 0.10871682 -0.02617515 0.07862037 0.119594745 0.09301058 -0.037600245
-0.07419527 -0.09232332 -0.10299285 -0.062206715 -0.109336086 0.057722073 0.024727644 -0.11828892
00000000: 7202 04be 4df3 b4bd 5ceb d4bd 7513 8d3d
00000010: 7876 d7bd c382 ec3d 4166 ef3d d4f0 4fbd
00000020: c601 3a3d b9d1 afbd 826d a53d d3c0 18bd
00000030: 8f6e 673d 2360 9a3d c3d7 98bd 8705 00be
00000040: a4b0 933d 4a12 78bc 876b 2b3d e8d6 633d
00000050: 3729 29bd f088 d33c 2cf6 703d a72c ddbd
00000060: 62e6 8cbc 0c31 403d d856 9fbc 2a31 a6bd
00000070: 3fe3 f03d 7965 143d ea96 04be 3ba8 bfbd
00000080: 22e4 18bd 37f3 63bd d1d3 73bd b418 1ebd
00000090: eb0b 8abd 027c afbc 5012 17bd 9ace d73d
000000a0: a105 4dbb 1214 993d c4c5 85bd 117e 373c
000000b0: 11a5 b23d 46b2 6d3d c294 e73d a90d 06bc
000000c0: ab38 c23d 80e3 0cbd eda6 de3d 456d d6bc
000000d0: b703 a13d 17ee f43d 557c be3d b702 1abd
000000e0: b1f3 97bd 0214 bdbd eaed d2bd 78cc 7ebd
000000f0: 99eb dfbd fb6d 6c3d a191 ca3c 7641 f2bd

output.weight f4 [4, 64]
0.023822026 -0.03176674 0.033900987 -0.010061132 -0.06841938 0.09951227 0.0652792 0.038636792
-0.020234901 0.032727923 -0.06430402 -0.0032288872 0.015415425 0.04123701 0.09900845 -0.090282865
0.11382265 0.101400286 -0.05403898 -0.012855456 0.03490648 -0.046063557 0.014337758 -0.100011006
0.06013664 0.035186034 0.030755723 -0.04197164 -0.09424044 -0.07457079 0.06680596 -0.054010287
-0.09836514 -0.0046524354 0.10148522 0.047477465 0.038821146 0.0421386 0.033306774 0.051423334
-0.020279743 0.09163484 0.044580333 -0.10100409 -0.03147361 -0.11096304 0.066627316 -0.009205944
0.083403744 0.09963791 -0.019887675 0.016781472 0.02130169 0.100927845 -0.030021584 -0.037293572
0.09238094 -0.10017134 0.034503702 -0.02436397 0.052650064 -0.027308876 0.009798662 0.06478531
-0.09598247 0.04344857 0.04994838 0.028601592 -0.054520953 -0.021282213 0.12201135 -0.076569565
-0.08864086 0.028403075 0.03086811 -0.086238824 0.05056089 0.02617394 -0.021661894 0.09010407
0.057163537 -0.03098886 0.04509586 -0.04616068 0.01286123 -0.07893983 0.0039756084 0.08397785
-0.097457975 -0.02796812 0.044159487 -0.05421347 0.07274195 -0.050519787 -0.10420504 -0.00719064
-0.07400744 0.11966925 -0.11919028 0.08203165 0.017211707 -0.039403293 -0.055863716 0.08909573
-0.06994676 0.034132335 0.10143428 -0.11149309 0.057640977 -0.046756253 0.012882306 -0.038990535
-0.062055092 0.062572174 0.0500189 0.0045483606 0.050259005 0.12471524 0.016547237 0.06697048
-0.050145928 0.0077394103 -0.00974196 -0.07235967 -0.06165527 0.007715084 0.042784654 -0.0077501824
0.08403052 0.017548094 -0.10566008 0.04690589 0.057674207 -0.11125406 0.060421742 0.09439796
0.099754654 0.07921476 -0.09506039 -0.049051758 -0.060218118 -0.069833115 -0.111503094 0.07537153
0.055362623 0.07424413 -0.01114104 0.06440214 0.1127973 -0.017017921 -0.048369158 -0.10657924
-0.09795094 0.018395327 -0.10789716 -0.021475375 0.089750566 0.035363067 -0.10383146 -0.04439886
-0.03191706 -0.11491956 -0.045123167 0.08100742 -0.018328918 0.019057533 0.031849083 0.01321263
0.0620225 -0.107518665 0.018288493 0.009518876 0.030039808 -0.09156908 0.05162172 0.07535658
-0.038037308 -0.039309688 -0.03487621 0.0139012085 -0.09654926 0.07856111 -0.024056153 0.0077897212
0.082668535 -0.08376907 -0.035932638 0.06023291 0.041596107 0.106466174 -0.045447864 0.08188362
0.03588277 -0.0041666445 -0.041632768 0.01490521 0.011580806 0.080439135 0.11760747 -0.05939007
0.08237117 -0.08113795 -0.040714208 0.092445426 -0.08308389 -0.06450123 0.075722426 -0.012397129
0.09259006 0.03444047 0.01529546 0.02495208 0.028385757 0.026405789 0.10679363 -0.112411395
0.037790053 0.103920355 -0.043826323 -0.072012626 0.05325999 0.026725251 -0.0018160533 -0.07960013
0.111092724 0.049898077 0.08789416 0.09351783 0.026019283 0.013989578 -0.08720564 -0.04776395
-0.06747293 0.016427895 0.116432555 0.060197897 0.078166485 0.079265855 -0.049855728 0.09604056
-0.07772135 -0.067516275 -0.10672062 -0.06309135 -0.03982225 -0.030805482 -0.06802181 0.033774592
-0.08762655 0.08129227 0.11201982 -0.06389387 -0.06705003 -0.10160945 -0.013613234 0.109204754
00000000: 6926 c33c d71d 02bd c3db 0a3d 72d7 24bc
00000010: 761f 8cbd 17cd cb3d 1ab1 853d 9d41 1e3d
00000020: aac3 a5bc b70d 063d d3b1 83bd bd9b 53bb
00000030: fb90 7c3c 24e8 283d f1c4 ca3d 39e6 b8bd
00000040: d91b e93d f4aa cf3d fa57 5dbd b19f 52bc
00000050: 19fa 0e3d 24ad 3cbd eae8 6a3c 92d2 ccbd
00000060: d651 763d 3b1f 103d 6df3 fb3c 74ea 2bbd
00000070: 2201 c1bd 92b8 98bd 90d1 883d e439 5dbd
00000080: aa73 c9bd 7573 98bb 7cd7 cf3d bb77 423d
00000090: ec02 1f3d 8699 2c3d af6c 083d 46a1 523d
000000a0: b421 a6bc 0cab bb3d de99 363d 3bdb cebd
000000b0: 79ea 00bd 9740 e3bd e773 883d 87d4 16bc
000000c0: 95cf aa3d f60e cc3d 7aeb a2bc 4c79 893c
000000d0: e280 ae3c 42b3 ce3d d3ef f5bc 25c1 18bd
000000e0: 3832 bd3d a226 cdbd c153 0d3d f396 c7bc
000000f0: 98a7 573d ddb6 dfbc 918a 203c 29ae 843d
00000100: 7592 c4bd 21f7 313d ac96 4c3d e34d ea3c
00000110: 5d51 5fbd 0958 aebc 16e1 f93d 81d0 9cbd
00000120: 5789 b5bd 91ad e83c 1edf fc3c fb9d b0bd
00000130: f018 4f3d bb6a d63c 4974 b1bc 7c88 b83d
00000140: 5024 6a3d 5adc fdbc 70b6 383d fb12 3dbd
00000150: e9b7 523c 35ab a1bd d245 823b 94fc ab3d
00000160: 0c98 c7bd 661d e5bc 94e0 343d f20e 5ebd
00000170: bbf9 943d d6ed 4ebd 7469 d5bd 769f ebbb
00000180: 3691 97bd 2715 f53d 091a f4bd 3600 a83d
00000190: 91ff 8c3c 5965 21bd 5ad1 64bd d277 b63d
000001a0: 3f40 8fbd 59ce 0b3d c7bc cf3d 7d56 e4bd
000001b0: f218 6c3d 7c83 3fbd 4f10 533c 8ab4 1fbd
000001c0: 7b2d 7ebd d725 803d 9ee0 4c3d 6a0a 953b
000001d0: 63dc 4d3d b46a ff3d 128e 873c d227 893d
000001e0: d165 4dbd e19a fd3b be9c 1fbc 4f31 94bd
000001f0: 3d8a 7cbd d1ce fc3b f63e 2f3d 3ef5 fdbb
00000200: 3118 ac3d 05c1 8f3c 5064 d8bd 6420 403d
00000210: ca3b 6c3d 2bd9 e3bd ca7c 773d b853 c13d
00000220: 2b4c cc3d 593b a23d 06af c2bd 7fea 48bd
00000230: 46a7 76bd aa04 8fbd bc5b e4bd 645c 9a3d
00000240: ebc3 623d 4e0d 983d e988 36bc 45e5 833d
00000250: 4502 e73d 2b69 8bbc bd1e 46bd 3746 dabd
00000260: 819a c8bd ccb1 963c 30f9 dcbd 20ed afbc
00000270: 25cf b73d ddd8 103d 97a5 d4bd 94db 35bd
00000280: 77bb 02bd f25a ebbd 12d3 38bd 38e7 a53d
00000290: 8726 96bc 8b1e 9c3c 2f74 023d c979 583c
000002a0: 4e0b 7e3d bf32 dcbd c0d1 953c 0ff5 1b3c
000002b0: 0b16 f63c 9288 bbbd 4c71 533d 8d54 9a3d
000002c0: 02cd 1bbd 3203 21bd 5bda 0ebd e5c1 633c
000002d0: 9ebb c5bd a6e4 a03d 6911 c5bc eb40 ff3b
000002e0: 1f4e a93d 1e8f abbd 1a2e 13bd c9b6 763d
000002f0: ae60 2a3d f00a da3d 8a27 3abd 99b2 a73d
00000300: d0f9 123d 5988 88bb 1f87 2abd fb34 743c
00000310: 6cbd 3d3c 46bd a43d 2fdc f03d 0143 73bd
00000320: 37b2 a83d a72b a6bd f1c3 26bd 0754 bd3d
00000330: e327 aabd 3919 84bd 5c14 9b3d 541d 4bbc
00000340: db9f bd3d 7311 0d3d cf99 7a3c 4e68 cc3c
00000350: 3f89 e83c f450 d83c 9eb6 da3d f237 e6bd
00000360: bec9 1a3d 32d4 d43d 3b83 33bd 5b7b 93bd
00000370: 2627 5a3d eaee da3c a308 eeba 6505 a3bd
00000380: 9584 e33d ed61 4c3d da01 b43d 4786 bf3d
00000390: 6426 d53c 8b34 653c df98 b2bd 22a4 43bd
000003a0: 3f2f 8abd cb93 863c 3174 ee3d 1292 763d
000003b0: c015 a03d 2356 a23d 8535 4cbd eab0 c43d
000003c0: 5f2c 9fbd f945 8abd 5790 dabd 0a36 81bd
000003d0: a81c 23bd c75b fcbc 054f 8bbd 3a57 0a3d
000003e0: 8c75 b3bd 907c a63d a66a e53d cada 82bd
000003f0: 8751 89bd 9e18 d0bd 0b0a 5fbc bea6 df3d

output.bias f4 [4]
-0.0063192183 0.0004989489 0.057532553 -0.00021562004
00000000: 7211 cfbb e5cb 023a 41a7 6b3d 1018 62b9

momentum_buffer f4 [64, 37]
0.0003390576 0.00071667595 0.00093923445 0.00055871264 0.00063853123 0.00020900357 0.0013367693 0.0009005
0.00010740782 0.0009150948 -0.00014269169 0.0014761079 0.000673291 0.0005469733 0.0008217641 0.00082489464
0.000921102 0.00042978412 0.0003778998 0.00080243236 0.000627261 0.001025364 0.00073694414 0.00016411125
0.0008150838 0.0008933698 0.0011406844 0.00056051154 -4.0885145e-05 0.0011741741 0.0007646515 0.0006571382
0.00049141067 0.0006404804 0.00058751967 0.0009920062 -0.0032790664 0.00010077348 0.0007119785 0.00072755804
5.2235868e-05 0.0005897871 0.00026877408 0.00045194372 0.0004450939 0.00042673384 0.0002789586 0.00037253968
0.0008246311 0.00030624162 8.91333e-05 0.00077530264 0.00066242134 0.0001189583 0.00042990746 0.00038125858
3.4354074e-05 3.2311742e-05 0.0010424262 0.0005386283 -2.0820447e-05 0.00083445985 0.0007510577 8.643427e-05
0.0005827086 0.00017234506 0.00023178736 0.00051992625 0.00020712751 0.00050594244 0.00035954948 0.00021316567
-0.0007302664 0.0045541264 0.0005605366 0.0005201108 -0.00032337508 -3.181456e-05 0.0006034152 0.0002647237
0.00041674462 2.1005631e-05 2.2983746e-05 -7.80743e-07 0.00037257478 0.0005391127 0.0005031525 -0.00068938255
0.0005745368 0.00013538722 0.00043104606 -3.6673846e-05 0.00019569814 0.00030602267 -0.0008458823 0.0009526854
0.00063297385 -1.4319143e-05 0.00012096894 -0.0004155123 0.00054424617 0.00023332637 0.00036339732 -0.00025259278
0.00021625368 0.0006586148 1.8174236e-05 -0.00016758498 -7.139596e-05 0.00019640737 -0.008052345 0.0007636469
-0.00014341147 -3.6259648e-06 7.802018e-05 -6.450759e-05 0.0005374546 -0.00027085133 7.551644e-05 0.00035250987
0.00029098967 0.0007507845 -0.00044059617 0.00048379268 -9.935137e-05 0.00027533338 0.0003797866 -0.00024091639
0.00018191458 0.00037384478 -0.00016765643 0.000110226334 -0.0003580356 0.000853243 8.919588e-05 0.0004527042
0.00078241277 -0.0005866283 0.00033744884 0.0001613961 -3.2932032e-05 0.00047430064 -0.000490004 0.00043308694
0.00027724594 0.00027988525 0.0023922573 -0.0014447594 0.0008685688 0.00055782794 0.00012033939 0.0006335054
0.0002227081 0.00011748739 0.0010509951 0.00066201814 0.00034974056 0.00041350647 0.00073558884 0.0006105555
0.0004122611 0.00042183575 0.00060956983 -0.00028149167 0.0012614786 0.0006499016 0.0005503528 0.000573796
0.0008930266 0.0009295543 0.0001424751 0.00021518534 0.0010552396 0.0007534656 0.0012033462 0.00019901403
2.4415189e-05 0.0009584709 0.0002885805 0.0012171444 0.00038324896 0.00029126764 0.0005370449 0.0024967985
-0.005163134 -4.7543144e-05 0.0005527189 0.00077308493 -0.0002167874 0.00010464833 0.00055394927 0.00027715374
0.00064113835 -0.00041076783 -8.81139e-05 0.00044227715 -0.00035289532 0.0006273509 0.0003447409 0.0002087522
-4.207855e-05 0.0005752105 0.0007907654 -0.000262424 -0.00023461456 -0.0003761897 0.00055510394 0.0007262914
0.00015626785 0.0003896212 -0.0003833432 0.00023836328 0.0013958844 -0.00018943122 -0.000109748325 9.072745e-05
0.0004264452 0.0003373138 0.00020698682 4.749323e-06 -0.00091234094 0.005563268 -5.640117e-05 -1.0419695e-05
6.2171894e-05 0.00014015561 -9.5134645e-05 -3.9265033e-05 -0.00011186754 0.00017479951 0.000111839676 -7.462877e-05
6.288718e-05 -1.7666127e-05 3.7909023e-05 5.237654e-05 9.2185e-05 -0.00017329914 -6.622046e-05 0.00028962622
8.5400025e-05 0.00012437011 -0.00017658244 -9.940023e-05 0.00043018535 -1.8696177e-05 7.506375e-05 -3.747888e-05
1.2597062e-05 0.00014937454 1.1013925e-05 0.00021333384 -4.804931e-05 -4.4141692e-05 0.00021491061 1.2787001e-05
00000000: 8ac3 b139 4fdf 3b3a f536 763a 9276 123a
00000010: 1b63 273a f827 5b39 8936 af3a 880f 6c3a
00000020: 2240 e138 f9e2 6f3a 829f 15b9 f679 c13a
00000030: cb7f 303a c262 0f3a a86b 573a be3d 583a
00000040: 1c76 713a a654 e139 da20 c639 535a 523a
00000050: c66e 243a 8265 863a 7c2f 413a 4715 2c39
00000060: 59ab 553a 0831 6a3a 0483 953a 4bef 123a
00000070: 177c 2bb8 bfe6 993a e572 483a cc43 2c3a
00000080: 03d2 003a e9e5 273a c703 1a3a 3406 823a
00000090: 9be5 56bb 5a56 d338 11a4 3a3a 98b9 3e3a
000000a0: d617 5b38 f19b 1a3a 3fea 8c39 dcf2 ec39
000000b0: 7e5b e939 3fbb df39 3141 9239 6e51 c339
000000c0: 0e2c 583a 0e8f a039 13ed ba38 ae3d 4b3a
000000d0: 58a6 2d3a 4079 f938 3465 e139 a9e3 c739
000000e0: 6817 1038 7886 0738 05a2 883a bc32 0d3a
000000f0: 92a7 aeb7 a7bf 5a3a a1e2 443a 0c44 b538
00000100: eac0 183a 86b7 3439 f20b 7339 a94b 083a
00000110: 5e30 5939 39a1 043a ea81 bc39 3985 5f39
00000120: 596f 3fba c83a 953b f9f0 123a 0c58 083a
00000130: ab8a a9b9 a070 05b8 822e 1e3a 9dca 8a39
00000140: 847e da39 4035 b037 38cd c037 4094 51b5
00000150: 2456 c339 3e53 0d3a fee5 033a aeb7 34ba
00000160: 839c 163a bbf6 0d39 06fe e139 3ed2 19b8
00000170: 5234 4d39 ab71 a039 33be 5dba a3bd 793a
00000180: 28ee 253a 403c 70b7 b5b0 fd38 1ed9 d9b9
00000190: beab 0e3a 12a9 7439 5d86 be39 6e6e 84b9
000001a0: 28c2 6239 e4a6 2c3a e074 9837 c0b9 2fb9
000001b0: 6aba 95b8 b4f2 4d39 fced 03bc 7a2f 483a
000001c0: b960 16b9 9a55 73b6 c49e a338 4048 87b8
000001d0: f8e3 0c3a 0d01 8eb9 945e 9e38 13d1 b839
000001e0: f98f 9839 4bd0 443a d1ff e6b9 8ea5 fd39
000001f0: dc5a d0b8 9f5a 9039 181e c739 809e 7cb9
00000200: 53c0 3e39 9900 c439 eecc 2fb9 5029 e738
00000210: bab6 bbb9 2bac 5f3a ac0e bb38 ee58 ed39
00000220: d51a 4d3a f5c7 19ba 9eeb b039 703c 2939
00000230: 8020 0ab8 8eab f839 9d73 00ba f20f e339
00000240: 525b 9139 90bd 9239 6bc7 1c3b 155e bdba
00000250: aab0 633a 333b 123a b85e fc38 d411 263a
00000260: c086 6939 9063 f638 8bc1 893a 498b 2d3a
00000270: 625d b739 e6cb d839 88d4 403a b00d 203a
00000280: c024 d839 d629 dd39 8acb 1f3a 2c95 93b9
00000290: 3358 a53a 285e 2a3a 8d45 103a cc6a 163a
000002a0: 001a 6a3a 55ad 733a 5e65 1539 60a3 6139
000002b0: f74f 8a3a 3884 453a 99b9 9d3a 6cae 5039
000002c0: 38cf cc37 e541 7b3a 9e4c 9739 9788 9f3a
000002d0: ceee c839 48b5 9839 79c8 0c3a 54a1 233b
000002e0: 822f a9bb 1069 47b8 56e4 103a daa8 4a3a
000002f0: 6d51 63b9 a576 db38 e836 113a f24e 9139
00000300: 1112 283a 535c d7b9 cac9 b8b8 6fe1 e739
00000310: cf04 b9b9 ce74 243a 57be b439 7ee4 5a39
00000320: 807d 30b8 b9c9 163a 5e4b 4f3a f495 89b9
00000330: de02 76b9 543b c5b9 6584 113a 9764 3e3a
00000340: d5db 2339 1246 cc39 74fb c8b9 28f1 7939
00000350: 1cf6 b63a 0ea2 46b9 af28 e6b8 ee44 be38
00000360: 8294 df39 7ed9 b039 9a0a 5939 605c 9f36
00000370: 2a2a 6fba 134c b63b 4c90 6cb8 40d0 2eb7
00000380: 4862 8238 bcf6 1239 0683 c7b8 82b0 24b8
00000390: 6e9a eab8 634a 3739 788b ea38 0482 9cb8
000003a0: 4ce2 8338 b831 94b7 8100 1f38 e2ae 5b38
000003b0: 7253 c138 a2b7 35b9 d7df 8ab8 f9d8 9739
000003c0: ca18 b338 5969 0239 fd28 39b9 1875 d0b8
000003d0: 808a e139 bcd5 9cb7 8b6b 9d38 a432 1db8
000003e0: f857 5337 6ca1 1c39 73c8 3837 5eb2 5f39
000003f0: 8e88 49b8 c824 39b8 a159 6139 c087 5637

momentum_buffer f4 [64]
0.0025536804 0.0015925455 0.0007254577 0.0006946296 0.0021802413 0.0010614733 0.00013550666 0.0020517232
0.0005490922 0.0014042752 -0.0006420236 0.0019841213 0.00148186 0.00016820547 0.0008141426 -0.0019135891
0.00091587286 6.350898e-05 0.0014175079 0.0028156093 0.00070498 0.0005670045 0.0027305372 0.0030226803
0.0014966392 0.0005138063 0.00047123933 0.0012383658 -0.001388175 0.00096999155 0.0012350241 0.00043399888
0.0011574451 0.0013404146 0.001262428 0.0039916434 0.0019260127 0.0014928709 -0.0002840901 0.0028765886
-0.00093426555 -0.00073554774 0.0023467597 0.0011233494 0.0007205482 -0.0011663157 0.0019833 0.0028197716
0.0011490483 0.00087685377 -0.00037826953 -0.00021591791 -0.00018236547 0.0009759546 0.0010823132 0.0017640566
0.0013908215 0.00036734546 -2.080546e-05 0.0023702036 0.0015160564 0.00032421158 0.00023745629 0.0018977101
00000000: a65b 273b f6bc d03a a42c 3e3a ce17 363a
00000010: 61e2 0e3b 2221 8b3a cb16 0e39 3476 063b
00000020: f4f0 0f3a a80f b83a 794d 28ba 0808 023b
00000030: f83a c23a 5060 3039 2f6c 553a 65d1 faba
00000040: 3017 703a 2030 8538 accb b93a 1686 383b
00000050: 68ce 383a 07a3 143a d0f2 323b 2918 463b
00000060: e12a c43a f5b0 063a ac10 f739 a950 a23a
00000070: 6cf3 b5ba 0847 7e3a 88e0 a13a 588a e339
00000080: 6ab5 973a dab0 af3a 0e78 a53a 55cc 823b
00000090: 4372 fc3a 6fac c33a eef1 94b9 2685 3c3b
000000a0: 80e9 74ba c6d1 40ba 18cc 193b 5a3d 933a
000000b0: 2ce3 3c3a 10df 98ba 41fa 013b ebcb 383b
000000c0: aa9b 963a a9dc 653a 7a52 c6b9 0668 62b9
000000d0: 5c39 3fb9 34d7 7f3a 68dc 8d3a eb37 e73a
000000e0: 3a4c b63a 4698 c039 6387 aeb7 6b55 1b3b
000000f0: 69b6 c63a f1fa a939 b0fd 7839 96bc f83a

momentum_buffer f4 [64, 64]
0.00076535175 0.0019708294 -0.00023361863 0.00022351817 0.0013364927 0.0007189063 0.0001449139 0.0018012013
0.00043276296 0.0031802808 0.0008111265 0.005586351 0.0017609401 0.00074168574 0.00032777697 0.0011962589
0.0019845967 0.003268397 -0.0003404845 0.0006136305 0.00012921332 0.0012344331 0.0032310665 0.002481103
0.00028858773 0.00029312258 4.5639e-05 0.0033136103 0.0038015863 0.00035227503 -0.0016189342 0.0021142594
-0.00047613343 0.0014201049 0.0008147876 0.0009871807 0.0027573826 0.00034306213 0.0016066937 0.0027305859
0.0006536464 0.0011165666 0.0017201729 0.0005812764 0.0022025602 0.0008698149 0.0028556741 0.00199325
0.00051633496 -0.00025966426 0.00047822535 0.0015391601 -0.00079427083 0.0006759864 0.0025519747 0.0014998801
0.001093624 0.0013682406 0.0021853512 0.0020454838 0.0021853526 0.002713961 0.0007706088 0.0011988708
0.0007094692 0.0019236972 0.00019824415 0.00050261326 -0.00050249556 0.0016729436 0.00021845369 0.0018805136
0.00046062295 0.0033632845 0.0012089058 -0.000642999 0.0014226998 0.0010708472 0.00014902082 0.0025382813
1.6160498e-05 0.0014556246 0.0002887294 8.8639354e-08 0.00071330153 -0.00050216436 0.003628123 0.0019874135
0.00012583422 4.253939e-05 -9.065578e-05 0.0002995708 -0.0012208126 0.00010707459 0.0004802796 -8.673666e-05
-0.00048264608 -0.0013901251 0.0016065275 0.0018577462 0.0026372715 0.0010165238 0.0019898997 0.0012773223
8.9967165e-05 -0.00046426363 0.0018881641 0.0006714538 0.002398181 -0.00067928125 0.002919992 0.0016266287
0.00069228763 2.7943228e-05 0.0012067833 0.0013569711 0.00077096454 0.0008446479 -0.000738504 0.001269818
4.009154e-05 -0.0012942019 0.0018332505 -0.0018123715 0.0024920425 0.0014274343 0.0004893885 0.002335386
0.0037370955 0.0025308696 0.0024828857 0.00045738145 0.0023299654 0.0023507676 7.246148e-05 0.0020410316
0.00022284672 0.0039028155 0.0014186322 0.0022832006 0.002177935 0.0013285254 0.00013816023 0.0015231164
0.00048067098 0.0021203288 0.0024687527 0.005062307 0.0015749009 0.00028501308 0.0031970951 0.0019156057
0.0028345867 0.00019508279 0.0001339244 0.0021622935 0.0009582489 0.0010716503 0.0035044313 0.0034793231
0.0036274523 0.0020118365 0.0013211869 0.0016848166 0.0021737565 0.0021646356 0.0029789228 0.0033588517
0.00013026863 0.00033069198 0.0025486113 0.00091823447 0.0015358721 0.00063169724 0.0021540127 0.0037816549
0.0044127763 0.00083377527 0.002018143 0.0023649835 0.00171019 0.0012959234 0.001534282 0.003278272
0.0044518374 0.004684127 0.0039389883 0.0041645435 0.0030552906 0.0023269665 0.0025108706 0.0016785711
0.00052915525 0.0001478768 0.00055333733 7.5284715e-06 -0.00028399233 0.00012680347 1.4116786e-05 0.0003766036
4.87515e-05 0.00035821786 6.200533e-05 0.000596761 9.4460906e-05 4.7632224e-05 0.000102959304 0.00019530854
-0.0007734023 -0.0002133424 0.00029019182 0.0006558299 7.2126044e-05 -0.00037901124 0.0005371115 0.00039317092
-0.0005571093 -9.830003e-05 -5.476491e-05 0.00041221167 -0.0011908746 -2.163167e-05 0.00095706445 -0.0006153359
-0.0002681724 -0.00077059376 -3.7748978e-05 0.00041636443 0.0003003336 -1.9663345e-05 0.00025461143 -0.0008241738
0.0001845422 -0.0002254813 0.00016554608 1.6735728e-05 0.00013437336 -0.00087895355 0.0002867289 0.00025355155
0.00039562857 0.00013057773 0.001557777 0.00020990914 0.00038909528 -4.699602e-05 -0.0006552616 0.00012621761
-0.00014717979 -0.00071702467 -7.8191215e-06 -0.00065186765 -0.00055249804 0.00022324969 0.00025280676 5.1376555e-06
00000000: e3a1 483a 0829 013b 86f7 74b9 3460 6a39
00000010: 412d af3a fc74 3c3a 07f4 1739 4916 ec3a
00000020: 76e4 e239 426c 503b c7a1 543a b50d b73b
00000030: 58cf e63a b06d 423a 7bd9 ab39 cacb 9c3a
00000040: 0210 023b 9a32 563b 0e83 b2b9 0cdc 203a
00000050: 707d 0739 b4cc a13a 4dc0 533b 009a 223b
00000060: 974d 9739 3fae 9939 816c 3f38 2829 593b
00000070: 0924 793b 8eb1 b839 6b32 d4ba 638f 0a3b
00000080: 8ca1 f9b9 d022 ba3a 7897 553a 4a64 813a
00000090: 34b5 343b 05dd b339 b297 d23a a1f3 323b
000000a0: 7859 2b3a c259 923a 6d77 e13a cd60 183a
000000b0: d458 103b 4a04 643a 4326 3b3b 30a1 023b
000000c0: a75a 073a 8c23 88b9 52ba fa39 a5bd c93a
000000d0: 9d36 50ba ae34 313a 083f 273b a097 c43a
000000e0: ef57 8f3a 8956 b33a 1c38 0f3b 860d 063b
000000f0: 2238 0f3b b6dc 313b ae02 4a3a 6e23 9d3a
00000100: acfb 393a 9124 fc3a c2df 4f39 cec1 033a
00000110: e8b9 03ba ac46 db3a b710 6539 917b f63a
00000120: c47f f139 8d6a 5c3b 2674 9e3a ef8e 28ba
00000130: e279 ba3a ab5b 8c3a 7942 1c39 4b59 263b
00000140: 6890 8737 a8ca be3a 9b60 9739 005a be33
00000150: dbfc 3a3a aea3 03ba cec5 6d3b 443f 023b
00000160: 5ef2 0339 526c 3238 741e beb8 b60f 9d39
00000170: ac03 a0ba 3c8d e038 09ce fb39 64e6 b5b8
00000180: a90b fdb9 dc34 b6ba 1e92 d23a 9e7f f33a
00000190: 13d6 2c3b e13c 853a fa68 023b d36b a73a
000001a0: c1ac bc38 6968 f3b9 467c f73a 8004 303a
000001b0: cd2a 1d3b cb11 32ba 565d 3f3b 9a34 d53a
000001c0: a37a 353a a067 ea37 ee2c 9e3a 65dc b13a
000001d0: 8e1a 4a3a 5c6b 5d3a 2a98 41ba 0670 a63a
000001e0: f727 2838 36a2 a9ba ae49 f03a 198d edba
000001f0: 8951 233b bf18 bb3a 4e4a 003a 460d 193b
00000200: 0fea 743b f2dc 253b e9b7 223b b3cc ef39
00000210: 55b2 183b 560f 1a3b 76f6 9738 d4c2 053b
00000220: f6ab 6939 61c6 7f3b 66f1 b93a c0a1 153b
00000230: b0bb 0e3b ea21 ae3a 1bdf 1039 4ea3 c73a
00000240: 9102 fc39 37f5 0a3b ccca 213b b6e1 a53b
00000250: e86c ce3a cf6d 9539 5b86 513b 1015 fb3a
00000260: 79c4 393b 238f 4c39 0f6e 0c39 44b5 0d3b
00000270: ff32 7b3a 9e76 8c3a 9aaa 653b 5b05 643b
00000280: 8dba 6d3b 04d9 033b ad2b ad3a 10d5 dc3a
00000290: 9575 0e3b 8fdc 0d3b 083a 433b 2e20 5c3b
000002a0: b898 0839 ba60 ad39 9a06 273b acb5 703a
000002b0: 514f c93a 7c98 253a 562a 0d3b a4d5 773b
000002c0: 0d99 903b b691 5a3a d242 043b d7fd 1a3b
000002d0: 7428 e03a f9db a93a f619 c93a 47d8 563b
000002e0: b8e0 913b 4e7d 993b a112 813b b976 883b
000002f0: 453b 483b 0580 183b 6b8d 243b 8003 dc3a
00000300: 02b7 0a3a 600f 1b39 d70d 113a 149d fc36
00000310: cee4 94b9 8cf6 0439 22d7 6c37 e172 c539
00000320: 867a 4c38 30cf bb39 dc08 8238 f46f 1c3a
00000330: 5019 c638 b6c8 4738 dbeb d738 bdcb 4c39
00000340: 26be 4aba aab4 5fb9 e324 9839 00ec 2b3a
00000350: 6042 9738 07b6 c6b9 f1cc 0c3a 8222 ce39
00000360: f90a 12ba 6d26 ceb8 60b3 65b8 1d1e d839
00000370: 1f17 9cba a875 b5b7 82e3 7a3a 7e4e 21ba
00000380: 7e99 8cb9 ac01 4aba a854 1eb8 7d4b da39
00000390: 1876 9d39 b6f2 a4b7 5e7d 8539 5e0d 58ba
000003a0: ab81 4139 2d6f 6cb9 7096 2d39 b463 8c37
000003b0: 93e6 0c39 9369 66ba 1a54 9639 1def 8439
000003c0: 5e6c cf39 b1eb 0839 532e cc3a 0e1b 5c39
000003d0: 7cff cb39 981d 45b8 ddc5 2bba 4859 0439
000003e0: 4654 1ab9 b6f6 3bba df2e 03b7 19e2 2aba
000003f0: 84d5 10ba 2218 6a39 268b 8439 2064 ac36

momentum_buffer f4 [64]
0.0059280037 0.0029687681 0.005301927 0.00041910465 -0.00042381414 0.0012087462 0.0048005036 0.0003012868
0.0021992065 0.0013474458 0.002091186 0.005450034 0.001001617 0.0020316686 0.0006994356 0.006953993
-0.0014103006 0.0010708425 0.00120668 -0.0005430775 0.00066014763 0.00020124757 0.0035611386 0.001960487
0.0008204136 0.003302932 0.0023047861 0.00036187787 0.0012038717 0.004498627 0.00054262194 0.00058105175
0.00063533906 0.0025751286 -0.001823895 0.004778312 -0.00037032965 0.0016380426 0.0006838194 0.004167076
0.0041978336 0.0006656798 0.005508426 0.0008525857 0.005695031 0.008092158 0.004336601 0.005255559
0.0020727387 -4.3329987e-05 -0.00086114253 0.0014926193 2.0441461e-05 0.002900346 0.0031111967 0.00083609833
-0.00046757597 0.0028981266 -6.5603526e-05 0.00062002987 0.0019265721 0.006553546 -0.0015432716 -0.0001757399
00000000: b33f c23b aa8f 423b cabb ad3b 46bb db39
00000010: 5f33 deb9 cb6e 9e3a 8b4d 9d3b 08f6 9d39
00000020: 9020 103b c79c b03a 470c 093b 3396 b23b
00000030: b148 833a be25 053b 545a 373a 52de e33b
00000040: d6d9 b8ba 835b 8c3a 7629 9e3a 505d 0eba
00000050: c20d 2d3a fc05 5339 fe61 693b 847b 003b
00000060: 0611 573a 0176 583b e50b 173b 6dba bd39
00000070: 3bcb 9d3a 3869 933b be3e 0e3a b951 183a
00000080: e28c 263a 7dc3 283b c30f efba 6393 9c3b
00000090: ce28 c2b9 97b3 d63a 5842 333a f88b 883b
000000a0: fb8d 893b 0481 2e3a 0780 b43b 0f80 5f3a
000000b0: 629d ba3b f894 043c 0c1a 8e3b d336 ac3b
000000c0: c9d6 073b 38bd 35b8 4cbe 61ba fea3 c33a
000000d0: b479 ab37 bb13 3e3b 38e5 4b3b 9c2d 5b3a
000000e0: fc24 f5b9 7fee 3d3b a094 89b8 8089 223a
000000f0: 0885 fc3a 21bf d63b 9a47 caba d246 38b9

momentum_buffer f4 [4, 64]
0.0029500383 0.002641682 0.0025484178 0.011801532 0.0021373404 0.0052276067 0.007157824 -0.0029545682
-0.0040001827 -3.4288067e-05 -0.005362058 0.0017904394 -0.006091531 0.013654819 0.0028374854 -0.002157873
-0.0015937896 0.00030608577 -0.0022080422 0.0020505872 -0.00019131653 -0.0011390608 0.0056563383 -0.0009485823
-0.0008788397 0.0069055688 -0.0008543132 -0.0068552964 -0.004187951 -0.020352261 -0.0016827155 0.001338915
-0.0056944084 -0.00024285034 -0.0011103858 -0.002794509 -0.0007725092 -0.000698854 0.00078282796 -0.0046857535
-0.010445472 0.0019296182 0.009789928 -0.0010100852 -0.011934893 -0.0060067372 0.0049781688 -0.016745154
0.008186315 -0.0007020452 -0.0030086942 -0.0014165724 0.00047568395 0.0014574938 -0.01521753 -0.0096027
-0.0016239692 -0.002528904 -0.0016238157 0.00044049305 -0.0014405588 -0.0054678367 -0.0002622896 -0.0016106875
-0.001034712 0.014253089 0.0032075318 0.009447156 4.0142215e-05 0.000977916 -0.0024224836 0.0002897469
-0.00087960873 0.0011518102 0.0015417972 -0.01671743 0.0050439984 0.013560383 0.0030494 0.015259424
-0.0008291442 -9.688996e-05 0.001468235 0.0011101404 -0.0004770749 0.0007593786 -0.01167953 0.0014210568
-0.0051560663 -0.001667627 0.00023757356 0.0013042593 -0.00081164145 -0.004196129 0.00024046446 0.0024000346
-0.0018197217 0.0029665583 0.0014874927 0.015715435 -0.00081829046 -0.00037580263 -0.003741236 0.036794204
-0.0040184353 0.0024321945 0.012014624 -0.0009766902 0.011819895 -0.004841567 0.01456634 -0.00035955373
0.0046189767 0.0003203794 0.0059466236 0.018288042 0.0047707357 0.0064043375 0.021471832 0.003041223
-5.5486555e-05 0.005421276 -0.00036148948 0.0024875463 0.0015881874 0.00015055155 -0.0012306125 -0.0005468072
0.003709896 0.014787495 -0.0033820372 0.0049863127 0.0004423925 -0.002127481 0.0010306118 0.0022241015
0.0022414878 -0.00040875887 -0.002535724 -0.00094276865 -0.002159806 0.0020697198 0.002119225 0.0018749085
0.0015084906 -3.295518e-05 0.0026049942 0.0011545726 0.0007880523 0.0005299621 -0.009089416 -0.0023582699
-0.0029026573 0.0018307016 -0.0033484683 -0.000117180054 0.0018373581 0.012867894 -0.0043330565 -0.0036290612
-0.0017132196 -0.0005300004 -0.0008430257 0.008816671 -0.00021252633 0.0053519397 -0.0026582307 0.011556548
0.0063998215 0.0018125324 -0.005334588 0.0007024079 0.010204564 -0.002786873 0.017840665 0.013924523
-0.0012769387 -0.001977171 -0.005761997 0.012198563 0.0008664875 -0.0006148183 0.0049798614 0.011616273
0.0006376719 -0.005645318 -0.0007371772 0.0012316075 0.0029438061 0.0075403866 -0.00073509023 -0.00044008764
0.002923863 0.006279713 -0.0027872007 0.0006371487 0.001478643 0.0062138843 0.009728051 0.0004995013
0.0008769628 -0.0017622834 0.00017668668 0.0048066447 -0.006579732 -0.014748388 0.0047488436 -0.002517789
-0.00016721772 0.0011525253 0.0013403671 -0.0013591826 -0.0012262784 0.001004797 0.018510656 -0.00025790694
0.00843763 0.0051665697 -0.008805677 0.001256593 0.0012049626 0.013483353 -0.0035182766 -0.0014619334
0.0045053395 0.0024849707 0.0046454975 0.0031440253 0.0005570348 0.012235165 -0.0023812717 -0.006918025
-0.0015347365 -0.0012278015 0.009912904 0.0013972475 0.01261778 0.010219597 -0.004254844 0.016440447
-0.009191394 -0.00041828593 -0.0027224654 -0.0053255027 -0.00090466393 -0.002332508 -0.022643153 0.009222284
-0.0032182226 0.009327636 0.0005263586 -0.0023265807 -0.0036909203 -0.0020761664 0.0015917164 0.00054433447
00000000: 6e55 413b 1220 2d3b 5b03 273b 365b 413c
00000010: 9f12 0c3b 584c ab3b 2e8c ea3b 6ea1 41bb
00000020: f713 83bb 88d0 0fb8 34b4 afbb 2dad ea3a
00000030: 779b c7bb 76b8 5f3c 1bf5 393b 1a6b 0dbb
00000040: b4e6 d0ba 237a a039 cdb4 10bb 2563 063b
00000050: 249c 48b9 8a4c 95ba ce58 b93b 48aa 78ba
00000060: ef61 66ba 1c48 e23b fdf3 5fba 65a2 e0bb
00000070: 143b 89bb c9b9 a6bc 908e dcba 887e af3a
00000080: 2998 babb a4a5 7eb9 5d8a 91ba 1524 37bb
00000090: 3782 4aba 4c33 37ba b236 4d3a f38a 99bb
000000a0: 7c23 2bbc 3eeb fc3a ef65 203c d664 84ba
000000b0: 928a 43bc 2ad4 c4bb e81f a33b 222d 89bc
000000c0: e51f 063c 7509 38ba 832d 45bb 48ac b9ba
000000d0: 3865 f939 6009 bf3a f252 79bc a554 1dbc
000000e0: 5ddb d4ba f8bb 25bb 37d6 d4ba faf1 e639
000000f0: 22d1 bcba 8a2b b3bb ea83 89b9 b41d d3ba
00000100: 2c9f 87ba ca85 693c 7435 523b 3fc8 1a3c
00000110: 605e 2838 6a2d 803a 88c2 1ebb 2ce9 9739
00000120: 8b95 66ba 56f8 963a 2116 ca3a fef2 88bc
00000130: 2048 a53b 5e2c 5e3c 71d8 473b aa02 7a3c
00000140: ed5a 59ba 6731 cbb8 cb71 c03a 2182 913a
00000150: e91f fab9 0911 473a 805b 3fbc c142 ba3a
00000160: 38f4 a8bb 4794 daba 2b1d 7939 aef3 aa3a
00000170: 56c4 54ba ae7f 89bb 3025 7c39 e649 1d3b
00000180: ba83 eeba 976a 423b f9f7 c23a a8bd 803c
00000190: 8b82 56ba 6007 c5b9 862f 75bb 85b5 163d
000001a0: 14ad 83bb 7465 1f3b fcd8 443c 4904 80ba
000001b0: 3ca8 413c 02a6 9ebb a8a7 6e3c 7c82 bcb9
000001c0: c95a 973b 98f8 a739 e5db c23b ced0 953c
000001d0: d553 9c3b 7adb d13b b2e5 af3c 414f 473b
000001e0: 3cba 68b8 f6a4 b13b 4c86 bdb9 1a06 233b
000001f0: ba2a d03a 60dd 1d39 814c a1ba 9c57 0fba
00000200: ba21 733b 4047 723c 2ba5 5dbb 3964 a33b
00000210: ebf0 e739 356d 0bbb 9815 873a 3bc2 113b
00000220: ede5 123b b04e d6b9 642e 26bb 2224 77ba
00000230: 888b 0dbb 23a4 073b b2e2 0a3b 7dbf f53a
00000240: 8cb8 c53a 5b39 0ab8 8db8 2a3b 0755 973a
00000250: 4b95 4e3a 28ed 0a3a c6eb 14bc 348d 1abb
00000260: 823a 3ebb 27f4 ef3a fa71 5bbb 90be f5b8
00000270: 82d3 f03a dcd3 523c 50fc 8dbb 8bd5 6dbb
00000280: 1c8e e0ba baef 0aba 7ffe 5cba cc73 103c
00000290: 9ad9 5eb9 535f af3b b635 2ebb ad57 3d3c
000002a0: 98b5 d13b 7f92 ed3a c4cd aebb cc21 383a
000002b0: 0b31 273c f8a3 36bb 9626 923c af23 643c
000002c0: f45e a7ba 6d93 01bb 22cf bcbb 7bdc 473c
000002d0: fe24 633a c22b 21ba 1b2e a33b 2e52 3e3c
000002e0: 7029 273a 5cfc b8bb 203f 41ba e46d a13a
000002f0: dfec 403b 5915 f73b 12b3 40ba 90bb e6b9
00000300: 489e 3f3b 0dc6 cd3b 78a9 36bb 5306 273a
00000310: 07cf c13a d79d cb3b 6762 1f3c f7f0 023a
00000320: fae3 653a 6bfc e6ba f844 3939 0f81 9d3b
00000330: cb9a d7bb 39a3 71bc 309c 9b3b 7d01 25bb
00000340: 2a57 2fb9 5510 973a 42af af3a 9a26 b2ba
00000350: 13bb a0ba 65b3 833a a9a3 973c af37 87b9
00000360: fc3d 0a3c 544c a93b b045 10bc 44b4 a43a
00000370: d6ef 9d3a 48e9 5c3c e392 66bb 589e bfba
00000380: 87a1 933b e4da 223b 4239 983b fe0b 4e3b
00000390: f905 123a 0076 483c 1c0f 1cbb 9ab0 e2bb
000003a0: 3629 c9ba 2fee a0ba bc69 223c d923 b73a
000003b0: ceba 4e3c 1970 273c 386c 8bbb 1eae 863c
000003c0: 8097 16bc 634d dbb9 646b 32bb 8e81 aebb
000003d0: f826 6dba fedc 18bb 227e b9bc 1019 173c
000003e0: d1e8 52bb f1d2 183c 54fb 093a 8c79 18bb
000003f0: 5ee3 71bb 4b10 08bb 24a1 d03a abb1 0e3a

momentum_buffer f4 [4]
-0.03124368 0.0055757053 0.03180442 0.0035547232
00000000: bff2 ffbc 68b4 b63b 5a45 023d 5cf6 683b
