p1_navigation/DQN20190126_v3.pth (torch_old, 356336 bytes, 12 tensors)

hidden_layers.0.weight f4 [256, 37]
00000000: ac58 b2bd 842e 483c 9465 6e3a ad3f 233e
00000010: ac17 003e 20e8 5fbe d3c8 c5bd bc63 d8bd
00000020: 39d7 c03d 64ef 823e 141b b03d a4cb b03d
00000030: 6c75 7c3d 4ae4 4dbd 7b85 c33d 4e34 5bbd
00000040: b590 963d 7bfe 3cbc 6144 013e 337c 7c3d
00000050: 52be 39bc 1089 27bd ce75 c3bd d17c a93c
00000060: 585d 01be dc8a 01be 44e1 563c 45ba ebbc
00000070: 485f e7bc 2443 373e 6801 0dbe 0779 bb3d
00000080: 56fc 6e3d 51b0 233e abdc 963d 46bc a9bc
00000090: e297 b5bb 8c46 0abe 3c8a dabd 53cc ef3c
000000a0: 9d9b 9dbd 993b c93d 936b 60bd e1b9 dfbd
000000b0: f6d8 99bd 1ccb 88bd 3932 293e 8482 0a3e
000000c0: 4f0a 7abd bac4 0a3e 0544 ab3d 6395 033e
000000d0: 94b6 25be 7055 01be 5a61 c73d c153 98bd
000000e0: ced7 1abe 69f5 ddbd 19b4 b73d 8bd7 01be
000000f0: 900e cabc 49cb 5a3c ee61 c7bd 7e0a 21be
00000100: c4ec dbbd b88c 323b 9e0a f33d e310 02be
00000110: da0e cf3d 5e89 1cbe c2c9 6cbd 4083 0fbe
00000120: 5147 1fbc 0edf 2e3c ad74 883c e15b 063e
00000130: bee5 283c 54b2 24bd 73ec e6bd 5b9f b13c
00000140: 57c1 093e d4a7 cdbd 759f 03be b009 85bc
00000150: efb0 c6bb a208 f93d 1929 453d ac2b d53d
00000160: 8723 cbbd 6bad cf3d 9e9b c9bd 0305 c7bd
00000170: e911 aebd 812d 08be 7f0d 4c3d 160e 5b3d
00000180: 0d27 faba 4fe2 093d 5102 2fbc 1e4f 163e
00000190: 20df d0bd 95ab 87bd 19e0 983d 09db 87be
000001a0: 238a fb3c 1c61 c43d cd68 5c3d 010e 19bd
000001b0: ff0e a5bd 5ccc 00bd 975c 243b a255 a13d
000001c0: 59e0 d2bc 1b62 fabd 67c3 13be 0881 2c3c
000001d0: 40ad 89bd be2f a5bd 469d d2bd a67f 073e
000001e0: 0d4d 573e e4f3 203e 808d 11bd c38d 2ebd
000001f0: 70fb 9d3d 3a03 ff3d 2a3d 13bd 7c10 83bd
00000200: 99d9 01be f9d9 343d 19ac 0bbd 047c 003e
00000210: fa51 8e3d 5253 dc3d 1b1d cbbc 346a 653d
00000220: fcaa c9bd 638f d13d 8504 19be 7677 133e
00000230: baa3 543c b5e3 a93d 287d cabc ae01 073d
00000240: 50e7 ddbd efa4 8f3d 8865 f8bd 0fdc cebb
00000250: 6df4 8b3b 0c9b f43b 8e77 b2bd 8f31 e2bd
00000260: daac 2d3d e5a5 053d 8f8d ba3d 9100 a23d
00000270: c892 e2bd 2265 5a3e b380 c5bd 37e1 973c
00000280: 700f aa3d 6af6 dfbd f312 0abd 8d47 25be
00000290: 38a0 81bd 6a23 92bd 59f3 a0bd 32a9 e33d
000002a0: 9a7c 34be bc0f f73d 044b c03d 920a bd3d
000002b0: 3c40 0e3e a160 36be 91d4 d93d 8ed3 993d
000002c0: beb5 e43d 4cfd df3d 3ff2 d4bd fb34 de3c
000002d0: 16bc 593b 0c58 e3bd 38a9 62bc f2f7 02bd
000002e0: f756 babc b5c9 b73d 48aa dd3c 2893 d63d
000002f0: 7db9 89bd caed b83d 1862 74be e558 383e
00000300: 9795 ed3d 3c68 88bd 4f97 2e3d b7de 15be
00000310: f35e 73bd 23a0 903d 88a7 a63d 0578 013d
00000320: 41cd d6bc 4bdb aa3d 0462 1a3e ce97 6cbc
00000330: fb50 383d 3a89 00be 6ea1 2ebc 7d68 9e3d
00000340: 5e48 25bc ceb9 9fbd 1503 873c 35ce 8cbd
00000350: 9466 2a3e 251e 933d 1704 dcbc ab1c 60bd
00000360: 98be b33d 06b5 bfbd 82e4 d63d 3370 1a3e
00000370: da70 233c b811 71bc 9e0d c13d 8d28 283e
00000380: cc13 493d d75f b53d 0b83 9e3d 42cc 2dbe
00000390: 68bf fdbc 329a c43d a5d4 67bd 0c88 10be
000003a0: 74ff 0e3d a192 453d e113 a33d 1631 e13d
000003b0: f10b ae3d d980 d13d 72f2 0c3e e3d1 97bd
000003c0: 0e74 743c 3c17 bd3d f464 d1bb bd04 1e3e
000003d0: fd9b 173e 0eb9 0abe 7af4 69bc 99fa fd3d
000003e0: 24b9 6fbc e84c 033d ae3a 213e 093e 933d
000003f0: 7f77 0ebe 73d0 0c3c 95fc 03bd 251e 72bd
-0.08708319 0.012218121 0.0009094116 0.15942259 0.1250903 -0.21865892 -0.09657445 -0.10565898
0.094160505 0.25573266 0.08598915 0.08632591 0.06163542 -0.05026654 0.09546944 -0.05351668
0.073518194 -0.011535282 0.1262374 0.061641883 -0.01133688 -0.040902197 -0.09543954 0.0206894
-0.12633264 -0.12650627 0.013115231 -0.028775344 -0.028243676 0.17896706 -0.13770068 0.091539435
0.058346115 0.15985228 0.07366308 -0.020719659 -0.0055417875 -0.13503474 -0.10670897 0.029272234
-0.076956965 0.098258205 -0.05479009 -0.109241255 -0.07512085 -0.06679365 0.16523065 0.1352635
-0.061044987 0.13551608 0.08362583 0.12849955 -0.1618293 -0.12630248 0.09735365 -0.0743785
-0.15121385 -0.10837824 0.08969898 -0.1267988 -0.024665147 0.013354131 -0.097354755 -0.15726659
-0.10738519 0.002724452 0.118672594 -0.12701754 0.101102546 -0.15286776 -0.0578096 -0.14014912
-0.009721593 0.010673298 0.016657198 0.13120987 0.010308681 -0.04020913 -0.11275568 0.021682432
0.1345266 -0.10041776 -0.12853797 -0.01623997 -0.0060635726 0.1215985 0.048134897 0.104087204
-0.09918886 0.10140499 -0.09844135 -0.09717753 -0.0849951 -0.13298608 0.04981756 0.05348023
-0.0019085124 0.03366309 -0.010681705 0.14678618 -0.10198808 -0.066245236 0.07464618 -0.26534298
0.030705517 0.09588835 0.053810883 -0.03736687 -0.08059501 -0.031444892 0.0025079602 0.07877661
-0.025741743 -0.122257434 -0.14430009 0.01052881 -0.06722498 -0.08065747 -0.10283904 0.13232288
0.21025486 0.15718037 -0.035535336 -0.042615663 0.077139735 0.12451787 -0.035947002 -0.063996285
-0.12680663 0.044153187 -0.034099672 0.12547308 0.069492295 0.107580796 -0.024794152 0.056009486
-0.09847066 0.10232427 -0.1494313 0.1440104 0.012978489 0.08295385 -0.024717882 0.032960586
-0.10835135 0.070138805 -0.121287405 -0.006312854 0.004271081 0.007464772 -0.087142095 -0.11044609
0.042401172 0.032628912 0.091090314 0.07910264 -0.110631526 0.21327642 -0.09643688 0.018540008
0.08303726 -0.10935672 -0.033709478 -0.16140576 -0.063293874 -0.07135661 -0.07858915 0.11116256
-0.17625657 0.12063548 0.09389308 0.09230532 0.13891691 -0.17810299 0.10636247 0.07511054
0.11167477 0.109369844 -0.10397767 0.027124872 0.003322368 -0.11100778 -0.01383429 -0.03197474
-0.022746546 0.089740194 0.027058735 0.104772866 -0.06724832 0.0902973 -0.23865545 0.1800266
0.116007976 -0.06660506 0.042624768 -0.1463574 -0.059416723 0.07061794 0.08137423 0.0316086
-0.02622092 0.08342608 0.15076452 -0.01444049 0.044999104 -0.12552348 -0.010658605 0.07734773
-0.010088054 -0.07799111 0.016480962 -0.06875268 0.16640693 0.07183484 -0.026857419 -0.05471484
0.08776587 -0.09360699 0.10492803 0.15081863 0.009975636 -0.014713697 0.094264254 0.16421719
0.049091145 0.088561706 0.07739838 -0.1697245 -0.030975059 0.09599723 -0.056599278 -0.14114398
0.034911588 0.04823554 0.07962776 0.109956905 0.084983714 0.10229654 0.1376436 -0.074130796
0.014920248 0.09232947 -0.0063902084 0.15431495 0.14805599 -0.13547155 -0.014279479 0.12401313
-0.014631543 0.032055765 0.15745041 0.07189567 -0.13912772 0.00859462 -0.032223303 -0.05911078

hidden_layers.0.bias f4 [256]
00000000: 5f0a d53d 48b6 bf3d fce7 cbbc d2ab 473d
00000010: c08b d53d 5068 2c3d 2cd4 26be 919e c63d
00000020: ad80 a6bd 02f9 e8bd b1ee 5b3d 08b0 763d
00000030: 0127 f0bd f2bb 6ebc 38a5 803d 669b 413d
00000040: a5ed 04be f50d 093e 16c5 99bc 2580 df3d
00000050: feda 273d 3c0f e23d 2c4f f4bd 5eeb 0bbe
00000060: 9d7f 6dbd 395c 12be 7d02 c4bd b328 06be
00000070: 79b5 fe3d 8030 5ebd 36af 21be fbac a7bd
00000080: 8d0c 033c cbba 80bd e47e e8bd 5bcf 10be
00000090: 9eb4 ddbc 34b2 d6bd e4ba e23c e365 e0bd
000000a0: 9579 22be 7cb0 f83c e166 013e 62f3 913d
000000b0: bf38 943d 4388 e43d 0565 a6bd 98b5 ecbd
000000c0: 0035 bebc 9621 adbd 1f29 aabd 2b75 1f3e
000000d0: 49ab cabd 2853 f43d 8e7d eabd b524 c2bc
000000e0: 94c0 30bd ae94 013e f7d2 a5bd 9622 fbbd
000000f0: 5002 8b3d ff2f 7bbd a0c5 273d 7beb 653d
00000100: 7f75 143d 61fa 0a3e d9ce 1a3e 541c 11be
00000110: 6048 0bbe 1ca7 d53d d6e1 253e 825f 1f3e
00000120: 9555 323d f688 883d b531 febd 7b0a 553d
00000130: 6c38 8bbd f1d7 9e3b 0670 99bc a353 733d
00000140: d1df 05bd 486e db3d 3699 53bc 073a 6b3d
00000150: b5c0 38bd f440 543c df18 25be 2682 483d
00000160: 35be 83bc f611 d0bd 171f 1dbe 3341 9dbd
00000170: 77ee 17be fa9c ccbd 0ca2 6fbd df39 853d
00000180: 7cf3 5fbd 35fa eabd b670 23bb 3dd5 b6bd
00000190: e141 833d cac9 88bb 40d1 edbc 7151 28bd
000001a0: 355e 063c 97e9 b43c 0c17 09be b7ca d63d
000001b0: 5644 7f3d 05c2 343e 8d86 40bd 72fa ce3d
000001c0: 117c f1bd 0c6f 1cbd e8eb f03d 8263 ffbc
000001d0: cd69 dd3d 7d75 c13d b86a 84bd 1944 e3bb
000001e0: f499 db3d c621 05be f8d6 12be 2cb7 cc3d
000001f0: 5a8c 5dbd 0dbd 01be e114 eb3d 319c 083e
00000200: 43bd 02be ae1c c93d 4dbd 9ebd 531a d3bc
00000210: 1ef3 8d3d 9572 093e a2c0 f9bd 86cd 24bd
00000220: 1aca f3bd f595 123c 8528 97bd b457 17bc
00000230: 1052 8a3c b7fc 17be 690f debc 3305 0ebe
00000240: 3885 9bbd 4f43 c83d 03c2 da3d bb1e a23c
00000250: ae9d 14bd 3b74 c43d 7135 8abc 31aa ef3d
00000260: 9b6d 74bd e443 81bc 9d96 143e 82ad 0ebc
00000270: 80ad e43d 56d2 70b9 c19e 5d3d 366a 003e
00000280: c2a3 aa3d 872e 47bd 6aa4 0bbe 11f2 a63d
00000290: 8cea 4abe e870 7cbd 515f ab3d d124 183d
000002a0: 1c91 213e ba8d 65bd f6d1 193e ea69 91bd
000002b0: b249 ab3d 6ade 073d 8b95 64bd 9a05 12be
000002c0: 0139 c13d cc41 673c aead 6cbd 7058 8c3d
000002d0: 9d81 21be a28a 1ebe b750 8a3d 4b69 0e3e
000002e0: e506 f13d 62fa 463d a1ee 19bc 9366 babd
000002f0: 3414 20be 2227 f83d fd7a 0b3e 7810 b9bd
00000300: 3cd4 17be a474 2a3d 6c0f 09be 8f45 14bd
00000310: 5032 8f3d 47d6 e33d 346a bcbc feb3 d03d
00000320: bf9b e83d c887 a33b 6b53 363d 9651 e1bd
00000330: 2fb1 5bbd fb6c 963d 38e9 80bd 402f 913d
00000340: f175 843d bd0c 0d3e f62a dcbd 1228 2bbe
00000350: bc74 79bd 3e92 22be 2506 05be 2f9f 16be
00000360: 4108 0ebe 3274 dfbc 9583 50bd d1a8 87bd
00000370: bc36 19be fe5d 2abe 2693 02bc 7841 fb3d
00000380: b15b 6dbd e468 bd3d ed86 60bd 2f4d b7bd
00000390: 8a22 2bbe 4c9c 9b3d 80f7 2bbd e985 a03d
000003a0: e9ac 11be b997 c6bd 189f b5ba 47f3 16be
000003b0: 5638 32bd e97e 2cbe 336c 84bd 1a78 6b3d
000003c0: ab49 e33d 6d74 973b 37a0 943c 78b4 66bd
000003d0: 43f7 8bbd cf63 f93d 44f3 f9bd 91e0 74bd
000003e0: c16b d0bc 6831 c5bd 7c15 103e d6c5 ecbd
000003f0: 1e3a 88bd 2524 24be f079 bfbd 0a1e 013e
0.10402369 0.09360939 -0.024890892 0.048747845 0.10427046 0.042091668 -0.16291875 0.09698213
-0.08130012 -0.113756195 0.05369443 0.06022647 -0.117261894 -0.014571177 0.06281513 0.04726734
-0.12981279 0.1338423 -0.018770736 0.109131135 0.04098033 0.11038062 -0.11929163 -0.13664004
-0.05798303 -0.14292993 -0.09570787 -0.13101463 0.12436957 -0.054245472 -0.15789494 -0.0818729
0.007998598 -0.06285628 -0.113523275 -0.141416 -0.027063664 -0.10483208 0.027677007 -0.10956933
-0.15866692 0.030357592 0.12636901 0.071265 0.07237386 0.11158802 -0.08124737 -0.11558074
-0.023218632 -0.08453672 -0.083086245 0.1557204 -0.09895951 0.11929923 -0.11449729 -0.023699144
-0.043152407 0.12654373 -0.08096879 -0.12262456 0.067875504 -0.06132507 0.040959954 0.056132775
0.036244866 0.13572074 0.15117969 -0.14170963 -0.13601828 0.10432264 0.16199431 0.15563777
0.04353865 0.06666748 -0.124118246 0.052011948 -0.06797871 0.0048475196 -0.018730175 0.059405934
-0.03268415 0.10714394 -0.012914946 0.057428386 -0.045105655 0.012954939 -0.16122769 0.048952244
-0.016081909 -0.10159676 -0.15343891 -0.076784514 -0.14837061 -0.099908784 -0.05850415 0.06505179
-0.054675564 -0.114735045 -0.0024939007 -0.08927391 0.0640905 -0.0041744458 -0.029030442 -0.041093294
0.008201172 0.02208404 -0.13387698 0.104878835 0.06232103 0.17652138 -0.047003318 0.101063624
-0.11791242 -0.03819184 0.117637455 -0.031175379 0.108111955 0.09446237 -0.064656675 -0.006935608
0.107227236 -0.13001165 -0.14339817 0.09995875 -0.054088928 -0.12669773 0.11478592 0.13340832
-0.1276751 0.09819923 -0.0775095 -0.025769388 0.069311365 0.13422616 -0.12194945 -0.040235065
-0.11903782 0.008946885 -0.07380775 -0.009237219 0.016884834 -0.14842497 -0.027106958 -0.13869171
-0.07593769 0.09778463 0.10681536 0.019790044 -0.036283188 0.09592482 -0.016871186 0.11702383
-0.05967484 -0.015779443 0.1451058 -0.00870836 0.11165905 -0.0002296654 0.054106478 0.12540516
0.083320156 -0.048628356 -0.13636938 0.08151639 -0.19816035 -0.061631113 0.083677895 0.037144486
0.15778011 -0.056043364 0.150215 -0.0710028 0.08363666 0.033171095 -0.055806678 -0.1425995
0.09434701 0.014114808 -0.05778282 0.068528056 -0.157721 -0.15482572 0.067536764 0.13907354
0.11768893 0.048578627 -0.0093952725 -0.09101596 -0.15632707 0.12116839 0.13621135 -0.09036344
-0.14827055 0.041615143 -0.13384789 -0.03619915 0.06992018 0.111248545 -0.02299986 0.10190581
0.11357831 0.0049905516 0.044513147 -0.110018894 -0.053635772 0.07345005 -0.06294483 0.0708909
0.06467808 0.1377439 -0.10750382 -0.16714504 -0.060902342 -0.158761 -0.12990625 -0.14709161
-0.13870336 -0.027277086 -0.050906736 -0.06623996 -0.14962286 -0.16637418 -0.007969653 0.122683465
-0.057948772 0.09248522 -0.054816175 -0.089502685 -0.16712394 0.07598171 -0.04198408 0.07838041
-0.14226116 -0.096969076 -0.0013856618 -0.1474124 -0.043510757 -0.16845287 -0.0646595 0.057487585
0.110980354 0.0046220333 0.018142803 -0.056324452 -0.06834271 0.1217724 -0.12204602 -0.059784476
-0.025442006 -0.09628564 0.14070696 -0.11561172 -0.0665171 -0.16029413 -0.093494296 0.12609115

hidden_layers.1.weight f4 [128, 256]
00000000: 7225 ba3c 40c3 5ebd a512 483c 82e4 03bd
00000010: 34fc 81bd 8f11 8dbd 64fd 39bd 4570 033d
00000020: 341b 6c3d 951c 8dbc 5e82 6cbd 3c5d 803c
00000030: 5b0a 3abd e463 ca3c 1dea 48bc 782d 9e3c
00000040: 1426 30bc 1bc5 d03c 28e3 dfbc 6125 c33a
00000050: 4d9a 95bc 605b 813d 5934 203b 1942 2e3d
00000060: 9227 0b3d 5044 34bd 5e45 a0bb aba9 2e3d
00000070: 8cd2 133d ebc0 30bd b2f0 43bd 111b 08bd
00000080: 26fa 323d 3003 613b ceb5 7abc 3798 993a
00000090: ab30 97bc b385 1b3d 796f 153c 2f65 633d
000000a0: 3165 113d 6130 5fbd ddfa abbc b89f 77bd
000000b0: 3209 0cbd d073 503b 4ba6 2fbb 0dbc 79bd
000000c0: 885d d3bb 9f5e 833d f1bd ba3c e8e5 5a3c
000000d0: 26b7 753d d9b8 653b 7596 c43c d9ad 86bd
000000e0: c1b1 a0bc 5304 9e3c a719 023d a107 223c
000000f0: 8586 0fbd eb61 5d3d 19be 803d 0a1f 0c3d
00000100: 212f 7a3d db99 323d d572 8b3c 1731 ad3c
00000110: 6c54 0bbb b3ba 56bd fe04 dfbc 1bd8 53bc
00000120: d087 dabb 93ff 2b3c 7a50 6bbd 0de9 57bd
00000130: 4bbc 8e3d 15cc 9cba ec3f 553d 4ddc 883c
00000140: 8ef5 63bc 9803 babc 2a3a 823c d931 66bd
00000150: 7116 013d 8aae 12bc 05b1 213d c6b0 053d
00000160: c9f6 003d 182e ed3c 9f30 db3c cabb c8bc
00000170: f4d0 2ebc 0396 ffbc 687f 97bc e500 11bd
00000180: 4697 a33c 6caa 813c b8fe 293b cc87 6abd
00000190: 91e2 e93c 4b7a 0f3d 0dac ae3b ade6 65bc
000001a0: f88e 16bb b77f 3bbd 77b5 803d 24f0 00bd
000001b0: 4a7f 353d b6df f1bc 1d25 213c 559e 863c
000001c0: 821b 593d cfe3 b1bc f959 91bd 4c76 563c
000001d0: a5bd 32bd a05f 16bc 6238 12bd 1867 90bc
000001e0: c410 ee3c 632d 7e3c 0846 413d 278e 613d
000001f0: 9819 083d 1cd5 363d 7859 713d a2cd 04bd
00000200: f134 90bb d36c 7bbd ec2a 6ebd 788b a93b
00000210: b746 14bc 5ee7 3b3c 6e8b 183d b020 4bbd
00000220: 2201 2b3d b014 d5bc 27cc 00bd 7ecf d8bc
00000230: dc74 7fbc 8e96 72bd 253f 8abc 88f7 99bc
00000240: ef38 ca3b 13db 1b3d f1cf 7abd ba43 de3c
00000250: 402d cabb 03da 2fbd 340e 633d f3dc 313c
00000260: 7836 28bd 52aa 013b 3b99 ecbc b299 a23d
00000270: b94f 1fbd 1dd7 d63c aa1c 7f3b eae8 e6bb
00000280: 3775 4ebd 0c8e a43c c089 f83c 9aa1 51bc
00000290: 4df0 7f3c 038a 103d 881b 80bd 1e2a 60bd
000002a0: be17 503c 458b 6bbc 2a01 21bd c14f 26bb
000002b0: fd9c 353d 80a5 a63c d8db 44bd 48fb 013d
000002c0: d9f1 9fbc f6bd 43bd 3ca3 0b3c 0c82 25bd
000002d0: 30d9 0fbd 524d 46bd 6505 debc 1d31 4c3d
000002e0: b19a e73c 372c 5a3c 74d3 76bd ac83 5f3d
000002f0: 3942 b03a 794a 57bd 1518 9dba c7ca 6bbd
00000300: 00ce 06bc 0833 a53c de31 2b3c 52a4 c4bc
00000310: 8c0f 22bd d5c5 1a3d 4e1a 253c 516a 083d
00000320: b256 1a3d 794f 44bd 4d51 cf3a eabc 81bd
00000330: 13f5 dcbc 3c29 79bd 8a5c 38bd 1ab2 9d3d
00000340: 65f6 963d 96ac 153d 9361 32bd 74c5 99bc
00000350: 21ae febc 90c9 25bd 367b 4fbc 3ecf 2d3d
00000360: 4f3d 193b 3b3e c0bb 8af7 393d ea37 603c
00000370: 0a2d 13bd a75e 223d 9221 b2bb f924 38bb
00000380: 0b2e 993d 4742 06bd a1e7 173d ce8a d13c
00000390: 27f3 1cbd 009b 17bd a239 18bd 8052 4dbd
000003a0: ae74 4bbd 2a6c 2ebd ae17 8fbb 5eff 0abd
000003b0: 55fd 563d 2fbb c63c 7fc3 4b3d 2096 ccbc
000003c0: bcac 09bd 77d9 2c3d 25b6 95bc d4f0 243d
000003d0: 2703 573d b3eb 743d b5b8 6bbd afb3 803d
000003e0: 3b63 45bc d9e3 1b3d 3c15 febc a434 823c
000003f0: 6bcf 0cbd ebf1 e33b 9d35 b13d 7078 2fbc
0.022722933 -0.054385424 0.012211476 -0.032200344 -0.06346932 -0.06888115 -0.045407668 0.03208949
0.05764313 -0.017225543 -0.057741515 0.015669458 -0.045420032 0.024705835 -0.012262848 0.01930879
-0.010751266 0.025484612 -0.027329996 0.0014888459 -0.018262053 0.063162565 0.0024445264 0.042543504
0.033973284 -0.04401046 -0.0048910817 0.042642277 0.036089465 -0.04315273 -0.047836967 -0.033228938
0.04369559 0.0034334175 -0.015302135 0.0011718337 -0.018455824 0.037969302 0.009120815 0.055516418
0.035496894 -0.054489497 -0.020993644 -0.060455054 -0.034188457 0.003180731 -0.0026802 -0.060970355
-0.006450359 0.06414532 0.02279565 0.013360478 0.059989117 0.0035052805 0.023997525 -0.065761276
-0.01961601 0.019289171 0.031762745 0.009889514 -0.035040397 0.05404846 0.06286258 0.03420929
0.061080102 0.04360376 0.01702253 0.021141572 -0.0021260036 -0.052424144 -0.02722406 -0.0129299415
-0.006669022 0.010497945 -0.057449795 -0.05271249 0.06969508 -0.0011962677 0.052062914 0.01670661
-0.013913525 -0.022706792 0.015896875 -0.056199882 0.031515542 -0.008952746 0.03947546 0.032639287
0.031485353 0.028952643 0.026756583 -0.024503607 -0.0106699355 -0.03119946 -0.01849337 -0.035401244
0.019969594 0.015828334 0.0025939178 -0.057258412 0.028550418 0.035028737 0.0053305686 -0.014032048
-0.00229734 -0.045776095 0.06284612 -0.031479016 0.044310845 -0.029525619 0.009835509 0.01643292
0.05300475 -0.021715073 -0.07097239 0.013089728 -0.04363789 -0.009178072 -0.035698302 -0.017627284
0.029060729 0.015513751 0.047185928 0.055067208 0.033227533 0.04463683 0.058923215 -0.03242267
-0.0044008424 -0.06138308 -0.058146402 0.0051740967 -0.009050063 0.011468736 0.037242346 -0.04959172
0.041749127 -0.026010841 -0.031444695 -0.026466127 -0.015591826 -0.05922561 -0.016875813 -0.01879479
0.006171338 0.038050722 -0.061233465 0.027131904 -0.006169945 -0.04293252 0.055433467 0.010855901
-0.04106757 0.0019785357 -0.02888166 0.07939471 -0.03889439 0.02622562 0.0038926997 -0.0070468085
-0.050404754 0.020087264 0.030339122 -0.0127948765 0.015621257 0.03528787 -0.06255251 -0.054727666
0.012700973 -0.014376466 -0.03930775 -0.0025377127 0.04433917 0.020342588 -0.04806122 0.03173378
-0.019524502 -0.047788583 0.008522805 -0.040407225 -0.035119236 -0.048413582 -0.027102182 0.049851526
0.028272005 0.013316206 -0.06026025 0.05456893 0.001344747 -0.052561257 -0.0011985326 -0.05756643
-0.008227825 0.020165935 0.010448901 -0.024004135 -0.039565608 0.037786324 0.010077072 0.033304516
0.037680335 -0.047927354 0.0015817076 -0.063348606 -0.02697233 -0.06083034 -0.045010127 0.07699986
0.07371215 0.036541544 -0.043550085 -0.01877091 -0.03108889 -0.040475428 -0.012663653 0.04243397
0.002338249 -0.0058667934 0.045402087 0.013685206 -0.035931624 0.03964105 -0.005436131 -0.002809821
0.07479485 -0.03277805 0.037086133 0.025578883 -0.038317826 -0.037013054 -0.037164338 -0.050127506
-0.04967182 -0.042583622 -0.0043668365 -0.033934943 0.05248769 0.024259178 0.049746986 -0.024973929
-0.033611998 0.042199578 -0.01827533 0.040268734 0.05249324 0.059795093 -0.057549197 0.06284272
-0.012047584 0.03805909 -0.031015985 0.015894242 -0.034377497 0.006956329 0.08652804 -0.010709867

hidden_layers.1.bias f4 [128]
00000000: 6c70 7b3c 0920 49bc 06a6 20bd eda6 8a3b
00000010: 442e 4fbd a579 b4bc 873e 713c 84a8 c33c
00000020: b088 94bd 7503 293c eb43 34bd 7c38 d23c
00000030: e41d 0bbd aaca ed3c b6a8 0d3d a7b1 05bd
00000040: b5cf 90bc 9125 bf3c f88b 46bc 906d f43d
00000050: 970c 4bbb 28a8 9c3d 3701 ec3c ec5a f33d
00000060: 9f64 b6bb 196e 5f3d 1a6b aa3d 719a 2dbc
00000070: 0655 e7bc 015c 773d 006c 9c3b 9895 77bd
00000080: 018a 223c 1737 3a3c d030 793b 5aeb 203d
00000090: 27b7 82bd 6082 a63d f428 c53c ff87 da3c
000000a0: 049c 99bd ca5e 9a3d e7b4 40bc 819c 39bd
000000b0: 1d3d 55bd b3d8 cf3c bb01 e23c e1da 38bd
000000c0: a663 febc 5986 4cbd 1bfb 59bc 0740 14bd
000000d0: 716e 77bc 7223 b3bc b247 c6bc 7983 aa3d
000000e0: beda efbc 29b1 85bd bddf 55bd cb00 533d
000000f0: e2ef 58bd 8a9a 2dbd 10b0 33bd e3b8 dbbc
00000100: ad2c b43c 5f59 c63d d14e 4cbd f9cd 74bd
00000110: 069e e03c c1df ea3c 9121 6a3c c666 a03c
00000120: cd4a 96bd 81fa 8e3d ecb0 b93c f3bc 2c3d
00000130: 71aa 8abd 8384 39bd d41c f2bb 3697 2fbd
00000140: 3f0a 4a3c 7fc6 0d3d 6067 863d 160f 0e3d
00000150: 522d 433c 0331 2cbd b6fa d13c 44d4 5ebd
00000160: 999f 233d 5c4c aabc ead0 3c3c 83ed d6bc
00000170: c318 913c a120 9a3b e5c2 09ba 037d 753d
00000180: bbc7 83bd 1468 19bd 542e 8ebd d2a6 7abd
00000190: 936e 1a3d 682f 1c3d 9f38 3bbd bdee 9e3d
000001a0: dae5 8d3c fbdc 923c 168c 8fbd 851b 1a3c
000001b0: 6c3b e8bc 964d 013d 8040 253d 6953 eabc
000001c0: cc6b b3bc bafc a2bb 3f10 c5bc ce48 023d
000001d0: 48a0 27bd df40 a5bc 602c 783d fbe1 393d
000001e0: 9c8b 33bd b40b a9bc b3e8 90bd 067c 9b3b
000001f0: 3231 583c d0a0 8dbd 9a50 5ebd c76c 99bb
0.015346628 -0.012275704 -0.039220832 0.004231325 -0.05058123 -0.02203066 0.01472438 0.023884065
-0.072526336 0.010315766 -0.044010084 0.0256617 -0.033964053 0.029027302 0.034584723 -0.032640126
-0.017677167 0.023333343 -0.012118332 0.1193496 -0.0030982846 0.07649261 0.028809173 0.11882576
-0.005566194 0.054548357 0.08321209 -0.010595904 -0.028238785 0.060390476 0.004773617 -0.060445398
0.009920598 0.0113656735 0.003802348 0.03928695 -0.0638259 0.08130336 0.02406738 0.026676176
-0.07500461 0.07537611 -0.0117618805 -0.04531527 -0.052060235 0.025371885 0.027588716 -0.045130614
-0.031053375 -0.04993281 -0.013304497 -0.036193874 -0.015102015 -0.021867488 -0.024204109 0.08325858
-0.02927911 -0.06527931 -0.052215327 0.051514428 -0.052963145 -0.042383708 -0.04386908 -0.02682156
0.02199396 0.09685015 -0.049879853 -0.059766743 0.027419101 0.028671147 0.014290229 0.019580256
-0.07338486 0.069813736 0.02266737 0.042172384 -0.0677079 -0.04529239 -0.0073886905 -0.042868815
0.012331544 0.03461313 0.06562686 0.034682356 0.011912661 -0.04203893 0.025632244 -0.05440165
0.039947126 -0.020788364 0.011524418 -0.026236301 0.017712003 0.0047035967 -0.0005255177 0.059933674
-0.0643458 -0.037452772 -0.0694243 -0.06119425 0.037703108 0.038131148 -0.045708295 0.077603795
0.017321516 0.017927637 -0.07009141 0.009405975 -0.028348647 0.031568132 0.040344715 -0.028604226
-0.021901987 -0.004973975 -0.024055598 0.031807713 -0.04092434 -0.020172535 0.060589194 0.045381527
-0.043834314 -0.020635463 -0.07075634 0.0047450094 0.013195323 -0.06915438 -0.054276086 -0.0046821567

output.weight f4 [4, 128]
00000000: 6c10 cc3d 0ca2 ae3c 5338 d2bd 89da 633d
00000010: b49e 2d3a de06 26bc 0a9f 97bc 38d8 ea3c
00000020: 8ab0 58be 3efd 2e3d 42ed 92bc fe5e e83d
00000030: 05e1 b9bc 6155 033e 811b 343c c607 64bd
00000040: 519f bbbc c2da b53d 45ec 76bd 56b7 383e
00000050: af40 d03c c77e d63d 251e 8e3c f6c6 173e
00000060: 677c 5cbd c1cb 5d3d 4abb 233e 6a0b 98bd
00000070: 771a 933c fd20 813d 2080 c3bc 5a43 08bb
00000080: 932c 92bd 6036 43bd 5642 9f3c 69d4 debd
00000090: 883e 733c 2706 0b3e 6044 bf3d 2fb4 103d
000000a0: 93dd 24bd 030e df3d 4afe 3ebd 81f1 3ebd
000000b0: bba0 36bd e5b8 46bd 26ee 1d3e 1348 723d
000000c0: c055 91bd d93a 60bc 3981 55bc 6511 8ebd
000000d0: f1db 3d3b 0374 03bd d289 2dbd 46af 1a3e
000000e0: ea2f 51bd 1388 f6bb 7cb3 b6bd 9f36 a93d
000000f0: 1398 303c ecbb 18bd 52bb 7e3b d5ab 0f3d
00000100: 5cfa 65bc 4164 043e e0f3 48bd 09ed 143d
00000110: 46e5 db3d 55c3 3f3d 7390 c3bc e67b d1bb
00000120: 2f93 75bb 11ac d93d e4de 763c dac2 3c3d
00000130: 9229 0dbd 5bab b83b 0ab8 d8bd 7af9 0bbd
00000140: 8b92 673c 0e60 0bbd 6c11 1a3d 6daa e93d
00000150: f2d0 3d3d 7b5c 6cbd bcad e53d bc0d 903d
00000160: 13c2 f93d 250e 0a3d 70f2 be3d 033b af3d
00000170: 9a1a d33d d646 48bd 30b6 f33b 2706 65bd
00000180: 70f0 733d 20bc 75bd 8466 fbbc 2d43 26bd
00000190: c166 87bd edb2 f33d e1c7 1dbd d563 aa3d
000001a0: 6091 073d cba1 38bd 7052 cebc 3653 0e3d
000001b0: 9075 e33c 6e73 283d 21d5 153d fcab b93c
000001c0: b5a6 fc3c 989d 413d 6275 9abc 2681 e8bd
000001d0: 1286 0b3d 16ef 043d c8aa c13d c1bb fc38
000001e0: 7caf 213d a878 813d 6210 76bd 8ffe 6d3c
000001f0: 225e 593c 8c28 51bd 6832 4ebd 43e4 bbbd
00000200: 9700 c83c f091 43bd f0f8 5bbd f4d4 913d
00000210: d4b1 c2bb b396 3abd 2580 023d 63d8 773d
00000220: 5552 abbd 9939 883c bc0f dc3c 6ac9 b03d
00000230: 2e10 0dbd d8d1 9d3d 3275 e3bc 2d5d d73c
00000240: 149a e03c 2b98 bdbb 75a9 123d 070a d93d
00000250: da76 c13c 9fb6 bb3d fc42 4ebd 6e03 f13d
00000260: 26f6 04bd b23f f13d f2a2 e33d 4d12 4bbd
00000270: 8411 193c a8f4 733d 3bb6 a03c 4a8b 6cbd
00000280: ffab 593d 76ca 7dbd 596c ec3c c8e0 c7bc
00000290: 4a72 25bd 618a d23d e143 6e3d 42f8 28bc
000002a0: ad90 4c3d 34cc 173e e2af 2bbd 192b 16bd
000002b0: 7083 59bd 6e0e fd3c 7705 d53d f37b 6cbd
000002c0: 007b 273d 1947 80bc 59ad c53a 67d9 b1bc
000002d0: a0f1 bfbb adea b8bc 0a6a 80bd 2a34 c63d
000002e0: cf81 78bd 5354 813b c12e 81bd c4c4 d13d
000002f0: 1a2b 263d 75ea 043d 0f75 6c3c 64d1 7c3d
00000300: d78b 563d 5e4f 083e a39c 853c 5814 463d
00000310: c0ee f13d 146b 3e3b 0634 8abd c5b6 29bd
00000320: 9eab ac3c 0f8a ca3d 75f3 13bc 446b 123d
00000330: a7f2 52bd 3e01 02bd 289a 80bd 6803 f7bc
00000340: 123d d8bc d567 cf3b 5ec7 573d 9880 5c3d
00000350: e00a 633c 5a01 53bc e2a7 bb3d 539b 313d
00000360: 9c2b d03d 5c83 21bd d14e a13c 29f2 ba3d
00000370: c485 ab3d f4c2 e1bc f948 903c 3e08 fbbc
00000380: 6f7b 7dba e6fc 97bd 73f8 06bc c39c e2bc
00000390: ab56 02bc 9e66 de3d 685f 113b 7d79 e53d
000003a0: a260 803d 1f5d aabb 4161 603d 9412 b1bc
000003b0: 31e7 143d 6afb 083a 0fde e53b dc5c 2c3d
000003c0: 4a36 ddbc 126d 25bd cd8e b7bb 1230 01bd
000003d0: 821f dc3c 99cd 0e3d fc5c 0f3d 7b64 513b
000003e0: 3e5f 5f3d fdf1 55bd a7d5 53bd e372 7ebd
000003f0: 9d6b f53c 94fa 3f3d 8fd4 ebbc c7b0 79bd
0.0996407 0.021317504 -0.10264649 0.055628333 0.0006623075 -0.010133473 -0.018508453 0.028667554
-0.21161094 0.04272198 -0.017935399 0.11346243 -0.022690305 0.12825538 0.010992886 -0.055671476
-0.022903116 0.08879615 -0.060283918 0.18038687 0.025421469 0.104733996 0.017348358 0.14821991
-0.053829577 0.054149393 0.15989414 -0.07424052 0.017956955 0.0630512 -0.023864806 -0.0020792098
-0.07137408 -0.047659278 0.019440811 -0.10880358 0.014846452 0.13576566 0.09339213 0.035328086
-0.040250372 0.108913444 -0.046629228 -0.046617035 -0.04458688 -0.048516173 0.15422878 0.059150767
-0.07096434 -0.013685905 -0.013031297 -0.069369115 0.0028970207 -0.03209306 -0.042367764 0.15105924
-0.051071085 -0.0075235455 -0.08920953 0.08262371 0.010778445 -0.03728859 0.0038868976 0.03507598
-0.014036741 0.12928869 -0.049060702 0.036358867 0.1073709 0.046817143 -0.02387259 -0.0063929437
-0.0037471761 0.10628522 0.01506779 0.046084262 -0.034463473 0.0056356615 -0.10581978 -0.034173466
0.01413406 -0.03402715 0.03761427 0.11409459 0.046341844 -0.057705384 0.11214778 0.070338696
0.1219522 0.033704896 0.09323585 0.085561775 0.10307808 -0.04889568 0.00743749 -0.05591407
0.05955547 -0.059993863 -0.030688532 -0.040591408 -0.066113956 0.11899362 -0.038520698 0.08319823
0.033097625 -0.045076173 -0.025185794 0.034747325 0.02776602 0.041125707 0.03658021 0.022665016
0.03084121 0.047269434 -0.0188548 -0.11352758 0.034063406 0.032454573 0.09456402 0.00012051268
0.039473996 0.063218415 -0.060074218 0.0145260235 0.013267072 -0.05106406 -0.05034104 -0.09174397
0.024414344 -0.0477466 -0.053704202 0.07120696 -0.005941609 -0.045553874 0.03186049 0.060509097
-0.08365313 0.016629027 0.026862971 0.08632167 -0.03443926 0.0770604 -0.027765844 0.026289547
0.02741722 -0.005785962 0.035806138 0.10597616 0.023616243 0.091656916 -0.05035685 0.11768232
-0.032461308 0.11779727 0.11115064 -0.049578 0.009342555 0.059559494 0.019618144 -0.057750024
0.053142544 -0.06196066 0.028860258 -0.024399176 -0.040392198 0.102803 0.058170203 -0.0103130955
0.04994266 0.14823991 -0.04191578 -0.036662195 -0.053103864 0.03089067 0.10401433 -0.057735395
0.040888786 -0.015658902 0.0015081569 -0.02171011 -0.0058576614 -0.02257284 -0.06270225 0.09677918
-0.06067067 0.00394682 -0.06307746 0.10242608 0.04056845 0.03245016 0.014432206 0.061723128
0.052379455 0.13311526 0.016310042 0.048359245 0.11813116 0.0029055523 -0.06748204 -0.04143407
0.021077927 0.09889614 -0.009030213 0.035746828 -0.051500943 -0.031739466 -0.06279403 -0.030152991
-0.026396308 0.0063295164 0.052680366 0.053833574 0.013857573 -0.01287874 0.091628805 0.04336102
0.10164568 -0.039431915 0.019690903 0.0912822 0.08375123 -0.027558781 0.017612921 -0.030643579
-0.0009669577 -0.074212834 -0.008237946 -0.02766264 -0.007955234 0.108594164 0.002218211 0.11204813
0.06268431 -0.005199089 0.05478025 -0.021615304 0.036353294 0.0005225452 0.007014997 0.042080745
-0.027003426 -0.04038722 -0.00560174 -0.031539984 0.026870493 0.034864042 0.035000786 0.003195076
0.05453419 -0.05223273 -0.051717427 -0.062121283 0.02995854 0.04686983 -0.02878788 -0.060959604

output.bias f4 [4]
00000000: ce32 543f 8dc6 3e3f c5e5 453f 337e 443f
0.8289002 0.74521714 0.77303725 0.76755065

momentum_buffer f4 [256, 37]
00000000: a031 50ba 2e34 873b 3e53 ccb9 fb04 243a
00000010: c8e0 2f3a 2149 553b 187e 91b8 06e4 be39
00000020: b88c 9c37 55ff d439 85bb b1ba 98c9 433a
00000030: 3876 983b 4972 f9b9 2ec8 8f3a 8ac5 e1ba
00000040: 713c 7f3b 48f6 043a 39ee 683a 065d f6b7
00000050: 1068 6b3b 90cc b137 d8a2 5cb8 dc56 f336
00000060: d4bd 093b 60af 4b3b d668 3bba b5b9 e539
00000070: b019 413a d5b6 96b9 2f8d dd3a 8cf1 4ab9
00000080: 2738 363a 895a b43a 9b92 793a 3c8d 9f3b
00000090: fa8b 0a3d b281 3db9 923b 20ba 26c3 7638
000000a0: 0ba1 053a c450 25b9 2f18 c839 2fe2 dab9
000000b0: 5979 1bb9 91b6 24b8 22a1 6bb8 565d f9b9
000000c0: 6267 c438 26b6 5938 dabc df38 5cea 19ba
000000d0: 9144 3238 4d19 cdb9 44d5 5538 4ae2 9b38
000000e0: 8e9d d3b8 6851 93b8 002a 78b5 592d 54b8
000000f0: 9a1d d5b8 9264 12b9 bd4f a9b9 15cc 8f39
00000100: a22f 6c39 abb1 d1b9 16a5 0a39 3021 6838
00000110: b7a1 10b9 5a00 39b8 f9c2 cab8 1512 6fb8
00000120: d75f 19ba d959 a3bb 74ed e4ba 36a7 ffba
00000130: 6178 e7ba 92c7 deba e669 703a 156b e3bb
00000140: a8ef a539 70fa 8cb6 702e 0cba 7c41 85ba
00000150: 7afc b2bb 48dc 2d3b 1107 96bb 0308 6c39
00000160: ee2d 2fba 5959 c4bb 613b 39ba f645 92ba
00000170: dae8 2a3a 5f6e 4239 797e cabb 1f62 003b
00000180: 3a84 36ba 6c2e 13bb 172b 7fba 4470 04bc
00000190: 960c 7a3a 921e 143a 11d0 1cba 680b d639
000001a0: 1117 2cbb 0683 123a f009 66bb 1ad4 cfba
000001b0: 2a02 2abb e21f 0abb 62ac a4bd fcf3 9c3a
000001c0: f4e0 0cba fc94 b739 ece9 d0b8 1157 ffb9
000001d0: 86c6 a539 fa2c 80b8 4f44 d739 f268 8039
000001e0: 720b c2b8 ca3c 7f3a 7188 3739 f576 60b8
000001f0: d48c 41b9 18a4 4639 2752 f539 5471 4cba
00000200: aa46 733a b06b 9a39 7931 73b9 b02c 903a
00000210: 2df8 05b9 7879 fc37 f456 c0b8 e5ae afb9
00000220: fcef 7d3a 10d2 9cb9 4cb6 a339 af6e 95b8
00000230: 292b 65b9 d822 5c39 9297 8739 adf2 393a
00000240: cf25 8cb9 45b9 9239 ab52 e339 e475 963c
00000250: 0c94 f1ba 7743 a1ba 9e14 58ba 608d b939
00000260: 7795 b6ba c80e 11bb 4d18 01ba b819 80ba
00000270: 8c27 1239 323f 7eba 0a80 03bb 7832 72ba
00000280: cadd a2b9 ecb6 9eb9 13c9 7bba e48b 0dbb
00000290: 1cf5 17bb c4d0 993a fe69 7ab9 2286 95ba
000002a0: 248d 73b9 3a47 dfba 48a2 ceba 686a 04b8
000002b0: 9078 4fba 5a4d 94ba 7722 66ba 8a8d 32b9
000002c0: 34ce b2ba 46f9 14ba e0e1 9dba 9de0 eeba
000002d0: d2d0 0ab8 e495 fdb9 0650 b4b9 d2cc 8eb9
000002e0: 404d 36bc e038 b4b7 0089 88b9 4e73 543a
000002f0: b815 3f39 1511 9539 2ba0 f13a d6e9 153a
00000300: f029 68ba c6ad 56ba e8b9 f738 cef5 ceb8
00000310: e89d c9b9 4860 5839 0874 813a 963d 2d39
00000320: e2e7 aaba bad1 0438 549e 243b 38a4 0aba
00000330: 6b9f 8239 cd32 c13a a1c5 c6b8 a9bf a8ba
00000340: e344 223a 2ce0 e7b8 96ee 523a 7c35 2438
00000350: 5abc 023a d29b 25ba 35c2 d9b9 5e4d 973a
00000360: 14d9 75b8 380c 84b9 5a92 0bb9 7839 353a
00000370: 4cf2 3f3b 2c0b 52bc 68aa 293a 47a8 ffb9
00000380: b379 d7b8 e86b 97b6 488c 6cb8 c4fd 1838
00000390: 5645 bd38 2259 05ba a8b1 e339 bc7f 02b9
000003a0: 70c5 9639 e2d5 12b9 fc3c 9438 9ff2 2db9
000003b0: ca7c 18b9 38d1 1638 7204 20b9 ab63 89b7
000003c0: 725d 4239 6c6c 37b9 6923 b739 9ee8 f8b9
000003d0: e62d 173a 2c26 d1b9 2e32 35b7 2aa6 3a3a
000003e0: 75e0 09ba c0f0 34b8 94f3 bdb8 7419 84b9
000003f0: 5f91 8639 89fd b7b8 9046 093a 57d7 27ba
-0.0007941965 0.0041260934 -0.00038971932 0.00062568457 0.0006709215 0.003254481 -6.9376256e-05 0.00036409515
1.8662176e-05 0.00040626028 -0.0013559913 0.00074686995 0.0046527646 -0.0004757813 0.0010969692 -0.0017225009
0.0038945938 0.0005072099 0.00088855956 -2.9368803e-05 0.003592018 2.1195301e-05 -5.2603747e-05 7.252076e-06
0.0021017687 0.0031079873 -0.00071491057 0.00043816646 0.00073661935 -0.0002874645 0.0016903038 -0.00019354204
0.00069511164 0.0013759892 0.0009520442 0.0048691314 0.0338249 -0.0001807276 -0.00061123923 5.8832717e-05
0.00050975446 -0.00015765714 0.0003816499 -0.0004174872 -0.00014827157 -3.9270675e-05 -5.6178433e-05 -0.00047562522
9.365265e-05 5.190647e-05 0.00010668645 -0.0005871409 4.2502365e-05 -0.00039119498 5.0981776e-05 7.4331256e-05
-0.00010090611 -7.024669e-05 -9.244832e-07 -5.0586972e-05 -0.00010162145 -0.0001396111 -0.00032293602 0.00027427138
0.00022524458 -0.0003999596 0.00013222205 5.534402e-05 -0.00013793154 -4.4107765e-05 -9.668427e-05 -5.699888e-05
-0.0005850768 -0.004985076 -0.0017465786 -0.0019504789 -0.0017659777 -0.0016996732 0.00091710535 -0.0069402554
0.0003164981 -4.20148e-06 -0.0005347496 -0.0010166611 -0.0054622265 0.0026529003 -0.004578479 0.00022509698
-0.0006682564 -0.0059920964 -0.0007066038 -0.0011159766 0.0006519683 0.00018542398 -0.0061796275 0.0019589735
-0.00069624523 -0.002245809 -0.0009733899 -0.008083407 0.00095386186 0.0005650307 -0.0005981932 0.0004082576
-0.0026258866 0.0005588982 -0.0035101138 -0.0015856058 -0.0025941231 -0.0021076133 -0.08040692 0.0011974568
-0.0005374097 0.00035015482 -9.961784e-05 -0.0004870226 0.00031619164 -6.111893e-05 0.0004105889 0.00024492253
-9.252773e-05 0.00097365363 0.00017503068 -5.351655e-05 -0.00018458377 0.00018943881 0.0004679125 -0.00077988696
0.0009280244 0.00029453402 -0.00023192716 0.0010999646 -0.00012776321 3.0097304e-05 -9.17147e-05 -0.00033508908
0.00096869445 -0.00029911147 0.00031225604 -7.12549e-05 -0.0002185522 0.00020993815 0.00025862135 0.00070933515
-0.0002673105 0.00027985327 0.00043358406 0.018366762 -0.0018430962 -0.0012303431 -0.00082428183 0.00035391282
-0.0013930042 -0.0022134054 -0.00049245806 -0.000977329 0.00013938377 -0.0009698748 -0.002006533 -0.0009239088
-0.00031064294 -0.00030272396 -0.00096048525 -0.0021598274 -0.0023186868 0.0011735191 -0.00023881343 -0.0011407773
-0.00023226865 -0.0017034777 -0.0015764916 -3.157035e-05 -0.00079143886 -0.0011314556 -0.00087789394 -0.0001702813
-0.0013641776 -0.00056828966 -0.0012045465 -0.0018224899 -3.3096243e-05 -0.00048367598 -0.00034391897 -0.00027236954
-0.011126816 -2.1484157e-05 -0.00026042014 0.000810434 0.0001822327 0.00028432222 0.0018434575 0.0005718743
-0.0008856347 -0.00081893464 0.000118125055 -9.86863e-05 -0.00038455357 0.00020635233 0.0009876499 0.00016521508
-0.0013039077 3.1666576e-05 0.0025118785 -0.0005288753 0.00024914308 0.0014739871 -9.478187e-05 -0.0012874502
0.00061900745 -0.000110566936 0.00080464163 3.9150458e-05 0.0004987173 -0.00063174695 -0.0004153416 0.0011543443
-5.861472e-05 -0.00025186106 -0.00013310593 0.00069131656 0.0029288707 -0.012820046 0.0006472231 -0.00048762767
-0.00010274667 -4.5127126e-06 -5.639743e-05 3.647596e-05 9.025137e-05 -0.0005086829 0.00043429178 -0.00012445351
0.00028757332 -0.00014003323 7.068549e-05 -0.00016588949 -0.00014542337 3.5957637e-05 -0.00015260445 -1.6378084e-05
0.00018536093 -0.0001749263 0.00034930863 -0.0004747556 0.0005767032 -0.00039892027 -1.0800124e-05 0.0007120097
-0.0005259582 -4.313956e-05 -9.057592e-05 -0.00025195966 0.00025666782 -8.7733446e-05 0.000523665 -0.00064026326

momentum_buffer f4 [256]
00000000: cfd2 693b 023b 6ab9 27b5 eabb 42b4 6e3a
00000010: 3b3f 68bb 7452 3a3a 6883 5b38 3a38 90b8
00000020: 182d 64ba 55fe 8e38 08e2 413a 7084 69bb
00000030: 2ccc d63a 84bb 4939 0e4b c4ba 6a53 813a
00000040: 1ed8 eeb9 aeab b43a debc 14bb 50ae 89b9
00000050: d89c a1b8 c932 0bbb a146 303a 6ca4 b13a
00000060: 84e9 8b39 5062 003c 66dd fa39 bc7a 5d3a
00000070: d19c c0ba 4c91 123a 1e9c b1bb 9ef0 abba
00000080: b955 36bc 8ab8 b0bb 032e abb9 add7 aa3a
00000090: 911a 73ba 8179 5a3a 824b 233b 4c6d 18bb
000000a0: eecc 1f3b fa40 c23a 96fc 95ba 10c9 0bbb
000000b0: 4e44 503a 79b4 b639 ce20 a3bb 148f 973b
000000c0: 72b2 fa39 713e 09bb 7e63 04ba 9036 a3b8
000000d0: 5094 04b9 1b7d 643b 60e7 31b9 6061 e9b9
000000e0: 6664 35bc 1c17 9839 66e6 1abc 022f 5139
000000f0: ab40 53bb 047f e5ba d571 9b3a 76f4 e039
00000100: e536 15bc ba12 2fb9 0970 1fbb 78da 01bb
00000110: 90fd b2b8 347c 113a 9653 e8b9 fe21 733b
00000120: 0679 c2ba 0a5d 5239 6e79 383b c373 e8b9
00000130: 1578 ee3a 0e37 c0ba 0175 87bb d052 24b8
00000140: a6f8 893a 8912 43bb 2863 22b8 651a ed39
00000150: eab9 b839 e80a df3a 2ca1 a839 8e02 68ba
00000160: 30da 6338 f913 773a 73d8 fdb9 6625 d5b9
00000170: b5a8 46ba 00eb ddbb ad6e 6c3b 5851 b0ba
00000180: d221 053b 7031 0bb8 65d3 1abb 1cf1 3b3a
00000190: 3dcb f239 7b5a b139 b64e 7aba 2200 c3b9
000001a0: 042b 95b9 91e0 abba d2ed a03a fbad 023b
000001b0: fa4c c73a be93 c7bb 00cf 83ba acad 343b
000001c0: a221 baba d4ec 62ba 2328 99ba 5b48 38bb
000001d0: 5850 a638 526e c038 7c2d fcbb 1cfa 343a
000001e0: 4a6e 5239 88a7 55b9 02dc 94bb dc89 1139
000001f0: fe65 a13a f673 1bbb 47b7 a3ba 5e9d 9cba
00000200: 499f ad3a c82e 413a aa57 343b 1aa8 05ba
00000210: b822 a5bb b736 3c3a 0047 afb5 342e 28bb
00000220: 862e ca3a b85a b03b 6d78 31ba 1e19 1c3b
00000230: 9e2f 23ba ae88 a9b9 a47f 583a 4018 e636
00000240: 2a7f 68bb 0ff0 0b3b b8dc 1f3a fffa 00bc
00000250: baa1 903b 3b79 0d3b c5d1 48ba d503 8aba
00000260: 50fb e539 d321 e538 f530 f3ba dbdd 28bb
00000270: 85f8 b1bb 222f 7e3a 0823 d63a 7e45 0239
00000280: 788b 12bb 0dfc b73a 8a7e 123b 36d6 4aba
00000290: c183 f5ba a494 c0ba 4669 b3ba 2491 913b
000002a0: 121e 7cbb 52b4 8439 a8b8 1eb9 b4e3 963a
000002b0: 0050 97b7 6a5c 853a 0c3e 2bba e755 10ba
000002c0: ec0e 2739 2e24 4d3a 572d 88ba 340d e43b
000002d0: 4eee 35bb 3e26 0439 06ea 4b3a 4062 a4b8
000002e0: 09c3 11bb a422 6eba 18b7 6a3a 3c48 c7ba
000002f0: 6c6f 373a 0134 e7ba 5849 8cbb 0250 2e3b
00000300: 7cc7 57b9 88e9 9437 e62a 24ba d0d8 21ba
00000310: 643d 8e39 2a85 6bbb c19d 2339 b672 7739
00000320: 3c47 0e39 0d7f a5b9 383d 94b9 955f fd39
00000330: 26ba d9b9 1d5c 3f3a cc28 58bc c3aa 28bc
00000340: 3010 1c39 8788 08bb ec70 f8b9 ff79 323a
00000350: b8ea 273a 00e5 873a 13bc e8b9 ca6b 1ebb
00000360: f36a 923b 3feb b239 d31b 18bb 98f5 ae3a
00000370: 83a2 8939 0152 e9b9 7063 853a 3099 c4b9
00000380: 0cb3 dcbb 53ee 17ba d9f2 86bb 747d 83b9
00000390: 80e2 26b7 a8e7 1eb9 3c41 663b 31b9 7b3b
000003a0: 57e5 d339 ad09 343a ca18 2b3b 6d48 ac3a
000003b0: afad 093a 4176 0e3a 815c 5039 026e 0ab9
000003c0: dbc8 6c3a 9863 9639 d6eb 1039 71f5 afba
000003d0: 2fa7 6bbb f0c3 44bb 8022 a0b8 d27a aeba
000003e0: 944d 5539 8c4e abb9 7257 bf39 592a 403b
000003f0: 3762 67ba ed49 243a 62f9 7ebc a851 a0ba
0.003567863 -0.00022337961 -0.0071627083 0.000910584 -0.003543808 0.00071076234 5.233605e-05 -6.876928e-05
-0.0008704229 6.818461e-05 0.0007396047 -0.0035631917 0.0016387752 0.00019238709 -0.0014975981 0.0009866778
-0.00045555917 0.0013784075 -0.0022695581 -0.0002626055 -7.706293e-05 -0.0021239987 0.0006724392 0.001355303
0.0002668613 0.0078359395 0.0004784867 0.000844877 -0.0014695172 0.0005591109 -0.005420222 -0.0013117974
-0.011128836 -0.0053930925 -0.00032649943 0.0013034247 -0.0009273673 0.00083341455 0.0024916832 -0.0023258505
0.0024383622 0.001482039 -0.0011443074 -0.002132956 0.00079447485 0.00034848208 -0.004978276 0.0046252105
0.00047816668 -0.002094176 -0.0005050226 -7.782609e-05 -0.00012643752 0.0034864608 -0.0001696623 -0.00044513773
-0.0110713 0.00029008917 -0.009454345 0.00019949305 -0.003223459 -0.0017509167 0.0011859486 0.00042906747
-0.009107326 -0.00016696277 -0.0024328253 -0.0019814055 -8.534931e-05 0.0005549819 -0.00044312765 0.0037099118
-0.0014837093 0.0002006182 0.002814855 -0.00044336737 0.0018193746 -0.0014664845 -0.004133821 -3.9177772e-05
0.0010526374 -0.0029765686 -3.8716156e-05 0.00045223828 0.00035233732 0.00170168 0.0003216354 -0.00088504783
5.432422e-05 0.00094252784 -0.00048417188 -0.0004065439 -0.000757824 -0.006772399 0.003607671 -0.0013451977
0.0020314348 -3.3186225e-05 -0.0023624536 0.0007169412 0.0004630926 0.00033827484 -0.0009548472 -0.00037193397
-0.00028451544 -0.0013113191 0.0012277907 0.0019940126 0.0015205436 -0.0060906103 -0.0010056198 0.0027569337
-0.0014200697 -0.0008656506 -0.0011684935 -0.00281193 7.930462e-05 9.175822e-05 -0.007695852 0.0006903724
0.00020068247 -0.00020375673 -0.0045428285 0.00013879634 0.0012313721 -0.002372024 -0.0012490534 -0.0011948755
0.0013246323 0.00073693367 0.0027518072 -0.00050985964 -0.005039539 0.0007179784 -1.305918e-06 -0.0025662305
0.0015425242 0.0053819083 -0.0006769959 0.0023818682 -0.0006225052 -0.00032336026 0.0008258766 6.857357e-06
-0.0035476186 0.0021352803 0.00060982583 -0.007872342 0.0044138106 0.0021587152 -0.00076606526 -0.0010529706
0.00043865526 0.00010925871 -0.0018554019 -0.0025767002 -0.005431237 0.00096963544 0.0016337344 0.00012423654
-0.0022360962 0.0014036909 0.0022353255 -0.00077376084 -0.0018731282 -0.0014692736 -0.001368799 0.004442351
-0.0038470072 0.0002531135 -0.00015136844 0.0011511953 -1.8037856e-05 0.0010174636 -0.0006532378 -0.00055059645
0.0001593192 0.00078255206 -0.0010389489 0.0069595817 -0.002776045 0.00012602747 0.00077787077 -7.83843e-05
-0.0022241494 -0.00090841413 0.00089536747 -0.0015204023 0.0006997499 -0.00176394 -0.004281204 0.0026597981
-0.00020578312 1.7751721e-05 -0.0006262496 -0.000617397 0.0002713009 -0.0035937526 0.00015603659 0.00023598489
0.00013568712 -0.00031565913 -0.0002827437 0.00048327135 -0.00041528157 0.0007299798 -0.0131933205 -0.010294619
0.0001488335 -0.002083333 -0.0004738638 0.000680834 0.000640552 0.001036793 -0.00044390614 -0.0024173134
0.0044683157 0.00034126078 -0.0023209944 0.0013348339 0.00026251757 -0.0004450232 0.0010176729 -0.00037498167
-0.0067352112 -0.0005795706 -0.004118305 -0.00025079737 -9.947107e-06 -0.00015154353 0.0035134098 0.0038409943
0.00040415928 0.0006867897 0.0026107305 0.0013144143 0.0005252016 0.00054344913 0.00019870886 -0.00013201687
0.00090326153 0.00028684433 0.00013820766 -0.0013424588 -0.0035957803 -0.0030024014 -7.635821e-05 -0.001331175
0.00020342163 -0.00032674184 0.0003649551 0.0029322116 -0.0008826586 0.00062671193 -0.015562387 -0.0012231367

momentum_buffer f4 [128, 256]
00000000: 0a91 183a 4e00 f6b9 2d78 36bb dea9 f6ba
00000010: bcf7 343a 98a4 d838 0686 b639 cce7 4939
00000020: 4361 153a c785 e73a 7ccb b4b9 b5e8 efba
00000030: c6c1 7bba c8e9 2cbb d4f2 353b c4d7 163b
00000040: 127a 1c39 8d0a 5d39 6a06 a3b9 1875 0e3a
00000050: 9385 cf3a 5117 35ba bc73 d8b9 74bb 3239
00000060: 67fa 8eb9 9901 4abb 7a29 8438 6f7a 1dba
00000070: fb98 3e3a 2aeb 85bb e15e 2dba 2cc2 3bbb
00000080: c012 d0b6 7265 63bb f817 26b9 3e0e 22ba
00000090: 8c7e d4b9 c78e 95ba 7d77 11ba acc7 6cbb
000000a0: d10e 6e3a ce3a 823a ac32 8a3a 3efc 2c3a
000000b0: 9cb1 0ebb 3baa 74ba 4896 94ba cccf 1539
000000c0: b814 ef38 f4b9 0bb9 a87e 0938 de3f a7b9
000000d0: e204 f838 61ca b33a 5007 2fbb 0dab 85b9
000000e0: b57c 3dbb 009c 81ba a5f1 00bb 487b 043b
000000f0: fa59 ceba 1713 66ba c484 0cb9 171f 8339
00000100: 4e27 bcba 157d a63a d46b efb9 c879 bcba
00000110: b102 aeb8 6e76 1a3b 260f 92b8 3e08 e9ba
00000120: 9307 8aba f70b 4fb9 dac8 1fb9 da54 793a
00000130: 425a 25ba 42aa 83bb 0f8b 67bb 2d28 083a
00000140: 71dd 1bb9 6469 cdba e593 99ba 3ac1 5b3a
00000150: 5763 b63a 14e7 56b9 395a 90b9 d374 043b
00000160: 021b b33a da6e 863a cd44 bd37 60e8 a839
00000170: 2c7f 9439 51a2 38bb 86c9 5bba 1fcd 0d3b
00000180: c462 afba 7289 2839 8883 57ba 9830 1839
00000190: 8a63 f839 d206 233a f172 a239 fd50 8939
000001a0: 000f 49bb d8b8 feb9 e0c5 efba 69ea 08b9
000001b0: bcd8 6aba dc94 3fbb 117f c4bb 40e4 8537
000001c0: 20aa 08ba d6da 2fba 831a f437 707d 8eba
000001d0: 1f26 16bb ebb6 333a 8b0f ddba 9a45 08b9
000001e0: 7dea 1a3a 6602 d238 994a ab38 0f1b 313a
000001f0: 8f07 16bb 0a1c 35bb 5cbf adbb d082 a7ba
00000200: 3640 a7b9 c33f 54ba 2415 59ba 6dda 803a
00000210: 42a7 943a 5257 503a 8df9 8039 ec6b 51ba
00000220: 6a7b 04ba 7a5d af3a de30 a0ba d821 12ba
00000230: a5f4 be39 cefd 0fb9 d218 2fba 2a7f 513a
00000240: a8a4 feba 3245 eaba 95c6 883a 1059 36ba
00000250: 7aa1 daba 579f 553a bacd cf39 48bc b4ba
00000260: 1c70 8f39 a1d6 2ab8 420d 2fbb f6b4 04bb
00000270: 7462 95ba 2112 dfb8 1063 11bb d84d 5fb8
00000280: 8677 caba ee4f 7eba cffc fbb9 16a7 60ba
00000290: 2d44 ba3a 3a40 98ba f84b 21ba 1865 98ba
000002a0: b000 66bb d553 123a 8369 97ba aeff 02b9
000002b0: f2d4 d83a ec01 ac3a f98c 8c3a 809b 43ba
000002c0: 38b2 143a 73ea aeb8 aab0 a439 fa93 36bb
000002d0: 5ef1 d83a 6ace 87b8 0df5 053a 677b aaba
000002e0: a9fd 0dbb 5cb7 24bb b294 a6b9 b3f5 b1ba
000002f0: 3590 3c39 642b ddb8 0e81 87ba 382d 54ba
00000300: 7ed7 89ba 0878 90ba 07df ce38 4d67 293a
00000310: bd2b 2fba 27c1 88ba d7b0 2a3a 0cce 843a
00000320: 2015 80b8 e2de 2f3b ece0 89b9 060b 6bb9
00000330: aef5 84ba 6c02 173b e2a3 02bb f83d 1ebb
00000340: d04f 2bbb d20f 9eb8 d7e6 833a 636e 213a
00000350: fdcc 97b9 243b 5eba b4e6 26b9 86a3 92b9
00000360: 7cb0 a7ba 4550 24ba e4e6 073b d2d1 b239
00000370: 5e4a 0db8 4c13 793a 1720 39ba 0646 763a
00000380: acf7 46ba 0c33 1cba 454d 11bb fba1 b3b8
00000390: d7f1 28bb 28bc 8fba f0fc 3d3a d6c5 2b39
000003a0: e8c4 03b9 709e 21b9 1c47 c739 4bd0 95ba
000003b0: 4080 163b 7b79 6eb9 6ca7 2a3a 4518 283a
000003c0: bb14 5cba af82 69ba b398 553a c6fa 5ab9
000003d0: e2fd 68bb 8628 3bbb 4fe4 e2b9 9f1f 15bb
000003e0: 5ad9 483a 7401 40b8 acaa 48b9 1ad5 9d3a
000003f0: 5631 88ba 452b b3ba b481 bcba dbae 7b37
0.00058199523 -0.00046921003 -0.0027842626 -0.0018818935 0.00069033704 0.000103303406 0.000348136 0.00019255205
0.0005698392 0.001766377 -0.00034483883 -0.0018303605 -0.00096037646 -0.0026384462 0.0027763145 0.002301679
0.00014922794 0.00021080133 -0.00031094562 0.00054343184 0.0015832655 -0.00069080765 -0.0004128496 0.00017045235
-0.00027270915 -0.0030823706 6.301976e-05 -0.0006007319 0.00072707207 -0.0040868716 -0.00066135643 -0.002864967
-6.201066e-06 -0.0034697917 -0.00015839923 -0.0006181932 -0.00040530076 -0.0011410349 -0.0005549116 -0.0036129756
0.00090811873 0.0009935738 0.0010543666 0.00065988663 -0.0021773344 -0.00093332276 -0.0011336291 0.00014287158
0.00011400267 -0.00013325346 3.2781303e-05 -0.00031900307 0.00011826471 0.001371693 -0.002670724 -0.0002549518
-0.0028913443 -0.000988841 -0.0019675281 0.0020215083 -0.0015743368 -0.00087766483 -0.000134009 0.0002500943
-0.0014354975 0.0012702072 -0.0004566597 -0.0014379555 -8.297468e-05 0.0023569125 -6.964644e-05 -0.0017778946
-0.0010530822 -0.00019745516 -0.00015238245 0.000951124 -0.00063077 -0.004018099 -0.0035330688 0.0005193975
-0.00014864445 -0.0015671668 -0.001171705 0.000838298 0.0013915104 -0.00020494714 -0.0002753304 0.0020211234
0.0013664665 0.0010256425 2.2562594e-05 0.0003221659 0.0002832351 -0.002817292 -0.00083842163 0.0021637154
-0.0013380875 0.00016072931 -0.0008221199 0.00014513952 0.00047376408 0.0006218973 0.00030984686 0.00026191017
-0.0030679107 -0.00048584375 -0.0018293224 -0.00013057295 -0.00089586875 -0.0029233014 -0.005996593 1.5961123e-05
-0.0005213339 -0.00067083293 2.9099412e-05 -0.0010871124 -0.0022910906 0.0006855565 -0.0016865594 -0.000129959
0.0005909575 0.00010014027 8.16781e-05 0.0006756046 -0.002289269 -0.002763512 -0.005302353 -0.0012780074
-0.00031900563 -0.00080966594 -0.0008281043 0.0009830721 0.0011341351 0.0007947582 0.00024599992 -0.0007988799
-0.00050537905 0.0013379299 -0.0012221595 -0.0005574501 0.00036421898 -0.00013732092 -0.0006679419 0.0007991666
-0.0019427733 -0.0017873405 0.0010435159 -0.00069560204 -0.0016680204 0.00081490487 0.00039635395 -0.0013789022
0.00027358613 -4.0731047e-05 -0.0026710783 -0.0020249463 -0.0011397139 -0.000106368454 -0.002218429 -5.323984e-05
-0.0015446998 -0.00097012415 -0.00048062808 -0.00085698196 0.0014210992 -0.0011615821 -0.0006152983 -0.0011626808
-0.0035095625 0.000558195 -0.0011551831 -0.00012493014 0.0016542955 0.0013123131 0.0010723165 -0.0007461831
0.00056723086 -8.340636e-05 0.00031412143 -0.0027859197 0.0016551425 -6.475749e-05 0.0005110063 -0.0013006747
-0.0021666086 -0.0025133705 -0.00031772774 -0.0013577252 0.00017982798 -0.00010546183 -0.0010338144 -0.00080938963
-0.0010516492 -0.00110221 9.8643875e-05 0.00064622314 -0.0006682238 -0.001043354 0.00065113365 0.0010132208
-6.1074505e-05 0.002683573 -0.00026298256 -0.00022415453 -0.0010144019 0.0023042215 -0.0019934108 -0.0024145823
-0.0026140101 -7.536974e-05 0.0010063302 0.00061581115 -0.00028953693 -0.00084774406 -0.00015916937 -0.00027969124
-0.0012793685 -0.00062680646 0.0020736987 0.00034107134 -3.368628e-05 0.00095014716 -0.00070619717 0.00093945896
-0.00075900066 -0.00059585343 -0.00221713 -8.565556e-05 -0.0025778913 -0.0010966109 0.00072474685 0.0001638153
-0.00012566487 -0.00015413179 0.00038009218 -0.0011429874 0.0022964627 -0.00022742704 0.0006509933 0.0006412308
-0.0008395423 -0.0008907718 0.0008148059 -0.0002088352 -0.0035551717 -0.002855809 -0.00043276182 -0.0022754443
0.00076617824 -4.577772e-05 -0.00019137067 0.0012041659 -0.001039068 -0.0013669512 -0.0014381916 1.5001478e-05
