p1_navigation/DQN20190129_v3.pth (torch_old, 88753 bytes, 18 tensors)

hidden_layers.0.weight f4 [64, 37]
0	0x3e1e2bf4	0.15446454
1	0x3e25435f	0.16138981
2	0x3cb0ea01	0.021595957
3	0x3cfc5cfd	0.030806059
4	0xbde56a99	-0.112019725
5	0x3e498db1	0.19682957
6	0x3e00f759	0.12594356
7	0x3e5dd16a	0.21661916
8	0x3e0e89e1	0.13919784
9	0xbd67cb83	-0.05659057
10	0x3df78a5e	0.12086938
11	0x3d7f81d9	0.06237969
12	0xbd58c98a	-0.052926578
13	0x3d1c2541	0.038121466
14	0xbda68883	-0.08131506
15	0x3e5d2985	0.2159787
16	0x3e103ec6	0.14086446
17	0x3e20026d	0.15625925
18	0x3d7b8f90	0.06141621
19	0xbdc94b25	-0.09828786
20	0x3e82aa96	0.25520772
21	0x3e864c0a	0.26229888
22	0x3db0be72	0.086300746
23	0x3e400f89	0.18755926
24	0xbd80e905	-0.06294445
25	0x3e537a3e	0.206521
26	0x3e7a07d1	0.24417044
27	0xbd6f928a	-0.05848936
28	0x3d2595fa	0.040426232
29	0xbdde68b8	-0.10859817
30	0x3da4a925	0.08040074
31	0x3e8263a2	0.2546664
32	0x3c8075cd	0.015681172
33	0x3d027b8c	0.031856105
34	0xbe1e440d	-0.15455647
35	0xbe095a30	-0.1341331
36	0xbd3a1cc7	-0.0454376
37	0x3e8664b7	0.26248714
38	0x3e5d63ea	0.21620145
39	0x3e39836c	0.1811654
40	0x3ddc9445	0.10770468
41	0xbe18424a	-0.14869037
42	0x3dff28d9	0.12458963
43	0xbc4b27f2	-0.01239966
44	0x3b6ae86f	0.0035844108
45	0x3d7450a7	0.05964723
46	0x3d012659	0.03153071
47	0x3e511755	0.20419057
48	0x3d80886a	0.06276019
49	0x3de5bedb	0.112180434
50	0x3e6a27b2	0.22866705
51	0x3e152689	0.14565481
52	0x3e56db2a	0.20982042
53	0x3e078af0	0.13236594
54	0x3e31c279	0.17359342
55	0x3d93e188	0.07220751
56	0xbd09cf3f	-0.03364491
57	0xbafec855	-0.0019438366
58	0x3d2ae584	0.04172279
59	0x3d8946ab	0.06702932
60	0x3e0a9a74	0.13535482
61	0x3d24a063	0.04019202
62	0x3daa1284	0.08304313
63	0x3e08d21d	0.13361402
64	0x3e38d5aa	0.18050256
65	0x3dc9321d	0.098240115
66	0xbddcee81	-0.107876785
67	0x3e026425	0.12733515
68	0x3e8087a6	0.25103492
69	0x3e742b74	0.23844701
70	0x3d3b105d	0.045669902
71	0xbddf5838	-0.10905498
72	0x3d208ef6	0.03919884
73	0x3d5dbe50	0.054136574
74	0x3e3b4c7a	0.18290892
75	0x3e4f5616	0.20247683
76	0x3e529765	0.20565565
77	0x3d08e0df	0.03341758
78	0xbdc07f51	-0.09399284
79	0xbcc8288a	-0.024433393
80	0xbcd25324	-0.02567441
81	0x3e80409d	0.25049296
82	0x3e81e05a	0.2536648
83	0xbe6d8e6d	-0.23198862
84	0x3dee9ff6	0.11651604
85	0x3d87beda	0.06628199
86	0x3dcfbe77	0.1014375
87	0x3d1866d7	0.03720745
88	0xbd28910f	-0.041153964
89	0x3d0ed485	0.034870643
90	0x3e170334	0.14747316
91	0x3e37d58e	0.17952558
92	0x3e6b5a92	0.22983769
93	0x3cd2b3fe	0.025720593
94	0xbd02566b	-0.031820696
95	0x3cc5f85d	0.02416628
96	0x3e321492	0.1739066
97	0x3dc57a2e	0.096424446
98	0xbe264380	-0.16236687
99	0x3c8e32be	0.01735818
100	0x3e7e2161	0.2481742
101	0x3e5d798b	0.21628396
102	0x3d7333a5	0.059375424
103	0xbdacf0e7	-0.08444386
104	0xbdcc83eb	-0.09986099
105	0x3dedefdc	0.11618015
106	0xbc841a93	-0.016125953
107	0x3b97febc	0.004638521
108	0xbdd30db8	-0.10305351
109	0xbc32ba56	-0.010908684
110	0xbd3d6396	-0.04623755
111	0x3e3f8d97	0.18706356
112	0x3d653696	0.05596026
113	0x3e817051	0.25281003
114	0x3e69ce04	0.22832495
115	0xbe572323	-0.21009497
116	0x3cfb9cb5	0.030714372
117	0x3de952a5	0.11392716
118	0x3e48e2c4	0.19617754
119	0x3e390229	0.1806723
120	0xbb5d61b0	-0.003378015
121	0x3d8c5c50	0.06853545
122	0x3d262639	0.040563796
123	0x3e54eb27	0.20792829
124	0xbb7fc23f	-0.0039025692
125	0xbde8af58	-0.11361569
126	0x3d9d047e	0.076668724
127	0x3cc4724d	0.023980284
128	0x3cd31a4a	0.025769372
129	0x3ce1e59a	0.027575303
130	0xbde97993	-0.114001416
131	0x3e153753	0.14571886
132	0x3d0021d7	0.031282272
133	0x3e091788	0.13387883
134	0x3e45b816	0.19308504
135	0xbbccbd58	-0.0062481575
136	0x3e3c5638	0.18392265
137	0x3db4f7e4	0.08836344
138	0x3dd4bd3a	0.103876546
139	0x3e5c5ed6	0.21520552
140	0x3d91b877	0.07115262
141	0x3e111ee8	0.14171946
142	0x3e89d634	0.26921237
143	0x3df4b0ce	0.11947785
144	0x3d048570	0.03235382
145	0xbdf8ff85	-0.121581115
146	0x3da28dbd	0.07937191
147	0x3b00881e	0.0019612382
148	0x3d1f76c2	0.038931616
149	0xba5e7859	-0.0008486561
150	0xbd90b183	-0.07065108
151	0xbd2bb7f4	-0.04192348
152	0xbdff6e33	-0.12472191
153	0x3e4dcdba	0.2009801
154	0x3e596c37	0.21232687
155	0xbd15ceac	-0.03657405
156	0x3e3888e4	0.1802097
157	0xbe55a206	-0.20862588
158	0x3dabc7b9	0.083877034
159	0x3d52e95d	0.051492084
160	0x3d8f98d9	0.07011575
161	0x3d624cca	0.055249013
162	0xbe193c66	-0.14964446
163	0x3d50c9da	0.05097375
164	0x3d35e020	0.044403195
165	0x3d78801e	0.060669057
166	0x3cb79d17	0.022413773
167	0xbc2f05b4	-0.010682512
168	0x3d139881	0.03603411
169	0x3deca2c1	0.1155448
170	0x3e45f742	0.19332603
171	0x3c85e84e	0.016346123
172	0x3d9d9cf4	0.07695952
173	0x3e69972e	0.22811577
174	0xbc90c9a6	-0.017674278
175	0x3de5db85	0.11223511
176	0x3dce2166	0.10064964
177	0xbe2c750e	-0.16841528
178	0x3e59eec4	0.21282488
179	0xb9dda8cd	-0.0004227817
180	0x3dc74b4e	0.0973116
181	0x3da777e7	0.081771664
182	0x3c86c6dd	0.016452247
183	0x3d3c20b3	0.045929622
184	0x3d1dbf76	0.03851267
185	0xbd746ac6	-0.05967214
186	0xbe5a1c5d	-0.21299882
187	0xbc2f912f	-0.010715767
188	0xbde8e952	-0.11372627
189	0x3d04b6d3	0.032400917
190	0xbdc0111e	-0.09378265
191	0xbb31cb9d	-0.002712942
192	0xbbec0a24	-0.0072033573
193	0xbdf6f0a9	-0.12057621
194	0xbe874b25	-0.26424518
195	0xbe38efa6	-0.18060169
196	0xbe01d7d8	-0.12679994
197	0xbd2c2f39	-0.042037223
198	0xbe37c9b3	-0.17948036
199	0xbdc3efb8	-0.09567207
200	0xbe03e1d2	-0.12879112
201	0xbd8acbb3	-0.06777134
202	0xbdbc21b5	-0.091861166
203	0xbe11170b	-0.14168946
204	0xbe5bfdd8	-0.21483552
205	0xbd8e77d0	-0.06956446
206	0xbdd4b2d1	-0.10385669
207	0x3dafba7a	0.085804895
208	0xbb9f10f2	-0.004854315
209	0xbe3289f4	-0.17435437
210	0xbe6ab9c5	-0.22922428
211	0xbe0c9fd0	-0.13732839
212	0x3d50dbc7	0.050990846
213	0xbd84ff10	-0.06493962
214	0xbe312916	-0.1730083
215	0xbe0eeb3a	-0.1395692
216	0xbe6981d5	-0.22803433
217	0x3c7050a6	0.014667666
218	0xbe08b171	-0.13348939
219	0xbe82573c	-0.2545718
220	0x3b038c3d	0.0020072602
221	0x3dc8ac9a	0.09798546
222	0x3e4f5788	0.20248234
223	0x3e34fce3	0.17674594
224	0x3c5dc8b0	0.013536617
225	0x3e06ba74	0.13157064
226	0xbe081f74	-0.13293248
227	0x3dcf93fc	0.10135648
228	0x3d975a13	0.07390227
229	0x3df52b4d	0.119711496
230	0x3ded48e8	0.115861714
231	0x3d941bb1	0.07231844
232	0x3e26753a	0.16255656
233	0x3e7cddd5	0.24693997
234	0x3e765fba	0.24059954
235	0x3d658765	0.056037325
236	0x3db7a693	0.089673184
237	0x3d35c012	0.044372626
238	0x3d9ec44d	0.07752285
239	0x3e18139c	0.1485123
240	0x3e213edf	0.1574664
241	0x3dcbf757	0.09959286
242	0x3d92d347	0.07169204
243	0x3e08b4ba	0.13350192
244	0x3e6e7a80	0.23288918
245	0xbc9e51d4	-0.019326128
246	0x3da7e79e	0.08198474
247	0x3d0892ac	0.033343002
248	0x3e064db2	0.13115576
249	0x3db5b8b0	0.08873117
250	0x3ce20e29	0.027594643
251	0xbd7c6331	-0.061618034
252	0x3e7117bc	0.2354421
253	0x3dec3bc8	0.1153484
254	0x3d65cce2	0.056103595
255	0x3d1ad143	0.037797224

hidden_layers.0.bias f4 [64]
0	0x3e695c8c	0.2278921
1	0x3d81510f	0.06314289
2	0xbda8ee5f	-0.08248591
3	0xbbe666bc	-0.00703129
4	0x3e5c98d0	0.21542668
5	0xbe31539e	-0.17317054
6	0x3cc74ff8	0.024330124
7	0x3e12a4e9	0.1432072
8	0x3dfe8913	0.124284886
9	0xbdad3614	-0.0845758
10	0x3e493416	0.19648775
11	0x3e362bdd	0.1779017
12	0x3e699e64	0.22814327
13	0x3e0c9da5	0.13732012
14	0x3cbb3486	0.022852194
15	0x3d04383e	0.0322802
16	0x3e0d03f0	0.13771033
17	0x3daf4847	0.08558708
18	0x3de86d14	0.1134893
19	0xbd489e6a	-0.0489792
20	0x3cd752b9	0.026284562
21	0x3df471e7	0.11935788
22	0x3d5c346b	0.053760927
23	0x3cf7bcfa	0.030241478
24	0xbd973815	-0.07383744
25	0x3e360ffd	0.17779537
26	0x3d0eed01	0.034893993
27	0xbe2aa064	-0.16662747
28	0x3e636953	0.22208147
29	0x3e144b78	0.14481914
30	0x3cc10f5b	0.023566892
31	0xbc677dc4	-0.014129106
32	0x3e7e6d00	0.24846268
33	0x3dd1a6c3	0.102368854
34	0xbced1eb5	-0.028945306
35	0x3e464923	0.19363837
36	0x3cc286c3	0.0237459
37	0x3d82d618	0.063884914
38	0xbac7634b	-0.0015212087
39	0xbd3d6e51	-0.046247784
40	0xbd032835	-0.032020766
41	0x3d374f6b	0.044753473
42	0x3b58c17e	0.0033074315
43	0x3e677009	0.22601332
44	0x3d8d281e	0.06892417
45	0x3b4aaa43	0.0030924238
46	0x3e1b3ce7	0.15159951
47	0xbd8e5fdc	-0.069518775
48	0x3bee250e	0.007267601
49	0x3e054059	0.13012828
50	0xbd9b7d4c	-0.07592258
51	0x3d9d3da2	0.07677771
52	0x3def0d68	0.11672479
53	0xbd8b081c	-0.06788656
54	0xbdd79c24	-0.10527828
55	0x3de8385a	0.11338873
56	0x3e349f3a	0.17638865
57	0x3cf99643	0.030467158
58	0xbd4ac2ba	-0.049502112
59	0xbb7dc939	-0.0038724674
60	0x3db33c40	0.08751726
61	0x3d21daec	0.03951542
62	0x3dfaf8ea	0.12254508
63	0x3ddf1d1e	0.108942255

hidden_layers.1.weight f4 [64, 64]
0	0xbca78bf2	-0.020452473
1	0x3d0654a2	0.032795556
2	0x3da1570b	0.0787793
3	0x3c5b4625	0.013383423
4	0x3db5e7ab	0.08882078
5	0xbe009dd8	-0.12560213
6	0x3d7cf191	0.061753813
7	0x3db9feaf	0.0908178
8	0x3d7f3a12	0.06231124
9	0x3ce2ea39	0.027699577
10	0x3d63f9a2	0.05565799
11	0xbdbd7ee4	-0.09252718
12	0xbd50adf9	-0.050947163
13	0x3bcc0b67	0.006226945
14	0xbac055f4	-0.0014674054
15	0x3dd9239b	0.10602494
16	0x3dcd6948	0.100298464
17	0x3d7cfaa0	0.061762452
18	0xbd3b8e93	-0.045790266
19	0xbd982059	-0.07428045
20	0xbdde5459	-0.10855932
21	0x3d5655c4	0.052327886
22	0xbdb1342f	-0.08652531
23	0xbdbcd8c2	-0.09221031
24	0xbcfe1aa5	-0.031018564
25	0xbdcd4b95	-0.10024182
26	0xbd0e6e00	-0.034772873
27	0xbde396b8	-0.11112732
28	0xbd5b607d	-0.053558815
29	0x3e071245	0.13190563
30	0xbd1b0a07	-0.03785136
31	0x3dcc7b04	0.09984401
32	0x3c658403	0.014008525
33	0x3c72eedd	0.014827457
34	0xbcba23ea	-0.022722203
35	0xbd969f4e	-0.07354604
36	0xbd50fad0	-0.051020443
37	0x3dc020dd	0.09381268
38	0xbce6f31e	-0.0281921
39	0xbde5603e	-0.11199997
40	0x3de6d146	0.112703845
41	0x3cbb6faa	0.022880394
42	0xbdbb814e	-0.09155522
43	0xbd847a42	-0.06468631
44	0xbd78b8ac	-0.06072299
45	0xbdc4fdc1	-0.09618712
46	0x3dea5984	0.11442855
47	0x3df2db64	0.11858252
48	0x3c92a2dc	0.017899923
49	0xbd9eb5c9	-0.077495165
50	0xbcf5ce55	-0.030005613
51	0x3c701ff3	0.014656055
52	0x3d32d2bc	0.043658003
53	0x3b9ddde7	0.0048177126
54	0xbc7bf293	-0.015377658
55	0xbd25a4fd	-0.04044055
56	0x3d90abbc	0.07064006
57	0x3d8a7124	0.06759861
58	0x3c372537	0.011178306
59	0x3c96b77c	0.018398039
60	0x3ca43dab	0.020048937
61	0x3ceeb9d7	0.02914135
62	0xbd97cb5b	-0.07411834
63	0x3e09f2e0	0.13471556
64	0xbce1f1bb	-0.027581086
65	0x3d8040b5	0.06262342
66	0xbd6635dc	-0.056203708
67	0xbc2e8523	-0.010651859
68	0x3c211029	0.009830513
69	0xbdd39145	-0.10330442
70	0x3d1072d7	0.03526577
71	0xbda6e87b	-0.08149811
72	0x3c3fb220	0.011700183
73	0x3c12f46d	0.008969408
74	0x3da8afaf	0.08236634
75	0x3dd00157	0.101565056
76	0x3d192cbd	0.03739618
77	0xbab4a243	-0.0013781268
78	0xbd6705b6	-0.05640193
79	0x3d54b98c	0.051934764
80	0xbd23fa99	-0.04003391
81	0x3bf1c84c	0.0073786136
82	0xbd560b28	-0.052256733
83	0x3db84183	0.0899687
84	0x3d96d779	0.07365317
85	0x3d957f2a	0.07299645
86	0x3a0ac00d	0.00052929
87	0x3d83ee0d	0.06441889
88	0xbda7f47c	-0.082009286
89	0x3dbf3b12	0.09337439
90	0xbcabc1a0	-0.020966351
91	0x3d9559c3	0.07292511
92	0xbc96f6b6	-0.018428188
93	0xbc7d2bad	-0.015452308
94	0xbd9319be	-0.07182644
95	0x3d835d9a	0.064143375
96	0xbd970ecd	-0.0737587
97	0xbc26bfe0	-0.0101775825
98	0x3d38f825	0.045158524
99	0x3cd063ac	0.025438152
100	0xbd8d3965	-0.06895713
101	0xbde1b58e	-0.11020957
102	0xbd56b355	-0.052417118
103	0x3dc09e2c	0.09405169
104	0xbd92bbd3	-0.07164731
105	0x3d91ed38	0.07125324
106	0x3d9237c6	0.07139544
107	0xbd2ac50c	-0.041691825
108	0xbcd731e9	-0.026268916
109	0xbda4940b	-0.080360495
110	0x3b39586e	0.0028281468
111	0x3cf116ba	0.029429782
112	0xbba50272	-0.005035692
113	0x3d66a231	0.05630702
114	0x3d2f174e	0.042746834
115	0x3e2676a2	0.16256192
116	0xbbd0dada	-0.0063737454
117	0x3d050cbe	0.032482855
118	0xbb90be1b	-0.0044171936
119	0x3c04b28f	0.008099212
120	0xbcc0cbcb	-0.023534676
121	0x3d96cf41	0.07363749
122	0xbcf1c7a2	-0.029514138
123	0x3ba38469	0.0049901498
124	0xbdb67350	-0.08908713
125	0xbd41e044	-0.047333017
126	0xbc1e955d	-0.009679166
127	0xbc94e844	-0.01817716
128	0xbcae5bb6	-0.021283966
129	0x3d6d49d9	0.057931755
130	0xbbeaadb5	-0.007161821
131	0x3d39d99a	0.045373537
132	0x3dc69b4f	0.096975915
133	0xbd8fd703	-0.07023432
134	0xbd45a09d	-0.048248876
135	0xbc9be412	-0.01902965
136	0xbb812ddf	-0.003942236
137	0xbcc384c2	-0.023867015
138	0xbc348fe9	-0.011020639
139	0xbb8c7a3d	-0.004287033
140	0x3d6932f6	0.056933366
141	0x3dc094e8	0.094034016
142	0x3da30824	0.07960537
143	0x3cc4d519	0.024027394
144	0x3c69d376	0.014271608
145	0x3cbd5b52	0.023114834
146	0xbc2a2a99	-0.010386133
147	0x3b0a267a	0.0021080063
148	0x3d2087e0	0.03919208
149	0xbdcb1e2c	-0.09917864
150	0xbda780a7	-0.08178835
151	0x3c4c3126	0.01246289
152	0xbc85dd81	-0.016340973
153	0xbd3e3758	-0.0464395
154	0xbddeb6bd	-0.10874698
155	0x3d1b4c80	0.037914753
156	0xbb83e7c5	-0.004025432
157	0xbd2f7d9a	-0.042844392
158	0xbccd9b07	-0.025098337
159	0x3ceaa575	0.02864335
160	0xbdc3d9ac	-0.09563002
161	0x3d118681	0.035528664
162	0x3c749301	0.014927627
163	0x3d7579f2	0.05993075
164	0x3d495db9	0.049161647
165	0xbd8ba6c5	-0.06818918
166	0x3d092ca2	0.03348983
167	0x3db1194d	0.08647404
168	0x3d339825	0.04384627
169	0x3d8ef921	0.06981111
170	0xbd0a0309	-0.0336943
171	0x3cc5ace2	0.024130289
172	0x3d8536f1	0.0650462
173	0xbd7bc0ba	-0.061463095
174	0x3da9038d	0.082526304
175	0xbcf66930	-0.030079454
176	0xbd8198ac	-0.06327948
177	0xbdb75207	-0.08951192
178	0xbd713a65	-0.05889358
179	0x3e654d3e	0.22392747
180	0xbdb04dbf	-0.08608579
181	0x3d369dd4	0.04458411
182	0xbd127498	-0.035755724
183	0xbd9664f9	-0.07343478
184	0x3cb5e13b	0.022202125
185	0xba8434f2	-0.001008658
186	0x3d3e635d	0.04648148
187	0xbd91952a	-0.07108529
188	0xbd07e763	-0.033179652
189	0x3d0c2678	0.034216374
190	0x3d3d9627	0.046285775
191	0x3cc3beef	0.023894755
192	0x3cfee219	0.031113671
193	0x3dbad437	0.09122508
194	0xbd87144b	-0.065956675
195	0x3d32c709	0.043646846
196	0x3d83543f	0.06412553
197	0xbdcf9e32	-0.10137595
198	0xbcc81437	-0.024423702
199	0x3d346620	0.044042706
200	0xbcb31ccc	-0.021864317
201	0x3d89146a	0.06693347
202	0x3c86b22f	0.016442386
203	0x3d830b32	0.0639862
204	0xbc5fbbd8	-0.013655625
205	0xbdaee1e8	-0.08539182
206	0x3d88c62d	0.06678424
207	0x3c15992a	0.009130755
208	0x3db08116	0.08618371
209	0x3b0acc58	0.0021178927
210	0x3cda9c5b	0.026685884
211	0x3d5589b8	0.052133292
212	0x3c059304	0.008152727
213	0xbd50b55e	-0.050954215
214	0x3bec8961	0.0072185253
215	0xbdb9e66f	-0.09077155
216	0x3cbea047	0.023269786
217	0xbd0c085a	-0.034187652
218	0xbbd8f629	-0.0066211415
219	0xbd8a2ff6	-0.06747429
220	0x3d667a2d	0.05626886
221	0xbdc61769	-0.09672434
222	0x3d14c542	0.036320932
223	0x3d13529c	0.035967454
224	0xbdfc4ac6	-0.123189494
225	0x3da0d000	0.07852173
226	0xbde980dc	-0.11401531
227	0xbd14ed22	-0.03635896
228	0x3d31fd08	0.0434542
229	0xbd5e4f6f	-0.054274973
230	0x3db51b82	0.08843137
231	0xbd81e1ef	-0.063419215
232	0xbce3920e	-0.027779605
233	0xbd962103	-0.07330515
234	0xbd8b521e	-0.06802772
235	0x3dc495e9	0.095989056
236	0x3da5e8c5	0.08101038
237	0xbcd0abd0	-0.025472552
238	0xbc170dd2	-0.009219604
239	0xbd02a64c	-0.031896874
240	0x3d8a7992	0.06761469
241	0xbcfbee7a	-0.030753363
242	0xbd7af2e3	-0.06126679
243	0x3e29219f	0.16516732
244	0x3da2bfd2	0.07946743
245	0x3cea7db8	0.0286244
246	0x3d121406	0.035663627
247	0xbc776ae0	-0.015101165
248	0xbd6d0e1f	-0.057874795
249	0x3c083498	0.008313321
250	0xbbdf08b9	-0.0068064597
251	0x3c7f8574	0.015595783
252	0xbcfc6c2f	-0.030813305
253	0xbd1bfe4d	-0.038084317
254	0x3d801c57	0.062554054
255	0x3c4c5c00	0.012473106

hidden_layers.1.bias f4 [64]
0	0x3e4a6f9c	0.19769138
1	0x3e6298f2	0.22128657
2	0x3e2e0592	0.16994312
3	0x3e65e887	0.22451983
4	0x3e85515a	0.2603863
5	0x3eaa7418	0.33291698
6	0x3dc88323	0.09790637
7	0x3e5f4f80	0.2180767
8	0x3e8b89a0	0.27253437
9	0x3e7b0cf7	0.24516664
10	0x3e984c89	0.29745892
11	0x3e374aa8	0.17899573
12	0x3dd7e6cf	0.1054207
13	0x3e8261e9	0.25465325
14	0x3ea8063e	0.32817262
15	0x3e9b1724	0.30291092
16	0x3e5f7f99	0.21826018
17	0x3eadd103	0.33948526
18	0x3e2dafa3	0.16961531
19	0x3e97658d	0.29569665
20	0x3e690e73	0.22759418
21	0x3e0d08ec	0.13772935
22	0x3e601ff8	0.21887195
23	0x3c8b5a69	0.017010884
24	0x3eb9ff80	0.36327744
25	0x3df239ed	0.11827455
26	0x3e27c4ea	0.1638371
27	0x3e8f14b7	0.27945492
28	0x3e1af2d1	0.1513169
29	0x3e483b80	0.19553947
30	0x3e0f697a	0.1400508
31	0xbaa8d897	-0.0012881932
32	0x3e3710a9	0.17877449
33	0x3e8a529f	0.2701616
34	0x3e9fb730	0.31194448
35	0x3e85a8b9	0.26105288
36	0x3e1b0057	0.15136848
37	0x3e9a6260	0.3015318
38	0x3e9f994c	0.31171644
39	0xbe0c98b8	-0.13730133
40	0x3eaa587d	0.33270636
41	0x3e005e99	0.12536086
42	0x3e910fbe	0.28332323
43	0xbd11fb58	-0.03564009
44	0x3e57d448	0.21077073
45	0x3b7d0195	0.003860568
46	0x3d85f039	0.065399595
47	0x3e887411	0.26651052
48	0xbd2acba4	-0.041698113
49	0xbd280a73	-0.04102559
50	0x3d52a725	0.051428933
51	0x3eaff9a3	0.34370145
52	0xbddc85da	-0.10767718
53	0x3ded7c00	0.11595917
54	0x3bde5649	0.0067851883
55	0x3e408ba0	0.18803263
56	0xbe12ffdc	-0.14355415
57	0xbdae0021	-0.08496118
58	0x3e31f6a5	0.17379244
59	0x3e664917	0.22488819
60	0x3cbae54a	0.022814412
61	0x3e949a00	0.29023743
62	0x3e267c18	0.16258276
63	0x3e0b71aa	0.13617578

output.weight f4 [4, 64]
0	0x3dec928e	0.115513906
1	0x3e1d9a40	0.15390873
2	0x3e31ce7e	0.17363927
3	0x3e07877f	0.13235281
4	0x3e0d9550	0.1382649
5	0x3db84504	0.08997539
6	0xbd83fb6d	-0.0644444
7	0x3dda85ea	0.10670073
8	0x3e14552e	0.14485618
9	0x3e1177cc	0.14205855
10	0x3de4e0c8	0.11175686
11	0x3ddb3f1b	0.10705396
12	0xbdb4d650	-0.08829939
13	0x3e311b43	0.17295556
14	0x3d8ae99b	0.06782838
15	0x3da5a194	0.08087459
16	0x3da93637	0.08262294
17	0x3de7108e	0.112824544
18	0x3e02f5d3	0.12789087
19	0x3e0757e9	0.13217129
20	0x3db25668	0.08707887
21	0x3e16395c	0.14670318
22	0x3e2fb9d5	0.17160733
23	0xbd203ed9	-0.039122436
24	0x3db500d5	0.08838049
25	0x3db610f4	0.08889952
26	0x3e4174a1	0.18892147
27	0x3e025c08	0.1273042
28	0x3e0683b2	0.13136175
29	0x3e26f02a	0.16302553
30	0x3e25f5bd	0.16207023
31	0xbd6521f3	-0.05594058
32	0x3e109417	0.14118992
33	0x3ded410c	0.11584672
34	0x3e029a1a	0.12754098
35	0x3e179973	0.1480463
36	0x3dc8afc4	0.0979915
37	0x3e211581	0.1573086
38	0x3e0992eb	0.13434951
39	0xbd84c649	-0.064831324
40	0x3da8f3b6	0.08249609
41	0x3db3ff70	0.08788955
42	0x3df17e63	0.117916845
43	0xbd5bd77f	-0.05367231
44	0x3dbbfa10	0.09178555
45	0x3d4b65e7	0.04965773
46	0xbdab3d2a	-0.083612755
47	0x3e19f6b3	0.15035515
48	0xbd8b0f78	-0.0679006
49	0xbcb5a6b9	-0.022174226
50	0xbc2546a3	-0.010087642
51	0x3e000dcc	0.12505263
52	0xbdace1f9	-0.08441538
53	0x3d872fc4	0.066009074
54	0x3d89e0ad	0.06732307
55	0x3dfb2981	0.122637756
56	0xbd9112ca	-0.07083662
57	0x3d0858a8	0.033287674
58	0x3db5fe64	0.08886412
59	0x3e0908ae	0.13382217
60	0x3db4aba4	0.088218
61	0x3e2b4cc8	0.16728508
62	0x3d2f014d	0.04272585
63	0x3de13400	0.10996246
64	0x3df5a8f6	0.11995117
65	0x3e0ebb0e	0.13938543
66	0x3de382b8	0.11108917
67	0x3df40789	0.119155
68	0x3df1f75c	0.11814758
69	0x3e0d8e99	0.13823928
70	0xbd92a176	-0.071597025
71	0x3e13e9ec	0.14444703
72	0x3dc5b82e	0.0965427
73	0x3dccec0a	0.100059584
74	0x3e005c78	0.12535274
75	0x3e0a9e86	0.13537034
76	0xbd9a35f3	-0.07529821
77	0x3e318c73	0.17338733
78	0x3da6f652	0.081524506
79	0x3dc5cb2a	0.09657891
80	0x3e032b68	0.12809527
81	0x3df75da1	0.12078405
82	0x3dbba4cc	0.09162292
83	0x3ddbfb88	0.10741335
84	0x3dfaeaca	0.12251814
85	0x3dd5af42	0.104338184
86	0x3deb7c86	0.1149836
87	0xbd05ea14	-0.032693937
88	0x3ddef0c5	0.10885767
89	0x3e00e45a	0.12587109
90	0x3dd39ffa	0.103332475
91	0x3deb6389	0.11493594
92	0x3e0aaad6	0.13541731
93	0x3c4d4909	0.01252962
94	0x3e1f1eb6	0.15539059
95	0xbdb84642	-0.089977756
96	0x3de6b645	0.11265234
97	0x3de82048	0.11334282
98	0x3e0491fc	0.12946314
99	0x3df17ef1	0.1179179
100	0x3de579e4	0.112048894
101	0x3e1b2c53	0.15153627
102	0x3e318e3d	0.17339416
103	0xbd874f6c	-0.066069454
104	0x3ddbc72d	0.10731349
105	0x3df55e60	0.11980891
106	0x3de93bbc	0.113883466
107	0xbd85e1d1	-0.06537212
108	0x3d83e0d1	0.06439365
109	0x3d652771	0.055945817
110	0xbd928465	-0.071541585
111	0x3dd5550a	0.104166105
112	0xbd8ee941	-0.069780834
113	0xbdbef31e	-0.09323715
114	0x3cd4f78d	0.025996948
115	0x3e0b8800	0.13626099
116	0xbd204faf	-0.039138492
117	0x3dc8c8b3	0.09803905
118	0x3d86e432	0.065864936
119	0x3e09b15e	0.13446566
120	0xbd76dc85	-0.060268898
121	0x3cfb6d08	0.030691639
122	0x3e197ad7	0.14988266
123	0x3e25ee71	0.1620424
124	0xbdd75a8f	-0.105153196
125	0x3e10a789	0.1412641
126	0x3dd15048	0.102203906
127	0x3db260a3	0.08709838
128	0x3d939c37	0.0720753
129	0x3daa4622	0.08314158
130	0x3e387fad	0.18017454
131	0x3dae2505	0.08503155
132	0x3e072f1b	0.13201563
133	0x3e030a0c	0.12796801
134	0xbd4cd27d	-0.050005425
135	0x3de58b9e	0.112082705
136	0x3e085bdf	0.13316296
137	0x3dc0bca4	0.0941098
138	0x3de3678f	0.111037366
139	0x3e01b7f7	0.12667833
140	0x3d9a30c4	0.075288326
141	0x3e3b1bfc	0.18272394
142	0x3da0660a	0.078319624
143	0x3dca31d3	0.098727845
144	0x3d8c1f22	0.068418756
145	0x3e00a853	0.1256421
146	0x3e08f8a9	0.13376106
147	0x3d88f847	0.0668798
148	0x3d8585ee	0.06519686
149	0x3e05220a	0.13001266
150	0x3dbf8069	0.09350664
151	0x3d614a3f	0.055002447
152	0x3dcc0a10	0.09962857
153	0x3e029c23	0.12754874
154	0x3e0735d0	0.13204122
155	0x3df81fac	0.12115416
156	0x3daa9f63	0.08331182
157	0x3e59d566	0.21272811
158	0x3e0397e9	0.12850918
159	0x3c38246d	0.011239153
160	0x3dae5878	0.08512968
161	0x3d9c5285	0.07632927
162	0x3dce8f30	0.100859046
163	0x3e102934	0.14078218
164	0x3df084c3	0.11744072
165	0x3e19455f	0.14967869
166	0x3e27c5db	0.1638407
167	0x3d2457d2	0.040122814
168	0x3e14839c	0.1450333
169	0x3db532ef	0.088476054
170	0x3dd8151d	0.10550902
171	0xbded039d	-0.11572955
172	0x3d694fb0	0.05696076
173	0x3daf33b2	0.08554782
174	0x3d6a60b2	0.057221122
175	0x3dce86f1	0.10084332
176	0x3bbc3762	0.005743907
177	0xbdb43802	-0.08799745
178	0xbdae047f	-0.08496951
179	0x3df4df5c	0.11956665
180	0xbddb0352	-0.10693993
181	0x3ddb816c	0.10718045
182	0x3d8a165f	0.06742548
183	0x3defd682	0.11710836
184	0xbb3e6319	-0.0029050766
185	0xbdacbac8	-0.08434063
186	0x3e1c1809	0.15243544
187	0x3e302a6a	0.1720368
188	0xbd6c5e94	-0.057707384
189	0x3e05f76e	0.13082668
190	0x3dbf8c8c	0.09352979
191	0x3dda9bc8	0.10674244
192	0x3def05a0	0.11670995
193	0x3de3879a	0.11109848
194	0x3e2895c1	0.16463377
195	0x3dafe1f0	0.08588016
196	0x3e0967f4	0.13418561
197	0x3dfba6ad	0.1228765
198	0xbd1f1250	-0.038835824
199	0x3deb065e	0.11475824
200	0x3d90f009	0.07077033
201	0x3df3f358	0.119116485
202	0x3de04372	0.10950364
203	0x3e17def4	0.14831144
204	0xbd117f2f	-0.035521682
205	0x3e2ea7ef	0.17056249
206	0x3dd981fd	0.106204964
207	0x3dc10c53	0.09426179
208	0x3e035a5c	0.12827438
209	0x3dd3f7f9	0.103500314
210	0x3ddbe761	0.107374914
211	0x3de33701	0.110944755
212	0x3e027db5	0.12743266
213	0x3e1a6806	0.15078744
214	0x3df69e4c	0.120419115
215	0x3d754c58	0.05988726
216	0x3e0e4644	0.13893992
217	0x3e0450f3	0.12921505
218	0x3e175804	0.14779669
219	0x3e1a27f7	0.15054308
220	0x3e195154	0.1497243
221	0x3d29bf9e	0.041442506
222	0x3e1185e1	0.14211227
223	0x3aa8ed20	0.0012888052
224	0x3dd1360b	0.10215386
225	0x3dc01e28	0.09380752
226	0x3e04bd23	0.12962775
227	0x3e1dffe9	0.15429653
228	0x3d998785	0.074965514
229	0x3e2fe84a	0.17178455
230	0x3e35e77b	0.17764084
231	0x3d4f0e34	0.050550655
232	0x3de2cbf6	0.11074059
233	0x3e18a8b0	0.14908099
234	0x3e099662	0.13436273
235	0xbc74f508	-0.014950998
236	0x3d90d3f1	0.070716746
237	0x3d78e238	0.060762614
238	0x3d3dd1a2	0.0463425
239	0x3de564ea	0.112008885
240	0x3d8c42a4	0.06848648
241	0x3d3672b6	0.04454299
242	0xbd97116d	-0.073763706
243	0x3ddcf600	0.10789108
244	0x3db05e9e	0.08611797
245	0x3dafcbc8	0.0858379
246	0x3d286fad	0.041122127
247	0x3e0ad9a5	0.13559587
248	0xbdcf44b0	-0.10120523
249	0xbd00e7c2	-0.03147102
250	0x3dc83153	0.09775033
251	0x3e433731	0.19064023
252	0xbdd201ad	-0.10254226
253	0x3dbb3bc7	0.09142261
254	0x3da37e45	0.079830684
255	0x3dc0a5ba	0.0940661

output.bias f4 [4]
0	0x3f017ca7	0.5058083
1	0x3ee8ef22	0.45494944
2	0x3f0fa514	0.56111264
3	0x3ef322f8	0.47487617

exp_avg f4 [64, 37]
0	0xb99362e5	-0.00028111707
1	0x37f2c7d7	2.8941706e-05
2	0x389d8514	7.511131e-05
3	0xb8aa2b19	-8.114259e-05
4	0xb8f12359	-0.000114983595
5	0xb89c54f7	-7.4544856e-05
6	0x387d8182	6.0440514e-05
7	0x380adf2b	3.3109605e-05
8	0xb99156c2	-0.00027721195
9	0x37fc1a2a	3.0052925e-05
10	0xb70a1806	-8.231034e-06
11	0xb9875b0c	-0.00025817042
12	0x389859af	7.26463e-05
13	0xb8872a25	-6.445152e-05
14	0xb8aee34b	-8.339303e-05
15	0xb8970099	-7.2003524e-05
16	0x386b39b0	5.608209e-05
17	0xb97a7389	-0.00023884898
18	0xb6669a53	-3.43625e-06
19	0xb6005d9a	-1.912797e-06
20	0xb6fed9f3	-7.5951625e-06
21	0x3790ed67	1.7276687e-05
22	0xb999b364	-0.0002931609
23	0x37d400b3	2.5272695e-05
24	0xb8b0f6a9	-8.438278e-05
25	0xb96a97fa	-0.00022372595
26	0x37a34e92	1.9467701e-05
27	0xb7c8462d	-2.3874536e-05
28	0xb7fc473b	-3.007391e-05
29	0xb8a40caa	-7.822488e-05
30	0x355f2f1b	8.314252e-07
31	0x38890b3a	6.53476e-05
32	0xb989a222	-0.00026251475
33	0xb881c0b5	-6.187094e-05
34	0xb9164039	-0.0001432904
35	0xb909db95	-0.00013147139
36	0xbad1d001	-0.0016007425
37	0x398fdeb7	0.0002744102
38	0x39438d17	0.00018649209
39	0x392d7a7d	0.00016544196
40	0x37a1e363	1.929858e-05
41	0x39413ceb	0.00018428608
42	0x38133917	3.51007e-05
43	0x39dbc8b4	0.0004192047
44	0x382317b8	3.888432e-05
45	0x391fdbd8	0.0001524532
46	0x39c0b28d	0.00036754124
47	0xb8747d51	-5.8290843e-05
48	0x3a1d6d25	0.00060053385
49	0x398f245b	0.00027302172
50	0xb931dc85	-0.00016962185
51	0x398d3c95	0.00026938753
52	0x399a9a1b	0.00029487986
53	0x3834161d	4.293594e-05
54	0x39814328	0.00024654833
55	0x388082bc	6.127867e-05
56	0x389ea8a4	7.565439e-05
57	0x386ce32b	5.647835e-05
58	0x39d5857d	0.00040725982
59	0x394147a7	0.00018432607
60	0xb6227f60	-2.4214023e-06
61	0x3938e067	0.00017631204
62	0x39c23bf9	0.00037047247
63	0x38fc9323	0.00012043703
64	0x38e82df5	0.00011071182
65	0x3838a3c9	4.4021555e-05
66	0x39424c31	0.00018529665
67	0x389c6cce	7.458926e-05
68	0x39cd3f1a	0.0003914766
69	0x3959f0d7	0.00020784452
70	0xb7ed2031	-2.8267592e-05
71	0x39864ae9	0.00025614284
72	0x36c29a68	5.799626e-06
73	0x3b851b15	0.0040620663
74	0xb928fbef	-0.00016115581
75	0xb7bce342	-2.2517172e-05
76	0xb836ee46	-4.361409e-05
77	0x377b865d	1.499205e-05
78	0xb9169bfc	-0.00014363223
79	0xb813cc31	-3.52377e-05
80	0xb6ad3601	-5.1620887e-06
81	0xb72cf227	-1.0308379e-05
82	0xb9296fa3	-0.00016158684
83	0xb5e9197b	-1.7367269e-06
84	0x37e4fa99	2.7296412e-05
85	0xb98e67f6	-0.00027161808
86	0xb91848ad	-0.00014522923
87	0x3939ddc2	0.00017725586
88	0xb87443c4	-5.8237245e-05
89	0x38b70e46	8.7287786e-05
90	0x382c65df	4.110287e-05
91	0xb99b8bda	-0.000296681
92	0xb83891a1	-4.4004646e-05
93	0x3880bfea	6.1392624e-05
94	0x38d2acc9	0.00010045764
95	0x389ec53f	7.570767e-05
96	0xb9dfc7ad	-0.00042682645
97	0x3820eb4f	3.836612e-05
98	0x37c594e8	2.355357e-05
99	0xb8f1d9f0	-0.000115323695
100	0xb6972258	-4.504149e-06
101	0xb9054981	-0.00012711251
102	0x38115026	3.4645338e-05
103	0xb8b3692e	-8.5549764e-05
104	0xb816dc25	-3.5967812e-05
105	0x38aaad0c	8.138464e-05
106	0xb99e635e	-0.00030210143
107	0x383a2ef2	4.4389577e-05
108	0xb8042309	-3.150388e-05
109	0x39e1da74	0.00043078104
110	0xbb4c7f3c	-0.0031203767
111	0x39a8a54f	0.00032166622
112	0x38851446	6.3457104e-05
113	0xb8c125f3	-9.210026e-05
114	0x37f85f83	2.960838e-05
115	0xb5f2ec8c	-1.8099249e-06
116	0xb8789fe5	-5.927672e-05
117	0x394b6eee	0.00019400913
118	0x37fa9011	2.9869409e-05
119	0x3925b4bd	0.00015802956
120	0x38b62a96	8.6863685e-05
121	0xb8222476	-3.8657767e-05
122	0x39b3243e	0.00034168543
123	0x38dc2c69	0.000104986895
124	0xb8b30fbb	-8.538315e-05
125	0x38f43d7e	0.000116462805
126	0x39189d27	0.00014554393
127	0xb85f2f2c	-5.3211275e-05
128	0x3980b529	0.00024549037
129	0xb77edfa0	-1.51916465e-05
130	0xb5ecdb55	-1.7647204e-06
131	0xb920f81f	-0.00015351221
132	0x399edb43	0.0003029947
133	0x393d75fc	0.00018068397
134	0xb6fcd67b	-7.535154e-06
135	0x38712c1f	5.749997e-05
136	0x39ac6803	0.0003288389
137	0xb820cfa1	-3.8340342e-05
138	0xb70f36fb	-8.536265e-06
139	0x382a9413	4.0669063e-05
140	0xb816d6e4	-3.596292e-05
141	0xb85912ae	-5.175423e-05
142	0x398c0173	0.0002670396
143	0x38d61e96	0.00010210012
144	0x36b0061f	5.2459213e-06
145	0x3923d6cf	0.00015624914
146	0x39935926	0.00028104446
147	0x3b8998fc	0.0041991454
148	0xb991ef5c	-0.00027834892
149	0x37ff331c	3.0422168e-05
150	0x3932e4cd	0.00017060638
151	0xb82fbe4b	-4.1900475e-05
152	0xb816548b	-3.5841524e-05
153	0xb93dd373	-0.00018103216
154	0x3924ba05	0.00015709556
155	0x38b9e8b8	8.864835e-05
156	0xb940de09	-0.00018393261
157	0x38cf5d6a	9.887929e-05
158	0xb7e21d00	-2.6954804e-05
159	0x3869002c	5.555169e-05
160	0x3925334b	0.00015754734
161	0xb9a01966	-0.000305365
162	0x385e0910	5.2937365e-05
163	0xb6f7cf84	-7.3853316e-06
164	0x38057a95	3.1823834e-05
165	0xb8ab6a26	-8.173687e-05
166	0xb881dc5d	-6.192245e-05
167	0x371ade42	9.230864e-06
168	0xb7bd4510	-2.2562715e-05
169	0x38c8121a	9.540115e-05
170	0xb938f8af	-0.0001764025
171	0xb783568c	-1.5656718e-05
172	0xb8bd65a7	-9.0311565e-05
173	0xb8e2131e	-0.000107800806
174	0x37748a1f	1.4575692e-05
175	0xb86d777f	-5.6616493e-05
176	0x38006ed0	3.062078e-05
177	0xb7fa5112	-2.9840074e-05
178	0x36b93ea2	5.520721e-06
179	0x39078216	0.00012923064
180	0xb91e29d6	-0.0001508364
181	0xb8d84a9b	-0.00010313579
182	0xb8b4cea3	-8.621558e-05
183	0xba1c6e19	-0.00059673336
184	0x3a2eaa84	0.0006662982
185	0x38e3a612	0.000108551365
186	0xba1ca062	-0.00059748266
187	0xb84a4478	-4.822432e-05
188	0xb83637ff	-4.3444332e-05
189	0xb94f30c0	-0.00019759219
190	0xb89ae826	-7.386533e-05
191	0x38130cfc	3.5059624e-05
192	0xb9f40da8	-0.0004654948
193	0xb8a002f2	-7.629943e-05
194	0x37f4a843	2.916542e-05
195	0x391a519e	0.00014716989
196	0xb7dd39cd	-2.6372169e-05
197	0xba36b2ae	-0.00069693744
198	0xb695a8c1	-4.4601916e-06
199	0x38c38dd0	9.324739e-05
200	0x389d6c84	7.506556e-05
201	0x388832e8	6.4944674e-05
202	0xba417100	-0.0007379204
203	0x37913580	1.731026e-05
204	0xb7193157	-9.1309985e-06
205	0xb79f3518	-1.8979e-05
206	0xb6d1818a	-6.2437657e-06
207	0xba2c6aba	-0.0006577183
208	0x38d69ffe	0.00010234116
209	0xb775a135	-1.4640672e-05
210	0xb8b031e2	-8.4016254e-05
211	0x38d6c3a5	0.00010240757
212	0xba2231ec	-0.00061872485
213	0x37a58990	1.973359e-05
214	0x36e02191	6.679628e-06
215	0xb7e1f1be	-2.693466e-05
216	0x3715a4dd	8.919477e-06
217	0xb9fd29c2	-0.00048287032
218	0xb8a72c57	-7.9714395e-05
219	0xb52adae2	-6.364845e-07
220	0xb8afa3f9	-8.3751926e-05
221	0xbbb52fdb	-0.0055293865
222	0xb8e98897	-0.000111357476
223	0xb872ced4	-5.788992e-05
224	0x39004248	0.00012231723
225	0xb78a8290	-1.651168e-05
226	0x3888c782	6.5221466e-05
227	0xb7ef4e26	-2.852741e-05
228	0x38780164	5.9129103e-05
229	0x37bb91b0	2.2359978e-05
230	0xb8f41da3	-0.00011640347
231	0x38ac68ce	8.2211205e-05
232	0xb92d1914	-0.00016507908
233	0x39746156	0.00023305914
234	0x38bf3208	9.116909e-05
235	0xb969674f	-0.00022259097
236	0x38987f0f	7.271591e-05
237	0xb8692962	-5.559007e-05
238	0xb88896ef	-6.513099e-05
239	0xb66bc2ee	-3.5131193e-06
240	0x387efb52	6.079238e-05
241	0xb8a1488d	-7.690592e-05
242	0xb87a94e9	-5.9743328e-05
243	0xb6579213	-3.2122523e-06
244	0x389985c0	7.3205214e-05
245	0xb89a8acf	-7.369147e-05
246	0xb887179a	-6.441698e-05
247	0xb924b8e3	-0.00015709134
248	0x387a538d	5.9682458e-05
249	0x3883c485	6.2831714e-05
250	0xb7f2226d	-2.8864679e-05
251	0x385166cf	4.992523e-05
252	0xb8a278a5	-7.747234e-05
253	0xb787329e	-1.6116825e-05
254	0x38d4d6cb	0.00010148956
255	0xb8959d95	-7.1342256e-05

exp_avg_sq f4 [64, 37]
0	0x34768766	2.2959793e-07
1	0x34959686	2.7862933e-07
2	0x34530ea1	1.9656228e-07
3	0x3400a16b	1.1979652e-07
4	0x34250d84	1.537174e-07
5	0x34cab262	3.7755223e-07
6	0x3451118b	1.9471024e-07
7	0x34558601	1.9885921e-07
8	0x33ac34e4	8.018995e-08
9	0x3409c156	1.2829454e-07
10	0x34840bb6	2.4595437e-07
11	0x3485b87b	2.4907408e-07
12	0x347f0963	2.375214e-07
13	0x33cc7b33	9.5219e-08
14	0x3414ff66	1.3876488e-07
15	0x347fa0c2	2.3807209e-07
16	0x348e0098	2.6449993e-07
17	0x346bc876	2.1959008e-07
18	0x33dc8fb8	1.02706906e-07
19	0x341c93fd	1.458247e-07
20	0x34b8c202	3.441383e-07
21	0x345eb924	2.0742715e-07
22	0x34506574	1.9408418e-07
23	0x33eb35fe	1.09528614e-07
24	0x3411f721	1.3594082e-07
25	0x34b7ac92	3.4211968e-07
26	0x346f172b	2.2267038e-07
27	0x3436ebca	1.703585e-07
28	0x33b1fdb4	8.288353e-08
29	0x34173b84	1.4084623e-07
30	0x34c95a60	3.7504924e-07
31	0x3466fc1b	2.1512135e-07
32	0x34381b13	1.7146185e-07
33	0x33c3339c	9.089783e-08
34	0x3406c01d	1.2549613e-07
35	0x35840b76	9.838102e-07
36	0x380db721	3.378757e-05
37	0x3519a72d	5.7240214e-07
38	0x34bedcc9	3.55509e-07
39	0x34b4a426	3.3647046e-07
40	0x34480c58	1.8630942e-07
41	0x348c733e	2.6160882e-07
42	0x350db2b7	5.278666e-07
43	0x34b2be99	3.3293762e-07
44	0x34ced7f7	3.8527625e-07
45	0x34322f17	1.6594673e-07
46	0x34a09267	2.9908844e-07
47	0x34abcc4f	3.1999886e-07
48	0x35046616	4.9322387e-07
49	0x34c906c0	3.744408e-07
50	0x348947fc	2.5570614e-07
51	0x348dfd33	2.6447523e-07
52	0x3512bd22	5.466446e-07
53	0x34ac8442	3.2133727e-07
54	0x34c32ccd	3.6354177e-07
55	0x343c34e3	1.7528104e-07
56	0x3489edfb	2.5691392e-07
57	0x34daf770	4.07857e-07
58	0x34e95982	4.3464757e-07
59	0x34c1bc6b	3.6086143e-07
60	0x348c1eed	2.6099534e-07
61	0x3495f50b	2.7931705e-07
62	0x352bf3a7	6.4057025e-07
63	0x349cf880	2.9238072e-07
64	0x34b7bf48	3.4225582e-07
65	0x341dfc8f	1.4713645e-07
66	0x349c3634	2.9096702e-07
67	0x34e0e8b7	4.1892574e-07
68	0x34ec0004	4.3958437e-07
69	0x34caf251	3.780174e-07
70	0x345051f2	1.9401321e-07
71	0x34a0540b	2.9863472e-07
72	0x35ba022a	1.385871e-06
73	0x3866df58	5.504428e-05
74	0x3430bd4c	1.6460143e-07
75	0x345d0cea	2.0586927e-07
76	0x343d57d8	1.7633954e-07
77	0x33a84223	7.83514e-08
78	0x340c98b7	1.3094073e-07
79	0x343dbfc5	1.7671762e-07
80	0x342630dd	1.5477731e-07
81	0x345d667d	2.0619514e-07
82	0x33a9d29e	7.907987e-08
83	0x33f1fb66	1.1268166e-07
84	0x3420cef3	1.4976449e-07
85	0x34561d92	1.9941061e-07
86	0x34505b37	1.9404693e-07
87	0x33c46942	9.1461075e-08
88	0x33f23f9e	1.1280575e-07
89	0x342a9eba	1.5890228e-07
90	0x345e65d3	2.0712405e-07
91	0x34300fb3	1.6396989e-07
92	0x33ce8e92	9.618556e-08
93	0x3400ed96	1.2007362e-07
94	0x3430f28e	1.6479518e-07
95	0x343e7699	1.7738274e-07
96	0x34396cb6	1.7269016e-07
97	0x33eab166	1.0928743e-07
98	0x33f7cab5	1.1538706e-07
99	0x345e9fb2	2.0733458e-07
100	0x34396263	1.726526e-07
101	0x34476835	1.857123e-07
102	0x338c6564	6.537701e-08
103	0x3407d0d2	1.2648823e-07
104	0x343d8645	1.7650844e-07
105	0x344671d8	1.8481603e-07
106	0x344357cd	1.8192732e-07
107	0x339d37e4	7.321049e-08
108	0x33e9987d	1.08776455e-07
109	0x354e414c	7.6836e-07
110	0x379c405f	1.8626624e-05
111	0x34abfc1f	3.2034674e-07
112	0x348401d7	2.4588255e-07
113	0x34787537	2.3139442e-07
114	0x34082264	1.2678498e-07
115	0x3431b76f	1.6551142e-07
116	0x34c4a311	3.662649e-07
117	0x3479127b	2.3196655e-07
118	0x34859653	2.4882556e-07
119	0x33e7df45	1.0797388e-07
120	0x34533d32	1.9673169e-07
121	0x34914772	2.7060338e-07
122	0x34a5aea1	3.0860704e-07
123	0x3480be96	2.3980527e-07
124	0x34109c23	1.3467847e-07
125	0x343abc1b	1.7391032e-07
126	0x34a2ba54	3.0310423e-07
127	0x348ee3c1	2.6615274e-07
128	0x3495d148	2.7905685e-07
129	0x33ff376e	1.18844454e-07
130	0x3447428f	1.8557533e-07
131	0x34ad3750	3.2264006e-07
132	0x348f0096	2.6636252e-07
133	0x3473b3ab	2.2696501e-07
134	0x341e3268	1.4733234e-07
135	0x34384614	1.716183e-07
136	0x34ce9138	3.847615e-07
137	0x34882f23	2.536627e-07
138	0x3481a051	2.4144768e-07
139	0x33c91a7c	9.364609e-08
140	0x344df70a	1.9181985e-07
141	0x34aa279b	3.1693784e-07
142	0x348e2afb	2.6480834e-07
143	0x348b631b	2.5962876e-07
144	0x33ea1f7d	1.0902202e-07
145	0x3445c1d8	1.8417575e-07
146	0x357a7bc8	9.3312383e-07
147	0x381da18c	3.758217e-05
148	0x34d553b6	3.973525e-07
149	0x34b099de	3.2894508e-07
150	0x34a1cca6	3.0137488e-07
151	0x3418c8bf	1.4229134e-07
152	0x346d5be3	2.2105773e-07
153	0x351e7e34	5.9043236e-07
154	0x347d985a	2.3617886e-07
155	0x348847e3	2.5384279e-07
156	0x33f570a0	1.1429188e-07
157	0x34522061	1.9569553e-07
158	0x34b2d239	3.330804e-07
159	0x34bdecdb	3.5376328e-07
160	0x34ad22b7	3.224902e-07
161	0x343b55eb	1.7446989e-07
162	0x3449063a	1.8721849e-07
163	0x34e2d16a	4.224815e-07
164	0x34b5e48d	3.388017e-07
165	0x348b52e9	2.5951093e-07
166	0x341d1d83	1.4632501e-07
167	0x345a9a7a	2.035903e-07
168	0x34d8bdbd	4.0371188e-07
169	0x349dd8b0	2.940119e-07
170	0x349c351f	2.9095915e-07
171	0x34422065	1.8079443e-07
172	0x344efb0e	1.9276578e-07
173	0x352060c6	5.974547e-07
174	0x347ce556	2.3552761e-07
175	0x348566b0	2.4847895e-07
176	0x33f1fe3a	1.12686806e-07
177	0x34560041	1.9930395e-07
178	0x3501e183	4.838441e-07
179	0x348c21a2	2.6101503e-07
180	0x3493e40d	2.7546812e-07
181	0x34135faf	1.3725251e-07
182	0x34514e23	1.9493068e-07
183	0x35ad5321	1.2913698e-06
184	0x384415c6	4.675032e-05
185	0x35bad489	1.3919936e-06
186	0x34b67726	3.3986834e-07
187	0x35a32064	1.2153873e-06
188	0x349dd2dd	2.9396952e-07
189	0x34c9d0e0	3.7591144e-07
190	0x3540c14c	7.180686e-07
191	0x33a34015	7.6019354e-08
192	0x35e595f5	1.7105473e-06
193	0x352dc991	6.474084e-07
194	0x340f5caf	1.3351631e-07
195	0x34ef45cc	4.4568003e-07
196	0x34f0529a	4.4763584e-07
197	0x35fe6d55	1.8956295e-06
198	0x34fcfce4	4.712266e-07
199	0x34d06a6f	3.882046e-07
200	0x359ed051	1.1832545e-06
201	0x351e344b	5.8935683e-07
202	0x359372cb	1.0985763e-06
203	0x34b76d99	3.416615e-07
204	0x34b65361	3.3960808e-07
205	0x35417a00	7.2075636e-07
206	0x3459931a	2.0263215e-07
207	0x35d69d57	1.5990034e-06
208	0x351cf917	5.8477e-07
209	0x34362fe5	1.6967495e-07
210	0x3504c6b1	4.9462966e-07
211	0x34905f21	2.6891306e-07
212	0x3601587c	1.9274003e-06
213	0x34f27508	4.5161164e-07
214	0x346f3088	2.2276265e-07
215	0x3553b8b2	7.887239e-07
216	0x331b32fa	3.6135113e-08
217	0x3608ee78	2.0404386e-06
218	0x3486277e	2.498818e-07
219	0x34b796be	3.4196086e-07
220	0x3599c9c7	1.1458113e-06
221	0x3992c4d3	0.00027993936
222	0x34bda55f	3.5324317e-07
223	0x34ac0283	3.2039324e-07
224	0x348d4d37	2.6319478e-07
225	0x3424bb86	1.5341911e-07
226	0x345be3e8	2.0478876e-07
227	0x34be260d	3.5417943e-07
228	0x3492d50e	2.7349637e-07
229	0x34b1c7e0	3.3114247e-07
230	0x3417a04d	1.4121288e-07
231	0x3466aeb8	2.1483982e-07
232	0x34968925	2.8039463e-07
233	0x34c26980	3.6212077e-07
234	0x349b214d	2.889523e-07
235	0x3443e6e1	1.8244783e-07
236	0x34592aa9	2.022522e-07
237	0x34b094f6	3.2890938e-07
238	0x34a58940	3.0833507e-07
239	0x3495fbf5	2.7936736e-07
240	0x343933a3	1.7248253e-07
241	0x3465203e	2.1339017e-07
242	0x34ad2261	3.2248775e-07
243	0x34ac98bf	3.2148634e-07
244	0x34a33f9f	3.0407406e-07
245	0x34428007	1.8114234e-07
246	0x346dd19d	2.2148602e-07
247	0x34eab871	4.3720095e-07
248	0x348d208a	2.6286972e-07
249	0x3499b1bd	2.8627792e-07
250	0x33ea8404	1.09204876e-07
251	0x34768ea0	2.2962422e-07
252	0x34b52c0b	3.3745923e-07
253	0x34aafcc0	3.1848867e-07
254	0x34a49f41	3.0663253e-07
255	0x3411cca0	1.357862e-07

exp_avg f4 [64]
0	0xb9875fe8	-0.00025820662
1	0x3a29405b	0.0006456428
2	0xb95e9b84	-0.00021229504
3	0x39a926d9	0.00032263136
4	0xb8fa0631	-0.00011922082
5	0xba183366	-0.0005805999
6	0xb8850c15	-6.344185e-05
7	0x397b4af8	0.00023965153
8	0x39a97159	0.00032318642
9	0xb850539b	-4.9668928e-05
10	0x39f13ab0	0.00046010828
11	0x39b0e9dc	0.00033743575
12	0x39e3ce91	0.00043450718
13	0xb98fa0bb	-0.0002739484
14	0x399f9317	0.00030436434
15	0xb8605929	-5.34888e-05
16	0x3a04e8be	0.00050700817
17	0x38279129	3.9951094e-05
18	0x3872b204	5.7863086e-05
19	0x399cece3	0.00029931133
20	0x3999cdaf	0.0002933568
21	0x384192f1	4.6151636e-05
22	0x3a095262	0.0005238411
23	0x3806ff8e	3.2186093e-05
24	0xb80f9ce6	-3.423998e-05
25	0x39bb0e7d	0.00035678214
26	0x39fc915b	0.00048173484
27	0xba72d4a5	-0.0009263254
28	0x38a9280a	8.066006e-05
29	0x3a329419	0.00068122294
30	0xb9b5341f	-0.00034561843
31	0x398cad10	0.00026831822
32	0x393dc8d3	0.00018099257
33	0x39cac2e1	0.00038673638
34	0x39a2f4a8	0.0003108133
35	0x398ee872	0.00027257536
36	0x399cf2b7	0.00029935475
37	0x3a313e68	0.00067613134
38	0x390684e8	0.00012828747
39	0xb80a78ce	-3.3014272e-05
40	0xb8eafa91	-0.00011204661
41	0x3a00eeb9	0.0004918385
42	0x398ba334	0.00026633742
43	0x3a13fa8f	0.0005644941
44	0x399602e5	0.00028612386
45	0x39194cde	0.00014619852
46	0x3a75af7e	0.00093721587
47	0x3a461a3c	0.000755701
48	0x39b600cf	0.00034714348
49	0x3a04c40a	0.00050646125
50	0x3906f949	0.00012872102
51	0xba43202a	-0.00074434525
52	0xb94df25f	-0.00019640614
53	0x3a2d2309	0.0006604647
54	0x38e535c2	0.00010929584
55	0x38560806	5.102905e-05
56	0x39b4b576	0.00034467474
57	0x3a06116c	0.00051142904
58	0x3a2c2ace	0.00065676577
59	0x3932c825	0.00017049962
60	0x397c2b1b	0.00024048651
61	0xb9cc000c	-0.00038909947
62	0x39e05b7e	0.00042792776
63	0x3a16f889	0.00057590805

exp_avg_sq f4 [64]
0	0x35664c3e	8.5792624e-07
1	0x35d77a83	1.6054404e-06
2	0x3535af38	6.768273e-07
3	0x358acbe2	1.0341139e-06
4	0x35a56d57	1.232528e-06
5	0x36521ac5	3.130802e-06
6	0x35a22fac	1.2083815e-06
7	0x35b158c3	1.3213361e-06
8	0x35993b2f	1.1416613e-06
9	0x353dccca	7.0705994e-07
10	0x3519d0fd	5.730106e-07
11	0x35af6e26	1.3070573e-06
12	0x353e553e	7.090456e-07
13	0x354ba2a0	7.5860044e-07
14	0x3585ee50	9.97863e-07
15	0x356ccd76	8.8215836e-07
16	0x35c1ba19	1.4433782e-06
17	0x35808ec4	9.578293e-07
18	0x35642d31	8.500238e-07
19	0x351c6adb	5.8270024e-07
20	0x359cfccc	1.1696479e-06
21	0x3605c841	1.9935108e-06
22	0x35b0d3fc	1.3174717e-06
23	0x35614977	8.3925937e-07
24	0x35cfc588	1.5480191e-06
25	0x35c733a8	1.4841689e-06
26	0x35e3754a	1.6946954e-06
27	0x360a774d	2.0633045e-06
28	0x358e9909	1.0624364e-06
29	0x35ea580f	1.7459987e-06
30	0x35240576	6.110271e-07
31	0x34b54fb6	3.3771875e-07
32	0x35404906	7.1631837e-07
33	0x35936b13	1.0983516e-06
34	0x35420a17	7.2285314e-07
35	0x35d028d3	1.5509089e-06
36	0x357ac208	9.341461e-07
37	0x35c9428f	1.4995038e-06
38	0x35c26fc1	1.4486651e-06
39	0x35a419b3	1.2226432e-06
40	0x36018502	1.9299919e-06
41	0x35951e93	1.1110263e-06
42	0x35817b55	9.647143e-07
43	0x35c94eca	1.4998598e-06
44	0x35b68051	1.3597402e-06
45	0x35b59740	1.352957e-06
46	0x35cae73f	1.5117474e-06
47	0x36d167f8	6.240789e-06
48	0x35cd25e1	1.5284714e-06
49	0x35c32a75	1.4540989e-06
50	0x35b0b2b6	1.3165034e-06
51	0x39394a44	0.00017670641
52	0x354c55a2	7.6120534e-07
53	0x3592563f	1.0902949e-06
54	0x358fad89	1.0704836e-06
55	0x359cce9b	1.1683036e-06
56	0x355f5eee	8.3212115e-07
57	0x35bec747	1.42141e-06
58	0x35918a0a	1.0843517e-06
59	0x35221deb	6.039324e-07
60	0x3588f3a5	1.02037e-06
61	0x362a0881	2.5336924e-06
62	0x35af40eb	1.305741e-06
63	0x35933049	1.0966406e-06

exp_avg f4 [64, 64]
0	0x3b216fd2	0.00246333
1	0x3b0b985c	0.002130053
2	0x3a4af387	0.0007741977
3	0x3ad3ca16	0.0016158249
4	0x3a8db9be	0.0010812802
5	0x392316b7	0.00015553353
6	0x3ae8fbc6	0.001777523
7	0x3abaf29e	0.0014262979
8	0x3b4b2258	0.0030995812
9	0x3abc8a0c	0.0014384403
10	0x3b04ab21	0.0020243602
11	0x3b2460dd	0.002508215
12	0x3adae6ee	0.0016700902
13	0x3a4c01db	0.0007782259
14	0x3af997a9	0.0019042391
15	0x3a461dc6	0.0007557537
16	0x3b0e4fca	0.0021715038
17	0x3a4392f2	0.0007460556
18	0x3aa72f64	0.0012755212
19	0x3b1e2e7e	0.0024136598
20	0x3b2b6f7f	0.0026158986
21	0x3a502da4	0.00079413713
22	0x3ad75fb5	0.0016431721
23	0x3aabf1e9	0.001311836
24	0x3af8b5c7	0.0018975072
25	0x3b071886	0.0020613982
26	0x3b415ee9	0.0029506034
27	0x398e9a24	0.00027199194
28	0x3b2df53f	0.0026543883
29	0x3af92005	0.0019006735
30	0x3a995273	0.0011697545
31	0x39f4abc0	0.0004666727
32	0x3b111719	0.0022139011
33	0x3a892766	0.0010464012
34	0x3a976672	0.0011550917
35	0x3a98e391	0.00116645
36	0x3b46d67d	0.0030340247
37	0x3b273472	0.0025513438
38	0x3a4d927f	0.0007841959
39	0x3aff054e	0.0019456537
40	0x3b1e582c	0.0024161441
41	0x3a9a332e	0.001176452
42	0x3b1bce2e	0.0023774016
43	0x3b0ac16c	0.0021172417
44	0x3aa15641	0.0012309031
45	0x3ac879da	0.0015295104
46	0x3b5cfef8	0.003372131
47	0x3814824e	3.5407305e-05
48	0x3aad9644	0.0013243635
49	0x3a615429	0.00085956097
50	0x3b02f8c6	0.0019984706
51	0x389df402	7.5317934e-05
52	0x3b0e9489	0.0021756014
53	0x3a31ab2e	0.0006777522
54	0x3a6c10d2	0.0009005192
55	0x3b288ce9	0.0025718755
56	0x3b351214	0.0027629184
57	0x3b0bc5a9	0.0021327531
58	0x3b1e532a	0.0024158456
59	0x3ac37978	0.001491352
60	0x3afc4996	0.0019248005
61	0x39b3758f	0.00034229129
62	0x3b32c256	0.0027276478
63	0x3b065fcf	0.0020503884
64	0x3b1b2b6c	0.0023677005
65	0x3aeea895	0.00182082
66	0x3a6bf692	0.00090012804
67	0x3ac750ef	0.0015206615
68	0x3a4b7bd9	0.000776229
69	0x3963c42b	0.00021721485
70	0x3addf44c	0.0016933768
71	0x3ab30c1c	0.0013660225
72	0x3b3b5a88	0.0028587896
73	0x3ac10266	0.0014725446
74	0x3af6df0d	0.0018834785
75	0x3b15eb92	0.0022876007
76	0x3ae60911	0.001755031
77	0x3a3b53c4	0.0007145966
78	0x3b016e16	0.0019749454
79	0x3a551aef	0.00081293186
80	0x3b0b1b3e	0.0021225954
81	0x39d4dccb	0.00040600295
82	0x3a977dd1	0.0011557882
83	0x3b1cbc25	0.0023915854
84	0x3b14fada	0.0022732527
85	0x3a665880	0.0008786991
86	0x3ab844f9	0.0014058641
87	0x3a904a94	0.0011008554
88	0x3ad3d8bf	0.0016162618
89	0x3b00bd6a	0.001964415
90	0x3b4f6b92	0.003164981
91	0x39a00006	0.00030517596
92	0x3b1ec17a	0.0024224208
93	0x3adebccd	0.0016993523
94	0x3aa003f6	0.0012208212
95	0x397f053e	0.00024320648
96	0x3af2a0c3	0.0018511045
97	0x3a920587	0.0011140563
98	0x3a842c66	0.0010084033
99	0x3a961a8b	0.0011452002
100	0x3b4aba97	0.003093397
101	0x3b2b6597	0.0026153082
102	0x3a388e7c	0.0007040275
103	0x3adeeaa1	0.0017007181
104	0x3b2593b1	0.0025265033
105	0x3a4b7bbb	0.0007762273
106	0x3b12a9a1	0.0022378939
107	0x3ad24165	0.0016041218
108	0x3a98e5a8	0.0011665123
109	0x3ab5dc0e	0.0013874786
110	0x3b4d16d8	0.0031294134
111	0xb8fcf7f9	-0.00012062485
112	0x3a892efc	0.0010466273
113	0x3a10d1a8	0.0005524405
114	0x3b057778	0.0020365398
115	0x362cf976	2.5775203e-06
116	0x3af8b13e	0.0018973721
117	0x3a0f0758	0.00054561114
118	0x3a6af03b	0.0008962189
119	0x3b1406e6	0.002258712
120	0x3b2ad5b6	0.0026067323
121	0x3b136156	0.0022488437
122	0x3b13ca4f	0.0022551005
123	0x3ae86772	0.0017731024
124	0x3ac3ae26	0.001492922
125	0x3924057d	0.00015642303
126	0x3b2973c4	0.0025856355
127	0x3af8e57a	0.0018989288
128	0x3b33f15a	0.002745709
129	0x3b80689f	0.003918722
130	0x3a71b3e9	0.0009220229
131	0x3b0681ec	0.0020524217
132	0x3b0a4ff6	0.002110479
133	0x3993facf	0.00028224892
134	0x3b22b2ae	0.002482574
135	0x3ac5110c	0.0015034988
136	0x3b92ea3e	0.0044834903
137	0x3af0a11a	0.0018358559
138	0x3b23b811	0.0024981538
139	0x3b72a5b4	0.0037025036
140	0x3aedb8fd	0.0018136796
141	0x3abfd714	0.0014636242
142	0x3b349bca	0.0027558678
143	0x3a7227a5	0.0009237475
144	0x3b380048	0.002807634
145	0x3ae2bdef	0.0017299036
146	0x3acc9e28	0.0015611099
147	0x3b2f4f58	0.0026750173
148	0x3ba1ae30	0.004934095
149	0x3ac4519a	0.0014977932
150	0x3afbdd08	0.0019215653
151	0x3a6bdc04	0.00089973235
152	0x3b4751ee	0.0030413824
153	0x3b49cd00	0.0030792356
154	0x3b8384f5	0.0040136524
155	0x39e39afd	0.0004341229
156	0x3b82a390	0.0039867833
157	0x3b297964	0.0025859708
158	0x3af6a346	0.001881697
159	0xb8007bcb	-3.063287e-05
160	0x3b51d622	0.0032018502
161	0x3a8c22dd	0.0010691542
162	0x3abb5f96	0.0014295455
163	0x3a9e0ea0	0.0012058802
164	0x3b6eb284	0.0036422322
165	0x3b768b64	0.0037619704
166	0x3a3727c6	0.00069868227
167	0x3b5c5a9e	0.0033623348
168	0x3b5e002e	0.0033874619
169	0x3afb1b84	0.001915798
170	0x3b6f42cc	0.003650832
171	0x3b51358b	0.0031922783
172	0x3acf22b1	0.0015803186
173	0x3accfb68	0.001563889
174	0x3ba2327e	0.004949867
175	0xb6a7f48d	-5.0054573e-06
176	0x3b219998	0.00246582
177	0x3a9df6cb	0.00120517
178	0x3b25eb0a	0.0025317096
179	0x3886e846	6.432882e-05
180	0x3b6c3b2e	0.0036046016
181	0x3a931a13	0.0011222981
182	0x3aaf5e9b	0.0013379635
183	0x3b730cce	0.003708649
184	0x3b5fff90	0.0034179427
185	0x3b4e1289	0.0031444153
186	0x3b72a7ca	0.003702628
187	0x3abf67f9	0.001460313
188	0x3b364a41	0.0027815255
189	0x3a339076	0.00068498345
190	0x3b7d9e6e	0.0038699168
191	0x3b33dea8	0.0027445946
192	0x3b029fe3	0.0019931726
193	0x3aea9fd3	0.0017900415
194	0x3a2bf67e	0.00065598625
195	0x3aa9b8a4	0.0012948704
196	0x3a3d8ce6	0.00072307733
197	0x3940533b	0.00018341553
198	0x3aacf9d7	0.0013197017
199	0x3a912e8c	0.0011076494
200	0x3b391a39	0.002824439
201	0x3aa94e65	0.001291704
202	0x3ae88bb8	0.0017741835
203	0x3b05eb0d	0.002043429
204	0x3a959286	0.0011411465
205	0x3a184b4a	0.0005809559
206	0x3aed7610	0.001811685
207	0x3a215587	0.0006154407
208	0x3ad12aca	0.0015958187
209	0x3a3c03e4	0.00071722106
210	0x3a777c80	0.0009440854
211	0x3ae81873	0.0017707482
212	0x3b139b08	0.0022522826
213	0x3a125645	0.0005582313
214	0x3a9d5684	0.0012003933
215	0x3a51f179	0.00080086995
216	0x3ab720e6	0.0013971596
217	0x3ad90162	0.0016556198
218	0x3b34434f	0.002750594
219	0x39a3a07c	0.00031209353
220	0x3b0c505a	0.0021410198
221	0x3abdb222	0.0014472643
222	0x3aa1189c	0.0012290659
223	0xb8bc851e	-8.9893336e-05
224	0x3af26ded	0.0018495895
225	0x3a251e44	0.00062987604
226	0x3a6c5d85	0.0009016621
227	0x3a2f4db8	0.0006687301
228	0x3b2a3942	0.002597407
229	0x3b15990b	0.0022826816
230	0x39eb59eb	0.00044889687
231	0x3ab27c6a	0.00136174
232	0x3b0bae3f	0.0021313576
233	0x3a1587c7	0.00057041313
234	0x3b1188c8	0.0022206772
235	0x3ac9d6d1	0.0015399103
236	0x3a4ea78a	0.00078832416
237	0x3a80afce	0.0009818019
238	0x3b425319	0.002965158
239	0xb906cf19	-0.00012856386
240	0x3a8b986e	0.0010650286
241	0x3997aa54	0.0002892787
242	0x3ae0e17a	0.0017157041
243	0xb7d4d092	-2.5369493e-05
244	0x3ad30a70	0.0016101133
245	0x39ea583b	0.00044697695
246	0x3a38ba09	0.00070467644
247	0x3afeeaca	0.0019448635
248	0x3b1b8681	0.0023731294
249	0x3afa2b61	0.0019086414
250	0x3b09ebaa	0.0021045008
251	0x3ab52d4f	0.0013822707
252	0x3ab5e0f2	0.0013876243
253	0x3940ef6f	0.00018399743
254	0x3b1bab40	0.0023753196
255	0x3acc74f9	0.0015598825
