p1_navigation/DQN20190129_v2.pth (torch_old, 88765 bytes, 18 tensors)

hidden_layers.0.weight f4 [64, 37]
000000 04 7b 05 bc e8 58 66 3d d2 25 03 3d 3d fb cb 3c
       -0.008147005 0.05623713 0.03201849 0.024900073
000010 fc 0f 0b bd 27 0d f6 3d e7 a0 d2 3c c3 a5 15 3e
       -0.03395079 0.12014227 0.02571149 0.14614014
000020 e3 a4 ee 3d cf 66 94 bd fa dd 06 3d 65 1a 07 bc
       0.116525434 -0.07246172 0.032926537 -0.008246039
000030 ae c9 86 bd 70 4b 9b bd 29 74 08 be 4b c0 a4 3d
       -0.06581436 -0.07582748 -0.13325562 0.080444895
000040 a5 05 fa 3c b1 e9 c5 3d 0a 78 20 3e 83 86 09 3d
       0.03052027 0.09663714 0.15670791 0.033575546
000050 a9 e2 37 3e 96 b6 fa 3d 64 ef d9 3d 37 a3 df 3d
       0.17957558 0.12241857 0.10641363 0.10919803
000060 56 ea 88 bd 2b 66 8d 3d c8 d0 f5 3c e5 a6 d5 3b
       -0.06685321 0.069042526 0.030006781 0.0065201395
000070 68 73 88 3d 62 e3 03 3d f9 af 2b 3d ce af 20 3e
       0.06662637 0.03219927 0.041915867 0.15692064
000080 e6 71 2c bd e7 fe 2a bd 29 62 46 be ac 25 01 bd
       -0.04210081 -0.041747 -0.19373383 -0.031530067
000090 ef a1 73 bb 94 44 e4 3d 20 27 d8 3d 97 c2 25 3e
       -0.0037175377 0.11145893 0.105543375 0.16187511
0000a0 02 b0 c2 3d 28 26 2a be 45 12 f5 3c ff 6d e4 bd
       0.09506227 -0.16616118 0.029915938 -0.111537926
0000b0 29 d9 90 bd 2d 5e 63 bd 6f ee 54 be 19 51 10 3e
       -0.0707267 -0.055509735 -0.2079408 0.14093436
0000c0 e3 91 cd 3c ae e1 c5 bd 47 b6 b9 3d 0f 18 db 3d
       0.025093978 -0.096621856 0.0906797 0.10697948
0000d0 09 7f 02 3e dd 5c 8f 3d 2e 95 d9 3d 16 6a 39 bd
       0.12743773 0.07000134 0.10624157 -0.045267187
0000e0 d3 21 30 be 63 77 58 be e0 b4 ce ba 53 e0 4b 3c
       -0.17200403 -0.21139292 -0.0015770458 0.01244362
0000f0 c4 b8 b0 3c 7a b3 27 bd 8a 39 85 bc 7b 47 cf 3c
       0.021572478 -0.040942647 -0.016262788 0.02530264
000100 a1 04 19 3e 46 1c ad 3c 8a d8 8e be db 84 5b 3d
       0.14943172 0.021131646 -0.2789958 0.053593498
000110 47 05 39 3e ef ce c6 3d db f7 0d bd 25 12 6d bd
       0.1806842 0.09707438 -0.0346602 -0.057878632
000120 45 b6 fd bb 5b 14 b8 bb c8 44 3f 3c cb 99 8b 3d
       -0.0077426755 -0.005617661 0.011674114 0.06816443
000130 29 78 81 3d a4 71 36 3e e5 db 4f 3d f3 d4 a4 be
       0.06321747 0.17816788 0.050746817 -0.32193717
000140 57 48 d0 3b 88 61 a9 3d 0a 9f 8f 3e db 0b 3f be
       0.00635628 0.08270556 0.28051025 -0.18656866
000150 a1 f6 89 bd 39 4a 70 3d 1d e5 3f bd c1 ad 6a 3d
       -0.06736494 0.058664534 -0.04684936 0.05729461
000160 be 01 89 3d 15 2c 77 3d 5e ca 48 bb 00 42 d3 3d
       0.066897854 0.060344774 -0.0030638198 0.10315323
000170 03 ae f8 3d cf ae 91 3e 77 1c 6b be 56 16 80 3d
       0.12142565 0.2845368 -0.22960077 0.0625426
000180 29 7f f2 3c e9 72 18 3d 04 4c cb bd 74 34 21 bd
       0.02960165 0.037218962 -0.09926608 -0.039356664
000190 94 4b 5b 3e c5 60 2d 3c 8f eb b9 bc f8 bf 6a 3d
       0.2141555 0.010582154 -0.02269533 0.057311982
0001a0 5e 4e a5 be d6 87 02 3d a8 d6 fb bb 10 80 b2 bd
       -0.32286352 0.031867824 -0.007685501 -0.08715832
0001b0 8c e8 3a 3a 02 f6 d8 bb 3e 5b c3 bb 19 86 a7 3d
       0.0007129989 -0.0066211233 -0.0059618047 0.08179874
0001c0 ed 1a 80 3d a7 78 cd 3d 65 41 07 3e a7 50 cb 3c
       0.06255136 0.10032778 0.1320854 0.024818731
0001d0 d5 49 64 bd 0f 8b f5 3c d2 20 9f 3c 3d c4 f2 3d
       -0.055734474 0.029973535 0.01942483 0.11853836
0001e0 db b4 0f 3e 3a de ae 3c 2d 90 b5 3d 36 64 00 be
       0.14033835 0.0213462 0.0886539 -0.12538227
0001f0 3a 29 d5 bd ec 58 bd be 97 e4 c5 bd 06 9a 09 bd
       -0.10408254 -0.36981905 -0.09662741 -0.033594154
000200 81 6e 6e 3c ea b9 7d bd a8 5d 77 3c 89 dc b0 3e
       0.014552713 -0.06194488 0.015098013 0.34543255
000210 fc d4 05 bf 46 38 5e bd 9c 95 ff bd a1 6f b3 bf
       -0.52278113 -0.054252885 -0.124797076 -1.4018441
000220 b2 63 16 3c 0e 25 fd 3b ef 84 3f 3d 64 88 20 3e
       0.009179043 0.0077253645 0.046757635 0.15677029
000230 42 b7 15 3e 94 a4 3a bd 3a 14 08 3e b3 e1 92 3d
       0.14620689 -0.04556711 0.13288966 0.07171955
000240 86 c8 a9 3d b9 1e 07 3e 8e aa 8a bc b0 59 bb 3b
       0.082902 0.13195314 -0.01692703 0.0057174787
000250 71 47 8f bd bc 99 ac bd 16 c5 26 bd 1f d8 2a be
       -0.06996048 -0.0842776 -0.0407153 -0.16684006
000260 fe cf e3 3b 76 81 89 3e 3b fa c9 3d 3f 80 e0 be
       0.006952285 0.26856583 0.09862181 -0.43847844
000270 ea 75 f2 bc c0 69 82 bf 9f 1c 59 3c 2c 65 28 bd
       -0.029597241 -1.0188522 0.013251453 -0.04111211
000280 80 68 c9 3c 6a 87 37 bd c0 2b b9 bd cc 27 93 bd
       0.024585962 -0.044806875 -0.09041548 -0.07185325
000290 67 5e e0 3c a0 cb a3 3d ad 5c 33 bd a0 17 fb 3d
       0.027388765 0.07997823 -0.043789554 0.122603655
0002a0 76 63 65 bc 8c 4b 86 3d 2b 42 cf ba e5 8f 47 3d
       -0.014000764 0.06557378 -0.0015812566 0.048721213
0002b0 29 5e 2c 3e d6 98 5e 3e 9e db dc bd 39 3d 8c 3d
       0.16832794 0.2173799 -0.10784076 0.06847615
0002c0 d7 7d 00 be 71 df 04 bf e8 1d 98 bd d6 58 af 3d
       -0.12548004 -0.51903445 -0.07427579 0.08561866
0002d0 1b 10 02 3e 44 57 b2 3d 19 ea e6 3d 12 7e 9c 3c
       0.12701456 0.08708051 0.11275119 0.019103084
0002e0 ca 66 c8 3b d2 e7 85 3d 10 e9 d2 bc 9d db b5 3c
       0.006115769 0.06538357 -0.025745898 0.022199446
0002f0 6a d4 0d bd ea 53 55 3c 51 22 65 3d 78 78 d7 3d
       -0.034626402 0.013020495 0.05594093 0.105210245
000300 f4 86 96 3c df d9 da 3d a3 df cc 3d fe 8a d8 bd
       0.018374898 0.10686087 0.10003593 -0.10573386
000310 76 75 fa bb 00 45 20 bc c2 e5 0b 3d b6 8a c1 3d
       -0.007643397 -0.009782076 0.03415466 0.09450285
000320 f7 9e 9a 3c 9e 58 ca 3d d5 46 5b 3c a4 22 7e bd
       0.018874628 0.09880184 0.013383587 -0.062044755
000330 76 8b 49 bd a0 da 11 bc a3 45 c4 3d 28 c8 d5 3d
       -0.049205266 -0.008902222 0.09583595 0.104385674
000340 de 7a 31 3e 78 54 04 3e 00 20 87 3c c8 d9 3a bc
       0.17332026 0.12922847 0.016494751 -0.011404462
000350 b2 75 98 3d ab 11 13 3d a8 3a 7b 3d 0f db 13 ba
       0.074443236 0.03590552 0.061335236 -0.0005640247
000360 a0 d1 31 bc e8 83 61 3d 2d 63 83 3d 14 95 de 3d
       -0.010853201 0.055057436 0.06415401 0.10868278
000370 d3 ff 45 bc 0d fe 7e bb 48 17 01 3e c6 6b 35 3d
       -0.012084919 -0.003890875 0.12606537 0.044292234
000380 65 88 31 3d 3b 12 86 bc e2 fc 87 be 22 87 7b bc
       0.043342967 -0.016366115 -0.26560122 -0.015352042
000390 50 8a be 3d 55 c4 22 3d c9 ae 9e bd cb f3 0d bd
       0.09303725 0.039738018 -0.077481814 -0.034656327
0003a0 a1 62 44 3e 24 b9 cd 3d 8f 84 a2 3d 35 bb 34 3d
       0.19178249 0.100450784 0.0793544 0.044123847
0003b0 b5 21 1d 3b b2 44 9a 3c 39 d4 26 bd e1 85 14 bc
       0.002397639 0.018831585 -0.040729735 -0.009065122
0003c0 36 66 09 3e 90 90 e1 3d 4a c0 63 3c 2b 86 9b bb
       0.13417897 0.11013901 0.013900826 -0.0047462187
0003d0 a0 a1 b6 3d 74 93 0c 3d 5e a7 d4 3c cd 91 91 3d
       0.08917546 0.03432031 0.025958713 0.071078874
0003e0 b3 70 4a 3d 81 e1 13 be 3e 9c d8 bd 35 09 86 bd
       0.049423885 -0.14441492 -0.10576676 -0.06544725
0003f0 38 db 5a 3e ed a5 fa 3c ef 2e 55 bd d0 a5 46 be
       0.21372688 0.030596698 -0.052046712 -0.1939919

hidden_layers.0.bias f4 [64]
000000 e6 4e 31 3d 53 1f 0e be c3 ee 7b be 81 6d 7a be
       0.043288134 -0.13879137 -0.24602799 -0.24455835
000010 06 83 e2 bc f2 f5 7b bd 35 02 59 be 70 8f 05 bd
       -0.027650367 -0.06151385 -0.21192248 -0.032607496
000020 b6 e0 d9 bd 42 c4 8a be 4f 80 a0 bd 5f 91 98 bc
       -0.10638563 -0.27102858 -0.07836973 -0.018624006
000030 5d e2 d4 bc ca d1 9f bd 0e 7b 05 be a8 af f6 bd
       -0.025986845 -0.07803686 -0.13035223 -0.120452225
000040 6e 43 b2 bd 22 0f 0e be d3 0c 0b be 9a 09 80 be
       -0.087042674 -0.1387296 -0.13579111 -0.25007325
000050 67 32 48 be e1 d2 b9 bd ff 71 34 be 12 a0 64 be
       -0.19550477 -0.09073425 -0.17621611 -0.22326687
000060 9b 93 82 be d7 c9 fa bb 06 37 fe bd 27 19 43 be
       -0.2550324 -0.0076534557 -0.12412839 -0.19052564
000070 ff 96 76 3c 1d 2d 79 bd 38 16 38 bd fc 4f 58 be
       0.015050649 -0.06083404 -0.044943064 -0.21124262
000080 08 2d a2 3d 7b b1 e0 bd 5d 85 89 be ef 38 42 bd
       0.07918745 -0.10971352 -0.2685956 -0.047417577
000090 7f f8 89 be b7 fc f2 bd db e5 76 be bf 62 8d be
       -0.269474 -0.11864608 -0.2411112 -0.276144
0000a0 de 99 8d be ce dc 4e be 0c 36 25 be ef a1 81 bc
       -0.27656454 -0.20201418 -0.16133898 -0.015824286
0000b0 2f 99 f3 bd a6 4b 1c be cf e2 3d be bb f1 70 be
       -0.11894452 -0.15263233 -0.18543552 -0.23529713
0000c0 41 fe 57 be c0 94 ca bd e7 a1 8e be 3e 12 03 3e
       -0.21093084 -0.09891653 -0.27857897 0.12799928
0000d0 20 d0 e7 bd 6e b5 c3 bd b6 7b 89 be 5d 83 bb bd
       -0.113189936 -0.09556089 -0.26852196 -0.09155915
0000e0 76 c9 0b bd 00 52 6d be a5 21 6c be 9b 44 45 be
       -0.034127675 -0.23175812 -0.2305971 -0.19264452
0000f0 f0 4a 50 be 8b 0c 48 be ff cd 04 be 36 14 a3 bd
       -0.20341086 -0.19536035 -0.12969206 -0.07962839

hidden_layers.1.weight f4 [64, 64]
000000 e8 fb a2 bd 17 b6 ab 3c 79 9b 6e 3d 6f 23 4a bc
       -0.079582036 0.02096085 0.05825374 -0.01233755
000010 9a 86 a4 3d de eb c4 bd 5f cc 0e 3d 76 e9 45 3d
       0.08033486 -0.096153006 0.034862872 0.04831835
000020 47 c8 09 3d 3b 6d d1 bc 1c 4c 8e 3c f6 07 d6 bd
       0.033638265 -0.02556478 0.017370276 -0.10450737
000030 82 48 e3 bd 26 95 16 bd 40 f6 bd bc b1 f6 ad 3d
       -0.11097814 -0.036763333 -0.02318871 0.08494318
000040 93 84 82 3d df d2 6a 3d ca 8d b4 bd 07 ca d8 bd
       0.06372943 0.05733001 -0.088161066 -0.10585409
000050 cf 7e fe bd 13 f4 18 3d 62 46 f9 bd de 8d ff bd
       -0.124265306 0.037342142 -0.121716276 -0.12478231
000060 c9 d0 b3 bd 56 92 f8 bd c0 8b a9 bd af b7 ac bd
       -0.08780057 -0.12137286 -0.08278608 -0.08433472
000070 2b 4a b0 bd c4 d4 bb 3d 80 80 08 bd 60 05 b4 3d
       -0.086078964 0.09171441 -0.033325672 0.08790088
000080 e5 c3 06 bc ed 9a 02 bd e2 c0 5d bd 82 0a d0 bd
       -0.008225416 -0.03188603 -0.054139026 -0.10158254
000090 8d 1b f8 bd 51 6a 6d 3d 05 fe 88 bd 23 9c 15 be
       -0.1211463 0.05796272 -0.066890754 -0.14610343
0000a0 8f ab 9c 3d 32 9e fe ba 57 75 e8 bd b5 04 e1 bd
       0.0764991 -0.0019425808 -0.11350506 -0.10987226
0000b0 83 5f f0 bd 7c 3a 00 be aa 9a ce 3d b9 29 77 3d
       -0.117369674 -0.1252231 0.100880936 0.060342524
0000c0 ee c0 74 bc dd 3c e0 bd f7 a1 6d bd 41 eb 08 be
       -0.014938576 -0.10949109 -0.05801579 -0.13370992
0000d0 e7 e0 7e 3c 83 38 23 bd ab ca 2a bd bd db 6a bd
       0.015556551 -0.039848816 -0.041697185 -0.057338465
0000e0 a8 60 fb 3c e2 cb 5d 3d 66 8e fc b9 60 59 bf bc
       0.030685738 0.054149516 -0.0004817128 -0.023358047
0000f0 fe ab b5 bc 4a 92 9f bc 67 bd de bd 3a 09 c6 3d
       -0.022176739 -0.019478936 -0.108759694 0.096697286
000100 3d 50 8f bb 33 ae 20 3d f9 53 00 bd 66 10 b6 ba
       -0.004373579 0.03922863 -0.031330083 -0.0013890385
000110 d2 76 2e 3d 61 27 5a bd 03 fe be 3d b2 42 67 bd
       0.042593785 -0.05326021 0.09325793 -0.05646009
000120 fb 0d f0 3c 60 b7 a9 3b fd a2 4e 3d 0b f4 f5 3d
       0.029303541 0.0051793307 0.050448406 0.12009438
000130 01 db 3b 3d 59 94 11 3d 20 3b 0a bd 8d 5a 82 bd
       0.045863155 0.035541866 -0.033747792 -0.063649274
000140 e0 60 e0 bc d2 34 9b 3c 0a f8 dc bc d9 4e 95 3d
       -0.027389944 0.018946085 -0.026973743 0.072904296
000150 18 02 7f 3d 9e 9b 2a 3d a1 26 ed 3a 0d 26 ba 3d
       0.062257856 0.041652314 0.0018093177 0.09089289
000160 16 e4 7b bd 21 2d 76 3d 98 0e 09 bc 09 50 dd 3e
       -0.061496817 0.060101632 -0.008365296 0.43225124
000170 97 c7 a1 bb 3e 73 81 3c 1a b5 4c bd f1 a1 d9 3d
       -0.004937123 0.015802022 -0.0499774 0.10626591
000180 e1 a7 d2 bd 0e 2d 5f 3c 40 7f e7 3c d2 3b 28 3d
       -0.102859266 0.013621582 0.02825892 0.041072674
000190 0a c1 81 bd ae 95 b0 bd eb 5a 57 3c a4 33 52 bb
       -0.063356474 -0.08622299 0.013144235 -0.0032074237
0001a0 4f b6 59 bd 92 08 f2 3d b5 07 10 3d 8d fe 40 bd
       -0.05315238 0.11818041 0.0351636 -0.04711776
0001b0 a0 59 e8 bc 9a 87 ae bd e7 3f 11 3e d5 a2 3e 3e
       -0.028363049 -0.08521958 0.14184533 0.18616803
0001c0 15 0d 37 b9 f0 5c 65 3d 1c 52 79 3d 1f 0f 0a be
       -0.00017457113 0.055996835 0.06086932 -0.1348233
0001d0 b0 7a 15 3d 16 df 7f bb ec fc 82 bb ab e8 4d 3d
       0.036493957 -0.0039042882 -0.003997436 0.050270718
0001e0 26 0a 68 bc 78 39 03 3e b7 1b 90 bc 4b 76 b0 3c
       -0.014162576 0.12814891 -0.01759134 0.021540781
0001f0 d1 b4 78 bd 5f 5b b0 3d eb bf 08 bd 95 b4 a0 3a
       -0.060719315 0.08611178 -0.033386152 0.0012260849
000200 43 93 81 bd e9 9f 5b 3d b1 8b b3 bc b9 a4 13 3d
       -0.06326916 0.0536193 -0.021917196 0.036045764
000210 b8 85 bf 3d 13 1d 8e bd 70 41 92 bd 0d 8b 08 bd
       0.09351677 -0.06939139 -0.071413875 -0.033335734
000220 bd 3e b8 bc d5 67 7d bd 22 a0 04 bd bc 70 60 bc
       -0.022490853 -0.0618666 -0.032379277 -0.013698753
000230 c8 7b 3d 3d e6 bc d5 3d 62 41 a5 3d 51 47 84 3b
       0.046260625 0.1043642 0.080691114 0.004036822
000240 a2 7e 8c bc 02 8f a5 3c f5 f5 6e bc 5f 4c df bc
       -0.017150227 0.020209793 -0.014585008 -0.027258096
000250 d3 e3 fe 3c 5f 9e e2 bd 50 3d de bd d0 e4 0c bc
       0.031114494 -0.11065363 -0.10851538 -0.008599475
000260 26 b5 4b bd 50 d6 96 bd 92 89 fe bd f0 7b ab 3d
       -0.049733303 -0.073650956 -0.12428583 0.083732486
000270 44 1f 75 bc 18 e8 a3 bd 93 e7 59 bd 47 21 c1 3c
       -0.014961068 -0.08003253 -0.053199362 0.023575438
000280 c4 96 c1 bd 3d 10 9f ba 03 05 45 bc 90 d0 08 3d
       -0.094525844 -0.0012135577 -0.012025121 0.033402026
000290 55 c0 25 3d 7c 63 be bd 86 64 3b 3d c5 5f a9 3d
       0.040466625 -0.09296319 0.045750163 0.0827022
0002a0 dc a0 84 ba ab 9e 55 3d 0c 98 6b bd 63 a9 4b 3c
       -0.0010118741 0.05215327 -0.05751805 0.012430522
0002b0 12 bf db 3c 24 8c 89 bd 52 e8 85 3d 8b 3b 05 be
       0.026824508 -0.06716183 0.06538452 -0.13010995
0002c0 65 df 70 bd 8f 2e ac bd 1e 4e b0 bd d6 0a a3 bd
       -0.058806796 -0.08407318 -0.0860865 -0.07961051
0002d0 f8 39 f1 bd f5 d5 5d 3c de 84 0b bd 8c c4 eb bd
       -0.11778635 0.013539781 -0.03406226 -0.11512098
0002e0 6b 83 44 bc 8c 18 ee bc f5 79 22 3d a9 5e d6 bd
       -0.011994223 -0.02906444 0.03966709 -0.10467274
0002f0 73 8e 40 bd e7 e8 91 3c b6 45 2f 3d a4 17 34 b9
       -0.04701085 0.017811252 0.04279109 -0.00017174945
000300 1b 79 c1 3c 8a e2 37 3d 8e 20 8e bd b4 e8 67 3e
       0.023617318 0.04489378 -0.06939803 0.22647363
000310 92 68 cb 3d 6f bf 9e bd 0e 4e 87 3c ae 3d b5 ba
       0.099320546 -0.07751357 0.016516712 -0.0013827586
000320 9e bc 0b 3d 7a 60 a8 3c d6 60 13 b9 9d f4 3c 3d
       0.034115426 0.020553816 -0.00014055087 0.04613172
000330 17 4a 0f 3d e7 8b d3 bd b4 49 2b 3d 5c cf 70 bc
       0.034982767 -0.10329419 0.041818336 -0.014697876
000340 0c 25 21 3d dc be a1 bc cf 87 09 bd b1 9f 86 3c
       0.03934197 -0.01974433 -0.033576783 0.016433569
000350 26 28 4e bc 7c bf 28 bc 4c b7 5a bb 90 92 95 bd
       -0.012582814 -0.01029956 -0.0033373414 -0.07303345
000360 03 a2 b0 bc e8 d3 19 bd a2 f5 40 3c 56 72 80 3d
       -0.021561628 -0.037555605 0.011777313 0.06271808
000370 29 36 1c 3c 07 7c 79 bd 79 ea c2 3c 16 fa 03 3d
       0.009534397 -0.060909297 0.023793446 0.032220922
000380 d0 f6 07 be c5 81 55 3d 64 d1 92 bd 83 95 59 3c
       -0.13277745 0.05212571 -0.07168844 0.013280275
000390 d9 1f 15 ba 61 73 09 bd 47 7c 17 3e 36 9b 22 be
       -0.00056886446 -0.0335573 0.14793502 -0.15879521
0003a0 26 15 3e 3d de d7 45 bd 04 46 ac bd a6 2e 40 3d
       0.046406887 -0.04830157 -0.08411792 0.046919487
0003b0 86 3c dd 3c 9f dc 1d bd 2d 79 72 3d 8f 2c 91 3c
       0.027006399 -0.03854048 0.059197593 0.017721443
0003c0 a5 c0 f2 3c 53 79 61 bd 84 d3 9a bd fe 68 e7 bb
       0.029632876 -0.055047344 -0.07559875 -0.0070620766
0003d0 ea 9e e5 3d 13 23 55 bd 37 98 48 3c cc b9 84 bc
       0.11211951 -0.052035403 0.012243322 -0.016201876
0003e0 4a e2 93 bd cb 6a 1f 3d c1 ba b3 bc a5 47 39 ba
       -0.072208956 0.038920205 -0.021939637 -0.0007067866
0003f0 99 76 30 3e 8a 7b 3a 3d 0d 96 83 bb b4 89 80 3b
       0.17232741 0.045527972 -0.00401569 0.0039226655

hidden_layers.1.bias f4 [64]
000000 b6 30 ab bd dd 20 cd 3e 98 70 a1 bd 87 25 d4 3e
       -0.083589 0.40064135 -0.07882804 0.4143488
000010 6a ac d7 3e 0e a8 00 3f 4e 80 26 3e 04 68 f0 3e
       0.4212373 0.5025643 0.16259882 0.46954358
000020 f4 04 ca 3e c8 11 d3 3e 59 08 f0 3e 29 a3 bf 3e
       0.39456904 0.41224504 0.4688137 0.3742917
000030 6f ac 70 3e 9b b5 da 3e 6b 5b 01 3f dd 2d 90 3e
       0.23503278 0.4271668 0.5053012 0.2815999
000040 07 69 99 bd ae a7 04 3f 1e bc b7 3e 5d 41 e8 3e
       -0.074907355 0.5181836 0.3588571 0.45362368
000050 12 60 b9 3e a7 9c ae 3e 7c 24 bf 3e bc 7e e8 3e
       0.36206108 0.3410389 0.37332523 0.4540919
000060 5a d9 f8 3d b1 e9 9e 3e 18 f1 5a 3e 4b e0 e1 3e
       0.121508315 0.31037667 0.21381032 0.44116434
000070 04 4e a2 3e 59 b5 c5 3d 78 c4 9a 3e 80 41 d7 bc
       0.31700146 0.0965373 0.3022802 -0.02627635
000080 97 97 b4 3e 42 65 e2 3e 81 ee e2 3e a1 18 dc 3e
       0.35271904 0.4421788 0.4432259 0.4298754
000090 be 05 c4 3e f1 16 e9 3e 4d 5d f0 3e 58 ff c8 3e
       0.3828563 0.45525315 0.46946183 0.39257312
0000a0 05 60 0a 3f 38 a6 a4 3e ce 97 ae 3e 87 10 58 bd
       0.54052764 0.32158065 0.34100193 -0.052750137
0000b0 32 14 d2 3e 8a c1 cf 3e e4 30 06 3f 28 cd d4 3e
       0.41031033 0.40577346 0.5241835 0.41562772
0000c0 aa 5b 42 bd 61 ea 83 bd 5f e4 c1 3d 9a 62 00 3f
       -0.0474507 -0.064411886 0.094673865 0.50150454
0000d0 63 54 0a be db 09 ae 3e a1 77 82 3e 48 a5 b7 3e
       -0.13508753 0.33991894 0.25481895 0.35868287
0000e0 3a ea 98 be 0f 1e 20 bb 93 37 cb 3e 2e 4d bc 3e
       -0.298662 -0.0024431979 0.39690837 0.36777633
0000f0 31 13 aa 3d 36 30 e2 3e b2 1f c8 3e e8 19 ad 3e
       0.08304442 0.44177407 0.39086682 0.33808827

output.weight f4 [4, 64]
000000 54 a3 a1 3b 27 47 0d 3e dd 07 f5 3d dc 57 31 3e
       0.0049328003 0.13796674 0.119643904 0.17318672
000010 88 90 14 3e 2f 5b 3a 3e 47 e4 01 3e 75 cb e0 3d
       0.1450826 0.18198846 0.12684737 0.10976306
000020 f4 2e 00 3e b8 59 12 3e 33 bb 31 3e 6a d4 03 3e
       0.12517911 0.14292037 0.17356567 0.12873998
000030 29 66 e7 3d ae 3b 76 3e 91 4f 18 3e 2e 46 d2 3d
       0.112987824 0.24046203 0.14874102 0.10267292
000040 cf 03 6f bd 0a 1d 0d 3e c6 82 f6 3d ec c4 25 3e
       -0.05835324 0.13780609 0.12036662 0.16188401
000050 a6 6d 09 3e 29 4d 1e 3e 47 3e 20 3e 17 44 01 3e
       0.13420734 0.15459122 0.15648757 0.1262363
000060 04 0e bc bd 1e e0 0e 3e a7 cb d7 3e 33 41 58 3e
       -0.09182361 0.13952681 0.42147562 0.21118622
000070 cd cd 21 3e d8 af 56 3e e0 3a 16 3e 56 30 42 bd
       0.15801163 0.20965517 0.14670897 -0.047409378
000080 24 5e 10 3e 7c 3a 13 3e 7b 79 16 3e 12 c4 34 3e
       0.14098412 0.14377779 0.14694779 0.1765292
000090 6a 4f 09 3e 4d 68 72 3e 0d 64 41 3e 1c 0d da 3d
       0.134092 0.236726 0.18885823 0.10647032
0000a0 53 74 55 3e 39 f2 15 3e e4 a6 0f 3e 92 bd 58 bc
       0.20845155 0.14643182 0.14028507 -0.013228791
0000b0 a4 d4 15 3e d2 bc ec 3d 37 ea 07 3e 36 f9 15 3e
       0.14631897 0.11559452 0.1327294 0.14645848
0000c0 2b 8d 7c bd 49 88 64 3c 26 58 f2 3e 02 1d 7e 3e
       -0.061658066 0.013948509 0.47332877 0.24815753
0000d0 e8 db 4b bd 55 fc fb 3d 68 12 b2 3e 84 8a 01 3e
       -0.049770266 0.12303988 0.34779668 0.12650496
0000e0 16 71 ea bd cf 5a 8d 3e 66 fc 19 3e e7 81 72 3e
       -0.11447351 0.27608344 0.15037689 0.23682366
0000f0 fd 6d 8c 3e b8 90 2e 3e 7e 4f ee 3d 28 06 02 3e
       0.27427664 0.17047393 0.11636256 0.12697661
000100 e5 04 80 3d d7 dc 16 3e b9 94 ad bd d1 aa 56 3e
       0.062509336 0.14732681 -0.08475632 0.20963599
000110 13 40 23 3e 76 6f 16 3e 1e a8 c0 3d 1f ca e0 3d
       0.15942411 0.14690956 0.09407066 0.109760515
000120 ff 47 27 3e e4 57 03 3e e2 e3 e3 3d 9c d8 05 3e
       0.16336058 0.12826496 0.111274496 0.13070911
000130 48 01 e6 3d 68 63 38 3e 5a ad 2a 3e 34 ca 02 3e
       0.11230713 0.1800667 0.16667691 0.12772447
000140 86 77 cb 3d 7b 09 37 3e 4f aa 07 3e ab cb 0d 3e
       0.09934907 0.1787471 0.13248561 0.13847224
000150 be 00 06 3e b3 e3 00 3e 5f 5f db 3d 80 64 18 3e
       0.1308622 0.1258686 0.1071155 0.14882088
000160 10 e3 e7 3d fc 0e 1e 3e fc 4d c2 3e 8f 8d 5f 3e
       0.113226056 0.15435404 0.37950122 0.21831344
000170 92 7f 18 3e c8 df 2a 3e 7d 45 36 3e f4 92 b0 bd
       0.14892414 0.16686928 0.17799945 -0.08621779
000180 7a 86 1e 3e 37 0d 09 3e a7 49 11 3e 94 94 01 3e
       0.15480986 0.13383947 0.14188252 0.12654334
000190 e5 73 02 3e 70 44 6a 3e 63 5d 66 3e 8a a5 dc 3d
       0.12739523 0.2287767 0.22496562 0.107737616
0001a0 98 f6 1d 3e cf b4 f5 3d c6 6f 2f 3e 41 63 aa bd
       0.154261 0.11997377 0.17132482 -0.083197124
0001b0 fe a4 09 3e 1d 99 19 3e 00 b8 42 3e ab ed 05 3e
       0.13441846 0.14999814 0.19015503 0.13078944
0001c0 4d 3d 83 bd 49 5c b1 bd 2a 9a b6 3e 7f 14 81 3e
       -0.064081766 -0.0866018 0.35664493 0.2521095
0001d0 d5 92 48 bd 0b 7d ef 3d da 37 a8 3e 10 af 08 3e
       -0.048968155 0.11693772 0.3285511 0.13348031
0001e0 75 9f 42 be c1 22 9c 3d fd 60 08 3e db 37 98 3e
       -0.1900614 0.07623816 0.13318248 0.29730114
0001f0 01 1c 4b 3c 8f a1 31 3e 96 ef 18 3e 2c b8 fa 3d
       0.012396813 0.17346786 0.14935145 0.12242159
000200 0b f8 88 bd 5f d1 03 3e 75 2b a3 3d 72 07 48 3e
       -0.066879354 0.12872837 0.07967273 0.1953409
000210 08 b5 35 3e ce 9a 6e 3e ab d0 c6 3d 04 15 f7 3d
       0.17744839 0.23301241 0.09707769 0.12064555
000220 88 bb 0c 3e 39 f8 e6 3d 7a fe 2c 3e 3a 5e 0c 3e
       0.13743412 0.112778135 0.1689395 0.1370782
000230 32 92 21 3e 54 f4 89 3e af ca 18 3e 02 dd f5 3d
       0.15778425 0.2694422 0.14921068 0.120050445
000240 bb 90 b6 bd 32 6e 23 3e 7f 92 0e 3e ca c2 21 3e
       -0.08914324 0.15960005 0.13923071 0.15796962
000250 2a b0 a8 3d 49 39 0a 3e 1b 94 f9 3d 19 a1 e8 3d
       0.08236726 0.13498415 0.12186452 0.11358852
000260 3d 66 2d ba 2f 6b 0d 3e dd 56 59 3c 1d 89 ba 3d
       -0.0006614661 0.13810419 0.013265339 0.091081835
000270 b9 a6 e3 3d a1 06 55 3e 9b a5 2f 3e 0d e5 a5 3b
       0.11115784 0.2080331 0.17153017 0.0050627054
000280 eb 81 29 3e e6 38 e1 3d 40 d2 3a 3e 50 a7 40 3e
       0.16553466 0.10997181 0.18244267 0.18813825
000290 9a 80 10 3e c7 48 37 3e 7e 6e 64 3e 13 d2 03 3e
       0.14111558 0.17898856 0.22307774 0.12873106
0002a0 e6 7e 1b 3e 75 93 10 3e 8f 9e 2c 3e 1e dd ed bd
       0.15185127 0.1411875 0.1685736 -0.116144404
0002b0 a5 aa 1e 3e 45 e0 0c 3e 79 fb 01 3e f2 b3 d7 3d
       0.15494783 0.13757427 0.12693585 0.10532369
0002c0 6b c7 73 bb cf 2e 9d bd 1d e0 c9 3b ac d8 54 3e
       -0.003719772 -0.07674944 0.0061607496 0.20785779
0002d0 c9 42 b4 bd 9d f8 e8 3d b9 91 d8 3e 31 96 1f 3e
       -0.08801801 0.11375544 0.42298678 0.15584637
0002e0 7f 7d 2b bd f8 6e f6 3d 1e 5c 12 3e 25 7f 69 3e
       -0.04186773 0.12032884 0.14292952 0.22802408
0002f0 30 5e de 3d 76 8f 4d 3e ba 90 cc 3d 71 2e f4 3d
       0.108578086 0.20074257 0.09988542 0.119229205
000300 a4 ef 12 bc b2 6c 22 3e c6 25 ba 3d 63 f8 22 3e
       -0.008968268 0.15861776 0.09089236 0.15915065
000310 d2 46 35 3e c0 11 07 3e b1 6a 03 3e 5a ba eb 3d
       0.17702797 0.13190365 0.12833668 0.11510153
000320 38 f5 19 3e 43 39 1a 3e 3e 32 1f 3e d6 6c ea 3d
       0.1503495 0.15060906 0.1554651 0.1144654
000330 3c 08 d6 3d 79 f8 5e 3e 2b 47 22 3e f0 a0 ea 3d
       0.10450789 0.21774472 0.15847461 0.11456478
000340 28 7a b9 bb 80 e1 26 3e 51 d8 03 3e 50 0d 25 3e
       -0.005660314 0.16296959 0.12875487 0.1611836
000350 ff 4d 3e 3e c6 26 19 3e 44 e8 18 3e a0 f5 10 3e
       0.1858444 0.14956197 0.14932352 0.14156199
000360 09 02 14 3e 17 43 22 3e 5f 2b fd 3e e4 52 8c 3e
       0.14453901 0.15845905 0.49447152 0.2740699
000370 47 7b 3f 3e f8 09 0c 3e f4 f1 f3 3d 0f d5 f3 3b
       0.1869937 0.13675678 0.11911383 0.00744117
000380 a3 3e 28 3e 43 ce 1c 3e 29 3e fd 3d c3 bd 0b 3e
       0.16430144 0.15313058 0.12365372 0.13646607
000390 d5 53 00 3e ac 2d 6c 3e 20 6b 51 3e c7 1f ef 3d
       0.1253198 0.23064297 0.20451021 0.11675983
0003a0 ea d0 61 3e 4a 4b f5 3d c8 2d 1e 3e c1 9c 49 bd
       0.2205235 0.11977251 0.15447152 -0.049221758
0003b0 ee 2c 01 3e 4e be 02 3e d2 a5 29 3e ff a7 14 3e
       0.12614796 0.12767908 0.16567162 0.1451721
0003c0 a0 bf 49 3d 4e fe 23 3d bf 82 2c 3e ed fe 5e 3e
       0.049255013 0.040037446 0.1684675 0.21776934
0003d0 25 0c d8 3d 9c 74 0b 3e 25 c7 4e bd 49 8c fd 3d
       0.105491914 0.13618702 -0.050482888 0.12380273
0003e0 c4 ef 80 be ae 9c 7d bd 9c 94 05 3e 6a 5f 81 3e
       -0.25182927 -0.061917 0.13044971 0.25268108
0003f0 40 fe 55 3d 5f 4d 0a 3e 20 9d 2a 3e 43 61 de 3d
       0.052244425 0.13506077 0.16661501 0.10858395

output.bias f4 [4]
000000 e3 73 bd 3f 89 ec c0 3f 99 00 c9 3f ed 39 c2 3f
       1.4800991 1.5072185 1.5703307 1.5173928

exp_avg f4 [64, 37]
000000 b2 ee dd b9 79 78 a4 39 ba 85 1d b8 24 cf 78 b8
       -0.00042330247 0.00031370277 -3.755626e-05 -5.9320722e-05
000010 4a b7 c0 b8 7d d5 d6 b5 5e 5e a7 38 68 76 a3 b9
       -9.189414e-05 -1.6006376e-06 7.980758e-05 -0.00031178002
000020 1e 4d e3 37 16 d9 84 38 88 d1 f6 b7 27 be 07 39
       2.709642e-05 6.334686e-05 -2.9423056e-05 0.0001294544
000030 0b 42 82 b9 04 86 73 b8 e4 20 8b 37 8f 8a 27 b9
       -0.00024844738 -5.8060526e-05 1.6585407e-05 -0.00015977978
000040 c0 d3 05 39 7c 58 02 b9 7a c9 51 b8 7e 07 e2 b8
       0.00012762751 -0.00012430729 -5.0017123e-05 -0.00010777915
000050 85 5e 6e 39 88 16 4f b9 ae 6f 63 b9 a0 cf a2 b7
       0.0002273266 -0.00019749452 -0.00021690011 -1.9408588e-05
000060 86 c3 ce b7 c2 17 2e ba 8d 44 a7 39 18 92 9d 38
       -2.4648161e-05 -0.00066411134 0.00031903796 7.5135555e-05
000070 7d 16 85 38 7f 31 1e 39 b9 c4 61 38 b1 62 88 b9
       6.346123e-05 0.00015086493 5.3827393e-05 -0.00026013472
000080 a0 55 d3 b8 c1 fa d2 38 2e 42 32 b9 02 f4 90 3a
       -0.00010077213 0.00010060287 -0.00017000057 0.0011059048
000090 23 b2 a9 38 55 1b 22 39 91 b0 71 39 40 5a 61 b9
       8.0917285e-05 0.00015459706 0.00023049327 -0.00021491293
0000a0 d9 f5 d1 38 5f 23 8f 38 84 88 0f 3a 69 7a c2 b7
       0.00010011689 6.82536e-05 0.00054753595 -2.3183604e-05
0000b0 bd f3 3c 38 91 d1 9c b9 a4 de 09 38 7b e8 1b ba
       4.5049692e-05 -0.00029910778 3.2870696e-05 -0.0005947423
0000c0 27 b7 a2 39 3c 7b 09 37 1f 42 0f 3a 18 1f 2c b9
       0.00031035507 8.194529e-06 0.000546487 -0.00016414782
0000d0 bb 24 e6 b9 5e 94 bb 39 75 c7 88 39 c0 fc bd 38
       -0.00043896385 0.00035777962 0.00026088548 9.059301e-05
0000e0 4d 7b 95 39 72 e9 c1 b8 d4 9e 58 b8 f8 4e 8d 39
       0.0002851136 -9.24644e-05 -5.1646333e-05 0.00026952452
0000f0 14 eb 17 39 62 17 f4 b5 dd 0b 91 b9 98 5f 41 38
       0.00014488056 -1.8186222e-06 -0.00027665394 4.6103814e-05
000100 ef 86 c8 39 15 3d f8 38 1b b1 8e 38 81 e6 eb 39
       0.00038247506 0.00011836939 6.804076e-05 0.00044994432
000110 90 a1 85 39 56 dd 7f b9 35 c6 47 b9 28 ad b7 38
       0.0002548811 -0.00024401149 -0.00019051957 8.758373e-05
000120 8f 21 c2 b8 54 97 8e bb f8 89 14 b9 dc 74 36 39
       -9.256892e-05 -0.004351536 -0.00014165777 0.00017400406
000130 f2 da 35 ba f9 33 66 38 0f 87 08 ba 3d 79 62 39
       -0.00069372274 5.4884677e-05 -0.00052081136 0.00021598204
000140 83 24 2d b9 bc d9 fc b9 2e 95 37 b9 f7 5b 8c b9
       -0.00016512167 -0.0004822741 -0.00017507814 -0.000267714
000150 35 1f 1c b9 12 9e 71 38 30 85 29 ba 83 d8 09 39
       -0.00014888945 5.7606092e-05 -0.0006466685 0.00013145995
000160 b4 b7 d6 b9 66 d0 a4 b9 6a 1c f1 37 1e 4c 62 37
       -0.0004095413 -0.00031435787 2.874267e-05 1.3488372e-05
000170 b8 4d af b9 8c 24 23 b8 45 8e af b8 e5 e7 cc 37
       -0.00033436506 -3.8896265e-05 -8.37115e-05 2.442668e-05
000180 16 2d 19 ba 36 aa 1b 38 c0 b2 ad b9 cb 16 d4 37
       -0.0005843205 3.71134e-05 -0.0003313031 2.5282983e-05
000190 f7 5f f8 38 78 bd b7 b9 e7 95 d1 b9 3d 90 2e b9
       0.000118434364 -0.00035045645 -0.00039975272 -0.00016647666
0001a0 67 0d 4e 38 42 d1 9a b8 4a d0 24 ba f9 c9 44 38
       4.912671e-05 -7.3822695e-05 -0.0006287141 4.6918143e-05
0001b0 61 62 b6 b9 c6 f2 5e 39 c5 0d a7 ba 7d f5 e4 ba
       -0.00034787043 0.0002126201 -0.0012745193 -0.0017468181
0001c0 86 8c 11 3a b6 7b 9c b8 cc 68 20 3a 38 72 a9 ba
       0.00055522507 -7.4617026e-05 0.00061191316 -0.0012927717
0001d0 3d d9 1a 3b cd d7 b2 39 09 6d ed ba f3 bd ca ba
       0.002362802 0.0003411159 -0.001811416 -0.0015467986
0001e0 98 fc 7d 39 fe 0c 62 bb b3 7f 90 3b 6c 86 e2 37
       0.00024222059 -0.0034492607 0.004409754 2.7003895e-05
0001f0 7d 31 d7 ba 14 21 29 3a dc 19 a3 3a 90 0f 3e bb
       -0.0016417947 0.00064517674 0.001244362 -0.0029000975
000200 6c 64 cf 3a 70 43 18 ba 6d a7 f5 b8 8d de d9 ba
       0.0015822775 -0.0005808389 -0.00011713696 -0.0016622111
000210 04 00 00 00 10 4b 06 3a f6 ec 01 3a e2 29 80 b9
       6e-45 0.00051228795 0.00049562694 -0.00024445268
000220 05 37 04 3b 92 53 ae ba d4 19 34 ba 32 a0 2b ba
       0.0020174396 -0.0013300052 -0.0006870304 -0.0006547003
000230 c1 41 8c 39 9c 74 4b b8 c9 ba 97 b9 24 2c ea b9
       0.0002675187 -4.8507573e-05 -0.0002894013 -0.00044664845
000240 89 96 08 39 ce b4 79 ba 6b de 54 bb 72 d9 fc 3b
       0.0001302605 -0.0009525538 -0.0032481204 0.007716351
000250 fa 67 89 ba fc 19 92 ba 77 34 97 ba 8e db dc b9
       -0.0010483258 -0.001114666 -0.0011536021 -0.0004212525
000260 ee ff 93 ba 8b 53 2e bb 6a 39 d2 b9 33 16 15 b4
       -0.0011291483 -0.0026600088 -0.00040097098 -1.3884782e-07
000270 6b 66 31 ba a6 05 33 b9 58 17 1d b9 de c2 a6 ba
       -0.00067672756 -0.00017072874 -0.00014981383 -0.001272287
000280 c2 b6 60 ba 25 2c bf ba 70 94 eb b9 7a 67 ab ba
       -0.0008572155 -0.00145853 -0.00044933287 -0.0013077103
000290 19 07 3a ba 1c 49 8d ba 5e 72 28 ba 20 8d 91 ba
       -0.00070963945 -0.0010779235 -0.00064257334 -0.0011104681
0002a0 57 68 0a bb 23 82 9c ba 51 32 04 b9 cc 50 a0 b9
       -0.002111932 -0.0011940639 -0.00012607245 -0.00030577776
0002b0 18 13 5f ba c8 4a 39 bb c4 23 f3 b8 5e 93 3a ba
       -0.000850962 -0.0028273333 -0.00011593805 -0.00071172963
0002c0 78 bd ad b8 92 69 a6 b9 d7 96 54 bb c8 4b 8b b9
       -8.284574e-05 -0.00031740643 -0.003243854 -0.00026568607
0002d0 75 e2 2b ba 2b 12 e0 39 4b b9 75 ba c1 da 3b ba
       -0.0006556877 0.00042738146 -0.0009373619 -0.0007166081
0002e0 1b 6d ae bc c2 08 8c 38 62 cc 6a b8 0f bc 0a 38
       -0.02129226 6.6773515e-05 -5.5980294e-05 3.3076907e-05
0002f0 d4 82 25 38 7b 80 62 38 7a 0c 0d b9 f2 55 a3 b8
       3.946091e-05 5.4002256e-05 -0.00013451456 -7.788454e-05
000300 df af 4e 39 27 d1 ce 38 5c 38 ee b8 8b bd 99 36
       0.00019711208 9.861803e-05 -0.00011359222 4.581821e-06
000310 f3 0f 60 38 c9 18 48 b8 90 2a 99 38 d3 c1 b4 b8
       5.3420616e-05 -4.77068e-05 7.3035364e-05 -8.6191714e-05
000320 0e 51 ad b8 a4 08 33 b8 96 55 92 38 e6 a0 11 39
       -8.2643804e-05 -4.2684973e-05 6.977764e-05 0.00013888217
000330 67 73 b3 b8 19 3e 74 37 2e 6a 81 39 e6 3d 17 b9
       -8.5568805e-05 1.4557992e-05 0.00024683907 -0.00014423541
000340 60 e5 0d b8 03 ef d2 38 76 35 0a 39 13 4d 5f 36
       -3.383064e-05 0.000100581 0.00013180621 3.3274453e-06
000350 57 1f a6 38 56 61 09 b9 52 a0 7b 38 3e ad d3 38
       7.921334e-05 -0.00013101599 5.9992373e-05 0.00010093533
000360 bf c1 15 39 19 73 dd b8 3f f7 65 b8 61 1b b3 38
       0.00014281923 -0.0001055954 -5.482812e-05 8.540485e-05
000370 c3 5f c5 b9 19 34 0e ba 34 ef 93 ba 6b f3 eb 3a
       -0.00037646116 -0.0005424633 -0.0011286498 0.0018001621
000380 c8 13 36 b9 49 34 1f 38 46 a6 ca b9 f7 c4 d5 b9
       -0.00017364242 3.795725e-05 -0.00038652326 -0.00040773276
000390 0c 9f b7 3a 35 9e 5e b8 fb f5 d3 b9 50 cc 84 3a
       0.0014009192 -5.3076266e-05 -0.00040428326 0.0010131691
0003a0 21 a3 a5 3a 97 39 10 b9 dc 8c ee b8 02 df f9 b9
       0.0012637117 -0.00013754364 -0.000113749615 -0.00047659135
0003b0 55 6c 3e 3a e9 38 43 b9 04 e2 a7 3a f5 54 b7 39
       0.00072640675 -0.0001861785 0.0012808447 0.00034967778
0003c0 87 29 6e ba c7 fb 16 39 16 15 8b 3a 7a fd 63 ba
       -0.00090851675 0.00014398909 0.0010611142 -0.0008697134
0003d0 63 f4 1a 3a aa 54 81 b9 4d 5d c6 b9 9d aa e7 ba
       0.000591105 -0.00024667877 -0.00037835017 -0.0017674748
0003e0 62 a4 1f 3b a8 74 8f b8 c8 b7 86 b8 0f 90 28 3a
       0.0024359454 -6.8405e-05 -6.42385e-05 0.0006430158
0003f0 a8 79 31 3a 6a 5d e9 b9 5a fa 58 39 c5 69 cb 38
       0.00067701424 -0.00044510822 0.00020692628 9.6994954e-05

exp_avg_sq f4 [64, 37]
000000 96 05 9d 36 9d 0d b2 36 af 12 6b 36 1c 77 15 36
       4.679615e-06 5.306398e-06 3.5028604e-06 2.227206e-06
000010 3f 8a 4c 36 49 09 cf 36 ff f3 91 36 2a f6 8d 36
       3.0478839e-06 6.1701617e-06 4.3497416e-06 4.2307847e-06
000020 5b 67 c5 35 f9 ef 40 36 90 36 83 36 73 08 ca 36
       1.4707724e-06 2.8749912e-06 3.910456e-06 6.0210527e-06
000030 73 52 6a 36 83 c3 1e 36 0f e7 3d 36 33 2b c2 36
       3.491671e-06 2.3657637e-06 2.8297688e-06 5.7866796e-06
000040 f8 39 87 36 66 6c 8d 36 84 1b 05 36 21 07 2d 36
       4.030062e-06 4.2147467e-06 1.983456e-06 2.5783158e-06
000050 7d 96 93 36 9a 84 a6 36 1e 5d 72 36 ec 65 4a 36
       4.3984605e-06 4.9626224e-06 3.6115011e-06 3.0159672e-06
000060 36 66 49 36 20 9d b9 36 33 5b 8b 36 49 8e 81 36
       3.0010829e-06 5.5317214e-06 4.15314e-06 3.8610638e-06
000070 a9 57 1a 36 02 3c 47 36 bd fd 9e 36 e7 47 a3 36
       2.2998813e-06 2.968824e-06 4.738306e-06 4.866149e-06
000080 d7 5b 6a 36 8d 3d 3b 36 db ca 3a 36 33 15 8d 37
       3.4922175e-06 2.7900999e-06 2.7834237e-06 1.6818381e-05
000090 88 99 ec 39 f9 8c 45 37 3a b2 08 37 03 91 35 37
       0.00045127817 1.1774938e-05 8.147728e-06 1.0822204e-05
0000a0 0d 21 c1 36 73 c7 a3 36 6a 0c a0 37 05 d1 f4 36
       5.755696e-06 4.8809975e-06 1.9079267e-05 7.2960997e-06
0000b0 4c fc db 36 10 e1 43 36 44 75 3a 36 ff 3c 4f 37
       6.55608e-06 2.9188268e-06 2.7784417e-06 1.2352363e-05
0000c0 0a 2b 8e 37 ab bd ad 35 fd 34 c9 36 7f 07 f7 36
       1.694776e-05 1.2944705e-06 5.9964354e-06 7.3620463e-06
0000d0 e2 d7 b3 37 d5 dd a0 36 19 aa 19 37 85 c2 d4 35
       2.1438991e-05 4.7941962e-06 9.159115e-06 1.5851844e-06
0000e0 db c1 5c 36 1d 0e 9c 36 a6 a4 82 37 6a 87 0b 37
       3.2895393e-06 4.6508053e-06 1.5573878e-05 8.316574e-06
0000f0 59 7a 04 37 b0 76 a6 36 26 1e 66 37 70 66 96 36
       7.896299e-06 4.9610026e-06 1.3716088e-05 4.4822737e-06
000100 dc 6b 2e 37 35 8f ed 36 af 9f 00 36 a2 e4 4f 37
       1.0396321e-05 7.079822e-06 1.9166434e-06 1.2391394e-05
000110 e8 07 5e 37 d6 6a de 36 2a d5 4b 36 be a8 b1 36
       1.3234072e-05 6.628553e-06 3.0373435e-06 5.2946552e-06
000120 77 6f 2b 38 f3 6b 8c 3a df ea 95 36 9d d8 bb 36
       4.0873387e-05 0.0010713324 4.4678886e-06 5.5982514e-06
000130 a8 28 d6 36 ac 6f 69 36 30 4b b0 36 90 57 ab 35
       6.38243e-06 3.4784707e-06 5.2539617e-06 1.2765977e-06
000140 9e e6 02 37 c2 50 c7 36 d3 f9 ae 36 04 92 32 36
       7.802299e-06 5.9400636e-06 5.2146875e-06 2.660906e-06
000150 da 38 8c 36 69 e4 49 37 ad 0d 21 36 71 84 d3 35
       4.1789435e-06 1.20337145e-05 2.399883e-06 1.5759271e-06
000160 91 6e 80 36 c9 6d dd 36 4d b0 9d 36 03 29 d9 36
       3.827569e-06 6.599094e-06 4.6994887e-06 6.4718784e-06
000170 b9 c7 15 36 76 11 a4 36 ca f9 09 36 0e bd 40 37
       2.2318984e-06 4.8896136e-06 2.0559987e-06 1.14881095e-05
000180 7c 72 64 36 85 22 54 36 8b 04 98 36 5a af b6 36
       3.4041286e-06 3.1610555e-06 4.530482e-06 5.4444363e-06
000190 39 ea 04 37 3d bd 67 36 50 5b 6d 36 f1 8a 9b 36
       7.922347e-06 3.4531834e-06 3.5368903e-06 4.635535e-06
0001a0 08 5d fa 35 6e f0 2b 37 9d fd c3 36 83 0e 38 36
       1.8653527e-06 1.0248374e-05 5.8409773e-06 2.7426584e-06
0001b0 87 ed 8e 36 df bb c1 37 5f ae 03 3a 4b c5 87 38
       4.2595816e-06 2.3094877e-05 0.0005023237 6.47405e-05
0001c0 17 50 03 39 f9 5f 2a 39 e1 f6 77 38 c6 f6 b9 38
       0.0001252297 0.00016248216 5.9119313e-05 8.8674526e-05
0001d0 4e 64 e0 38 c6 8a 9c 38 af 42 01 39 fa 31 d1 38
       0.000106998355 7.464508e-05 0.0001232724 9.9752055e-05
0001e0 f6 bd 93 38 20 c3 83 39 57 d5 81 38 49 52 64 38
       7.044889e-05 0.00025131647 6.190937e-05 5.443607e-05
0001f0 84 1e 37 38 af d5 b0 37 f7 10 a9 38 00 8e ea 38
       4.365902e-05 2.108034e-05 8.061708e-05 0.00011184439
000200 fa 85 04 39 e4 9c cf 38 89 07 8e 38 f8 61 bb 39
       0.00012638411 9.899752e-05 6.772491e-05 0.00035740412
000210 20 9a 02 30 3f cd 3f 37 59 1f 16 38 95 29 26 37
       4.751275e-10 1.1432275e-05 3.579198e-05 9.904053e-06
000220 9b ff d8 38 07 2d ac 38 02 74 d5 38 37 02 f5 38
       0.00010347293 8.209986e-05 0.000101782396 0.00011682923
000230 b1 22 8b 38 d0 4e 03 39 cc b9 a7 38 f4 53 1e 39
       6.634498e-05 0.00012522493 7.997788e-05 0.00015099329
000240 bb e3 54 38 ed 4e cb 38 7b 0c c0 39 2c 11 19 3c
       5.075683e-05 9.6944954e-05 0.00036630392 0.009342473
000250 3a 56 3d 38 f3 9c 0b 38 e6 98 08 38 73 01 78 37
       4.5141416e-05 3.3286353e-05 3.2567325e-05 1.4782289e-05
000260 e8 d0 c7 37 29 a7 dd 38 c9 20 3e 37 07 de 09 33
       2.3819928e-05 0.00010569237 1.1332516e-05 3.209973e-08
000270 a2 c8 2a 37 2a 1d 48 36 93 8a fc 37 8b 0c 49 38
       1.0179503e-05 2.9819298e-06 3.010527e-05 4.7933816e-05
000280 46 a4 d6 37 53 f5 be 37 0f 15 c4 37 d4 66 2b 38
       2.5587284e-05 2.2764003e-05 2.3374827e-05 4.0865343e-05
000290 f3 ad eb 37 00 ea 3b 38 41 6a 55 37 ed 89 a2 37
       2.8095184e-05 4.4802204e-05 1.27205285e-05 1.9376132e-05
0002a0 58 7f 2b 38 81 cc 30 38 1c 33 ee 37 ab 6b 94 37
       4.0888175e-05 4.215213e-05 2.839561e-05 1.7693112e-05
0002b0 36 70 c5 37 d3 a6 be 38 1f 95 c2 36 21 ad b2 37
       2.3536482e-05 9.0909794e-05 5.7990105e-06 2.1299873e-05
0002c0 0f c2 17 37 58 a2 f7 36 4a 82 61 38 81 40 13 38
       9.045484e-06 7.380073e-06 5.376552e-05 3.5107605e-05
0002d0 0f 3f b8 37 d6 b0 78 37 a8 70 96 37 4e b7 0a 39
       2.1963873e-05 1.4823125e-05 1.7933853e-05 0.00013228992
0002e0 8e 24 9a 3b 19 f2 cc 36 46 14 0e 37 f5 3e ce 36
       0.0047040647 6.1078576e-06 8.46858e-06 6.1466076e-06
0002f0 2f 0f 33 36 b2 0e ab 36 85 9f 38 37 6e 93 bb 36
       2.6681917e-06 5.097908e-06 1.1004396e-05 5.5901974e-06
000300 1c 06 b8 36 91 c3 41 36 11 b6 89 36 23 2c cd 36
       5.4843385e-06 2.8873076e-06 4.1041135e-06 6.1146143e-06
000310 cd e7 0c 37 9a 54 c0 36 6a 76 82 36 77 e2 9f 36
       8.398621e-06 5.731895e-06 3.888087e-06 4.7649332e-06
000320 fd a4 f5 36 72 f3 e5 36 9f 07 fc 36 be f2 3f 36
       7.320776e-06 6.8530726e-06 7.5110725e-06 2.8602512e-06
000330 45 77 92 36 8d c8 eb 36 f2 d8 ee 36 41 2e c1 36
       4.365024e-06 7.026893e-06 7.1182085e-06 5.757233e-06
000340 db cd 96 36 25 c3 a0 36 c9 5d 08 37 5e f3 d1 36
       4.494313e-06 4.7910894e-06 8.128068e-06 6.257017e-06
000350 8c 1f cb 36 c3 fb 63 36 9b 0b a1 36 39 72 1f 37
       6.053544e-06 3.397218e-06 4.799525e-06 9.503733e-06
000360 be b1 d1 36 bc f7 aa 36 27 f4 83 36 78 fd 87 36
       6.2493773e-06 5.095235e-06 3.9325273e-06 4.052821e-06
000370 15 b9 e4 37 19 bb 3b 3a 99 22 45 38 00 19 ed 37
       2.7265904e-05 0.00071613636 4.700068e-05 2.8264243e-05
000380 b9 c6 92 37 35 63 22 37 28 cf 74 37 5a e1 87 38
       1.7497094e-05 9.679051e-06 1.4591766e-05 6.4792766e-05
000390 85 75 c3 37 cc 9a 55 37 8b 6b 8d 36 6a cd 92 37
       2.3300536e-05 1.2731831e-05 4.214647e-06 1.750021e-05
0003a0 68 a3 12 38 ef 4c 0f 38 88 8b a4 37 05 7b 8b 37
       3.4961296e-05 3.4165507e-05 1.9615298e-05 1.6627377e-05
0003b0 81 cf b8 37 1f c9 2d 38 a5 58 ea 37 ba c6 d3 37
       2.2031136e-05 4.1433723e-05 2.7936252e-05 2.52457e-05
0003c0 39 6b 25 37 59 88 80 37 6b 9d 2c 38 d2 63 d4 37
       9.859731e-06 1.532228e-05 4.1154603e-05 2.5318852e-05
0003d0 f5 03 c4 37 0c f0 53 37 f5 a5 7a 37 e8 a8 82 38
       2.3366863e-05 1.263247e-05 1.4939801e-05 6.230344e-05
0003e0 02 98 d1 37 b7 24 fa 36 9c e0 18 37 4c ab 55 37
       2.4985526e-05 7.4548548e-06 9.112202e-06 1.27356725e-05
0003f0 08 2b c0 38 04 b9 26 37 e7 47 96 36 59 3c 56 35
       9.1632886e-05 9.937448e-06 4.478719e-06 7.980903e-07

exp_avg f4 [64]
000000 a8 81 58 b9 49 b6 8d 39 fa fc 1e ba 1a 85 2b ba
       -0.00020647666 0.0002702943 -0.0006064918 -0.0006542966
000010 a8 f6 74 bb 00 c2 ae 38 be 76 0c 3a e7 dc c7 38
       -0.0037378464 8.333102e-05 0.000535827 9.530206e-05
000020 79 02 a3 ba 1e 2c d1 38 6f 5f 94 38 c6 0c f2 b9
       -0.001243665 9.974114e-05 7.074966e-05 -0.00046167354
000030 81 94 57 3a 24 85 59 3a 03 85 b5 3a 86 c1 87 39
       0.0008223728 0.00082977326 0.0013848845 0.00025893393
000040 31 a4 be 39 6e 1a 18 3a 95 7f 04 3a b5 6d 2b 3a
       0.00036361956 0.0005802278 0.00050544116 0.000653948
000050 2b d8 85 39 95 3f 54 3a c4 e5 82 39 ae 3a a5 3a
       0.00025528795 0.00080966327 0.0002496672 0.0012605989
000060 50 d0 5e b8 05 96 5d 3a 4e c0 58 ba ef e8 e0 3b
       -5.312293e-05 0.00084528356 -0.0008268402 0.0068637053
000070 70 5a 0b 39 d2 b7 0b b9 80 84 36 3b b3 09 f1 b9
       0.00013289764 -0.00013324551 0.0027849972 -0.00045974329
000080 57 06 11 3a 9c bf 18 3a 86 f8 4d 39 fe fd 90 ba
       0.0005532256 0.0005826892 0.00019642906 -0.0011062024
000090 03 2b 8a 39 d3 e4 07 3a 1a 10 ed b9 8f b4 ae b9
       0.00026353457 0.0005183939 -0.0004521616 -0.00033322393
0000a0 d2 a4 80 3a 76 e8 49 39 4b 5a 4d 39 96 f5 68 3a
       0.0009814745 0.00019255452 0.0001958396 0.0008886693
0000b0 84 b7 ab 3a 75 02 90 ba f5 e5 3a 3b 96 ca 71 bc
       0.0013100957 -0.001098706 0.0028518413 -0.014757773
0000c0 08 6c 54 ba fc f3 3d ba f7 77 f6 b9 88 15 01 3a
       -0.0008103256 -0.00072461343 -0.00047010157 0.0004924168
0000d0 77 d8 51 bb e0 46 9e 3a aa 0f bc 39 8f 1a 40 ba
       -0.0032019892 0.0012075566 0.00035869825 -0.0007328176
0000e0 dd 24 41 ba 3b 7a 95 3b ff c7 94 b9 d0 2d 0b 3a
       -0.0007367859 0.00456169 -0.00028377768 0.0005309256
0000f0 b2 2c 2f ba 2d e1 8e bc 4e 25 01 ba a4 14 9b 39
       -0.00066823803 -0.017441357 -0.00049265183 0.00029579282

exp_avg_sq f4 [64]
000000 21 4a 87 37 d0 54 17 38 f6 66 b4 37 80 60 d4 39
       1.6127773e-05 3.6080193e-05 2.1505617e-05 0.0004050769
000010 bc 47 04 39 01 0b cc 37 22 3e dc 38 c1 63 ab 37
       0.00012615224 2.432382e-05 0.000105019906 2.043124e-05
000020 d2 c6 3f 38 cb 97 c4 37 d8 5a 39 37 8a 71 aa 37
       4.5723114e-05 2.3435705e-05 1.10480105e-05 2.031845e-05
000030 93 5f 92 37 e9 72 c5 37 d9 ba 5f 38 88 6f 53 39
       1.7449061e-05 2.353774e-05 5.334136e-05 0.00020164077
000040 ec ba f4 37 29 8c 05 38 4a 7f d1 37 1b 17 d4 37
       2.9174109e-05 3.1840205e-05 2.4974015e-05 2.5283129e-05
000050 e2 04 f5 37 a3 99 4e 38 ee 6d 4f 37 0a 53 b3 38
       2.920855e-05 4.9257313e-05 1.23637565e-05 8.550852e-05
000060 51 64 70 37 e8 70 24 38 be 5c 5a 37 77 bf 93 3a
       1.43284715e-05 3.92058e-05 1.3015406e-05 0.0011272271
000070 ea cf 89 37 7f 12 6b 38 04 78 48 38 2f bd 64 37
       1.642849e-05 5.6045592e-05 4.779549e-05 1.3633907e-05
000080 dc cc 5b 38 71 d7 d2 37 fc 3a dc 37 e5 3e da 37
       5.240446e-05 2.5134274e-05 2.625351e-05 2.6016913e-05
000090 27 bd 8d 37 3c 32 f2 37 42 53 ce 3a fc 2a 31 39
       1.689659e-05 2.887204e-05 0.0015741365 0.00016896048
0000a0 2f 73 2c 39 38 22 f7 39 4e a6 15 38 48 e5 d2 37
       0.00016446107 0.00047137006 3.567925e-05 2.5140718e-05
0000b0 70 77 4f 38 49 79 e1 38 5c 07 12 3a d7 b8 1e 3b
       4.946388e-05 0.00010751427 0.00055705546 0.002421906
0000c0 0f c3 7e 37 4a 89 1c 38 6f f4 7d 37 27 cf 20 39
       1.5184995e-05 3.732116e-05 1.5136887e-05 0.0001533596
0000d0 d1 a7 5f 39 5f 38 e1 38 8a 87 0a 38 51 63 6b 38
       0.00021329454 0.00010739336 3.3027995e-05 5.612086e-05
0000e0 4d 18 21 38 69 a1 80 39 85 a8 a9 37 c3 c6 0a 38
       3.8408023e-05 0.00024534322 2.0224843e-05 3.3086875e-05
0000f0 63 3b 94 39 eb 84 0c 3b 04 90 d1 38 b2 bd a6 37
       0.00028273006 0.002144153 9.9927216e-05 1.9877076e-05

exp_avg f4 [64, 64]
000000 04 00 00 00 04 00 00 00 04 00 00 00 04 00 00 00
       6e-45 6e-45 6e-45 6e-45
000010 04 00 00 00 04 00 00 00 04 00 00 00 04 00 00 00
       6e-45 6e-45 6e-45 6e-45
000020 04 00 00 00 04 00 00 00 04 00 00 00 04 00 00 00
       6e-45 6e-45 6e-45 6e-45
000030 04 00 00 00 04 00 00 00 04 00 00 00 04 00 00 00
       6e-45 6e-45 6e-45 6e-45
000040 04 00 00 00 04 00 00 00 04 00 00 00 04 00 00 00
       6e-45 6e-45 6e-45 6e-45
000050 04 00 00 00 04 00 00 00 04 00 00 00 00 00 00 00
       6e-45 6e-45 6e-45 0.0
000060 04 00 00 00 04 00 00 00 04 00 00 00 04 00 00 00
       6e-45 6e-45 6e-45 6e-45
000070 04 00 00 00 04 00 00 00 04 00 00 00 04 00 00 00
       6e-45 6e-45 6e-45 6e-45
000080 04 00 00 00 04 00 00 00 04 00 00 00 04 00 00 00
       6e-45 6e-45 6e-45 6e-45
000090 04 00 00 00 04 00 00 00 04 00 00 00 04 00 00 00
       6e-45 6e-45 6e-45 6e-45
0000a0 04 00 00 00 04 00 00 00 04 00 00 00 04 00 00 00
       6e-45 6e-45 6e-45 6e-45
0000b0 04 00 00 00 04 00 00 00 04 00 00 00 04 00 00 00
       6e-45 6e-45 6e-45 6e-45
0000c0 04 00 00 00 04 00 00 00 04 00 00 00 04 00 00 00
       6e-45 6e-45 6e-45 6e-45
0000d0 04 00 00 00 04 00 00 00 04 00 00 00 04 00 00 00
       6e-45 6e-45 6e-45 6e-45
0000e0 04 00 00 00 04 00 00 00 04 00 00 00 04 00 00 00
       6e-45 6e-45 6e-45 6e-45
0000f0 04 00 00 00 04 00 00 00 04 00 00 00 04 00 00 00
       6e-45 6e-45 6e-45 6e-45
000100 55 aa 86 ba ed e6 23 b8 10 03 c2 b9 ff 2c ee b5
       -0.0010274152 -3.9077295e-05 -0.00037004845 -1.7745477e-06
000110 f2 da 3a ba a5 4f 11 ba 56 08 9b 38 8b 93 44 b9
       -0.00071279623 -0.0005543179 7.392529e-05 -0.0001874698
000120 1d 70 34 ba 8f fc 19 ba d7 ce b3 b9 49 41 59 ba
       -0.0006883161 -0.0005874121 -0.00034295648 -0.00082876213
000130 00 09 34 b9 b5 5d 13 ba 82 71 c4 38 ad e0 67 b8
       -0.0001716949 -0.00056215684 9.367151e-05 -5.5283937e-05
000140 c5 ea 8e b9 ec b9 84 b9 6b e1 73 37 6f f5 e3 b8
       -0.00027259268 -0.00025315525 1.4536413e-05 -0.00010869919
000150 0a 7a 22 ba 73 6f 4d 39 ae 9a 2e 38 99 f7 b6 38
       -0.0006197995 0.00019591842 4.162889e-05 8.724555e-05
000160 85 99 4d ba 33 da e8 b9 fd cd 14 ba c7 67 1b 38
       -0.00078430056 -0.0004441306 -0.00056764466 3.705153e-05
000170 74 c9 c0 ba c5 ad b0 39 71 ed 69 b9 33 97 14 b8
       -0.0014708475 0.00033698804 -0.00022309065 -3.5426765e-05
000180 84 57 15 38 64 95 7b b9 ec d9 43 38 ae 02 54 ba
       3.5605874e-05 -0.00023992878 4.669458e-05 -0.00080875575
000190 80 22 50 36 35 47 e6 b9 0d 10 5f b9 d1 9f ea b7
       3.1014497e-06 -0.00043922072 -0.00021272917 -2.7969394e-05
0001a0 72 39 da 38 2e be c9 b8 e7 f2 9d b9 b4 42 cb 38
       0.0001040575 -9.6198506e-05 -0.0003012635 9.692219e-05
0001b0 1e 9c 72 b9 a3 df c0 38 f9 80 af 38 1b c2 43 b9
       -0.00023137077 9.196929e-05 8.368673e-05 -0.00018668959
0001c0 21 cd 3f ba c5 79 12 39 28 35 e8 b8 21 d8 74 b8
       -0.00073166384 0.00013969008 -0.00011072523 -5.837542e-05
0001d0 fb 1e 12 ba 36 4c 51 b9 0f 26 b4 b9 0d fb 02 ba
       -0.00055740745 -0.00019960184 -0.0003436063 -0.0004996516
0001e0 21 72 29 ba 5f fd 02 39 4b d6 61 b9 7c da d6 b9
       -0.0006463845 0.00012492154 -0.00021537502 -0.00040980044
0001f0 df c2 09 b9 18 69 ee b9 35 60 e5 37 af bf 8b b9
       -0.00013137933 -0.00045473198 2.7343727e-05 -0.0002665496
000200 04 00 00 00 04 00 00 00 04 00 00 00 04 00 00 00
       6e-45 6e-45 6e-45 6e-45
000210 04 00 00 00 04 00 00 00 04 00 00 00 04 00 00 00
       6e-45 6e-45 6e-45 6e-45
000220 04 00 00 00 04 00 00 80 04 00 00 00 04 00 00 00
       6e-45 -6e-45 6e-45 6e-45
000230 04 00 00 00 04 00 00 00 04 00 00 00 04 00 00 00
       6e-45 6e-45 6e-45 6e-45
000240 04 00 00 00 04 00 00 00 04 00 00 00 04 00 00 00
       6e-45 6e-45 6e-45 6e-45
000250 04 00 00 00 04 00 00 00 04 00 00 00 04 00 00 00
       6e-45 6e-45 6e-45 6e-45
000260 04 00 00 00 04 00 00 00 04 00 00 00 00 00 00 00
       6e-45 6e-45 6e-45 0.0
000270 04 00 00 00 04 00 00 00 04 00 00 00 04 00 00 00
       6e-45 6e-45 6e-45 6e-45
000280 04 00 00 00 04 00 00 00 04 00 00 00 04 00 00 00
       6e-45 6e-45 6e-45 6e-45
000290 04 00 00 00 04 00 00 00 04 00 00 00 04 00 00 00
       6e-45 6e-45 6e-45 6e-45
0002a0 04 00 00 00 04 00 00 00 04 00 00 00 04 00 00 00
       6e-45 6e-45 6e-45 6e-45
0002b0 04 00 00 00 04 00 00 00 04 00 00 00 04 00 00 00
       6e-45 6e-45 6e-45 6e-45
0002c0 04 00 00 00 04 00 00 00 04 00 00 00 04 00 00 00
       6e-45 6e-45 6e-45 6e-45
0002d0 00 00 00 00 04 00 00 00 04 00 00 00 04 00 00 00
       0.0 6e-45 6e-45 6e-45
0002e0 04 00 00 00 04 00 00 00 04 00 00 00 04 00 00 00
       6e-45 6e-45 6e-45 6e-45
0002f0 04 00 00 00 04 00 00 00 04 00 00 00 04 00 00 00
       6e-45 6e-45 6e-45 6e-45
000300 70 bc 9a ba c7 1a 96 b8 cd 02 cd b9 3d ae 2b b8
       -0.0011805426 -7.157545e-05 -0.00039102734 -4.093185e-05
000310 d6 12 61 ba f0 26 44 ba 3f e1 10 39 8f 62 53 b9
       -0.00085858756 -0.0007482609 0.00013816821 -0.00020159244
000320 f9 ae 45 ba 59 7a 4c ba 7e 4d c7 b9 ea 8d 8b ba
       -0.00075410266 -0.00078002136 -0.00038013974 -0.0010647152
000330 68 78 65 b9 5c c1 21 ba f6 32 e5 38 1b 61 19 b9
       -0.00021883997 -0.00061704754 0.00010929063 -0.00014627392
000340 26 08 84 b9 97 a3 09 ba c3 da 96 38 89 06 bf b9
       -0.00025183073 -0.0005250512 7.193305e-05 -0.00036435228
000350 a9 7f 4b ba 20 1a 87 39 f6 74 b6 38 2c a4 2c 39
       -0.00077628583 0.0002576867 8.700222e-05 0.00016464357
000360 2b d0 60 ba 37 16 0c ba 82 68 1e ba fb fe 79 38
       -0.00085759413 -0.00053438864 -0.00060427946 5.9603695e-05
000370 f2 90 ee ba b5 10 3d 39 9a 6c ac b9 37 58 93 b6
       -0.0018201156 0.00018030668 -0.0003288731 -4.391211e-06
000380 1f a0 ec b8 dd df a0 b9 73 6b 40 b8 ac 10 15 ba
       -0.00011283182 -0.0003068437 -4.5876437e-05 -0.0005686383
000390 ac db 69 b7 20 30 42 ba de 72 54 b9 1b 03 a9 b7
       -1.3939029e-05 -0.0007407684 -0.00020260687 -2.0147816e-05
0003a0 ef 4c e9 38 c9 1f 79 37 05 ed ba b9 73 ab 91 36
       0.00011124636 1.4848957e-05 -0.00035653278 4.341296e-06
0003b0 95 66 4d b9 e7 cc 79 39 81 68 bd 38 20 3e 78 b9
       -0.00019588538 0.00023822823 9.031688e-05 -0.00023674266
0003c0 7d 38 55 ba 98 f4 3b 39 ed d3 03 b9 93 06 5a b7
       -0.00081337226 0.00017924828 -0.00012572082 -1.2995343e-05
0003d0 aa 9f ef b9 0e ce a2 b9 cd 24 d3 b9 c6 0a 12 ba
       -0.0004570459 -0.0003105257 -0.00040272475 -0.00055710634
0003e0 a0 f7 98 b9 72 b5 2a 39 35 3d 0c b9 e4 69 f6 b9
       -0.00029176194 0.00016280057 -0.00013374242 -0.0004699967
0003f0 fa 70 0b b9 68 35 15 ba 5f c6 73 37 ec 45 b1 b9
       -0.0001329816 -0.0005691857 1.4530116e-05 -0.00033812167
