p1_navigation/DQN20190126_v2.pth (torch_old, 66022 bytes, 12 tensors)

hidden_layers.0.weight f4 [64, 37]
00000000: 6114 bb3d c309 90bd 9d3e 833d 6ef8 8c3d
00000010: c2cd 9abc a62e 5abe 0ebd 853d 33e0 173e
00000020: 56a7 ca3d 5787 afbd 4fb9 57bd 9afc 213d
00000030: c97f abbc 9f4e d93d 53c9 ecbd 693c 943d
00000040: 729d 0bbc 72fc ca3d c271 da3c 66be c93d
00000050: 315b 2abe f027 57bd 6884 343d e3ea ce3c
00000060: 8288 593d 45bd 773c 181c ac3d a13f 9c3d
00000070: a476 963a a8d9 d9bd 7e3a 4ebe 6e2e 00bd
00000080: ef1a e23d 0318 18be 0b63 8cbd 6c47 f63c
00000090: d799 1d3c 1593 bcbc aa08 d43c 6fb4 03bd
000000a0: 2c58 94bd 0937 dfbd 0721 a63e 3498 46be
000000b0: fcca 34be f16d c13c 87d4 17bf 43fd 69bd
000000c0: b0ba 57bd 1c3d 17bd f4cb 81bc 91a8 943d
000000d0: 49df 6fbc b385 91bc c69f 363c ab7b 6e3d
000000e0: c11b c63d 0770 7abd ed71 813c 7fd3 12bd
000000f0: 262b bcbd c0f5 fabd ba94 2fbd 88f6 9c3b
00000100: b45c deba 319d 08be 2553 5cbe 1205 a03d
00000110: 5609 ae3d d11c 243d ff57 12be 8ee3 bdbe
00000120: 82c6 adbb 0fe4 113b 6ead 643d 7b86 d6bd
00000130: 5e37 aa3d 0800 623d 204b ccbd 75a8 093e
00000140: 6b21 76bd 1e7e f23b a22d 5cbd 0e60 7dbe
00000150: c3db bfbc 9a39 ae3d 1183 a7bc e2e3 a43d
00000160: d048 153d ae33 58bc 8393 d83d fb49 ecbd
00000170: 0d0a 0dbc 9856 64bd 0e8c cd3d 68a1 993d
00000180: a8fb 7e3d e6a3 b8bd 623a c0bd 025a 43bd
00000190: 6166 75bd d038 593d 0107 01bc f90e 8d3d
000001a0: ac05 3b3d f03b e4bc cad6 66bd 1cf1 09bd
000001b0: ada9 81bb 291c dabc 4ddd 65ba 89f8 13be
000001c0: 09c6 b8bd d12d 743d 9762 3ebd 295d 68bd
000001d0: 5d23 913b a7d7 bbbd 3a9c e73c 043f 3dbd
000001e0: c940 a0bd 1e8d e8bc 0988 1ebd 8d92 8b3c
000001f0: aabf 3bbd 9e93 efbd 452e c7bd 0103 65bd
00000200: 2856 103e db17 043d 3991 0fbe 6e64 2ebe
00000210: 28f3 efbb 16a5 09be 3edf 31bd 0d78 cabd
00000220: cb0d 6c3d 3887 85bd 3e0b 2e3e 134b 723d
00000230: cced 0ebe a18b e2bd f44c 823d 88fe f33d
00000240: eaf8 373d e334 fabb a5b4 9ebd 232b 753c
00000250: 3b31 773d 59b1 efbc 92f5 d03d 0c98 01be
00000260: 38db b5bd cf75 a2bc a646 aebd cfd6 fe3d
00000270: be36 af3d 9594 aabd 1002 0bbe 2ebf e1bc
00000280: b449 a43d b448 b33d de61 0cbe 5523 ab3d
00000290: 0a5f a2bd 2f25 a43d 46b1 1e3e e1ea 5bbb
000002a0: 8cb1 113d 9fc1 21be b2b9 d33d ab96 1cbd
000002b0: 7633 29be fb09 c4bd 4fa6 04be 3d82 a7bd
000002c0: 3b78 1ebe 62eb eb3d ca20 a4bc 48bf e93d
000002d0: 9d58 1b3b 7134 d83d 20f7 bfbc f119 85bd
000002e0: 4e96 2ebd 9c7c 8bbd cdbc 5fbd d806 0abd
000002f0: bfe9 023e cd50 de3d edb5 37be ea4a 15be
00000300: b515 16bd 3a22 1b3e 1561 823e 4d39 8dbc
00000310: cb51 aebc cc8a 6f3b f980 533b d019 943d
00000320: b8ae 51bd a082 86bc 85a9 0c3d 3b31 13bd
00000330: 1a1e 2a3e 81bb e6bd bd7f a0bd f0b7 003b
00000340: ddfd 9c3d 34f8 e23d a70a ca3c 88df fc3c
00000350: 45f0 cb3d 032a e43d 2fcb 5c3e 0c7f e6bd
00000360: b742 fdbd 5831 893c fc12 ee3d c6cd 303e
00000370: 2ceb 5bbb c953 b0b9 5556 1a3e 33a9 d0bc
00000380: eeb2 e1bc 060d eb3d 6d40 803d 0ff8 c4bd
00000390: c472 bf3d e23c 503d 35c6 0dbe 1459 da3d
000003a0: 940a 44be e56b 49bc bd33 823d fe15 043d
000003b0: 0713 8d3d ad01 253e 66df 8e3d b517 30bd
000003c0: 992b 08be 84e7 f3bd 8021 85bd ae3b 803d
000003d0: 0760 2b3e ef8b 91bd f803 973c 2533 8b3d
000003e0: 8e19 8bbd 6cd4 723d a2a9 a4bd 4ebe 41bd
000003f0: ce7a c93c fecc 61bd 70fb d33c 264c ba3d
0.09134746 -0.07033112 0.06408427 0.06883322 -0.018896941 -0.21306857 0.065302 0.14831619
0.09895198 -0.08570736 -0.05266696 0.03954754 -0.020934956 0.10610699 -0.11561837 0.07238085
-0.008521425 0.09911431 0.026665572 0.09850769 -0.1663635 -0.05252832 0.044071585 0.025258487
0.0531087 0.015120809 0.08403796 0.07629324 0.001147945 -0.10637218 -0.201395 -0.03129428
0.110402934 -0.1485291 -0.068548284 0.030063353 0.009619198 -0.023019353 0.025883038 -0.032154497
-0.0724338 -0.10899169 0.32447073 -0.19393998 -0.17655557 0.023611994 -0.59308666 -0.057126295
-0.052668273 -0.036923513 -0.015844323 0.07258714 -0.014640638 -0.017763948 0.011146491 0.058223408
0.096732624 -0.061141994 0.015801394 -0.03584623 -0.091879174 -0.12253904 -0.042866446 0.004790131
-0.0016964884 -0.13341214 -0.21516092 0.07813467 0.084978744 0.040066544 -0.1429138 -0.37087673
-0.005303205 0.0022261178 0.055829458 -0.10474869 0.08311342 0.05517581 -0.099752665 0.13443168
-0.060090464 0.0074002882 -0.053754456 -0.24743673 -0.02342022 0.085070804 -0.02044824 0.08051278
0.036446393 -0.013195915 0.10575011 -0.11537548 -0.008608353 -0.055746645 0.10036479 0.07501489
0.062251717 -0.09015636 -0.09386136 -0.04769326 -0.05991209 0.053032696 -0.007875205 0.068876214
0.045659706 -0.027860612 -0.056357183 -0.033677205 -0.0039569945 -0.026624756 -0.0008768633 -0.14450277
-0.09022147 0.059614006 -0.04648074 -0.05672947 0.0044292645 -0.09171992 0.028272737 -0.046202675
-0.07824857 -0.028387602 -0.038703952 0.017037654 -0.045837082 -0.116980776 -0.09725622 -0.055911068
0.14095366 0.032249313 -0.14020242 -0.17030498 -0.0073226877 -0.13441882 -0.04342579 -0.09886179
0.05763034 -0.065199316 0.16996476 0.059153628 -0.139579 -0.11061788 0.06362334 0.11913782
0.044915117 -0.007635699 -0.07749299 0.014963898 0.060349684 -0.02925937 0.10203089 -0.12655658
-0.08879703 -0.019831566 -0.08509569 0.12443315 0.08555363 -0.08329121 -0.13575006 -0.027556982
0.0802187 0.087541014 -0.13709208 0.083563484 -0.079282835 0.08014905 0.15497312 -0.0033556747
0.035569713 -0.15796517 0.10338153 -0.038229626 -0.16523537 -0.09572216 -0.12954067 -0.08179138
-0.15475552 0.11519505 -0.020035166 0.11413437 0.002370394 0.105568774 -0.023433268 -0.064990886
-0.04262381 -0.06810877 -0.054623414 -0.033697933 0.1278448 0.10855255 -0.17940493 -0.14579359
-0.036641795 0.15149775 0.25464693 -0.017239237 -0.021279236 0.0036551235 0.0032272919 0.07231486
-0.051192015 -0.016419709 0.034341354 -0.03593562 0.16613045 -0.11266232 -0.07836864 0.0019640885
0.07665608 0.11082497 0.024663283 0.030868307 0.09957937 0.111408256 0.21561883 -0.11254701
-0.123662405 0.016747162 0.11624715 0.17265996 -0.0033556921 -0.0003363176 0.15071996 -0.025471305
-0.02755114 0.114770934 0.06262288 -0.09617626 0.09348062 0.050839312 -0.13845141 0.106615216
-0.1914466 -0.0122937905 0.063575245 0.032247536 0.06888395 0.1611392 0.069762036 -0.04299136
-0.13297881 -0.119093925 -0.0650053 0.06261383 0.1673585 -0.07106768 0.01843451 0.067968644
-0.067919835 0.059284613 -0.080401674 -0.04730063 0.02459469 -0.055127136 0.02587673 0.090965554

hidden_layers.0.bias f4 [64]
00000000: ab3a 893d 38f5 913d 4395 b1bd ba2f 17be
00000010: dc92 d43d 8d4a 103c 82d3 89bd 3b5d 8fbb
00000020: 73d4 29be 6c04 1ebe f63d cf3c c086 80bd
00000030: 6869 10be 6831 05bd 8db7 903d cf25 12be
00000040: 4877 b23d 2f79 bdbd d426 a4ba c577 703d
00000050: 3add 42bd 587a acbd 3046 0fbe 9eed a43d
00000060: 871b 39bc e508 49bc 0c83 c5bd b4ab b6bc
00000070: b0fe b13c 1b50 68bd 67c2 ee3d 8640 af3c
00000080: b51b dcbb c5c6 ca3d 9163 69bc bc4c 833d
00000090: d38a 11bc 1a0c 22bd c6a7 7eba ad26 80bc
000000a0: 7948 14be 03d8 943d 07e0 223d 57d8 18be
000000b0: f494 a6bd be3b 17bd d96e d33d 1d9a 91bc
000000c0: c36f 1dbe dfad 273e 3941 42be 0508 31be
000000d0: 44c8 1dbd ccd4 a8bc 12c6 edbd e9b8 9cbd
000000e0: a064 dfbd 1c73 1dbd a788 e4bc fde6 8bbd
000000f0: 2685 35be 1844 3b3d cd48 d73d 6984 dd3c
0.06700643 0.0712685 -0.086710475 -0.147643 0.10379574 0.008806837 -0.06729795 -0.0043751276
-0.16584949 -0.15431374 0.0252981 -0.062757015 -0.1410271 -0.03251782 0.070662595 -0.14272235
0.08714157 -0.092516296 -0.0012523779 0.05870797 -0.04757426 -0.08421773 -0.13991618 0.080531344
-0.011298067 -0.012270187 -0.09644136 -0.022298671 0.02172789 -0.05671702 0.11658173 0.021393072
-0.00671717 0.099011935 -0.01424493 0.0641112 -0.008883196 -0.039562322 -0.0009714331 -0.015643442
-0.14480771 0.072677635 0.03976443 -0.14926277 -0.08133879 -0.03692221 0.10323877 -0.017773682
-0.15374665 0.1637492 -0.18970193 -0.17288215 -0.038521066 -0.020609282 -0.116100445 -0.07652456
-0.109078646 -0.038439855 -0.027897192 -0.06831167 -0.17726573 0.045719236 0.105119325 0.027040677

hidden_layers.1.weight f4 [64, 64]
00000000: 7c3d 10bb e5e1 0ebd 52a4 93bd 6e52 cfbc
00000010: 6005 edbd 1f20 3ebd bf6a 47bd 80ba d9bd
00000020: cc8f 85bd 4f77 e9bd 95d7 f1bc 9cd3 1f3c
00000030: d167 de3d a5a0 c0bd a6ed 073e eb47 a8bd
00000040: 0222 ffbc 7253 103e 479c 8f3d ea6c bcbd
00000050: f8c3 a33d 35e0 b6bd 7738 5e3d dffa 63bd
00000060: 0941 f4bc 989c c03d 8169 bc3c b198 e4bd
00000070: 39c1 c1bd b0b6 32bd 5c9c e33c a5e9 0fbd
00000080: 3da1 223d 0ac6 64bd 3bb4 e33c 8143 ebbd
00000090: 4c0e 033d 7975 ef3d af08 d23d 8548 a8bd
000000a0: ec7e 9f3d 8e33 7bbb 2e51 22bd 6cbf 86bd
000000b0: 1833 cabd c88f b1bd a9a2 f3bc 9fc1 553d
000000c0: 7972 4f3d cb38 963b f0b6 503d 254c fe3c
000000d0: 2880 c0bc 5b77 3dbd 6147 fb3b fe76 6d3d
000000e0: 0714 223d dcd8 923d 0d81 cc3d df0a fabc
000000f0: cd18 c5bd 25ae 9d3d 9767 ebbd 5e19 973d
00000100: fe1e c13d 6be6 dcbd c580 883c c1ce cf3d
00000110: f882 db3b d224 53bd 2f9a 9dbd 1f9e 2fbd
00000120: abf4 a63d 6d0d 29bd 3b2c b3bd debb 3bbd
00000130: fa46 99bd 2bd0 9f3c 1900 dfbd 8d32 b93d
00000140: 2202 7f3d 3f06 a03d 8931 2dbd 3e5a a3bd
00000150: 7aa6 eebd 1bed e4ba 6f32 aebd d96d 2fbd
00000160: 88a9 853d b7d0 f2bd 72a9 84bd df00 78bd
00000170: 3963 a83d 9d6a 88bb fd5a 653d 417a b33d
00000180: cb7d cfbc d653 8b3d 9a6d 3bbd 4eac 993c
00000190: 617e 9ebd a266 3e3c 14bc dfbd 4d33 5d3b
000001a0: 10cd 02be 17b7 b3b9 9597 5abc bf6c 5abd
000001b0: f6fd 8c3d 3a8d afbd 1d43 e13d 4302 fe3c
000001c0: 69f5 4e3c 0744 4ebd e310 333d 33c2 03bd
000001d0: 22b2 80bd 988f 77bc 3d26 9dbd 7942 083d
000001e0: 7228 f4bd 518a bcbd 8282 1bbd 0bde 7f3d
000001f0: c3d8 a9bd 02f7 2fbd 664c e5bd 3167 3abd
00000200: 41b1 6b3b 6703 9c3d d836 cb3d 223e a13d
00000210: 4d13 c13d 5604 9abd af23 d5bd 9555 8d3d
00000220: 184f aa3d 47a8 92bb b8e6 0d3d f0c2 52bd
00000230: d3c3 d5bd eedd 2b3e d671 293d 0b9a edbd
00000240: c67f 203e 01d6 873d 531e d6bd b420 e63b
00000250: 485e 03bd 2db9 b7bd b1b1 ff3c e108 b1bd
00000260: 5e22 abbd a03f 66bd eb2d babd 20cf 37bc
00000270: 11f2 8d3c b3c5 c5bd 3914 af3d 2c83 79bd
00000280: b582 6a3d 628e 26bc e098 88bd c240 ff3c
00000290: e8c3 0f3e 27e1 56bd 25c5 263d 3836 a63b
000002a0: fceb 2b3d 60f0 9ebd bcbf 95bd d41e ccbd
000002b0: 4886 c63d f406 f9bd a2fb 323d 8b5b 923d
000002c0: 32e1 873d 4177 d13d 284b 95bd 4b28 a43d
000002d0: 1842 9abd 2eac a8bc 58af 8f3d f92a 193d
000002e0: d232 c7bc 3197 9fbd ddf4 b83c d9b4 c43d
000002f0: 1716 ecbd 5617 4b3d 4602 41bd 1251 c03c
00000300: f9ee 2c3d fd47 8abd 6d12 e9bd 29f9 b33d
00000310: 8b50 2dbd 352c 29bd 0157 f73c 9865 f2bd
00000320: 091f f7bc b84c 71ba c5de 1ebd 10a5 1eba
00000330: eb86 b8bc a29d 943d 8df0 97bd 485d 863d
00000340: 1f3f 573e b994 cabd b9b6 0e3d ccc7 363d
00000350: 9e74 86bb 8486 393c da48 b6bd 99bb dabd
00000360: fb32 4cbd 8c11 d33c 9d96 cfbd 5560 92bd
00000370: c0ef f7bd 52bd 90bd 298f 9ebc a225 efbd
00000380: c5f4 ca3d a821 043d daa5 84bc ab5e 8a3d
00000390: eda8 7c3d 5052 c3bd 6f10 2f3d 1a61 1fbe
000003a0: f94c a7bd 5a5c 603e f31a e5bc 5071 61bc
000003b0: 790a f2b8 879c f53c 53e6 9e3d 5869 19bd
000003c0: 4788 d3bd 4c98 243e 9b9e e1bd 0812 ac3d
000003d0: 6b48 933d ef0b 923d d45f 8e3d d36f 133d
000003e0: 8279 a73d 5c81 30bd 7ab6 c2bd 496a a7bc
000003f0: 2c8c af3c 2503 1e3e c51b e53d 4be6 49bd
-0.0022009304 -0.0348834 -0.07209076 -0.02530786 -0.11573291 -0.04641735 -0.048685785 -0.10631275
-0.06521568 -0.113997094 -0.029521743 0.009755041 0.10859645 -0.094056405 0.1327425 -0.08216842
-0.031144146 0.14094332 0.070122294 -0.09200461 0.079963624 -0.08929483 0.054253068 -0.05565917
-0.029816167 0.09404868 0.022999527 -0.11161936 -0.094606824 -0.043631256 0.027784519 -0.03513493
0.03970455 -0.055852927 0.027795902 -0.11487485 0.031996056 0.11692328 0.102555625 -0.08216957
0.0778788 -0.003833029 -0.0396282 -0.065794796 -0.098730266 -0.08670002 -0.029740648 0.052186605
0.05064628 0.004584407 0.050955713 0.031042168 -0.02349861 -0.046256404 0.007668421 0.057974808
0.03956988 0.07170269 0.09985552 -0.030522762 -0.09623871 0.07699231 -0.114943676 0.07377885
0.094297394 -0.10786136 0.016662965 0.10146857 0.0066989623 -0.051548786 -0.07695424 -0.042875405
0.081521355 -0.04127257 -0.08748671 -0.04583346 -0.07484241 0.019508442 -0.108886905 0.09042845
0.062257893 0.07813691 -0.04228357 -0.07976197 -0.11652847 -0.0017465682 -0.08505713 -0.04282937
0.06526476 -0.118562154 -0.06477632 -0.060547706 0.0822205 -0.0041631 0.055994976 0.087635525
-0.025328537 0.068031 -0.04575882 0.01875892 -0.077389486 0.011621149 -0.10924545 0.0033752501
-0.12773538 -0.00034277953 -0.013341804 -0.053326365 0.06884377 -0.08571859 0.10999129 0.031006938
0.0126317525 -0.050357845 0.043717276 -0.032167625 -0.06283976 -0.015109919 -0.07673309 0.03326652
-0.11921777 -0.09206069 -0.03796626 0.062467616 -0.08293297 -0.042960174 -0.111962125 -0.045508567
0.0035963806 0.076178364 0.0992257 0.07873179 0.094275095 -0.07520358 -0.10407197 0.06901089
0.08315867 -0.0044756266 0.03464386 -0.051455438 -0.10437741 0.16783878 0.041368328 -0.11601647
0.15673742 0.06632615 -0.10455003 0.0070229415 -0.032072335 -0.08970866 0.03121266 -0.08644272
-0.083561644 -0.05621302 -0.090907894 -0.011218816 0.01732734 -0.09656849 0.08548779 -0.06091611
0.05725356 -0.010165783 -0.066697836 0.031158809 0.14039576 -0.052460816 0.040715355 0.0050723813
0.0419731 -0.07760692 -0.07311961 -0.099668175 0.09693581 -0.12159529 0.043697007 0.07146367
0.066347495 0.10227824 -0.072897255 0.08015498 -0.07532138 -0.020589914 0.07015866 0.037394498
-0.024316225 -0.07792509 0.022577697 0.096048065 -0.11527651 0.0495828 -0.04712131 0.023476157
0.04222009 -0.06752012 -0.113804676 0.08787758 -0.04231314 -0.041301925 0.030192854 -0.11835784
-0.030166166 -0.00092048524 -0.03878667 -0.0006051818 -0.022525271 0.072566286 -0.07418928 0.06560761
0.21020173 -0.09891648 0.034842227 0.044624135 -0.0041032573 0.011323575 -0.08900614 -0.10680313
-0.049853306 0.025765203 -0.10136149 -0.0714728 -0.121062756 -0.0706736 -0.019355373 -0.116771
0.09909967 0.03225866 -0.016192365 0.06756338 0.061684538 -0.09537184 0.04274028 -0.15564385
-0.08168978 0.2191023 -0.027966952 -0.013759926 -0.0001154141 0.029981865 0.077587746 -0.03745398
-0.10328727 0.16073722 -0.1101658 0.08401877 0.07191547 0.071311824 0.069518715 0.035995316
0.08177473 -0.043092117 -0.09507461 -0.020436423 0.021429144 0.15430887 0.11186937 -0.04929189

hidden_layers.1.bias f4 [64]
00000000: f7f6 7f3d 5ae8 e5bd 3ab0 00bc d4e2 863d
00000010: 8a0f acbb e6b9 303b 3800 7d3c 4342 18be
00000020: 57a3 a03d b72b 02be b8be 8c3d feb1 783d
00000030: a792 823c 60fe 0e3e 5e2b babd 11ae 773c
00000040: aec8 5b3c eb0a a0bd 8a1f 4a3d e2f6 d4bd
00000050: 0cf4 a43d 66e5 b1bc 71f6 003d 344a d6bd
00000060: 61b7 86bc f977 903c fe1e 583d 773b 2abd
00000070: 0777 58bc faa7 7b3d d28e 05be 300c e73c
00000080: 798e 973d 39b0 adbd d22c b83d e341 e7bb
00000090: 30b6 723d b1db c3bd ca72 a13d 29eb 253e
000000a0: 2539 063e 6ef9 8ebd f060 2abd 5190 f73d
000000b0: e6df 96bd 0c3b f73d 4abb 833d 0c4e 4cbd
000000c0: c4a6 653d a7b4 c5bd db04 dcbd 4424 13be
000000d0: f214 613b 37af 7d3c 6683 f1bc e243 2bbc
000000e0: 4e2b fb3d 1917 8ebd 1d82 123e d5ac 123d
000000f0: 6e32 043e 74b1 843c 137a e0bd 5987 12be
0.062491383 -0.11225958 -0.007854516 0.06586233 -0.005250876 0.0026966273 0.015441947 -0.14869027
0.078436546 -0.12711988 0.06872314 0.06071662 0.01593907 0.13964224 -0.09090303 0.015117184
0.013414545 -0.078145824 0.049346484 -0.10398652 0.08054361 -0.021715831 0.031485025 -0.10463372
-0.016444864 0.017635332 0.05276393 -0.041560616 -0.013211972 0.06143949 -0.13042763 0.028204054
0.074002214 -0.084808774 0.08992924 -0.007057415 0.05925578 -0.09563387 0.078832224 0.16202988
0.13107736 -0.06981169 -0.041596353 0.12088073 -0.07366924 0.12071809 0.06432207 -0.04987912
0.056067243 -0.09653597 -0.107431136 -0.14369303 0.003434476 0.015483669 -0.029481601 -0.010453196
0.12264119 -0.06937999 0.14307447 0.035809357 0.12909862 0.016197897 -0.10960784 -0.14309444

output.weight f4 [4, 64]
00000000: 065c 04be 1a3f b63d f7d0 c03d 193f 153e
00000010: c50c 263d ecee 29be e4a1 76bd 6a08 dc3b
00000020: 4657 3f3c bd56 d03d d16b 063e 4025 48bc
00000030: 2f0f 433c 9f92 013e 66d9 22bc 6f73 df3d
00000040: 990e 83bc 2abf a9bd 1b00 e7bd da2c 1dbd
00000050: b341 173e 885b 26bc a354 593d b299 073d
00000060: fb31 d9bc a235 29bd eae4 bdbd b132 623d
00000070: 4bc2 ce3d 2fd0 053e 7933 9bbd 45c6 a23d
00000080: a208 8c3d f759 0f3d 3f0f 0b3e 70ef ba3d
00000090: a867 1dbe 6eb4 663d 0a0f d5bd ee7c 893e
000000a0: 0067 183e b974 efbc 982e 36bd 9094 343e
000000b0: 66ec 8bbd cf84 2e3e c77b cdbd 0619 e23c
000000c0: c5ef ddbd 9fb0 ebbd 2275 023d 76b1 7b3c
000000d0: 5e65 2bbd a998 efbd f474 e3bc 9368 f93b
000000e0: c5c6 273e 8f65 b43d 6924 533e 8722 0b3d
000000f0: a8e4 443e dfa5 f8bd ea4c b3bc 3aab d63c
00000100: abe8 9ebd 692e 8dbc 9180 013c 03a0 c43d
00000110: 1df9 6a3d defc e6bc cad7 e1b9 dee7 4cbc
00000120: b8d6 973d 4167 923d d43e 053e cd1e 01bd
00000130: 0b97 173d 7418 153e afd7 083d 652b db3d
00000140: ff6e 07bd 8692 1b3d ab32 e2bc aae1 87bc
00000150: 88d7 f43d 5c1a ba3c 293b 953d 79c1 5fbd
00000160: 2494 41bd 3849 023c c327 31bc 058d 05bd
00000170: 86b6 933d bac2 893d 1465 473c 3c19 e63d
00000180: 002a 1c3e e391 95bd 743d 083e d4e9 033e
00000190: 751b a0bc 0d07 7b3d b6af 5c3d 690b 143e
000001a0: 1930 093e 5fbf ddbc 54a7 943d edfc 1e3e
000001b0: a008 e5bc cbf0 da3d 7098 43bd e35d b63d
000001c0: 454d 94bc 1878 e5bd 99e0 b8bd 2595 91bd
000001d0: 6466 af3d ccc9 04bd 83a1 c53c d08c 6f3d
000001e0: db9b 083e d78c bc3d d359 223e aa01 583c
000001f0: 1b1e 123e da7b 10bd e159 53bd edfd 9bbc
00000200: a8fa dabd bb28 8c3d 92db 52bd 74b0 40bb
00000210: 2942 c9bc 772e 1ebd 91ad a4bb 9d3c 0b3d
00000220: 85c1 e23d b02c 83bd 9eae 1b3e 2310 91bb
00000230: 46cd 823d 8d18 983d d68d 80bd c9cb 643e
00000240: 0932 23bd 5387 debd f85f 33bd 4ac1 dfbc
00000250: c2e9 8e3e 0bb1 0a3e 8693 123e 1c84 bb3a
00000260: a757 7fbd 522c c73d ad1a ac39 0edc 9f3c
00000270: 17dd 6ebb 1b62 0b3d b1fd 4a3d e450 a93d
00000280: 9ea4 183e 7572 84bd 6e38 893e 3473 8f3d
00000290: 0955 e5bc 22cf 573d 0a1e ebbd d135 473b
000002a0: 3bc3 cf3d 1178 143c e765 b9bd 4723 1c3e
000002b0: 25b9 bc3c 5e5f 643c e73e 26bb ad54 f63c
000002c0: 1014 01bd e330 51bd 7a9b 79bb db58 673c
000002d0: c2f9 9f3c 2f2f 0d3c 9aae 29bd 2fc0 a13d
000002e0: 6dca 233e 554e 06b9 41bb 523e 7fba 11bd
000002f0: d52d 1a3e da81 55bd bb21 69bd ae9a b7bc
00000300: db79 d8bd a733 ee3c 129b dc3d f39c 983e
00000310: ef95 c63d 2441 dabc 0466 e4bc 32cb a5bd
00000320: 792c 5f3d e270 113c 1f27 293e 18e5 393d
00000330: f14b 313d bbc3 563e 5575 273d 2a5c d63c
00000340: 7890 28bd cc66 eb3d fe74 c1bb 6b37 953b
00000350: 3684 2f3c 9075 bb3c c9f8 8f3d 460b b73d
00000360: 4d1c 22bd e2fe d93d 610c b63c 601e 4bbc
00000370: d959 193e 2a6a 5e3d 9144 a7bd 1f3a 463e
00000380: a2fa 193e cec1 b13d fe9c 023d 01d8 a23e
00000390: ba33 18bc 2501 543b 05d8 f1bd 9139 b43d
000003a0: a725 043d 0b4e 7c3d d490 9b3d 8787 623e
000003b0: 56e5 883c 97e3 d63d 8373 d9bc d16c b9bd
000003c0: d8cb 80bc 2757 2dbd cf00 123b 160f 4e3d
000003d0: 4056 1d3d a7fc e2bb af61 6cbc 158a 90bb
000003e0: a229 173d f541 ba3c df92 a93d dfc8 9d3d
000003f0: 7462 6c3d fca8 c7bc 2fcf 233a 0bd6 473d
-0.12925729 0.088987544 0.09414857 0.14574851 0.04053952 -0.16595048 -0.060212985 0.00671487
0.011678522 0.10172794 0.13127066 -0.012215912 0.0119054755 0.12653588 -0.009939527 0.10910689
-0.015998172 -0.08288415 -0.11279317 -0.038372852 0.14771156 -0.010153659 0.05305923 0.03310556
-0.02651309 -0.041310914 -0.092721775 0.055224124 0.10095652 0.13067697 -0.07578177 0.07947973
0.06837584 0.034997907 0.13580035 0.091277 -0.15371573 0.056324415 -0.10403259 0.26853126
0.14883041 -0.029230462 -0.04447803 0.17634797 -0.06832199 0.1704285 -0.10033374 0.027599823
-0.10836748 -0.11508297 0.031849988 0.015362134 -0.04184472 -0.116990395 -0.027765729 0.007611343
0.16384418 0.08808433 0.20619358 0.033968475 0.1922785 -0.121410124 -0.021887261 0.026204694
-0.07759222 -0.017234044 0.007904188 0.09600832 0.05736648 -0.028196748 -0.0004307612 -0.012506453
0.07414001 0.071486 0.13012248 -0.031523515 0.03700928 0.1456011 0.033408817 0.10701636
-0.03306484 0.037981533 -0.027612051 -0.016587097 0.11955172 0.022717647 0.072866745 -0.05462787
-0.04726042 0.007952027 -0.010812703 -0.03260519 0.07212548 0.06726594 0.012170095 0.11235282
0.15250397 -0.07303216 0.13304693 0.12882167 -0.019544343 0.06128602 0.05387851 0.14457478
0.13397254 -0.027068792 0.07258478 0.15526171 -0.027958214 0.10690459 -0.047752798 0.08904626
-0.018103251 -0.11204547 -0.090272136 -0.07108525 0.08564451 -0.03241901 0.024124866 0.0584839
0.13340704 0.092065506 0.15854578 0.0131839905 0.14269297 -0.035274364 -0.051599387 -0.01904198
-0.1069234 0.06843706 -0.05147893 -0.002940205 -0.02456768 -0.03861853 -0.0050255735 0.033993352
0.11072067 -0.06405008 0.1520333 -0.0044269725 0.06386809 0.07426558 -0.06277053 0.22343363
-0.03984264 -0.10865655 -0.043792695 -0.027313847 0.27912718 0.13544099 0.14314088 0.001430634
-0.06233945 0.0972525 0.00032826271 0.01951411 -0.0036447698 0.034029108 0.049558345 0.08267382
0.14906546 -0.064671434 0.26800865 0.07004395 -0.02799465 0.05268777 -0.11480339 0.0030397067
0.10144659 0.009061829 -0.090526395 0.15247832 0.023037503 0.013938753 -0.0025367083 0.030069673
-0.031513274 -0.051072013 -0.0038087056 0.014120306 0.019528273 0.0086172065 -0.04142628 0.07897984
0.15995188 -0.00012808417 0.20579244 -0.035578247 0.15056546 -0.05212579 -0.056916934 -0.022412624
-0.10570117 0.029077364 0.10771765 0.29807243 0.09696566 -0.02664239 -0.027880676 -0.08095397
0.05448577 0.008877011 0.1651883 0.045384496 0.043285314 0.20973103 0.04088338 0.026166994
-0.0411534 0.11494216 -0.005903839 0.0045537255 0.010712674 0.022883207 0.07029874 0.08937697
-0.03957777 0.10644318 0.0222227 -0.012397379 0.1497568 0.054300465 -0.08167375 0.19358109
0.15037015 0.086795434 0.031888 0.31805423 -0.009289676 0.0032349315 -0.118087806 0.088000424
0.03226247 0.061597865 0.07595983 0.22122012 0.016710918 0.10492628 -0.026544338 -0.09053958
-0.0157222 -0.042319443 0.0022278314 0.050307356 0.038412333 -0.006927091 -0.014427586 -0.004410992
0.03690494 0.022736529 0.082799666 0.07704329 0.05771108 -0.02437257 0.00062488293 0.04878811

output.bias f4 [4]
00000000: 0151 613f a37d 403f c3ec 463f c130 433f
0.8801423 0.75191706 0.7770502 0.7624627

momentum_buffer f4 [64, 37]
00000000: 0c6d 2a3a aaa0 8ab9 f8e6 9537 1604 193a
00000010: 60b4 073a f202 8e3b 689a 8aba a7e6 0dbb
00000020: 64e0 01b9 8469 ebb9 0c28 0cbb 89cb d9ba
00000030: cc7b 8d3b e051 f639 f134 08ba ecfe 163b
00000040: 66f3 80b9 d768 f2ba bc1f 4c3a 3782 793a
00000050: 29bc 0fbb 9f1a e639 ced9 593b d9b3 18ba
00000060: c6c3 e73a fb08 6db9 c303 0d3a 0393 db39
00000070: fb89 8639 07bb 3d38 9bf6 e7ba 2a9c 00bb
00000080: e2c5 693b 2b0b 973a 28ae 04ba 4a10 843b
00000090: 6786 83bc 6047 89bb 7385 033c fe8b 00bc
000000a0: 1096 cf3b 04f5 26bc 0c7c 0e3b c1bd 0339
000000b0: 0400 0000 f6aa e537 e0bc 8a3b 6809 3d3c
000000c0: 72d5 d63b 2cf9 65bc 29d1 e2ba c9f1 86ba
000000d0: 5477 eaba 3ae5 a4bb 9fdb a53b 0ce9 853b
000000e0: 9449 27bc 1a06 20bb 5cfb 873b 938a 4c3a
000000f0: 6c00 29b9 1e50 903a a079 773b 97a9 febb
00000100: dc10 21b9 ea36 d43b 858e 84bb 1d30 9abb
00000110: d73a 6d3c f55b f1ba fbac b7bb c825 a73b
00000120: 6044 89bb a9e7 163e 8071 c3bb ddb9 19bb
00000130: 6b5a 8d39 34cb a73a 7cb3 5abb 708f fbbb
00000140: 49e1 2a39 72d4 d738 c398 2a3a f450 a93a
00000150: 28d5 7dbb 3e19 46ba ea1f c2ba 1f82 2aba
00000160: 5609 12bb fc5b a2bb bcfe 54bb 88d7 2aba
00000170: a460 093b 2976 04bb 2816 cbbb 026a 7aba
00000180: 5137 c03a 8fc1 8cba 5c2e 0339 e8e3 afbb
00000190: 6bac 83bb c8e9 ec3a 3a7f 563a 427c 93ba
000001a0: c733 5abb ef85 eaba 839f cdba 90ae 98b8
000001b0: b66f e6b9 8996 3f3b 0d14 c9bc a925 0e36
000001c0: 00f0 04ba 50ca 4dba 5ac7 87b8 fc4b 7bb9
000001d0: 5186 1fba 4e7e 0239 b9af 67ba f957 5c37
000001e0: f66b e5b8 bab7 29ba b607 c0b9 2de4 beb9
000001f0: b412 c137 b7f7 3fba 7aa7 ea35 4d31 2632
00000200: c460 adba 9398 0db8 b1cd 3ab9 774f 15ba
00000210: 29b1 5ab9 4ad7 f4b8 d71c f1b9 8a80 7fb9
00000220: 4093 c0b9 04c1 192f 6c40 6eba 84d8 a4b8
00000230: da19 9ab9 516d 08ba c29f dab9 60cf a6b9
00000240: a301 d0b8 d8f4 ddb9 d8dc 99b9 b7f8 7dbc
00000250: f04b 6bba 9a22 3a3a 4696 7139 0d44 0d39
00000260: 5ec7 ebb8 8d2b fa39 326e 7339 a2bb 8fba
00000270: 3513 143a 34c9 b9b9 9ec0 3bb9 c89c adb9
00000280: 3925 943a 4efd e7b9 8891 d438 ebed 9639
00000290: 8846 e139 f973 39ba f29b 2f39 f27c c4b9
000002a0: 1e5b 03ba f939 1239 4b66 ca3a 5cb9 83ba
000002b0: 1036 5839 74a9 453a 9fb8 27ba 89d2 cf38
000002c0: 30de 15b8 cdcb 00ba 8a06 a3ba 3676 103a
000002d0: d6ab 4839 27f9 313a 231d 0db9 5639 05bb
000002e0: 8e5d 083c 1d81 763b 60ca cd37 6c22 a6bb
000002f0: b153 f83a b028 103b 3865 7cba eae2 283b
00000300: 44f0 b0b9 81a7 2eba 8d46 0fbb 2206 883a
00000310: b4df e9b9 c413 b43a 929e b1ba 9453 5139
00000320: be90 313a 61c9 93bb 3415 6c3b 436c 5c3a
00000330: 8c6c 9eba 428d d0bb 1a65 693b 9373 993a
00000340: 47fd 123b 76ef 1cbb 0b6b 8dbb b961 143c
00000350: 0e39 99bb fe0b 0f3a 74e1 be39 3858 afbb
00000360: 10c6 663b 72bf bc3b d792 59bb eec9 1b3b
00000370: 8b60 593b a679 58bd ebae 773b 78bf 3cba
00000380: 92c7 f3b9 1841 5c39 d07a f238 7fe2 bf3a
00000390: a0b4 823a 50b0 3e39 5e39 2939 3bc4 933a
000003a0: 30dd 5739 2654 983a 9135 423a 7f53 363a
000003b0: e2b8 ac3a 9164 6a3b 61b1 a5ba 8406 b339
000003c0: b5d7 1d39 9ce4 f338 520a 643b 2c20 9538
000003d0: 03c5 dfba 6ae5 7b3a 68a0 953a 4d99 ec3a
000003e0: ba9c b239 c9f1 763a 2194 94b9 e6ab 4d3a
000003f0: 2068 5539 7814 1a3b 68d7 dab9 7ae8 2e3a
0.00065012346 -0.00026441115 1.7869737e-05 0.00058370957 0.0005176719 0.004333847 -0.0010574581 -0.0021652372
-0.0001238599 -0.00044901308 -0.0021386174 -0.0016616444 0.0043177363 0.00046981778 -0.0005195877 0.002304013
-0.00024595408 -0.001849438 0.0007786711 0.0009518 -0.002193222 0.00043888853 0.0033241394 -0.0005825139
0.0017682246 -0.00022605427 0.00053792837 0.00041880467 0.00025661275 4.5235294e-05 -0.0017697396 -0.001962433
0.0035670926 0.0011523714 -0.00050613517 0.004030262 -0.016055299 -0.0041894168 0.008027422 -0.007845877
0.0063350275 -0.010190252 0.0021741418 0.00012563822 6e-45 2.7378537e-05 0.0042339414 0.011537887
0.0065562064 -0.014036458 -0.0017304766 -0.0010295446 -0.0017888346 -0.0050322087 0.0050615813 0.0040866192
-0.0102104135 -0.00244177 0.0041498374 0.00078026316 -0.00016117253 0.0011010205 0.0037761703 -0.0077716815
-0.00015360437 0.006476273 -0.00404531 -0.0047054426 0.014479361 -0.0018414246 -0.0056053377 0.0051009394
-0.004189059 0.14736809 -0.005964458 -0.002345673 0.00026960982 0.0012801648 -0.0033371141 -0.007677011
0.00016296389 0.0001029157 0.00065077486 0.0012917803 -0.0038731787 -0.0007556862 -0.0014810537 -0.0006504375
-0.0022283397 -0.004954813 -0.0032500466 -0.0006517102 0.0020962143 -0.002021203 -0.0061977096 -0.00095525396
0.0014664923 -0.0010738837 0.00012510404 -0.0053677447 -0.0040183566 0.0018075043 0.00081824104 -0.0011252242
-0.0033295022 -0.0017892699 -0.0015687797 -7.2804396e-05 -0.0004395225 0.0029234013 -0.024545694 2.118157e-06
-0.0005071163 -0.00078502763 -6.474434e-05 -0.00023965532 -0.00060853834 0.00012444818 -0.00088381354 1.3133505e-05
-0.0001093968 -0.0006474216 -0.0003662684 -0.00036409628 2.3016102e-05 -0.0007322984 1.7483101e-06 9.673681e-09
-0.0013227691 -3.3759115e-05 -0.00017814968 -0.000569574 -0.00020856097 -0.000116749274 -0.0004598859 -0.0002436658
-0.00036730804 1.3983842e-10 -0.0009088579 -7.8604586e-05 -0.0002939243 -0.00052042777 -0.0004169923 -0.00031816494
-9.918518e-05 -0.00042334828 -0.00029346975 -0.015501193 -0.0008975854 0.0007100493 0.00023039532 0.00013472159
-0.00011242808 0.00047716164 0.00023215337 -0.0010965953 0.0005648614 -0.00035435858 -0.00017905465 -0.00033113942
0.0011302597 -0.0004424848 0.00010136055 0.00028787492 0.00042967894 -0.0007074471 0.00016747395 -0.00037477125
-0.0005010831 0.00013945242 0.0015441863 -0.0010049748 0.00020619505 0.0007540204 -0.0006398055 9.9097444e-05
-3.5731297e-05 -0.0004913181 -0.0012437862 0.0005510779 0.000191375 0.0006789141 -0.00013457662 -0.0020328364
0.008323086 0.0037613579 2.4532143e-05 -0.0050700214 0.001894584 0.0021996908 -0.000962812 0.0025770017
-0.00033748348 -0.0006662533 -0.002186212 0.0010377804 -0.00044607895 0.0013738801 -0.0013551286 0.00019962928
0.00067735824 -0.00451009 0.003602338 0.0008408466 -0.0012086793 -0.0063644955 0.003561324 0.0011707417
0.0022428797 -0.002394644 -0.004315739 0.009056502 -0.004675991 0.0005456804 0.000364076 -0.0053510927
0.003521327 0.0057601267 -0.0033199096 0.0023771483 0.0033169116 -0.052850388 0.0037793468 -0.0007200162
-0.00046497263 0.00021005084 0.00011562335 0.0014639645 0.0009972043 0.00018185494 0.00016138467 0.0011273691
0.00020586397 0.0011621758 0.0007408495 0.0006955191 0.0013177658 0.0035765509 -0.0012641364 0.00034146395
0.00015053044 0.00011629725 0.003479619 7.110866e-05 -0.0017072264 0.00096090755 0.0011415603 0.0018051058
0.00034067576 0.0009420184 -0.00028339124 0.0007845744 0.00020352053 0.0023510735 -0.0004174069 0.0006672215

momentum_buffer f4 [64]
00000000: 0668 813a 3883 183b f885 ddbb 8b92 b1ba
00000010: f634 3a39 d406 203a 2bca 373b 8ebc 2e3b
00000020: 203b ca39 7813 e8b8 18ec cdba 254a 05bb
00000030: 2e29 153b da21 1a3c 3be5 c13b 800d c3bb
00000040: 4339 40bc e93a 233b 078b 68bb 7cda 243b
00000050: f48e fab9 acc7 cb3b 2ce7 f4b9 13c4 743b
00000060: f0b6 d93a 82ec b13a aeeb 263b b0e8 6dba
00000070: 0e39 3a3b f0e9 a5b9 a9a1 533b 2cfa e1ba
00000080: 1dc9 553a 96c8 8f3b bee9 a839 4936 ad3b
00000090: 7b82 92bc 5c71 363a df4d 4f3b 57f4 b5bb
000000a0: 438d a73a f743 cd3b b310 04bc bc7b bd3a
000000b0: 64ee 76ba 4a8e 2fbc b2d7 fabb 5056 56bb
000000c0: 8832 943a aa6d 0bba 8f6c ca39 79a1 973a
000000d0: a58e 49bc f354 d5ba 834c 4bbb 676f 763b
000000e0: 2fc8 a2ba 1554 4bba 378d 173b 5651 e63a
000000f0: a758 48ba 08d7 22ba eb9f f2ba 2267 1ebb
0.000987292 0.0023271572 -0.006760355 -0.0013547702 0.00017758072 0.0006104533 0.0028044085 0.002666268
0.00038572494 -0.000110662484 -0.001571062 -0.0020338383 0.002276014 0.009407485 0.005917219 -0.005952537
-0.011732402 0.002490694 -0.0035483257 0.002515464 -0.00047790224 0.006218871 -0.00046711543 0.0037348315
0.0016610306 0.0013574513 0.0025470066 -0.00090755057 0.0028415355 -0.0003164555 0.0032292402 -0.0017240695
0.00081552734 0.0043879254 0.00032217609 0.0052860123 -0.017884484 0.0006959641 0.0031632108 -0.005552809
0.0012783188 0.0062642056 -0.008060622 0.0014456431 -0.0009419678 -0.010715077 -0.0076551074 -0.0032705255
0.0011306563 -0.00053187704 0.00038609325 0.0011568508 -0.0123020755 -0.0016275927 -0.0031020946 0.0037603022
-0.0012419279 -0.00077563646 0.0023124942 0.0017571847 -0.0007642605 -0.0006211852 -0.0018510794 -0.0024170359

momentum_buffer f4 [64, 64]
00000000: 1086 743a cdee 6839 35e7 6e39 1bd6 01b9
00000010: 1286 38b9 d57c b43a 40ca b035 53ae 80b8
00000020: 269e 9838 5374 1c3a 8a7b bf39 2d35 34b9
00000030: f86b 3b3a cc05 f538 6812 7438 9b03 edb7
00000040: 68fc 6839 fd1a 973a 5c0f b0b9 0c5a d3b9
00000050: 9075 6db7 dcf9 603a 0e4b dcb9 e2d8 9739
00000060: 23fc 20ba 6ffa 6dba 5cea f539 99a6 1bb8
00000070: bba0 e238 491d 4339 bb58 c639 6ff3 4f39
00000080: 5b6d 5db9 db79 1bb8 fc4e df34 7a27 3bb9
00000090: 04f6 873a 8068 a4b9 3eb7 eb38 954d c939
000000a0: 4a58 96ba 52a5 8ab8 c7cb 0a3a 42d9 c5b9
000000b0: e8df 883a 4837 833a e051 0c38 7ce1 a4b9
000000c0: 8cd9 acb8 450d b739 4370 c339 eef5 9538
000000d0: b4a7 d639 413e 4337 fc5f 8238 3cca fd38
000000e0: a0ab 8737 9b74 2e39 2001 c438 d43e 7738
000000f0: 8249 3f3a 3a23 d039 c538 5a3a 6a7f 8738
00000100: 008e f9b7 dcb7 b332 09a8 1bb4 bcca 4436
00000110: e2e1 a935 4bdd 96b8 df7a ed36 9baf 04b8
00000120: a2b8 ccb4 4867 50b7 8788 8db6 c24f a2b4
00000130: 4421 dab7 8ab1 0837 b733 5837 ebdd 05b8
00000140: 8dc0 73b5 49b3 acb7 b807 33b7 b64f 0737
00000150: ab41 8234 f3db a7b7 971f ce33 51ad 8336
00000160: ae3f c8b7 318d e8b2 1f4a 3337 b51e 0e36
00000170: a397 3d36 84e9 2136 cdbe 3938 faab 5037
00000180: 8876 8436 ef15 6936 abc4 061f fbfe 0537
00000190: 9cff 3eb2 e942 9fb4 99ea 8531 9f74 3c37
000001a0: 2d3e a237 b9a7 9e36 f3c4 2db7 2bbd 2035
000001b0: fe99 b0b7 0400 0000 9bc0 3fb8 6924 05b8
000001c0: 571a adb4 2f60 01b5 2f97 eaa5 ed79 b4b3
000001d0: 2790 502a 1d53 5032 9880 e4af 0f92 f3b6
000001e0: 4ff2 7333 5c30 8bb7 0faf 9236 1584 abb6
000001f0: 4fad df36 065f d534 5dd1 1ab4 c00d b1b6
00000200: 5843 a13a e78b 9d3a 876f b1b9 f87f 9239
00000210: 2f51 59b9 3bf6 db38 924b ec39 539c 833a
00000220: 80bd d337 0057 0cbb 131f 883a 6139 f338
00000230: 04d2 fa39 8723 b43a 9413 f53a 2d48 23ba
00000240: 9a04 2cba c6d2 aa3a c3b8 7e3a 2444 073a
00000250: 34df b339 50d1 8d3a 143b c6b9 0e50 14bb
00000260: 0f16 9eb9 a124 073a 1e51 4839 7540 d0ba
00000270: 3c31 8e38 d041 6c39 9ada 843a 6485 ea3a
00000280: 7f94 a938 4b84 97b8 d542 ab36 c2b8 29b9
00000290: a0ca f339 ee9f fe39 8f61 e539 73ad 8a3a
000002a0: 1fd9 b03a 28cf e13a a862 d439 c8c0 80b8
000002b0: a0f4 1936 532e 9c3a 4be6 c83a 8432 493a
000002c0: 3ca1 ae3a e85b b939 e5de 66b8 f617 7ab6
000002d0: 4cc0 82ba 7242 22b8 799f 8bba 4a9f 333a
000002e0: 0938 4838 0474 a63a 8c2e eeb8 d612 783a
000002f0: a897 2439 50e9 ad37 2ea0 d5b8 5b9a 8fba
00000300: 49a0 b43a 8770 29bb 64ba 8dba 5fb9 f439
00000310: a3c0 3f3a c0fc dd3a 4cb3 c43a 9348 b939
00000320: 984c 153a ee27 5dba 1fb5 403a 82bb 8739
00000330: 2e4e 343a d220 dd3b 2ca3 26b9 203e cdba
00000340: 40c3 41b9 2a32 8539 379f 873a f581 8f3a
00000350: 059d 733a dcb9 123b 89ec 863a 160f e2bb
00000360: 174a 6c3a 3e79 ee3a 3756 cab9 f4a2 94bb
00000370: 2e30 5239 0001 c139 8e9d 7f3b bd4b d53a
00000380: 202d dc38 d1e2 c5ba a68f 43b8 e49c 073b
00000390: 4dee 89ba a45f 8a37 9eea fdb9 8bde 363b
000003a0: 38dd ea3a fe3f 193b 9281 603b aca8 073a
000003b0: 881f 54b9 e45a 93bb dc48 c43b ac80 013b
000003c0: 9306 0e3a 0841 d43a 5582 1a39 ace3 34ba
000003d0: b06f b1bb 8847 5bb8 88fb 3eb8 cd13 853a
000003e0: f81c 0f39 a6c5 e439 2210 e438 0e6a 9b39
000003f0: 57ff 2b3a 279a 0c3b 55e4 19bb a21a 6fbb
0.0009327838 0.00022214204 0.0002278358 -0.00012382159 -0.00017597553 0.0013770113 1.3171884e-06 -6.135986e-05
7.277382e-05 0.00059682614 0.00036522403 -0.00017185947 0.00071495725 0.0001168359 5.8191275e-05 -2.825428e-05
0.00022219273 0.0011528429 -0.0003358078 -0.00040312146 -1.4153673e-05 0.0008582154 -0.0004201759 0.00028962555
-0.0006141087 -0.000907815 0.00046904653 -3.7110036e-05 0.00010806458 0.00018607559 0.00037831612 0.00019831744
-0.0002111694 -3.7068367e-05 4.1594456e-07 -0.00017848416 0.0010373001 -0.00031358376 0.00011239805 0.0003839551
-0.0011470404 -6.611146e-05 0.00052946474 -0.00037736638 0.0010442706 0.0010010982 3.3454853e-05 -0.00031448517
-8.2421204e-05 0.00034914367 0.0003727694 7.1506816e-05 0.0004094221 1.16374e-05 6.2167615e-05 0.00012101649
1.6173173e-05 0.00016637372 9.346218e-05 5.8947902e-05 0.00072970253 0.00039699097 0.00083244994 6.461034e-05
-2.9749237e-05 2.0921952e-08 -1.4496631e-07 2.9324283e-06 1.2657222e-06 -7.1937764e-05 7.0774545e-06 -3.1634798e-05
-3.81323e-07 -1.2421813e-05 -4.2180213e-06 -3.0232883e-07 -2.6003116e-05 8.147568e-06 1.2886644e-05 -3.191635e-05
-9.080475e-07 -2.0587484e-05 -1.0671029e-05 8.065186e-06 2.4262167e-07 -2.0010373e-05 9.598369e-08 3.924281e-06
-2.3871511e-05 -2.7072561e-08 1.0686489e-05 2.1177523e-06 2.8251459e-06 2.4126794e-06 4.4285134e-05 1.24378075e-05
3.9477054e-06 3.4732473e-06 2.8538284e-20 7.986785e-06 -1.1117574e-08 -2.966474e-07 3.89748e-09 1.1232826e-05
1.9340858e-05 4.7282924e-06 -1.0357459e-05 5.987992e-07 -2.1052543e-05 6e-45 -4.5717326e-05 -3.174358e-05
-3.2242926e-07 -4.819621e-07 -4.0694975e-16 -8.404081e-08 1.8524124e-13 1.2126091e-08 -4.156433e-10 -7.258968e-06
5.6798225e-08 -1.659261e-05 4.3715186e-06 -5.1115735e-06 6.6660937e-06 3.974348e-07 -1.4418534e-07 -5.276612e-06
0.0012303395 0.0012019844 -0.00033843165 0.00027942634 -0.00020724976 0.00010488598 0.00045069732 0.0010041095
2.5241403e-05 -0.002141416 0.0010385237 0.000115978306 0.0004784019 0.0013743498 0.0018697851 -0.00062287116
-0.0006561965 0.0013032786 0.00097168627 0.0005159995 0.0003430784 0.0010819826 -0.0003780952 -0.0022630724
-0.00030152543 0.00051552994 0.00019103705 -0.001588835 6.780258e-05 0.00022531231 0.0010135949 0.0017892537
8.0862075e-05 -7.2248826e-05 5.1039774e-06 -0.00016185924 0.0004649954 0.00048565812 0.0004375097 0.0010580256
0.0013492442 0.0017227875 0.00040509296 -6.139424e-05 2.2941167e-06 0.0011915661 0.0015327422 0.0007675069
0.0013323198 0.00035354425 -5.504386e-05 -3.726685e-06 -0.0009975522 -3.8685692e-05 -0.0010652385 0.0006852044
4.7735903e-05 0.001269937 -0.000113573944 0.0009463256 0.00015696755 2.0731852e-05 -0.00010186467 -0.0010956036
0.0013780679 -0.0025854425 -0.0010812995 0.0004667742 0.0007314777 0.0016936287 0.0015007048 0.00035340022
0.0005695312 -0.0008436431 0.0007351208 0.0002588891 0.0006878105 0.0067482973 -0.0001589178 -0.0015658773
-0.0001847865 0.00025405112 0.0010347132 0.0010948764 0.0009293112 0.0022388613 0.0010293882 -0.006898771
0.0009013726 0.0018194092 -0.00038592677 -0.004536027 0.00020045109 0.00036812574 0.0039003822 0.0016273182
0.00010498823 -0.0015097504 -4.6625406e-05 0.002069288 -0.001052329 1.6495418e-05 -0.00048430724 0.0027903642
0.0017918712 0.002338409 0.0034256917 0.00051749754 -0.00020229642 -0.004496919 0.005990131 0.0019760532
0.000541785 0.0016193697 0.00014735137 -0.0006900381 -0.0054149255 -5.2280287e-05 -4.5533787e-05 0.0010152996
0.00013648334 0.00043634808 0.00010874892 0.0002964292 0.0006561181 0.0021454187 -0.0023482044 -0.003648438

momentum_buffer f4 [64]
00000000: 8222 4c3b 786a 9ab8 392a 3b3b ba3e 373b
00000010: 3651 653a 83eb 0c3b 2a61 d7b9 ac2b ebb8
00000020: 3d49 56bb 4e0f e830 03ca 19bc 3df2 243a
00000030: ace9 76ba 1732 75bc e57c 5339 28e9 6739
00000040: 23b2 c8ba 376d a339 1af6 ad3b 157b 5639
00000050: a47f 543b 6e6e 903b c0f6 9fba f4d3 083a
00000060: 4643 80ba 126f cd3b 435a 273b 8970 cab9
00000070: 1ccd 8bb9 bd18 b0bb 6f1b 0138 3eb8 9dbb
00000080: 00f8 c037 fa02 9db9 801a 9bba 705a 0dbb
00000090: 9616 1b3c 4585 c1ba ca6f 0d3b 1423 9cbc
000000a0: 7d7c 0cbc 41b7 2739 7121 9839 aea4 9d3b
000000b0: b54d 6fb9 4fe4 59bc cc89 be3a cf5a a1b9
000000c0: 10ca 94ba 7219 d2b2 54b7 e63a 2480 a4ba
000000d0: 25f1 ba38 3c9c 473b b5e3 0e39 a665 0e3b
000000e0: 9235 83bb d40f f6b8 df71 cdbb 45aa 3f3b
000000f0: 9e2e 66bc 2a9b da3b 7604 dcb9 86ac 59b9
0.0031148498 -7.3631236e-05 0.0028559102 0.0027960972 0.0008747758 0.002150268 -0.00041080388 -0.00011213808
-0.0032697462 1.6884572e-09 -0.009386542 0.00062922 -0.0009418975 -0.014965556 0.00020169055 0.00022116734
-0.0015311878 0.00031171154 0.0053088786 0.00020454482 0.0032424713 0.0044076955 -0.0012204275 0.0005219572
-0.0009785674 0.006269344 0.0025535978 -0.00038612288 -0.00026664964 -0.005374043 3.0781546e-05 -0.004813223
2.3003668e-05 -0.0002994759 -0.0011833459 -0.0021568798 0.009465834 -0.0014764449 0.0021581524 -0.019059695
-0.008574602 0.00015994628 0.00029016615 0.004810891 -0.00022821764 -0.013299062 0.0014536916 -0.0003077597
-0.0011351723 -2.4458789e-08 0.0017602243 -0.0012550396 8.914088e-05 0.0030458113 0.00013627003 0.0021728068
-0.004004189 -0.00011733142 -0.006269678 0.0029245776 -0.0140492 0.006671329 -0.00041964994 -0.00020759003

momentum_buffer f4 [4, 64]
00000000: 96e7 d23a 4480 0a37 6a77 493b 4951 90bb
00000010: c08e 62b9 3ad4 13bb fc62 04ba 2e5b 03b4
00000020: 4ba1 64bc 17b3 4f30 ea04 07bd d056 c9ba
00000030: e6c2 c0bb bcab 9bbc 8796 4236 90a8 88b9
00000040: a898 5e3a 1c89 6cb7 dec2 cfba b425 cb38
00000050: c60a c0bc fc6c bf3b 2289 c9bb dd3b a239
00000060: b364 dc39 79a7 2ebc f076 933b 2957 7736
00000070: c394 9ebc c48a a1bc 67b5 bbb8 95c4 80bc
00000080: 5c80 9cbb 403c 4c38 c886 60bb 3a83 1dbc
00000090: a390 91bb 48d2 f838 e50c 3f3b c318 3abc
000000a0: c8ec 64bc 3631 9a38 20db c937 34a6 0cbc
000000b0: c82b 3cba 12bc 66bc c89b 8abb 1786 8fb9
000000c0: 9fd3 253b bdcd 3dad 41d2 4a3a b2b3 8239
000000d0: aaea 1eb8 13ad 153b 4c69 823a 60f7 483a
000000e0: f4bd 7fbc 2f7e 9138 c80d a9bb a6e6 26bc
000000f0: 1548 83bc 5817 023b ccf7 693b 02cf 16b8
00000100: 0447 b53b 8841 4ab7 4906 30bb 8a87 f1bb
00000110: 52ba 7cbb 92d5 8139 3215 5239 0331 8bb7
00000120: aaa6 1dbb 0400 0000 a06f c6bb cb37 e6b9
00000130: 7db1 11bb a0df e5bb 1132 7bb2 da86 9dbb
00000140: 2135 0e3a 3b14 f0ae 9aa9 7f3a 2c79 ed35
00000150: 9441 c0ba adbe c9ba b8c4 9fba 0442 04ba
00000160: 1f5e f438 7b5f 24bb ae26 1b3c 0457 e5b2
00000170: b737 8fb9 d7a8 24ba 7916 7436 9321 f3bb
00000180: 7f21 dbbb 0479 de3a 6b38 5eba da13 eaba
00000190: 9634 803b c581 3938 e8af 123b 3ea6 35bb
000001a0: 9f9b fbba 3eaa 61b8 ce30 5eb9 ad7b 99bb
000001b0: 026e 81b9 febd d9bb bc39 aa3b d53c b5b9
000001c0: 68c8 253b 96bd 091d 6270 dfb8 a471 aa39
000001d0: c369 e1b6 48a6 bb3b a5e6 e838 fd59 a939
000001e0: 0f47 acbb fef7 2738 b663 5dba cec3 8abb
000001f0: e5f5 a0bb 502e 623b 127e 0d3b e351 ca37
00000200: 99d4 25bb 69e9 eeb7 c476 173a de1f c7b9
00000210: 3857 1cba 80cf 4639 5507 c13a 900b 8ab7
00000220: 8f50 843b 0400 0000 3b71 0a3b 110b 16b9
00000230: ebd8 fd39 b5a6 1fbb 14d5 80b7 b7b2 fe3b
00000240: 12eb a638 007a 1815 20e5 19bc c260 b9b8
00000250: e4af 2e3c 5e18 973b a3b4 6b3a 6281 d339
00000260: 6b67 02ba 703e 4239 846f 29bc a490 2638
00000270: 104c 813b 3df3 b13b 4ac7 88b7 3e73 933b
00000280: fc3b 1f3b 2465 f7b8 d896 ae3b 3a05 043b
00000290: 6d83 c4bb 663b bfb8 25eb 44ba b7c1 603a
000002a0: f07a 9b3b 6e0f fa36 0ec1 42ba 6cff 813a
000002b0: 3ee4 40bb 3e15 25bc a491 12bc 7061 fa36
000002c0: 5136 01bb 33e7 6831 0267 61b9 0699 50ba
000002d0: 725f ae37 6352 2bbb 8b93 3eba f325 3a3a
000002e0: a474 a13b 139a d838 d121 8b3b 4828 cdba
000002f0: 5eea 313b 9a2f b8bb 198f be3a c472 49b7
00000300: 777e 4bba cb3d 5337 3409 b93a 5246 263c
00000310: ef9a ec3b 19d4 cab9 8cf4 213a a342 2638
00000320: 6feb 273a 0400 0080 9bf5 543a 1c15 7438
00000330: f427 ac39 b804 923b 6804 b937 0cc1 c2bb
00000340: 052d 9f38 232e 02b1 91d5 a33b f588 87b7
00000350: d1b8 c3ba 9810 cfbb ee3b 9d3a 0c9d 7d3a
00000360: 75ec 5539 df7d 753b b7d6 f23b 95d4 8db7
00000370: 53fe 8a3c 0b58 32bb e6e5 8a38 bb9c f73b
00000380: 1766 1b3b 454a 24b9 b39d 0cbc 7e88 f63b
00000390: dc4f 0f3b 6274 8139 f44c 9838 e8a2 69b8
000003a0: aada 1d3b 69ea abb7 3f93 0239 81e7 c13b
000003b0: 4b82 e3b9 e9ba 443b 1046 95ba b1dc 00b9
000003c0: a6a3 51ba e715 c322 719e 5938 15aa 7ab7
000003d0: 09fd 7038 28ad afba 8c70 493a 7344 6239
000003e0: a903 8439 9cbe a3b9 0eb0 31bb a5fa c53b
000003f0: c535 473b 9adf ccba 0226 113a 4395 77b8
0.0016090747 8.255305e-06 0.0030741342 -0.004404221 -0.00021606218 -0.0022556917 -0.000505015 -1.2233497e-07
-0.013954471 7.5560663e-10 -0.03296367 -0.0015360955 -0.0058826087 -0.019002788 2.8995871e-06 -0.0002606553
0.00084913755 -1.4098619e-05 -0.0015850922 9.686817e-05 -0.023442637 0.0058418494 -0.0061503807 0.0003094365
0.00042036697 -0.010660046 0.0045002624 3.6856602e-06 -0.019358044 -0.019719489 -8.950644e-05 -0.015718738
-0.004776044 4.8693502e-05 -0.0034260023 -0.009613806 -0.004442291 0.000118647295 0.0029151973 -0.011358443
-0.013972469 7.3524585e-05 2.4063105e-05 -0.008584548 -0.0007178155 -0.014082925 -0.0042299964 -0.0002737499
0.0025303138 -1.0789089e-11 0.0007737019 0.00024929416 -3.7888683e-05 0.0022838756 0.0009949594 0.0007666256
-0.015609253 6.937642e-05 -0.0051591136 -0.010186827 -0.016025582 0.001985034 0.0035700677 -3.5955578e-05
0.0055321474 -1.2055396e-05 -0.0026859215 -0.007370894 -0.0038563204 0.0002476392 0.00020035057 -1.6592914e-05
-0.0024055638 6e-45 -0.006055787 -0.00043910588 -0.0022231035 -0.0070151836 -1.4621507e-08 -0.0048073353
0.0005424787 -1.091753e-10 0.00097527506 1.7693142e-06 -0.0014667981 -0.0015391909 -0.0012189364 -0.00050452375
0.00011652358 -0.0025081325 0.009469671 -2.6698679e-08 -0.00027316596 -0.00062812626 3.6371914e-06 -0.007419774
-0.0066873427 0.0016973321 -0.0008477035 -0.00178587 0.0039125187 4.4228294e-05 0.002238268 -0.0027717496
-0.0019196159 -5.380273e-05 -0.00021189751 -0.0046839328 -0.0002468676 -0.0066449633 0.0051948708 -0.00034568334
0.0025296453 1.8229813e-21 -0.000106544016 0.00032509596 -6.717835e-06 0.0057266094 0.00011105583 0.00032301238
-0.0052574943 4.0046863e-05 -0.0008445339 -0.0042347675 -0.0049121254 0.0034512468 0.0021590036 2.4118408e-05
-0.002530372 -2.8480501e-05 0.00057778903 -0.0003797998 -0.00059639243 0.00018960051 0.0014726917 -1.6456266e-05
0.0040379236 6e-45 0.002112462 -0.00014309237 0.00048417537 -0.002436084 -1.5358011e-05 0.0077727693
7.959282e-05 3.0792397e-26 -0.009393007 -8.83951e-05 0.010662053 0.004611059 0.00089914555 0.00040341454
-0.0004974517 0.00018524542 -0.010341529 3.971219e-05 0.003945835 0.0054306076 -1.6305265e-05 0.004499822
0.0024297228 -0.00011796717 0.0053280406 0.0020144717 -0.0059971125 -9.1186535e-05 -0.0007511846 0.00085737876
0.00474488 7.452377e-06 -0.000742928 0.0009918041 -0.0029432918 -0.010075865 -0.008945856 7.461924e-06
-0.0019716213 3.3891865e-09 -0.00021496046 -0.00079573726 2.0786862e-05 -0.0026141636 -0.00072699104 0.0007100992
0.0049272347 0.00010328381 0.0042459746 -0.0015652264 0.002714775 -0.005620909 0.0014538496 -1.2007255e-05
-0.000776268 1.2590967e-05 0.0014117123 0.010148602 0.007220618 -0.00038686467 0.0006178103 3.9639544e-05
0.0006405627 -6e-45 0.0008123756 5.8193793e-05 0.00032836164 0.004456129 2.205577e-05 -0.005943423
7.590096e-05 -1.8943715e-09 0.0049998243 -1.615703e-05 -0.0014932399 -0.006319117 0.001199601 0.0009674586
0.0002040135 0.0037459058 0.00741085 -1.6907501e-05 0.016966974 -0.0027213122 6.623175e-05 0.0075565255
0.0023711973 -0.00015667926 -0.00858252 0.0075235954 0.0021867668 0.0002469151 7.2622584e-05 -5.5703247e-05
0.0024086633 -2.0493944e-05 0.0001245262 0.00591749 -0.0004339389 0.0030018634 -0.0011388678 -0.00012289245
-0.0007997103 5.2878046e-18 5.188439e-05 -1.49407615e-05 5.7456116e-05 -0.0013403045 0.00076843123 0.00021578539
0.0002517973 -0.00031231798 -0.0027112993 0.006041842 0.003039704 -0.0015630603 0.00055369746 -5.90284e-05

momentum_buffer f4 [4]
00000000: 112c b0bd 512b 0f3c 36c1 0bbd 4d76 cd3c
-0.08602155 0.008738355 -0.034119807 0.025080824
