p1_navigation/DQN20190128_v7.pth (torch_old, 85243 bytes, 18 tensors)

hidden_layers.0.weight f4 [64, 37]
000000 af 72 d6 3d 8f 91 b7 3c 6d cb 9e bd 24 c2 2c 3c
       0.10471093 0.022408275 -0.07753644 0.010544334
000010 23 c5 c4 bb 82 94 42 3d b3 91 9c 3a 3a c7 23 3e
       -0.006004946 0.04750491 0.0011945277 0.15993968
000020 80 b9 ae bd 08 c3 5d 3d ca bc 98 bc 71 9f ae bd
       -0.08531475 0.054141074 -0.01864471 -0.08526505
000030 3b 66 0a be 2c d1 84 bd 5b 46 b4 bd 71 f8 9d 3d
       -0.1351556 -0.06485209 -0.08802482 0.07713402
000040 b5 ad 82 3c 82 cb 97 3d 29 e7 fb 3c 13 93 ba bd
       0.01595197 0.07411863 0.030749874 -0.091100834
000050 d6 53 89 3c 99 6e 41 3e fb 3f 85 3b 08 3b 13 3e
       0.016763609 0.18889846 0.004066465 0.14377987
000060 ce 0f b2 bc 2d 8f f3 3b da 1c 0b 3e 42 49 e2 bc
       -0.021736052 0.0074328394 0.13585225 -0.027622823
000070 67 da c3 bd 2f e6 09 3c e3 97 10 bd 8b 7f b3 3d
       -0.09563141 0.008416696 -0.0353011 0.08764561
000080 d8 8a c6 bb dc 7d 05 be 72 3b dc bd 3b ef 22 be
       -0.006059032 -0.13036293 -0.10753526 -0.15911572
000090 2d d2 88 bd 84 b3 00 3e 1c d2 12 3d fc f7 d6 3d
       -0.06680713 0.1256848 0.035844907 0.10496518
0000a0 b1 59 18 3e b1 e8 c7 3d 6f ad 6b bd e0 e7 40 be
       0.14877965 0.09761179 -0.057538446 -0.18838453
0000b0 b5 56 54 bd e4 34 4a bd ed 0b 65 3e 91 53 3d 3d
       -0.051840503 -0.049366847 0.2236783 0.046222273
0000c0 97 d7 87 bc 13 35 0c bd d9 11 e5 3d cc cd 4f 3e
       -0.016582293 -0.034230303 0.11185045 0.20293349
0000d0 6c e3 57 3d bc e7 ca bc b6 c9 41 3e d3 dc 7a bb
       0.05270712 -0.024768703 0.18924603 -0.0038278594
0000e0 4c a2 96 3d f7 31 ee bd 73 8e 05 be 30 52 27 bd
       0.073551744 -0.11630624 -0.13042621 -0.040849864
0000f0 cd 89 8c 3d 39 fe c7 3d 0b 88 ea bd 91 43 8b 3d
       0.06862221 0.09765286 -0.114517294 0.06799997
000100 dc 37 6e 3d 67 06 06 bd 09 ef 44 3e b7 a0 21 3d
       0.05815874 -0.03272095 0.1923181 0.03945991
000110 7c c5 4d 3d db c0 3a 3e 25 c1 de bd af f7 ab bc
       0.050237164 0.18237631 -0.10876683 -0.020992128
000120 e1 1d bd 3d 8c a1 4c 3d 29 1c 41 3e 14 24 1d 3e
       0.092342146 0.04995875 0.18858398 0.15345794
000130 60 cb 25 3e f3 88 49 be 2b 35 ca 3c f1 27 d8 bd
       0.16190863 -0.19681148 0.024683556 -0.10554493
000140 4f 63 86 bd d2 b7 65 3e 57 5b fd 3c fa 32 0f be
       -0.0656191 0.22433403 0.030927343 -0.1398429
000150 cf b9 19 3e 8b f5 d8 bd bd 65 99 3d 76 ad 4a bd
       0.15012287 -0.105937086 0.07490108 -0.04948183
000160 ce 3f 33 3e ec 2d d1 3b f1 6e b3 3d 6c 8a 19 3d
       0.17504808 0.006383648 0.08761395 0.037485525
000170 d2 9a 38 3e da 2f 02 3e 79 d5 3d be ac 89 92 bb
       0.1802781 0.12713566 -0.18538465 -0.004471978
000180 2a bc 87 3d 8f 10 de 3d 3f ce 13 be 86 ad af bd
       0.06627686 0.10843002 -0.14434145 -0.08578019
000190 80 d8 bd 3d d9 b8 8b 3e b1 e6 01 bb 55 7a 4b be
       0.0926981 0.27289465 -0.001982134 -0.19870885
0001a0 48 23 3f be 2c 99 10 3d bb 93 af bd 9a b4 54 bd
       -0.18665802 0.035302326 -0.08573099 -0.051930048
0001b0 2c 58 7d bd 38 03 86 3d 6c 76 2a bd 4d c1 06 3d
       -0.061851665 0.06543583 -0.041616842 0.03289919
0001c0 76 47 18 be 30 30 52 3e a3 1f 2a 3e 18 48 2b be
       -0.1487101 0.20526195 0.16613631 -0.1672672
0001d0 64 b9 f4 bd cb 02 b3 bc 13 1d ef 3d 05 df 53 3d
       -0.11949423 -0.021851918 0.11675467 0.05172636
0001e0 f1 15 b0 3e 5b 17 1b 3e 3e 1d 45 be 38 d1 97 3d
       0.3439174 0.15145628 -0.19249436 0.07412952
0001f0 3c df 7c be c7 a1 83 bd 6f a1 64 bd c3 db d3 bd
       -0.24694532 -0.06427341 -0.055818018 -0.103446506
000200 f1 ee 89 be 81 1a e5 bb 23 00 ef bd 3f f1 1f 3e
       -0.2694011 -0.006991685 -0.11669948 0.15619372
000210 51 7b 0f be 58 50 a8 bd 39 97 16 bd 40 32 4e 3d
       -0.14011885 -0.08218449 -0.03676531 0.05034089
000220 e5 0d 03 be 94 d1 56 bd be d1 0d bd 89 0f aa 3e
       -0.12798269 -0.052445963 -0.034623854 0.33214977
000230 1d c7 d7 3d 2d 21 04 3e a1 17 9e 3d 31 98 17 be
       0.10536025 0.1290328 0.077193506 -0.1480415
000240 1e f4 de bd 48 97 65 bd 67 b7 81 3d 14 b9 d3 3c
       -0.108864054 -0.056052476 0.06333809 0.025845088
000250 e2 d7 62 be c0 e7 46 be a9 38 c8 3c 27 1e 86 be
       -0.22152665 -0.19424343 0.02444108 -0.2619488
000260 98 bc 87 be 12 f0 57 3e 43 d3 bb bd 5d 5d 69 be
       -0.26511073 0.21087673 -0.09171154 -0.22789522
000270 11 3e f1 3c ce 46 b6 be 16 8c 20 be c5 17 55 be
       0.02944854 -0.35600895 -0.15678439 -0.20809849
000280 92 7c 05 3e 61 ab 8c bd f8 1a 97 be b0 d1 b9 bd
       0.13035801 -0.068686254 -0.29512763 -0.09073198
000290 64 e0 1a be fd bf 4e bd 85 da 9a bd 47 13 36 3e
       -0.1512466 -0.050476063 -0.075612105 0.17780791
0002a0 4b a5 7d be 71 50 d8 bd 5b 93 86 3e 81 b3 da bd
       -0.24770086 -0.10562218 0.26284298 -0.10678769
0002b0 fa 02 59 3d c2 98 d2 3d 6b 99 55 be df 86 ec bc
       0.052981354 0.102830425 -0.20859306 -0.028872905
0002c0 71 d7 ed bd e7 ee 88 be fe 45 36 3e eb 8b 39 be
       -0.11613358 -0.26744768 0.17800137 -0.1811978
0002d0 3a d2 31 be 3a 8d 50 bd a6 d8 ae bd 62 46 b4 bc
       -0.17365351 -0.050915934 -0.08537416 -0.022006217
0002e0 ac bf 65 3c b7 73 b2 3d 35 6a e0 bd 47 51 e2 bc
       0.014022749 0.08713477 -0.109577574 -0.027626647
0002f0 84 8a f2 bc 3f 35 1f 3d 1f a9 21 3e ff 6f e7 3b
       -0.029607065 0.03886914 0.15787171 0.0070629115
000300 84 04 05 be 68 8e 09 bd 85 af 29 be 4b fc cb bd
       -0.12990004 -0.033583075 -0.16570862 -0.099602304
000310 47 b5 0d be f2 42 61 bc e6 74 6b be f1 63 fe bc
       -0.13838683 -0.013748871 -0.22993812 -0.031053515
000320 0d ec a6 3c ad 85 14 ba b2 db 80 bb 93 51 72 be
       0.02037623 -0.0005665671 -0.0039324397 -0.2366393
000330 99 af 69 be 2f c6 f8 3d 0f 3a 0d bd c5 d9 41 3d
       -0.22820891 0.121471755 -0.034479197 0.04732682
000340 0c 9d 92 bd 7c 2f 46 3c 91 d6 9d bd 4a 7c 3d be
       -0.071588606 0.012096282 -0.07706941 -0.18504444
000350 d8 f2 0d 3e a1 f4 8c 3d d7 cb 0e be 40 c3 aa 3d
       0.13862169 0.06882597 -0.13944946 0.08338022
000360 fe f4 3c be c8 53 10 be 54 87 cf ba 14 ab 74 bd
       -0.18452832 -0.1409446 -0.0015833178 -0.059733465
000370 ab be 08 be d0 b7 0f 3e c5 13 48 3e e8 77 7f bd
       -0.13353984 0.14034963 0.19538791 -0.06237021
000380 79 56 da bd 4a 9a 7f 3a 87 bc 6a 3d c0 60 c6 bd
       -0.106610246 0.0009750469 0.0573087 -0.09686422
000390 82 ab 86 bc 64 f7 a1 bd c4 34 13 3e a1 90 85 3e
       -0.016439203 -0.07908514 0.14375597 0.26086906
0003a0 b9 75 86 bd 72 5e 5c 3e 07 85 4b 3e 18 89 09 be
       -0.065654226 0.21520403 0.19874965 -0.13431203
0003b0 49 d0 fc 3d 1a 0b 05 be 05 47 48 bc aa 56 60 3d
       0.12344415 -0.12992516 -0.012223964 0.05477015
0003c0 18 56 ed 3d 13 6f c4 3d 32 e4 cd bd b7 5a b1 3d
       0.11588687 0.09591498 -0.100532904 0.086598806
0003d0 9e f6 bc 3d 39 3a 35 be e6 2c 37 3e 83 30 2a be
       0.09226726 -0.17697991 0.17888221 -0.16620068
0003e0 42 dc b9 ba 12 11 ba bb c6 c0 e5 3c 70 be ca 3d
       -0.0014180022 -0.0056783045 0.028046023 0.09899604
0003f0 57 96 42 3e 39 15 4a be 56 8a 27 bd d5 ac f9 bd
       0.19002663 -0.19734658 -0.04090341 -0.12191168

hidden_layers.0.bias f4 [64]
000000 bb 0d 1c 3e 0b d5 92 bc 2e 40 a6 bd 24 d3 90 bd
       0.15239613 -0.017923852 -0.0811771 -0.07071522
000010 47 ff 27 3e 43 4c df bd 45 34 35 bd 5d d1 13 3d
       0.16405974 -0.10903218 -0.0442393 0.036088336
000020 46 f9 13 bd 66 fc 11 be 77 6a ce 3d 52 cb b4 3d
       -0.036126398 -0.14256439 0.100789 0.08827843
000030 64 38 1a 3e e2 09 e7 3c d5 6f d5 bb 93 82 bd bd
       0.15060574 0.028202955 -0.0065135756 -0.09253421
000040 11 b0 83 3d 3f 1a da bd 48 65 68 3b 15 c8 3d be
       0.064300664 -0.10649537 0.003546076 -0.18533356
000050 c9 fd c4 bd f0 97 20 3d 30 4d 84 3c 41 0b 9c bd
       -0.09618718 0.0392074 0.016150087 -0.07619334
000060 20 15 02 be 28 c5 dc 3d d8 10 bc bc 7f 56 18 be
       -0.12703371 0.10779792 -0.02295725 -0.14876746
000070 e7 a0 14 3e eb 65 5a 3d d6 b6 a3 bd ed 2f 19 be
       0.14514504 0.053319853 -0.079938576 -0.14959688
000080 01 b8 53 3e c2 c0 8b bd e7 37 de bd e2 d5 d8 3d
       0.2067566 -0.06823875 -0.10850506 0.1058767
000090 37 a4 01 be 97 4c e4 ba b6 4e ae bd 46 bb 04 be
       -0.12660299 -0.0017417845 -0.08511107 -0.12962064
0000a0 ce 88 af bd 13 db ec bc 23 18 dd bd 3e da 26 3e
       -0.08571015 -0.028913056 -0.10795619 0.1629419
0000b0 4c 12 f6 bb 25 86 96 bd 94 31 6a 3d ed fb 1d be
       -0.0075095054 -0.07349805 0.057176188 -0.15428133
0000c0 0e 71 e7 bd 33 7e 6b 3d b9 1a 35 be cb 0f 56 3d
       -0.1130086 0.0574934 -0.17685975 0.052261155
0000d0 0b 30 af 3b a8 ba 4b bd 63 32 45 be a7 b5 a3 bc
       0.0053463033 -0.049738556 -0.19257502 -0.01998408
0000e0 56 f5 1d 3d 73 62 0a bd 7a c0 0b be 79 6c 09 be
       0.03856405 -0.033785295 -0.13647643 -0.13420285
0000f0 66 9b 4b bd cc 06 fb 3c 39 6f 75 3d 42 61 c7 3c
       -0.049708746 0.03064289 0.059920523 0.024338368

hidden_layers.1.weight f4 [64, 64]
000000 b9 b1 0b be 90 92 e5 b9 08 c7 e9 bd f9 1a f5 3c
       -0.13642015 -0.0004378748 -0.11414915 0.029920088
000010 1e ba 6d 3e da 3a f3 bd bb 9b aa bd 94 db 2d 3d
       0.2321553 -0.118764594 -0.083304845 0.042445734
000020 d8 2c 84 3d 0d dc ba bd 5d b6 24 3c 03 48 4c bd
       0.06453866 -0.091240026 0.010053244 -0.049873363
000030 b7 a8 51 bd 18 cb 5c 3c 1a 35 f1 bc 47 f4 87 3d
       -0.05118629 0.013476156 -0.029444266 0.06638389
000040 d4 ee 72 3d a3 a4 ac 3d 7b f0 d6 bd 31 fd cd bd
       0.059309795 0.084298395 -0.10495087 -0.10058058
000050 e1 eb 22 be 63 21 78 bd 9f 13 87 be 84 a6 f6 bd
       -0.15910293 -0.060578715 -0.26382157 -0.12043479
000060 d5 7a 13 3d 67 8f 11 be c9 a1 d4 bd 08 f4 0d be
       0.036005814 -0.1421486 -0.103824206 -0.13862622
000070 eb 40 ce bd 25 87 ff 3d 32 09 af bd 97 e0 f7 3c
       -0.10070976 0.12476949 -0.08546676 0.03025846
000080 bc ff bc bc b1 43 22 be 85 c2 4e 3d 80 11 81 be
       -0.023071162 -0.15846135 0.050478477 -0.25208664
000090 08 a5 00 be 62 6b 13 3e 0b 16 b3 bd 33 6c 02 be
       -0.12562954 0.14396432 -0.08744439 -0.12736587
0000a0 b0 24 35 3e ee 64 b6 3a 33 ca 3a be f6 a0 1d be
       0.17689776 0.0013915577 -0.18241195 -0.15393433
0000b0 03 65 c1 be 50 70 c9 bb 9a b5 c5 3d 51 ed 1d 3e
       -0.37772378 -0.006147422 0.096537784 0.1542256
0000c0 05 a9 19 bd a8 00 8f bd e8 6e 8c bc a1 bf a2 bd
       -0.037514705 -0.06982547 -0.017142728 -0.079467066
0000d0 0d 3a 2a 3c 16 b2 b0 3d 47 44 a5 3c fb 01 ac bc
       0.010389817 0.08627717 0.020174159 -0.020997038
0000e0 83 fb ff 3c 74 f4 f5 3c 58 02 2f bd 23 c9 61 3c
       0.03124786 0.03002379 -0.042726845 0.013780865
0000f0 b4 1d f3 bc 28 37 2b 3e de f8 45 be ae 91 d4 3d
       -0.02967725 0.16720259 -0.19333217 0.10379349
000100 c1 ba 8b bd 06 bf 68 bc 7a 79 aa bd 82 3c 08 be
       -0.0682273 -0.0142057 -0.08323951 -0.13304332
000110 c2 a5 86 3b d2 1e a3 bd c3 3a 55 bd 81 b9 9e bd
       0.0041091153 -0.07964863 -0.052057993 -0.07750226
000120 14 86 1f 3c 44 57 1c 3d cc fd 39 3d 3f 02 e9 3d
       0.009736557 0.03816916 0.045408055 0.113773815
000130 a2 1a 1a bb c0 70 13 3d 84 84 7c bd a1 f7 bf 3c
       -0.002351441 0.0359962 -0.061649814 0.023433508
000140 37 93 5f bd e7 91 db 3a 10 3a ab bd 9e 7a b1 3d
       -0.054583754 0.0016751856 -0.08360684 0.086659655
000150 e5 b3 df 3d 16 e2 7e 3d fc c8 a1 bd cf 13 32 3d
       0.10922984 0.06222733 -0.07899663 0.043475922
000160 b2 a9 18 be 42 5d 32 3e 75 e4 f2 bd 7a b6 d2 3b
       -0.14908484 0.17418388 -0.11859981 0.0064304443
000170 f6 e8 c5 bc 6d 1c f4 bc 22 a2 f0 bc c7 9b cf 3d
       -0.024158936 -0.02979871 -0.029374186 0.10137134
000180 45 66 c0 bc dd 9c a2 3b 6c 30 4f 3d db 29 07 3d
       -0.023486266 0.004962547 0.050583288 0.0329989
000190 65 71 83 bd 1b d7 d7 bd 9f de 43 3b f1 41 1a 3e
       -0.06418113 -0.10539075 0.0029887331 0.15064217
0001a0 40 4b da bd 56 70 64 3d 0b 5e bb 3d b4 d7 30 bd
       -0.10658884 0.055771194 0.09148797 -0.04317446
0001b0 d7 40 a9 bd 35 7e 99 bd f3 98 d3 bc 20 22 2e bc
       -0.0826432 -0.07494775 -0.025829768 -0.010628253
0001c0 57 25 d9 3d 12 ba 5c 3d df 98 45 3d 75 f7 16 bd
       0.10602825 0.053888388 0.048241492 -0.036857087
0001d0 6f ff 6d 3c 76 53 64 3d 3a 82 1b 3d 76 6a 31 bd
       0.014526232 0.055743657 0.03796599 -0.04331442
0001e0 4a 03 64 3c c5 8c 15 bd 5d 27 da bd 94 fc 5e bd
       0.0139168 -0.0365112 -0.10652039 -0.054440096
0001f0 f1 01 d1 bd d3 1b 70 bd 74 5e 1c 3d 2a 42 6e bd
       -0.102054484 -0.058620285 0.038176015 -0.058168568
000200 12 4c e5 3b 65 4c 67 bd 80 7d 98 bd 43 7d 76 bd
       0.0069975937 -0.05646934 -0.07445812 -0.060178053
000210 76 fd cd 3d 1a bb ca bd 78 5e ed bd 52 73 86 3d
       0.100581095 -0.09898968 -0.11590284 0.06564964
000220 06 c0 63 bc 9b f0 ca bd b7 c3 02 be 59 5d 3e 3d
       -0.013900762 -0.09909173 -0.12769972 0.046475742
000230 6d 39 79 3d e6 ce 3e 3e 6d dc 00 3e 62 c2 10 3c
       0.06084578 0.18633613 0.12584086 0.008835407
000240 8f 8b 11 bd ce ca 3b bc c6 4c 57 bd 22 8e 08 be
       -0.035533484 -0.011461927 -0.05256345 -0.1333547
000250 0b fe a4 bc de 77 8a bd ba 6a 06 be 6f 98 9e bc
       -0.020140668 -0.06761144 -0.1312665 -0.019359795
000260 3e 39 e7 bd e1 40 61 be f2 96 89 be 7c 6f 75 3d
       -0.11290215 -0.21997406 -0.26872975 0.059920773
000270 6d 99 99 3c 38 2c d7 bd 72 65 cd bd e9 7a b3 3c
       0.018749917 -0.10506481 -0.10029115 0.021909194
000280 79 44 38 bd fc 95 48 bc 33 b4 d0 bc 1f 57 29 3c
       -0.044987176 -0.01224279 -0.02547655 0.010335713
000290 1d b7 92 bb 65 49 af bd b8 76 8b 3d 34 45 d9 3d
       -0.004477395 -0.08558921 0.06809753 0.106089026
0002a0 ce 2c 86 bd c1 31 15 bd 58 18 04 be 8b 2e 23 3d
       -0.065515146 -0.036424402 -0.12899911 0.03983931
0002b0 76 9e ac bc 8b c4 e6 bd 50 3c 24 3d 09 51 87 bd
       -0.021071654 -0.11267956 0.04009658 -0.06607253
0002c0 91 10 4a 3b 31 06 17 be 82 a3 bd bd 84 8e 5e bc
       0.0030832628 -0.14748456 -0.09259702 -0.013583783
0002d0 69 44 3a bd bd 61 ac 3d 29 ef cd 3d b8 eb 2d bd
       -0.045475397 0.084170796 0.10055382 -0.042461127
0002e0 38 9b 3f 3d f9 ba c4 bd 11 4c 35 bc 2d 6a 4f be
       0.046778888 -0.09605975 -0.011065499 -0.20255347
0002f0 67 ce e0 3d ea 12 74 3d d5 60 c0 bd 87 f7 01 3e
       0.10976868 0.05958835 -0.09393469 0.1269208
000300 e3 09 bc bc 1e e6 29 3d 92 64 dc bd 0a 95 cf 3d
       -0.022953933 0.041479222 -0.1076137 0.10135849
000310 1d 86 b4 bb ff b1 eb bd 51 78 90 bc 5a 90 0d 3d
       -0.0055091516 -0.115085594 -0.017635496 0.034561493
000320 53 b1 16 bc 8a 60 76 bc ee c7 1d bd 8b 0a 87 3c
       -0.009197551 -0.015037665 -0.038520746 0.01648452
000330 8a fa 11 bd 9b 35 c6 bd 58 b9 06 3e 50 55 23 3d
       -0.035639323 -0.09678193 0.1315664 0.039876282
000340 47 ce b1 3d b4 ac f4 3b 4f 68 31 3d 11 12 80 3d
       0.086819224 0.007466877 0.043312367 0.06253446
000350 71 fe 92 bd 8a d6 ac bc 24 1d 1d bd ba a0 b7 bd
       -0.07177437 -0.021098394 -0.03835787 -0.08966203
000360 b3 c4 c4 bd c6 23 35 be dd fa bd bd e3 96 19 be
       -0.0960783 -0.17689428 -0.09276364 -0.14998965
000370 64 ff 43 3d 7c c5 c8 bd 5b c3 33 bd 57 7c d9 3d
       0.04785098 -0.09803292 -0.043887477 0.10619419
000380 04 09 d6 bd d6 26 da 3d 29 20 bc bd 06 95 c0 bc
       -0.10450938 0.106519386 -0.091858216 -0.02350856
000390 22 1b 3a 3d 47 b7 74 bd 1a 0e 43 3e 52 06 84 3d
       0.045436032 -0.0597451 0.19048348 0.06446518
0003a0 46 34 9b bd 39 c4 95 bd 50 1a a0 bc fc ce ab 3d
       -0.0757833 -0.07312817 -0.019543797 0.083890885
0003b0 d7 f7 c7 3d 4f 9f 7a 3c 43 bb 5e bc 26 45 02 bd
       0.097640686 0.015296771 -0.013594451 -0.031804226
0003c0 d7 67 15 3e 2c a1 14 bd b3 16 07 be 36 61 a2 bd
       0.14590393 -0.036286518 -0.13192253 -0.07928698
0003d0 c6 32 de 3d 11 61 b5 ba 7b e5 0b 3e 30 6f d8 3c
       0.10849528 -0.0013838132 0.13661759 0.026420206
0003e0 86 1a 84 bd 4c 73 ad bc 22 3c 60 bd d2 6b 07 3b
       -0.064503714 -0.021173142 -0.054744847 0.002066363
0003f0 52 9a 12 3b a0 2f 74 bd 60 e9 46 3d f5 2d a9 3c
       0.0022369814 -0.05961573 0.048562407 0.020651797

hidden_layers.1.bias f4 [64]
000000 84 19 9a ba ec 7d 1b bc e3 2d 9c bd f7 6b 8e bc
       -0.0011756872 -0.009490471 -0.0762594 -0.017385466
000010 a6 5e da 3d ba fe f2 3d 4e 15 87 3d b9 f1 b7 ba
       0.10662584 0.118649915 0.065958604 -0.0014033831
000020 e1 23 33 3d 49 39 ee bc a4 5c a6 3d 7b c6 a4 bc
       0.04373539 -0.02908005 0.081231385 -0.020114174
000030 95 49 36 3e c1 c9 58 bd 04 4d 75 3d 66 c9 b7 3d
       0.17801507 -0.052926783 0.0598879 0.089739606
000040 75 c7 93 bc 64 d5 19 3e 8f ee ae bd 6a ef b9 3c
       -0.018039444 0.15022808 -0.08541595 0.02269717
000050 05 47 e7 3c ef d5 ea bd 6a 0d d3 bb d0 7c c2 3d
       0.028232107 -0.11466586 -0.006440808 0.09496462
000060 a4 f5 ff 3d f0 0a 92 bd 48 7d b8 bd 7c 58 57 3d
       0.12498024 -0.071309924 -0.090082705 0.05257462
000070 f9 41 b1 bc 5d a8 0b bd b3 7e de bd 8d 0a bd bc
       -0.021637904 -0.03409611 -0.1086401 -0.02307632
000080 95 4a 80 bd 5e 1d 32 3d 77 0a b8 3d 83 69 a8 3c
       -0.062642254 0.043485038 0.08986371 0.020558124
000090 63 dd 38 bd 6c 5c ee 3d 31 6a 00 3e 9a 4a 07 be
       -0.045133006 0.11638722 0.12540509 -0.13212052
0000a0 ec e6 b7 3d 6e 3b a2 bd 27 e6 be 3d 89 9e dd 3b
       0.08979592 -0.079214916 0.09321242 0.0067632836
0000b0 0d f0 a2 bc 29 13 a2 bd a8 23 c1 3d 4b 1f 87 3d
       -0.019889856 -0.07913811 0.09430629 0.065977655
0000c0 65 03 96 bc 22 e2 ff bc 3e 60 8c 3d 87 a4 f9 3d
       -0.018312166 -0.031235758 0.06854294 0.12189584
0000d0 ea a1 c6 bd f8 5d 11 be 21 94 ee bd ea 70 84 bc
       -0.096988514 -0.14196002 -0.11649347 -0.016167123
0000e0 4e 77 08 be f6 81 9b bd 76 b2 a0 bd 9c 42 17 3d
       -0.13326761 -0.075931475 -0.07846539 0.036928758
0000f0 e8 4a b2 bc 7b c5 ca 3d 44 71 dc bd 30 d6 a7 bd
       -0.021764234 0.09900948 -0.10763791 -0.0819515

output.weight f4 [4, 64]
000000 33 69 f6 bd 46 54 ec 3c 6e 31 09 3e c5 76 b2 3c
       -0.12031784 0.028848778 0.13397762 0.02178515
000010 73 7e 76 3d b5 01 e9 bc 0a ac f4 bc b7 4c cc bd
       0.060179185 -0.028443197 -0.02986719 -0.0997557
000020 ba 9c ba bc f6 b9 8a 3c ca e4 d8 bd 60 06 48 be
       -0.022779811 0.016934376 -0.10590513 -0.19533682
000030 ff 05 82 be 86 0d 81 3d 7a 1f 25 3c 95 cc a6 bc
       -0.253952 0.063014075 0.010078305 -0.020361224
000040 73 1d 59 bd 8e 79 4e 3b 33 8a 71 3c c7 07 e2 3b
       -0.0530066 0.0031505558 0.014742422 0.0068979
000050 59 c5 1c bd 6c e1 b5 bc f1 d7 50 3d ec 85 63 be
       -0.038274143 -0.022202216 0.050987188 -0.22219056
000060 95 fa 46 be c4 09 c9 3c a7 fd 13 3d 45 d5 e5 3c
       -0.19431527 0.02454079 0.036130574 0.028055796
000070 43 1f 5a 3d 75 2e 5f bd fb 9c 10 3d f9 78 2d bc
       0.05325247 -0.054487664 0.03530596 -0.010587924
000080 b2 9e 42 3d f0 88 75 3d 87 91 2c 3d 2a b4 9c 3c
       0.047514625 0.059945047 0.042130973 0.019128878
000090 6e d9 3a be 12 f6 72 3d 3d 7f 0c 3d ba 14 c3 bc
       -0.18247005 0.059316702 0.03430103 -0.023813594
0000a0 57 49 67 be 37 2b 71 3c 06 f3 37 3d 06 06 44 bd
       -0.2258657 0.014719776 0.0449095 -0.047857307
0000b0 79 52 84 3d eb 08 9d bd 71 f8 51 be a4 0c 9c 3d
       0.06461043 -0.076677166 -0.20504929 0.076195985
0000c0 ff 3c a1 bd 0f 0c 9d 3c f4 53 b0 bd 18 62 76 39
       -0.07872962 0.019170789 -0.08609763 0.00023496931
0000d0 b1 37 95 bd ba 48 61 bd 48 4f 67 3d 1d 6c 00 3e
       -0.07286013 -0.055000998 0.056472093 0.12541242
0000e0 e4 71 68 bd fb d9 4e bc aa 7b 97 bd 0b 87 9c 3c
       -0.05674924 -0.012625213 -0.07396634 0.019107362
0000f0 09 90 99 3d 70 2e a1 3d 88 25 6c bd 32 ca 9e bd
       0.07498176 0.078701854 -0.05765298 -0.077534094
000100 85 72 5a 3c ca 98 91 3d 6f ae 79 bc 08 9e 59 3d
       0.013332968 0.0710922 -0.015239342 0.053129226
000110 92 7e 51 3d 9c 90 83 3d 5d f3 7d bd 42 55 e6 3c
       0.051146097 0.064240664 -0.061999667 0.028116826
000120 ff 87 bf bc 38 c6 1e bd 48 f7 9a 3c cb 6e 92 3d
       -0.023380278 -0.038763255 0.018916741 0.07150038
000130 b2 7d da bc cf 76 5c 3d 26 c6 b5 3b 3a a2 b3 3d
       -0.026671264 0.053824242 0.005547303 0.08771177
000140 e3 be db 3c a5 94 60 3d 7f 40 b7 bd 22 a9 a2 bc
       0.02682442 0.05482926 -0.089478485 -0.01985604
000150 f4 ca e4 3c aa 85 a4 bd cc 36 d8 3c 35 de 84 bb
       0.027928807 -0.08033307 0.026393317 -0.0040548095
000160 c7 d0 bb bc 0e 90 e5 3c d6 4f 08 3d aa ca 26 bd
       -0.022926701 0.028022792 0.033279262 -0.04072062
000170 8a 4e 35 3d e3 72 3c bd 41 e0 43 3d 57 4f 9e bd
       0.044264354 -0.046008002 0.047821287 -0.077299766
000180 ab 6d ee 3b ab 6f 57 3c 58 c6 b3 3c bd 7c bd 3c
       0.007276257 0.013149182 0.021945164 0.023130769
000190 af ed fc 3b c1 cd 18 3d 91 35 9d 3d 12 98 f2 bd
       0.007718764 0.037305597 0.076762326 -0.11845411
0001a0 ae 95 1d bd a2 6f a6 3d ad fa 03 3d ca 43 86 bd
       -0.038472824 0.08126761 0.032221485 -0.065558985
0001b0 b9 e8 b2 bd fd ed 87 bd ba b2 6d bd b3 1d ff 3c
       -0.087357946 -0.066371895 -0.058031775 0.031142091
0001c0 dd 29 91 bd 0a f0 ae bd 05 01 19 3c 35 c6 c5 3d
       -0.07088063 -0.085418776 0.009338622 0.096569456
0001d0 33 b4 27 bd d9 9a 29 3b 13 1f 18 bc b2 6b 83 3c
       -0.040943336 0.002587965 -0.009284752 0.016042564
0001e0 19 e4 83 bd 79 89 03 3d e9 d2 d1 3d 4a 15 db 3d
       -0.064399906 0.032113526 0.10245306 0.1069742
0001f0 79 93 bd bd c0 13 3f 3c 3f f9 b0 bc 7d 3a 3f bd
       -0.09256644 0.011662424 -0.021603225 -0.04668664
000200 18 13 0c be db c0 32 bd da b7 fb bd 0e dd 05 3c
       -0.13679159 -0.043640953 -0.12290926 0.008170379
000210 f5 40 19 ba 4b 76 96 3b bc 20 04 be 5e c0 03 3e
       -0.0005846166 0.0045917383 -0.12903112 0.12866351
000220 90 89 15 3e 47 0a 8c bd f7 1c 68 bc b3 2a 1f bb
       0.14603257 -0.06837898 -0.014167062 -0.0024286925
000230 9b a8 e2 3b 69 ba c5 3d 12 ed 48 3d 0a 6b 21 3c
       0.006917072 0.096546955 0.049054213 0.00985218
000240 87 e7 9c bd 62 08 12 3c a6 04 32 3e 61 10 8e bc
       -0.07661348 0.008913131 0.17384586 -0.017341794
000250 0f b6 d9 3a ad fc bb bc 7b 35 5a bd 19 e1 48 bd
       0.0016610044 -0.022947634 -0.05327366 -0.049042795
000260 56 39 71 bd 8b 9a 03 3d 82 62 1e 3e be 04 94 3c
       -0.05889257 0.032129806 0.15467265 0.018068668
000270 9c f4 86 bd b8 c2 b7 3d d7 36 51 3e 06 15 04 3c
       -0.06589624 0.089726865 0.20431076 0.008061653
000280 5d 1a 70 bd 56 d3 b7 bd 16 a5 a1 bd a4 fd 6f 3d
       -0.058618892 -0.08975856 -0.07892816 0.0585915
000290 e5 33 cf 3d b8 7f c4 3c 3f 9c 28 3d ab 12 93 3d
       0.1011732 0.023986682 0.041164633 0.07181295
0002a0 0d 2c df 3d a3 77 9f bd 72 05 ad bd f1 5b 7f be
       0.10897074 -0.07786491 -0.08448304 -0.24937417
0002b0 97 5c c4 bd 36 bb 57 bc f2 c0 5c 3b 67 ff 1d be
       -0.095879726 -0.013167193 0.003368434 -0.1542946
0002c0 75 cb f4 bd 88 2f 61 bd d8 4f 4d be 5e 5c 09 3a
       -0.11952869 -0.05497697 -0.20049989 0.0005239899
0002d0 c1 a1 df bd 8f ce 23 3e 8e b6 a7 bd 52 e8 a2 bd
       -0.10919524 0.15996765 -0.081891164 -0.07954468
0002e0 e2 f2 52 bc 4b 90 7e bd da 98 8e 3d 00 30 01 3d
       -0.012875291 -0.062149327 0.06962748 0.031539917
0002f0 fb a9 d1 bc 31 05 05 3d 6e 72 5f 3d ff 29 a4 3c
       -0.025593748 0.032475654 0.054552488 0.020039557
000300 7e 9a 38 3c bb 0c b0 bd 24 c2 57 bd 3a 04 ab bd
       0.011267303 -0.08596178 -0.05267538 -0.083504155
000310 8f b7 0d bc 92 fd 6e bc 41 98 20 bc 1e 86 5b bd
       -0.008649721 -0.014586823 -0.009801925 -0.0535947
000320 57 55 ca bd 47 59 fa bc f8 66 ad bc 79 c2 1d 3c
       -0.098795585 -0.030560149 -0.021167263 0.009628885
000330 e6 9e 9c bd de 3f 11 bc e3 9f 8b 3b a5 d7 7c bc
       -0.07647495 -0.008865325 0.0042610033 -0.015432273
000340 d1 bc 1c 3c d5 67 98 3a 68 c5 02 3d f8 73 23 3d
       0.009566502 0.0011627624 0.031926543 0.03990552
000350 f8 ea 5d 3d 60 5f f3 3d ba e0 2c bd 81 f1 95 3b
       0.05417916 0.11883426 -0.042206503 0.0045759086
000360 ed 87 84 3d f8 2b d4 3c 73 ee d3 3d 9f 5c a4 3d
       0.06471238 0.025899872 0.10348215 0.080254786
000370 4d d2 33 3d 47 e5 17 be 11 ff 1c bd 13 9a 73 bc
       0.04390173 -0.14833556 -0.038329188 -0.014868277
000380 af 4c ba bd 2b 99 07 bd 61 fa 66 3d b3 2f 09 3e
       -0.090966575 -0.033105057 0.056391124 0.13397102
000390 92 48 12 bd c2 da e5 3c cb 40 21 3d 87 28 98 3d
       -0.03571374 0.028058413 0.039368432 0.07429605
0003a0 09 f0 65 3c ce b2 99 3d 7c 6c 14 bc fd 47 2e bd
       0.01403428 0.075048074 -0.009059068 -0.042549122
0003b0 b7 b3 0e bd 5b 98 7f 3d 92 b4 65 3d 55 5f 31 3d
       -0.03483936 0.062401157 0.05608041 0.043303806
0003c0 72 f9 48 bb 07 48 84 3d 86 18 90 bd 9c 4a bc 3c
       -0.003066626 0.064590506 -0.070359275 0.022984795
0003d0 1a 4d 62 3d 24 d6 f3 bc cb 36 f3 bb 48 14 84 3c
       0.05524931 -0.029765196 -0.0074223033 0.016122952
0003e0 b5 d9 b3 bd 77 fd a2 bd 57 2d 8f bd c9 cb 18 3d
       -0.08781759 -0.07958501 -0.0699107 0.03730372
0003f0 93 8d ad bd 8e ec 05 3d f0 9d 3a bd 04 d9 9b bc
       -0.08474269 0.0326963 -0.045560777 -0.01902438

output.bias f4 [4]
000000 b5 7f 8b 3d 26 29 e7 3d 4b ff fb 3d 98 d2 e7 3d
       0.068114676 0.11287145 0.12304553 0.113194644

exp_avg f4 [64, 37]
000000 78 a0 01 35 bc a4 e6 37 95 eb 0b 37 58 aa fb b5
       4.828976e-07 2.7494847e-05 8.339896e-06 -1.8750534e-06
000010 9b cf 70 37 a9 a3 8c 36 d1 7e 7a 36 ff 66 d0 37
       1.4353452e-05 4.1913777e-06 3.732672e-06 2.4843494e-05
000020 22 d2 e0 35 20 3a a6 37 84 6d ce 37 78 7e f1 36
       1.6750457e-06 1.9815809e-05 2.460811e-05 7.1970826e-06
000030 6a 33 3d b6 bc 18 b7 36 1b a9 d6 37 c5 08 70 36
       -2.8193122e-06 5.4567045e-06 2.5589534e-05 3.5767891e-06
000040 cb 80 75 37 f5 56 33 b6 45 96 9e 37 e2 4c d8 36
       1.4633125e-05 -2.6723694e-06 1.8905042e-05 6.446252e-06
000050 b0 09 99 37 3a 14 3f b7 e5 9a bf 37 b6 49 9f 36
       1.8243532e-05 -1.13891965e-05 2.2841103e-05 4.7471503e-06
000060 f8 0b 89 36 bc 61 c3 36 91 35 fa 36 d7 fd 2b 36
       4.0843115e-06 5.8228306e-06 7.4568165e-06 2.562874e-06
000070 56 07 9c 37 fa 2a 34 37 09 71 2b 36 67 7c 78 36
       1.8600065e-05 1.0738842e-05 2.554678e-06 3.7027291e-06
000080 1e 98 70 37 50 46 68 37 31 2b 20 37 45 20 15 37
       1.4340532e-05 1.38446485e-05 9.546799e-06 8.888605e-06
000090 4a 39 06 b9 24 61 59 b6 a1 42 af b3 c4 78 82 b8
       -0.00012800578 -3.2392063e-06 -8.161192e-08 -6.2213774e-05
0000a0 c8 5a 79 36 e5 ff db b7 5d ff 84 35 b9 64 92 34
       3.7156733e-06 -2.6225995e-05 9.909087e-07 2.7267905e-07
0000b0 1e df 8d b8 62 3f 99 36 0a d4 65 b8 09 7f 84 b8
       -6.764963e-05 4.567134e-06 -5.479533e-05 -6.3179126e-05
0000c0 46 97 e9 b6 2c d3 bd 36 75 d0 32 36 5a 9c 16 b7
       -6.9615517e-06 5.6572226e-06 2.6645405e-06 -8.9771e-06
0000d0 ab 4b 22 37 a6 41 45 b6 b6 33 66 b6 91 92 88 b8
       9.67357e-06 -2.93935e-06 -3.430277e-06 -6.5122855e-05
0000e0 93 37 8a 36 10 8b 6d b8 98 de d8 b6 7b c5 db 35
       4.11919e-06 -5.6634715e-05 -6.463215e-06 1.6374246e-06
0000f0 c3 69 c0 b4 fd 36 a1 b6 b8 1b 31 37 c1 ed ef b6
       -3.583974e-07 -4.8045754e-06 1.0556476e-05 -7.1504332e-06
000100 7d b3 ad 35 30 80 8b b8 8c a8 c6 b5 97 1f 04 37
       1.2941742e-06 -6.651913e-05 -1.4801203e-06 7.875168e-06
000110 7d 81 5a b6 e1 bd 31 b6 bf c6 85 b8 e3 1d 47 35
       -3.2559904e-06 -2.648558e-06 -6.3789535e-05 7.417677e-07
000120 e9 7b b1 b8 23 1f b1 b8 07 49 02 38 91 57 11 38
       -8.463098e-05 -8.4458174e-05 3.1062427e-05 3.4652247e-05
000130 b8 29 1e b7 23 3b 9c 36 c5 9a 17 38 14 18 82 37
       -9.427247e-06 4.6560467e-06 3.6145346e-05 1.550842e-05
000140 e2 2f 7a 37 3a 3e f7 37 36 ce 8c 35 48 7a 81 37
       1.491231e-05 2.9473671e-05 1.0490828e-06 1.543494e-05
000150 2e 6e d1 36 be f8 e5 37 10 cf 6e b6 5b 60 01 38
       6.241512e-06 2.7414757e-05 -3.558529e-06 3.0845735e-05
000160 52 dd 1f 37 5c 81 35 37 de 0d f8 37 b5 55 af 37
       9.528669e-06 1.08185595e-05 2.9570361e-05 2.0901536e-05
000170 ea 48 ba b4 df 7d aa 37 53 75 b6 b5 77 52 ea 37
       -3.4698252e-07 2.0324193e-05 -1.3594203e-06 2.7933374e-05
000180 c2 9d d9 37 78 64 0d 37 45 df f1 37 8f 88 af 37
       2.5941878e-05 8.427647e-06 2.8833407e-05 2.0925216e-05
000190 52 80 a8 37 43 74 b4 37 fe 1f d4 b5 05 95 9b 37
       2.0086914e-05 2.151181e-05 -1.5804542e-06 1.8546833e-05
0001a0 89 7a b3 37 4d 40 92 37 85 bf 10 38 82 fd 4f b7
       2.1395523e-05 1.7434499e-05 3.4510642e-05 -1.2397186e-05
0001b0 1b 70 05 38 d3 1b 9a 36 a6 ab 6a b9 a7 3c ef 37
       3.1814077e-05 4.592797e-06 -0.00022379923 2.8519264e-05
0001c0 76 85 36 b7 c8 fc 76 b8 47 69 7e 36 be 4a 39 38
       -1.0879119e-05 -5.888639e-05 3.791023e-06 4.4177046e-05
0001d0 57 7d e1 b4 06 ff 8a 37 96 4b 64 b8 e0 72 5d 35
       -4.2000713e-07 1.6569637e-05 -5.442983e-05 8.249608e-07
0001e0 a8 12 1e b8 59 55 60 b8 b4 8a 02 37 a2 ef 33 37
       -3.768751e-05 -5.3485248e-05 7.780898e-06 1.0725025e-05
0001f0 c1 27 26 b6 37 fb 4e b8 e1 49 0e 37 b0 58 96 36
       -2.4759067e-06 -4.934819e-05 8.481061e-06 4.480673e-06
000200 22 5d 8d 37 ad 12 8d b8 97 4e 36 37 38 66 66 b8
       1.6851878e-05 -6.7268826e-05 1.08663435e-05 -5.4931472e-05
000210 9b a5 23 37 3c 2c fd b5 d9 33 21 37 8a d5 d7 b6
       9.754115e-06 -1.8862843e-06 9.6084195e-06 -6.4323585e-06
000220 9a c4 39 36 46 01 1d 37 1d c7 82 36 be 4e 60 b8
       2.7681585e-06 9.358226e-06 3.8974817e-06 -5.3479096e-05
000230 12 cc 30 37 e7 06 80 35 cf e3 a4 36 a3 4d 19 37
       1.0537931e-05 9.538752e-07 4.9141013e-06 9.137587e-06
000240 59 09 5c b8 11 2e 42 37 af 91 1a 39 90 67 ba 39
       -5.2460793e-05 1.1574027e-05 0.00014740856 0.00035553845
000250 55 c2 b6 b6 f9 e3 38 34 be dd 39 36 cd ad b5 33
       -5.446646e-06 1.7219271e-07 2.769622e-06 8.4600835e-08
000260 1b b8 87 b3 bc fa c7 b5 35 fc a7 35 af 3d ab b1
       -6.319916e-08 -1.4899629e-06 1.2515872e-06 -4.9837676e-09
000270 60 16 12 b6 96 10 18 36 fb 03 a6 b5 97 e4 fc 33
       -2.176872e-06 2.265942e-06 -1.2369122e-06 1.1776245e-07
000280 bf 57 13 b6 56 1d 70 35 e6 80 be b5 a9 d7 65 b6
       -2.1955782e-06 8.9449657e-07 -1.4193618e-06 -3.424919e-06
000290 ec 8a 81 b6 54 03 8f 36 4c ee 21 35 cf f7 aa b6
       -3.860672e-06 4.2621195e-06 6.032394e-07 -5.0952435e-06
0002a0 76 ef 68 af 68 95 b6 34 f0 18 38 b6 62 ad 90 b2
       -2.1185351e-10 3.400885e-07 -2.7432652e-06 -1.6842652e-08
0002b0 61 df c2 35 24 a7 66 b6 9a 7f 8f 2e f4 de c0 35
       1.4519138e-06 -3.436996e-06 6.525554e-11 1.4370003e-06
0002c0 7a a5 e1 b4 e2 c1 de b4 ce f7 f5 b5 89 9b 97 b2
       -4.2029916e-07 -4.149179e-07 -1.8326043e-06 -1.7649443e-08
0002d0 8c d6 6e 35 93 eb c3 b5 6e 6d fb b4 db 64 13 36
       8.8974116e-07 -1.4597193e-06 -4.6832014e-07 2.1963413e-06
0002e0 c1 01 7b 35 1f 1a ef b6 b9 88 bb 36 f7 83 16 36
       9.350734e-07 -7.125796e-06 5.588951e-06 2.2428555e-06
0002f0 b3 23 11 b6 01 6c e4 34 33 9a 92 b6 7b b9 c5 b4
       -2.1627463e-06 4.2546893e-07 -4.36909e-06 -3.6829064e-07
000300 24 99 8d b6 a9 ad fb 36 cb de 1f b6 e1 06 7a 36
       -4.2199554e-06 7.5005996e-06 -2.382253e-06 3.7256907e-06
000310 5c da 77 b6 af 9d 68 36 5d 46 a6 b6 90 65 15 b6
       -3.693297e-06 3.4662478e-06 -4.955377e-06 -2.2261847e-06
000320 92 88 8c 36 99 aa 0a b6 ef ea 39 35 e8 51 8f b6
       4.188224e-06 -2.0662903e-06 6.9259744e-07 -4.2712672e-06
000330 bf e6 8b 34 f5 61 e0 b6 09 5a 40 36 e1 03 8b 35
       2.6058657e-07 -6.687124e-06 2.8662637e-06 1.0357436e-06
000340 cd 4a b2 35 2d ba 29 b6 8f f0 de b5 50 b7 ba 35
       1.3283803e-06 -2.529133e-06 -1.6610301e-06 1.3911431e-06
000350 f2 3c c4 b5 8d c4 93 34 6c bd 4d b6 cd 57 e3 b6
       -1.4620875e-06 2.7523893e-07 -3.0657638e-06 -6.7753485e-06
000360 04 19 ed b5 78 5f c6 b4 c3 22 fa 36 1d d2 74 b6
       -1.7665157e-06 -3.6949837e-07 7.4546274e-06 -3.6481135e-06
000370 db b7 76 37 55 b8 23 38 2d 4e 39 b7 9c c9 5b 36
       1.470555e-05 3.90339e-05 -1.1045061e-05 3.2750895e-06
000380 6c d4 c2 37 75 81 0a b7 ef 75 a8 b6 e1 fc 56 35
       2.3225519e-05 -8.2555825e-06 -5.0205194e-06 8.00892e-07
000390 9b 9d e5 36 01 30 67 b6 09 64 49 36 e5 bb 48 36
       6.8430795e-06 -3.4449624e-06 3.0009562e-06 2.9911691e-06
0003a0 bf 22 92 b3 3a f7 50 b7 19 fe c4 37 65 54 7c b6
       -6.804975e-08 -1.2455328e-05 2.3483344e-05 -3.760005e-06
0003b0 9b bd 71 b5 7f 75 a2 36 1b 5d 4f 37 da 6d 0a b7
       -9.005541e-07 4.8416546e-06 1.2359839e-05 -8.251018e-06
0003c0 21 f3 ea b5 b9 da 34 36 b9 3d f4 b5 8d e7 a6 35
       -1.7505118e-06 2.6949403e-06 -1.819738e-06 1.2435354e-06
0003d0 10 d4 17 b4 b0 d5 04 37 a6 f9 17 36 47 74 0d 36
       -1.4140119e-07 7.917566e-06 2.2646068e-06 2.107832e-06
0003e0 18 82 b5 36 8a 6f 69 35 c0 4b 9f b5 42 f6 0c b5
       5.4093653e-06 8.6961575e-07 -1.1868469e-06 -5.2512416e-07
0003f0 8a 96 d5 36 84 8a db 36 ea e1 a2 b5 5b d1 96 b6
       6.3654197e-06 6.542834e-06 -1.213569e-06 -4.4947205e-06

exp_avg_sq f4 [64, 37]
000000 a8 ff d1 30 35 3e 9b 31 83 74 82 32 03 da f8 2f
       1.5279413e-09 4.518166e-09 1.5186975e-08 4.5265844e-10
000010 cd 9b e8 30 d4 b9 80 32 51 a2 40 31 41 1f 20 31
       1.6924503e-09 1.4985666e-08 2.8031943e-09 2.330083e-09
000020 cd 29 23 30 9d 70 37 31 88 ed 12 31 fa 04 23 31
       5.9358457e-10 2.6694018e-09 2.1380817e-09 2.372245e-09
000030 0c f9 41 32 bb 27 a8 31 67 dc 05 31 b4 21 41 32
       1.1290705e-08 4.8939603e-09 1.9479331e-09 1.1241742e-08
000040 18 80 8d 31 f2 49 9a 31 2d f5 92 30 34 7e 38 32
       4.1182027e-09 4.4903965e-09 1.0692581e-09 1.0738905e-08
000050 1d 2f 29 31 67 9a 19 31 1f f4 7e 32 30 a5 8c 30
       2.4619518e-09 2.2352198e-09 1.4840253e-08 1.023329e-09
000060 55 b9 4e 31 c2 e3 78 32 c7 5b 42 31 18 a3 eb 30
       3.0082294e-09 1.4487286e-08 2.8282885e-09 1.7144854e-09
000070 07 70 cf 30 a8 6d b5 30 54 e4 4c 32 4e 9a 1d 31
       1.5093072e-09 1.320065e-09 1.1926279e-08 2.293422e-09
000080 c7 d1 bd 31 72 e1 a3 30 dd 30 18 31 83 42 eb 31
       5.524473e-09 1.1923886e-09 2.2146687e-09 6.8469617e-09
000090 2a d9 7c 34 41 8c 5e 31 d1 f6 3f 31 e7 c1 e2 32
       2.3548333e-07 3.2384977e-09 2.7934457e-09 2.639804e-08
0000a0 79 ba 45 30 6d 59 bc 30 4a e7 6a 32 fb f9 90 31
       7.1933176e-10 1.3704217e-09 1.3673182e-08 4.219371e-09
0000b0 e6 e2 73 32 43 75 06 30 45 84 54 32 3b 7e 6b 32
       1.4196052e-08 4.8915555e-10 1.2370099e-08 1.3707502e-08
0000c0 9c 68 7b 31 a3 da 6a 32 15 08 f1 30 ad 90 a5 31
       3.658477e-09 1.3670305e-08 1.7537355e-09 4.8185798e-09
0000d0 a7 ad 8c 32 ef 87 49 31 70 f4 cf 30 08 e0 48 32
       1.6377113e-08 2.932662e-09 1.5130706e-09 1.1692471e-08
0000e0 6d ae 5b 32 c5 fe 80 32 c3 cd e5 30 da 10 77 32
       1.2787138e-08 1.5017017e-08 1.6720424e-09 1.4381124e-08
0000f0 f6 2d c3 30 27 f4 11 31 37 4d 86 32 0f a0 46 31
       1.420118e-09 2.1239062e-09 1.5634766e-08 2.8903775e-09
000100 24 24 a6 30 68 4b 5d 32 2c 75 e8 30 2a 90 8a 32
       1.2088361e-09 1.28810385e-08 1.6913524e-09 1.6130873e-08
000110 7f 65 df 30 a6 a3 1e 31 5d 87 61 32 fc c5 b5 30
       1.6254232e-09 2.308505e-09 1.3127502e-08 1.3225754e-09
000120 05 3a 50 32 cc 45 c2 34 21 14 ff 30 0e 28 83 31
       1.2120386e-08 3.61861e-07 1.8559413e-09 3.8171555e-09
000130 90 f3 e5 31 4b a4 ab 2f 73 03 e8 30 71 62 46 31
       6.692467e-09 3.1221456e-10 1.6881202e-09 2.886875e-09
000140 03 a6 3a 31 ce b7 bc 31 c6 05 a9 30 2f d5 84 31
       2.716093e-09 5.4924163e-09 1.2298009e-09 3.865942e-09
000150 48 0d 9d 31 7e f2 2e 31 3b 81 6c 31 d4 31 ea 30
       4.5708113e-09 2.5458173e-09 3.441598e-09 1.7039903e-09
000160 c7 df 29 31 91 b9 2f 31 d0 89 8b 31 c4 b1 11 31
       2.471994e-09 2.5571334e-09 4.0611e-09 2.1201325e-09
000170 ee d7 6b 31 c6 46 50 31 24 93 86 31 d5 e0 37 31
       3.4319743e-09 3.0308214e-09 3.9166412e-09 2.6757807e-09
000180 3e 64 84 31 08 04 dc 30 b1 13 de 30 30 fe 2c 31
       3.853102e-09 1.6008253e-09 1.6158223e-09 2.5173783e-09
000190 21 6e 4a 31 75 26 3e 31 27 08 85 31 d3 38 bb 30
       2.945747e-09 2.76705e-09 3.8717363e-09 1.3622191e-09
0001a0 39 c5 2e 31 5a 03 54 31 ad 59 3c 31 db 1c 7d 31
       2.543244e-09 3.0851965e-09 2.7408575e-09 3.6832748e-09
0001b0 b3 0d 01 31 a0 ed 1e 32 26 5d 92 34 5b 06 9f 31
       1.8779758e-09 9.25084e-09 2.7262394e-07 4.6282316e-09
0001c0 d1 ce e3 30 a2 f6 95 33 3b e1 d9 30 44 7f 66 31
       1.6575205e-09 6.9832154e-08 1.5852842e-09 3.3541747e-09
0001d0 18 7b 08 32 ec dc f3 31 65 47 85 33 0e 0c 6f 30
       7.94423e-09 7.0973467e-09 6.206282e-08 8.6964824e-10
0001e0 3a 97 5f 33 23 42 85 33 35 61 31 31 06 dc 62 32
       5.2058773e-08 6.205325e-08 2.5812146e-09 1.3204959e-08
0001f0 0b 2f e1 2f c8 10 8b 32 e5 8d 75 32 89 dc 11 31
       4.0960688e-10 1.6189361e-08 1.429314e-08 2.1225637e-09
000200 af c9 1d 31 96 ea 7f 33 f9 1c 3d 32 d9 39 84 33
       2.296115e-09 5.958517e-08 1.10078355e-08 6.1572514e-08
000210 aa f3 68 31 14 63 4b 32 6c 54 a7 30 79 13 8c 31
       3.389895e-09 1.1838683e-08 1.2174843e-09 4.07675e-09
000220 ab b7 3c 32 00 08 39 31 dd 21 0a 31 28 cd 85 33
       1.09848015e-08 2.692559e-09 2.0100892e-09 6.230613e-08
000230 76 c7 0f 31 89 7a 6a 32 7e 45 56 31 da 0b 11 31
       2.092262e-09 1.3648454e-08 3.11806e-09 2.1107014e-09
000240 61 b0 7b 33 26 06 3b 31 dc 4b af 32 a1 08 5c 35
       5.8600907e-08 2.7215576e-09 2.0407178e-08 8.1968943e-07
000250 12 83 6b 31 24 38 41 31 bb ac af 34 c9 8b 1e 30
       3.4271506e-09 2.8117109e-09 3.2721968e-07 5.767871e-10
000260 13 e0 86 31 32 45 9b 34 2a c7 34 33 76 dc 57 30
       3.9253876e-09 2.8921346e-07 4.2090655e-08 7.852984e-10
000270 bc ed a3 30 76 97 dc 32 8f 49 39 30 2e 32 2c 31
       1.1927379e-09 2.5680247e-08 6.740714e-10 2.5057818e-09
000280 2f eb aa 34 a1 5e 2c 32 ca 55 1c 32 f7 01 ac 34
       3.1836086e-07 1.0033234e-08 9.099901e-09 3.2038926e-07
000290 32 f4 47 31 6c c9 2f 32 27 4b 6f 30 9c 1d 9c 34
       2.909712e-09 1.0232139e-08 8.705449e-10 2.9078808e-07
0002a0 94 cb 0a 31 fc 1d 09 31 55 20 b0 34 2d 71 75 30
       2.0197364e-09 1.9953168e-09 3.280608e-07 8.9291313e-10
0002b0 05 7d 98 32 34 36 af 34 7b 5d b1 30 3b 7a 94 31
       1.7751981e-08 3.2635728e-07 1.2905014e-09 4.321263e-09
0002c0 d7 df 0d 31 a9 5a 49 32 3c ec aa 34 ae 5c d9 30
       2.0645439e-09 1.1720354e-08 3.183685e-07 1.5815169e-09
0002d0 1b b2 46 32 f5 d2 6f 30 fa 08 b9 31 85 5c 61 33
       1.1565613e-08 8.724748e-10 5.385229e-09 5.247104e-08
0002e0 38 5a 9b 34 46 6c 3d 31 d3 df a4 30 4f d2 8d 31
       2.8936643e-07 2.7564666e-09 1.1996185e-09 4.1275494e-09
0002f0 a0 ef 5b 2f 56 f8 82 30 e7 a8 e0 31 62 03 91 30
       2.0003066e-10 9.529326e-10 6.53846e-09 1.05511e-09
000300 40 7a 0e 30 b1 24 b2 2f ab 65 2a 30 fb 81 21 30
       5.1833027e-10 3.2404082e-10 6.199012e-10 5.875617e-10
000310 f9 41 58 31 35 cb 8e 31 93 85 04 30 71 f5 a3 30
       3.1469638e-09 4.155846e-09 4.821114e-10 1.192957e-09
000320 40 52 ad 31 6d 68 38 31 ff de ed 2f 62 ba 88 2f
       5.0443134e-09 2.6834883e-09 4.3268497e-10 2.487069e-10
000330 6c 1d a0 31 43 8e ca 30 f1 82 17 31 50 30 90 31
       4.6599578e-09 1.4737868e-09 2.2047824e-09 4.196444e-09
000340 fb e5 ec 2f 01 93 3f 30 0f 49 ab 31 ad 21 2e 31
       4.309156e-10 6.96943e-10 4.985061e-09 2.5339475e-09
000350 7f 8b 14 30 77 48 bd 2f 5f 8a 37 30 d3 98 df 31
       5.404032e-10 3.443039e-10 6.677165e-10 6.5075283e-09
000360 51 2b 6e 30 81 65 05 30 d7 df ea 2f 14 66 11 30
       8.664545e-10 4.8529364e-10 4.27234e-10 5.2895754e-10
000370 2a ee 55 31 f9 19 42 34 0b a3 b6 31 00 60 96 31
       3.113096e-09 1.8077107e-07 5.315433e-09 4.3764885e-09
000380 39 9f e2 33 c0 ab 5a 30 24 51 6f 31 a1 1b bb 33
       1.05529075e-07 7.955201e-10 3.48252e-09 8.712892e-08
000390 a8 76 d5 32 3d 27 2e 31 b7 80 79 30 72 07 76 32
       2.4850422e-08 2.5342637e-09 9.0768587e-10 1.43207775e-08
0003a0 44 55 20 31 59 33 f3 31 fc 9a e0 33 00 bc 55 30
       2.3331532e-09 7.0780684e-09 1.0459004e-07 7.775611e-10
0003b0 ad 3c bf 31 33 fb e0 33 0b 70 f2 31 2c d2 f9 30
       5.5657297e-09 1.0476506e-07 7.055865e-09 1.8176869e-09
0003c0 c1 4e d7 30 4b 09 c6 33 98 77 21 31 a5 8c ea 31
       1.5665692e-09 9.221784e-08 2.3496565e-09 6.8262858e-09
0003d0 d5 9f df 33 97 23 2e 30 c6 71 10 32 56 dd dd 33
       1.041332e-07 6.335141e-10 8.407772e-09 1.0331375e-07
0003e0 95 2f e5 31 c7 0d fb 30 8b 71 1e 31 81 29 ea 31
       6.6701866e-09 1.8266569e-09 2.3056568e-09 6.8150148e-09
0003f0 d6 13 ea 33 8c 9c 6a 31 68 f8 10 31 0e 53 ae 30
       1.0900082e-07 3.4140468e-09 2.109596e-09 1.2683772e-09

exp_avg f4 [64]
000000 74 76 10 38 c6 a4 81 b8 90 9d 7f 38 3e 19 1d b8
       3.4442593e-05 -6.181891e-05 6.094348e-05 -3.7455226e-05
000010 41 6b 22 b6 1a 85 c3 b5 32 97 f1 36 78 84 b7 38
       -2.420231e-06 -1.456737e-06 7.199961e-06 8.750794e-05
000020 2f 47 1c b7 7f b8 71 b8 85 69 13 b8 0f 62 90 b3
       -9.314898e-06 -5.7630703e-05 -3.5145804e-05 -6.723359e-08
000030 77 4b 8c 37 46 f6 03 b8 4f 64 8c b8 1f 21 1e b7
       1.6724442e-05 -3.1462194e-05 -6.694404e-05 -9.4252455e-06
000040 f8 b9 d2 37 c0 7d 4f 35 58 5c 67 38 8a 01 c9 b7
       2.512055e-05 7.72965e-07 5.5160694e-05 -2.3961784e-05
000050 75 63 93 b6 20 45 3b b7 d4 f6 60 38 b6 eb 2f 37
       -4.3925197e-06 -1.1162163e-05 5.363564e-05 1.0485694e-05
000060 26 7b 64 36 b3 6f 2f b7 9f 2f b8 36 1e e3 45 37
       3.404633e-06 -1.045682e-05 5.489171e-06 1.1794995e-05
000070 90 87 ee 36 99 02 59 35 30 22 9f 37 bf ac 2f b7
       7.1087343e-06 8.084258e-07 1.8970197e-05 -1.0471033e-05
000080 10 d8 e1 b7 bb e3 50 37 06 7c a1 b7 9e fe f7 35
       -2.6922702e-05 1.2450789e-05 -1.9250449e-05 1.8477037e-06
000090 bb 8c a2 b7 de b6 a7 36 d4 46 28 36 08 fc 4a b6
       -1.9377438e-05 4.9982764e-06 2.5075178e-06 -3.0247047e-06
0000a0 d1 62 35 39 b8 32 97 b7 28 46 fa b7 2e 99 95 35
       0.00017298317 -1.802422e-05 -2.9834991e-05 1.1145946e-06
0000b0 0e 88 3f b8 5b 9b 35 36 e3 22 96 b7 01 44 9b b8
       -4.566466e-05 2.706153e-06 -1.7897639e-05 -7.403643e-05
0000c0 95 73 0b b8 d2 ea 85 b7 13 12 2c b8 eb 10 af b8
       -3.3247827e-05 -1.5964182e-05 -4.102483e-05 -8.3478015e-05
0000d0 b7 c5 25 32 9a cb c4 36 a6 db 50 b6 02 f6 f8 b6
       9.649219e-09 5.8649575e-06 -3.1122268e-06 -7.419615e-06
0000e0 14 f8 5a 35 51 99 da b7 db fc bc b7 51 2c 86 b6
       8.157233e-07 -2.6059019e-05 -2.2529091e-05 -3.9986703e-06
0000f0 ef 92 0c 37 e8 d9 d5 b7 eb f1 bf 37 39 1e 48 b8
       8.378861e-06 -2.549305e-05 2.2881626e-05 -4.7711863e-05

exp_avg_sq f4 [64]
000000 de aa c1 32 37 32 0b 33 0b 48 58 32 a8 1d ae 33
       2.2545859e-08 3.240913e-08 1.2589235e-08 8.107901e-08
000010 62 84 b2 34 42 d3 10 32 61 06 f8 33 ea 9c 60 32
       3.3251405e-07 8.429938e-09 1.154956e-07 1.3074194e-08
000020 46 7c c3 31 29 c3 61 33 13 d7 64 32 0b 5d 02 34
       5.689375e-09 5.2564392e-08 1.3320249e-08 1.2141042e-07
000030 a5 e5 0d 33 17 8f c2 32 29 da 33 33 e4 00 be 31
       3.303798e-08 2.2649642e-08 4.18751e-08 5.529829e-09
000040 25 8e 2e 32 51 e0 2c 32 8a 33 3b 32 06 0f 86 31
       1.0160453e-08 1.0062721e-08 1.0896551e-08 3.9016212e-09
000050 31 a3 e4 31 f9 16 49 32 76 b4 40 33 6e 0c 39 33
       6.654226e-09 1.1704963e-08 4.4867612e-08 4.3084974e-08
000060 ba 0e 9b 33 6e 01 77 32 69 0d 6c 33 d4 3e 5f 32
       7.220429e-08 1.4377617e-08 5.496023e-08 1.2994594e-08
000070 e1 94 af 32 39 c3 14 32 45 f7 09 31 0e 78 12 31
       2.0440384e-08 8.659122e-09 2.007668e-09 2.131404e-09
000080 ca fe f3 32 da 4b 5e 31 07 f3 fc 32 f7 f8 79 32
       2.8404788e-08 3.2348368e-09 2.9447177e-08 1.4550316e-08
000090 7b 5b 21 32 ce ff 00 34 f5 94 a3 31 79 8e 48 33
       9.392234e-09 1.201399e-07 4.760859e-09 4.6695707e-08
0000a0 19 fa 8a 33 f1 bc c0 32 e3 d4 3a 32 d6 fc 37 33
       6.471618e-08 2.2437662e-08 1.087503e-08 4.283796e-08
0000b0 93 39 16 33 ed 74 0d 34 ef ca 32 33 b0 be a8 32
       3.497696e-08 1.3174186e-07 4.162842e-08 1.9644489e-08
0000c0 94 35 d6 31 b2 99 4c 32 3b 5a 79 32 67 9a 9b 32
       6.234311e-09 1.1909309e-08 1.4514224e-08 1.8114589e-08
0000d0 91 30 89 32 56 cd 60 34 e9 c0 e5 31 eb 12 ed 32
       1.5970985e-08 2.0936326e-07 6.6867085e-09 2.7599034e-08
0000e0 0c c6 d8 31 85 28 9f 33 a1 04 12 32 ef b0 ef 31
       6.3089427e-09 7.411385e-08 8.499371e-09 6.9759305e-09
0000f0 ff ac 0e 32 1d b8 5a 34 2b ef 78 33 b5 57 ac 32
       8.304823e-09 2.0369812e-07 5.795952e-08 2.006332e-08
