p1_navigation/DQN20190128_v4.pth (torch_old, 85243 bytes, 18 tensors)

hidden_layers.0.weight f4 [64, 37]
000000 f7 39 09 3d 79 4e d1 3d 56 fe 89 be d6 d0 b1 bc
       0.033502545 0.102200456 -0.26951855 -0.021706026
000010 51 3b d1 bd 68 5f bd bd 2a 85 18 bc 0f 62 48 3e
       -0.10216392 -0.09246713 -0.009309093 0.19568656
000020 ac 2d 9c 3c f3 18 8e 3d ad a6 1c bd f0 3d ce bd
       0.019064747 0.069383524 -0.038244892 -0.100704074
000030 63 55 5b be be 77 e4 bd 8f 3b b1 bc 8a 64 0f 3e
       -0.21419291 -0.111556515 -0.021634845 0.14003196
000040 b4 79 51 3c ed 9a 6a 3c ca 69 3d be 53 85 6c bc
       0.012785364 0.014319164 -0.18497387 -0.014436084
000050 3f bb e5 bd 1c d6 0b 3e d2 1e ff 3c b9 08 63 3e
       -0.11217355 0.13655895 0.031142626 0.22171296
000060 d5 ba d1 3b 0f 7e 19 3e 95 40 31 3e 26 c6 d0 bd
       0.006400446 0.14989494 0.17309792 -0.10194044
000070 fe 91 60 be 82 5a d7 bc 9d 14 15 be 24 42 28 3e
       -0.21930692 -0.026288275 -0.14558645 0.1643148
000080 b3 e1 03 be a1 f5 86 bd 76 d0 01 be 72 cb 81 be
       -0.12879066 -0.06589819 -0.12677178 -0.2535053
000090 bb e7 13 be d9 ba 0d 3e 0f da 72 bd 7e f6 3d 3c
       -0.14443867 0.13840808 -0.059289988 0.011594413
0000a0 82 b3 2f 3d 75 1b c0 3d d3 55 de 3d 16 4c 83 be
       0.0428958 0.09380237 0.108562134 -0.25643986
0000b0 18 79 c0 bd 5b ac 8c be da ee c8 bc ba cf 17 be
       -0.09398097 -0.27475247 -0.024527956 -0.14825335
0000c0 ab 49 53 bd 83 d4 ec bc e8 f9 2a 3e 57 ff ce 3d
       -0.051583927 -0.028909927 0.16696894 0.10107296
0000d0 a5 7e 1d 3e 98 fb e5 bd 7a 26 15 3e c7 8e 6b bd
       0.15380342 -0.11229628 0.14565459 -0.05750921
0000e0 f4 5b 7b 3d a0 74 ab bd 10 53 11 be b1 b7 b1 be
       0.06136699 -0.08371854 -0.14191842 -0.34710458
0000f0 5f 13 37 3e 5e ef 10 3c 43 7a 95 bc ac b8 dc bc
       0.17878483 0.008846132 -0.018246775 -0.026943527
000100 23 81 2f bc 0f d4 02 be 0a ab b5 3c b7 bb ac bc
       -0.010711941 -0.12776206 0.022176284 -0.021085603
000110 35 45 a8 3c 51 0f 8f 3e bd 04 96 be f6 6d ad bd
       0.020540813 0.27941373 -0.2930049 -0.08468239
000120 b0 0d ff 3d 91 7c 10 3d e3 17 82 3e 2a ad f2 bd
       0.124537826 0.035275046 0.2540885 -0.11849435
000130 c1 50 92 3d 6b 48 c4 be ad d8 20 bc 82 36 a4 b8
       0.07144309 -0.383365 -0.0098172845 -7.830282e-05
000140 07 8d 9b be 61 c7 5b 3e 1e 18 81 bd 0f f3 d7 be
       -0.30381033 0.21462776 -0.06303428 -0.42177626
000150 cc 0a 01 3e 54 73 52 be 57 64 5f bd b2 94 30 be
       0.12601775 -0.20551807 -0.05453905 -0.17244223
000160 37 62 a8 bd b7 03 8d be 10 0f 11 3d 67 e3 ce 3c
       -0.08221858 -0.27541897 0.035414755 0.025254918
000170 5a d9 9a 3e 0e 41 81 3d ed 85 94 be 3b c9 87 be
       0.3024395 0.06311236 -0.29008427 -0.26520714
000180 35 2c 5e 3e ed 88 08 be fd de a8 be 75 26 96 be
       0.21696551 -0.13333483 -0.32982627 -0.29326215
000190 ab 33 91 bd a9 c2 88 3e c5 02 b4 bd 30 22 9f be
       -0.07089933 0.26711014 -0.08789591 -0.3108077
0001a0 98 18 b4 be ce 52 69 3d 6e 54 06 be fc 79 e9 bd
       -0.35175014 0.056963734 -0.13118145 -0.1140022
0001b0 7d 79 d0 bd 9e ce 8f 3c 00 23 39 bd 3f 11 65 3e
       -0.10179422 0.017554577 -0.045199394 0.2236986
0001c0 52 b1 54 be 04 4f 83 bb 34 55 a4 3d aa bc e0 bd
       -0.20770767 -0.004007222 0.08024064 -0.10973485
0001d0 d0 f7 28 3d cb 94 3a 3d f2 cb 29 bd e1 3a de bd
       0.041251957 0.045552056 -0.041454263 -0.10851074
0001e0 2e 03 48 3d f6 da 81 be aa 73 2b 3b 81 2c 23 3e
       0.048831157 -0.25362366 0.002616147 0.15934946
0001f0 df 43 ef bd 5f 8d e5 bd b4 ea c6 bc 20 e9 22 bd
       -0.11682867 -0.11208605 -0.024281837 -0.039773107
000200 0b 80 58 be f1 7b 83 be 1b 60 4f bc e1 33 46 3e
       -0.21142595 -0.25680497 -0.012657191 0.19355728
000210 fe cb 65 be 21 62 66 be 34 10 a7 bd f3 3d be bc
       -0.22441098 -0.2249837 -0.081573874 -0.023222899
000220 86 d1 9a 3b d5 0e 82 3d 89 15 61 bc f0 e9 66 bd
       0.004724684 0.06350485 -0.013738045 -0.056375444
000230 00 1d 2b 3e 76 72 10 3d bc 9f 7c 3e 63 22 15 be
       0.16710281 0.03526541 0.24670309 -0.14563899
000240 92 27 71 be bc bc f8 b9 4a 29 3b 3c 1d 97 d2 3c
       -0.23550251 -0.00047442864 0.011423418 0.025706822
000250 ac 1d fe bd d4 59 6b be 69 0d 0c be c7 50 e8 39
       -0.12408003 -0.22983485 -0.1367699 0.00044310672
000260 1b 04 9d bd f0 1f 42 3d b5 8d d2 bc 72 56 c5 3b
       -0.07666799 0.04739374 -0.025702337 0.006022268
000270 2a 18 ab 3c e1 8e 84 be 75 e6 4c bd 25 d1 a4 bd
       0.020885546 -0.25890258 -0.05002447 -0.08047704
000280 95 64 db bd 1e 67 0d 3c e1 f9 44 be 57 00 22 be
       -0.10712544 0.008630542 -0.19235946 -0.15820442
000290 87 61 be bd 51 f3 00 be ea 67 e9 3d f1 99 cd 3d
       -0.092959456 -0.12592818 0.11396773 0.100391276
0002a0 ce b8 85 be 96 83 61 bd f4 af 7c 3e 10 89 45 bd
       -0.26117557 -0.05505713 0.24676496 -0.048226416
0002b0 ba 31 aa 3d 9d 19 30 3c a6 ef 41 be 81 e4 90 3e
       0.08310266 0.010748294 -0.18939075 0.28299335
0002c0 a8 90 f7 bd f4 07 23 be 15 db 52 3d 7c d1 44 be
       -0.12088138 -0.15921003 0.051478464 -0.19220537
0002d0 d7 c9 6b 3d 83 a5 62 3c 85 9d f8 3a 43 d2 eb 3d
       0.057565536 0.013833406 0.0018967843 0.115147136
0002e0 5f f4 86 3d cc ea 5b bd 4a 15 1f bc 65 b2 15 3d
       0.06589579 -0.053690717 -0.009709666 0.036547083
0002f0 42 62 51 3d 1d 03 8a 3e 35 1c b1 3d a8 0b 1f 3e
       0.051119097 0.269555 0.08647958 0.1553179
000300 94 95 5a be 27 d9 08 3d dd 4f 54 bd a9 62 66 3c
       -0.21346122 0.033410218 -0.051833976 0.014061608
000310 7b ea 00 be f8 97 f2 bd 07 f6 b6 3d 23 88 9a bd
       -0.12589447 -0.11845392 0.08933645 -0.07545497
000320 e4 6f 1d be 10 68 37 3e 23 f3 97 3d 90 3f 3c be
       -0.15374714 0.1791079 0.074194215 -0.18383622
000330 cb 7f 25 bc f7 b1 d6 bb 8b 28 cf bd f5 72 c0 3e
       -0.010101269 -0.006551977 -0.10115155 0.37587705
000340 e0 01 6d 3d f4 42 86 3d b4 fb 99 bd 8f ea 08 3c
       0.057863116 0.06555739 -0.07518712 0.008356704
000350 a9 ee fd bb 15 45 2d 3d 9f 5b 7e 3c ea 57 08 3d
       -0.007749398 0.04230221 0.015524774 0.033286966
000360 cb 5f 9e bd 17 1f 73 be 89 a0 6e 3e 8a eb 46 be
       -0.07733115 -0.23742329 0.23303427 -0.19425789
000370 9a 96 5c 3c 2f 51 0f 3e 43 9e bf 3d 2c 7b 17 bd
       0.013463641 0.13995813 0.09356358 -0.0369827
000380 8d 2f 73 bd 28 0a dd bc c0 50 c0 bc d7 18 44 3b
       -0.05937152 -0.026982382 -0.023476005 0.0029922032
000390 2d 36 38 bd f0 51 21 bd a7 fc 96 3d a3 e9 1c 3e
       -0.04497354 -0.039384782 0.07372408 0.153235
0003a0 8e a0 2f 3d 2d 42 0e 3e fe 05 dd 3d b0 42 2d be
       0.042877726 0.13892432 0.107921585 -0.1691997
0003b0 62 4d c9 3c dd b9 10 be 70 a7 e9 bd 82 6c 2e 3c
       0.024573032 -0.14133401 -0.11408889 0.0106459875
0003c0 7f ce 33 3e a2 75 d9 3d 18 d1 59 be 26 35 1c 3d
       0.17559241 0.1061814 -0.21271169 0.038136624
0003d0 1a 3f 7d 3e ac 24 c2 bd a6 c6 0d 3e 29 81 df bd
       0.24731103 -0.09479651 0.1384531 -0.10913307
0003e0 fa e0 27 3c d5 68 ca bd 89 c1 39 bd 50 45 50 3c
       0.01024651 -0.098832764 -0.045350585 0.012711838
0003f0 d7 40 fd 3d 9e 70 98 bd 61 2b e0 bc 10 9e f7 3d
       0.12365883 -0.07443355 -0.027364435 0.12090695

hidden_layers.0.bias f4 [64]
000000 cf 7c 06 3e 4b 94 01 bd 93 ae 47 be bc ae 7f bd
       0.13133548 -0.031635564 -0.19500189 -0.0624225
000010 f5 9d ef 3d fd d7 6f bd 82 03 6c bd 85 2a 09 3d
       0.1170005 -0.05855559 -0.057620533 0.033487815
000020 7d fc 36 3d b9 10 32 be 61 1d 99 3d b9 30 e9 3d
       0.044674385 -0.17389192 0.07476307 0.11386246
000030 01 a6 1d 3e d4 d9 c1 3d 02 bf b0 bd 54 45 c8 bd
       0.15395357 0.094653755 -0.08630182 -0.09778848
000040 51 2f 64 3d 02 c9 81 bc 8d 11 c1 3c 1f 4a 3e be
       0.055709187 -0.015842918 0.02356794 -0.18582962
000050 a4 53 db bd dd 5a 35 3d 3e 4a 2b bd c0 61 f3 bd
       -0.107093126 0.044276107 -0.04181885 -0.11883879
000060 9f 85 0f be e2 54 f1 3d 59 ff b8 bc ea df 1a be
       -0.14015816 0.11783768 -0.022582697 -0.15124479
000070 c4 6c 36 3e 27 d0 69 3d 6b 01 1d be f0 06 41 be
       0.17814928 0.057083275 -0.15332572 -0.18850303
000080 2d d8 20 3e 42 01 3c bd c0 1e f9 bd 9c 5b 8e 3d
       0.15707465 -0.045899637 -0.12164068 0.06951067
000090 43 90 32 bd d6 ff 21 3c 21 7a af bd c1 f6 0d be
       -0.04359461 0.009887656 -0.08568216 -0.1386366
0000a0 96 12 f9 bd 9f 1d 05 bd 2c cf aa bd 57 7a 1f 3e
       -0.12161748 -0.032498952 -0.08340296 0.15574013
0000b0 f0 b6 f1 bc 13 dc d2 bd 01 c5 57 3d f0 3c 0d be
       -0.029506177 -0.10295882 0.052678112 -0.13792777
0000c0 f9 ed c3 bd 99 67 30 3d 3c a3 11 be db ae fe 3c
       -0.09566874 0.04306755 -0.14222425 0.031089237
0000d0 7f cf 59 bc 10 7d 38 be a7 3f 33 be 40 2c 78 3d
       -0.0132941 -0.18016458 -0.1750475 0.060589075
0000e0 e6 88 12 3d d5 c2 6e bd 73 ce 25 be 30 01 1e be
       0.035775088 -0.058291275 -0.16192035 -0.1543014
0000f0 0f 7a 50 bd cd f6 0f 3c d9 da dd 3c 3e c4 72 3d
       -0.050897654 0.008786869 0.027081894 0.059269182

hidden_layers.1.weight f4 [64, 64]
000000 4f 2a db bd 65 7f 87 bd a1 ff 99 3c 3f 76 cf 3d
       -0.10701429 -0.066160955 0.018798651 0.101299755
000010 76 77 27 3e f6 0b e7 bd 0f ad 82 bd c9 21 85 3c
       0.16354164 -0.11281578 -0.063806646 0.016251462
000020 b1 ae 95 3c 34 0c 9a 3b 89 92 0b bc 2a 95 0d bd
       0.018271776 0.0047011618 -0.008518823 -0.034566082
000030 ab bf f8 bd 36 82 28 bd a1 e4 92 3d 56 a7 93 3b
       -0.12145933 -0.041139804 0.07172514 0.004506032
000040 6a 6a c0 3d 92 7e d8 3d d8 d3 d7 bc 3c 97 2d be
       0.09395297 0.10571016 -0.026346132 -0.16952223
000050 5e 49 13 be c7 eb 1b be 94 35 2d be 86 dc 6a be
       -0.14383456 -0.1522666 -0.1691497 -0.22935686
000060 70 71 ae bd 30 0b 00 be af 27 0f be ad fe 88 be
       -0.0851773 -0.12504268 -0.13979982 -0.26756802
000070 e8 b4 f7 bd 9d 71 fb 3d 66 96 8e bc 13 2d 72 3d
       -0.12095052 0.122775294 -0.0174057 0.059125017
000080 90 4a b4 bd fc ec e5 bd e6 24 ca bd e7 e8 72 be
       -0.08803284 -0.11226842 -0.09870319 -0.23721658
000090 ad c2 17 bc aa 55 f7 3b 91 71 94 bd fd 65 3a be
       -0.009262723 0.0075480537 -0.072482236 -0.18202968
0000a0 9c ce 09 3e 3b 9a 81 bd d3 a0 3e be 40 75 34 be
       0.13457721 -0.06328245 -0.18616037 -0.17622852
0000b0 50 e8 e4 bd 79 d1 74 be b8 a7 4d 3d d7 69 95 b9
       -0.111771226 -0.23908032 0.050208777 -0.00028498351
0000c0 88 23 70 bd ce 49 64 be 64 22 d8 ba 87 e8 19 be
       -0.058627635 -0.22293779 -0.0016489741 -0.15030108
0000d0 f1 f5 5b 3c 97 c4 41 3d ff 08 54 3d bb c9 48 be
       0.013425336 0.047306623 0.05176639 -0.19608204
0000e0 9e 85 3c 3d fb 84 5a bb 3a 9e 24 bd 32 03 4a 3c
       0.046025865 -0.0033343423 -0.04018996 0.012329863
0000f0 41 6f a6 bc 4a c2 93 3c f3 fc 25 bd e0 e6 f1 3d
       -0.020316722 0.01803698 -0.040524434 0.11811614
000100 a0 93 2a be 2b 2d af 3d 91 1f d2 bd 8e 08 c7 bd
       -0.16657877 0.08553537 -0.10259927 -0.097184286
000110 a9 41 33 be cd 7c 59 be 40 a8 bc bd 5e bd 62 be
       -0.17505516 -0.21239014 -0.09211779 -0.2214255
000120 b4 02 23 be 62 7b 13 3e 75 aa 24 bd 71 aa 92 bd
       -0.15919 0.14402536 -0.040201623 -0.07161415
000130 2c 70 0d be 3b c7 5e bc 03 dd 2a be cd 28 a1 bb
       -0.13812321 -0.013597305 -0.16685872 -0.004918194
000140 08 11 17 be 8a 2c c6 3b 08 f2 b1 bd b0 72 a4 3d
       -0.1475259 0.00604779 -0.08688742 0.080296874
000150 42 42 19 3e 2d 9e 77 3d e7 8e ca bd 81 0f 2f 3e
       0.14966682 0.060453583 -0.09890538 0.17095758
000160 7e 43 5e be 10 d7 4e 3e ba 92 18 be dc e5 1c bd
       -0.21705434 0.20199227 -0.14899722 -0.03830515
000170 e5 4c 85 be b6 d0 a7 bc 07 16 8c bd fc bc 8f 3d
       -0.26035228 -0.020485263 -0.06840139 0.07018468
000180 0c 2e 8e be 18 48 df bc da 66 76 3d ba 24 c3 bd
       -0.27769506 -0.027256057 0.06015668 -0.095284894
000190 6f fb 01 be 3b 0e 59 be c4 10 d0 bd 31 a3 81 bc
       -0.1269357 -0.21196835 -0.10159448 -0.015824886
0001a0 8f a2 12 be ca 45 4b 3e d8 f2 09 3e 61 3f af 3d
       -0.14319824 0.19850841 0.13471544 0.085570104
0001b0 68 97 c2 bd e4 c1 f1 bd 7f ff 35 be ec bc 12 be
       -0.09501535 -0.1180456 -0.17773245 -0.1432988
0001c0 29 4c 1b 3e cf 07 e7 3d c4 0e 49 bd 34 26 cd 3c
       0.15165772 0.11280786 -0.049086347 0.02504263
0001d0 55 7a 15 3e 62 0e b0 bc 69 cc c3 39 f1 1c ae bd
       0.14597447 -0.021491233 0.00037345596 -0.08501614
0001e0 3a 6f 6e be a4 67 17 3d 0e 94 b3 bd c7 f3 49 be
       -0.23284617 0.036964074 -0.087684736 -0.197219
0001f0 14 f2 06 be 73 f5 8c be 1f b0 41 bc 5f 6d 13 be
       -0.13178283 -0.27531013 -0.011821776 -0.1439719
000200 50 9e 01 be a4 b9 8f 3b 71 9a c1 bc 58 95 21 3c
       -0.12658048 0.0043861438 -0.023633214 0.0098622665
000210 3a 88 65 3e fa ea 19 bd 09 bd 49 3b 2c 66 90 bd
       0.22415248 -0.037577607 0.003078284 -0.07050738
000220 5a 3f 8a bc e2 cc 08 bd c5 2c 75 bd df 3f 26 bd
       -0.016875912 -0.033398516 -0.05985715 -0.040588256
000230 e0 f9 a7 3d 60 db d2 3d e0 12 1d bc 05 f1 f6 ba
       0.08201957 0.10295749 -0.00958702 -0.001884014
000240 0c bd ea bc bd 22 d2 3d 31 33 b3 bc f0 71 07 bd
       -0.028654598 0.10260532 -0.021874996 -0.033067644
000250 85 51 ad bb 24 1c cd bd a3 66 33 bd 24 c3 dc bb
       -0.005289259 -0.10015133 -0.043799054 -0.0067371298
000260 6a 83 02 3c 71 8f 3f be d6 2b 36 be b2 ba 60 3d
       0.007965902 -0.18707062 -0.1779016 0.054865547
000270 04 14 ae bd bb 51 f0 bd d9 b5 7f bd e2 c7 9c bb
       -0.084999114 -0.11734339 -0.062429283 -0.00478457
000280 e2 6e c6 bd be e2 81 3c 7e 3b 8d bb 9f dc 6a bd
       -0.09689118 0.01585519 -0.0043100705 -0.057339307
000290 76 5d ae 3d a8 03 ea bd ac 53 47 bd ac bf 06 3e
       0.0851392 -0.114264786 -0.04866378 0.13159055
0002a0 f2 7b f9 bc f7 c5 3f 3b af 8d f9 bd 84 9a f4 3c
       -0.03045461 0.0029262283 -0.12185227 0.029858835
0002b0 52 3d b6 3c d6 40 1b bd 70 0d c7 3c 78 21 c4 bd
       0.022246037 -0.03790363 0.0242984 -0.09576696
0002c0 5e 8e b4 bd dc 94 42 be c5 69 27 be 6d f3 0f be
       -0.08816217 -0.19002098 -0.16348942 -0.14057703
0002d0 83 ee 81 be 5d 2e 1a 3d 2e 33 b6 3c 33 96 0d be
       -0.25377283 0.03764187 0.022241201 -0.13826828
0002e0 54 45 bb bd 42 a5 89 3a 54 66 71 3c e3 94 ec bd
       -0.09144083 0.0010501521 0.01473387 -0.115518354
0002f0 fe 84 b6 bd fc 78 6b bc 01 f3 bf bd 97 6e b5 3c
       -0.08912085 -0.014372107 -0.09372521 0.02214746
000300 2c 5f 46 bd 03 90 97 3d 58 ed d0 bd 35 60 5c 3d
       -0.048430607 0.07400515 -0.1020152 0.053802688
000310 6c 50 1b bd 05 ba 5e be 7f aa 8b bd a7 49 19 bb
       -0.037918493 -0.21750648 -0.06819629 -0.0023389847
000320 42 72 40 be 88 e0 e1 3d ce 03 33 bd d4 b5 97 bd
       -0.18793586 0.11029154 -0.0437048 -0.07407728
000330 f9 a1 9e bd 1f 49 04 be 2c 93 4b 3d 5e 24 bd b9
       -0.077457376 -0.12918518 0.0497009 -0.00036075985
000340 51 b3 87 3d f5 80 dc 3b b8 6a 67 3c 53 cd 32 3d
       0.06625999 0.00672924 0.014124565 0.043652844
000350 0c 76 e9 3c e1 93 2f bd 98 d7 ae bc b6 3f 54 bd
       0.028498672 -0.042865638 -0.021343037 -0.051818572
000360 f8 5e a6 bd 35 a8 3b 3e cc a2 9f bd 34 ca 2b be
       -0.081235826 0.18325885 -0.07794723 -0.16776353
000370 33 f9 a6 bd cb da 6a bd 0f 70 3f 3d 49 a2 6b 3d
       -0.08153 -0.057337563 0.046737727 0.057527814
000380 4a 43 9e be da 6d ae 3d 7e 31 f1 bd c4 ae a1 bd
       -0.30910712 0.08517046 -0.11777018 -0.07894662
000390 15 60 b2 3c 1a d0 bc bd 8f 52 84 3d 71 1c 17 be
       0.021774331 -0.0921938 0.06461059 -0.14756943
0003a0 19 75 77 bd 97 9c 78 3c b8 2b 21 3d d2 2a eb 3d
       -0.060414407 0.015174053 0.039348334 0.11482777
0003b0 69 80 50 3d 9e 7f 21 bc e3 53 fd bd 2d 88 8d be
       0.05090371 -0.009857086 -0.12369516 -0.27642956
0003c0 66 eb 45 3e 36 49 80 bd 50 d2 cd bd 57 09 af bc
       0.19328079 -0.06263964 -0.100498796 -0.021366758
0003d0 65 39 4f 3e bf ab 0c 3d 6c c9 14 3d e8 5c 83 bd
       0.20236738 0.034343477 0.036324903 -0.06414205
0003e0 a1 70 7a be 37 72 86 bd eb 59 ff bc ac 9b 06 bd
       -0.24457027 -0.065647535 -0.031170806 -0.032863304
0003f0 ca e5 6f bd 55 21 3c be c8 9a 9a bc eb 80 d8 bd
       -0.058568753 -0.1837209 -0.018872634 -0.10571464

hidden_layers.1.bias f4 [64]
000000 e3 68 a7 bd d5 ec 85 bc 5b 64 ad bd 2b 64 32 bc
       -0.081743024 -0.016348282 -0.08466407 -0.01088814
000010 d5 d2 49 3d df 73 fc 3d 3d d1 88 3d 11 82 81 bb
       0.04927333 0.12326788 0.06680534 -0.0039522727
000020 6a 6b 1e bb a1 36 e9 3c 26 e7 ab 3d 29 42 8c bd
       -0.002417291 0.028468432 0.083936974 -0.068485565
000030 f7 df 47 3d f8 10 8a 3c a2 39 77 3d 33 38 d1 3d
       0.048797574 0.016853794 0.060357697 0.10215797
000040 48 a5 36 bd 3f 25 e4 3d 2c 76 b9 bd 34 6c af 3c
       -0.04459122 0.11139917 -0.090557426 0.0214139
000050 7a fc d1 bc 6c d6 fb bd 2d 31 01 bd 8b 71 b4 3c
       -0.025633086 -0.12296757 -0.03154104 0.022026798
000060 1a 85 f6 3d 09 6b 7c bd 7f d5 cf bd 6f bd 57 3d
       0.12037106 -0.061625514 -0.10148143 0.052670892
000070 90 fc 3d bd 35 8e 05 bd fc 83 ab bd 8e 85 37 3d
       -0.04638344 -0.032606322 -0.083747834 0.044805102
000080 63 06 94 bd ac ff 0f 3b 79 b9 94 3d a7 c5 ef ba
       -0.07227781 0.002197246 0.072619386 -0.0018293158
000090 22 1f 0b be 17 43 8e 3d 73 f8 e7 3d 5a 38 04 be
       -0.13586095 0.0694639 0.11326685 -0.12912121
0000a0 a9 a0 a4 3d 9f 28 a6 bd c7 99 87 3c 20 97 12 bd
       0.08038456 -0.081132166 0.016552819 -0.035788655
0000b0 f5 65 3c bd 5a 0c 91 bd 44 78 4a 3d a0 47 75 38
       -0.04599567 -0.07082434 0.0494311 5.8479258e-05
0000c0 2c 09 7a bc 43 dc 87 bc dc bf 3c 3d 9e eb fe 3d
       -0.015260976 -0.016584521 0.04608141 0.12447284
0000d0 1a c7 b2 bd 45 8b f4 bd e6 2a 0e be ee 64 ff 3b
       -0.08729382 -0.11940626 -0.13883552 0.007794014
0000e0 36 cd c0 bd 49 55 e5 bd f4 2a 56 bd 78 d1 68 3d
       -0.09414141 -0.111979075 -0.052287057 0.05684039
0000f0 d0 23 67 bc 06 7b 44 3d da a9 e8 bd 61 8b 8d bd
       -0.014107659 0.047968887 -0.113605216 -0.0691135

output.weight f4 [4, 64]
000000 7b 81 a1 bd c9 79 49 3c 3c f0 e9 3d 08 34 f7 3c
       -0.078860246 0.012297102 0.11422774 0.030176178
000010 1a db e1 3d 6d 7d 1e bd d2 28 33 3c cb 17 9e 3c
       0.110281184 -0.038693834 0.010935025 0.019298455
000020 4d 09 93 3d 16 96 2f 3c a9 72 75 bd f7 2f b0 bc
       0.07179508 0.010716936 -0.0599238 -0.021507246
000030 2f 60 72 be 3a 74 ec 3d 0d b0 19 be d6 ac 28 bb
       -0.23669504 0.11545606 -0.15008564 -0.0025737784
000040 44 28 8a bd 77 c9 0e 3c 63 5a 2c 3e 99 be cb 3c
       -0.06745961 0.008715025 0.16831355 0.024871157
000050 d6 22 27 be 6b de 5b bc cc 44 cf 3c 1c 1a 21 bd
       -0.16321883 -0.013419728 0.02530136 -0.03933154
000060 ea a2 c6 bc eb 0a b4 bb 88 1a c4 3d 13 c8 45 bc
       -0.024247605 -0.0054944656 0.09575373 -0.012071627
000070 a1 32 0b 3b 5d ad de bd 65 ba b3 3d d1 a5 28 3c
       0.0021239894 -0.1087291 0.08775786 0.01029344
000080 da b3 f9 3b 13 1b 6d bd e9 21 e6 3b cc 0d 3f 3d
       0.007620317 -0.057887148 0.0070230854 0.046644017
000090 e6 c2 8a bc d2 29 b0 3d 57 4c a7 3d 9d 47 a0 3c
       -0.016938638 0.086017266 0.081688575 0.019565398
0000a0 30 07 79 bd 70 36 52 bd 8a 27 1f 3d e3 21 13 be
       -0.06079787 -0.051321447 0.038856067 -0.14368396
0000b0 4f 56 ab 3d 8e dd 43 bd 3b 4a 8a bd 28 b3 c6 3c
       0.083660714 -0.047818713 -0.067524396 0.02425535
0000c0 23 21 12 be a3 21 eb bb 4a 6f 1b bd 9f 71 7d bb
       -0.14270453 -0.0071756407 -0.03794793 -0.003867246
0000d0 a3 d4 cf bd 51 c0 33 be 52 72 df 3c 58 94 86 bd
       -0.10147979 -0.17553832 0.027276192 -0.06571263
0000e0 0a dd 37 be 68 58 12 3e 98 39 50 be 50 ce 0b 3d
       -0.17955413 0.14291537 -0.2033447 0.0341323
0000f0 7d 41 68 3d 59 41 9d 3d 2c 95 b4 bd 39 ed 3a 3d
       0.05670308 0.0767848 -0.08817515 0.04563639
000100 3b 92 df bc a5 54 aa 3e f8 a3 dd bc 8a 47 b7 3d
       -0.027291408 0.33267704 -0.027055725 0.08949192
000110 fb a0 c2 3c a1 b5 cb 3d 48 83 61 be de 47 79 3d
       0.023758402 0.09946752 -0.22022736 0.060859554
000120 84 cb 04 bd bd da 49 be 2c b7 2a 3d f8 28 9a 3d
       -0.03242065 -0.19712348 0.041678593 0.075273454
000130 75 a0 6f bc ba 6f 9b 3d 54 97 0a bc c0 c9 59 3d
       -0.014625658 0.075896695 -0.008458931 0.05317092
000140 75 6b 44 3d 45 a5 ee 3d b2 a3 a7 bd 7a 55 c9 bc
       0.04795404 0.116526164 -0.08185519 -0.024576891
000150 ef ad cb 3b 5e 9e be bd e1 23 49 3e 3a c6 86 bd
       0.006215803 -0.0930755 0.19642593 -0.065807775
000160 d8 78 cf 3c 6e 55 4a 3d 91 0f 48 bc 64 a2 5b bd
       0.025326177 0.04939788 -0.012210743 -0.053621665
000170 0e 89 d0 3d 51 70 13 bc b5 fd 25 3d a6 e8 14 be
       0.10182391 -0.008998946 0.040525157 -0.14541873
000180 a7 ae eb 3c 09 95 5f 3e 21 b1 64 3d 03 0a 04 be
       0.028769804 0.21834196 0.055832986 -0.12894444
000190 2e bd 39 3d 3f 96 11 3d 0c 4d 61 3d 78 8f 17 bd
       0.04534643 0.035543676 0.05500512 -0.037002057
0001a0 68 1e ac bc 33 95 ce 3d ba 50 4b 3e 41 0e 68 bd
       -0.021010593 0.10087051 0.19855013 -0.05665422
0001b0 fc f6 aa bd 2a 2a 30 be 2f 26 82 bd d2 fc 96 3e
       -0.0834789 -0.17203584 -0.06354939 0.29489762
0001c0 d5 39 a7 bd ac df 22 be fc 7a 0f 3e 29 62 97 3d
       -0.081653275 -0.15905637 0.14011759 0.073917694
0001d0 70 12 21 be b9 b8 11 3c 2f 83 90 3c 86 bd a0 3d
       -0.1572969 0.008894139 0.017640678 0.07848649
0001e0 b2 b9 9a bd 77 a7 12 3b bd 0b 16 3d 8e 4a c0 3d
       -0.0755495 0.002237765 0.03663229 0.0938922
0001f0 4c f4 3a bd 45 9a 97 bb 72 d9 ed 3a d2 c8 d4 bc
       -0.045643136 -0.0046265447 0.0018146469 -0.025974665
000200 e9 1f fc bd e1 a5 a0 bd 1b fc 01 3e 13 17 d6 bc
       -0.12310774 -0.07844139 0.12693827 -0.02613405
000210 fb 0a e5 bc b4 0f 9b bb f8 1e 40 3d ee ad 1b 3e
       -0.027959337 -0.0047320966 0.046904534 0.15203068
000220 eb 68 0a 3e 8c f6 c2 bc 89 5c fe bc 14 35 57 3e
       0.13516586 -0.023799203 -0.031049984 0.21016341
000230 e2 9c aa 3d 26 9a 06 3d e9 14 48 3e f1 12 b1 3a
       0.08330704 0.03286185 0.19539227 0.0013509673
000240 74 e3 62 bd b2 83 22 bc 18 71 a8 3d 34 5c f5 bd
       -0.055392697 -0.009919094 0.08224696 -0.11980477
000250 64 63 63 bd 89 35 bb 3d f4 cd dc 3d 11 14 0e 3e
       -0.05551471 0.091410704 0.1078147 0.13874842
000260 db ca 9d 3c 14 7c 5f 3d 42 6a 31 3e 09 4a 89 3d
       0.019261768 0.05456169 0.1732569 0.06703574
000270 5d 39 1e bd 20 ea 10 bd 46 13 ad 3d e6 9c 3a 3e
       -0.038628925 -0.03537953 0.08450942 0.18223915
000280 58 0d 28 bd 3c 43 bc bc 93 b3 b1 bc 2e 11 8b bd
       -0.04102835 -0.022981279 -0.021692073 -0.06790386
000290 2b ac 27 3d 9d 8c 97 ba 9c 1a 4d 3d 10 dd 15 3e
       0.040935677 -0.0011562292 0.050074205 0.1463511
0002a0 d8 aa 49 3e 85 d0 ca bc ec ad 3e b9 32 5f db bc
       0.19694078 -0.024757633 -0.00018184603 -0.026778791
0002b0 26 3a 94 bd 49 b0 6c 3d d5 15 4e 3b 91 27 93 bc
       -0.072376534 0.057785306 0.0031446118 -0.017963203
0002c0 de f5 17 3d 33 22 80 bd 5e 02 1d bd 58 26 0a 3d
       0.03709971 -0.06256523 -0.038332336 0.033727974
0002d0 dc 84 58 bd 36 e7 f3 3d 24 9a 9e bd 8f 76 bc 3c
       -0.05286108 0.11909334 -0.07744244 0.023005752
0002e0 7a c1 bf 3d 98 33 d5 bd cc d8 62 3e ab 30 9c 36
       0.093630746 -0.10410231 0.22153014 4.654828e-06
0002f0 2d 2d 99 bc 2a 63 38 bb 65 ae 50 3d 85 26 62 3e
       -0.0186983 -0.0028135278 0.050947566 0.22085007
000300 a8 94 48 bd 28 8f 80 be ab 3f 07 3e 07 63 24 be
       -0.048969895 -0.2510922 0.13207881 -0.16053401
000310 8c e3 6d bc a2 e0 be 3a 1c 23 58 be e9 ec b9 3c
       -0.014519583 0.0014562795 -0.21107143 0.022695975
000320 d7 2e 1b be 3c 32 7a be 09 f7 d1 bd 60 47 64 3d
       -0.15154587 -0.24433225 -0.10252196 0.05573213
000330 49 b9 ef bc ae 7c bc 3d cc bd 71 3b 40 5b c0 3c
       -0.029263156 0.09203468 0.003688681 0.023481011
000340 3d cd 1c 3c 99 0a c2 3b 50 cd 53 bd a7 01 9e 3c
       0.009570417 0.0059216735 -0.051709473 0.019287897
000350 5c d2 f0 3c 61 ad b5 3d 9c 60 0e 3c 13 ac 80 bd
       0.029397182 0.0887096 0.008690026 -0.062828206
000360 a7 27 d5 3d d1 af 41 bb 76 15 3a bb fd 5f d7 3d
       0.10407954 -0.0029554258 -0.002839414 0.10516355
000370 4a 87 34 3d 73 e1 26 be a7 a6 4e 3d 3e 34 67 bd
       0.044074334 -0.1629694 0.0504519 -0.056446306
000380 d9 58 89 bd 7c 8d 0a bd 65 33 df 3c 64 71 30 3e
       -0.067063995 -0.033826336 0.027246187 0.17230755
000390 6e 63 da bd f1 04 02 3d c9 36 81 3d 4e 49 ce 3d
       -0.10663496 0.031742994 0.063092776 0.100725755
0003a0 39 64 c6 3c 9c ff ca 3d 7d 54 45 be 56 4c 30 3d
       0.024217712 0.09912035 -0.19270511 0.04304155
0003b0 10 51 99 bb 4d 1d a0 bc 97 75 93 3d a4 bc ab 3d
       -0.004678853 -0.019545222 0.07200163 0.0838559
0003c0 8a e7 bb 3c 5a 7f 12 3d 9e 5e a3 bd 94 50 c6 3c
       0.022937555 0.035765983 -0.07977031 0.024208345
0003d0 d4 0d 29 3d 1d 15 49 3b 45 1e 74 3d f4 31 64 3d
       0.041272953 0.003068275 0.05959918 0.0557117
0003e0 fd 54 87 bd e1 08 a2 3c 8f ce ca bc b8 3a 69 3d
       -0.06608007 0.019779624 -0.024756698 0.056940764
0003f0 17 68 23 be 4e 2d 09 3d 61 bc 33 bd 3b 78 ab 3b
       -0.15957676 0.03349047 -0.043880824 0.0052328384

output.bias f4 [4]
000000 b5 c5 91 3d 8a ec cb 3d 90 75 f9 3d b8 9c b9 3d
       0.07117788 0.099572256 0.121806264 0.09063095

exp_avg f4 [64, 37]
000000 fd 15 02 b4 fb 89 46 b5 c7 a1 a9 36 4e a7 b2 36
       -1.2115193e-07 -7.3961536e-07 5.055426e-06 5.32429e-06
000010 b7 75 2f b6 8f 59 b3 36 e6 c0 a9 b5 9c 09 0f 37
       -2.6145551e-06 5.3450417e-06 -1.2647622e-06 8.525702e-06
000020 d9 2a 4f b6 46 ce 42 b6 43 03 d1 36 f6 05 84 37
       -3.0870344e-06 -2.902832e-06 6.229065e-06 1.5738402e-05
000030 01 78 ff b6 f9 3b a2 b6 db 1e 41 37 ae c4 6d b6
       -7.6135625e-06 -4.834958e-06 1.15108805e-05 -3.5430235e-06
000040 6c 8d 67 37 a0 c4 e4 b6 48 f3 cb 36 2a 71 09 37
       1.38016e-05 -6.8178197e-06 6.078193e-06 8.192184e-06
000050 59 88 72 33 e2 37 cf 36 b2 6b 80 b6 e3 b5 ee 36
       5.6469023e-08 6.1755863e-06 -3.8272347e-06 7.114127e-06
000060 31 c6 23 37 07 0e 15 b7 c1 1b f0 36 13 e6 60 37
       9.761702e-06 -8.884358e-06 7.1557884e-06 1.3405009e-05
000070 69 c9 10 b6 d4 f5 18 37 c2 1f 5f b7 8f 24 a1 37
       -2.1574908e-06 9.117142e-06 -1.329923e-05 1.920972e-05
000080 e8 a9 a8 36 dd 55 be b5 69 05 79 b5 dc 46 65 38
       5.02657e-06 -1.4181093e-06 -9.27676e-07 5.4663848e-05
000090 9a 1f 40 38 8e fe 77 b7 b7 38 05 b5 21 0e d9 36
       4.58058e-05 -1.4781615e-05 -4.962889e-07 6.468749e-06
0000a0 e6 10 8c 33 0d 91 c8 b6 eb c6 7b 36 4e 18 89 b5
       6.522332e-08 -5.9773506e-06 3.75177e-06 -1.0214369e-06
0000b0 2c 46 71 b7 55 12 43 36 44 89 b6 b6 e5 ab 65 b6
       -1.4381058e-05 2.9067935e-06 -5.4400025e-06 -3.4223715e-06
0000c0 1b a1 9f 34 46 44 8b b6 97 16 c5 b5 9a dd 03 b6
       2.9733278e-07 -4.150471e-06 -1.4684218e-06 -1.964951e-06
0000d0 92 08 a4 36 20 11 a2 36 4a f7 f7 b5 6a 60 8b b7
       4.8885786e-06 4.82997e-06 -1.8474905e-06 -1.6614988e-05
0000e0 cd df 9a 35 6b 37 5a b6 df 08 98 b6 13 65 be b6
       1.1539029e-06 -3.251679e-06 -4.5309857e-06 -5.674208e-06
0000f0 df 23 9e 36 85 cb a7 b6 f2 f7 22 35 cf 93 38 b6
       4.712943e-06 -5.0006806e-06 6.071051e-07 -2.7504173e-06
000100 b5 48 cc b6 67 91 09 b5 4e f5 c1 b6 2b ba a9 36
       -6.088138e-06 -5.1248065e-07 -5.7804054e-06 5.0582653e-06
000110 ae de e4 b5 d6 1d 13 b7 35 59 5f b6 7e e1 7d 36
       -1.7052132e-06 -8.7688295e-06 -3.3281515e-06 3.7831192e-06
000120 97 99 ac 34 87 a6 99 b8 41 27 c8 b4 ea 2f cb 36
       3.2149248e-07 -7.326627e-05 -3.7281464e-07 6.0554494e-06
000130 fe a3 4e 36 20 7d be 34 c5 6b de 36 27 0a 09 b2
       3.0791848e-06 3.5481298e-07 6.6286616e-06 -7.976758e-09
000140 10 00 00 00 eb 0f de 36 ca 37 28 36 f4 5b 57 32
       2.2e-44 6.6179687e-06 2.5066424e-06 1.2535555e-08
000150 cb 6e a0 35 ea 1f db 34 6d f6 88 36 53 46 66 36
       1.1953174e-06 4.081515e-07 4.0818036e-06 3.4313605e-06
000160 da ce 1b 34 0f 10 0e b3 d7 75 7b 36 ca d5 7c 36
       1.4510752e-07 -3.3076557e-08 3.7470506e-06 3.7675368e-06
000170 63 76 db 35 23 92 0d 36 49 32 13 36 85 b2 a0 34
       1.6351227e-06 2.10957e-06 2.1933977e-06 2.9932212e-07
000180 fd e3 fd 36 0b 08 7d b5 b0 ce 9b 36 ec 31 4b 03
       7.566529e-06 -9.426155e-07 4.6434216e-06 5.9713646e-37
000190 82 bd 8d 33 1d 9a 26 37 61 1f 6c b5 4c 5c ef 35
       6.6002954e-08 9.930253e-06 -8.7962513e-07 1.783375e-06
0001a0 13 d4 58 35 03 aa dc b3 6e 31 8d 35 11 f3 f6 36
       8.077488e-07 -1.0275473e-07 1.0519705e-06 7.359668e-06
0001b0 fa 05 07 35 7e 8e 2e 37 4b 7c 10 b8 ae a4 49 b8
       5.0300116e-07 1.0404385e-05 -3.4448032e-05 -4.8075504e-05
0001c0 3c 44 d5 35 f8 df 29 36 8f 37 f3 36 dc f5 88 b7
       1.5889595e-06 2.531333e-06 7.248432e-06 -1.632695e-05
0001d0 d7 40 3e 37 21 73 33 b8 f6 b5 b8 b5 f8 67 82 b6
       1.1339979e-05 -4.2784148e-05 -1.3762026e-06 -3.8864055e-06
0001e0 d1 b7 95 b7 68 3d 9e b6 90 f4 16 38 3e ad 8d b8
       -1.784778e-05 -4.7159156e-06 3.5990553e-05 -6.755673e-05
0001f0 e2 00 e4 b4 29 d9 14 37 9b 1a 21 35 ea 51 38 b8
       -4.2468952e-07 8.872049e-06 6.001589e-07 -4.3945307e-05
000200 2b aa 08 37 74 54 ca b5 d3 78 8b b7 d6 54 a1 b8
       8.145852e-06 -1.5074752e-06 -1.6626354e-05 -7.69288e-05
000210 84 5a 12 38 84 d1 e9 b5 df 40 ed 36 08 63 0c b7
       3.489341e-05 -1.742083e-06 7.0707024e-06 -8.367708e-06
000220 54 db 22 37 5d 8f 59 b8 d7 67 8c 36 57 be aa 35
       9.707019e-06 -5.187035e-05 4.1844137e-06 1.2721383e-06
000230 b8 c7 66 b7 d2 64 46 b6 e5 ee 05 b8 c1 54 ed b5
       -1.3755569e-05 -2.9562984e-06 -3.193216e-05 -1.7682543e-06
000240 64 11 57 b3 90 b4 8e b7 fe f3 38 38 5a 9b 11 ba
       -5.0074405e-08 -1.70118e-05 4.4096254e-05 -0.000555446
000250 10 fc 7b 36 23 99 0f 37 33 b8 01 b7 49 34 9d 36
       3.7548634e-06 8.559119e-06 -7.731886e-06 4.6850514e-06
000260 18 f3 05 36 18 7a 02 37 0a 1e ab 36 4e f9 97 b7
       1.9960044e-06 7.777031e-06 5.099694e-06 -1.8116694e-05
000270 96 63 73 37 df 80 b1 36 0e 49 bf 37 bd bf d8 35
       1.4507115e-05 5.2900136e-06 2.2802993e-05 1.6149057e-06
000280 38 6e b1 b7 ec 58 c9 36 81 8e f2 36 10 73 7f b6
       -2.1151369e-05 6.0006187e-06 7.2287517e-06 -3.8064936e-06
000290 e8 78 2e b6 9d bf 03 37 7a 35 03 37 8a 3c 92 b6
       -2.5998397e-06 7.852822e-06 7.820659e-06 -4.3581867e-06
0002a0 a8 05 22 37 ab f6 af b6 80 3f f9 36 df bf 2c b6
       9.657269e-06 -5.2441223e-06 7.4281706e-06 -2.574168e-06
0002b0 cb a0 0e 37 52 fa d9 36 af 14 fe 36 f2 ec 1d b7
       8.501297e-06 6.496245e-06 7.572198e-06 -9.413097e-06
0002c0 10 bf 9a 36 6e 0d 05 37 4e 4e fe b5 94 5c 95 b5
       4.6118003e-06 7.930545e-06 -1.8947264e-06 -1.1128309e-06
0002d0 9a a1 3b 36 0d 07 1f 37 54 7e 4f 37 1a 01 98 37
       2.7959236e-06 9.47878e-06 1.23675745e-05 1.8120325e-05
0002e0 c6 77 da 37 93 40 f6 34 d3 df 1e b6 f1 d5 10 b4
       2.6043399e-05 4.5868055e-07 -2.3674118e-06 -1.3488877e-07
0002f0 44 f6 8d b6 d3 9b c2 b6 89 36 0a 37 ca 6a aa b7
       -4.2307965e-06 -5.799791e-06 8.238138e-06 -2.0315307e-05
000300 84 58 4a 37 c9 fb d1 b6 cd 6e ca b6 9b 76 e9 b6
       1.2060747e-05 -6.257997e-06 -6.032968e-06 -6.9577486e-06
000310 cc 2b 40 b7 a1 b2 0f 36 06 b6 27 37 5f a5 3f b7
       -1.1454289e-05 2.1412636e-06 9.996356e-06 -1.1422991e-05
000320 ef ec 50 37 a1 22 57 b7 3c dc 38 b7 06 9b ab 36
       1.24529315e-05 -1.2823061e-05 -1.1018532e-05 5.1142442e-06
000330 75 6a b5 b6 c4 15 36 35 64 f2 41 b7 ba 3c b6 36
       -5.4066136e-06 6.7831957e-07 -1.1560132e-05 5.431092e-06
000340 eb 1b 5d b5 b1 9d d1 b6 e7 e6 e3 36 a6 d3 91 b7
       -8.236954e-07 -6.247043e-06 6.7920078e-06 -1.7383903e-05
000350 ce de a1 36 8b ff 07 b5 50 98 4f b7 39 2b 87 b6
       4.824112e-06 -5.0663283e-07 -1.23736245e-05 -4.0283453e-06
000360 60 00 97 b7 a1 05 4a 37 3f 31 79 36 04 7f 84 b7
       -1.8000777e-05 1.2041449e-05 3.7132556e-06 -1.5794772e-05
000370 94 b9 04 b8 2d 70 1b b9 eb 4b 2c 35 eb e9 97 36
       -3.1644086e-05 -0.0001482374 6.418547e-07 4.5273823e-06
000380 bf fc 0b b5 38 26 81 b7 4e 01 b4 36 fc 14 21 b6
       -5.214933e-07 -1.5395795e-05 5.36457e-06 -2.4003084e-06
000390 71 7d 5f b7 be 4a 0e b6 af 05 ee 36 49 a1 0b b7
       -1.3321042e-05 -2.1203155e-06 7.0936144e-06 -8.322598e-06
0003a0 f4 39 be 36 bd 5c a5 b7 3a bf 25 b6 95 73 c1 36
       5.669188e-06 -1.9712717e-05 -2.4698224e-06 5.7653037e-06
0003b0 a0 9a 5d b7 32 2e 86 b7 1b 62 57 36 51 54 7b b5
       -1.3208628e-05 -1.5995556e-05 3.2094601e-06 -9.3627483e-07
0003c0 75 9a 47 36 20 1b 09 b6 2d 77 06 35 b6 4e 97 b7
       2.9743217e-06 -2.043038e-06 5.0092314e-07 -1.8037255e-05
0003d0 fd f3 12 b7 b8 6b 82 37 45 f0 76 b7 53 fb 24 b6
       -8.759086e-06 1.5547368e-05 -1.4718685e-05 -2.4584194e-06
0003e0 86 54 a5 b6 9f a2 8e b6 01 7e 6e 35 f7 db 49 b6
       -4.927223e-06 -4.2508614e-06 8.884527e-07 -3.007937e-06
0003f0 06 5f 8f b4 59 5b 23 b7 f8 93 b3 b6 8c 9b 9a 36
       -2.6704964e-07 -9.736826e-06 -5.3518415e-06 4.6076657e-06

exp_avg_sq f4 [64, 37]
000000 66 15 bc 32 10 4c 3c 32 94 93 ad 32 d4 ae e1 30
       2.1895811e-08 1.0960335e-08 2.0206961e-08 1.6420594e-09
000010 38 b1 3d 32 0b 7e d3 32 06 e5 15 32 c0 dc aa 31
       1.1041543e-08 2.462095e-08 8.725015e-09 4.9727475e-09
000020 26 4e 64 32 90 03 23 32 6a 98 d8 32 26 a8 09 32
       1.3289116e-08 9.488659e-09 2.521502e-08 8.012682e-09
000030 2a 97 99 32 b4 67 b7 30 8a 40 e9 31 d3 c0 84 32
       1.7880286e-08 1.3344477e-09 6.7885297e-09 1.5454509e-08
000040 63 d4 50 32 b1 a6 f7 31 9a 31 a2 32 c2 40 94 31
       1.2155485e-08 7.2075967e-09 1.8881838e-08 4.314729e-09
000050 5d d5 f9 31 9c 9b 0c 32 d4 c2 14 33 26 0e 1a 31
       7.2711104e-09 8.184454e-09 3.463613e-08 2.2417992e-09
000060 1f 25 da 31 b6 8b 8c 32 28 2a 34 32 4c 0d 26 32
       6.348855e-09 1.6361678e-08 1.0486964e-08 9.665495e-09
000070 c4 34 8d 32 29 30 13 32 c6 55 0d 32 e8 eb 1d 32
       1.6438555e-08 8.5674765e-09 8.226783e-09 9.192242e-09
000080 27 43 cb 32 6d e1 3a 32 46 cb 13 32 11 a3 ab 32
       2.3662848e-08 1.0877881e-08 8.602745e-09 1.9981174e-08
000090 10 38 09 36 71 c8 6e 32 1f a7 8b 31 8c 67 0f 33
       2.0447224e-06 1.3898998e-08 4.064432e-09 3.3388957e-08
0000a0 ab fc 03 31 c3 77 94 32 12 1a 32 33 35 8d 7c 31
       1.9206634e-09 1.7283929e-08 4.1467565e-08 3.6751093e-09
0000b0 97 9f c2 31 88 d3 c3 30 14 e9 b5 31 b1 6e 79 32
       5.6642864e-09 1.4248238e-09 5.2942912e-09 1.4518876e-08
0000c0 ae 2b 34 32 2a c5 a5 31 ad 63 b7 32 ee 01 31 32
       1.0487311e-08 4.824547e-09 2.1349331e-08 1.0303195e-08
0000d0 42 94 11 33 81 2c 77 31 af 01 63 32 be a4 d2 30
       3.3895283e-08 3.5968528e-09 1.3213522e-08 1.5326334e-09
0000e0 7b 7c 2d 32 37 a1 51 32 27 b9 2e 32 70 1f b6 31
       1.0098229e-08 1.2202057e-08 1.0170232e-08 5.300471e-09
0000f0 df 09 d2 32 23 9f c3 31 0f ef 2c 33 bc 91 c9 31
       2.4451706e-08 5.6933387e-09 4.0264293e-08 5.866438e-09
000100 8c 41 96 31 d2 7e b7 30 98 19 dd 31 c9 fe a3 32
       4.3730264e-09 1.3351047e-09 6.434856e-09 1.909156e-08
000110 ce 38 7c 31 fd a3 f8 32 27 4a bc 30 cf 82 99 32
       3.6703116e-09 2.8945573e-08 1.3699876e-09 1.7871029e-08
000120 fa 55 5d 33 41 42 f5 34 cd 8a 01 34 3e 3a 4d 31
       5.1533767e-08 4.5683012e-07 1.2064557e-07 2.9864533e-09
000130 9e ab dd 30 57 11 36 2f b8 aa c0 32 11 e6 1e 33
       1.6128643e-09 1.6558964e-10 2.2429376e-08 3.6996486e-08
000140 78 7c 9e 30 dd 53 81 33 f0 94 ed 32 91 43 ca 31
       1.1531389e-09 6.022285e-08 2.765816e-08 5.886655e-09
000150 f0 62 72 33 da 93 02 31 21 54 84 33 6c 3f ae 31
       5.6435e-08 1.9001534e-09 6.162032e-08 5.0712767e-09
000160 68 51 3d 32 8c 10 28 30 d9 fa 0a 33 08 1a 33 32
       1.10197576e-08 6.114156e-10 3.2358773e-08 1.042509e-08
000170 fc 03 b0 33 78 b4 bc 32 c9 83 ad 31 94 ab af 30
       8.1963634e-08 2.1968148e-08 5.049945e-09 1.2781691e-09
000180 18 33 fe 33 7f e3 43 30 9e b3 23 32 24 60 29 30
       1.18370906e-07 7.126388e-10 9.528689e-09 6.1618466e-10
000190 75 94 71 31 01 80 85 33 89 6b 81 33 f8 7d 72 31
       3.5154504e-09 6.216579e-08 6.026591e-08 3.528724e-09
0001a0 4e df 70 31 ff 3f 01 33 86 08 66 33 d4 19 24 33
       3.505153e-09 3.0093357e-08 5.35588e-08 3.8207716e-08
0001b0 3c df 3a 32 92 3b 75 33 e7 7a fb 36 54 44 03 34
       1.08773826e-08 5.7097687e-08 7.4946906e-06 1.2225183e-07
0001c0 d8 44 ec 30 59 31 d4 30 6b 62 ef 30 bf 18 79 32
       1.7190827e-09 1.5439056e-09 1.7417511e-09 1.4499334e-08
0001d0 5b eb b1 32 da e9 dc 33 44 a8 5a 31 d2 67 28 30
       2.071254e-08 1.0287086e-07 3.1818823e-09 6.126558e-10
0001e0 78 fa ac 32 d3 87 6e 31 e1 b4 b5 32 41 46 dc 33
       2.0137335e-08 3.4710765e-09 2.1153427e-08 1.02573274e-07
0001f0 e9 f5 b2 2f 43 76 ae 32 d9 b1 b7 32 4e df dc 33
       3.255274e-10 2.0310045e-08 2.138488e-08 1.0285167e-07
000200 07 f1 d1 30 83 4d 5d 30 d0 e0 c7 32 2e b1 fb 33
       1.5275256e-09 8.050948e-10 2.3268882e-08 1.1720327e-07
000210 e1 27 74 31 4d 86 3d 31 75 6b de 30 d6 84 6a 32
       3.5529342e-09 2.757946e-09 1.6183167e-09 1.3650796e-08
000220 30 33 b7 32 30 14 da 33 04 8a 5c 31 d9 d5 78 30
       2.1327281e-08 1.0155088e-07 3.2092666e-09 9.052577e-10
000230 f4 66 9e 32 8f 41 b6 32 89 8d df 33 22 f3 8e 30
       1.8440439e-08 2.1217401e-08 1.0409992e-07 1.0400962e-09
000240 e2 db 87 2f e9 80 f4 32 48 09 ed 33 66 9e e7 36
       2.4712593e-10 2.846396e-08 1.1037861e-07 6.9027765e-06
000250 34 b2 a6 32 6a 3c eb 30 7e 39 b1 32 ee 4c a6 30
       1.940598e-08 1.7115671e-09 2.0631656e-08 1.2099954e-09
000260 72 b1 26 31 29 d7 e0 32 41 9d d3 30 20 0a 4a 32
       2.4257045e-09 2.6174876e-08 1.5396965e-09 1.176025e-08
000270 7f 1b ad 31 5c 12 01 32 f9 c3 cc 32 00 18 14 32
       5.0380886e-09 7.512963e-09 2.3837844e-08 8.620191e-09
000280 8c 8f 1a 32 26 39 15 31 9e 37 28 32 58 b6 be 32
       8.996619e-09 2.1714839e-09 9.791533e-09 2.2201831e-08
000290 6f 5b 34 31 e3 6c 0e 32 63 ce 3e 32 6f 2c 52 31
       2.6245421e-09 8.290246e-09 1.11063825e-08 3.058428e-09
0002a0 09 f5 06 32 5a 6c ad 31 26 43 03 33 c0 d9 32 30
       7.855541e-09 5.047281e-09 3.0561885e-08 6.5065464e-10
0002b0 f1 44 c9 31 0a 65 d8 32 c0 9d a2 30 de 65 72 32
       5.8577077e-09 2.5191657e-08 1.1831887e-09 1.4109416e-08
0002c0 84 75 6b 31 f4 45 b1 31 85 07 5c 32 0c 0a f0 30
       3.42638e-09 5.1593307e-09 1.2807395e-08 1.7465154e-09
0002d0 c0 c1 ec 32 3e 36 de 30 b5 4a ed 31 b0 55 4e 33
       2.7562123e-08 1.6168042e-09 6.906101e-09 4.8041045e-08
0002e0 e9 00 32 35 67 20 4a 32 cc cc 40 31 76 2b e8 32
       6.631149e-07 1.1765315e-08 2.805609e-09 2.7028118e-08
0002f0 a8 3e 75 30 ea 61 10 31 19 01 17 33 ed 87 7f 31
       8.921952e-10 2.1010416e-09 3.5158426e-08 3.7184649e-09
000300 79 b5 47 31 82 91 5b 30 95 03 3f 32 db 70 dd 32
       2.9061467e-09 7.9878515e-10 1.1118478e-08 2.5779107e-08
000310 2d 70 2e 32 ef 26 a9 31 6c d8 07 31 e0 ef 40 32
       1.0153639e-08 4.9229736e-09 1.9768107e-09 1.1230412e-08
000320 9b 53 ff 32 13 27 8f 31 ec 17 06 32 61 d6 2a 30
       2.9723926e-08 4.16629e-09 7.805266e-09 6.215029e-10
000330 ad 2c 15 31 c9 47 43 32 94 cf bd 31 01 65 d4 32
       2.170775e-09 1.1366816e-08 5.524223e-09 2.472598e-08
000340 f8 0e c6 30 06 e8 bd 31 ef dd 16 33 20 42 8e 31
       1.441065e-09 5.527002e-09 3.5126444e-08 4.1402615e-09
000350 30 02 44 31 94 ab f9 2f 97 0b ff 31 80 0b 83 32
       2.8522997e-09 4.541475e-10 7.4227944e-09 1.5255637e-08
000360 b6 84 5a 31 33 81 c1 32 cc 41 ac 30 2d be 10 32
       3.1798613e-09 2.252691e-08 1.2533348e-09 8.425144e-09
000370 15 2e 3f 33 43 a0 ab 34 23 97 9c 32 4d 3c 01 32
       4.4512564e-08 3.1967838e-07 1.822952e-08 7.522499e-09
000380 8c bc 27 32 8b 53 1a 31 f9 c4 9f 31 30 71 b3 32
       9.76355e-09 2.2457438e-09 4.6499022e-09 2.0889814e-08
000390 97 1f ef 31 72 6a 98 31 0c 71 96 31 24 a8 8d 31
       6.959407e-09 4.4358837e-09 4.3784265e-09 4.1227555e-09
0003a0 74 46 60 32 77 28 9e 32 3c c4 7d 31 7f a5 21 30
       1.3054535e-08 1.8412022e-08 3.6927892e-09 5.8806643e-10
0003b0 03 37 85 32 26 ce 98 32 80 37 1b 32 64 29 db 31
       1.5508254e-08 1.7788874e-08 9.034807e-09 6.3784444e-09
0003c0 d3 30 88 31 8f 72 7a 31 a8 d7 65 32 cf e3 15 32
       3.9636716e-09 3.6444907e-09 1.3378589e-08 8.724739e-09
0003d0 42 ea 63 32 4d 94 ec 30 33 8e f8 31 33 d4 ad 32
       1.3266403e-08 1.721341e-09 7.233916e-09 2.0236348e-08
0003e0 d7 25 09 32 c5 71 d6 31 4f 90 1d 31 9c 42 a8 31
       7.983053e-09 6.241154e-09 2.2928537e-09 4.897016e-09
0003f0 2e fe a5 32 d1 5a 07 32 15 45 de 31 b7 43 2f 31
       1.9324116e-08 7.8786835e-09 6.468904e-09 2.5504343e-09

exp_avg f4 [64]
000000 92 b3 1f 37 e6 b2 12 b7 a4 f3 18 37 9b f5 19 b8
       9.518948e-06 -8.743931e-06 9.116633e-06 -3.670678e-05
000010 15 7a 1b 37 d5 88 d2 b6 85 52 34 b7 09 55 b1 37
       9.267144e-06 -6.274417e-06 -1.0748049e-05 2.1139642e-05
000020 8c 7a 64 b7 7d 4d 52 b8 34 a2 e0 b7 d5 b3 39 b7
       -1.3618392e-05 -5.014007e-05 -2.6778413e-05 -1.106873e-05
000030 e1 f8 29 b7 e0 b1 ff 34 62 07 c0 b8 00 2d a1 37
       -1.0131132e-05 4.7626872e-07 -9.1566486e-05 1.921365e-05
000040 75 4e cd b7 3d 3a c9 b6 45 49 2e b7 cc fd 8b 35
       -2.4474439e-05 -5.9970466e-06 -1.0388268e-05 1.0430172e-06
000050 80 db 1e b8 20 91 86 b6 44 a0 39 36 03 15 74 b6
       -3.787456e-05 -4.010406e-06 2.7660435e-06 -3.6371064e-06
000060 87 73 c0 b7 b7 ab 07 38 bf 58 7d 38 c2 37 a1 b5
       -2.294198e-05 3.234643e-05 6.040255e-05 -1.2011662e-06
000070 2f 3a 36 b7 a2 bb 49 b7 04 00 00 00 b3 a5 93 33
       -1.0861592e-05 -1.202422e-05 6e-45 6.8753614e-08
000080 b6 00 95 35 29 d1 d4 b6 62 9b 3e b7 ca 42 89 38
       1.1101572e-06 -6.342442e-06 -1.136106e-05 6.5451095e-05
000090 36 b6 01 b8 a6 5f 2d b8 c9 ff 37 38 be 36 a8 b5
       -3.0925694e-05 -4.1335494e-05 4.386882e-05 -1.2532907e-06
0000a0 c9 7a c7 38 b5 6c 13 b6 b1 22 69 b7 16 00 0d b8
       9.51193e-05 -2.1967983e-06 -1.38959595e-05 -3.36171e-05
0000b0 3c 54 98 b6 19 c0 bf 36 89 9b 16 38 34 d7 bb 37
       -4.539759e-06 5.7146067e-06 3.590764e-05 2.2392349e-05
0000c0 82 ba 2b b8 04 6d 12 36 84 fd db 37 92 25 21 b7
       -4.0943276e-05 2.181915e-06 2.6224887e-05 -9.605095e-06
0000d0 78 31 16 b8 f6 d7 13 39 1c 87 40 b8 cd c7 e9 b5
       -3.580886e-05 0.00014099464 -4.5902198e-05 -1.7418002e-06
0000e0 04 ce a7 b7 cb ac 96 36 a4 08 33 b8 d8 23 aa 38
       -2.0003885e-05 4.490464e-06 -4.2684973e-05 8.112908e-05
0000f0 dc 31 82 b8 e2 0b a5 36 dd 7b a6 38 9b 2f c5 b8
       -6.20817e-05 4.9187665e-06 7.938568e-05 -9.402559e-05

exp_avg_sq f4 [64]
000000 a1 f6 6d 33 bb 30 64 33 99 c2 06 34 fb ee 08 34
       5.540517e-08 5.3129707e-08 1.2550517e-07 1.2752928e-07
000010 8d 45 3e 33 f4 61 37 33 5d 32 23 33 61 ec cd 32
       4.430108e-08 4.2697096e-08 3.79972e-08 2.3972634e-08
000020 6e 54 3f 33 1a 7b da 33 71 94 6b 32 98 45 6c 33
       4.454744e-08 1.0173808e-07 1.3712552e-08 5.5011327e-08
000030 c7 ce 02 33 ac 46 a4 33 94 71 61 34 72 a1 d4 32
       3.0456047e-08 7.6497e-08 2.0996077e-07 2.4753465e-08
000040 ca 65 86 33 06 f7 48 33 94 ce 31 32 c4 78 14 34
       6.2583766e-08 4.6790795e-08 1.0349726e-08 1.3827508e-07
000050 f6 06 2b 33 be 7f d2 32 da 19 ff 33 45 54 7f 33
       3.982037e-08 2.4505308e-08 1.1879065e-07 5.9448457e-08
000060 6c a7 4b 33 3c 6a a7 33 e7 d8 0c 34 1b 25 98 33
       4.741689e-08 7.7958674e-08 1.3117425e-07 7.084801e-08
000070 20 56 ae 33 c9 d8 dd 33 e6 77 06 2c f0 6c 37 33
       8.1181724e-08 1.03305474e-07 1.9109102e-12 4.2707086e-08
000080 ab 77 8c 33 ad 97 aa 32 ef 05 2a 33 7f 14 67 33
       6.5410255e-08 1.9859579e-08 3.9586606e-08 5.380252e-08
000090 b3 89 b7 32 9e 8e 32 33 db c7 74 33 af e1 17 34
       2.1366622e-08 4.1573564e-08 5.6992445e-08 1.4145074e-07
0000a0 b1 c0 3b 33 e3 9a 4d 33 5e 74 d6 33 ae c6 a2 33
       4.3714582e-08 4.787115e-08 9.9863186e-08 7.5798525e-08
0000b0 7b b5 94 33 ba 94 77 33 ec 25 6f 33 2b 49 ee 32
       6.924798e-08 5.7644435e-08 5.5681014e-08 2.774012e-08
0000c0 fc 0f 29 34 5c 8b 30 33 4b 27 8d 33 1a c4 86 33
       1.5745167e-07 4.110494e-08 6.5729715e-08 6.275532e-08
0000d0 81 f6 4c 34 31 d7 cf 33 67 5c ba 33 f0 ad 77 33
       1.9088658e-07 9.678332e-08 8.678108e-08 5.7667364e-08
0000e0 aa c8 41 33 c8 cd 63 34 49 59 bd 32 f5 5d 0a 33
       4.5118817e-08 2.1215885e-07 2.2043098e-08 3.2216082e-08
0000f0 79 a2 71 33 3b e7 54 34 63 29 d1 33 c7 6a eb 33
       5.6259953e-08 1.982816e-07 9.739849e-08 1.0962463e-07
