p1_navigation/DQN20190129_v1.pth (torch_old, 85288 bytes, 18 tensors)

hidden_layers.0.weight f4 [64, 37]
0.27433464 0.37076545 0.1836191 0.22221865 0.00830364 0.36037782 0.27657855 0.45463407
0.35608742 0.14425671 0.24029171 0.23466335 0.16383901 0.27307284 0.054015167 0.301706
0.3423966 0.38448992 0.2582977 0.03554112 0.36580026 0.4073505 0.25682026 0.5000934
0.080494106 0.31609812 0.44957677 0.12225154 0.26618993 0.042786937 0.2252779 0.43347964
0.20499562 0.26975697 -0.027370011 -0.20214984 -0.120084934 0.4258479 0.32768637 0.39628568
0.3214105 -0.014716126 0.33166483 0.10714318 0.21670185 0.28018042 0.20105985 0.38430813
0.19641413 0.31029886 0.47914135 0.2790875 0.36981606 0.28746694 0.37034777 0.24870326
0.14708789 0.16365685 0.15800561 0.19801629 0.442106 0.17365639 0.19999945 0.33502895
0.3297648 0.34691712 0.089707226 0.33225438 0.37990877 0.4496764 0.21300046 0.031274214
0.04150945 0.18249866 0.398691 0.41396105 0.30607554 0.16634557 0.082978554 0.1943863
0.124030694 0.4491564 0.46367383 -0.07553741 0.32705083 0.23892608 0.2538524 0.2634066
0.1718636 0.19307192 0.33147165 0.34466764 0.44466847 0.16905077 0.12036845 0.17415197
0.3389002 0.40772906 -0.040277578 0.16778919 0.4455648 0.36620125 0.29271424 0.015901204
0.09169679 0.29708475 0.15508321 0.21062535 0.06759034 -0.0077946624 -0.12777753 0.37572563
0.1533603 0.41665968 0.44406706 -0.06944712 0.23352079 0.27802718 0.35143304 0.3842229
0.15425113 0.27165666 0.19881827 0.36739323 0.17809765 0.011715211 0.25059304 0.17968036
0.17356244 0.22121704 0.05626205 0.29651156 0.1724292 0.24822636 0.4821006 0.0833019
0.26282838 0.27827975 0.27172485 0.4676589 0.22725004 0.38747457 0.4405631 0.25725028
0.17098892 0.008892067 0.20508796 -0.023965936 0.18322875 0.122022 0.15699941 0.13774973
0.027119838 0.3872244 0.3319457 0.16753554 0.44557577 -0.05237313 0.23435257 0.19469307
0.27432036 0.31692857 -0.04599885 0.14928183 0.23008268 0.26013052 0.26137623 0.16470851
0.12202726 0.24355234 0.41500607 0.28217807 0.23723508 0.3584006 0.12390264 0.3334257
0.33646834 -0.009762342 0.4111709 0.13660175 0.30371308 0.28319496 0.19074014 0.01432803
0.12267589 0.050984766 -0.18528067 -0.09407219 -0.13793819 0.018006295 0.042526875 0.14637782
-0.39156535 -0.111191615 -0.11435028 -0.31587592 -0.20187539 -0.040095367 -0.13520505 -0.055115853
0.08155932 0.008483575 -0.30136782 -0.30827466 -0.1290771 0.059112053 -0.08696145 -0.052733794
-0.15828049 -0.11341338 -0.24644545 -0.04948667 0.078324266 -0.21318346 0.06674876 -0.07772131
-0.1994167 -0.06942358 -0.20641086 -0.020319365 -0.13690402 0.11496688 0.33532175 0.27827108
0.16004342 0.41523486 -0.04353313 0.27250487 0.2225218 0.29796576 0.3626422 0.23473908
0.3161912 0.41955584 0.4022047 0.25319773 0.19188063 0.17899762 0.20798595 0.32567394
0.4105148 0.24065295 0.23699084 0.27290902 0.3761392 0.2166023 0.22428782 0.16769859
0.30218217 0.22713128 0.27553672 0.1087544 0.42199123 0.24279106 0.19954981 0.2665772
00000000: 9775 8c3e f8d4 bd3e a506 3c3e 498d 633e
00000010: fe0b 083c 7183 b83e b49b 8d3e ccc5 e83e
00000020: 1751 b63e 08b8 133e 080f 763e 974b 703e
00000030: 6ac5 273e 34d0 8b3e 023f 5d3d 3579 9a3e
00000040: 9b4e af3e dddb c43e 993f 843e 9193 113d
00000050: 2c4a bb3e 3f90 d03e f27d 833e 1f06 003f
00000060: 18da a43d 9dd7 a13e ed2e e63e 045f fa3d
00000070: 0c4a 883e 5b41 2f3d 40af 663e 0bf1 dd3e
00000080: 5fea 513e 961d 8a3e 1337 e0bc 5e00 4fbe
00000090: 17ef f5bd bc08 da3e 82c6 a73e f5e5 ca3e
000000a0: eb8f a43e e81b 71bc f9cf a93e e26d db3d
000000b0: 17e7 5d3e cf73 8f3e a2e2 4d3e 09c4 c43e
000000c0: c920 493e 7edf 9e3e 0452 f53e 8fe4 8e3e
000000d0: 8858 bd3e de2e 933e 399e bd3e 11ac 7e3e
000000e0: 359e 163e a995 273e 39cc 213e c8c4 4a3e
000000f0: b85b e23e fbd2 313e a8cc 4c3e ea88 ab3e
00000100: efd6 a83e 1f9f b13e 6cb8 b73d 3f1d aa3e
00000110: 6783 c23e fc3b e63e cb1c 5a3e 6419 003d
00000120: d005 2a3d eee0 3a3e 3a21 cc3e b4f2 d33e
00000130: efb5 9c3e 7e56 2a3e a9f0 a93d 340d 473e
00000140: ce03 fe3d d4f7 e53e a866 ed3e 5cb3 9abd
00000150: 3573 a73e 0aa9 743e f1f8 813e 3bdd 863e
00000160: 03fd 2f3e a5b4 453e a7b6 a93e 4778 b03e
00000170: 96ab e33e a51b 2d3e bc83 f63d e554 323e
00000180: 5484 ad3e ddc1 d03e 1afa 24bd eed0 2b3e
00000190: 1221 e43e bb7e bb3e a4de 953e 3e43 823c
000001a0: 87cb bb3d 7e1b 983e 22ce 1e3e 2cae 573e
000001b0: ce6c 8a3d 5e6a ffbb 1dd8 02be 1c5f c03e
000001c0: 7c0a 1d3e 6b54 d53e c25c e33e 4b3a 8ebd
000001d0: 1320 6f3e 9459 8e3e 08ef b33e ddb8 c43e
000001e0: 02f4 1d3e 9516 8b3e 0497 4b3e f71a bc3e
000001f0: 3b5f 363e 28f1 3f3c bb4d 803e 21fe 373e
00000200: 5aba 313e b886 623e 0973 663d 5dd0 973e
00000210: 4891 303e 0d2f 7e3e e4d5 f63e 309a aa3d
00000220: 7191 863e af7a 8e3e 851f 8b3e fd70 ef3e
00000230: 3cb4 683e 1163 c63e 7d91 e13e 4fb6 833e
00000240: b817 2f3e 08b0 113c 9402 523e 3654 c4bc
00000250: 51a0 3b3e ace6 f93d 74c4 203e 440e 0d3e
00000260: 6c2a de3c 4742 c63e c9f4 a93e 708e 2b3e
00000270: 8222 e43e 3585 56bd 1ffa 6f3e 9f5d 473e
00000280: b873 8c3e 7644 a23e 4a69 3cbd 56dd 183e
00000290: cb9a 6b3e d42f 853e 1bd3 853e 59a9 283e
000002a0: 6ee9 f93d c965 793e ad7b d43e a579 903e
000002b0: c1ed 723e 4980 b73e abc0 fd3d c6b6 aa3e
000002c0: 9445 ac3e 3bf2 1fbc fe84 d23e 54e1 0b3e
000002d0: 4880 9b3e eefe 903e 6251 433e 1dc0 6a3c
000002e0: 7f3d fb3d 67d5 503d 37ba 3dbe eca8 c0bd
000002f0: ab3f 0dbe f081 933c a930 2e3d 11e4 153e
00000300: 417b c8be 6eb8 e3bd 7b30 eabd 7dba a1be
00000310: 6cb8 4ebe 0a3b 24bd 3173 0abe 29c1 61bd
00000320: 9308 a73d b1fe 0a3c e24c 9abe 2dd6 9dbe
00000330: ca2c 04be 7b1f 723d d818 b2bd 64ff 57bd
00000340: 4814 22be 4645 e8bd 325c 7cbe 89b2 4abd
00000350: 7968 a03d c44c 5abe 93b3 883d 5a2c 9fbd
00000360: e433 4cbe f32d 8ebd 5e5d 53be cc74 a6bc
00000370: 9130 0cbe c173 eb3d 4baf ab3e 8c79 8e3e
00000380: 6ce2 233e aa99 d43e cc4f 32bd c285 8b3e
00000390: c1dc 633e f88e 983e 3dac b93e 715f 703e
000003a0: d0e3 a13e 06d0 d63e c6ed cd3e 22a3 813e
000003b0: 5b7c 443e 274b 373e 45fa 543e bcbe a63e
000003c0: ff2e d23e ba6d 763e baad 723e bbba 8b3e
000003d0: 5195 c03e fecc 5d3e b5ab 653e 2eb9 2b3e
000003e0: 9fb7 9a3e 1a95 683e 2613 8d3e a0ba de3d
000003f0: 3c0f d83e 389e 783e c956 4c3e cf7c 883e

hidden_layers.0.bias f4 [64]
0.5423351 0.37672552 0.24880648 0.3133719 0.5247681 -0.17643778 0.31817877 0.46183145
0.41082174 0.22399262 0.49950138 0.48589098 0.5340029 0.45933738 0.3309582 0.28446612
0.4626335 0.3619826 0.42369837 0.22800846 0.31528854 0.41587624 0.37621397 0.29051512
0.22900535 0.48369628 0.3312846 -0.19931337 0.54012626 0.47200036 0.30613166 0.29077616
0.55423516 0.38588768 0.2704694 0.4769668 0.33747917 0.39386618 0.30791977 0.2564247
0.2772373 0.34227785 0.27677187 0.54421717 0.33791888 0.300418 0.45871082 0.21736632
0.30734214 0.44490767 0.20912704 -0.029958736 0.3892048 0.14753214 0.2094302 0.44683537
0.4395909 0.35437182 0.2495121 0.27550855 0.3982656 0.31744906 0.42962387 0.42036852
00000000: 79d6 0a3f 2be2 c03e 20c7 7e3e 4872 a03e
00000010: 3457 063f 1bac 34be 54e8 a23e 2c75 ec3e
00000020: 3a57 d23e 525e 653e a5be ff3e b4c6 f83e
00000030: 6ab4 083f 452e eb3e 5a73 a93e 8ba5 913e
00000040: 4cde ec3e c955 b93e feee d83e 0d7b 693e
00000050: 806d a13e bbed d43e 1e9f c03e 66be 943e
00000060: 6180 6a3e 0aa7 f73e 239e a93e ce18 4cbe
00000070: b745 0a3f 08aa f13e 4abd 9c3e 9de0 943e
00000080: 5be2 0d3f 1293 c53e f77a 8a3e fe34 f43e
00000090: 12ca ac3e d4a8 c93e a9a7 9d3e 194a 833e
000000a0: 0cf2 8d3e 0b3f af3e 0bb5 8d3e d151 0b3f
000000b0: b403 ad3e 63d0 993e 25dc ea3e 4795 5e3e
000000c0: f35b 9d3e f0ca e33e 6625 563e 066c f5bc
000000d0: da45 c73e aa12 173e df74 563e 9bc7 e43e
000000e0: 0f12 e13e 3970 b53e 1a80 7f3e 750f 8d3e
000000f0: 78e9 cb3e af88 a23e a9f7 db3e 8b3a d73e

hidden_layers.1.weight f4 [64, 64]
0.24726667 0.31444123 0.38738704 0.30735427 0.39908755 -0.26992735 0.347231 0.36459166
0.3436119 0.31599933 0.32306167 0.20073882 0.19481435 0.3087296 0.30227864 0.34921044
0.38157624 0.36787906 0.23365532 0.17508468 0.14555217 0.33779702 0.19512309 0.13835064
0.23447399 0.19913316 0.23639484 -0.27257994 0.2328374 0.40612897 0.30516812 0.3459514
0.26399288 0.23602985 0.24718118 0.18984382 0.19231313 0.402301 0.24726933 0.1685038
0.4186912 0.30276203 0.18624738 0.19186491 0.21467641 0.1708321 0.39010122 0.26880765
0.29419628 0.19542238 0.25988755 -0.32939154 0.307277 0.32363936 0.28199387 0.2519762
0.32600003 0.36369705 0.30818623 0.2358846 0.28314263 0.3179944 0.18108614 0.42756128
0.2612056 0.35465115 0.2408179 0.32935378 0.33101603 -0.23652866 0.3544694 0.19882835
0.29034135 0.30147097 0.35540763 0.40245125 0.32659453 0.3067347 0.24514121 0.29167235
0.23422836 0.3341788 0.21468385 0.3356345 0.3600066 0.34891802 0.30084726 0.30938983
0.18440863 0.40656537 0.27604902 -0.17518607 0.27780387 0.2615008 0.24105048 0.32683918
0.1974582 0.2333232 0.35426387 0.27368155 0.17542042 0.18249121 0.25567922 0.40218526
0.22157949 0.3723273 0.3540949 0.23589276 0.26651028 0.19428502 0.29663628 0.19523165
0.28418452 0.35374743 0.35186046 -0.20835704 0.27639914 0.3990798 0.29920614 0.3217243
0.2224198 0.40018097 0.26745304 0.24852595 0.17711516 0.21877734 0.28408435 0.27729684
0.22177182 0.33249405 0.27391183 0.328499 0.3792558 -0.11469884 0.19296317 0.24073258
0.2504562 0.22541593 0.2335054 0.26453742 0.33652714 0.40425688 0.38778636 0.27093104
0.26131672 0.30782035 0.25638843 0.2505922 0.2956844 0.17119367 0.17334913 0.24994169
0.24068874 0.22922204 0.15417802 -0.07346808 0.27375758 0.2153865 0.25865373 0.26989558
0.16838148 0.2511842 0.26208094 0.3137816 0.30906096 0.19621773 0.3383867 0.3602609
0.28039896 0.35080594 0.2247839 0.29450965 0.3180235 0.18538275 0.3291089 0.14004767
0.22151485 0.19036885 0.20723826 -0.12701982 0.1495636 0.3405204 0.25804114 0.16563334
0.2710387 0.24077961 0.3145941 0.17626686 0.23946248 0.33908933 0.3156882 0.28295714
0.3324046 0.39713487 0.26034364 0.40045616 0.39223495 -0.20775563 0.31337994 0.3647742
0.24722955 0.3704155 0.27713543 0.3738079 0.29715484 0.2309928 0.3958816 0.31127575
0.3968804 0.3084314 0.34809273 0.34496716 0.28192684 0.25601035 0.30960852 0.18590142
0.2968895 0.26360327 0.31191385 -0.3409489 0.36903054 0.18957879 0.34448838 0.33697596
0.14765018 0.37535936 0.19048552 0.25859734 0.33814713 0.2599667 0.41256908 0.22288974
0.27660057 0.21190695 0.19830973 0.40071702 0.40507567 0.28429064 0.2737533 0.11684607
0.36614513 0.27047437 0.24603866 -0.24375345 0.36606947 0.4148293 0.36676955 0.29696938
0.18478924 0.3392229 0.2869139 0.3249022 0.24645142 0.23534785 0.38046247 0.3280991
00000000: 7933 7d3e 71fe a03e 9857 c63e 8a5d 9d3e
00000010: 3455 cc3e eb33 8abe 43c8 b13e c2ab ba3e
00000020: e6ed af3e aaca a13e 5768 a53e 7a8e 4d3e
00000030: 6a7d 473e ce11 9e3e 44c4 9a3e b6cb b23e
00000040: f65d c33e a55a bc3e 5743 6f3e 6649 333e
00000050: a10b 153e bbf3 ac3e 59ce 473e caab 0d3e
00000060: f319 703e 90e9 4b3e 7d11 723e 998f 8bbe
00000070: ed6c 6e3e 23f0 cf3e ff3e 9c3e 8b20 b13e
00000080: 132a 873e cfb1 713e 101d 7d3e 6b66 423e
00000090: bced 443e 66fa cd3e 2c34 7d3e 438c 2c3e
000000a0: b15e d63e a003 9b3e a2b7 3e3e 3c78 443e
000000b0: 22d4 5b3e 9cee 2e3e 59bb c73e 28a1 893e
000000c0: e5a0 963e ce1c 483e fb0f 853e 02a6 a8be
000000d0: 6953 9d3e 0fb4 a53e 8061 903e 0603 813e
000000e0: 7ae9 a63e 8036 ba3e 96ca 9d3e bc8b 713e
000000f0: 12f8 903e 29d0 a23e a56e 393e 50e9 da3e
00000100: bebc 853e d694 b53e f898 763e 0fa1 a83e
00000110: ef7a a93e 9234 72be 037d b53e a999 4b3e
00000120: 9fa7 943e 675a 9a3e fdf7 b53e 170e ce3e
00000130: 6637 a73e 550c 9d3e 4c06 7b3e 1456 953e
00000140: 8fd9 6f3e 7c19 ab3e 15d6 5b3e 49d8 ab3e
00000150: c952 b83e 62a5 b23e a708 9a3e 5868 9e3e
00000160: 9ed5 3c3e 5629 d03e 4c56 8d3e fa63 33be
00000170: 4f3c 8e3e 6fe3 853e f0d5 763e 7757 a73e
00000180: 7b32 4a3e 47ec 6e3e 1362 b53e fd1f 8c3e
00000190: 69a1 333e fade 3a3e 63e8 823e 3aeb cd3e
000001a0: bce5 623e afa1 be3e ed4b b53e df8d 713e
000001b0: 0974 883e a7f2 463e b6e0 973e ceea 473e
000001c0: a280 913e 621e b53e 0e27 b43e 8c5b 55be
000001d0: 3084 8d3e 3054 cc3e 8c31 993e 0cb9 a43e
000001e0: 04c2 633e 85e4 cc3e 9bef 883e 967d 7e3e
000001f0: ad5d 353e 2b07 603e 8173 913e daf9 8d3e
00000200: 2718 633e a93c aa3e 2c3e 8c3e 0531 a83e
00000210: d12d c23e 3ae7 eabd 2398 453e 9a82 763e
00000220: cc3b 803e 6fd3 663e 0a1c 6f3e 7371 873e
00000230: 494d ac3e c2fa ce3e ef8b c63e 79b7 8a3e
00000240: 4ecb 853e a19a 9d3e 5845 833e 9f4d 803e
00000250: f263 973e 654d 2f3e 6f82 313e b7f0 7f3e
00000260: 1c77 763e 2fb9 6a3e d8e0 1d3e 6f76 96bd
00000270: f429 8c3e 478e 5c3e 436e 843e c12f 8a3e
00000280: 326c 2c3e 379b 803e 792f 863e fba7 a03e
00000290: 3d3d 9e3e 4ded 483e 0641 ad3e 1e74 b83e
000002a0: 7490 8f3e d69c b33e c02d 663e f8c9 963e
000002b0: fad3 a23e fad4 3d3e f680 a83e a868 0f3e
000002c0: cad4 623e 0df0 423e 4436 543e 7c11 02be
000002d0: 3327 193e b158 ae3e f81d 843e c99b 293e
000002e0: 96c5 8a3e ee8e 763e 7a12 a13e 4d7f 343e
000002f0: a735 753e 1e9d ad3e e2a1 a13e c2df 903e
00000300: f030 aa3e 4355 cb3e c34b 853e 9708 cd3e
00000310: 05d3 c83e e4bd 54be 5673 a03e afc3 ba3e
00000320: be29 7d3e 1aa7 bd3e b2e4 8d3e c063 bf3e
00000330: ae24 983e 6089 6c3e feb0 ca3e 895f 9f3e
00000340: e833 cb3e b8ea 9d3e 3639 b23e 899f b03e
00000350: b758 903e ca13 833e 0285 9e3e f15c 3e3e
00000360: e701 983e 02f7 863e 2cb3 9f3e db90 aebe
00000370: 92f1 bc3e f120 423e c860 b03e 1d88 ac3e
00000380: 9c31 173e 1a2f c03e a30e 433e df66 843e
00000390: 9f21 ad3e 5b1a 853e 413c d33e 353d 643e
000003a0: 979e 8d3e 23fe 583e b511 4b3e c82a cd3e
000003b0: 1466 cf3e 8b8e 913e 6429 8c3e fe4c ef3d
000003c0: 6077 bb3e 9e7b 8a3e 8ff1 7b3e 819a 79be
000003d0: 756d bb3e 8264 d43e 38c9 bb3e 5f0c 983e
000003e0: 6439 3d3e a0ae ad3e 61e6 923e 9559 a63e
000003f0: c35d 7c3e 07ff 703e facb c23e 9bfc a73e

hidden_layers.1.bias f4 [64]
0.35812485 0.40031353 0.31241226 0.42059758 0.45742372 0.52496845 0.07841904 0.37956056
0.42176822 0.41445968 0.4884523 0.3517533 0.10969777 0.3974939 0.48232713 0.4994064
0.06569068 0.5017596 0.3437293 0.46482113 0.3796402 0.28230682 0.37862632 0.41987255
0.08383691 0.30980995 0.3131684 0.45706597 0.3492451 0.23030938 0.30493993 -0.0034153783
0.35100314 0.43913746 0.45924214 0.42128077 0.26654217 0.48749235 0.49537927 0.21524802
0.4510171 0.31382367 0.46772376 -0.02316226 0.3612021 0.26658988 0.066834316 0.43301475
-0.04056022 -0.033112384 0.065225534 0.5363923 -0.112343386 0.2498163 0.320489 0.35502744
-0.13952607 -0.07503071 0.31855428 0.39141512 0.018681614 0.48108068 0.25600708 0.31072843
00000000: 245c b73e e5f5 cc3e 80f4 9f3e 9158 d73e
00000010: 7133 ea3e 5564 063f 299a a03d c355 c23e
00000020: 01f2 d73e 0f34 d43e 6b16 fa3e 0219 b43e
00000030: 39a9 e03d 5284 cb3e 95f3 f63e 32b2 ff3e
00000040: d688 863d 5173 003f 49fd af3e 09fd ed3e
00000050: 3360 c23e 858a 903e 4fdb c13e 89f9 d63e
00000060: b0b2 ab3d 699f 9e3e 9c57 a03e 8d04 ea3e
00000070: 41d0 b23e 39d6 6b3e 1621 9c3e 8ad4 5fbb
00000080: afb6 b33e a0d6 e03e c921 eb3e 1db2 d73e
00000090: 3778 883e 9998 f93e 5aa2 fd3e fa69 5c3e
000000a0: b7eb e63e 7fad a03e 7d79 ef3e c8be bdbc
000000b0: 7bef b83e 787e 883e 6ee0 883d 1cb4 dd3e
000000c0: 7922 26bd daa0 07bd f794 853d 0151 093f
000000d0: 4a14 e6bd d8cf 7f3e 2217 a43e 28c6 b53e
000000e0: ecdf 0ebe b3a9 99bd 8c19 a33e 9067 c83e
000000f0: 2f0a 993c 3550 f63e 5c13 833e cc17 9f3e

output.weight f4 [4, 64]
0.26630452 0.33649772 0.36008927 0.35460305 0.36841226 0.2309341 -0.02437425 0.26333335
0.30995864 0.32279405 0.26563385 0.21315071 -0.09267834 0.37971267 0.2356264 0.26339814
-0.006873964 0.22125998 0.2956167 0.31965643 0.23800336 0.23624389 0.329977 0.22492112
-0.07877496 0.24232773 0.36898473 0.28664258 0.27266327 0.24416888 0.3316452 -0.05924697
0.3347042 0.29469284 0.29001105 0.28936034 0.20539188 0.34164375 0.32630217 0.0996495
0.18114102 0.24081907 0.3435853 -0.051486734 0.35260108 0.18822673 -0.08375952 0.31663823
-0.05970974 -0.00518488 -0.014149548 0.26818234 -0.07941542 0.14028053 0.31135884 0.26588583
-0.07675508 0.019599747 0.18514544 0.2993872 0.10183595 0.3780363 0.12049832 0.25736597
0.34704196 0.36403582 0.19202033 0.3268269 0.31546104 0.34064186 -0.07290988 0.34820974
0.23056722 0.22743404 0.31491432 0.3802106 -0.07845606 0.33387375 0.27710626 0.31701925
0.19476849 0.31351155 0.17861684 0.26319796 0.31958702 0.18329129 0.29112774 0.23450518
-0.017396023 0.3204611 0.20147625 0.21965939 0.33624044 -0.009433153 0.35983425 -0.08887086
0.29154336 0.27955955 0.29860207 0.21051039 0.2970826 0.32867536 0.36049914 0.21903016
0.22286601 0.3217956 0.2723366 -0.073965505 0.20252413 0.127229 -0.06962441 0.25031742
-0.067871444 -0.09165403 0.020869946 0.3449467 -0.05192876 0.30425546 0.28912976 0.33589357
-0.057645995 0.012652074 0.37218153 0.35852334 -0.10666594 0.26758012 0.30175695 0.22444755
0.20975463 0.20788747 0.32721037 0.2353698 0.27344415 0.3115658 -0.059439402 0.2875057
0.33719698 0.21456319 0.2949285 0.2736749 0.06872949 0.3363462 0.3094696 0.28247544
-0.12568797 0.336882 0.3330927 0.22650719 0.18943165 0.3629839 0.2411274 0.29159725
-0.026421009 0.32885295 0.3821624 0.33278173 0.23193769 0.22901605 0.3154887 0.015156635
0.1782959 0.23356341 0.1731831 0.34617338 0.39861763 0.3361528 0.31365654 0.31420687
0.3968086 0.2355069 0.23335677 -0.11488412 0.24774076 0.17188706 0.03960016 0.19959655
-0.0029446483 -0.08354042 -0.085902505 0.29342893 -0.0903092 0.31818715 0.15524441 0.20976897
-0.008584561 -0.0957801 0.37321883 0.34403884 -0.04507281 0.2926981 0.36068237 0.30007675
0.2706217 0.1921114 0.34942707 0.18656807 0.2597621 0.28334966 -0.031939786 0.23517983
0.17202517 0.29073068 0.26240054 0.36343184 -0.038579896 0.36693585 0.24602616 0.22851492
0.14080906 0.27043712 0.26574266 0.26902387 0.32020774 0.34999222 0.2700568 0.3195966
0.082969956 0.29505917 0.3167299 0.32795966 0.37750214 0.17037581 0.31578606 0.0017494423
0.27092797 0.23314808 0.33707404 0.3798944 0.18589935 0.33371693 0.34634325 0.21274774
0.27332208 0.36672145 0.2835596 -0.023510495 0.25409183 0.28790337 0.046505004 0.28229797
0.053068604 0.047837824 -0.08965922 0.29510397 0.090367794 0.23887801 0.26569334 0.37185976
-0.09971195 -0.039509095 0.22064532 0.3770739 -0.09357712 0.2864022 0.09270369 0.2675817
00000000: 1159 883e 6e49 ac3e 9f5d b83e 888e b53e
00000010: 88a0 bc3e fd79 6c3e 82ac c7bc a1d3 863e
00000020: e6b2 9e3e 4345 a53e 2901 883e 2e44 5a3e
00000030: 24ce bdbd b369 c23e 0c48 713e 1fdc 863e
00000040: fd3e e1bb fa91 623e 125b 973e 02aa a33e
00000050: 27b7 733e ebe9 713e bff2 a83e b951 663e
00000060: c454 a1bd c324 783e 91eb bc3e d1c2 923e
00000070: 859a 8b3e 6807 7a3e 66cd a93e f3ac 72bd
00000080: 595e ab3e fbe1 963e 547c 943e 0a27 943e
00000090: 4052 523e eeeb ae3e 1411 a73e 0915 cc3d
000000a0: 087d 393e 4699 763e 6aea af3e c1e3 52bd
000000b0: 2188 b43e 82be 403e 1c8a abbd 681e a23e
000000c0: 3392 74bd ede5 a9bb 81d3 67bc 324f 893e
000000d0: 8da4 a2bd b3a5 0f3e 6d6a 9f3e 3022 883e
000000e0: c431 9dbd a68f a03c c496 3d3e 4749 993e
000000f0: 5e8f d03d f98d c13e d3c7 f63d 79c5 833e
00000100: 7caf b13e e762 ba3e faa0 443e db55 a73e
00000110: 1c84 a13e 9c68 ae3e c651 95bd 8c48 b23e
00000120: d019 6c3e 78e4 683e 733c a13e f7aa c23e
00000130: 92ad a0bd 80f1 aa3e dfe0 8d3e 5950 a23e
00000140: 6471 473e 9684 a03e 55e7 363e e2c1 863e
00000150: e9a0 a33e b6b0 3b3e b20e 953e 2022 703e
00000160: 1b82 8ebc 7a13 a43e ca4f 4e3e 64ee 603e
00000170: b527 ac3e 838d 1abc 323c b83e ed01 b6bd
00000180: 2c45 953e 6e22 8f3e 5fe2 983e 0990 573e
00000190: 361b 983e 2348 a83e 5893 b83e 7149 603e
000001a0: fd36 643e 65c2 a43e b46f 8b3e 3a7b 97bd
000001b0: 7c62 4f3e 5248 023e 3e97 8ebd 9b29 803e
000001c0: 2f00 8bbd 1cb5 bbbd 73f7 aa3c db9c b03e
000001d0: 40b3 54bd 5fc7 9b3e d108 943e 3efa ab3e
000001e0: 351e 6cbd a54a 4f3c 948e be3e 5f90 b73e
000001f0: ac73 dabd 4300 893e e37f 9a3e 94d5 653e
00000200: ebc9 563e 74e0 543e 1e88 a73e c804 713e
00000210: df00 8c3e 8d85 9f3e bb76 73bd f233 933e
00000220: 15a5 ac3e 74b6 5b3e de00 973e 1e1f 8c3e
00000230: 0cc2 8c3d 9235 ac3e cd72 9e3e 9fa0 903e
00000240: 59b4 00be cc7b ac3e 208b aa3e 80f1 673e
00000250: 5ffa 413e 07d9 b93e 1aea 763e 3c4c 953e
00000260: df70 d8bc 6a5f a83e caaa c33e 5e62 aa3e
00000270: 1381 6d3e 2f83 6a3e bc87 a13e 8953 783c
00000280: 3393 363e 3f2b 6f3e e956 313e a33d b13e
00000290: 9c17 cc3e 381c ac3e 9797 a03e b9df a03e
000002a0: 7f2a cb3e b928 713e 14f5 6e3e 5e48 ebbd
000002b0: c1af 7d3e 2903 303e c733 223d 0a63 4c3e
000002c0: 00fb 40bb 3d17 abbd a7ed afbd 513c 963e
000002d0: 08f4 b8bd 6de9 a23e 64f8 1e3e adcd 563e
000002e0: 42a6 0cbc 5b28 c4bd 8a16 bf3e dc25 b03e
000002f0: 449e 38bd 86dc 953e 5cab b83e a9a3 993e
00000300: ed8e 8a3e dab8 443e 1be8 b23e b30b 3f3e
00000310: 8aff 843e 3513 913e 4bd3 02bd fbd2 703e
00000320: 5e27 303e a7da 943e 5d59 863e bd13 ba3e
00000330: f405 1ebd 04df bb3e 48ee 7b3e d1ff 693e
00000340: 4030 103e bc76 8a3e 6c0f 883e 7fbd 893e
00000350: 45f2 a33e 2e32 b33e e344 8a3e 2aa2 a33e
00000360: 27ec a93d ff11 973e 6c2a a23e 54ea a73e
00000370: f647 c13e ff76 2e3e b6ae a13e 8b4d e53a
00000380: 12b7 8a3e 5fbe 6e3e f894 ac3e 8581 c23e
00000390: 665c 3e3e f2dc aa3e e753 b13e 8bda 593e
000003a0: dff0 8b3e eac2 bb3e b92e 913e 1599 c0bc
000003b0: 5318 823e 1268 933e 087c 3e3d 5c89 903e
000003c0: 775e 593d 98f1 433d 419f b7bd de17 973e
000003d0: c012 b93d 709c 743e f508 883e 6764 be3e
000003e0: c735 ccbd 4ad4 21bd d9f0 613e d50f c13e
000003f0: 5ca5 bfbd 4fa3 923e 6fdb bd3d 7800 893e

output.bias f4 [4]
0.36468345 0.33547914 0.45905513 0.39271274
00000000: cab7 ba3e ecc3 ab3e 4609 eb3e a511 c93e

exp_avg f4 [64, 37]
-0.052150253 3.4430695 -5.5051975 10.235228 4.7073913 -2.3446455 5.020544 -1.7883248
7.2333775 5.7998385 3.915023 1.3640659 2.4256592 0.41620016 10.2567835 4.789397
-1.5558566 -0.62721217 5.514623 3.1322854 3.9802856 -1.1944847 4.3677783 0.96736723
7.211344 2.6820667 2.3752644 -0.47546083 3.5390794 0.38209054 -0.5809167 4.6305156
-4.8003936 8.871745 3.4138584 -3.050268 -15.36876 1.0704548 2.5870962 -4.111374
12.489886 4.530899 0.21640432 4.23391 -0.06261067 7.648359 6.460957 4.1451864
5.4050612 1.8779004 0.607913 12.742936 5.7728305 -2.8654094 1.575926 7.552716
3.4205594 4.2110553 0.94642615 4.02355 2.8550317 8.578965 3.9865866 2.0238338
1.164943 4.8606963 2.0119693 1.8238963 4.4695616 -2.0429528 7.785556 4.728974
-0.79352 -4.6349025 2.2453043 1.9548166 -5.9747605 14.555093 5.244811 -0.21969028
4.6854787 -0.53113633 8.845799 7.647221 3.7657754 6.6825023 1.3582875 0.973887
13.979717 8.308045 -3.6698956 0.5560413 7.586259 4.8500113 5.7163587 -0.32507822
6.522744 0.8664248 10.060484 5.5961804 2.193243 0.42037448 4.5706534 2.2242672
2.235973 5.305975 -4.404699 9.643201 5.7307734 -5.0131407 6.7770376 2.5056498
1.0743941 -5.49273 12.899949 3.3038478 -4.29986 6.9736853 -0.9145926 9.228028
6.6199875 3.2602408 2.446267 3.757015 1.5237404 12.18783 3.6727047 -2.103494
1.7319864 7.6860666 3.777837 4.7050066 -1.3461612 6.3615694 1.2668486 9.758243
4.237218 -0.19952837 0.09175143 6.8578205 -0.42355907 -2.4963825 4.9415274 -3.9150887
12.457205 3.948103 4.3717375 -43.236717 1.1749969 2.7711515 -5.8896494 11.154711
4.0351005 -3.2811766 6.205175 -1.1021906 7.3893986 6.042099 2.821315 4.429862
2.7552102 -0.7951769 12.207078 4.5091844 -1.3054261 -0.3850486 6.3925004 2.6548755
3.5080502 0.33916038 4.8307137 0.5332838 8.507253 3.6148112 1.4324664 -1.2296563
5.393587 -0.49909902 -1.077971 5.256279 -4.279345 9.312245 3.2616935 -0.8270172
0.41974914 -0.52012664 -0.009647283 0.6590662 0.66979414 -0.081233874 0.6909119 -0.42056426
-0.021305175 0.5500438 0.029426957 0.35152534 0.20699294 0.2734256 -0.032857776 0.509988
0.7729453 0.5619568 0.7720697 -1.3078856 1.0659248 0.6642998 -0.8085145 0.07748942
0.86581165 -0.018416885 0.32331416 -0.3199105 0.76510674 0.030575851 -0.055454027 1.129384
0.26825503 -0.789335 0.19078216 0.33856648 -1.3264531 2.1320846 -3.2317991 1.0113397
-5.0182095 9.714594 0.5596827 -2.8522832 4.503288 -1.342778 2.167702 4.961562
-3.1471722 3.8815005 2.1210005 -0.37940392 7.651214 5.288243 -1.6495024 -2.4470208
1.284206 1.7182376 2.9834282 -2.0860693 -0.2129891 1.7915571 4.62385 3.9888992
0.26122764 -5.9819345 4.207734 -2.0831814 -1.4525841 4.2550488 -4.2287326 3.9021933
00000000: 819b 55bd 405b 5c40 942a b0c0 7ec3 2341
00000010: f3a2 9640 ac0e 16c0 4ca8 a040 d4e7 e4bf
00000020: d477 e740 4798 b940 bd8f 7a40 b699 ae3f
00000030: 003e 1b40 3018 d53e c91b 2441 bd42 9940
00000040: 4f26 c7bf fa90 20bf cb77 b040 5d77 4840
00000050: 00bd 7e40 e0e4 98bf d7c4 8b40 61a5 773f
00000060: 54c3 e640 fba6 2b40 5504 1840 9a6f f3be
00000070: 4780 6240 5fa1 c33e f5b6 14bf 2f2d 9440
00000080: d39c 99c0 abf2 0d41 a87c 5a40 9737 43c0
00000090: 71e6 75c1 aa04 893f fc92 2540 6090 83c0
000000a0: 93d6 4741 20fd 9040 1899 5d3e 317c 8740
000000b0: 063a 80bd 5bbf f440 29c0 ce40 5ea5 8440
000000c0: 43f6 ac40 0a5f f03f 30a0 1b3f 11e3 4b41
000000d0: 07bb b840 de62 37c0 f1b7 c93f d9af f140
000000e0: 72ea 5a40 f7c0 8640 fc48 723f ecc0 8040
000000f0: d7b8 3640 7143 0941 3c24 7f40 7e86 0140
00000100: da1c 953f d38a 9b40 1bc4 0040 6f75 e93f
00000110: a606 8f40 bdbf 02c0 4623 f940 c153 9740
00000120: 2024 4bbf 1f51 94c0 11b3 0f40 6e37 fa3f
00000130: 3d31 bfc0 a9e1 6841 7ed5 a740 7df6 60be
00000140: 71ef 9540 8df8 07bf 6588 0d41 09b6 f440
00000150: 7702 7140 0fd7 d540 5ddc ad3f a950 793f
00000160: ecac 5f41 c1ed 0441 92df 6ac0 b958 0e3f
00000170: a2c2 f240 4b33 9b40 69ec b640 a770 a6be
00000180: 52ba d040 04ce 5d3f bef7 2041 e913 b340
00000190: 185e 0c40 533b d73e cb42 9240 655a 0e40
000001a0: 2e1a 0f40 8cca a940 4bf3 8cc0 8d4a 1a41
000001b0: 7f62 b740 a66b a0c0 7edd d840 915c 2040
000001c0: bf85 893f 72c4 afc0 3166 4e41 3e72 5340
000001d0: 7498 89c0 6e28 df40 be22 6abf 01a6 1341
000001e0: f0d6 d340 c9a7 5040 a38f 1c40 ef72 7040
000001f0: ed09 c33f 5a01 4341 980d 6b40 a59f 06c0
00000200: bbb1 dd3f 42f4 f540 15c8 7140 6a8f 9640
00000210: 034f acbf fa91 cb40 1828 a23f c321 1c41
00000220: 4a97 8740 2a51 4cbe 2ce8 bb3d 4473 db40
00000230: bcdc d8be bbc4 1fc0 fe20 9e40 d090 7ac0
00000240: b650 4741 b8ad 7c40 46e5 8b40 66f2 2cc2
00000250: 4c66 963f 8c5a 3140 0278 bcc0 b279 3241
00000260: 8b1f 8140 ccfe 51c0 cb90 c640 9514 8dbf
00000270: f475 ec40 e058 c140 6d90 3440 6ec1 8d40
00000280: 5d55 3040 b790 4bbf 3150 4341 3d4b 9040
00000290: 3418 a7bf 1725 c5be 5d8f cc40 7be9 2940
000002a0: e583 6040 6ea6 ad3e 3595 9a40 4a85 083f
000002b0: b51d 0841 1159 6740 0f5b b73f 6165 9dbf
000002c0: 4498 ac40 e889 ffbe f4fa 89bf 7033 a840
000002d0: 65f0 88c0 f5fe 1441 96bf 5040 66b7 53bf
000002e0: 5ce9 d63e 0527 05bf a30f 1ebc 90b8 283f
000002f0: a177 2b3f f25d a6bd 9adf 303f 3354 d7be
00000300: 3188 aebc accf 0c3f cd10 f13c 21fb b33e
00000310: f5f5 533e 71fe 8b3e e095 06bd 938e 023f
00000320: bedf 453f 67dc 0f3f 5ca6 453f cc68 a7bf
00000330: 3970 883f 8d0f 2a3f cefa 4ebf c6b2 9e3d
00000340: d5a5 5d3f 02df 96bc 6f89 a53e 4fcb a3be
00000350: 09de 433f 357a fa3c c323 63bd a88f 903f
00000360: b958 893e dc11 4abf 665c 433e 9658 ad3e
00000370: 37c9 a9bf 1374 0840 ccd5 4ec0 9473 813f
00000380: 2c95 a0c0 fa6e 1b41 5e47 0f3f cf8b 36c0
00000390: ef1a 9040 26e0 abbf a1bb 0a40 1ec5 9e40
000003a0: 456b 49c0 816a 7840 79be 0740 3b41 c2be
000003b0: bfd6 f440 4939 a940 e522 d3bf fd9b 1cc0
000003c0: dd60 a43f 36ef db3f 7df0 3e40 2982 05c0
000003d0: d119 5abe be51 e53f 94f6 9340 204a 7f40
000003e0: a1bf 853e 026c bfc0 c2a5 8640 d852 05c0
000003f0: 47ee b9bf 5c29 8840 c751 87c0 89bd 7940

exp_avg_sq f4 [64, 37]
2361.6082 1811.3029 1644.3121 928.6284 1865.1093 2213.6602 1972.6154 1230.2891
1166.1444 1806.411 2267.0818 1846.1959 1266.5386 1207.5924 1713.4231 1921.9658
1458.6074 1839.9817 1473.4722 1616.8823 2075.6768 1818.5674 1933.5045 895.5702
1743.5581 2192.5898 1409.957 2319.546 698.65826 1601.5823 1528.005 1915.3885
1448.1556 1648.1663 1719.7662 9406.49 178697.34 2351.6853 1749.1512 1582.6011
903.57806 1807.9825 2084.0303 1980.9257 1205.3491 1148.434 1786.0552 2220.0518
1846.3683 1245.9105 1142.3511 1657.7838 1882.4811 1400.6637 1821.049 1423.3367
1558.0957 2025.1035 1750.8363 1839.3397 854.43695 1654.3282 2139.1616 1411.9971
2248.2253 662.62604 1584.9878 1473.1125 1901.0542 1403.7858 1570.2117 1674.5856
9198.33 173022.75 2804.3547 2077.8633 1852.6285 1088.5653 2151.9094 2505.3376
2316.9946 1422.8904 1371.6257 2129.6821 2609.318 2178.3708 1484.2219 1372.7454
2000.1692 2241.6653 1660.849 2129.8245 1695.9392 1844.8799 2410.3784 2116.734
2192.0193 1002.5852 2027.7213 2551.9521 1643.6624 2698.3506 809.2933 1867.7526
1759.3427 2226.6787 1626.7223 1872.1084 1993.494 11110.164 205699.42 2714.0015
2108.5369 1882.9034 1074.2393 2156.222 2461.4263 2345.4902 1434.0326 1358.6846
2136.8245 2630.468 2175.7078 1476.2515 1363.3464 1979.6075 2252.5464 1687.0242
2115.1528 1722.9534 1863.1713 2447.817 2102.3433 2190.693 996.631 1992.5708
2541.6575 1655.8398 2659.669 785.7701 1873.251 1766.1556 2231.4597 1649.486
1889.6088 1969.4452 10921.806 204169.22 2480.5857 1905.5621 1690.7924 953.8213
1942.4911 2265.7383 2072.3245 1291.0684 1221.7886 1894.9622 2345.2969 1953.0449
1346.8872 1234.9462 1786.1326 2024.4905 1510.4574 1931.4623 1557.3754 1689.8914
2193.739 1901.804 1990.4564 900.99646 1810.6008 2326.1763 1481.6433 2410.0188
722.98975 1680.0212 1594.6964 1991.2374 1473.7654 1735.4423 1753.1049 9898.546
184951.25 72.94062 30.364292 16.79026 8.1119375 20.983027 30.003796 78.27081
5.1912556 10.380164 42.098667 17.43142 26.4305 27.380865 56.951557 17.125881
71.131584 35.518963 13.188211 6.083999 22.022964 74.26021 21.608217 19.396824
9.54285 16.527462 16.272203 35.22515 74.247475 4.154633 32.114258 32.211704
23.466087 61.819366 8.2182045 34.488747 97.31029 7768.6797 2374.9453 1802.6045
1633.5796 908.4868 1866.4579 2197.5205 1995.6979 1245.4873 1195.1732 1800.8341
2259.7556 1901.2981 1289.3438 1181.8217 1705.8964 1927.7126 1476.3585 1869.795
1510.3042 1611.4934 2090.6587 1798.9142 1879.5482 868.8488 1710.7687 2206.0015
1409.797 2341.7231 697.9751 1604.6875 1531.2434 1935.2208 1428.5166 1652.624
00000000: bb99 1345 b169 e244 fd89 cd44 3828 6844
00000010: 7f23 e944 905a 0a45 b193 f644 40c9 9944
00000020: 9fc4 9144 27cd e144 4fb1 0d45 45c6 e644
00000030: 3c51 9e44 f5f2 9644 8a2d d644 e83e f044
00000040: 7053 b644 6aff e544 1c2f b844 3c1c ca44
00000050: d4ba 0145 2852 e344 25b0 f144 7ee4 5f44
00000060: dcf1 d944 7009 0945 a03e b044 bcf8 1045
00000070: 21aa 2e44 a232 c844 2900 bf44 6f6c ef44
00000080: fb04 b544 5205 ce44 85f8 d644 f6f9 1246
00000090: 5682 2e48 f7fa 1245 d7a4 da44 3cd3 c544
000000a0: ffe4 6144 71ff e144 7c40 0245 9f9d f744
000000b0: 2cab 9644 e38d 8f44 c441 df44 d4c0 0a45
000000c0: c9cb e644 23bd 9b44 3ccb 8e44 1539 cf44
000000d0: 654f eb44 3d15 af44 91a1 e344 c6ea b144
000000e0: 10c3 c244 5023 fd44 c3da da44 dfea e544
000000f0: f79b 5544 81ca ce44 96b2 0545 e87f b044
00000100: 9b83 0c45 11a8 2544 9c1f c644 9a23 b844
00000110: bca1 ed44 2579 af44 c646 c444 bd52 d144
00000120: 52b9 0f46 b0f7 2848 ad45 2f45 d0dd 0145
00000130: 1d94 e744 1712 8844 8d7e 0645 6795 1c45
00000140: eacf 1045 7edc b144 0674 ab44 ea1a 0545
00000150: 1715 2345 ef25 0845 1a87 b944 da97 ab44
00000160: 6a05 fa44 a51a 0c45 2b9b cf44 311d 0545
00000170: 0efe d344 289c e644 0ea6 1645 be4b 0445
00000180: 4f00 0945 74a5 7a44 1577 fd44 3c7f 1f45
00000190: 3275 cd44 9ca5 2845 c552 4a44 1578 e944
000001a0: f7ea db44 dc2a 0b45 1d57 cb44 7803 ea44
000001b0: cf2f f944 a898 2d46 dbe0 4848 06a0 2945
000001c0: 97c8 0345 e95c eb44 a847 8644 8dc3 0645
000001d0: d2d6 1945 d897 1245 0b41 b344 e8d5 a944
000001e0: 318d 0545 7d67 2445 53fb 0745 0c88 b844
000001f0: 166b aa44 7173 f744 bec8 0c45 c6e0 d244
00000200: 7232 0445 825e d744 7be5 e844 12fd 1845
00000210: 7e65 0345 17eb 0845 6228 7944 4412 f944
00000220: 85da 1e45 e0fa ce44 b43a 2645 4971 4444
00000230: 0828 ea44 fbc4 dc44 5b77 0b45 8d2f ce44
00000240: 7b33 ec44 3f2e f644 39a7 2a46 4e62 4748
00000250: 5f09 1b45 fd31 ee44 5b59 d344 9074 6e44
00000260: b7cf f244 d09b 0d45 3185 0145 3062 a144
00000270: 3cb9 9844 cade ec44 c094 1245 7021 f444
00000280: 645c a844 475e 9a44 3e44 df44 b20f fd44
00000290: a3ce bc44 cb6e f144 03ac c244 863c d344
000002a0: d31b 0945 bab9 ed44 9bce f844 c63f 6144
000002b0: 3a53 e244 d262 1145 9634 b944 4da0 1645
000002c0: 58bf 3444 ae00 d244 4956 c744 99e7 f844
000002d0: 7e38 b844 27ee d844 5b23 db44 2faa 1a46
000002e0: d09d 3448 99e1 9142 12ea f241 7452 8641
000002f0: 7fca 0141 3ddd a741 c607 f041 a88a 9c42
00000300: c41e a640 2715 2641 0965 2842 8c73 8b41
00000310: aa71 d341 030c db41 65ce 6342 ce01 8941
00000320: 5f43 8e42 6b13 0e42 ea02 5341 1fb0 c240
00000330: 082f b041 3a85 9442 a1dd ac41 b22c 9b41
00000340: 83af 1841 3e38 8441 792d 8241 8ee6 0c42
00000350: b57e 9442 c1f2 8440 0075 0042 c9d8 0042
00000360: 8cba bb41 0847 7742 c47d 0341 7af4 0942
00000370: de9e c242 70c5 f245 206f 1445 5853 e144
00000380: 8c32 cc44 281f 6344 a74e e944 5458 0945
00000390: 5576 f944 98af 9b44 8b65 9544 b11a e144
000003a0: 173c 0d45 8aa9 ed44 002b a144 4bba 9344
000003b0: af3c d544 cef6 f044 798b b844 71b9 e944
000003c0: bcc9 bc44 ca6f c944 8aaa 0245 41dd e044
000003d0: 8bf1 ea44 5336 5944 99d8 d544 06e0 0945
000003e0: 8139 b044 925b 1245 687e 2e44 0096 c844
000003f0: ca67 bf44 11e7 f144 8890 b244 f893 ce44

exp_avg f4 [64]
8.120947 12.036062 12.780451 10.987264 9.211209 0.79908615 2.4759283 8.723308
9.460474 11.78393 11.059328 7.5517793 8.521441 14.468069 11.27357 5.7997823
6.4985995 9.847406 4.093928 9.509005 6.312504 6.9872785 10.76898 7.689345
8.9795065 9.83187 8.162209 -3.5874825 2.5661378 5.758741 7.3592696 6.512637
8.026713 5.198459 3.621806 6.8891225 13.335823 8.261704 4.1963577 0.9666172
8.902667 9.405741 2.302301 9.446468 2.436011 6.1362557 8.441809 3.5009894
6.3620477 9.546689 11.700029 -1.0959709 7.721882 7.9906745 9.53913 6.455334
0.21111631 9.13184 8.720533 6.4054503 7.1059356 7.235555 10.916186 8.169882
00000000: 66ef 0141 b693 4041 ba7c 4c41 d5cb 2f41
00000010: 1d61 1341 e990 4c3f 9c75 1e40 ab92 0b41
00000020: 1a5e 1741 fa8a 3c41 02f3 3041 2da8 f140
00000030: d357 0841 367d 6741 8b60 3441 d197 b940
00000040: 87f4 cf40 fa8e 1d41 7501 8340 e224 1841
00000050: 0800 ca40 c997 df40 be4d 2c41 1d0f f640
00000060: 0fac 0f41 574f 1d41 6898 0241 5099 65c0
00000070: 9a3b 2440 9b47 b840 237f eb40 8667 d040
00000080: 6b6d 0041 c759 a640 abcb 6740 b173 dc40
00000090: 885f 5541 f12f 0441 9048 8640 3a74 773f
000000a0: 5371 0e41 ea7d 1641 e658 1340 bc24 1741
000000b0: 9be7 1b40 355c c440 a611 0741 3610 6040
000000c0: e595 cb40 3dbf 1841 5233 3b41 c648 8cbf
000000d0: a819 f740 9bb3 ff40 47a0 1841 1992 ce40
000000e0: e02e 583e 041c 1241 4e87 0b41 73f9 cc40
000000f0: d363 e340 ab89 e740 b3a8 2e41 d6b7 0241

exp_avg_sq f4 [64]
7180.9263 7075.9233 8355.558 8405.706 7592.556 127.01714 7208.0234 7507.957
6569.176 7822.3955 6289.5034 7230.2075 7629.2812 9073.256 7959.0044 5774.4976
7370.312 8039.136 8310.324 6471.391 5907.4805 8053.7007 7935.9136 6150.6978
6878.8623 8755.75 8197.547 645.4722 7649.3735 8010.417 7960.8853 5789.645
6714.932 5739.464 7601.8643 7177.2007 7064.6255 7495.582 8800.184 6749.354
7366.342 7957.0547 6323.103 7240.972 7360.345 7049.5044 6064.943 3106.9954
7508.1 8402.098 7944.565 299.87338 5569.738 8909.281 8545.026 7077.9717
6006.268 7625.03 7294.7114 6251.231 6997.022 8629.588 7090.2305 7486.47
00000000: 6967 e045 631f dd45 3b8e 0246 d356 0346
00000010: 7344 ed45 c708 fe42 3040 e145 a89f ea45
00000020: 6849 cd45 2a73 f445 078c c445 a9f1 e145
00000030: 406a ee45 06c5 0d46 09b8 f845 fb73 b445
00000040: 7f52 e645 1739 fb45 4cd9 0146 213b ca45
00000050: d89b b845 9bad fb45 4fff f745 9535 c045
00000060: e6f6 d645 00cf 0846 3016 0046 395e 2144
00000070: fd0a ef45 5653 fa45 15c7 f845 29ed b445
00000080: 75d7 d145 b65b b345 ea8e ed45 9b49 e045
00000090: 01c5 dc45 a83c ea45 bc80 0946 d5ea d245
000000a0: bc32 e645 70a8 f845 d398 c545 c747 e245
000000b0: c302 e645 094c dc45 8b87 bd45 ed2f 4245
000000c0: cda0 ea45 6448 0346 8544 f845 cbef 9543
000000d0: e70d ae45 2035 0b46 1b84 0546 c62f dd45
000000e0: 25b2 bb45 3d48 ee45 b1f5 e345 d959 c345
000000f0: 2da8 da45 5ad6 0646 d891 dd45 c3f3 e945

exp_avg f4 [64, 64]
1.7482321 1.5249882 1.9367795 1.9017847 1.1088398 0.0311166 0.9220727 1.8905138
0.8968036 1.8465242 2.6780818 0.68313617 1.8460952 2.460787 1.3544526 2.0114207
1.597416 1.0490532 1.4222505 3.258967 0.45288196 1.3132741 1.8232095 1.7339903
1.0633942 1.7029451 1.2396287 0.25090563 0.49685535 0.39936012 0.9534193 2.031865
1.0239092 2.3664687 1.1034683 2.0639672 2.4842687 1.1096351 0.83467567 -0.38664952
1.6221712 1.118283 -0.35119537 1.3769124 0.8909463 1.0850699 1.9832625 -0.7526477
0.77542794 1.7430824 1.3915377 0.010481984 0.38650563 0.2318518 1.0729886 1.108767
-0.8792017 1.2901081 1.1667049 2.169375 1.078345 0.38982448 1.4183621 1.4512228
2.221258 2.3358643 2.683486 2.3369465 1.6335483 0.03319919 1.785097 3.0324812
1.7098806 2.6331618 3.3506544 1.3741932 2.7574515 3.015313 1.9858558 2.6055448
2.5116043 1.2573661 2.0570247 3.2534442 1.1959488 1.8312366 2.3997393 2.2475083
1.7681112 2.1602414 2.0881865 0.26514584 0.9586626 1.2722183 1.7255932 2.6797972
1.8666104 2.7879224 1.8968233 2.4173012 3.5154045 2.010763 1.4159608 -0.1118841
2.01231 1.7912662 0.7504466 2.0256064 1.2759045 1.7741994 2.8180728 -0.2940342
1.3636599 2.455308 2.3258374 0.022663005 1.0153989 0.37942818 1.9756498 1.8164202
-0.0985611 2.098998 1.9725195 2.9333646 1.6104515 1.0042408 2.6109197 2.1142874
1.0874742 1.964232 1.2847093 1.8287987 1.6142616 0.0059876274 0.0556037 1.5722095
1.7263511 1.3394364 2.7442994 1.1726927 1.4308393 2.841179 1.8177326 1.1640353
1.1909381 1.652005 1.0459619 2.1578083 0.43158364 1.1072869 1.7895594 1.3232182
1.3498966 1.8181006 1.2996676 0.31323633 -0.4155853 0.73437756 1.2414429 1.1629933
1.771804 1.2688079 0.20343195 1.248788 2.783629 0.91624767 0.42508733 0.085793264
1.2520761 1.8870862 0.22363165 1.9755648 0.028961565 0.7767231 2.5738199 -0.049538992
1.3315392 1.7633923 1.9388239 0.02692969 1.3497865 0.061072588 1.4478049 1.0361252
-0.72306395 1.1696031 1.429305 1.1256822 1.2988498 0.8012754 2.1088552 1.5184537
1.2913898 1.3633865 1.4878628 1.4809535 0.7934533 0.03153658 0.5852199 1.5619481
1.1041752 1.442853 2.294309 0.559926 1.7498392 2.08003 1.1087554 1.2803994
1.0287328 0.98293304 0.7550514 2.4083076 0.31254935 0.8085778 1.6048069 0.78750825
1.1119634 1.2888253 1.1125563 0.09326799 0.5237529 0.49418205 0.96289223 1.3950708
1.1846558 1.518421 0.458357 1.462871 2.2915509 0.84676546 0.3224765 -0.6901294
1.1482737 1.1822706 0.27307555 1.3353028 -0.052490626 0.7153149 1.905229 -0.527107
0.586754 1.0403651 1.3176868 0.042122047 0.55248934 0.018617902 0.99425465 0.67718124
-0.5519339 0.7748584 0.86050254 1.7315824 0.8943895 0.4277092 1.6002533 1.1767428
00000000: 12c6 df3f d032 c33f 64e8 f73f ae6d f33f
00000010: 76ee 8d3f 3de8 fe3c f50c 6c3f 5bfc f13f
00000020: ec94 653f e85a ec3f b165 2b40 03e2 2e3f
00000030: d94c ec3f 897d 1d40 b45e ad3f 1ebb 0040
00000040: 2178 cc3f 6047 863f 4e0c b63f ea92 5040
00000050: 25e0 e73e 5e19 a83f ee5e e93f 65f3 dd3f
00000060: 4d1d 883f 1bfa d93f 27ac 9e3f b476 803e
00000070: d363 fe3e ee78 cc3e 4a13 743f 130a 0240
00000080: 750f 833f 3974 1740 733e 8d3f 0a18 0440
00000090: 42fe 1e40 8608 8e3f 4ead 553f edf6 c5be
000000a0: 4ea3 cf3f e623 8f3f e1cf b3be aa3e b03f
000000b0: 0f15 643f 92e3 8a3f 8cdb fd3f 85ad 40bf
000000c0: 7282 463f 531d df3f e81d b23f a1bc 2b3c
000000d0: 11e4 c53e 8f6a 6d3e b157 893f 14ec 8d3f
000000e0: 5d13 61bf 4322 a53f 9656 953f 0ad7 0a40
000000f0: 3507 8a3f 1397 c73e e48c b53f abc1 b93f
00000100: 1729 0e40 cd7e 1540 3cbe 2b40 8890 1540
00000110: 1c18 d13f e0fb 073d 0f7e e43f 2c14 4240
00000120: 5edd da3f b985 2840 1f71 5640 90e5 af3f
00000130: 167a 3040 e3fa 4040 8630 fe3f 3fc1 2640
00000140: 20be 2040 5ff1 a03f 4ba6 0340 6e38 5040
00000150: da14 993f f665 ea3f 5495 1940 2dd7 0f40
00000160: 7851 e23f 6541 0a40 d9a4 0540 32c1 873e
00000170: ea6a 753f 0dd8 a23f 3de0 dc3f cc81 2b40
00000180: 17ed ee3f 526d 3240 1bcb f23f 10b5 1a40
00000190: 63fc 6040 57b0 0040 343e b53f 7e23 e5bd
000001a0: b0c9 0040 3648 e53f 451d 403f 89a3 0140
000001b0: d750 a33f f718 e33f 4e5b 3440 a78b 96be
000001c0: 688c ae3f c423 1d40 85da 1440 c4a7 b93c
000001d0: 97f8 813f 6944 c23e 18e2 fc3f 7580 e83f
000001e0: 67da c9bd fc55 0640 857b fc3f 3fbc 3b40
000001f0: 4623 ce3f f68a 803f 4f19 2740 7c50 0740
00000200: 5b32 8b3f f46b fb3f 5b71 a43f 1316 ea3f
00000210: 20a0 ce3f dc33 c43b b5c0 633d 293e c93f
00000220: 13f9 dc3f a772 ab3f 9aa2 2f40 cb1a 963f
00000230: be25 b73f e0d5 3540 76ab e83f 1cff 943f
00000240: a970 983f e674 d33f 14e2 853f 8819 0a40
00000250: 88f8 dc3e 94bb 8d3f 4810 e53f 375f a93f
00000260: 69c9 ac3f 85b7 e83f 825b a63f 8360 a03e
00000270: 99c7 d4be 2b00 3c3f 9ae7 9e3f f7dc 943f
00000280: 79ca e23f 4c68 a23f 7750 503e 49d8 9f3f
00000290: fa26 3240 358f 6a3f 0ca5 d93e 61b4 af3d
000002a0: 0844 a03f 0a8c f13f b2ff 643e 4fdf fc3f
000002b0: ce40 ed3c 53d7 463f 77b9 2440 66e9 4abd
000002c0: e06f aa3f d7b6 e13f 622b f83f a79b dc3c
000002d0: cec5 ac3f 4027 7a3d ac51 b93f c09f 843f
000002e0: b81a 39bf 8eb5 953f 77f3 b63f 5b16 903f
000002f0: b640 a63f 6220 4d3f 7cf7 0640 b15c c23f
00000300: 434c a53f 7383 ae3f 4a72 be3f e28f bd3f
00000310: c11f 4b3f 802c 013d f9d0 153f eaed c73f
00000320: 9d55 8d3f 68af b83f f5d5 1240 4f57 0f3f
00000330: bbfa df3f 361f 0540 b2eb 8d3f 21e4 a33f
00000340: 84ad 833f 80a1 7b3f 0c4b 413f b621 1a40
00000350: 7806 a03e f4fe 4e3f 506a cd3f 249a 493f
00000360: d154 8e3f 3af8 a43f 3f68 8e3f 4a03 bf3d
00000370: ac14 063f 6e05 fd3e 1b80 763f ae91 b23f
00000380: cda2 973f 9f5b c23f c5ad ea3e 5b3f bb3f
00000390: c5a8 1240 9fc5 583f a41b a53e 52ac 30bf
000003a0: a2fa 923f a554 973f 8fd0 8b3e 34eb aa3f
000003b0: 6900 57bd e11e 373f 8bde f33f 7cf0 06bf
000003c0: 8335 163f af2a 853f f6a9 a83f 2b88 2c3d
000003d0: f16f 0d3f 9284 983c 7987 7e3f c05b 2d3f
000003e0: 8a4b 0dbf 1f5d 463f e549 5c3f 7ea4 dd3f
000003f0: b6f6 643f b3fc da3e 1ad5 cc3f 829f 963f

exp_avg_sq f4 [64, 64]
245.739 327.7163 190.96185 219.6542 255.12279 0.80266196 238.47594 258.51102
352.4176 234.91745 332.98364 286.30637 261.68414 293.1096 218.81126 209.95204
274.5339 289.30768 295.0449 206.61115 355.63327 191.6093 274.0841 234.65892
259.36176 224.39613 237.3335 2.0807238 300.6198 254.23538 145.78944 227.00853
325.92407 287.20605 252.70276 215.60298 287.2122 288.7957 180.88286 249.17992
264.69354 233.25317 244.39474 297.91196 181.65332 231.71097 345.65176 178.5883
297.96954 256.2088 196.22406 0.86867505 295.77777 32.459774 206.70059 309.59106
268.8224 272.16434 276.05875 218.43112 288.4345 156.27214 284.80243 266.8559
256.85678 365.63434 190.93935 233.65842 279.0323 1.1138848 241.78531 264.66217
399.62332 245.80977 372.54913 319.35 271.87885 311.89493 237.16475 210.3462
282.11462 323.55334 298.0831 207.10455 403.67413 197.69394 292.7336 233.85165
286.88837 242.31061 255.15945 2.3493485 322.33307 276.5603 159.0332 227.65073
365.89224 285.97128 262.41373 220.1241 299.40576 309.00897 187.08038 272.80704
281.49985 259.48373 277.9761 325.23685 178.5596 232.63054 383.25568 206.96248
332.58804 265.77597 210.84077 1.0930194 333.39407 33.03308 222.67577 337.1362
308.5087 289.44144 306.13013 218.6906 319.0058 168.84775 312.91385 288.05698
356.73337 515.5844 278.911 335.25217 397.07953 1.4452978 352.39362 378.9652
547.7572 349.84332 518.8873 448.38416 390.67456 445.24185 334.4053 292.36255
397.49576 457.88376 431.4906 291.15326 555.1801 284.4279 420.00803 331.38547
407.77435 340.97623 365.02637 4.2690687 461.5001 388.9473 219.78122 324.90964
514.8615 405.75162 374.21088 310.45212 426.27325 442.30936 263.4838 394.41968
399.84265 369.76413 382.09296 464.43298 266.2722 330.79785 534.60254 279.2339
471.7817 390.57788 294.2746 1.4803623 470.34732 48.7805 314.51007 480.88132
421.975 411.05966 430.38705 298.1564 449.52704 244.25066 440.33902 405.24252
266.0887 395.5029 199.10454 248.76178 299.39795 1.3000813 251.19128 276.082
427.93365 257.54474 398.56134 341.64752 285.1796 332.74857 253.68306 214.88046
291.54037 349.96072 310.21747 213.31973 436.0968 206.74547 309.05087 239.44374
308.18625 256.43164 271.58856 2.8169343 343.50037 293.1272 169.8905 234.15051
395.34167 293.69998 273.81625 225.56544 313.93896 327.95627 194.91885 294.56113
294.71246 279.32797 300.5629 348.72263 186.9923 238.34395 410.18024 222.63762
358.3803 281.34418 222.93127 1.2658442 362.53812 34.94904 233.01079 360.98004
333.6001 305.6468 328.51212 222.674 343.79428 180.60887 335.76254 305.07184
00000000: 2fbd 7543 b0db a343 3cf6 3e43 7aa7 5b43
00000010: 6f1f 7f43 417b 4d3f d779 6e43 6941 8143
00000020: 7435 b043 deea 6a43 e87d a643 3727 8f43
00000030: 92d7 8243 078e 9243 afcf 5a43 b9f3 5143
00000040: 5744 8943 62a7 9043 bf85 9343 749c 4e43
00000050: 0fd1 b143 fb9b 3f43 c40a 8943 afa8 6a43
00000060: 4eae 8143 6965 6043 6055 6d43 942a 0540
00000070: 564f 9643 423c 7e43 19ca 1143 2f02 6343
00000080: 48f6 a243 609a 8f43 e8b3 7c43 5d9a 5743
00000090: 299b 8f43 d965 9043 03e2 3443 0f2e 7943
000000a0: c658 8443 d040 6943 0e65 7443 bbf4 9443
000000b0: 40a7 3543 02b6 6743 6dd3 ac43 9b96 3243
000000c0: 1afc 9443 ba1a 8043 5c39 4443 7d61 5e3f
000000d0: 8ee3 9343 cfd6 0142 5ab3 4e43 a8cb 9a43
000000e0: 4469 8643 0915 8843 8507 8a43 5e6e 5a43
000000f0: 9e37 9043 ab45 1c43 b666 8e43 8e6d 8543
00000100: ab6d 8043 32d1 b643 79f0 3e43 8ea8 6943
00000110: 2284 8b43 c793 8e3f 0ac9 7143 c254 8443
00000120: c9cf c743 4dcf 7543 4a46 ba43 cdac 9f43
00000130: 7ef0 8743 8df2 9b43 2d2a 6d43 a158 5243
00000140: ac0e 8d43 d4c6 a143 a30a 9543 c41a 4f43
00000150: 4ad6 c943 a6b1 4543 e75d 9243 06da 6943
00000160: b671 8f43 844f 7243 d228 7f43 ba5b 1640
00000170: a22a a143 b847 8a43 8008 1f43 96a6 6343
00000180: 35f2 b643 53fc 8e43 f534 8343 c51f 5c43
00000190: f0b3 9543 2681 9a43 9414 3b43 4d67 8843
000001a0: fbbf 8c43 ebbd 8143 f1fc 8a43 519e a243
000001b0: 428f 3243 6ba1 6843 baa0 bf43 65f6 4e43
000001c0: 454b a643 53e3 8443 3dd7 5243 0fe8 8b3f
000001d0: 71b2 a643 e021 0442 ffac 5e43 6f91 a843
000001e0: 1d41 9a43 81b8 9043 a810 9943 cbb0 5a43
000001f0: be80 9f43 06d9 2843 f974 9c43 4b07 9043
00000200: df5d b243 67e5 0044 9c74 8b43 47a0 a743
00000210: 2e8a c643 85ff b83f 6232 b043 8c7b bd43
00000220: 76f0 0844 f2eb ae43 cab8 0144 2c31 e043
00000230: 5856 c343 f59e de43 e133 a743 682e 9243
00000240: 75bf c643 1ff1 e443 ccbe d743 9e93 9143
00000250: 87cb 0a44 c536 8e43 0701 d243 57b1 a543
00000260: 1ee3 cb43 f57c aa43 6083 b643 369c 8840
00000270: 03c0 e643 4179 c243 fec7 5b43 6f74 a243
00000280: 23b7 0044 35e0 ca43 fe1a bb43 df39 9b43
00000290: fa22 d543 9927 dd43 edbd 8343 b835 c543
000002a0: dceb c743 cfe1 b843 e60b bf43 6c37 e843
000002b0: d722 8543 2066 a543 90a6 0544 f09d 8b43
000002c0: 0fe4 eb43 f849 c343 2623 9343 837c bd3f
000002d0: 752c eb43 3b1f 4342 4a41 9d43 cf70 f043
000002e0: cdfc d243 a387 cd43 8b31 d743 0514 9543
000002f0: 76c3 e043 2b40 7443 652b dc43 0b9f ca43
00000300: 5b0b 8543 5fc0 c543 c31a 4743 04c3 7843
00000310: f0b2 9543 1069 a63f f830 7b43 7f0a 8a43
00000320: 82f7 d543 bac5 8043 da47 c743 e2d2 aa43
00000330: fd96 8e43 d15f a643 ddae 7d43 66e1 5643
00000340: 2bc5 9143 f9fa ae43 d61b 9b43 da51 5543
00000350: 640c da43 d7be 4e43 8386 9a43 9971 6f43
00000360: d717 9a43 4037 8043 56cb 8743 a748 3440
00000370: 0cc0 ab43 4890 9243 f8e3 2943 8826 6a43
00000380: bcab c543 99d9 9243 7be8 8843 c190 6143
00000390: 30f8 9c43 67fa a343 3aeb 4243 d347 9343
000003a0: 325b 9343 fba9 8b43 0d48 9643 7f5c ae43
000003b0: 07fe 3a43 0d58 6e43 1217 cd43 3ba3 5e43
000003c0: ae30 b343 0eac 8c43 68ee 5e43 2f07 a23f
000003d0: e144 b543 d1cb 0b42 c302 6943 727d b443
000003e0: d0cc a643 cad2 9843 8d41 a443 8bac 5e43
000003f0: abe5 ab43 df9b 3443 9be1 a743 3289 9843

exp_avg f4 [64]
0.07927946 0.35805905 0.013110924 -0.026345706 0.43065766 0.44644484 6e-45 0.270923
0.58842313 -0.22316413 0.21820432 0.20912355 6e-45 0.11463529 0.37195876 0.27637944
-0.07153993 0.7464199 0.06387787 0.07937003 -0.01829932 0.5850419 0.08572387 0.41272515
6e-45 0.45346835 0.16366985 0.32155344 0.1985625 -0.09967128 0.34389806 6e-45
0.031575233 -0.10148405 -0.113865346 -0.055783715 0.48042455 0.5688979 0.45705897 0.4846817
0.48857838 0.22297053 0.07481654 6e-45 -0.09111981 0.03444673 6e-45 -0.22493285
-6e-45 6e-45 6e-45 0.22916102 6e-45 0.37796825 -0.033170503 0.3388496
6e-45 6e-45 0.684027 0.3808876 6e-45 -0.08370201 0.5205115 0.23819137
00000000: 455d a23d 8453 b73e 33cf 563c f3d2 d7bc
00000010: 297f dc3e 6b94 e43e 0400 0000 6bb6 8a3e
00000020: e6a2 163f 2385 64be f470 5f3e 7c24 563e
00000030: 0400 0000 e8c5 ea3d 6171 be3e 9b81 8d3e
00000040: 8783 92bd 6015 3f3f 67d2 823d c18c a23d
00000050: 75e8 95bc 4ec5 153f ff8f af3d b650 d33e
00000060: 0400 0000 012d e83e 1299 273e a7a2 a43e
00000070: f853 4b3e 7520 ccbd 6813 b03e 0400 0000
00000080: 0855 013d dfd6 cfbd 3c32 e9bd 777d 64bd
00000090: 35fa f53e 4ba3 113f a203 ea3e 3328 f83e
000000a0: f226 fa3e 6352 643e 6a39 993d 0400 0000
000000b0: 069d babd 0418 0d3d 0400 0000 cc54 66be
000000c0: 0400 0080 0400 0000 0400 0000 30a9 6a3e
000000d0: 0400 0000 0e85 c13e cbdd 07bd b27d ad3e
000000e0: 0400 0000 0400 0000 651c 2f3f b303 c33e
000000f0: 0400 0000 f66b abbd 3e40 053f 70e8 733e

exp_avg_sq f4 [64]
26.665897 28.490038 40.65678 30.128788 36.032684 31.254217 1.1632924e-06 29.517843
30.149904 27.821068 30.760397 34.155834 3.2646583e-11 48.11161 27.832888 27.335377
3.3351433 30.96755 31.414742 28.042963 25.267511 34.67018 30.902287 28.257418
4.2348852e-10 32.880524 44.025414 34.485462 33.95756 15.268815 40.19057 7.01415e-11
27.957993 25.194391 28.104816 39.51922 31.046268 42.469193 41.715126 19.341404
30.976135 31.49973 31.617283 2.792854e-09 30.07424 15.663088 3.7988343e-08 26.952028
7.780852e-09 8.563476e-08 1.794387e-08 32.689556 7.739981e-08 24.176638 24.511286 31.972689
8.4229407e-07 4.8221377e-08 32.427166 44.773922 4.579738e-05 37.991623 21.678719 27.500223
00000000: c253 d541 99eb e341 8ba0 2242 c207 f141
00000010: 7821 1042 a308 fa41 6c22 9c35 8b24 ec41
00000020: 0133 f141 8c91 de41 4b15 f641 939f 0842
00000030: c994 0f2e 4a72 4042 c1a9 de41 daae da41
00000040: fd72 5540 8bbd f741 6451 fb41 fd57 e041
00000050: dd23 ca41 44ae 0a42 e237 f741 310f e241
00000060: b6d0 e82f a885 0342 061a 3042 1df1 0942
00000070: 8bd4 0742 114d 7441 25c3 2042 273e 9a2e
00000080: f8a9 df41 1d8e c941 aad6 e041 ae13 1e42
00000090: c25e f841 74e0 2942 4adc 2642 32bb 9a41
000000a0: 20cf f741 72ff fb41 32f0 fc41 68ec 3f31
000000b0: 0b98 f041 029c 7a41 a028 2333 c19d d741
000000c0: 8dac 0532 35e6 b733 fd22 9a32 1bc2 0242
000000d0: ff36 a633 c169 c141 1d17 c441 11c8 ff41
000000e0: 021a 6235 f71b 4f33 6bb5 0142 7f18 3342
000000f0: 9016 4038 6cf7 1742 046e ad41 7500 dc41
