p1_navigation/DQN20190128_v14.pth (torch_old, 87865 bytes, 18 tensors)

hidden_layers.0.weight f4 [64, 37]
000000 60 ec 7e 3e 60 39 e8 3e 88 2f 58 3e c2 e4 8c 3d
       0.24894857 0.45356274 0.21111882 0.068795696
000010 f8 5f 14 3d 4f b1 9e 3e aa f2 a8 3e 0f 44 b4 3e
       0.036224335 0.3099465 0.32997638 0.35208175
000020 54 7f 9a 3e 99 f4 2c 3e 2e ca 36 3e d6 88 9a 3e
       0.3017527 0.16890182 0.17850563 0.30182523
000030 24 56 5e 3e 09 1a c9 3d 53 6e 02 3e c1 d4 93 3e
       0.21712548 0.09819419 0.12737398 0.28873256
000040 05 b2 c0 3e 58 81 9e 3e a7 20 31 3d 99 93 d5 3d
       0.37635818 0.30958056 0.04324403 0.10428543
000050 84 c2 b9 3e 86 38 dc 3e f9 2c 86 3e 62 7f b3 3e
       0.36281216 0.43011874 0.26206186 0.35058123
000060 66 1c 25 3e 60 18 b9 3e ca f9 ed 3e ff 62 17 3e
       0.16124114 0.3615141 0.46479636 0.14783858
000070 a8 ba fe 3d 3b 15 fa 3d 38 31 51 3e db 88 db 3e
       0.124379456 0.12211081 0.20428932 0.4287785
000080 0d b5 f0 3d 5d 13 01 3e ef d7 29 3d 49 53 96 bd
       0.11753283 0.12605043 0.041465696 -0.07340104
000090 5a d6 c1 bd 06 85 ab 3e f5 cf b3 3e 3a 7a bc 3e
       -0.094647124 0.33499926 0.35119596 0.36812
0000a0 f1 6c 1e 3e 18 69 aa bd d8 fd 4b 3e 33 08 07 3e
       0.15471245 -0.08320826 0.19921052 0.13186722
0000b0 90 16 a5 3d f6 eb 0f 3e b9 1a 53 3d 7a 1e b4 3e
       0.08060944 0.14054856 0.051539157 0.35179502
0000c0 93 87 46 3e 0c f5 7d 3e f4 cc 39 3e e0 68 27 3e
       0.19387655 0.24800509 0.1814459 0.163486
0000d0 6c ce 92 3e 7f b1 80 3e aa e1 7e 3e 08 e2 a8 3c
       0.28673112 0.2513542 0.24890772 0.020615593
0000e0 67 a5 b8 3d ee ce 20 3e 65 61 40 3e 11 b5 d6 3d
       0.09015923 0.15703937 0.18787153 0.104837544
0000f0 79 da 25 3e 92 97 ee 3d b4 90 68 3d 39 c3 a5 3e
       0.16196622 0.116500035 0.056778625 0.32375506
000100 65 52 9d 3e 69 e2 8f 3e 3c a4 dd bd 40 b2 a0 3d
       0.30726925 0.28102425 -0.10822341 0.078464985
000110 07 9d de 3e ef 8d 9f 3e 45 a2 f9 3d 61 9b d1 bd
       0.43479177 0.31162974 0.121891536 -0.10234714
000120 bc b8 39 3d 7f f0 62 bd 3a 15 a3 3e ef 0a fb 3e
       0.045342192 -0.055405136 0.31852132 0.4903178
000130 71 74 46 3e 03 ab db bd 61 d6 57 3e 6e 00 c4 3c
       0.19380356 -0.10725977 0.21077873 0.023925986
000140 5b d8 8c 3d cc 22 90 3e e1 df b2 3e 59 94 8c bd
       0.06877204 0.28151548 0.3493643 -0.068642326
000150 66 80 9d 3d e3 94 67 3e ae 7c 83 3e 7d da 7a 3e
       0.07690506 0.2261539 0.2568106 0.24497409
000160 ba 9a 91 3d 02 cf 44 3d 80 d6 37 3e bb da b8 3e
       0.0710959 0.04804898 0.17952919 0.36104378
000170 ec e4 61 3e 86 7a a0 3c 26 a7 37 3d 69 0a 74 3e
       0.22059983 0.019589674 0.04483714 0.23832096
000180 b7 54 37 3e dc e0 9a 3e d4 03 62 bd d1 8a 01 3e
       0.1790341 0.3024968 -0.055179432 0.1265061
000190 57 b6 93 3e 95 c9 e1 3e b0 04 c5 3c a5 fe 56 3d
       0.28850052 0.44099107 0.024050087 0.05248894
0001a0 ca d8 e5 bd 02 36 8e 3e c4 d5 e9 3b 89 74 05 3e
       -0.1122299 0.2777558 0.0071360786 0.13032736
0001b0 fd 4f 3c 3d f3 b0 f6 3d 38 41 b6 bc e9 a8 d4 3e
       0.04597472 0.12045469 -0.022247896 0.41535118
0001c0 d5 fb a7 3d dd 29 d5 3e 9f 3f 9b 3e b5 59 15 be
       0.0820233 0.41633502 0.30321977 -0.14585002
0001d0 8c 90 d8 3d 72 fe 7f 3e bd 3e 94 3e c1 8c 85 3e
       0.10574445 0.24999407 0.28954116 0.2608395
0001e0 8f 22 d0 3c a8 cb 52 3e c1 a1 35 3e 54 82 a2 3e
       0.025407104 0.20585501 0.17737485 0.31740057
0001f0 3a ea f3 bc 59 03 62 bd 89 a4 3a 3e 83 60 e6 3d
       -0.029774774 -0.055178974 0.18226828 0.11248877
000200 e0 1d 8f 3d f6 63 27 bc 5b cb 14 bc 92 f3 8b 3e
       0.0698812 -0.010216704 -0.009081687 0.27334267
000210 59 a9 ee 3c 8d 8a ac 3e d1 39 64 3e 6c 10 d1 bc
       0.029133486 0.33699456 0.2228768 -0.025520526
000220 38 b7 4e 3e 26 c4 6e 3e d2 d5 66 3e 3a 7f b5 3e
       0.2018708 0.23317012 0.22542503 0.3544863
000230 55 88 8e 3d a5 3e 5b 3e 94 f2 9b 3e ff 41 2f 3e
       0.06959597 0.21410616 0.3045851 0.1711502
000240 a1 b4 f8 3d f1 55 35 be 97 1a 46 3e bf 39 ae 3d
       0.12143827 -0.17708565 0.1934608 0.08507108
000250 38 02 14 3e 9f 8e b9 3d 3f 50 16 3d ec e6 7f 3c
       0.14453971 0.09060406 0.036697622 0.015619021
000260 ad 9a ff bc 3a ab 87 3e 59 e5 87 3e a7 e8 a0 3d
       -0.031201685 0.26497823 0.26542166 0.07856875
000270 c6 3e 73 3e 1b 47 42 be cf db c9 3d 7a a5 39 3e
       0.23754415 -0.18972437 0.09856378 0.1812953
000280 68 10 fc 3d cf ec e7 3d 9d 9f 1f be d8 41 9b 3d
       0.12307817 0.113244645 -0.15588231 0.07580918
000290 4d 80 29 3e 0d a7 af 3d f6 08 7f 3d 1d 33 cb 3c
       0.16552849 0.08576784 0.062264405 0.024804646
0002a0 dd 89 e1 3c 55 dc 5c 3e a5 2c be 3e 2c cb 82 3d
       0.027531559 0.21568425 0.37143436 0.06386408
0002b0 e6 1f e8 3d 46 eb 87 3e 19 dd 77 3d df f7 89 3e
       0.11334209 0.26546687 0.06051359 0.26946923
0002c0 3f 09 10 3e 33 2a 36 be 03 7f 31 3e c0 24 08 3e
       0.14066027 -0.17789535 0.17333607 0.13295269
0002d0 7a ee e4 3d 13 87 0f 3e 57 65 e6 3b 59 5e 1c 3e
       0.11178298 0.1401637 0.0070311236 0.15270366
0002e0 91 5f 49 bd ce 05 2d 3e e4 94 cb be 22 f7 fc 3c
       -0.049163405 0.16896746 -0.39762032 0.03087956
0002f0 41 ec ac be d1 9c a8 3c f5 8d 73 be 74 41 a4 bd
       -0.33773997 0.020582588 -0.23784621 -0.08020297
000300 f8 e3 0b 3e 66 85 e4 bc 35 3c ef bd 15 92 fe 3b
       0.13661182 -0.02789564 -0.116814055 0.007768879
000310 9c 80 7e be cb c2 a5 bd 85 65 ca be 3f 44 bf 3c
       -0.24853748 -0.080937944 -0.39530578 0.023347972
000320 c3 aa 07 bf b8 66 54 3e 8c f2 0d 3e 42 93 6f be
       -0.52994937 0.20742309 0.13862056 -0.23396018
000330 64 fc 86 be 7f 58 3a be d7 8b cf bd 8a 48 fa 3d
       -0.26364434 -0.18197821 -0.10134094 0.12220867
000340 b1 9b 85 3d 15 15 83 3e 94 bf 73 bd 02 37 9d bd
       0.065238364 0.25602022 -0.059508875 -0.076765075
000350 80 fd b8 bd 72 fe 14 bf 2e a6 90 bd 89 2a f2 be
       -0.09032726 -0.5820075 -0.07062946 -0.47298077
000360 e1 97 a4 bd bf ac 1c bd e9 e4 28 3e 08 9e 87 be
       -0.08036781 -0.03825068 0.16493572 -0.26487756
000370 66 a6 c1 3d 61 f1 fb bc 7e ea ab 3e b7 26 94 3e
       0.09455566 -0.030754747 0.3357734 0.28935787
000380 98 f8 e3 3d 41 2a 7a 3e c9 60 9e bd 71 c0 28 3e
       0.111314 0.24430181 -0.07733304 0.1647966
000390 f0 4e e7 3d bd 78 60 3e 34 8a 82 3e 8e 45 b0 3d
       0.11294353 0.21921058 0.25496066 0.086070165
0003a0 eb 9d 84 3e 26 24 b2 3e 8c 2d 96 3e 3f b2 0f 3e
       0.25901732 0.34793204 0.29331625 0.14032839
0003b0 d6 8a 45 bb 8e c8 cc 3d d0 f7 0d 3e 61 c3 4b 3e
       -0.0030142567 0.0999919 0.13864064 0.1989875
0003c0 b7 b7 64 3e ba 0c 07 3e 7e 1d f7 3d 37 cd e7 3d
       0.22335707 0.13188449 0.12066172 0.113184385
0003d0 a7 3b d6 3e 6b cd 13 3e ed d6 7c bc 0b b1 ea 3d
       0.41842386 0.1443383 -0.015432102 0.114595495
0003e0 67 40 78 3e 65 66 77 3e 8c c3 62 3d 4d 7d 5a 3c
       0.24243318 0.24160154 0.05536227 0.013335538
0003f0 07 09 ac 3e dc e3 04 3e 0c 92 03 3e 18 03 9b 3d
       0.33600637 0.12977546 0.12848681 0.075689495

hidden_layers.0.bias f4 [64]
000000 5d 63 1e 3f ac 47 77 3e 8b d0 77 3e 37 33 47 3e
       0.61870366 0.24148434 0.24200647 0.1945313
000010 19 b9 c7 3e 84 17 73 be 93 f7 70 3e 97 19 b7 3e
       0.39008406 -0.23739439 0.23531942 0.3576171
000020 c9 4f 68 3e b8 a9 3c 3e 26 1f b2 3e 1b 1a ea 3e
       0.22686686 0.18424118 0.3478939 0.45723042
000030 2d 77 c3 3e 04 63 c2 3e d0 e5 87 3e 42 96 aa 3e
       0.3817686 0.37966168 0.2654252 0.33317763
000040 3c f1 a3 3e 3c 21 c9 3e eb 8d b6 3e 42 5e 6e 3e
       0.32019985 0.39283168 0.3565515 0.23278144
000050 86 c6 b2 3e 09 16 a2 3e f6 06 3a 3e 58 a9 89 3e
       0.34917086 0.31657436 0.18166718 0.26887012
000060 94 cb 89 3d e3 e0 c0 3e b3 bf 48 3e 8a 37 18 3e
       0.067282826 0.37671575 0.19604377 0.14864936
000070 1e 4c f5 3e 42 ed d1 3e a8 23 de 3c 29 7b 91 3e
       0.47909635 0.41001326 0.027116612 0.28414276
000080 64 84 0c 3f ce 7d cd 3e 0b 30 08 3e 42 ea 8e 3e
       0.5488951 0.40135044 0.13299577 0.279131
000090 3c 5f 20 3e 04 35 a0 3e fe 53 8e 3e 69 1a 51 3e
       0.15661329 0.31290448 0.27798456 0.20420231
0000a0 f6 95 83 3e 53 ba 36 3e 76 81 a5 3e 05 40 a3 3e
       0.2570035 0.17844515 0.32325333 0.3188478
0000b0 24 a0 7b 3d a1 65 93 3e a2 b8 b6 3e 5f ec ae be
       0.06143202 0.28788474 0.3568774 -0.34164712
0000c0 29 61 fe 3d 11 55 80 3e 19 e7 0a 3e a2 17 68 bd
       0.124208756 0.250649 0.1356472 -0.056663163
0000d0 dc d7 c6 3e de ad 85 be 11 0d 68 3d a8 30 9c 3e
       0.38836563 -0.26109213 0.056653086 0.30505872
0000e0 af c4 3d 3e 16 2d 57 3e 54 58 f4 3d 12 65 6b 3e
       0.1853206 0.21013293 0.1193091 0.22987774
0000f0 83 e1 5b 3e bd 2d 8e 3d 93 4b c6 3e 34 16 9e 3e
       0.21472745 0.06942318 0.38729534 0.30876315

hidden_layers.1.weight f4 [64, 64]
000000 b2 76 a5 bd f0 69 c8 3c 87 c7 79 3d 26 ff b1 bc
       -0.0807928 0.024464577 0.0609813 -0.02172811
000010 ef b7 bd 3d b2 11 b5 bd 26 e3 43 3d bd 56 9c 3d
       0.09263598 -0.08841266 0.047824048 0.076337315
000020 58 e3 37 3d 2a 5d 06 bc 7d c5 d1 3c 8e b9 e7 bd
       0.044894546 -0.008200923 0.025606865 -0.113146886
000030 16 04 cb bd d9 f5 b5 bc 2f ec 32 bd 80 74 c9 3d
       -0.09912889 -0.022211956 -0.043682273 0.09836674
000040 cc 28 c4 3d aa a4 a0 3d e8 66 61 bd 30 f8 c8 bd
       0.09578094 0.07843907 -0.05502978 -0.09812963
000050 d3 2b 02 be 9e ee 4e 3d e5 24 fc bd de 8d ff bd
       -0.1271203 0.05052053 -0.123117246 -0.12478231
000060 10 f6 67 bd ce ad ec bd 1b 4e 52 bd ed 97 a4 bd
       -0.056631148 -0.11556588 -0.05134402 -0.0803679
000070 77 25 90 bd 52 e1 f4 3d 30 f8 c0 bc a4 5c d4 3d
       -0.07038396 0.11957039 -0.023555845 0.10369232
000080 e9 f0 df bb fb 9c ba bc e9 b8 49 bd 95 3b ac bd
       -0.0068341387 -0.022779932 -0.04924861 -0.08409802
000090 f1 57 d4 bd 4d 3c 79 3d 68 9e 3f bd a0 c7 11 be
       -0.10368336 0.060848523 -0.046781927 -0.14236307
0000a0 d6 13 c8 3d 2b 51 7d bb f1 a1 bc bd 2e be e7 bd
       0.097694084 -0.0038653116 -0.09210575 -0.11315571
0000b0 36 27 fe bd af c9 f1 bd 5a 28 cb 3d c9 63 9b 3d
       -0.12409823 -0.11806046 0.09919806 0.07587392
0000c0 9e 44 04 bb 08 90 d9 bd a0 2c 54 bd 43 2c fa bd
       -0.00201825 -0.10623175 -0.05180037 -0.122154735
0000d0 2c cf 17 3d 13 4f 23 bd e2 17 61 bd 21 38 66 bd
       0.03706281 -0.039870333 -0.054954417 -0.056205872
0000e0 81 34 42 3d b0 3c 5e 3d 52 fd 91 3c e9 ca 8e bc
       0.047413353 0.054257095 0.017820988 -0.01743074
0000f0 28 01 44 bc c8 4c 04 3a 1f 94 ca bd 7d 7f e3 3d
       -0.011963166 0.00050468417 -0.09891533 0.11108301
000100 49 9c be bd 59 9f 1f 3d d3 56 c7 bd 3c d7 21 bc
       -0.09307153 0.038970325 -0.09733357 -0.009877976
000110 d1 22 07 bd 3f cb d8 bd 17 ab 50 bc 21 21 19 be
       -0.032992188 -0.10585641 -0.0127361035 -0.14954044
000120 5b 51 80 bd 2c 7b 01 bd 14 21 cc 3c 6d 5c 57 3d
       -0.06265517 -0.031611606 0.024918117 0.05257838
000130 2b b6 da bc 08 59 86 bd 3d b1 fc bd ec b8 da bc
       -0.026698193 -0.0655995 -0.12338493 -0.026699506
000140 05 a7 fd bd d1 46 e6 bc a2 ca d7 bd 01 13 49 3b
       -0.12385372 -0.02810994 -0.10536696 0.0030681493
000150 9c a9 45 3c c2 2f b7 bc a0 e4 6e bd 2d 9e 0e 3b
       0.012064364 -0.02236164 -0.058323503 0.002176176
000160 a3 07 bb bd 04 95 db bc dc 32 8f bd 36 70 d7 bc
       -0.09132316 -0.026804455 -0.069921225 -0.026298624
000170 88 7d 81 bd ba 69 b4 bd 54 5c 3f bd a4 61 aa 3c
       -0.06322771 -0.08809228 -0.04671891 0.020798512
000180 9d 3d d5 bd 19 05 23 bd 9d 59 bc bc e3 20 a0 bd
       -0.104121424 -0.039799783 -0.02299195 -0.07818773
000190 d7 7a b7 bd 2e 45 1d be e6 24 f4 bd 1d 85 7a 3d
       -0.08958977 -0.15358421 -0.119211 0.061162103
0001a0 85 82 0d be c0 bc 70 3c db 96 94 bb fc 3a 9a bd
       -0.1381932 0.014693439 -0.004534585 -0.075307816
0001b0 a3 85 49 bd f2 00 e8 bd ea d1 9e bc d1 c8 3c be
       -0.04919971 -0.11328305 -0.019387204 -0.1843598
0001c0 56 36 a0 bc 3d 82 32 bc 5a 37 b1 bc 29 e1 22 3d
       -0.01955716 -0.010895309 -0.021632839 0.03976551
0001d0 7b 98 2c bd c1 88 7c be d9 ac e5 bc 81 d0 b3 bc
       -0.042137604 -0.24661542 -0.028036522 -0.021950008
0001e0 d9 0b e6 bd a9 e2 1f 3d 05 ad de bc 03 6e a2 bd
       -0.112327285 0.03903452 -0.027182112 -0.07931139
0001f0 dd f3 08 be 28 8c 55 bd 75 81 e1 bc 09 1e 48 bd
       -0.13374276 -0.052135617 -0.02752755 -0.04885677
000200 52 f4 5d bd 91 19 cb 3c 8e 05 d5 bd 32 a4 76 bc
       -0.05418808 0.024792464 -0.1040145 -0.015053796
000210 91 8e f3 3c 1a e8 2b be aa 6f cc bd de f1 8a bd
       0.029731067 -0.16787758 -0.09982236 -0.06784414
000220 07 a9 83 bc 65 bc b6 bd 85 02 22 bd 68 ee 51 bd
       -0.01607181 -0.08922652 -0.039553184 -0.051252753
000230 47 67 28 3c b4 83 39 3d d9 21 0c 3d 41 9b 27 bd
       0.0102785295 0.045291618 0.034211967 -0.040919546
000240 86 00 45 bd 7f be dc bc 09 c6 6a bd 69 9c 6e bd
       -0.048096202 -0.026946304 -0.057317767 -0.058254633
000250 54 fa 3e bc a8 1c ea bd 7c e0 f5 bd bc 55 9c bc
       -0.011656363 -0.11431247 -0.120057076 -0.01908385
000260 dd 66 5f bd 2d 46 85 bd df d4 19 be 25 87 0d 3d
       -0.054541457 -0.065075256 -0.1502261 0.034552712
000270 ba cd 77 bd 31 e4 01 be 8d 39 42 bd 68 dc 8c bc
       -0.06049893 -0.12684704 -0.047418166 -0.017194942
000280 bf 17 96 bd 09 a9 8c bc 93 9e 80 bd ee 2c 14 bc
       -0.07328748 -0.017170446 -0.06280246 -0.009043915
000290 38 b8 19 3b 4b ac e7 bd 32 ec 0f bd 39 3c 84 3c
       0.002345575 -0.11312159 -0.035137363 0.016141998
0002a0 4d e4 13 bd ec 9b fb 3b 28 7f 9b bd 36 a8 3b bc
       -0.036106396 0.0076784994 -0.075926125 -0.011453679
0002b0 fa 9a 2b 3d 73 93 d3 bd 2a fd fb 3c 84 93 da be
       0.041895844 -0.10330858 0.030760366 -0.4269067
0002c0 8a c1 a7 bd 81 6a a2 bd 32 1a da bd 26 24 2d be
       -0.081912115 -0.0793047 -0.106495276 -0.16908321
0002d0 45 03 b6 bd 20 6a bf be 5c 33 b6 bd cb ea f7 bd
       -0.08887342 -0.37385654 -0.08896515 -0.1210533
0002e0 af 57 40 3c f5 97 47 bd b5 f7 a5 bb a7 7d c6 bd
       0.011739655 -0.048728902 -0.0050649294 -0.09691935
0002f0 da 1a 5e bd cb 44 1c bd f8 e9 2f bc 55 a8 e2 bc
       -0.054224826 -0.038151544 -0.010736935 -0.027668158
000300 45 0d f8 bc 59 41 8f 3d 80 82 ec bd fb ea 90 3d
       -0.030279765 0.06994886 -0.115483284 0.07076069
000310 67 86 22 3d 5d 81 32 be 78 c8 50 bd ae c0 91 bb
       0.039678957 -0.1743216 -0.050972432 -0.004448018
000320 24 6a 62 bd 81 f7 1a 3d 0f 09 19 bd 71 fe 6d 3d
       -0.055277005 0.037833694 -0.037362155 0.058103982
000330 69 44 88 bd ce db dd bd 26 f5 fb 3c 78 66 38 bd
       -0.06653673 -0.1083294 0.030756544 -0.045019597
000340 79 58 48 3c 3d de dc bc b2 2b e2 bc b7 8c 20 bc
       0.012228125 -0.02696144 -0.027608726 -0.009799174
000350 8c 2b db bc 88 d9 0b be ed 57 31 bd 86 b5 02 be
       -0.026754163 -0.136572 -0.043296743 -0.12764558
000360 7d 5e 74 3b dd 18 21 be 6d 50 10 bd 1c 7c 21 be
       0.0037287765 -0.15732141 -0.03523295 -0.1577
000370 53 f4 42 bb f9 f3 1b be 46 22 87 3d 75 7b 48 bc
       -0.002974768 -0.15229787 0.06598334 -0.012236466
000380 61 11 05 be 61 f1 7a 3d 5f 3d 3a be c7 f5 fa bd
       -0.12994911 0.061265353 -0.18187474 -0.122539096
000390 da d9 e2 bb 40 03 b8 bd c2 24 03 3d 98 c8 c4 bd
       -0.0069229426 -0.08984995 0.032017477 -0.09608573
0003a0 b1 d8 bb bd 5c 30 f9 bd d3 65 f8 bd 0e 19 af 3d
       -0.0917219 -0.12167427 -0.121287964 0.08549701
0003b0 ee d3 8e 3d 37 95 8a bd 05 0d 97 bc b9 fa a1 be
       0.06974016 -0.06766742 -0.018438825 -0.316366
0003c0 2e 04 33 3d cb da 8d bd 35 7a bb bd b4 99 b1 bd
       0.043705158 -0.06926497 -0.091541685 -0.08671895
0003d0 93 81 45 3d 62 e2 65 be 1f 6d bf 3b e2 fa 3f bd
       0.048219275 -0.2244964 0.0058418657 -0.04687012
0003e0 62 00 09 be 36 78 5c b9 00 0f 98 bc 96 e6 84 bd
       -0.13379052 -0.00021025617 -0.01856184 -0.06489293
0003f0 c6 0c 78 bd 46 fc 29 bd 39 eb 61 3d d1 50 07 3c
       -0.060559057 -0.041500352 0.055155966 0.008259014

hidden_layers.1.bias f4 [64]
000000 8b c8 8b bd fc 43 f9 3e b4 e8 c6 3e 08 ca 02 3f
       -0.0682536 0.4868468 0.38849413 0.51089525
000010 22 2c 03 3f 20 4c 19 3f cb 30 52 3d 1f 57 ee 3e
       0.51239216 0.5988178 0.051316064 0.46550843
000020 7b 7d 3e b9 d1 cc f9 3e 62 a5 12 3f 76 bc e3 3e
       -0.00018166557 0.48789075 0.57283604 0.44479722
000030 fc ea d4 3d 77 36 0a 3f b1 29 83 3d f4 8b 14 3f
       0.10396382 0.53989357 0.064044364 0.5802605
000040 22 0b f4 3e f5 f5 1a 3f 3c 9f bb 3e 60 fb 02 3f
       0.47664744 0.6053155 0.36644924 0.5116482
000050 73 39 da 3e 91 af c6 3e d4 27 e4 3e 6f 45 fb 3e
       0.42621955 0.38805822 0.44561636 0.4907641
000060 1d 76 b6 3d 0d 4d af 3e ca 06 d9 3e 13 0b 06 3f
       0.08909247 0.34238473 0.42387992 0.5236065
000070 db 63 b9 3e 51 a3 0c 3f ba b3 bc 3e 3d 62 99 bb
       0.36208996 0.549367 0.3685587 -0.0046809004
000080 49 9f c6 3e 86 0e fa 3e 6a f3 09 3f 22 33 f0 3e
       0.387934 0.48839206 0.53887045 0.4691401
000090 3e 5f cd 3e 5f 15 1d 3f 91 f5 14 3f b5 45 9e 3e
       0.40111727 0.61360735 0.58187205 0.30912557
0000a0 ce bc 7a 3d d3 d3 a9 3e 4a 55 01 3f b2 af 6c bd
       0.061215214 0.33169422 0.50520766 -0.057784744
0000b0 08 e2 05 bd 42 71 c3 3e 16 b5 1b 3d 6b bd ef 3e
       -0.032686263 0.38172346 0.038014494 0.46824202
0000c0 44 1c ba 3d 88 06 69 bd 17 ae 27 3d 26 dc 1e 3f
       0.090874225 -0.056890994 0.04093751 0.6205467
0000d0 94 c8 ea bd f2 96 a0 3e a1 14 c1 bd f6 af c9 3e
       -0.114640385 0.31365162 -0.09427763 0.3939206
0000e0 94 e7 18 be 86 79 c8 3e 3b f8 e0 3e c1 c3 fa 3e
       -0.1493209 0.39155215 0.43939385 0.48977473
0000f0 fe 83 97 3c 90 cf 05 3f 9c ed 11 3e 96 0f b6 3e
       0.018495556 0.5226984 0.14250797 0.35558766

output.weight f4 [4, 64]
000000 90 27 a0 3c e9 56 36 3e c0 50 39 3e 0b 18 2f 3e
       0.019550115 0.17806591 0.1809721 0.17099015
000010 e9 a1 33 3e 70 0b 18 3e da 1e c6 bc 5a 04 1f 3e
       0.17542233 0.14848113 -0.024184633 0.15529004
000020 0d fe 38 3d ad 3f 2d 3e ed b5 1f 3e 9e 8f 1f 3e
       0.045164157 0.16918822 0.15596743 0.1558213
000030 81 a3 aa bd 81 ab 60 3e 0f 10 d1 bc 70 b7 0d 3e
       -0.08331967 0.21940424 -0.025520353 0.13839507
000040 5e 22 12 3e a6 ba 24 3e 9d 92 18 3e 55 09 1a 3e
       0.14270923 0.16086826 0.14899679 0.15042622
000050 f9 b1 1f 3e df c8 0d 3e 79 71 2a 3e 0e 10 0b 3e
       0.15595235 0.13846157 0.16644849 0.13580343
000060 e6 b4 9f bd 8e 69 22 3e e2 1e 6e 3e a4 38 29 3e
       -0.077981755 0.15860578 0.23253968 0.16525513
000070 37 58 22 3e aa ef 2e 3e f5 fb 4a 3e f0 1b 53 bd
       0.15853964 0.17083612 0.19822676 -0.051540315
000080 a1 b1 2e 3e c8 df 0f 3e ac d6 30 3e 8a 75 2e 3e
       0.17059948 0.1405021 0.17269391 0.17037025
000090 24 e8 fe 3d 90 6c 61 3e 96 b5 2b 3e 4a 1b a1 3d
       0.12446621 0.2201407 0.16768488 0.07866533
0000a0 cf d7 a9 bd 1e af 2b 3e 0c 14 2d 3e 93 d9 46 bd
       -0.08293115 0.1676602 0.16902179 -0.04854734
0000b0 39 f8 e1 3d 5b e6 12 3e b7 2d a9 bd 07 8c 2b 3e
       0.11033673 0.14345686 -0.082606725 0.16752635
0000c0 81 22 fd be 61 90 0c 3d d9 22 80 3d 6e ec 36 3e
       -0.49440387 0.034317378 0.06256647 0.17863628
0000d0 4a 82 7d bd 3f 22 f6 3d 33 94 46 3d 28 cf 15 3e
       -0.06189183 0.12018251 0.048481178 0.14629805
0000e0 5f 10 a9 bd e6 6c 38 3e 61 7e 26 3e ef 34 4c 3e
       -0.08255076 0.18010291 0.16259147 0.19942068
0000f0 a9 7c 8e 3d 6d 33 3f 3e 7c 9a 8b bc a9 f7 dc 3d
       0.06957371 0.18671961 -0.017041437 0.10789425
000100 70 18 96 3d 7f 53 18 3e 88 d8 22 3e c0 7c 1c 3e
       0.0732888 0.14875601 0.15902913 0.15281963
000110 81 1f 28 3e b6 5f 19 3e 11 af 1f bd 47 b0 27 3e
       0.16418268 0.14977917 -0.038985316 0.16375838
000120 22 83 0b bd c6 7b 1b 3e 49 12 1f 3e d7 a6 38 3e
       -0.034060605 0.15183935 0.15534319 0.18032394
000130 9c 4f 92 bd 34 da 51 3e 29 a0 fd 3a c5 59 f8 3d
       -0.071440905 0.20493394 0.00193501 0.12126497
000140 66 5c 3a 3e f2 87 33 3e 07 7c fd 3d be 64 19 3e
       0.1819931 0.17532328 0.12377172 0.14979836
000150 7c 83 1d 3e 79 ea f2 3d 57 56 1c 3e f1 02 01 3e
       0.15382189 0.11861128 0.15267311 0.12598778
000160 82 12 ca bb 8a 59 1b 3e 0a 10 30 3e d4 70 0e 3e
       -0.006166757 0.15170875 0.17193618 0.13910228
000170 c2 40 0f 3e bc 74 2a 3e 23 fa 34 3e 57 ae af bd
       0.13989547 0.16646093 0.17673545 -0.085781746
000180 eb a2 0a 3e d7 38 0f 3e 90 1b 24 3e 94 3e 02 3e
       0.13538711 0.13986526 0.1602614 0.12719184
000190 3b c3 2a 3e 32 56 3e 3e ff 15 51 3e b5 26 06 3e
       0.16676037 0.18587568 0.20418547 0.13100703
0001a0 7a d1 1b bd 77 4b 20 3e a9 d8 1e 3e 27 eb 24 bd
       -0.03804157 0.15653788 0.15512337 -0.04026332
0001b0 78 f5 b5 bd 2b 39 29 3e 7f 9d 1d bd cf 4a 1d 3e
       -0.0888471 0.16525714 -0.038480278 0.15360568
0001c0 fd 39 1e 3e 64 91 bd bd e2 3a 73 3d 1e 50 37 3e
       0.15451808 -0.09256247 0.059382327 0.17901656
0001d0 20 a8 e7 bc 19 db 1c 3e 00 fa c9 ba 60 fe 35 3e
       -0.02827841 0.15317954 -0.0015409589 0.17772818
0001e0 f0 e9 bd bd 74 aa 30 3e 44 98 45 3e 71 78 4f 3e
       -0.09273136 0.17252523 0.19296366 0.20260789
0001f0 c1 6a e0 bd 6e 2c 26 3e c2 4f ac 3e b4 fd 03 3e
       -0.10957862 0.16227886 0.336546 0.12889749
000200 13 6d 82 bd ec 97 1a 3e b3 f7 52 3e 1d 34 15 3e
       -0.063684605 0.15097016 0.20602302 0.14570661
000210 71 3d 31 3e d4 55 31 3e 8d 49 48 bd 26 d0 22 3e
       0.17308594 0.17317897 -0.04889827 0.15899715
000220 78 d4 97 3d 77 50 06 3e 8f 61 28 3e b6 91 2b 3e
       0.07413572 0.13116632 0.16443466 0.16754803
000230 b0 2e ad 3d 27 a8 65 3e fb 94 37 3d 5a d0 10 3e
       0.084561706 0.22427426 0.044819813 0.1414198
000240 e3 c9 fd 3d 88 ec 39 3e a0 b1 26 3e 2b 4e 0c 3e
       0.123920225 0.18156636 0.16278696 0.13701694
000250 f9 79 f6 3d 53 70 38 3e c7 33 1e 3e f7 c6 11 3e
       0.12034983 0.18011598 0.15449439 0.14236055
000260 a7 d5 bf bc a7 05 2c 3e fe bf 6c 3e 65 24 41 3e
       -0.023417307 0.16799031 0.23120114 0.1886154
000270 fe ef 11 3e 05 88 49 3e 6a 82 3b 3e b0 4c bd 3c
       0.14251706 0.19680794 0.18311468 0.023107857
000280 85 e0 f1 3d 66 cb 07 3e 7c 03 0b 3e 37 5a 3b 3e
       0.11810402 0.13261184 0.13575548 0.18296133
000290 5e 65 23 3e 7f 41 50 3e be c8 31 3e 71 6a 11 3e
       0.15956637 0.20337485 0.17361733 0.1420076
0002a0 17 34 1e 3e 92 fc 08 3e de 40 0e 3e 4b 31 c0 bd
       0.15449558 0.13377598 0.13891932 -0.09384402
0002b0 c9 c6 ff ba 7f 06 29 3e a5 b1 15 3d 44 fc b9 3d
       -0.0019514199 0.16506384 0.03654637 0.09081319
0002c0 3a d8 6b 3e 08 2f 2b bd 48 54 81 bc c0 35 26 3e
       0.23031703 -0.0417929 -0.015787259 0.16231441
0002d0 4f 9f 85 bd c9 15 24 3e a7 93 d8 bd 4d e8 19 3e
       -0.06524526 0.16023935 -0.105750374 0.15030022
0002e0 bc 8c 80 3d 50 d4 12 3e 7e 5a 5e 3e cf 29 5f 3e
       0.06276843 0.14338803 0.21714208 0.21793292
0002f0 42 3a 73 bd d8 00 29 3e 20 aa 74 3e 98 6b 0c 3e
       -0.05938173 0.16504228 0.23893023 0.13712919
000300 3f a8 e9 bb b5 e3 22 3e 28 98 4d 3e da 5d 05 3e
       -0.007130652 0.15907176 0.20077574 0.13024083
000310 5c 6e 23 3e 1a b2 12 3e b2 92 d9 bc 1a 7a 15 3e
       0.15960068 0.14325753 -0.026559208 0.1459736
000320 09 61 b4 bd 40 2b 1d 3e b5 71 18 3e 18 22 58 3e
       -0.088075705 0.1534853 0.14887126 0.21106756
000330 d8 00 f9 bc 9d e6 78 3e 88 94 26 3c 53 2a 07 3e
       -0.03039591 0.24306722 0.010167249 0.13199739
000340 15 16 2f 3e b1 35 01 3e b6 4c 05 3e da 89 e0 3d
       0.17098267 0.12618138 0.13017544 0.10963793
000350 b0 53 0f 3e 9e e5 4d 3e ad ef 13 3e 59 dd 24 3e
       0.13996768 0.20107123 0.14446898 0.16100062
000360 8f 2d d1 3d d7 c4 12 3e c4 bb 49 3e 84 86 2c 3e
       0.10213768 0.14332901 0.19700533 0.16848189
000370 8a 07 42 3e 2c fe 01 3e 27 0a 44 3e 2f e0 c5 3b
       0.18948188 0.12694615 0.19144498 0.0060386877
000380 22 89 15 3e ba a4 01 3e d5 fa 44 3e 0c d5 4a 3e
       0.14603093 0.12660494 0.1923631 0.19807833
000390 86 99 1d 3e a4 8b 41 3e 7e 0f 7a 3e 99 2a 1f 3e
       0.15390596 0.18900925 0.24419972 0.15543593
0003a0 c8 76 06 3d ee c0 48 3e 06 e7 1e 3e b5 a2 90 bc
       0.032828122 0.19604847 0.15517816 -0.01765571
0003b0 bc 90 98 3a 07 c3 1d 3e 6b 9a 57 3d 33 0c 25 3e
       0.0011639814 0.15406428 0.0526375 0.16117935
0003c0 f0 ee a1 3e 83 d9 7a 3d 9b 5e 51 bd 76 bc 34 3e
       0.31627607 0.06124259 -0.051115613 0.17650017
0003d0 e8 2f 15 3e 84 14 2a 3e 1e 59 c6 bb 26 57 47 3e
       0.14569056 0.16609389 -0.006053104 0.19466838
0003e0 a7 66 ff bd f1 2e 00 3e e8 8b 2b 3e fb b0 5c 3e
       -0.12470751 0.12517907 0.16752589 0.21551888
0003f0 39 3b e5 bd 8d c4 30 3e 03 83 43 bd bf 87 09 3e
       -0.111929365 0.17262478 -0.047732364 0.1343069

output.bias f4 [4]
000000 83 b6 67 3e f3 4b 68 3e ee c5 69 3e 13 4a 65 3e
       0.22628216 0.22685222 0.2282941 0.22391538

exp_avg f4 [64, 37]
000000 04 00 00 00 04 00 00 80 04 00 00 80 04 00 00 80
       6e-45 -6e-45 -6e-45 -6e-45
000010 04 00 00 80 04 00 00 80 04 00 00 80 04 00 00 80
       -6e-45 -6e-45 -6e-45 -6e-45
000020 04 00 00 80 04 00 00 80 04 00 00 00 04 00 00 80
       -6e-45 -6e-45 6e-45 -6e-45
000030 04 00 00 80 04 00 00 80 04 00 00 80 04 00 00 80
       -6e-45 -6e-45 -6e-45 -6e-45
000040 04 00 00 80 04 00 00 00 04 00 00 80 04 00 00 80
       -6e-45 6e-45 -6e-45 -6e-45
000050 04 00 00 80 04 00 00 80 04 00 00 80 04 00 00 80
       -6e-45 -6e-45 -6e-45 -6e-45
000060 04 00 00 80 04 00 00 80 04 00 00 80 04 00 00 80
       -6e-45 -6e-45 -6e-45 -6e-45
000070 04 00 00 80 04 00 00 80 04 00 00 80 04 00 00 80
       -6e-45 -6e-45 -6e-45 -6e-45
000080 04 00 00 80 04 00 00 80 04 00 00 80 04 00 00 80
       -6e-45 -6e-45 -6e-45 -6e-45
000090 04 00 00 00 04 00 00 00 04 00 00 00 04 00 00 80
       6e-45 6e-45 6e-45 -6e-45
0000a0 04 00 00 00 04 00 00 00 04 00 00 00 04 00 00 80
       6e-45 6e-45 6e-45 -6e-45
0000b0 04 00 00 80 04 00 00 00 04 00 00 00 04 00 00 80
       -6e-45 6e-45 6e-45 -6e-45
0000c0 04 00 00 80 04 00 00 00 04 00 00 00 04 00 00 80
       -6e-45 6e-45 6e-45 -6e-45
0000d0 04 00 00 80 04 00 00 80 04 00 00 80 04 00 00 00
       -6e-45 -6e-45 -6e-45 6e-45
0000e0 04 00 00 80 04 00 00 80 04 00 00 80 04 00 00 00
       -6e-45 -6e-45 -6e-45 6e-45
0000f0 04 00 00 00 04 00 00 80 04 00 00 00 04 00 00 80
       6e-45 -6e-45 6e-45 -6e-45
000100 04 00 00 00 04 00 00 80 04 00 00 00 04 00 00 00
       6e-45 -6e-45 6e-45 6e-45
000110 04 00 00 80 04 00 00 00 04 00 00 80 04 00 00 00
       -6e-45 6e-45 -6e-45 6e-45
000120 04 00 00 00 04 00 00 00 04 00 00 00 04 00 00 80
       6e-45 6e-45 6e-45 -6e-45
000130 04 00 00 80 04 00 00 00 04 00 00 80 04 00 00 80
       -6e-45 6e-45 -6e-45 -6e-45
000140 04 00 00 00 04 00 00 80 04 00 00 80 04 00 00 80
       6e-45 -6e-45 -6e-45 -6e-45
000150 04 00 00 80 04 00 00 00 04 00 00 00 04 00 00 80
       -6e-45 6e-45 6e-45 -6e-45
000160 04 00 00 80 04 00 00 80 04 00 00 00 04 00 00 00
       -6e-45 -6e-45 6e-45 6e-45
000170 04 00 00 80 04 00 00 00 04 00 00 80 04 00 00 00
       -6e-45 6e-45 -6e-45 6e-45
000180 04 00 00 00 04 00 00 80 04 00 00 80 04 00 00 80
       6e-45 -6e-45 -6e-45 -6e-45
000190 04 00 00 00 04 00 00 80 04 00 00 80 04 00 00 80
       6e-45 -6e-45 -6e-45 -6e-45
0001a0 04 00 00 80 04 00 00 00 04 00 00 80 04 00 00 80
       -6e-45 6e-45 -6e-45 -6e-45
0001b0 04 00 00 80 04 00 00 80 04 00 00 80 04 00 00 80
       -6e-45 -6e-45 -6e-45 -6e-45
0001c0 04 00 00 00 04 00 00 80 04 00 00 80 04 00 00 00
       6e-45 -6e-45 -6e-45 6e-45
0001d0 04 00 00 00 04 00 00 00 04 00 00 80 04 00 00 00
       6e-45 6e-45 -6e-45 6e-45
0001e0 04 00 00 00 04 00 00 80 04 00 00 00 04 00 00 80
       6e-45 -6e-45 6e-45 -6e-45
0001f0 04 00 00 00 04 00 00 80 04 00 00 80 04 00 00 80
       6e-45 -6e-45 -6e-45 -6e-45
000200 04 00 00 00 04 00 00 00 04 00 00 80 04 00 00 80
       6e-45 6e-45 -6e-45 -6e-45
000210 04 00 00 00 04 00 00 80 04 00 00 00 04 00 00 80
       6e-45 -6e-45 6e-45 -6e-45
000220 04 00 00 00 04 00 00 80 04 00 00 00 04 00 00 80
       6e-45 -6e-45 6e-45 -6e-45
000230 04 00 00 00 04 00 00 00 04 00 00 00 04 00 00 00
       6e-45 6e-45 6e-45 6e-45
000240 04 00 00 80 04 00 00 00 04 00 00 00 04 00 00 00
       -6e-45 6e-45 6e-45 6e-45
000250 04 00 00 00 04 00 00 00 04 00 00 80 04 00 00 80
       6e-45 6e-45 -6e-45 -6e-45
000260 04 00 00 00 04 00 00 00 04 00 00 80 04 00 00 80
       6e-45 6e-45 -6e-45 -6e-45
000270 04 00 00 00 04 00 00 00 04 00 00 80 04 00 00 80
       6e-45 6e-45 -6e-45 -6e-45
000280 04 00 00 00 04 00 00 00 04 00 00 80 04 00 00 80
       6e-45 6e-45 -6e-45 -6e-45
000290 04 00 00 80 04 00 00 00 04 00 00 00 04 00 00 80
       -6e-45 6e-45 6e-45 -6e-45
0002a0 04 00 00 80 04 00 00 80 04 00 00 80 04 00 00 00
       -6e-45 -6e-45 -6e-45 6e-45
0002b0 04 00 00 80 04 00 00 00 04 00 00 80 04 00 00 00
       -6e-45 6e-45 -6e-45 6e-45
0002c0 04 00 00 80 04 00 00 00 04 00 00 00 04 00 00 80
       -6e-45 6e-45 6e-45 -6e-45
0002d0 04 00 00 00 04 00 00 80 04 00 00 00 04 00 00 00
       6e-45 -6e-45 6e-45 6e-45
0002e0 04 00 00 00 04 00 00 00 04 00 00 80 04 00 00 00
       6e-45 6e-45 -6e-45 6e-45
0002f0 04 00 00 80 04 00 00 00 04 00 00 80 04 00 00 80
       -6e-45 6e-45 -6e-45 -6e-45
000300 04 00 00 00 04 00 00 00 04 00 00 00 04 00 00 00
       6e-45 6e-45 6e-45 6e-45
000310 04 00 00 80 04 00 00 00 04 00 00 80 04 00 00 00
       -6e-45 6e-45 -6e-45 6e-45
000320 04 00 00 00 04 00 00 80 04 00 00 00 04 00 00 00
       6e-45 -6e-45 6e-45 6e-45
000330 04 00 00 00 04 00 00 00 04 00 00 80 04 00 00 00
       6e-45 6e-45 -6e-45 6e-45
000340 04 00 00 00 04 00 00 00 04 00 00 80 04 00 00 80
       6e-45 6e-45 -6e-45 -6e-45
000350 04 00 00 00 04 00 00 80 04 00 00 00 04 00 00 00
       6e-45 -6e-45 6e-45 6e-45
000360 04 00 00 00 04 00 00 00 04 00 00 00 04 00 00 00
       6e-45 6e-45 6e-45 6e-45
000370 04 00 00 00 04 00 00 00 04 00 00 80 04 00 00 80
       6e-45 6e-45 -6e-45 -6e-45
000380 04 00 00 00 04 00 00 80 04 00 00 80 04 00 00 80
       6e-45 -6e-45 -6e-45 -6e-45
000390 04 00 00 00 04 00 00 00 04 00 00 80 04 00 00 80
       6e-45 6e-45 -6e-45 -6e-45
0003a0 04 00 00 00 04 00 00 00 04 00 00 80 04 00 00 80
       6e-45 6e-45 -6e-45 -6e-45
0003b0 04 00 00 00 04 00 00 00 04 00 00 80 04 00 00 00
       6e-45 6e-45 -6e-45 6e-45
0003c0 04 00 00 80 04 00 00 80 04 00 00 00 04 00 00 00
       -6e-45 -6e-45 6e-45 6e-45
0003d0 04 00 00 80 04 00 00 80 04 00 00 00 04 00 00 80
       -6e-45 -6e-45 6e-45 -6e-45
0003e0 04 00 00 80 04 00 00 80 04 00 00 00 04 00 00 80
       -6e-45 -6e-45 6e-45 -6e-45
0003f0 04 00 00 80 04 00 00 00 04 00 00 80 04 00 00 00
       -6e-45 6e-45 -6e-45 6e-45

exp_avg_sq f4 [64, 37]
000000 cb d2 b9 07 f2 bf 36 14 50 6f 1e 16 87 5f 75 12
       2.79596e-34 9.226506e-27 1.2798262e-25 7.7426115e-28
000010 d7 fc e0 14 7c 6c f2 09 56 d0 2a 16 9c fd 22 06
       2.2717948e-26 5.83614e-33 1.379823e-25 3.0655136e-35
000020 f8 2f 47 0d e6 50 a4 15 ac 8c b3 0c 42 d0 2a 16
       6.137935e-31 6.636671e-26 2.766398e-31 1.3798205e-25
000030 7f 10 a5 0d 3c 33 e2 09 6d 5e b2 15 b5 ca 48 0d
       1.0172881e-30 5.44557e-33 7.2042605e-26 6.187376e-31
000040 e8 12 46 14 18 e3 f4 0c 50 6f 1e 16 ff 4f 8f 13
       1.0000174e-26 3.773083e-31 1.2798262e-25 3.6177157e-27
000050 96 5a 4c 0d 14 db 29 16 22 78 75 12 76 25 e2 09
       6.297139e-31 1.372084e-25 7.7456444e-28 5.444275e-33
000060 f4 6f 8f 15 50 6f 1e 16 bc 14 46 14 1f 7c 5c 0a
       5.793387e-26 1.2798262e-25 1.00005345e-26 1.0615959e-32
000070 a6 f1 46 0d b8 31 83 15 5f 78 75 12 14 db 29 16
       6.1304334e-31 5.298892e-26 7.7456738e-28 1.372084e-25
000080 61 20 75 08 81 ce 46 0d 85 08 84 15 db be 4f 13
       7.3765067e-34 6.126203e-31 5.3327817e-26 2.6221172e-27
000090 c1 b7 8a 19 b3 1e 24 0f 57 32 52 22 10 89 da 19
       1.4343083e-23 8.091737e-30 2.8486957e-18 2.2596031e-23
0000a0 81 16 3d 0a aa bf 56 21 57 32 52 22 21 17 31 18
       9.1042515e-33 7.2759686e-19 2.8486957e-18 2.288839e-24
0000b0 8a af 08 18 80 63 b3 19 1c 51 02 20 60 79 c4 19
       1.7666213e-24 1.8548354e-23 1.1038265e-19 2.0314948e-23
0000c0 fb 16 31 18 ec 70 24 0f 57 32 52 22 8c 30 6e 18
       2.2888316e-24 8.107572e-30 2.8486957e-18 3.0785289e-24
0000d0 a7 af 85 0a c3 e1 1b 14 9f 18 b3 0e e1 32 52 22
       1.2873507e-32 7.870024e-27 4.4150616e-30 2.8487242e-18
0000e0 4b fa 53 13 4a af 08 18 21 17 31 18 18 1e 24 0f
       2.6755348e-27 1.7666086e-24 2.288839e-24 8.09162e-30
0000f0 d7 32 52 22 4d 4b ac 17 47 73 c9 19 4a f8 1b 14
       2.8487221e-18 1.1134248e-24 2.0829473e-23 7.8744666e-27
000100 57 32 52 22 4a af 08 18 36 9a 99 20 80 63 b3 19
       2.8486957e-18 1.7666086e-24 2.6021256e-19 1.8548354e-23
000110 21 17 31 18 57 32 52 22 4a af 08 18 7a 6c fe 21
       2.288839e-24 2.8486957e-18 1.7666086e-24 1.7240423e-18
000120 d4 0f a2 23 dc 3c d6 22 ca 40 e4 0e 7f 2b 0b 25
       1.7570779e-17 5.8069254e-18 5.626873e-30 1.2071065e-16
000130 8d bd 7b 1b ee 46 df 0f be 2e 0e 24 7f 2b 0b 25
       2.082348e-22 2.2016819e-29 3.0830934e-17 1.2071065e-16
000140 5c 87 18 18 e4 9c 54 1b 28 03 13 1a 46 90 ac 22
       1.9713879e-24 1.7586923e-22 3.0401437e-23 4.677345e-18
000150 ae 5d 79 1b 5c 87 18 18 33 26 13 0f 7f 2b 0b 25
       2.0627067e-22 1.9713879e-24 7.2550165e-30 1.2071065e-16
000160 3f eb e6 1a e7 96 89 0d 4d bc 14 14 d8 18 4c 0d
       9.550583e-23 8.479605e-31 7.509226e-27 6.289226e-31
000170 96 2b 0b 25 6a c2 4a 13 e4 9c 54 1b 92 86 18 18
       1.2071096e-16 2.5591838e-27 1.7586923e-22 1.971348e-24
000180 bc 21 10 10 7f 2b 0b 25 65 29 67 19 17 82 1c 1a
       2.842498e-29 1.2071065e-16 1.195078e-23 3.236513e-23
000190 b6 bf 14 14 7f 2b 0b 25 e4 9c 54 1b 77 64 4b 23
       7.509899e-27 1.2071065e-16 1.7586923e-22 1.1025926e-17
0001a0 28 03 13 1a 92 86 18 18 7f 2b 0b 25 e4 9c 54 1b
       3.0401437e-23 1.971348e-24 1.2071065e-16 1.7586923e-22
0001b0 9f 73 a8 24 d8 99 56 26 c2 cd 8d 25 2d 68 73 0d
       7.3054256e-17 7.445466e-16 2.4599028e-16 7.5005553e-31
0001c0 b3 e7 a1 22 9e d1 ec 1a 02 bc 9a 13 9a 6a a5 21
       4.388446e-18 9.794597e-23 3.9060455e-27 1.1209052e-18
0001d0 b3 e7 a1 22 de 16 34 17 9a 93 e7 1a 6b 07 f6 17
       4.388446e-18 5.819e-25 9.5777824e-23 1.589925e-24
0001e0 51 c4 48 20 f7 6b eb 1a de 16 34 17 da 4a 0a 0e
       1.7005615e-19 9.736815e-23 5.819e-25 1.7045853e-30
0001f0 b3 e7 a1 22 0c aa 76 1a 89 48 68 0c 7f c2 9a 13
       4.388446e-18 5.100897e-23 1.7894458e-31 3.9066853e-27
000200 19 34 36 0e 97 e8 a1 22 e9 61 40 13 9a 93 e7 1a
       2.2458316e-30 4.38854e-18 2.428208e-27 9.5777824e-23
000210 8f e1 32 17 c9 c8 9a 13 b9 e7 a1 22 ce 68 f3 18
       5.7799597e-25 3.9073055e-27 4.3884483e-18 6.2919853e-24
000220 d3 bb 27 18 37 d9 9a 13 b3 e7 a1 22 9a 93 e7 1a
       2.1679071e-24 3.9089256e-27 4.388446e-18 9.5777824e-23
000230 2f 9e ec 20 c6 a1 f6 17 8f e1 32 17 b3 e7 a1 22
       4.0084632e-19 1.5938215e-24 5.7799597e-25 4.388446e-18
000240 9a 93 e7 1a 29 f8 43 22 50 a8 f9 23 50 21 25 23
       9.5777824e-23 2.6558803e-18 2.7067917e-17 8.951722e-18
000250 39 ef 86 07 4d b2 3f 24 f1 d4 6b 1a 7b 92 fb 13
       2.0302682e-34 4.156755e-17 4.8768874e-23 6.350575e-27
000260 bf d8 43 23 4d b2 3f 24 25 8a 32 18 db 60 ed 19
       1.0616869e-17 4.156755e-17 2.3075706e-24 2.4544345e-23
000270 d5 0b d4 19 0d b1 ed 21 55 b6 60 1a 25 8a 32 18
       2.1925065e-23 1.610661e-18 4.64694e-23 2.3075706e-24
000280 76 19 1e 0c 4d b2 3f 24 4c e6 93 19 95 a6 38 0a
       1.2179539e-31 4.156755e-17 1.529246e-23 8.890608e-33
000290 8f 6e 20 14 5d 91 5c 0c 5f b2 3f 24 cb ee b3 13
       8.0997395e-27 1.6991927e-31 4.156761e-17 4.542142e-27
0002a0 db 60 ed 19 4e 0c 32 18 a4 91 fb 13 56 b2 3f 24
       2.4544345e-23 2.3012173e-24 6.350492e-27 4.156758e-17
0002b0 ff cc 45 18 c0 48 ea 19 0d 6f 20 14 4d b2 3f 24
       2.556515e-24 2.4224416e-23 8.0998366e-27 4.156755e-17
0002c0 db 60 ed 19 38 14 8c 22 59 1b d4 19 4e 0c 32 18
       2.4544345e-23 3.7968483e-18 2.1931332e-23 2.3012173e-24
0002d0 4d b2 3f 24 db 60 ed 19 8e 07 e8 23 50 cc 93 25
       4.156755e-17 2.4544345e-23 2.515669e-17 2.5638883e-16
0002e0 c8 51 c3 24 18 a0 ee 0e 65 ee e3 05 6f f8 3c 06
       8.470631e-17 5.8825694e-30 2.143455e-35 3.554139e-35
0002f0 f3 79 7c 04 6d bc 38 0e ba 8c a8 05 15 5f 08 06
       2.9678454e-36 2.2770475e-30 1.5850339e-35 2.5648612e-35
000300 18 a0 ee 0e 40 27 b4 05 81 88 53 0b 44 e6 2c 06
       5.8825694e-30 1.6941537e-35 4.0739816e-32 3.2518777e-35
000310 11 e2 2a 06 f6 9f ee 0e a8 06 d4 04 f9 72 b0 0d
       3.2139534e-35 5.8825567e-30 4.9847073e-36 1.0874516e-30
000320 80 10 4a 05 9b b1 3c 06 e4 dc 5e 06 45 9f ee 0e
       9.501025e-36 3.5489354e-35 4.1915844e-35 5.88249e-30
000330 18 66 04 06 b6 4d 02 06 a0 f1 1f 06 f6 9f ee 0e
       2.4901447e-35 2.4507375e-35 3.0082094e-35 5.8825567e-30
000340 f5 3a 91 05 fa 57 77 0b 40 34 69 06 ef c9 13 06
       1.3657392e-35 4.7636656e-32 4.3860817e-35 2.7795985e-35
000350 f6 9f ee 0e 10 77 d8 04 41 12 c7 0a f0 4e ba 05
       5.8825567e-30 5.0890698e-36 1.916987e-32 1.7520353e-35
000360 22 30 fe 05 18 a0 ee 0e 7c 70 c1 05 e5 e7 0f 0d
       2.3903726e-35 5.8825694e-30 1.8190953e-35 4.434441e-31
000370 6e 10 0f 07 92 b9 42 12 97 63 59 0e 4c c4 af 25
       1.0762953e-34 6.144434e-28 2.6795266e-30 3.0490677e-16
000380 80 9b be 1a 77 4e 39 12 22 92 b3 24 4c c4 af 25
       7.883338e-23 5.847242e-28 7.7876434e-17 3.0490677e-16
000390 cf a3 01 19 3c 5b 5a 1a 51 80 02 1a 55 f0 59 23
       6.7022246e-24 4.5155042e-23 2.6987023e-23 1.1814486e-17
0003a0 d1 6d ae 1a cf a3 01 19 ee 53 93 0e 4c c4 af 25
       7.214213e-23 6.7022246e-24 3.631912e-30 3.0490677e-16
0003b0 1c 44 0b 1a d0 d2 98 0d 9a 8b 5d 14 5b a9 60 0b
       2.8799545e-23 9.4184745e-31 1.118518e-26 4.326824e-32
0003c0 4c c4 af 25 2f 2a 9d 13 3c 5b 5a 1a eb a0 01 19
       3.0490677e-16 3.967397e-27 4.5155042e-23 6.701641e-24
0003d0 16 26 3a 12 4c c4 af 25 fa c0 df 18 91 db 22 1a
       5.8738196e-28 3.0490677e-16 5.7839005e-24 3.367818e-23
0003e0 cf 8b 5d 14 4c c4 af 25 3c 5b 5a 1a 39 70 00 24
       1.1185221e-26 3.0490677e-16 4.5155042e-23 2.7850632e-17
0003f0 de 80 02 1a eb a0 01 19 4c c4 af 25 3c 5b 5a 1a
       2.6987468e-23 6.701641e-24 3.0490677e-16 4.5155042e-23

exp_avg f4 [64]
000000 04 00 00 80 04 00 00 00 04 00 00 80 04 00 00 00
       -6e-45 6e-45 -6e-45 6e-45
000010 04 00 00 00 04 00 00 00 04 00 00 80 04 00 00 00
       6e-45 6e-45 -6e-45 6e-45
000020 04 00 00 80 04 00 00 80 04 00 00 80 04 00 00 00
       -6e-45 -6e-45 -6e-45 6e-45
000030 04 00 00 00 04 00 00 80 04 00 00 00 04 00 00 80
       6e-45 -6e-45 6e-45 -6e-45
000040 04 00 00 00 04 00 00 00 04 00 00 80 04 00 00 80
       6e-45 6e-45 -6e-45 -6e-45
000050 04 00 00 80 04 00 00 80 04 00 00 00 04 00 00 80
       -6e-45 -6e-45 6e-45 -6e-45
000060 04 00 00 00 04 00 00 80 04 00 00 80 04 00 00 00
       6e-45 -6e-45 -6e-45 6e-45
000070 04 00 00 00 04 00 00 00 04 00 00 00 04 00 00 80
       6e-45 6e-45 6e-45 -6e-45
000080 04 00 00 80 04 00 00 00 04 00 00 80 04 00 00 00
       -6e-45 6e-45 -6e-45 6e-45
000090 04 00 00 00 04 00 00 80 04 00 00 00 04 00 00 80
       6e-45 -6e-45 6e-45 -6e-45
0000a0 04 00 00 80 04 00 00 80 04 00 00 00 04 00 00 00
       -6e-45 -6e-45 6e-45 6e-45
0000b0 04 00 00 80 04 00 00 00 04 00 00 00 04 00 00 80
       -6e-45 6e-45 6e-45 -6e-45
0000c0 04 00 00 00 04 00 00 00 04 00 00 80 04 00 00 00
       6e-45 6e-45 -6e-45 6e-45
0000d0 04 00 00 80 04 00 00 80 04 00 00 80 04 00 00 00
       -6e-45 -6e-45 -6e-45 6e-45
0000e0 04 00 00 00 04 00 00 00 04 00 00 00 04 00 00 80
       6e-45 6e-45 6e-45 -6e-45
0000f0 04 00 00 80 04 00 00 00 04 00 00 00 04 00 00 80
       -6e-45 6e-45 6e-45 -6e-45

exp_avg_sq f4 [64]
000000 93 d0 2a 16 e1 32 52 22 96 2b 0b 25 97 e8 a1 22
       1.3798305e-25 2.8487242e-18 1.2071096e-16 4.38854e-18
000010 5f b2 3f 24 f0 a0 ee 0e 4c c4 af 25 c7 25 20 26
       4.156761e-17 5.8826507e-30 3.0490677e-16 5.556235e-16
000020 f5 7f 65 26 6f 61 87 26 7e dd 05 26 83 ba f7 25
       7.962375e-16 9.393916e-16 4.644382e-16 4.2974055e-16
000030 23 7a 4d 19 91 cb ae 1a 34 39 27 26 dd ff c3 26
       1.0622917e-23 7.229359e-23 5.801729e-16 1.3600195e-15
000040 cc 0e 81 25 72 99 86 16 c3 db 1c 24 61 82 0d 25
       2.238796e-16 2.1745705e-25 3.4013253e-17 1.2273975e-16
000050 ee 94 f2 22 d4 34 d1 21 a2 87 f6 25 e3 91 b3 26
       6.5751917e-18 1.4176374e-18 4.2766106e-16 1.2460163e-15
000060 64 9c 62 26 57 e9 b9 23 d0 1f aa 25 d6 d3 fa 19
       7.862145e-16 2.0156563e-17 2.9511856e-16 2.5934954e-23
000070 56 9b 92 23 e6 8b ac 25 63 b9 82 11 d5 b7 e1 26
       1.5895139e-17 2.9932043e-16 2.0624637e-28 1.5662339e-15
000080 88 e0 7b 19 36 bb a2 1e ec e8 5b 26 aa b4 ba 18
       1.30217396e-23 1.7229846e-20 7.6296556e-16 4.8262297e-24
000090 0d 4d 26 26 ae ef 34 26 47 a4 59 1a cb c1 0b 25
       5.7697243e-16 6.277487e-16 4.500725e-23 1.2121988e-16
0000a0 dc a3 9b 26 db 48 41 25 a4 0f 92 25 25 18 38 23
       1.07997e-15 1.6764766e-16 2.533756e-16 9.979773e-18
0000b0 fd 71 d9 23 c8 39 38 25 f1 3b 41 26 b7 ed 71 10
       2.3575463e-17 1.5979033e-16 6.704156e-16 4.7711998e-29
0000c0 e7 52 7e 25 68 9a ca 22 37 68 df 26 ac ef 09 07
       2.2059077e-16 5.4915694e-18 1.5501981e-15 1.0377168e-34
0000d0 67 18 fe 25 0f 96 23 07 10 4b 85 23 cf 17 34 25
       4.4078512e-16 1.2306855e-34 1.4451679e-17 1.5620578e-16
0000e0 bd 5f e3 0d 4b f4 9f 25 7e 64 ac 24 cb 34 e8 26
       1.4013003e-30 2.7747643e-16 7.476335e-17 1.6112543e-15
0000f0 e4 09 20 24 f0 3a 88 25 25 cb 0f 22 4c 79 10 25
       3.4702847e-17 2.3632177e-16 1.9487658e-18 1.2531106e-16

exp_avg f4 [64, 64]
000000 04 00 00 80 04 00 00 00 04 00 00 00 04 00 00 00
       -6e-45 6e-45 6e-45 6e-45
000010 04 00 00 00 04 00 00 00 04 00 00 00 04 00 00 80
       6e-45 6e-45 6e-45 -6e-45
000020 04 00 00 00 04 00 00 00 04 00 00 00 04 00 00 00
       6e-45 6e-45 6e-45 6e-45
000030 04 00 00 00 04 00 00 00 04 00 00 00 04 00 00 80
       6e-45 6e-45 6e-45 -6e-45
000040 04 00 00 80 04 00 00 00 04 00 00 80 00 00 00 00
       -6e-45 6e-45 -6e-45 0.0
000050 04 00 00 00 04 00 00 80 04 00 00 00 00 00 00 00
       6e-45 -6e-45 6e-45 0.0
000060 04 00 00 80 04 00 00 00 04 00 00 00 04 00 00 00
       -6e-45 6e-45 6e-45 6e-45
000070 04 00 00 00 04 00 00 00 00 00 00 00 00 00 00 00
       6e-45 6e-45 0.0 0.0
000080 04 00 00 00 04 00 00 00 04 00 00 80 04 00 00 80
       6e-45 6e-45 -6e-45 -6e-45
000090 04 00 00 80 04 00 00 00 04 00 00 80 04 00 00 00
       -6e-45 6e-45 -6e-45 6e-45
0000a0 04 00 00 00 04 00 00 00 04 00 00 00 04 00 00 00
       6e-45 6e-45 6e-45 6e-45
0000b0 04 00 00 00 04 00 00 00 04 00 00 00 04 00 00 00
       6e-45 6e-45 6e-45 6e-45
0000c0 04 00 00 00 04 00 00 80 04 00 00 00 04 00 00 00
       6e-45 -6e-45 6e-45 6e-45
0000d0 04 00 00 00 04 00 00 00 04 00 00 00 04 00 00 00
       6e-45 6e-45 6e-45 6e-45
0000e0 04 00 00 00 04 00 00 00 04 00 00 00 04 00 00 00
       6e-45 6e-45 6e-45 6e-45
0000f0 04 00 00 80 04 00 00 00 04 00 00 00 04 00 00 00
       -6e-45 6e-45 6e-45 6e-45
000100 04 00 00 00 04 00 00 00 04 00 00 00 04 00 00 00
       6e-45 6e-45 6e-45 6e-45
000110 04 00 00 00 04 00 00 00 04 00 00 00 04 00 00 00
       6e-45 6e-45 6e-45 6e-45
000120 04 00 00 00 04 00 00 00 04 00 00 00 04 00 00 00
       6e-45 6e-45 6e-45 6e-45
000130 04 00 00 00 04 00 00 00 04 00 00 00 04 00 00 00
       6e-45 6e-45 6e-45 6e-45
000140 04 00 00 00 04 00 00 00 04 00 00 00 04 00 00 00
       6e-45 6e-45 6e-45 6e-45
000150 04 00 00 00 04 00 00 00 04 00 00 00 04 00 00 00
       6e-45 6e-45 6e-45 6e-45
000160 04 00 00 00 04 00 00 00 04 00 00 00 04 00 00 00
       6e-45 6e-45 6e-45 6e-45
000170 04 00 00 00 04 00 00 00 04 00 00 00 04 00 00 00
       6e-45 6e-45 6e-45 6e-45
000180 04 00 00 00 04 00 00 00 04 00 00 00 04 00 00 00
       6e-45 6e-45 6e-45 6e-45
000190 04 00 00 00 04 00 00 00 04 00 00 00 04 00 00 00
       6e-45 6e-45 6e-45 6e-45
0001a0 04 00 00 00 04 00 00 00 04 00 00 00 04 00 00 00
       6e-45 6e-45 6e-45 6e-45
0001b0 04 00 00 00 04 00 00 80 04 00 00 00 04 00 00 00
       6e-45 -6e-45 6e-45 6e-45
0001c0 04 00 00 00 04 00 00 00 04 00 00 00 04 00 00 00
       6e-45 6e-45 6e-45 6e-45
0001d0 04 00 00 00 04 00 00 80 04 00 00 00 04 00 00 00
       6e-45 -6e-45 6e-45 6e-45
0001e0 04 00 00 80 04 00 00 00 04 00 00 80 04 00 00 00
       -6e-45 6e-45 -6e-45 6e-45
0001f0 04 00 00 00 04 00 00 80 04 00 00 00 04 00 00 00
       6e-45 -6e-45 6e-45 6e-45
000200 04 00 00 00 04 00 00 00 04 00 00 00 04 00 00 00
       6e-45 6e-45 6e-45 6e-45
000210 04 00 00 00 04 00 00 80 04 00 00 00 04 00 00 00
       6e-45 -6e-45 6e-45 6e-45
000220 04 00 00 00 04 00 00 00 04 00 00 00 04 00 00 00
       6e-45 6e-45 6e-45 6e-45
000230 04 00 00 00 04 00 00 00 04 00 00 00 04 00 00 00
       6e-45 6e-45 6e-45 6e-45
000240 04 00 00 00 04 00 00 00 04 00 00 00 04 00 00 00
       6e-45 6e-45 6e-45 6e-45
000250 04 00 00 00 04 00 00 00 04 00 00 00 04 00 00 00
       6e-45 6e-45 6e-45 6e-45
000260 04 00 00 00 04 00 00 00 04 00 00 00 04 00 00 00
       6e-45 6e-45 6e-45 6e-45
000270 04 00 00 00 04 00 00 00 04 00 00 00 04 00 00 00
       6e-45 6e-45 6e-45 6e-45
000280 04 00 00 00 04 00 00 00 04 00 00 00 04 00 00 00
       6e-45 6e-45 6e-45 6e-45
000290 04 00 00 00 04 00 00 00 04 00 00 00 04 00 00 00
       6e-45 6e-45 6e-45 6e-45
0002a0 04 00 00 00 04 00 00 00 04 00 00 00 04 00 00 00
       6e-45 6e-45 6e-45 6e-45
0002b0 04 00 00 00 04 00 00 00 04 00 00 00 04 00 00 00
       6e-45 6e-45 6e-45 6e-45
0002c0 04 00 00 00 04 00 00 00 04 00 00 00 04 00 00 00
       6e-45 6e-45 6e-45 6e-45
0002d0 04 00 00 00 04 00 00 80 04 00 00 00 04 00 00 00
       6e-45 -6e-45 6e-45 6e-45
0002e0 04 00 00 00 04 00 00 00 04 00 00 00 04 00 00 00
       6e-45 6e-45 6e-45 6e-45
0002f0 04 00 00 00 04 00 00 00 04 00 00 00 04 00 00 00
       6e-45 6e-45 6e-45 6e-45
000300 04 00 00 00 04 00 00 00 04 00 00 00 04 00 00 00
       6e-45 6e-45 6e-45 6e-45
000310 04 00 00 00 04 00 00 00 04 00 00 00 04 00 00 00
       6e-45 6e-45 6e-45 6e-45
000320 04 00 00 00 04 00 00 00 04 00 00 00 04 00 00 00
       6e-45 6e-45 6e-45 6e-45
000330 04 00 00 00 04 00 00 00 04 00 00 00 04 00 00 00
       6e-45 6e-45 6e-45 6e-45
000340 04 00 00 00 04 00 00 00 04 00 00 00 04 00 00 00
       6e-45 6e-45 6e-45 6e-45
000350 04 00 00 00 04 00 00 00 04 00 00 00 04 00 00 00
       6e-45 6e-45 6e-45 6e-45
000360 04 00 00 00 04 00 00 00 04 00 00 00 04 00 00 00
       6e-45 6e-45 6e-45 6e-45
000370 04 00 00 00 04 00 00 00 04 00 00 00 04 00 00 00
       6e-45 6e-45 6e-45 6e-45
000380 04 00 00 00 04 00 00 00 04 00 00 00 04 00 00 00
       6e-45 6e-45 6e-45 6e-45
000390 04 00 00 00 04 00 00 00 04 00 00 00 04 00 00 00
       6e-45 6e-45 6e-45 6e-45
0003a0 04 00 00 00 04 00 00 00 04 00 00 00 04 00 00 00
       6e-45 6e-45 6e-45 6e-45
0003b0 04 00 00 00 04 00 00 00 04 00 00 00 04 00 00 80
       6e-45 6e-45 6e-45 -6e-45
0003c0 04 00 00 00 04 00 00 00 04 00 00 00 04 00 00 00
       6e-45 6e-45 6e-45 6e-45
0003d0 04 00 00 00 04 00 00 00 04 00 00 00 04 00 00 00
       6e-45 6e-45 6e-45 6e-45
0003e0 04 00 00 00 04 00 00 00 04 00 00 00 04 00 00 00
       6e-45 6e-45 6e-45 6e-45
0003f0 04 00 00 00 04 00 00 00 04 00 00 00 04 00 00 00
       6e-45 6e-45 6e-45 6e-45
