p1_navigation/DQN20190128_v15.pth (torch_old, 87853 bytes, 18 tensors)

hidden_layers.0.weight f4 [64, 37]
000000 61 f9 88 3c 16 fe 67 3d bc 68 12 be 8f e5 47 be
       0.016720476 0.0566388 -0.14297765 -0.19521163
000010 c2 26 94 be 47 1a e7 be f1 2c 04 3e 1b 97 65 3e
       -0.2893582 -0.45137236 0.12907769 0.22420923
000020 0e 49 c8 3e 28 7c 22 be d9 b7 0f 3e d2 3d 61 bd
       0.39118236 -0.15867674 0.14034976 -0.054990597
000030 40 63 57 be 83 da 67 be 7d 84 15 be 68 24 a8 bd
       -0.21033955 -0.2264195 -0.14601322 -0.08210069
000040 72 e6 5c 3d cc e2 0f 3e 13 d1 65 be b9 8a 03 bf
       0.053930707 0.1405136 -0.22443037 -0.5138355
000050 5b de 0b be ef 2b 0e 3e e0 7c 28 3e 2d f2 1a 3e
       -0.1365904 0.13883947 0.16453886 0.15131445
000060 1a 3e 0b bd b7 d8 b6 3d 2f 08 8b 3e c1 84 d5 be
       -0.03399477 0.08928054 0.2715468 -0.41702846
000070 e2 64 01 be 44 35 7c be 46 22 09 be 3f 73 bf 3d
       -0.1263614 -0.24629694 -0.1339198 0.09348153
000080 47 b6 70 bd 63 ad 28 3e 89 c9 32 be 2d e0 11 bd
       -0.058767583 0.16472392 -0.17459692 -0.03561418
000090 8a 0a 00 bc bd e5 18 bd b5 f6 75 3b 4a 01 01 3e
       -0.007815013 -0.03732847 0.0037531082 0.12598148
0000a0 08 13 1f bd 58 42 ed be a9 1e 65 be 30 eb 22 bf
       -0.03883651 -0.4633968 -0.22374977 -0.6364012
0000b0 42 1a d9 3d b3 15 3a bf 9f 61 f4 be 5c 01 a7 3c
       0.106007114 -0.7268936 -0.4773073 0.02038639
0000c0 19 2b 4d be 8f 85 2e bc 4f aa bc bd ea fe 4f 3d
       -0.20035972 -0.01065196 -0.09212171 0.050780214
0000d0 50 1a 5b 3e da 7f 62 be 00 1f 16 3e 4d 53 ea be
       0.21396756 -0.22119084 0.14660263 -0.45766678
0000e0 c5 9a dd bf 00 14 7e be 65 e0 c1 3d 89 58 2a be
       -1.7312857 -0.24812317 0.09466628 -0.16635336
0000f0 d1 71 89 be f4 dd e0 3d e0 00 02 be 06 7b 61 be
       -0.26844648 0.10979834 -0.12695646 -0.22019586
000100 49 df 4d 3e 6d 51 56 bf 02 8b d4 be 15 4e c7 bd
       0.20104708 -0.83717996 -0.41512305 -0.0973169
000110 0e 01 9f 3e bb 0e 1f 3e d6 85 6f bf a3 e7 b2 be
       0.31055492 0.15532963 -0.9356359 -0.3494235
000120 02 40 cb 3d 27 73 c5 3d ed e3 b0 3e d4 a7 74 3d
       0.09924318 0.09641104 0.34548894 0.059730366
000130 78 8f 57 be 1c cb 10 bf 88 c9 69 bd 39 be cf be
       -0.21050823 -0.5655992 -0.05707696 -0.40574816
000140 5c 8a 49 be b7 62 9f 3d ee 99 a4 3e 5d c6 af be
       -0.19681686 0.077825 0.3214869 -0.34331027
000150 54 62 07 3e 0e 80 b6 3c a5 89 a5 be 93 a0 8b be
       0.13221103 0.022277858 -0.32331577 -0.27270946
000160 39 9a ef be 0a 1c c7 be 39 01 60 3e 88 1c 8e be
       -0.4679735 -0.3888858 0.21875466 -0.27756143
000170 a1 40 4e 3e 8d a0 fe bd af 9e a1 bd 4f 02 1d be
       0.20141841 -0.124329664 -0.078915946 -0.15332912
000180 30 fd cc 3d c5 e6 c5 be 7f 6d 5e bf ff f9 08 3d
       0.10009229 -0.38652626 -0.8688583 0.03344154
000190 80 11 8b 3e f7 bb 14 bf 55 3d d9 be c7 bc b3 bd
       0.2716179 -0.5809931 -0.42429605 -0.08776241
0001a0 a6 a1 ca bd 13 6a ff 3d 78 42 59 bf 7c 00 f5 be
       -0.09894113 0.12471404 -0.8486705 -0.47851932
0001b0 0e 0c ca bc c5 69 90 3d 83 95 c2 3b f2 16 01 3e
       -0.024663951 0.07051424 0.0059382333 0.12606409
0001c0 c5 3e 17 3d 11 5d 83 3c 9c 14 ec 3d 53 8d 28 3d
       0.036925096 0.016035588 0.115273684 0.041150402
0001d0 af 53 19 be 6d 83 b9 3d a8 58 03 3e 0a 35 56 3e
       -0.14973329 0.090582706 0.12826788 0.2091867
0001e0 77 7d 55 3e a4 68 4b bd 64 80 c5 3d c8 2a ae bc
       0.20848642 -0.04966034 0.09643629 -0.021260634
0001f0 e5 25 b2 3c 73 bb 3f bd 37 be 26 be 9a 77 45 3d
       0.021746585 -0.046809625 -0.16283499 0.048209764
000200 5f 55 b6 bc e0 cc 4c bc 4f ac 53 3e ac 23 9e 3e
       -0.022257505 -0.012500018 0.206712 0.3088659
000210 90 49 9d bf 01 36 38 be 44 89 50 be 5d 2b 12 c0
       -1.2288074 -0.17989351 -0.20364863 -2.2838967
000220 68 7a 70 bd 99 e3 ff 3b bb 45 da 3d 4d 2c 2d 3e
       -0.058710486 0.007809114 0.10657831 0.1691143
000230 12 e0 ba 3e 41 c8 39 3e e4 b1 00 3f b1 81 87 bd
       0.36499077 0.18142797 0.5027144 -0.066165335
000240 5e 2d 21 be fd 9d 63 bf a0 4c 0b bd ec a1 62 bb
       -0.15739962 -0.88912946 -0.034008622 -0.0034581376
000250 39 ce 47 3d 46 ad d0 be 04 75 21 bf 9d d2 18 be
       0.048780654 -0.40757197 -0.63069177 -0.14924093
000260 34 fe b1 3d 11 0e cf bd 29 83 70 3e 52 0d c1 bb
       0.086910635 -0.10110105 0.23487534 -0.0058914805
000270 8e e1 73 bd 8d 5f 34 bd 7c a7 85 be bd 59 bf be
       -0.059541278 -0.044036437 -0.26104343 -0.37373152
000280 27 4e db 3c c2 af 6b 3e dc 02 41 be 0b 72 d4 be
       0.026770664 0.23016265 -0.18848747 -0.41493258
000290 5d 2d b1 be a3 79 70 3e 44 be d1 3c 83 60 c1 3c
       -0.34604922 0.234839 0.025603421 0.02360559
0002a0 b5 a0 ac bc 88 f5 27 bd 29 2c 5c 3d 4a 76 24 bf
       -0.021072725 -0.04100564 0.053753052 -0.64242995
0002b0 60 64 71 3e ae 09 38 3e 9a 1e c7 be 11 c6 40 be
       0.23573446 0.17972443 -0.38890535 -0.18825556
0002c0 90 f6 47 bd 8b 3e 4c bf 27 ad 2c bd bc 7f a4 be
       -0.048819125 -0.79782933 -0.04215732 -0.32128704
0002d0 2c c0 05 be c7 2d a7 3e 7c 2b 82 be b2 f4 3b bd
       -0.13061589 0.32652113 -0.254238 -0.045887657
0002e0 4f 61 b1 3c a0 e0 5f 3d 59 28 71 bb 6b eb 8c be
       0.021652846 0.05465758 -0.003679773 -0.2752336
0002f0 cc a0 9a be 08 9a f1 3d a6 32 83 3d 1f 70 97 3e
       -0.30200803 0.11796957 0.06406145 0.2957773
000300 7a 11 78 be e5 39 0c be 16 d2 30 bc ea 5d 18 bd
       -0.24225417 -0.1369396 -0.010792276 -0.03719894
000310 a2 12 ad bd d8 44 1c be 3a da c0 bd 7d ed 0c be
       -0.084508196 -0.15260637 -0.094166234 -0.1376247
000320 2f e9 28 3a cb df 6c 3e 67 75 9f be 32 0c 1e bf
       0.00064434385 0.23132245 -0.31144258 -0.6173736
000330 f7 af 56 be 79 f1 8f bc 7d d1 c7 bd ea da 38 3e
       -0.20965563 -0.017571198 -0.097567536 0.18052259
000340 a5 84 96 3d f2 c6 59 be 7b 91 d0 3d bf f4 82 be
       0.07349519 -0.21267298 0.10183998 -0.2557735
000350 59 44 a7 be 48 27 38 be 83 48 01 bf 7c 39 5d 3d
       -0.32669333 -0.17983735 -0.5050127 0.0540099
000360 e6 f2 02 bf 64 0f 1b be ea 6b d5 bb 65 50 d9 be
       -0.51151884 -0.1514259 -0.0065131085 -0.4244415
000370 f7 72 1a be 3a 5c 63 3d 55 81 cf 3e 92 08 5c be
       -0.15082918 0.055507876 0.4052836 -0.21487644
000380 4a c5 c9 be 53 0e c8 be 8a 96 0f c0 5d 11 12 be
       -0.39408332 -0.3907343 -2.2435632 -0.14264436
000390 68 15 a9 3d ef 4e 64 3d 29 0a 26 3d 7a 94 37 3e
       0.08256036 0.05573934 0.040537033 0.17927733
0003a0 c0 1a f0 3d 06 20 f1 3d 29 8f 04 3d 46 7b e0 3d
       0.11723852 0.11773686 0.03236309 0.109610125
0003b0 3d 01 9a 3d f7 a7 86 bd 39 29 f5 3c 83 91 9c 3d
       0.075197674 -0.065750055 0.029926883 0.07644942
0003c0 55 04 3a 3e 12 e0 d9 3e d3 84 68 bd dd 2d 2f 3d
       0.18165715 0.42553765 -0.056767296 0.042768348
0003d0 23 e0 84 3d eb 22 5d 3c ca 29 e4 bb 10 21 a4 bd
       0.06488063 0.013497095 -0.0069629895 -0.08014119
0003e0 c3 92 2f bd 58 11 1a bc dd 50 71 bd ae 9d f2 ba
       -0.042864572 -0.009403549 -0.058915008 -0.0018510127
0003f0 bb 3a 3f 3e d6 99 03 be 95 fa 93 3d 2d bf 49 bd
       0.18674748 -0.12851653 0.07225529 -0.049254585

hidden_layers.0.bias f4 [64]
000000 41 ad bc 3d 6f 58 a2 bd 5e 13 f8 bd 6e fa 4f bd
       0.09212733 -0.079270236 -0.12113069 -0.050775938
000010 2e ae 6e 3d c9 2a 00 be 9c 44 14 bd bf e6 ed 3c
       0.05827158 -0.12516321 -0.036198243 0.029040692
000020 20 c3 21 3d 7d fa 54 be d8 a5 cc 3d ab c6 26 3e
       0.039492726 -0.20798679 0.0999257 0.16286723
000030 75 6b cc 3d 44 63 a9 bd b4 98 ea bd 6c 80 3f be
       0.09981433 -0.082708865 -0.11454907 -0.18701333
000040 e9 77 b6 bc af 5a 22 3c 74 49 96 bd 1e b2 6c be
       -0.022273974 0.009909316 -0.07338229 -0.23114821
000050 77 18 16 be 4f 77 3b bd de be 02 bd f5 26 09 be
       -0.1465777 -0.04576808 -0.031920306 -0.13393767
000060 c8 5e de bd 2e 38 f3 bc a4 72 ea bd 73 7f 48 be
       -0.10857922 -0.029689875 -0.11447647 -0.19579868
000070 ae 70 2a 3e 34 81 22 3e 8d d5 27 be c0 3d 6a be
       0.16644546 0.158696 -0.16390057 -0.22875118
000080 66 e4 d9 3d 91 df 9d bc c0 03 6e be 23 33 71 3d
       0.10639267 -0.019271644 -0.23243618 0.05888666
000090 8f 3c 25 be 42 c8 09 3d ba f7 03 be 35 7f 77 be
       -0.16136383 0.033638246 -0.12887469 -0.2416962
0000a0 17 b5 5f be ec 94 20 be e1 fb 89 bd a9 86 19 3e
       -0.21846424 -0.15681809 -0.06737495 0.14992775
0000b0 ff f7 a7 bc 8e a8 e7 bd 9f 2f ce 3b 0a 69 8a be
       -0.020503996 -0.11311446 0.006292298 -0.27033263
0000c0 34 fc 8d 3c 3e ad 99 3d 05 56 60 be 09 09 10 be
       0.017332174 0.075037464 -0.21907814 -0.14065947
0000d0 51 25 03 be a7 6a 4f bd 13 6c 93 be d3 57 4f 3c
       -0.12807204 -0.05063882 -0.28793392 0.012655216
0000e0 f7 95 0e 3d ca cd 82 bd 2f ef 8a bd 20 cf 4e be
       0.034810986 -0.063869074 -0.06783902 -0.201962
0000f0 f6 86 be 3d fd c5 bf bd c7 5e 95 3d 30 77 e2 bd
       0.093030855 -0.09363935 0.07293468 -0.110578895

hidden_layers.1.weight f4 [64, 64]
000000 37 f0 f0 3c b9 d3 53 3c 1c 59 a4 bd 48 43 c2 be
       0.029411418 0.012928897 -0.08024809 -0.37941957
000010 5f 98 b0 3e 99 2e 89 3c 5c 50 87 be b2 b7 a5 3e
       0.3449125 0.016745852 -0.26428497 0.3236671
000020 6d 6b bc 3e 72 ff 14 3e 6e 41 4e 3e 0a 77 29 be
       0.3680071 0.1455057 0.20142147 -0.16549316
000030 87 e8 9c be c3 54 65 be 8e 40 02 3e af 60 dd bd
       -0.30646154 -0.22395615 0.12719938 -0.108094566
000040 5f 09 7a 3e 86 72 39 3e ef 8e 0d bf f3 ba 14 bf
       0.24417637 0.18110093 -0.55296224 -0.5809776
000050 27 7d 90 be 2b e9 b2 be 9d db db bc 3a 1a 25 bf
       -0.28220484 -0.34943518 -0.026838118 -0.64493144
000060 23 1d 1d ba 3e 0b a6 be 99 bb 44 be 10 85 0f bd
       -0.00059934164 -0.32430452 -0.19212188 -0.035039008
000070 9c 9f 82 be b3 5f b6 b9 2b 9d 5f be f6 1e 9c 3b
       -0.25512397 -0.00034785047 -0.21837299 0.004764433
000080 51 9e 67 3e 34 be e8 bb 1a c9 9b bd 1d 23 a9 be
       0.22618987 -0.007102752 -0.076067165 -0.33034602
000090 95 df b1 be 1a ea 90 3c 6c 8e 6c be 28 93 02 bf
       -0.34740892 0.017689753 -0.23101205 -0.5100579
0000a0 fe 8b 50 bc 35 ed 8b bd 12 bb 08 be e1 f9 06 be
       -0.012728689 -0.06832353 -0.13352612 -0.13181259
0000b0 04 98 11 bf 06 79 5c be 88 9a 47 3d f1 a1 5d 3e
       -0.5687258 -0.21530542 0.048731357 0.21643807
0000c0 78 46 d3 3d 46 f8 85 3d f9 70 a3 3e 07 8c 83 be
       0.10316175 0.06541495 0.3192213 -0.2569277
0000d0 e9 78 56 3d 7e da c4 3d 41 de b7 be cd b9 5f bd
       0.052361403 0.096119866 -0.35911754 -0.054620553
0000e0 23 e2 39 3d 42 10 80 3e 4e 0a b2 be 57 4e b2 3d
       0.045381676 0.25012404 -0.34773487 0.087063484
0000f0 b8 12 55 3d 3f 0e 72 be 1f e5 22 be 14 6b d8 3d
       0.052019805 -0.23638247 -0.15907715 0.105672985
000100 4e 39 c6 be af 86 57 be 57 ea 47 bd ff 6e 5a be
       -0.38715595 -0.21047471 -0.04880747 -0.21331404
000110 9b 83 bf 3c 5d d1 07 3d 91 ce 53 3d 6a 32 17 be
       0.023378184 0.03315865 0.05171067 -0.14765325
000120 20 ca 4b be 6b ef 24 3e 45 0f 98 be 93 3d 07 bc
       -0.19901323 0.16106956 -0.2969915 -0.0082544265
000130 e0 3e 0c 3e a5 76 41 3d 2d 85 4e 3d 6d 79 18 3e
       0.1369586 0.04723229 0.050419975 0.1489007
000140 a3 8f 04 3d 67 b0 27 3e ba 1b 46 be 82 15 73 3d
       0.032363545 0.16375886 -0.19346514 0.059346683
000150 e0 22 72 3e 0c fe 39 3d e2 f2 8a bd 0f 67 7a bc
       0.23646116 0.045408294 -0.067846075 -0.01528336
000160 f4 20 64 bd 09 17 48 bd 07 9b 6f be fe 37 fa 3d
       -0.05569549 -0.048850093 -0.23398982 0.12217711
000170 08 d8 76 3e f5 69 ac 3e 3c fa e1 3c 03 13 e9 3d
       0.24105847 0.3367459 0.027585141 0.11380579
000180 b3 06 ca bd 50 bb 45 be d1 bd 1f be 61 3e 0b bd
       -0.09864559 -0.19309735 -0.15599753 -0.033995036
000190 a8 e7 0f be 19 a3 ec bd 1c b5 8d be 1c 8d 70 bd
       -0.14053214 -0.11554546 -0.27677238 -0.058728322
0001a0 b0 af 4e bd 50 e2 e2 be a1 d2 13 3e 37 49 61 bd
       -0.050460517 -0.44313288 0.14435817 -0.055001464
0001b0 6f 19 bb be ac d9 81 3d 22 8d af 3c 52 d7 85 bb
       -0.36542842 0.06340346 0.021429602 -0.004084506
0001c0 f2 0c 5e be 1c 01 78 be 1a 01 a7 bb 17 3a d5 bd
       -0.21684626 -0.24219173 -0.005096567 -0.104114704
0001d0 d7 56 6e be fb 24 5b bc 1c 25 45 be 89 ea 32 3e
       -0.23275314 -0.013375516 -0.19252437 0.1747228
0001e0 7a 8c 77 be a9 0f 11 be 14 81 2c bd 2b 93 b1 bd
       -0.24174681 -0.1416613 -0.042115286 -0.08670648
0001f0 6f 80 9a be 3d 84 88 3d 43 5d 79 be a6 e4 7d 3d
       -0.30176112 0.066658475 -0.24351983 0.061985634
000200 19 c0 26 be ca 8f b3 bd f7 bb 6f 3e 0e 1d 7d be
       -0.16284217 -0.0876766 0.23411547 -0.24718115
000210 10 74 71 3e 20 e2 2a 3c cd 91 48 be c5 2d 0b bd
       0.2357943 0.010429889 -0.19586869 -0.033979196
000220 f5 85 53 be 23 f5 7a be ef 62 bc bd 6a 4e 0f be
       -0.2065657 -0.24507575 -0.091985576 -0.13994756
000230 c4 b3 d0 bd c9 b1 31 3d a4 d5 a2 3e 77 ac 11 be
       -0.101905376 0.04338244 0.3180362 -0.14225946
000240 78 19 49 3d 1c 2b 89 3d c9 18 aa bd 24 a9 11 3d
       0.049096555 0.066976756 -0.08305509 0.035561696
000250 5e 40 0c bc 13 82 43 be 80 7e 03 be d0 ee 1e be
       -0.008560268 -0.19092588 -0.12841225 -0.15520787
000260 c7 d4 9a be be 30 a6 bd 19 0b d9 bd 67 bd 94 3b
       -0.3024046 -0.081147656 -0.1059782 0.00453918
000270 b1 af 0e be 06 81 dc bb 5d 90 1e be e3 18 a6 bc
       -0.13934208 -0.006729248 -0.15484758 -0.020275539
000280 d2 0d 3e bc 25 53 f2 bd a5 d4 92 3d c4 94 b4 3d
       -0.011599975 -0.11832265 0.07169465 0.08817437
000290 52 af 6f bb 0c c3 9f 3d 57 99 c6 3c 2e 28 df bb
       -0.0036573005 0.07800874 0.02424304 -0.0068102097
0002a0 18 b7 13 be e6 99 8c bd 4c 7e f4 3d 3b b0 b3 bd
       -0.14425313 -0.06865291 0.11938152 -0.08773848
0002b0 3f bd 8e 3e 83 19 d6 bd 5f 35 81 3d 08 f7 70 be
       0.27878758 -0.10454085 0.06309008 -0.23531735
0002c0 04 e4 0f be 1f 94 9b be 20 e1 d4 bd 4c 8f bc bd
       -0.14051825 -0.30386445 -0.10394502 -0.09207019
0002d0 da eb 4c bc 82 64 0e bc 17 9e 87 be b4 2d ac bd
       -0.012507403 -0.008690955 -0.264878 -0.08407155
0002e0 7a 2f 11 bb eb cb b0 3d 41 92 34 be d4 24 19 be
       -0.0022153542 0.08632644 -0.17633916 -0.14955455
0002f0 c8 4c 68 bd 4c cf ed 3c 68 08 b9 3d 21 31 61 bd
       -0.05671385 0.02902951 0.090348065 -0.054978494
000300 e4 02 cf be 11 56 a2 3d 5c 51 ae 3d 38 ee 48 be
       -0.40431893 0.07926572 0.08511612 -0.19622123
000310 15 c5 df 3d 01 55 08 be 0d b3 42 bc 70 2b 23 3d
       0.10926262 -0.13313676 -0.011883509 0.039836347
000320 84 43 33 be 05 df a7 be ce ee 2c 3e 1c af 14 3e
       -0.17506224 -0.32787338 0.16887972 0.14519924
000330 ae a0 03 be e3 bd e2 be e4 fa aa 3d 44 30 d2 3d
       -0.12854263 -0.44285497 0.08348635 0.10263112
000340 8d 79 43 3e 3f 3d 2e bd 49 46 46 bd dc fb 8e 3d
       0.19089337 -0.042538878 -0.048406873 0.06981632
000350 b4 bb d1 bc 5a 37 5e bd 7e bc c5 be cf 90 a3 be
       -0.0256022 -0.054252006 -0.3862037 -0.31946418
000360 c9 2c 2b 3c 77 73 c7 be bd 74 03 be 3f eb a5 be
       0.010447689 -0.3895528 -0.12837501 -0.3240604
000370 10 a9 fb bd d4 4e a5 bd 61 60 35 be a6 37 3d 3e
       -0.122881055 -0.08071676 -0.17712547 0.1847826
000380 98 c2 34 be 93 72 f9 3d 8c 88 a0 be 9d bc bd bd
       -0.17652357 0.121800564 -0.31354177 -0.09264491
000390 66 8d 5f bd e7 8d b9 be cb 6f 80 3e 25 8e 0e be
       -0.054578207 -0.36241075 0.2508529 -0.13921411
0003a0 9a 70 27 be 10 dc 5e be 56 95 0a be b3 ae f3 3c
       -0.16351548 -0.21763635 -0.1353353 0.029746389
0003b0 49 d1 c5 bd 35 29 cd bd 45 7e c9 be 3a 63 62 be
       -0.096590586 -0.10017625 -0.39354149 -0.22108164
0003c0 75 66 6c 3d 2b 54 f6 bd b2 47 7d be 3d 7c 77 be
       0.0577149 -0.120277725 -0.24734381 -0.24168487
0003d0 1e 5a ea bb 66 e3 68 3b de 15 d0 be b8 68 d8 be
       -0.007151856 0.003553593 -0.40641683 -0.42267394
0003e0 ab b0 e6 3c 91 2e f2 3a cf 1c be bd 33 4e 09 bf
       0.028160414 0.0018477013 -0.092828386 -0.5363495
0003f0 99 94 65 bd 06 e9 1a bf d2 69 e9 bd 41 a9 d7 3c
       -0.056049917 -0.60511816 -0.11397137 0.026325824

hidden_layers.1.bias f4 [64]
000000 75 43 e1 bd b0 cc 0e bb 18 45 a1 bd bd c0 61 be
       -0.109991945 -0.0021789484 -0.07874507 -0.2204618
000010 20 c1 1a 3e 83 be 6d 3c d1 a1 ab bd 19 4d 8b bd
       0.15112734 0.014510754 -0.083804734 -0.068018146
000020 fb 89 4a 3e d9 07 30 be f4 5d 17 3e 08 25 87 bd
       0.19779198 -0.17190494 0.14781934 -0.0659886
000030 f1 fd af 3c ad 2a 27 be 6a c7 3b bd c4 ee d2 3d
       0.021483393 -0.16324873 -0.045844473 0.10299447
000040 22 72 32 be a8 a5 88 3d 24 0b eb 3c 35 5f 62 3e
       -0.1742635 0.066722214 0.028691836 0.22106631
000050 7b e5 2b 3c 3f c9 ea bb 4c 77 8f bc 7e 2e 5b be
       0.010491724 -0.0071651037 -0.01751294 -0.21404454
000060 3d 81 fd bc df ce 1a be 0f fa 2c be ea 33 55 bd
       -0.030945415 -0.15117978 -0.16892265 -0.052051462
000070 44 24 dd bc 5d 09 ff bd a9 b2 35 be 5c 0a 55 be
       -0.026994832 -0.12452958 -0.17743935 -0.20804733
000080 cf 4f 0a 3e 23 ad a8 bd c5 5d 1a bd 20 24 f0 bc
       0.13507007 -0.08236148 -0.03768708 -0.0293141
000090 dd 28 3b be 31 1a 3d 3e 6e f6 1b 3e d0 6c 7d be
       -0.18277307 0.18467022 0.15230724 -0.2474854
0000a0 0c d3 c4 3d c0 18 d2 bd 46 c9 e3 bb 29 ca e9 3d
       0.096105665 -0.10258627 -0.006951484 0.11415512
0000b0 7f ad 45 be 34 55 56 3a ad 4f 88 3d f9 fc 07 3e
       -0.19304465 0.00081761484 0.06655822 0.13280095
0000c0 66 3c 40 be c3 b9 05 be 21 7c 0b be a6 29 4b 3d
       -0.1877304 -0.13059144 -0.1362157 0.049600266
0000d0 05 6a 66 be a5 37 a0 bc 52 13 a5 bc 8d bc 73 be
       -0.2250138 -0.019557783 -0.020150814 -0.23802395
0000e0 92 89 46 be e9 38 77 3b aa 67 24 be 24 61 a2 3d
       -0.19388416 0.003772313 -0.1605517 0.07928684
0000f0 cb 67 c9 bc 48 a5 96 3d 41 24 9b be c6 bd 3e be
       -0.024585625 0.07355744 -0.30301097 -0.1862708

output.weight f4 [4, 64]
000000 47 88 e1 3b 8f cf 5b 3e 68 9f e4 bd 2a 42 d7 3a
       0.0068827006 0.21465896 -0.11163217 0.0016422917
000010 1d 3e 19 3e 6a 9c 44 3e 7e cb a1 be 98 f8 1f 3e
       0.149651 0.19200292 -0.31600565 0.15622175
000020 00 77 78 3e c9 b2 85 3c ad 9b 19 3e c5 50 36 3c
       0.24264145 0.016320603 0.15000792 0.011127655
000030 86 47 d8 be ce fd 22 be c9 e1 15 3d 02 dd 10 3e
       -0.42242068 -0.15917131 0.03659228 0.14146808
000040 e2 2c 5a be fd 39 1c 3e c5 97 d2 3d d4 9a 42 3e
       -0.21306184 0.15256496 0.10282854 0.19004375
000050 bc 94 27 be 78 4d 6d 3e e3 22 7f bd 1b df 01 be
       -0.16365331 0.23174083 -0.06228913 -0.12682764
000060 a9 52 19 bb 52 a1 22 3d 97 0c 37 3d e4 33 a2 bc
       -0.0023395217 0.03970463 0.04468974 -0.019800134
000070 67 11 5d 3e eb f2 ee bd 1b cb 84 bd d5 54 87 bd
       0.2158867 -0.11667427 -0.06484052 -0.06607977
000080 7b 16 27 3e 76 c9 40 3e 2b ae 45 3d e0 b9 2f be
       0.1631717 0.18826851 0.048261803 -0.1716075
000090 54 36 a2 bd b8 5e 00 3e fe 04 df 3d 0d 2f 7a bd
       -0.079205185 0.12536132 0.10889624 -0.061080027
0000a0 9f fa 87 3e a0 d0 55 3e d8 4a 84 3d a7 19 11 be
       0.26558396 0.20880365 0.06459588 -0.14169942
0000b0 a9 40 9a 3c 8d 90 2f 3e cb e1 1c 3e bf 97 1d 3e
       0.01882966 0.17144985 0.15320508 0.15389918
0000c0 d3 02 80 be aa 87 b3 3d 29 43 6b bd 61 3d 30 3e
       -0.25002155 0.0876611 -0.057437096 0.17210914
0000d0 07 87 60 be 58 cf 75 3e 75 54 ca bd a3 9e c5 bd
       -0.21926509 0.24004877 -0.0987939 -0.09649398
0000e0 c3 ab e6 be a5 86 1a 3d c4 6c 26 bd c0 c4 f4 3d
       -0.4505292 0.037726063 -0.04063107 0.119515896
0000f0 8f 1d 91 bd 88 ae 1d 3e ff cc 5d be 14 a8 7a bd
       -0.07085716 0.1539861 -0.21660231 -0.061195448
000100 9c d1 06 3d be a0 1b 3e 97 5c 3d be e9 66 cb bc
       0.032914743 0.15198037 -0.18492351 -0.024829345
000110 cf 06 af 3d 74 c9 82 3e 1b 08 a3 3c 80 ad 96 3e
       0.085462205 0.25544322 0.019901326 0.29429245
000120 d6 4f 7c 3e 7b b1 83 3d 2d 92 58 3d 82 48 57 3e
       0.2463983 0.06430336 0.05287378 0.21023753
000130 d5 a8 ed bd 59 e5 03 be e9 5d 12 3e 5e 49 11 3e
       -0.11604468 -0.12880458 0.14293636 0.14188144
000140 6e 6c e8 bc 9d ca e8 3d 26 01 da 3d 5c ca 0b 3e
       -0.028372016 0.113667704 0.1064475 0.13651413
000150 c5 bf 46 bd ca 09 2f 3e 68 d1 6d bc 6f cf 11 bc
       -0.04852273 0.17093578 -0.014515258 -0.008899554
000160 89 41 ac bd 84 3c 7d 3e a4 dc a1 bd 45 5d d6 3d
       -0.08410937 0.24730116 -0.07903412 0.104670085
000170 81 d9 5c 3e a5 b5 1b bd 1f 5d cb 3d de 24 2e bd
       0.21567346 -0.038015027 0.09929871 -0.042515628
000180 3a f0 06 3e be 8f fe 3d 33 87 08 bd 03 4c 32 3d
       0.13177577 0.124297604 -0.03333206 0.04352952
000190 6c 5b 64 bd 11 fb fc 3d 86 88 3d 3e 69 66 af bd
       -0.05575125 0.123525746 0.18509111 -0.08564455
0001a0 a9 2b 4f 3d 89 1b 8f 3e bc f3 8c 3d 26 0e e7 bd
       0.050578747 0.27950695 0.06882426 -0.112819955
0001b0 88 f0 dd bd 13 64 11 3e 86 4c 80 3e f1 94 cd 3d
       -0.10836893 0.14198332 0.25058383 0.10038174
0001c0 0f 5f d7 3c d1 fd 07 be d7 dd 84 be c6 99 46 3e
       0.026290445 -0.13280417 -0.259505 0.19394597
0001d0 5a e5 96 bc 48 6d e1 3d ab 2a ff bd 75 a4 0f bd
       -0.01841991 0.11007172 -0.1245931 -0.035068948
0001e0 20 a0 a9 bd ac 7a 3a 3e 3d 63 c9 3c 68 c6 a0 3d
       -0.082824945 0.18210858 0.024583453 0.07850343
0001f0 c5 6e 31 bd b2 78 9b 3d b7 0f 86 bd 4f 56 d2 3c
       -0.04331853 0.0759138 -0.06545966 0.02567592
000200 1b cc ac be a4 70 5b 3d 1d b3 24 bd cb d2 85 3d
       -0.3374947 0.05357422 -0.04020988 0.06534346
000210 f1 4e a1 3d 9c 4b 94 3e 4d 4e 4b be 76 c2 94 3e
       0.07876385 0.28963935 -0.19854088 0.29054612
000220 69 02 c4 bd 04 44 e4 be 1f 1f 84 3d d5 9a 06 bd
       -0.09570772 -0.44583142 0.064512484 -0.032862503
000230 03 5d 21 bd 3a 81 c8 3d f9 37 8c 3e bd f1 5b 3e
       -0.039395344 0.09790273 0.27386454 0.21478935
000240 57 26 b9 be 82 0f 80 3d b5 73 53 3e a7 50 d4 3d
       -0.36162063 0.06252958 0.20649607 0.10366946
000250 ea c4 24 bd 65 94 39 3e 72 b9 67 be 21 fa 81 3e
       -0.040226854 0.18123014 -0.22629336 0.25386146
000260 49 7c 58 be 86 c6 13 be 06 eb 82 3d 36 08 88 3e
       -0.21141161 -0.144312 0.063924834 0.26568764
000270 4f 12 0f bd 96 b2 f2 3c 22 6b 58 3d 11 84 a0 3e
       -0.03492957 0.029626172 0.052836545 0.3135076
000280 d1 c9 88 3d fd 06 47 3e b2 cd dd be 23 c1 94 3e
       0.066791184 0.1943626 -0.43320996 0.29053602
000290 e0 fa 93 be 91 2c b0 3d 61 74 06 3e d9 59 87 3d
       -0.2890234 0.0860225 0.13130333 0.06608934
0002a0 67 eb 7e 3e f4 d1 87 3b 64 b0 0d be 6c ee 4e be
       0.24894486 0.0041449014 -0.13836819 -0.20208138
0002b0 ee 73 e0 be 3f 28 58 3e 82 75 c8 bd 91 98 01 3e
       -0.43838447 0.21109103 -0.09788038 0.12655856
0002c0 71 79 95 3d cf cb 23 be e1 14 ae be c2 43 9e 3e
       0.07298554 -0.15995716 -0.34000304 0.3091107
0002d0 67 0a da 3c 43 51 37 3e fc a3 67 be 7b 8f 3b be
       0.026616288 0.17902093 -0.22621149 -0.18316452
0002e0 93 70 46 be 6c 46 22 3c f2 93 7f 3d bc 24 06 3e
       -0.19378881 0.009904485 0.06239695 0.1309995
0002f0 6a 79 0f bf 9f 3b ec 3d b8 99 89 3d ec 02 90 bd
       -0.5604464 0.11534809 0.06718773 -0.07031807
000300 4d 4d 34 3e 27 b0 e6 3c ac 9e 4c be e5 ba d1 be
       0.17607613 0.028160168 -0.19982404 -0.40962902
000310 4e ac cf 3d 4a 02 27 bd 00 5f ba bd e7 77 e9 3c
       0.101402864 -0.040773667 -0.09100151 0.028499557
000320 7b 4a 61 bc 5c 32 2a be 98 d4 c1 3d 92 7a 64 3e
       -0.013750668 -0.16620773 0.09464377 0.22312382
000330 4f e5 6b bd ab 13 d5 be 8a 72 23 be 9c 77 6b 3d
       -0.057591733 -0.41616568 -0.15961662 0.057487115
000340 19 59 9f be ef c1 71 3e 5f b2 f6 3d 39 17 89 bc
       -0.31122664 0.23609136 0.1204574 -0.016734706
000350 03 dd 81 be 45 5d 2d 3e a8 56 b2 3e 4d 84 f7 bd
       -0.2536393 0.16930111 0.34831738 -0.12085781
000360 0e 3a ca be 3e ab a6 3e e4 bd 6f 3b 04 e8 fd 3d
       -0.39497417 0.32552522 0.003658169 0.12397769
000370 2f 28 6b 3e 04 c0 c3 be 3d ee e6 3e 40 5c 5c bc
       0.22964548 -0.38232434 0.45103636 -0.0134497285
000380 19 82 a8 3d b7 a3 82 be 3d 6a c5 3d 75 20 0f 3e
       0.08227939 -0.2551553 0.09639404 0.13977225
000390 93 cb 56 bd c1 34 f8 3d a0 77 f5 3d 96 16 77 bd
       -0.052440237 0.12119437 0.11985707 -0.060324274
0003a0 77 16 23 3e 04 cc 32 3e 18 b9 74 3d 81 81 9f bd
       0.15926538 0.17460638 0.05974683 -0.07788373
0003b0 36 91 0b bd e4 05 41 3e 1a f3 9b 3e 85 75 7f 3d
       -0.03407403 0.18849903 0.3045891 0.062367935
0003c0 94 07 ad 3c 6a a1 18 3e 48 fd d5 be d6 ca 0c 3e
       0.021121778 0.14905325 -0.417948 0.13749251
0003d0 a6 f6 ab 3e fa 7c 4b 3d 55 2f 62 be 40 80 1b 3e
       0.33586615 0.049679734 -0.22088368 0.15185642
0003e0 b4 a4 9d be 49 3f 74 3e 81 36 0e 3d 20 2a 0b 3e
       -0.3078972 0.23852266 0.034719948 0.13590288
0003f0 e2 64 3b be ac c2 ab 3e 97 d9 ae be 43 8e 38 be
       -0.18300202 0.3354696 -0.34150383 -0.18023019

output.bias f4 [4]
000000 c3 3b 23 3f b8 72 20 3f dc b6 26 3f c1 f1 28 3f
       0.63763064 0.62675047 0.6512277 0.6599389

exp_avg f4 [64, 37]
000000 0d 17 05 39 38 7e 2a b9 05 bf c3 b8 be ba 03 37
       0.00012692455 -0.00016259484 -9.333905e-05 7.851688e-06
000010 df ea d8 38 f7 ee 9b b0 f3 eb 6b b9 d8 8f cd 36
       0.00010343431 -1.1345652e-09 -0.00022499244 6.1262217e-06
000020 7e e9 cc 38 48 e5 24 b8 bd 20 3f b8 dd ca 5e 38
       9.770969e-05 -3.931418e-05 -4.556844e-05 5.3117856e-05
000030 99 6c d3 b8 de f9 e9 b7 5e e8 80 b8 08 6f 16 b8
       -0.00010081492 -2.7892118e-05 -6.1467974e-05 -3.5866193e-05
000040 bc 63 53 b9 dc ac 42 b8 b3 9f 2a 39 24 05 2b b8
       -0.00020159682 -4.6414192e-05 0.00016271956 -4.0774365e-05
000050 34 c3 7b b8 0e 3e 84 b8 32 f1 cc b3 fb 9b 07 36
       -6.002486e-05 -6.305809e-05 -9.5433634e-08 2.020736e-06
000060 12 7f 47 b8 2d 88 db 38 5c 15 61 b9 9a 58 0c b6
       -4.756364e-05 0.000104680985 -0.00021465629 -2.0913199e-06
000070 9f 85 18 b7 45 6a fa b7 b8 33 ad b7 65 46 85 b5
       -9.091017e-06 -2.9851808e-05 -2.064729e-05 -9.92976e-07
000080 8e c7 a5 b8 cc b1 ab b7 5f 2a db 37 19 ca 84 38
       -7.904983e-05 -2.0467582e-05 2.6126565e-05 6.331894e-05
000090 5c ac 93 ba c9 f0 57 b7 d4 46 93 37 ab 1c 8e b9
       -0.0011266577 -1.2871061e-05 1.7556747e-05 -0.0002710571
0000a0 f0 9c cd 37 fe 1f f2 37 35 15 cf b8 87 ce 2c 35
       2.4510984e-05 2.8863546e-05 -9.874479e-05 6.437553e-07
0000b0 cd c5 16 b9 1c 6d f5 32 e4 9d 02 37 a3 a5 04 b7
       -0.00014378801 2.8571371e-08 7.785366e-06 -7.906378e-06
0000c0 3d 8f 9a 38 11 4f 98 b9 6b d8 8f b7 69 f3 44 b8
       7.3699724e-05 -0.00029050608 -1.7147706e-05 -4.6956735e-05
0000d0 98 68 9d b8 52 63 79 37 56 f7 3d b9 cf 7f 06 b5
       -7.5058255e-05 1.4864681e-05 -0.00018116584 -5.0104876e-07
0000e0 e8 ea 11 37 05 79 06 b7 4e bb 4e b9 36 6b d6 b7
       8.697367e-06 -8.0151995e-06 -0.00019715467 -2.5560712e-05
0000f0 5e ba 3a b7 8b af fc b8 7c e3 da b8 24 ea dd 35
       -1.1129856e-05 -0.00012048994 -0.00010437422 1.6533927e-06
000100 02 e6 11 b9 37 a7 cb 0e d5 77 5d 37 df 9e ab b9
       -0.00013913962 5.0204386e-30 1.3200527e-05 -0.0003273403
000110 6e eb 97 37 cb 48 8d 38 2a 05 19 00 25 e4 dc b8
       1.8110233e-05 6.736963e-05 2.29774e-39 -0.00010532913
000120 eb 32 35 b9 6e 5a 09 bb 5a f2 f4 38 8f 60 96 b8
       -0.00017280474 -0.0020958441 0.00011679968 -7.170543e-05
000130 ca dd b3 b6 04 00 00 00 ea 93 a4 38 9b 82 8e 37
       -5.3604354e-06 6e-45 7.8476805e-05 1.6988537e-05
000140 fb 20 5c b8 97 45 ac b5 da 74 a0 38 e0 80 01 37
       -5.2482803e-05 -1.2835252e-06 7.65116e-05 7.719005e-06
000150 ea 22 03 37 0d d3 05 38 ed ad 13 b4 14 bf 1f 34
       7.8163375e-06 3.1906227e-05 -1.3753716e-07 1.4877543e-07
000160 d4 8a ae 37 66 ff c0 22 46 e2 2c b8 cd 56 0c 31
       2.0807063e-05 5.2312118e-18 -4.121873e-05 2.0422022e-09
000170 f7 c3 a9 38 de e7 86 37 0c 7c 24 37 13 2d 06 38
       8.095049e-05 1.6082016e-05 9.804044e-06 3.199007e-05
000180 13 96 ed b5 ed c4 9b b4 9a e9 e9 37 d8 ee 9e 38
       -1.7701553e-06 -2.9014282e-07 2.7884544e-05 7.578515e-05
000190 a3 14 17 b8 f6 0f ff 1a 05 cb 04 b3 ff ae 0e 38
       -3.6020425e-05 1.05491314e-22 -3.091829e-08 3.4018416e-05
0001a0 39 40 cc 36 61 1f 0d 38 6b 6c e1 2f 04 00 00 00
       6.0871503e-06 3.3646244e-05 4.1004297e-10 6e-45
0001b0 84 f3 34 38 4d 9d 33 38 04 ff 78 ba c3 e0 38 3a
       4.3142136e-05 4.2823423e-05 -0.00094984495 0.0007052535
0001c0 6b 48 3a 39 fe c1 ba 39 81 f9 03 39 35 2d 44 39
       0.0001776532 0.0003562122 0.00012586081 0.00018708858
0001d0 f6 0c 5d 39 3a 0d ac 3a 24 f2 f2 b9 48 db 9f 39
       0.0002108103 0.00131265 -0.00046338246 0.0003049022
0001e0 7f 0f 30 3a d8 25 f2 39 e0 10 c5 b9 09 78 c8 3a
       0.0006716176 0.00046186033 -0.0003758734 0.0015294562
0001f0 a1 50 83 b9 f4 72 da 39 41 19 e5 37 40 88 56 39
       -0.0002504634 0.00041665847 2.7310687e-05 0.00020459387
000200 b2 6e a4 3a f7 af fe b8 71 11 d5 39 7e 79 a7 3a
       0.0012545197 -0.0001214444 0.0004063952 0.0012777296
000210 9e b0 ff b2 4b cb 25 b8 d1 f7 04 39 b1 70 55 39
       -2.9766223e-08 -3.9528397e-05 0.0001268082 0.00020355244
000220 50 c8 99 3a f1 b1 88 3a 0c 91 e9 b9 72 b3 d4 b9
       0.0011732671 0.0010429007 -0.00044549291 -0.00040569488
000230 04 e0 74 3a d4 f4 9c 3a cb ad dc 39 bf 74 4f b9
       0.0009341242 0.001197482 0.00042091156 -0.0001978455
000240 f7 11 69 b8 39 3f d8 39 55 a7 63 39 cd fb 15 bc
       -5.556826e-05 0.00041245835 0.00021710743 -0.009154272
000250 da b3 94 b9 49 47 4b b7 33 5c ea 35 aa 3c 46 38
       -0.0002836276 -1.211634e-05 1.7461192e-06 4.7263376e-05
000260 a5 6b 65 b8 5a 41 d0 b7 41 21 64 b9 d0 75 06 b6
       -5.4698106e-05 -2.4825964e-05 -0.00021756162 -2.0036132e-06
000270 0b 40 1d b6 7c 71 4a b9 58 45 90 b8 59 42 d1 b6
       -2.34321e-06 -0.00019306497 -6.879371e-05 -6.2364093e-06
000280 ac 05 63 b9 93 e8 3b 38 e7 ec 98 b8 7d 08 2e b7
       -0.0002165052 4.4800876e-05 -7.292051e-05 -1.03731845e-05
000290 89 60 04 b7 6e 75 80 b9 38 c9 8a 37 58 73 89 b8
       -7.890289e-06 -0.00024501554 1.6544582e-05 -6.5541535e-05
0002a0 27 a9 75 b9 16 22 de b4 81 fc 49 b7 07 39 89 b0
       -0.00023428035 -4.1375523e-07 -1.2039324e-05 -9.98427e-10
0002b0 54 1a c1 b8 49 70 9c b9 91 da 22 b3 dd e5 15 37
       -9.207861e-05 -0.00029838298 -3.791735e-08 8.934611e-06
0002c0 65 50 33 38 59 6a fc b8 26 2b 63 b9 f1 4c 40 b3
       4.27518e-05 -0.00012036105 -0.00021664481 -4.477346e-08
0002d0 49 ef 28 38 dc 79 93 b8 a8 72 3a b7 ae f6 ea b7
       4.0277173e-05 -7.032204e-05 -1.1113159e-05 -2.8009843e-05
0002e0 c0 f0 df 3a b1 d2 df b8 bc 3e 19 b8 a5 6b be b5
       0.0017085299 -0.00010672713 -3.653647e-05 -1.4187432e-06
0002f0 36 08 bb b6 70 4e 80 b8 09 18 85 b8 10 72 d7 b8
       -5.57399e-06 -6.118126e-05 -6.346411e-05 -0.00010273245
000300 10 47 92 35 e1 25 79 37 45 d9 3f b8 c3 98 15 b8
       1.089853e-06 1.4850376e-05 -4.5740297e-05 -3.566664e-05
000310 3e ef ff b8 ef 63 33 37 e8 a3 59 b6 67 bc 91 b8
       -0.0001220391 1.0692499e-05 -3.2430926e-06 -6.9492315e-05
000320 66 ec 72 b8 f5 d5 be b8 93 d3 b3 b5 4c 3b cb b0
       -5.791746e-05 -9.0997586e-05 -1.3398115e-06 -1.4787047e-09
000330 c1 ad 36 b8 69 d5 21 b9 8f 20 ce b5 5d 0e 47 b8
       -4.3554002e-05 -0.00015433658 -1.5357672e-06 -4.7458674e-05
000340 86 9c 5e 38 4d 5e cd b8 7e e8 8a b8 6e 9c 99 b8
       5.30747e-05 -9.7927266e-05 -6.623658e-05 -7.324746e-05
000350 3b 80 5a b5 a9 12 27 b7 7a bf 21 35 32 83 98 b9
       -8.139793e-07 -9.95832e-06 6.025581e-07 -0.00029089447
000360 bb 68 eb 34 57 80 b6 37 09 65 f8 38 44 a7 13 b8
       4.3848362e-07 2.1755854e-05 0.00011844381 -3.520331e-05
000370 9c ca a7 38 d2 27 72 ba b5 d3 52 b8 71 7f 9c b7
       8.0009195e-05 -0.0009237501 -5.026507e-05 -1.8655994e-05
000380 a3 0f 0c 36 51 83 3b 38 09 08 1c 39 45 34 48 b9
       2.0870727e-06 4.4706572e-05 0.00014880313 -0.00019092958
000390 b9 2d ad b9 85 63 a7 3a 10 f0 4b ba 90 fb 19 3a
       -0.00033031197 0.0012770748 -0.00077796075 0.00058739726
0003a0 dd f0 01 38 56 eb 80 ba b5 af 90 3a 06 d3 35 b9
       3.0980318e-05 -0.000983576 0.0011038693 -0.00017340117
0003b0 ac 8c 44 39 ca 70 a5 ba 9a ca 3b 3a 78 9b 03 3a
       0.00018744421 -0.0012622115 0.0007163674 0.000502042
0003c0 70 d1 b5 37 f5 67 22 3a bb 11 63 3a 78 ac a5 ba
       2.1674408e-05 0.00061953004 0.0008662005 -0.0012639901
0003d0 e9 79 3f 38 43 05 ad 39 f7 ce 14 38 65 e9 b8 b9
       4.5651486e-05 0.00033001052 3.54787e-05 -0.00035269107
0003e0 10 96 41 3a cc 72 15 b9 40 23 8b b9 02 0a 15 3a
       0.0007384727 -0.00014252512 -0.0002653841 0.000568539
0003f0 7d 99 4d ba 60 0f 01 ba da 69 b1 39 fb 26 70 3a
       -0.0007843001 -0.00049232505 0.00033838936 0.0009161082

exp_avg_sq f4 [64, 37]
000000 c5 06 e2 34 e6 19 12 35 ef 05 7a 34 8c de ee 33
       4.2100706e-07 5.4426926e-07 2.3285223e-07 1.112322e-07
000010 f1 52 3d 34 68 c9 0c 34 42 60 31 35 19 30 c7 34
       1.763217e-07 1.3111787e-07 6.607771e-07 3.7101634e-07
000020 08 d3 2a 34 68 70 09 34 94 fd 03 35 2a 87 0c 35
       1.5909256e-07 1.2800012e-07 4.917031e-07 5.2350754e-07
000030 e0 62 5f 34 e4 55 93 33 dc 15 44 34 44 5c e9 34
       2.0804464e-07 6.860844e-08 1.8261875e-07 4.3466764e-07
000040 23 7d 0b 35 16 95 a7 34 cc f1 bb 33 0a e6 d3 33
       5.1963633e-07 3.1214648e-07 8.751849e-08 9.867297e-08
000050 41 95 39 34 6b 6a 16 35 b0 6e 01 35 1b 16 c1 33
       1.7283766e-07 5.6034213e-07 4.8217316e-07 8.991284e-08
000060 0f cb 3a 34 c1 93 2a 35 c1 32 0f 35 9f 3a e0 33
       1.7396472e-07 6.3544945e-07 5.334551e-07 1.0441476e-07
000070 68 36 0e 33 de 81 e3 33 e9 dc bd 34 ce fa 29 35
       3.3111434e-08 1.0594134e-07 3.5364727e-07 6.3322375e-07
000080 e7 7a 63 34 0e ee a1 33 92 d9 1c 34 80 a1 c6 35
       2.1185734e-07 7.5404486e-08 1.4607784e-07 1.4799152e-06
000090 5d e9 45 38 a9 1f bc 34 20 c5 81 34 f9 6a 31 35
       4.7185797e-05 3.5040765e-07 2.417155e-07 6.6093304e-07
0000a0 7c 6d 94 34 80 68 21 34 d0 c6 d3 34 06 54 34 32
       2.7646809e-07 1.503231e-07 3.9446468e-07 1.0496484e-08
0000b0 c6 8d 94 35 1d 92 35 30 02 01 49 32 f4 72 f5 34
       1.1068121e-06 6.6055056e-10 1.1699969e-08 4.5718446e-07
0000c0 ac 95 d2 34 a4 6b 13 35 34 e4 0e 34 36 ee 3f 34
       3.922445e-07 5.4918405e-07 1.33078e-07 1.7874922e-07
0000d0 2b 71 15 35 ee ab 47 32 63 51 81 35 3c 64 ed 32
       5.5671507e-07 1.1622417e-08 9.634936e-07 2.7636013e-08
0000e0 1c 60 c6 32 38 fa 9d 34 c9 46 01 35 aa 23 44 35
       2.309394e-08 2.9425587e-07 4.815925e-07 7.306759e-07
0000f0 ec 38 ff 32 bd 59 0f 34 f1 1a 11 35 6d 84 d9 32
       2.9711792e-08 1.335056e-07 5.4055914e-07 2.5322345e-08
000100 8e 1f 84 35 8e db 45 2f 9a 95 e7 32 66 e6 c6 34
       9.84395e-07 1.7995047e-10 2.695997e-08 3.704801e-07
000110 c2 b6 ae 34 46 7f 68 35 37 f5 aa 2f 35 8d af 33
       3.2543e-07 8.661194e-07 3.1097055e-10 8.174758e-08
000120 0e f0 53 35 45 fa ba 38 4e 1f ac 33 d7 13 6c 33
       7.895295e-07 8.9157875e-05 8.0150684e-08 5.4966076e-08
000130 fd e0 b3 30 ec 55 ef 2c 16 5e c2 32 75 6d 03 32
       1.308791e-09 6.802328e-12 2.2627358e-08 7.650091e-09
000140 8e 44 63 33 a4 dd 7c 33 6b bc ed 32 3b 74 4d 32
       5.2914906e-08 5.8874903e-08 2.7676114e-08 1.1958998e-08
000150 87 f4 b9 33 b1 12 52 33 3b 78 92 31 c4 62 aa 31
       8.659213e-08 4.8911435e-08 4.262828e-09 4.9588795e-09
000160 26 3f ea 31 79 cd ec 30 d8 a3 de 33 ca e8 c7 31
       6.8174755e-09 1.7229659e-09 1.03674836e-07 5.8181273e-09
000170 80 68 e4 32 d0 a5 df 32 e8 ce a2 33 09 bd 35 33
       2.6590214e-08 2.603602e-08 7.581349e-08 4.2314273e-08
000180 93 c3 d0 32 9c 14 39 31 cf a7 81 31 79 65 a9 32
       2.4303324e-08 2.6932758e-09 3.7734718e-09 1.9720334e-08
000190 13 97 ea 33 b3 9d 28 32 2e 7a 3f 30 2f 3c 14 33
       1.09239544e-07 9.814744e-09 6.9659023e-10 3.4513672e-08
0001a0 c3 78 37 33 f2 ff d0 33 1b d8 08 2f dd 67 2b 30
       4.271784e-08 9.732311e-08 1.2445904e-10 6.2357036e-10
0001b0 a8 f3 03 33 96 3b 37 34 2b e6 96 36 c8 5c e2 36
       3.072242e-08 1.706488e-07 4.4971434e-06 6.746126e-06
0001c0 1a 96 ea 36 3f 93 dd 36 54 ff 58 36 c6 fd a4 36
       6.9912176e-06 6.603455e-06 3.2335129e-06 4.917124e-06
0001d0 01 be d7 36 41 79 1d 37 d6 2f ac 36 8c fc 26 36
       6.4296187e-06 9.386161e-06 5.1315683e-06 2.488293e-06
0001e0 e0 a1 95 36 06 91 07 37 af 4a e8 36 a6 94 cf 36
       4.4593908e-06 8.080393e-06 6.922833e-06 6.1863857e-06
0001f0 e6 11 32 36 7d e9 82 36 fc 48 ae 36 4f 9c 15 37
       2.6534485e-06 3.9014835e-06 5.1941006e-06 8.9174855e-06
000200 9f 76 fb 36 8b c3 26 36 24 1a b3 36 2f d1 b8 37
       7.4941922e-06 2.4849749e-06 5.337659e-06 2.2031918e-05
000210 da 00 35 30 cb 98 5e 35 a0 5a a2 35 ac 35 9d 34
       6.5848627e-10 8.292379e-07 1.2096316e-06 2.928258e-07
000220 71 b3 e3 36 d5 54 0d 37 dc 1f d2 36 11 00 36 36
       6.786017e-06 8.424006e-06 6.2621966e-06 2.7120152e-06
000230 9a 54 b1 36 17 ed 8c 37 1e c4 9d 36 52 92 db 35
       5.28486e-06 1.6799704e-05 4.7017957e-06 1.6359356e-06
000240 ff 79 b6 35 7b 81 c7 35 31 77 03 38 9a 51 1f 3a
       1.3595562e-06 1.4864339e-06 3.134384e-05 0.0006077528
000250 27 4f cb 34 1f 58 0e 33 78 c7 0e 34 cd 4e 10 34
       3.7869287e-07 3.3142097e-08 1.3297347e-07 1.3439713e-07
000260 4e 96 de 33 e2 e2 6f 34 52 ab aa 33 57 1b b1 34
       1.0365021e-07 2.2341149e-07 7.947405e-08 3.2988711e-07
000270 44 37 15 33 a7 6e bf 33 57 1c 0a 34 70 f0 fc 32
       3.474203e-08 8.914258e-08 1.2862562e-07 2.9446e-08
000280 aa a6 d3 34 e1 bf 05 34 09 73 3a 33 cc 7e 97 33
       3.9423077e-07 1.2456395e-07 4.3411124e-08 7.05455e-08
000290 63 4e e0 32 d7 90 0a 35 dd ed 69 33 d9 e1 c1 33
       2.6112678e-08 5.1619776e-07 5.4465875e-08 9.028344e-08
0002a0 db ae 4a 34 69 f3 8c 33 de 5a e6 34 60 51 37 30
       1.8876328e-07 6.563534e-08 4.2906953e-07 6.6690653e-10
0002b0 05 f2 04 34 7c 0d 11 35 f9 00 99 30 f5 bc 56 33
       1.2381504e-07 5.403633e-07 1.1132492e-09 4.9997613e-08
0002c0 75 f2 d6 33 3f ed 20 33 f0 f3 5b 34 fa c2 39 32
       1.0009254e-07 3.7468677e-08 2.0484708e-07 1.081275e-08
0002d0 bb 18 92 34 1d b3 4d 34 2d 3c 14 33 a9 23 fe 34
       2.7212613e-07 1.9157274e-07 3.4513665e-08 4.7337133e-07
0002e0 95 ba 09 38 35 b0 87 34 66 e1 4a 34 16 59 bb 32
       3.2837113e-05 2.5273917e-07 1.8894715e-07 2.1810177e-08
0002f0 90 9f bb 31 60 79 c9 33 4b 60 c3 34 b7 bb ac 33
       5.4605565e-09 9.38187e-08 3.6391643e-07 8.043519e-08
000300 90 b1 2f 32 f4 54 d9 31 90 0a 1a 33 16 0b 82 34
       1.0226714e-08 6.3251893e-09 3.5865526e-08 2.4222453e-07
000310 c3 1e d1 33 f4 ba a2 33 2e 4f 71 33 e0 75 80 33
       9.7379164e-08 7.5777194e-08 5.61842e-08 5.981906e-08
000320 20 9d 82 34 88 a0 5c 34 3d 96 8f 32 31 24 03 30
       2.432871e-07 2.0547498e-07 1.6715711e-08 4.7708953e-10
000330 e0 e8 ad 33 a3 04 13 34 1b e3 a2 33 3f cf 4c 34
       8.0983e-08 1.3692129e-07 7.585023e-08 1.9074376e-07
000340 ad 98 6d 33 c5 79 8a 33 3e 4f cf 34 de bd 63 33
       5.531972e-08 6.4482755e-08 3.861441e-07 5.302524e-08
000350 ef d5 0a 32 5a 83 6f 32 26 a5 c7 32 6b 74 ba 34
       8.0813e-09 1.3941497e-08 2.324175e-08 3.4729905e-07
000360 3f e2 d2 31 0b d2 8c 33 7f 74 36 33 ee d3 2c 32
       6.1375256e-09 6.5574646e-08 4.248113e-08 1.0059905e-08
000370 9d 25 c1 34 c3 57 bb 37 66 47 0d 38 1c 25 29 33
       3.597642e-07 2.2333004e-05 3.3683515e-05 3.938213e-08
000380 cd e2 85 33 06 bb e9 34 bd 83 f0 34 ad 3e cb 36
       6.23455e-08 4.353571e-07 4.4799336e-07 6.057168e-06
000390 40 75 3f 37 47 e6 38 37 a6 b7 5f 36 ac 06 b2 36
       1.14117865e-05 1.102087e-05 3.3336487e-06 5.30559e-06
0003a0 00 b4 bf 36 48 e4 73 37 f7 d5 0a 37 0b ac 59 36
       5.7131983e-06 1.453708e-05 8.275259e-06 3.2435662e-06
0003b0 37 db fd 36 62 b0 96 37 e2 4a e1 36 53 bf bf 36
       7.5655075e-06 1.7963528e-05 6.71424e-06 5.7145166e-06
0003c0 0f 92 f3 35 83 5f 87 36 5a 9a c7 36 18 e1 65 37
       1.814742e-06 4.0344325e-06 5.948631e-06 1.3701872e-05
0003d0 ed bb 09 37 90 01 52 36 0a d5 f0 36 73 9e 08 37
       8.209591e-06 3.1293348e-06 7.1773584e-06 8.1431235e-06
0003e0 77 9a 28 37 ab 0b 25 37 8e cd 5e 36 36 de a8 36
       1.00495445e-05 9.837483e-06 3.3200226e-06 5.032659e-06
0003f0 e8 01 ef 36 ed ed 4b 37 ed e8 0b 37 af 52 7e 36
       7.122977e-06 1.2155139e-05 8.339278e-06 3.7897078e-06

exp_avg f4 [64]
000000 02 16 fe b8 ec 9b 7d b9 dd a7 26 38 20 e9 b2 3a
       -0.00012115763 -0.00024186046 3.973382e-05 0.0013649799
000010 23 5c 81 b9 21 8e 1d b9 77 9e b9 b7 69 32 9a 38
       -0.00024673445 -0.00015025634 -2.212751e-05 7.352682e-05
000020 8c 90 16 b9 03 21 85 39 43 5c a2 b9 94 6a 13 bb
       -0.00014358963 0.00025392332 -0.00030967788 -0.0022493945
000030 f1 18 33 ba 22 ca 47 3a ef ab 78 39 95 39 4d 39
       -0.00068320247 0.00076213677 0.00023715173 0.00019571774
000040 35 4d 9c b9 07 f5 1f bb 12 81 87 39 ff 7b 05 3a
       -0.00029812162 -0.0024407522 0.0002584537 0.0005092024
000050 bf d3 6f 39 ac 7c 28 36 6a 69 fd b9 51 96 62 39
       0.00022871698 2.510652e-06 -0.0004833446 0.00021609037
000060 b3 18 bf b9 10 e5 79 3a 00 80 a8 39 d1 88 17 b9
       -0.0003644876 0.0009532729 0.00032138824 -0.0001445145
000070 2c 90 8a ba a7 60 98 ba dc eb ac 3a a7 81 d8 b7
       -0.0010571531 -0.0011625484 0.001319285 -2.580958e-05
000080 c5 33 19 b9 94 ee 93 ba b9 dd 05 3b 1e bf 2a 39
       -0.00014610503 -0.0011286312 0.0020426346 0.0001628366
000090 c1 e8 15 3a 5d 9a 76 ba 89 30 2d ba 90 e5 06 38
       0.0005718582 -0.0009407157 -0.00066066586 3.2161886e-05
0000a0 76 d5 4f 37 50 f6 54 37 cf ad 00 ba f7 3e ab b9
       1.2387862e-05 1.2693534e-05 -0.0004908712 -0.00032662574
0000b0 39 fe 82 ba b5 63 64 38 af 13 2c 3a 6a ac 3f 38
       -0.0009993977 5.4452295e-05 0.00065642124 4.569852e-05
0000c0 90 3b c2 ba 16 78 72 ba 29 9f e1 b7 52 48 12 39
       -0.0014818776 -0.00092494616 -2.6896205e-05 0.00013950586
0000d0 06 ff 50 38 16 f7 d0 ba 2f c7 bc 39 0e 17 cf ba
       4.9828574e-05 -0.0015942778 0.00036006558 -0.0015799718
0000e0 9d f6 c4 39 b1 71 94 39 c7 0c ef b9 d6 25 57 b8
       0.00037567774 0.00028313466 -0.00045595152 -5.1295232e-05
0000f0 8f 0b 9a ba 07 09 d6 39 dc 10 07 ba aa 8b dc 3a
       -0.0011752712 0.00040823987 -0.00051523536 0.0016826291

exp_avg_sq f4 [64]
000000 ba e6 a9 35 13 37 cd 35 3f cf 11 34 cb 20 cd 37
       1.2658631e-06 1.5289719e-06 1.3579573e-07 2.4453175e-05
000010 68 b8 37 35 1e 2d f4 34 0f 3a 10 38 a0 99 6c 35
       6.844116e-07 4.548137e-07 3.4386347e-05 8.8140405e-07
000020 62 f6 50 36 05 bc be 35 aa 6b a0 37 e1 78 40 37
       3.113783e-06 1.4210824e-06 1.9123621e-05 1.1472236e-05
000030 e2 1b 02 37 0f 77 87 36 ae 63 6c 35 b5 02 eb 34
       7.755096e-06 4.0371738e-06 8.8061904e-07 4.377413e-07
000040 6d 91 41 35 08 1e b0 37 1b 8a 96 36 ac cc 48 36
       7.2109725e-07 2.099482e-05 4.486426e-06 2.9921457e-06
000050 02 b9 91 36 e0 95 ae 35 6c 19 86 36 a7 4e 28 36
       4.3428745e-06 1.300763e-06 3.9964707e-06 2.5079732e-06
000060 39 97 76 36 08 54 8e 36 ad b4 51 36 2e 79 ec 35
       3.674488e-06 4.2417123e-06 3.1248594e-06 1.7618638e-06
000070 b6 13 6e 37 4e 7d ad 37 59 86 07 37 4b 77 07 34
       1.4190495e-05 2.0681557e-05 8.077907e-06 1.2616253e-07
000080 39 23 64 35 a3 50 d5 35 33 c8 21 37 d5 ce 4e 35
       8.4987875e-07 1.5893205e-06 9.64296e-06 7.704196e-07
000090 40 2a 92 36 c4 89 43 38 d6 cf 0d 35 03 ad 43 35
       4.3560576e-06 4.6619927e-05 5.2829034e-07 7.2894926e-07
0000a0 3d 3f d9 34 ac c9 9f 36 7a dc 92 35 3a 54 14 38
       4.0465412e-07 4.762047e-06 1.0942015e-06 3.536439e-05
0000b0 41 64 31 38 10 f8 b6 34 8a 94 03 36 66 ec 31 36
       4.2293457e-05 3.408063e-07 1.9606982e-06 2.6512657e-06
0000c0 a2 a7 72 37 f1 42 10 38 a4 29 9d 34 98 51 f7 36
       1.4463354e-05 3.439462e-05 2.9273826e-07 7.3706724e-06
0000d0 fc c1 23 35 95 77 3b 38 7d c2 eb 36 41 55 f2 36
       6.1004516e-07 4.4695644e-05 7.026187e-06 7.222087e-06
0000e0 a4 a4 8a 36 74 ee 50 36 48 80 10 37 a8 03 81 35
       4.131887e-06 3.1133213e-06 8.612937e-06 9.612313e-07
0000f0 e0 07 c8 37 00 da 03 36 95 1e 51 36 eb 9b af 36
       2.3845525e-05 1.9647414e-06 3.1161228e-06 5.2335577e-06
