p1_navigation/DQN20190128_v3.pth (torch_old, 368077 bytes, 18 tensors)

hidden_layers.0.weight f4 [100, 37]
00000000: 0c52 f4be 8481 153e 1f6e d03d fa55 cd3e
00000010: 94d0 16be f6b0 1fbf 2cfa dd3e c792 a43d
00000020: 5af0 803e 7e47 f6bd 547e 9c3b 1d84 abbd
00000030: 3a37 d8bd 4a0a 15be c5fb bebe 4bcd e0be
00000040: 650c f3bd 5911 45bc 38e9 bb3e 36e0 ac3e
00000050: e689 83be 9e79 1abd 8d40 27be 74e3 96be
00000060: dca2 61be 83b2 0abe ec1e 433e 7547 5cbd
00000070: b8fc fcbd 04fd ec3d 276f d2be f565 823b
00000080: 7a60 b63b 12fc 5f3d cf0d 013e e178 9abd
00000090: 8b5f 4cbc 7725 c0bd b649 58bb 5a1f 8cbd
000000a0: 10bc 44be 091b c63b 5fa5 d3bd 3627 c2bd
000000b0: 3d1f a9bd 56df 733d 21a5 ad3e 4cd5 10bf
000000c0: ecd9 703e 09e7 2abc ad18 e1be d1cf e6be
000000d0: 6651 5dbe b60f ffbe f06c ad3c 7b91 9c3e
000000e0: 21f4 f63e 6ebb 31bf 7ec3 293e 2e02 703e
000000f0: f644 50be 77f8 41bf af11 a9bd 741c b0bd
00000100: de63 953d 655a 0d3e bc00 083f 8395 bbbe
00000110: ef71 233d f107 113e 2ccd 9f3d af91 b1be
00000120: 6872 8fbc eb67 7ebc 907f 95bd c2a0 503c
00000130: 19c7 253d 3aa5 28bd c621 09be 8538 3abf
00000140: 4a99 d23d 7605 813e e29c 8e3e 68c0 87bd
00000150: 5263 cdbd e1a8 be3c 503f f0bb 4087 823c
00000160: 13f2 3cbe 33a9 b7be 3730 663d 2a88 0a3e
00000170: e8d4 243e 0c73 8b3e 8e42 aebe 02af d63d
00000180: 4fe3 243e 89ef dc3d f5de 0e3e 4954 f4be
00000190: ea10 2e3e b0a5 523e 6d48 323e d991 8b3d
000001a0: 0b5f 2cbf f584 803e 59bf 683e c514 833e
000001b0: 33d3 c8bd 03ee 8bba c586 50bc fba8 563d
000001c0: 0148 bebe 622b 3fbd 25fc 89bd 749c d33e
000001d0: 0248 98be 5ce0 833e 45e3 03bd 47a8 20be
000001e0: c53f 773e e834 903d 1dc8 d9bd 3818 a9bc
000001f0: 8aab 8abe a429 4ebf ae2a 4fbf a70d 11bd
00000200: 8fd3 f93e d50f 023d d036 90be 3007 6bbe
00000210: bc22 28bc ee8b 2f3e e8a8 773d 991b 7a3a
00000220: 6b47 eabd 70ad 3a3c 01cd 9abe 2a45 663e
00000230: 4b4b 1f3e 4b7a a8bd b3f1 1c3c 1c08 ac3d
00000240: f977 c63d 054b 0abe 6cf0 9b3c 2c75 47bc
00000250: 73b0 82bd 6ba2 f6bc c5e9 1e3e 7ea4 f9be
00000260: 3497 cbbe 93fb 7c3e d838 66be 1a8c 20be
00000270: a800 073c 0244 18bf aeb1 0f3e e6d8 3a3e
00000280: dd99 0dbc 72dc f33b 54d7 6cbd dd2d 3fbd
00000290: ed54 15be ebb7 a73d 0338 2ebe f12c 0e3e
000002a0: db58 98bd bb53 74be a421 633e 2ebe 593e
000002b0: 5a5e 2dbf 3a13 05bd 2f30 c43b bd34 e9bc
000002c0: 0496 3c3e 2da1 c1bd ce19 0a3d 7982 28be
000002d0: 2699 b43b 122a 06bf c31d 36bf b130 86bd
000002e0: 27b8 f5bc d8f5 853c 3347 f93c 836b a53d
000002f0: 6f09 6f3c 1cf5 d2bd af83 f73d 9a5c 3dbc
00000300: 77c6 8abe 9a8e cfbd f22f b23d 820d 05be
00000310: ed09 b73c 7c99 e7bd 07d2 f03d 3837 9b3e
00000320: be90 20be 8a2d 2d3d 1107 10be cbe4 64bc
00000330: 8924 d73d f28a 36be 8d3f 12be df78 b03c
00000340: 1cfd 533e 33be ba3e 508f babe 4c02 05be
00000350: 7c0f 4b3d f9d7 7bbc 35d1 103f fcec 4dbe
00000360: da6b a5be 356a 0ebd 898f 4b3e 2556 0b3f
00000370: a928 abbc c93e afbc 173b cdbd b3f6 b5bd
00000380: b954 78bc a15c d13c c93a f93d 3f0f c53d
00000390: b12a 663e a78d bf3d 3fcf 1bbd 6b7a c9be
000003a0: 588a cb3d c77a 733d 7fcb ab3d 4e57 0c3e
000003b0: e563 08bd 9171 c0bc f1ed 8a3b a5d8 363d
000003c0: 936d 043d 9273 dd3c 33c4 55bb cfe8 453d
000003d0: ff57 8e3d 66f2 193e 1b85 763e 9bc3 963b
000003e0: 536f f73d 94e9 df3d f08d 143e 1ad2 813e
000003f0: 24c1 aa3e 1052 27bf 6fb1 c2be c389 ebbe
-0.47718847 0.14600188 0.10177254 0.40104657 -0.14728004 -0.62379396 0.43354928 0.08035808
0.25183374 -0.12025355 0.0047758017 -0.08374808 -0.10557409 -0.14554706 -0.3730146 -0.43906626
-0.118675984 -0.012028062 0.3670137 0.3376481 -0.25691146 -0.03771364 -0.16333218 -0.29470408
-0.22034782 -0.1354466 0.19054765 -0.053779084 -0.1235289 0.115716964 -0.41100428 0.0039794394
0.0055657 0.054683752 0.12602924 -0.07542587 -0.012473951 -0.09382146 -0.003300292 -0.06841917
-0.19212365 0.0060457033 -0.103342764 -0.09480135 -0.08257911 0.05953916 0.33915046 -0.56575465
0.2352063 -0.01043106 -0.4396414 -0.45080426 -0.21613082 -0.49816674 0.02117011 0.30579743
0.4823313 -0.6942662 0.1657848 0.23438331 -0.20338807 -0.7576975 -0.08255326 -0.08599177
0.07294439 0.13804014 0.5312612 -0.36637506 0.039903577 0.14163186 0.07802805 -0.3468146
-0.017510608 -0.015527706 -0.07299721 0.01273364 0.040473077 -0.041173197 -0.1339179 -0.7274249
0.10283144 0.2519948 0.27854067 -0.066284955 -0.100287095 0.023273887 -0.007331766 0.015933633
-0.18451719 -0.35871276 0.056198325 0.13528505 0.16096842 0.2723621 -0.34035152 0.10482599
0.16102336 0.10787875 0.13952239 -0.47720554 0.1699864 0.20571017 0.1741044 0.068149276
-0.67332524 0.25101438 0.22729243 0.25601783 -0.09805908 -0.0010675791 -0.012727444 0.052407246
-0.3716431 -0.046672232 -0.06737546 0.41330302 -0.29742438 0.2575711 -0.032199163 -0.15689193
0.2414542 0.07041341 -0.10633872 -0.020641431 -0.27084 -0.8053229 -0.809245 -0.03541341
0.4879422 0.03175338 -0.2816682 -0.2295196 -0.010262188 0.17143223 0.060463816 0.00095408555
-0.11439403 0.01139389 -0.3023453 0.22487321 0.15556066 -0.082264505 0.00957911 0.08399984
0.09690852 -0.1350518 0.01903554 -0.012173932 -0.06381311 -0.030106744 0.15518863 -0.4875831
-0.39763796 0.24705343 -0.22482622 -0.15678445 0.008239903 -0.5947877 0.14032623 0.18246803
-0.008642641 0.0074420506 -0.05782254 -0.046674598 -0.14583178 0.081893764 -0.17013554 0.13884331
-0.07438823 -0.23860066 0.22180802 0.21263954 -0.67722094 -0.03248904 0.0059871892 -0.02846753
0.18416601 -0.0945457 0.033716016 -0.16456021 0.005511421 -0.52407944 -0.7113916 -0.06552256
-0.029995037 0.016352579 0.030429458 0.08077147 0.0145896515 -0.10300657 0.120856635 -0.011557722
-0.27104542 -0.10134621 0.08700551 -0.12993434 0.0223436 -0.11308572 0.117588095 0.30315566
-0.15680215 0.042279758 -0.14065196 -0.013970564 0.105050154 -0.17826441 -0.14282055 0.02154201
0.20702022 0.36473235 -0.36437464 -0.12989157 0.049575314 -0.015371316 0.56569225 -0.20109934
-0.32308847 -0.034769256 0.19878973 0.5442832 -0.020893412 -0.021392243 -0.10021036 -0.08884945
-0.015156918 0.025556864 0.121694155 0.096220486 0.22477223 0.0935319 -0.038039442 -0.3935121
0.09938496 0.05944326 0.08388423 0.13705179 -0.03329839 -0.023491653 0.0042397906 0.044640202
0.03233106 0.027032647 -0.0032618165 0.048317727 0.06950378 0.15033874 0.24074213 0.0046009547
0.1208178 0.10933223 0.1450727 0.25355607 0.3335048 -0.6535959 -0.38025996 -0.4600354

hidden_layers.0.bias f4 [100]
00000000: 3030 acbe 9999 70bd 802d 48be 86c0 3fbe
00000010: a3f0 63be 2d42 30be e743 dc3c 090e 473d
00000020: 7aa7 8d3d b506 adbe c0f4 83be e213 88be
00000030: bf7b 98bd aee7 833a 113a f8bd ed2f 70be
00000040: 1da6 66be efeb 27be e99b 61be 354a 3fbe
00000050: 6c15 68be 00b4 80be 12a4 24be 97d4 4b3d
00000060: 9e33 9bbd 1602 06be 41cf de3c b399 29be
00000070: 1f4a 8ebd a1d8 e8bc cd74 42be 7153 16bd
00000080: 0b16 a93d ba9d 14be 2d7c bb3d f8a8 6abc
00000090: 12e0 0cbe ab9f afbe 4134 fb3d 9fd2 00be
000000a0: f0a9 37be ab19 fcbd c2fd ecbd 12af 81be
000000b0: 513a 88ba ce7c 08be e9eb 72bd 4024 9bbc
000000c0: 3fae efbd 1cd1 f2bd 028e 4ebe f457 adbd
000000d0: ecc5 09bd c847 c1bd b8c3 85be e624 5a3d
000000e0: 4047 b1bd dc1c 71be 18bc 4c3d a0ef fdbd
000000f0: 1073 0abd a7c8 57be 2ee5 51bd bfa9 0ebe
00000100: 49e0 6cbb c526 83bd 434f de3c 050c f7bb
00000110: 3b54 0cbe 67bf b9be 2f20 23bd d280 90bd
00000120: bdd2 28be 3503 5dbe c072 163d f32c 203e
00000130: 47fd 56be bf67 2fbe 5843 59bd f5a6 143e
00000140: e33d ed3c 58c6 493d c811 21be a3d0 dfbd
00000150: f3dd 2cbd 280c 063e 3617 ddbc ae40 f2bc
00000160: b025 88be ad35 5cbe 0337 4ebd 16de 0bbe
00000170: 1289 b93a 3b7e 85be 3aa4 1fbe b1e1 8bbd
00000180: 01d6 6b3c 5e05 d2bd 9d26 163e 3945 223d
-0.33630514 -0.058740232 -0.19548607 -0.18725786 -0.22259764 -0.17212744 0.026887847 0.04859737
0.06916709 -0.3379418 -0.25772667 -0.2657767 -0.07445478 0.0010063553 -0.1212045 -0.23455782
-0.22524305 -0.16398595 -0.22032131 -0.18680651 -0.22664422 -0.2513733 -0.16078213 0.04976329
-0.075782046 -0.13086733 0.027198436 -0.16562538 -0.06947731 -0.02842361 -0.18989868 -0.03670067
0.082561575 -0.14513293 0.09154544 -0.014322512 -0.13757351 -0.34301504 0.12265826 -0.12580346
-0.1793592 -0.12309583 -0.11571838 -0.2532888 -0.0010393356 -0.13328859 -0.059307013 -0.018938184
-0.11703157 -0.11856291 -0.20171359 -0.08464041 -0.03363602 -0.09437519 -0.26125884 0.053257845
-0.08656168 -0.23546165 0.049984068 -0.123992205 -0.03380114 -0.21072637 -0.051243953 -0.1393194
-0.0036144427 -0.06403879 0.027137404 -0.0075392746 -0.13704006 -0.3627884 -0.039825615 -0.070558205
-0.1648664 -0.21583255 0.036730528 0.15642147 -0.20995055 -0.1712942 -0.05304274 0.14516814
0.028960174 0.04926142 -0.1572944 -0.10928466 -0.042203855 0.13090575 -0.026988607 -0.029571857
-0.26591253 -0.2150485 -0.050345432 -0.13658938 0.001415523 -0.2607287 -0.15589991 -0.068301566
0.014394284 -0.1025493 0.14663167 0.039616797

hidden_layers.1.weight f4 [250, 100]
00000000: 1885 febe 059d b2be 3558 01bf 70a8 abbe
00000010: 832b 8fbe 4954 6ebe cd32 e0bd 17ec 5b3d
00000020: 1c2c fa3d 4c09 6abe 9cda a7be 0beb d4be
00000030: 76e7 03be e7d3 aebe d44f 613e 5aee f2be
00000040: f300 303d 7eba 483e 5eb2 29be d676 55bd
00000050: 35b4 70be 831c f83c 45cc 22bc b20d d5be
00000060: 3876 7f3d 6966 d63d 2f3f 6bbe 516b a5bd
00000070: 2727 00be 245b 2ebd f5b9 ee3c ed27 83be
00000080: e95d 8abc 1895 753d 77bc 7ebd 56e0 1e3e
00000090: c2a5 7dbd 76aa 2ebe 001b f7bd bbf9 263e
000000a0: 7073 5cbc 78ec 023d 994a 02be 48ac 7cbe
000000b0: 494d 3e3e 13f8 c6bc d95c d23e 08bc 38be
000000c0: 4499 77bd e9a4 ae3d 7728 e63d 889c 20bd
000000d0: d61b 26bd ad81 213c 61d9 243e b7d5 96bd
000000e0: 6675 0c3e 4197 5cbe f708 a4bd f8f5 ca3d
000000f0: dcf0 22be 5e99 a3be d432 0ebe ee90 5bbe
00000100: f581 293e 103e 86bd bf75 19be 7d3e 8a3e
00000110: 9165 993c c894 90be 531b a53b 0c0f bdbe
00000120: b3b5 4a3e 05ed 1fbc 3e6d b0bd 9133 843e
00000130: bea3 d2be 7476 1bbe 9ecc 38be 6c0a 86bd
00000140: e442 82bd f97c 05be 7682 42be d046 33bc
00000150: a479 853d cac3 2bbd 479a debb f32f 0f3e
00000160: a173 80be 8ddb cabe f31e a3bd ac3e e4be
00000170: bb0e 0abe 3bf7 d4bd a163 8c3c f581 803e
00000180: 38e3 25be aa88 98be bb3e 6cbd e97a a0bd
00000190: 400d 01be 58cc 20be 131a 20be 3fae 3dbd
000001a0: 32ca 0dbe 738d 01be dd57 c3bd ff74 36be
000001b0: d4d7 dcbd 10c1 bc3d d295 7abc f4aa 36bc
000001c0: b4fb edbd f12e d33c 4279 3b3e 743f b4bd
000001d0: 41b9 8f3c 38f5 f0bd 8dc7 0abe 9d10 83bd
000001e0: 6de8 28bd d9ed acbd 4ea9 5cbe 23d7 373d
000001f0: a15a 973b 0ba0 81bc df6b 95bd feb2 1abd
00000200: 36b1 26be dc62 52be 8f3d 7a3b 7df5 60bd
00000210: 1ea7 b53d 33ca 16be a5e9 3cbe 4b0d 78bc
00000220: 1848 80bd d824 f6bd ea98 b439 491e 1abe
00000230: 9d1e f13d e444 223c 0900 53be 88c6 0ebc
00000240: 4410 8ebd bb7e 603d 6490 34bc dd74 31bd
00000250: 028e 0bbe d1da f1bd 40cd 713d 86ef 23be
00000260: e4cb 0bbe 3f89 643d e893 83bd e344 4cbd
00000270: 7bae 34be 3ddb 0b3e 9222 ffbc 0bbc 5dbd
00000280: 0aca acbc 0ecf 25be 3407 eabd fccd cb3d
00000290: 3740 8dbd 46b5 59bd 9be6 71bd b52d bbbb
000002a0: e8d5 2d3a 4068 053d 076c b6bd 1754 4ebe
000002b0: f51e df3c 8c7f 02bd 9402 31bd 5f76 21bd
000002c0: 88ef 423d 7c21 b9bd 7e3f c9bd 3b11 c13c
000002d0: 3893 e1bd cfd3 89bd 6521 aabd de28 c9bd
000002e0: d16d 3abd 3967 46bd fb67 56bd da44 af3d
000002f0: 63bd b6bd 06a8 993c 51e2 773d a9b6 22be
00000300: 2d51 0bbe bab9 08be 00ff 53be abf0 aebd
00000310: 77fb 01bc fa91 26be 9c41 b23b 5d20 9bbd
00000320: 6df7 6abe 330e ea3d 0cd8 613c 0152 b43d
00000330: 354c 113e 5584 5dbc d829 90be fc7e 183e
00000340: 509d bbbd 3307 9e3d da37 8b3d 8594 bf3e
00000350: b600 433e b805 54be b10d 80bd 4e22 5abe
00000360: b35a debd bc54 e43d a942 223e a606 debd
00000370: 9c6c cabd 9e77 fbbd 2500 34bd ee60 93bc
00000380: 2c13 e7be 6db6 4ebe 016c 9c3e 2559 9ebd
00000390: 11e7 59bd 0cb4 85be c3ff ef3d 31e7 e3be
000003a0: 4aff cabd 1c69 8dbe 71d6 bfbd 5f1f 8e3e
000003b0: c0e6 c9bc 07cb c4be 6c63 c13d f41b f93d
000003c0: 918a 66be d0a4 afbd 1316 b53d a4e2 863e
000003d0: d64f 1b3e 58c3 bbbd d4f8 d8be 8470 a9be
000003e0: 16c8 333e 68e4 3cbe fb2a cfbd 0944 d43d
000003f0: 610d ab3d 574f c73e 5766 fbbe 9ca6 353d
-0.49710917 -0.3488542 -0.5052522 -0.33526945 -0.27962884 -0.2327434 -0.109471895 0.05369195
0.122154444 -0.22855109 -0.32783973 -0.41585574 -0.12881264 -0.34146044 0.22003108 -0.47447473
0.042969655 0.19602391 -0.16571948 -0.052115284 -0.23506244 0.030287033 -0.009936397 -0.4161201
0.0623686 0.10468752 -0.22973321 -0.080771096 -0.12514935 -0.042567387 0.029141406 -0.25616398
-0.016890483 0.05995664 -0.062191453 0.15515265 -0.061925657 -0.17057213 -0.12065697 0.16306202
-0.013455257 0.031963795 -0.12723769 -0.24675095 0.1858417 -0.024288213 0.41086462 -0.18040478
-0.0604489 0.08527548 0.11238187 -0.03921178 -0.04055389 0.009857577 0.16098548 -0.073649816
0.13716659 -0.21542074 -0.080095224 0.09910196 -0.15912193 -0.31952947 -0.13886577 -0.21442005
0.16553481 -0.06554806 -0.14986323 0.270008 0.018725188 -0.2823851 0.0050386577 -0.36925542
0.19795875 -0.0097611 -0.08614586 0.25820592 -0.4114055 -0.15181905 -0.18046805 -0.065449566
-0.063604146 -0.13035955 -0.1899508 -0.010942176 0.06517342 -0.041934766 -0.0067932936 0.13983135
-0.25088218 -0.3962063 -0.079648875 -0.44579065 -0.13482182 -0.10398718 0.01713735 0.2509915
-0.16199958 -0.29791766 -0.057677012 -0.07835943 -0.1260271 -0.15702951 -0.15634947 -0.046308752
-0.13846663 -0.12651615 -0.09538243 -0.17818068 -0.107833534 0.09216511 -0.015294509 -0.011149157
-0.11620274 0.02577922 0.18307975 -0.08801165 0.01754439 -0.11765522 -0.13552685 -0.06399653
-0.041237283 -0.08443803 -0.2154896 0.044882905 0.004618958 -0.015823385 -0.072959654 -0.037768357
-0.16278538 -0.20545524 0.0038183664 -0.054921616 0.08869766 -0.1472557 -0.18448503 -0.015139888
-0.06263751 -0.12018746 0.00034446205 -0.15050615 0.11773417 0.00990412 -0.20605482 -0.008714326
-0.06936696 0.05480836 -0.0110207535 -0.04332434 -0.1362839 -0.11809314 0.059033632 -0.1600934
-0.13651997 0.05579495 -0.06424695 -0.049870383 -0.17644684 0.13657852 -0.031144414 -0.05413441
-0.021092433 -0.16192266 -0.11427155 0.09951398 -0.06897014 -0.05315139 -0.059057813 -0.005712236
0.0006631301 0.032570124 -0.08907323 -0.20149265 0.027236441 -0.03185992 -0.04321535 -0.039419528
0.047591716 -0.0903959 -0.09826563 0.023567786 -0.11014408 -0.067298524 -0.08307151 -0.09822248
-0.045514885 -0.048438285 -0.052345257 0.08558054 -0.089228414 0.018756878 0.060518567 -0.15889992
-0.13605185 -0.13352099 -0.20702744 -0.085419975 -0.007933489 -0.16266623 0.00543995 -0.07574532
-0.22945948 0.114284895 0.01378442 0.088047035 0.14189227 -0.01352032 -0.28156924 0.1489219
-0.09160864 0.07716217 0.06797762 0.37418 0.1904324 -0.20705307 -0.062526114 -0.21302149
-0.10857143 0.11148974 0.15845741 -0.10841112 -0.09883997 -0.122786745 -0.04394545 -0.017990556
-0.45131814 -0.20186777 0.3055115 -0.07731847 -0.053198878 -0.26113927 0.117187046 -0.44512323
-0.09911974 -0.27619255 -0.09367073 0.2775831 -0.024646163 -0.38436148 0.09442791 0.12163535
-0.22513796 -0.08576357 0.08842101 0.26344788 0.15167174 -0.09168118 -0.4237734 -0.33093655
0.17556795 -0.18446505 -0.1011562 0.10364539 0.08352161 0.3892772 -0.49101517 0.044348344

hidden_layers.1.bias f4 [250]
00000000: 51d6 c33d 7262 27be 8f82 5ebd 5445 58be
00000010: 2df3 473e ed10 24be 6f67 c63c 9e3d b6bd
00000020: 2673 b3bd 69f0 11be e7e6 d8bb 6c8e c43d
00000030: cb35 13be 59ca 263e 2f7f 863e 42ef 5bbd
00000040: 0b89 46be ad1d 16be 5a9c 61bc 71ab e7bd
00000050: 49b5 62bd ff28 91bd 6457 a5bd ff36 6cbe
00000060: 147a 173e 4bdd b93d 8718 6dbd c201 2abe
00000070: 4a1b 15be 25eb e5bd b442 54bc 536c 09be
00000080: 9e6a f1bd dabb 203d ac48 ddbd 087b 3fbe
00000090: 2b76 f5bc 5996 55be b9e2 15be 758f 31be
000000a0: cd56 8b3e a678 34bd 2747 1abe fb2f 97bd
000000b0: a9e0 8e3c 36aa 233e 8203 bf3d 5af2 f1bd
000000c0: 7547 c13d d784 c9bd b156 59be 6133 8bbd
000000d0: aa73 893b 3b15 82be 325a 1b3c 5aae dcbd
000000e0: faaa cfbd cf85 80bd ec6f 14be 0252 d23d
000000f0: 7a48 2cbe 08cf c0be 3d5d fbbd 8a84 40bd
00000100: 40f4 15be 1d79 1dbe b503 a7bd 02d8 f9bc
00000110: 94d6 3b3d 6ca9 063d 4512 763b be60 773c
00000120: d759 2f3e 0302 c43d c7e0 3cbe 9503 2e3e
00000130: e6ec fabd aaa2 9b3d 4430 41be 5b83 86bb
00000140: cd90 c1bd e758 40be 09a0 c2bd 53d4 c63d
00000150: 6111 543e 2272 d5bd 50c6 b03d 18d5 fdbd
00000160: e0e8 a63e 5445 84bd abb1 433e b956 eabd
00000170: f500 c9bd a446 9dbe 2b8e b3bd 6bdb dfbe
00000180: 6f08 48be 9142 83bc 13fe b0bd 6748 b83d
00000190: 7094 6abe 5c68 8bbd 58f6 11bd cb5f 89bd
000001a0: cd40 97bd bf79 63be 8e1e 17be 4584 9abe
000001b0: 34de 093d 60de c2bd 88b0 64be c1e2 5e3c
000001c0: 4b1c 523d d0b2 1f3c 5d3f 08bf 53fd a5bd
000001d0: 19c2 233e a208 04be b4c1 c4bd 03b7 4abe
000001e0: 9766 3dbe 1085 12bc 31f9 f6bc bdf8 593e
000001f0: bbdb f83b 5e79 4ebe fc9c c53d 147b 0fbe
00000200: fb28 47bb 79e0 f5bd 1148 a8bd e2d9 ccb9
00000210: 320f e1bc 5617 0b3e 7d6e 02be d4dc 00be
00000220: b952 823e da85 36be 0ba9 eebd 7468 7ebd
00000230: c888 01be 9e23 78bd 993f b3be fd67 6b3c
00000240: 9a2e b73e 8dd0 e8bd f33c 2abe f2f8 1fbe
00000250: 93f9 3d3e 72c7 35be 7c29 283e 8ab5 a83c
00000260: 63eb bdbd 7511 05be 54b5 6d3e acdb 01be
00000270: ad8d 4bbe dc40 2abe f554 30be 2691 493e
00000280: 0888 22bd 8f57 ee3d 63cb c4bd ea7b 01be
00000290: b246 b7bd 94d9 7bbe 8583 753e 459d 3f3b
000002a0: 86af 23be 9c18 03be e37f 0abe c33f 433d
000002b0: ce71 b6bd 1d47 3fbe 113b 53be 06ee bb3d
000002c0: c9b2 81be 1261 9dbd 0067 c8bd f490 b7bd
000002d0: 2c75 9bbd 2cf3 c0bd f3f8 03be 2452 06be
000002e0: 85ee 423e c622 c7bd 33df 2c3d edfe 543e
000002f0: 5a65 0fbe 0db4 8e3d cc03 0d3e 862b cdbe
00000300: 9762 1dbd fcfb 29be 46d7 dcbd bebd 00be
00000310: 2d2c 9cbd a649 6dbe c2a2 ce3d 51d4 e63d
00000320: 7a86 0ebe fd7f 92bd 95f2 003d 2b7f 4ebd
00000330: 80be 46be 7f98 13be a5ff 26be 7894 693d
00000340: a6db 48be 67d3 22be f49f 63be 944a a93d
00000350: 8033 1e3b 1b82 f9bd 461c b3bd 64c3 883e
00000360: e354 a9bd a053 3a3e 6391 f4bd 9556 ddbd
00000370: 3731 babd dba7 efbd 53d0 64be 847e ce3d
00000380: 3fa2 d9bd ed79 81bd 3934 873e 3831 563c
00000390: 93f4 543e 1c42 7bbd f378 8c3d 7c7d 2ebe
000003a0: f399 283d fd94 20be 79d0 00be 7fc8 31be
000003b0: dea1 103d 8f47 65bd b8a4 8b3b 01cf fdbd
000003c0: 24f4 00be dd1f a0bd 88e4 64bc db7a 5e3d
000003d0: 6e55 9cbe 1f81 edbd 35a3 3e3d 5bef a6bd
000003e0: 1c9f 33be 8fa0 8b3e
0.09562362 -0.16346148 -0.05432373 -0.21120197 0.19526358 -0.16022082 0.024219243 -0.08898471
-0.08762197 -0.14251865 -0.0066193226 0.09597477 -0.14375989 0.16288127 0.26268908 -0.05369497
-0.19388215 -0.14659758 -0.013770187 -0.11311997 -0.05534867 -0.070878975 -0.08073309 -0.23067854
0.14792663 0.090754114 -0.05788472 -0.16602233 -0.14561191 -0.11226491 -0.012955356 -0.13420229
-0.11787914 0.03924165 -0.10804877 -0.18699276 -0.029963573 -0.20858134 -0.14637269 -0.17339881
0.2721466 -0.04406037 -0.15066205 -0.073821984 0.01744111 0.15982899 0.09326841 -0.11813803
0.094374575 -0.0983979 -0.21224476 -0.06796909 0.0041946964 -0.25406823 0.009481953 -0.107754424
-0.10140033 -0.06275522 -0.1449582 0.10269548 -0.16824523 -0.37657952 -0.12273643 -0.0470014
-0.14643955 -0.15378232 -0.08155004 -0.030498508 0.045858935 0.032876417 0.003754751 0.015098749
0.17124115 0.09570696 -0.18445121 0.16993554 -0.12252216 0.07599385 -0.18866068 -0.0041050143
-0.09451447 -0.18783914 -0.095031805 0.097084664 0.20709755 -0.1042216 0.08631575 -0.1239416
0.32599545 -0.06458536 0.19110744 -0.11442322 -0.09814636 -0.30717957 -0.08767351 -0.4372209
-0.19534467 -0.016022952 -0.08642211 0.08998185 -0.22908187 -0.06807014 -0.035635322 -0.06707724
-0.07385407 -0.22214411 -0.1475775 -0.3017904 0.033659175 -0.09515071 -0.22332966 0.013603867
0.051296514 0.009747222 -0.53221685 -0.081049584 0.15992011 -0.12893918 -0.096072584 -0.19796376
-0.18496166 -0.008942857 -0.03014812 0.21286292 0.0075945533 -0.20163485 0.09649083 -0.14011794
-0.0030389416 -0.120057054 -0.082168706 -0.00039072247 -0.027473066 0.1358312 -0.1273746 -0.12584239
0.25453737 -0.17824498 -0.11653336 -0.062111333 -0.12649834 -0.060580842 -0.3500946 0.014368054
0.35777742 -0.11367903 -0.16624813 -0.15622309 0.18552236 -0.17751864 0.16422075 0.020594377
-0.09273412 -0.1299494 0.23213702 -0.12681454 -0.19878264 -0.16626304 -0.17219909 0.19684276
-0.03968051 0.11637794 -0.096091054 -0.12644926 -0.08949031 -0.24594718 0.23975952 0.0029238027
-0.15984926 -0.12802356 -0.13525347 0.04766823 -0.08908425 -0.18679471 -0.20628001 0.09176259
-0.25331715 -0.0768453 -0.09785271 -0.089631945 -0.07590708 -0.09421381 -0.12887935 -0.13117272
0.190363 -0.097234294 0.042205047 0.20800371 -0.14003506 0.06967936 0.1377098 -0.40072268
-0.0384241 -0.1660003 -0.10783248 -0.12572381 -0.07625613 -0.23172626 0.10089637 0.11270965
-0.13918486 -0.07153318 0.031481344 -0.050414246 -0.19408607 -0.14413641 -0.16308458 0.057026356
-0.19615039 -0.15900956 -0.22228986 0.08266178 0.0024139583 -0.12183019 -0.08745627 0.2671157
-0.08268144 0.18195963 -0.11941793 -0.1080753 -0.09091418 -0.11701938 -0.22345094 0.10082725
-0.10626649 -0.063220836 0.2640703 0.013073258 0.20796423 -0.061342344 0.06859007 -0.17040056
0.041162442 -0.15681835 -0.12579526 -0.1736164 0.03531062 -0.055976447 0.0042615794 -0.123929985
-0.12593132 -0.078185774 -0.013970502 0.054316383 -0.30533928 -0.115968935 0.046542365 -0.08151122
-0.17541164 0.27270934

output.weight f4 [4, 250]
00000000: 47c2 6d3d 8afb e8bc 2843 94bc ad01 113a
00000010: efbe f73d 7778 ad3c d5d4 e4bd 705d 563d
00000020: 04c4 073a aa44 a53c cbbf 0e3e c0f6 a53d
00000030: 5c6c 83bc 9f30 143e 90d3 ca3d 4994 2fbd
00000040: c303 7f3d d84b ab3c 4194 8bbe a904 c03b
00000050: d2e4 e33c 90fe acbd fdfd 3cbd 468f 5abe
00000060: aad1 ce3d 71a7 593d 05c7 42bd 29cb 59bc
00000070: 74ac bd3c 76b9 bc3c 2dec 1b3e e869 0b3d
00000080: c12b 82be cbc9 0b3e beda c23b f2c5 29bc
00000090: 6843 4ebd 42aa dabd e1fd 8fbd 33a0 0d3d
000000a0: a65f cb3d d0ff 01bd 2a6d 11bc e1d7 90bc
000000b0: b4ed d53d 3d84 273e 7f27 683d c6aa 11bd
000000c0: 0670 e43d 66f7 a1bc 74b3 f6bd 568d 4d3b
000000d0: 38f4 263e 748c 83be 85ad 123e ce93 213d
000000e0: ca5a ecbd fa2d 073d c916 ccbd 2b11 343d
000000f0: f773 e3bc 7966 8cbd a209 a4bd 9743 043e
00000100: 3f72 1fbd ddd4 743c 3ff8 f1bb 9820 0e3e
00000110: 68dd a33d 58e1 16be 78c0 e3bd 4424 2c3e
00000120: 888f 8a3d f2f8 923d c484 8a3b a7b3 903d
00000130: 1d7e 2e3e 690c 6e3d 0831 15be da37 49bc
00000140: fa03 8c3c e5df c03a f9a4 afbb 91d2 513d
00000150: 40b9 78be 7793 e1bc 6210 4d3d 96ab 2d3c
00000160: 012c f13d 0df3 c9bb f916 01be e72e 93bb
00000170: 7c9b 263d 573a 1ebe 2d4f bf3b 3317 5dbe
00000180: b216 80bc b1db f93b 8971 5c3d c0f3 c63d
00000190: 887e c73d 8cf0 eb3c 5efc 443d d483 8fbd
000001a0: 21e3 003d 4928 923d 12e1 703b ca8f fabd
000001b0: 0c4e b6bd 2edf dc3c 6c5f febd e5aa 4bbe
000001c0: bcc7 d93d e25b c33d 0fc9 47be 9036 e63c
000001d0: 8123 833d 7fed b2bb 6904 02be 4d2d 2abd
000001e0: 113d 7ebc 935a e2bd 46dc a43d 1ed2 903d
000001f0: eca9 0d3d b157 493c 43a3 b93c 88f6 4f3d
00000200: a745 743d d644 933e aaf0 82bd efdc c03c
00000210: fe49 363e b800 a33d 5497 983d b834 253d
00000220: ad21 c53d 2345 ad3c fa58 5fbc cd1e d7bc
00000230: 7941 c53d 2018 0139 a075 4dbd 5fd8 dcbc
00000240: d377 49be b934 243d 3e6d f5bd 6a74 d43d
00000250: 2079 d73d 9f37 993d d150 a03d 3428 b33d
00000260: 339d 463d 8c58 9ebd 999a 9e3d 364f e6bc
00000270: 48b0 fe3b 1064 ff3d d520 acba b80b a23d
00000280: 816c b5be 7f98 703d d5e3 5fbb b836 c8bc
00000290: 400d a6bc 926d 55bd c7c4 a03d 3158 853d
000002a0: 49fc 5e3c 9fa0 85bd 8b44 dcbc b1e8 953d
000002b0: 4fe2 e23d d34f 193c 351d 3ebe e93a b63d
000002c0: 8c30 6dbd 7b6a 3f3b 2c50 63bc 9802 483d
000002d0: 5911 bdbd 2135 ce3c 9965 7f3c 465e 7a3d
000002e0: 62b5 103e 80d1 70ba 8991 a83d 29f6 5e3d
000002f0: c9cb 7ebd 2610 b0bd ac51 a83d f7ac 29be
00000300: b061 193e acca df3b ebe4 febc 9788 0b3d
00000310: 34f0 ec3d 13b4 143d 2959 6f3d b92c b03d
00000320: 7863 b93c 9d7b 923d 2ed9 9cbe 2543 c9bd
00000330: d2ce 4a3d b400 db3c 0a6a 7fbd 59c8 26be
00000340: af81 38bd e878 3f3c b62e bdbd f149 b53d
00000350: 5fdc 59be b818 2d3d 0ce7 b0bc 951b 77be
00000360: 16ae afbd d06e e03d 94ea 4abd 9ff0 79bd
00000370: 5bbb b4bc fa2d c1bc cdd8 f33d f902 2dbe
00000380: a5b8 9abe b268 0d3e 8264 36be bdcd 613d
00000390: e1b3 e33d ba86 b03c 2053 b03d fe6f 48bc
000003a0: 4d5b 033e be61 27bc 5006 513c f6f0 2bbe
000003b0: d1a6 153e 5b6a db3c e922 acbe 5fc9 d3bc
000003c0: ec91 153c 5aaa 45bc ecf6 263d 21c0 d0bd
000003d0: a17a 903d 6157 c5bc 3d66 8abe 62e4 773d
000003e0: cbce 85bb 0ce9 e73d 5a2e 863d f5ca abbd
000003f0: 8eb1 903e 3f5a 2f3d 526d a93d fc8e 993b
0.058046605 -0.028440256 -0.018098429 0.0005531561 0.120969646 0.021175606 -0.11173407 0.052335203
0.000517905 0.020174343 0.1394035 0.081037045 -0.01604288 0.14471672 0.099036336 -0.042866025
0.062259447 0.020910189 -0.27261546 0.0058599305 0.027819071 -0.084469914 -0.04614066 -0.21343717
0.10098584 0.0531382 -0.04755308 -0.013293066 0.023153521 0.023037653 0.15226813 0.034036547
-0.25424007 0.13651197 0.0059464863 -0.010362135 -0.050357252 -0.10677005 -0.070308454 0.034576606
0.09930353 -0.031738102 -0.008876124 -0.017681064 0.10445729 0.16359039 0.05667829 -0.035563253
0.11154179 -0.01977129 -0.12045947 0.003136476 0.163041 -0.25693095 0.14324005 0.0394476
-0.11540754 0.03300283 -0.099652834 0.043961685 -0.027765257 -0.068554826 -0.0800965 0.12916408
-0.038927313 0.014943329 -0.0073843296 0.13879621 0.08001214 -0.147344 -0.11120695 0.16810709
0.06765658 0.07176389 0.0042272527 0.07065516 0.17040296 0.058117304 -0.14569485 -0.012281382
0.01709174 0.0014715163 -0.0053602424 0.051226202 -0.24289417 -0.027536137 0.050064452 0.010599991
0.11775971 -0.006163007 -0.1260642 -0.004491675 0.040675625 -0.15451942 0.005838296 -0.21590881
-0.015635822 0.007625066 0.053819213 0.097144604 0.09740931 0.028801225 0.04809224 -0.07007566
0.031466607 0.0713659 0.0036755246 -0.12234457 -0.08901605 0.02696189 -0.12420544 -0.1988941
0.106337994 0.0953901 -0.19510292 0.02810219 0.06403256 -0.0054604406 -0.12696995 -0.04154711
-0.015517489 -0.11052432 0.08049826 0.07071327 0.03458588 0.012288974 0.022660857 0.05077222
0.05963674 0.28763455 -0.06393559 0.02354285 0.17801663 0.079591215 0.074507385 0.04033348
0.09625564 0.021151131 -0.0136320535 -0.026259804 0.096316285 0.00012311386 -0.050161004 -0.026958643
-0.19674616 0.040089343 -0.11983727 0.10373767 0.1052115 0.07481312 0.078279145 0.087479025
0.04848976 -0.07731733 0.07744331 -0.028113943 0.007772479 0.12470257 -0.0013132343 0.079123914
-0.35434344 0.05873918 -0.0034162898 -0.024440154 -0.02026999 -0.052106448 0.07850032 0.06510962
0.013609954 -0.06524777 -0.026888153 0.07319773 0.11078321 0.0093574105 -0.18565829 0.08897955
-0.057907626 0.0029207754 -0.013874095 0.0488306 -0.092318244 0.025171818 0.015588188 0.061125062
0.14131692 -0.00091864914 0.08230884 0.054433975 -0.062206063 -0.0859683 0.08218703 -0.16569887
0.14978671 0.0068295803 -0.031115016 0.03406581 0.115692526 0.036304545 0.05843464 0.0860228
0.022630438 0.071524836 -0.30634445 -0.0982726 0.049513645 0.026733734 -0.062356986 -0.16287364
-0.04504555 0.011686541 -0.09237425 0.08851994 -0.21275471 0.0422599 -0.021594547 -0.24131615
-0.08578126 0.10958636 -0.049540117 -0.06102049 -0.022061994 -0.023581494 0.11906586 -0.16895665
-0.30218998 0.1380947 -0.17811778 0.055127848 0.111182936 0.021548618 0.08609605 -0.012233732
0.12827797 -0.010216175 0.012757853 -0.16791138 0.14614417 0.026784113 -0.33620384 -0.025852857
0.009129029 -0.012064541 0.040762827 -0.10192896 0.070546396 -0.024089517 -0.27031127 0.060520537
-0.0040834895 0.11323747 0.065518096 -0.0838832 0.28260463 0.042810675 0.08272804 0.0046862345

output.bias f4 [4]
00000000: a358 6d3f 14a6 653f 602d 713f 7b38 733f
0.92713374 0.8970654 0.9420986 0.9500806

exp_avg f4 [100, 37]
00000000: 0e3a f1b4 26ca deb7 5522 1db7 8321 f5b8
00000010: 63f5 62b7 22f4 0787 986d 91b8 ecb6 c4b7
00000020: 7a9c 7db8 f2fe dfb7 17de b2b8 6b2a 54b8
00000030: 0cb7 71b7 52ec 47b6 7cb3 3cb8 71b7 84b6
00000040: ef3b f4b7 cde5 fb35 b6fe ffb8 e2e4 beb6
00000050: bd51 96b8 130a 73b8 c2a8 d7b7 8bec 0a36
00000060: 308e 40b8 adf7 aeb8 65dc 35b8 fb6f d4b7
00000070: bbec 99b5 d758 61b8 ce07 2fb7 618e 8fb8
00000080: ee25 a5b7 7861 65b8 2f1a 16b8 96ea 8238
00000090: e149 4ab7 d07e 07b8 5684 f9b8 62aa 8438
000000a0: 8ccd 4c39 dd1d 0eb9 50bc 4cb9 8700 8e39
000000b0: d45a 80b6 ddfb 1438 b9db 8b37 7954 9c37
000000c0: ea1c 2b39 cc32 83b7 0501 77b8 c05a 0738
000000d0: 9301 2a39 01a3 1ab9 1690 8e38 03d2 ce37
000000e0: 87c4 1fb9 953c ebb8 ba70 5839 4698 e437
000000f0: 7d49 6eb7 58b4 a738 c79f c238 e558 fbb8
00000100: 0123 2139 9a2c a2b7 6a67 7fb8 fff0 07b8
00000110: 5015 1039 dec8 3b39 1061 39b9 36b8 cf38
00000120: c556 2e39 5210 3b39 d3ed 0038 3b5f 12b8
00000130: 4af1 95b6 f1dd 3b39 f858 0bb9 9648 3236
00000140: 3c62 d5b8 3778 9b39 27b3 e1b7 b0b4 3db8
00000150: b725 8438 11d6 97b7 2f6e d838 de16 bc37
00000160: b9c2 5237 348b 7839 fd06 ecb8 e614 5d38
00000170: fa5b dfb6 a69b 2bb8 3b20 75b8 af18 5e38
00000180: 888c 6039 75e2 1fb8 2534 2b38 00d1 79b6
00000190: b272 7738 a280 2939 fd8f 42b8 2ce5 c937
000001a0: 5882 1536 c88d 81b8 3a5e bf39 8d79 0db9
000001b0: 3a06 4cb5 534f deb9 43aa 043b d6de d238
000001c0: 8d2f 9436 2417 da38 db48 bb37 df37 4d38
000001d0: 74c3 1839 f6ff 9537 cb69 9d38 8f58 f6b6
000001e0: edb6 7338 629e 8339 c5fe 8237 62f1 c2b7
000001f0: aa8d 4bb7 44b5 1d38 06ac 6fb4 9988 10b7
00000200: 2f93 4c39 64db 3c38 3cc8 3838 69c9 af38
00000210: 8448 d1b7 40cc 1839 93ed df37 65bd 8a36
00000220: d386 e638 0d7e c736 496d 0838 d1d5 ad38
00000230: e56c 8737 67d1 c538 f9d1 4438 3338 d338
00000240: 613b 33b7 1fb6 0738 3fcb 2339 50e3 d539
00000250: b6f7 9a37 3176 1938 28c9 bab7 0189 3521
00000260: 18b8 49b5 053d 7737 0400 0080 0141 16b4
00000270: efa8 9837 bd3a 3537 2f4e 53b8 5232 76b7
00000280: 462c bb37 0c69 9e38 1c55 86b7 41c8 ac37
00000290: 56b1 0037 c1d4 d136 b7b2 e7b5 c899 3937
000002a0: d8a7 44b8 ab6c 4837 c1c0 0137 f5a9 7b38
000002b0: 74aa 27b5 ba87 97b7 786c 04b6 5829 2338
000002c0: 0abb 6937 2301 60b7 9628 de37 0400 0000
000002d0: eb8f 35b4 ed75 d936 65b7 6737 1539 15b9
000002e0: 66d7 4d38 16ea e8b8 d33b 6838 acec de38
000002f0: 89b5 0837 4999 4b37 d407 1d39 f56d a5b8
00000300: 3131 34b8 235c 0138 f202 0bb6 ec6d a436
00000310: d83f 6438 74ef 3838 b54e 3bb8 18dc e937
00000320: 5056 8c38 06d6 d5b8 d01b a438 476c 8237
00000330: 171d 9237 6370 c638 ffc1 18b8 4a1d 0bb8
00000340: e56c 0d38 afcf 74b8 f551 7238 0081 90b8
00000350: 4844 9237 40fc 5b38 bf9a 9538 5399 0739
00000360: e88b 0cb9 f622 2a38 7d2b c037 3083 efb8
00000370: f25b 3938 033a 49ba 2aca 813a ffc0 8cb9
00000380: b486 b6b9 1616 a239 ec63 8fb8 04e1 4fb8
00000390: 1ccd dc39 17fe c139 5ac0 76b8 d5ea c539
000003a0: 97d8 1a3a 8f0d 04b9 3f35 4339 0790 0538
000003b0: 4619 f238 07c1 083a 55dd d7b8 651a fa39
000003c0: 2f5c 5fb9 4931 5239 f525 b7b9 5845 263a
000003d0: 3e79 a7b8 9c70 fa39 ff8c 4439 a9f2 bd38
000003e0: 6189 4839 a6c6 c139 3d78 0338 ed09 ec39
000003f0: fd79 173a b1cd 17b4 82fd 7cb8 6d6b 2d39
-4.4931988e-07 -2.6558595e-05 -9.365923e-06 -0.000116887524 -1.3527783e-05 -1.0228015e-34 -6.934552e-05 -2.34502e-05
-6.046563e-05 -2.670239e-05 -8.529069e-05 -5.0584244e-05 -1.4407338e-05 -2.9790867e-06 -4.498985e-05 -3.955262e-06
-2.9114975e-05 1.8767838e-06 -0.00012206791 -5.6890867e-06 -7.167782e-05 -5.7945097e-05 -2.5708581e-05 2.0701289e-06
-4.590879e-05 -8.3431e-05 -4.335902e-05 -2.5324514e-05 -1.1468286e-06 -5.372692e-05 -1.043263e-05 -6.8452915e-05
-1.9687195e-05 -5.468863e-05 -3.5787172e-05 6.242578e-05 -1.20573395e-05 -3.230461e-05 -0.00011897895 6.325987e-05
0.00019531528 -0.000135533 -0.00019525108 0.00027084743 -3.825271e-06 3.5520516e-05 1.6672408e-05 1.8635985e-05
0.00016318602 -1.5640071e-05 -5.889034e-05 3.2271026e-05 0.0001621305 -0.00014747308 6.797926e-05 2.4654908e-05
-0.00015236634 -0.000112169575 0.00020641359 2.7250626e-05 -1.4203016e-05 7.996772e-05 9.280402e-05 -0.000119851706
0.00015367196 -1.9332674e-05 -6.089305e-05 -3.2410953e-05 0.0001374085 0.00017908539 -0.00017679133 9.904841e-05
0.00016626257 0.0001783979 3.073907e-05 -3.4897803e-05 -4.468636e-06 0.0001791639 -0.00013289216 2.6566318e-06
-0.00010174929 0.0002965347 -2.6905514e-05 -4.522939e-05 6.3012754e-05 -1.8100285e-05 0.00010320206 2.2421995e-05
1.2562313e-05 0.0002370298 -0.000112546586 5.270997e-05 -6.6566254e-06 -4.0914536e-05 -5.844257e-05 5.2951913e-05
0.00021414657 -3.811946e-05 4.081814e-05 -3.7225545e-06 5.8996207e-05 0.00016165015 -4.6387304e-05 2.4067784e-05
2.22786e-06 -6.177608e-05 0.00036500563 -0.00013492089 -7.6004983e-07 -0.0004240224 0.0020243085 0.00010055087
4.4162794e-06 0.0001039936 2.2326063e-05 4.8927843e-05 0.00014568662 1.7881375e-05 7.506049e-05 -7.341681e-06
5.8106078e-05 0.00025104271 1.5615844e-05 -2.3239005e-05 -1.2132727e-05 3.7600534e-05 -2.2321191e-07 -8.614873e-06
0.00019509786 4.5027016e-05 4.40555e-05 8.382166e-05 -2.494851e-05 0.00014571939 2.66943e-05 4.134769e-06
0.000109923676 5.9453364e-06 3.2526706e-05 8.289109e-05 1.6143962e-05 9.432696e-05 4.6925594e-05 0.00010071732
-1.0683057e-05 3.235612e-05 0.00015620606 0.00040795887 1.847358e-05 3.6588117e-05 -2.2266599e-05 6.150651e-19
-7.5146227e-07 1.47365545e-05 -6e-45 -1.3993487e-07 1.8198478e-05 1.0802117e-05 -5.0379134e-05 -1.4674459e-05
2.2312754e-05 7.5535936e-05 -1.6013677e-05 2.0597248e-05 7.670684e-06 6.253453e-06 -1.7262854e-06 1.1062664e-05
-4.6886358e-05 1.194623e-05 7.733878e-06 6.0001348e-05 -6.246039e-07 -1.8063805e-05 -1.973267e-06 3.8900733e-05
1.3931431e-05 -1.3351705e-05 2.6483362e-05 6e-45 -1.6909296e-07 6.4808323e-06 1.3811373e-05 -0.00014231012
4.9076414e-05 -0.00011106224 5.5368826e-05 0.000106298685 8.148499e-06 1.2135432e-05 0.00014975603 -7.888294e-05
-4.2961157e-05 3.0841806e-05 -2.0714328e-06 4.9003775e-06 5.4418895e-05 4.4092027e-05 -4.4657576e-05 2.7878254e-05
6.691797e-05 -0.000101964964 7.82531e-05 1.5547628e-05 1.7418102e-05 9.4623094e-05 -3.6420297e-05 -3.316746e-05
3.3718436e-05 -5.8367554e-05 5.7773625e-05 -6.890483e-05 1.7436352e-05 5.2448595e-05 7.133697e-05 0.00012931721
-0.0001340356 4.056372e-05 2.2908434e-05 -0.00011420844 4.4193068e-05 -0.0007676186 0.0009902169 -0.00026846674
-0.00034814107 0.00030915503 -6.837383e-05 -4.9562208e-05 0.00042114488 0.0003700114 -5.883011e-05 0.00037749732
0.0005906908 -0.00012593552 0.00018616485 3.1843807e-05 0.00011544167 0.00052167516 -0.00010293225 0.0004770338
-0.00021301278 0.00020045521 -0.0003493276 0.00063427305 -7.985764e-05 0.00047767616 0.00018744542 9.057421e-05
0.00019124664 0.00036959833 3.1344814e-05 0.00045020823 0.00057783705 -1.4137801e-07 -6.031758e-05 0.00016538585

exp_avg_sq f4 [100, 37]
00000000: 164f a132 34f9 d433 888c dc33 09a2 2934
00000010: 241c 0c33 e5c7 6231 de9f a134 b7e8 3333
00000020: e4a6 0e33 657b 8733 d0ad f933 5d6d 2e34
00000030: baee be33 7ec3 8732 8065 0333 04a4 ac33
00000040: 5241 0034 85f8 e333 9226 a333 96dc 8033
00000050: 0cd7 e233 f0ca 5d34 a36f 8933 8260 f031
00000060: 40ba 2a33 d26c e533 2811 7f34 7719 e332
00000070: 51b5 ce31 de2b ad33 14b1 3833 d902 7b34
00000080: 6ac0 d333 b43e fa31 7327 4233 ebd7 1035
00000090: 81a1 1b37 ef21 4f35 7218 7634 f38a eb34
000000a0: f651 9634 c0c8 ba34 0bbb 2a35 29e0 0435
000000b0: dc63 0935 adf5 f033 3af6 7a34 b6b4 8433
000000c0: 68b8 8c35 cb98 2935 a68b ba32 5e62 1834
000000d0: 162e 2735 2e58 8433 5954 2135 7be4 e434
000000e0: 9e47 9f34 fad6 0f32 4dbc 4e35 e82f 7f35
000000f0: 7942 da32 37b9 d433 7d52 3335 4185 a634
00000100: 8f4b 0b35 da31 5d34 c5a2 c134 dd66 9334
00000110: 27b3 2635 a72f 4335 0e19 1634 92c6 f733
00000120: 452e 0636 87a6 5c38 7bdf 6435 09f2 5135
00000130: 059d 5035 b66b ab34 685c eb34 e94b 8733
00000140: fb7c b735 82f2 7e35 9791 b034 3c8b a934
00000150: 61d2 2c35 7f24 9a35 3c78 3e35 1228 9834
00000160: 6e07 a734 d2db 5e35 4e81 6135 7049 6e35
00000170: 0123 6034 e54c ef34 6ee6 2835 bcb9 a835
00000180: 3a6c 3635 8fb3 2534 a677 d134 81dc 2135
00000190: dac2 a235 1c02 3f35 41bf 7434 4071 ba34
000001a0: ce28 0434 04c7 cc35 00fe 6235 3f41 9134
000001b0: 6e13 ae34 c688 6336 13ad a338 e7ea 3e35
000001c0: 2b68 b433 1682 7c34 93d8 6733 31d8 8c34
000001d0: f40d 0635 3455 c034 f26e 3934 46fb 2133
000001e0: 773b 1734 c79c bf34 9b6c 4834 58fe 8c34
000001f0: 9cb1 9634 1f77 5933 d7a2 0330 82ef d533
00000200: 8595 7235 cfee 9d33 6de6 0634 4f40 ef33
00000210: 46f6 c234 66ff 1435 7e70 6c33 06f6 6334
00000220: 1fdf 7634 fbc3 b834 5e22 1734 9967 ce34
00000230: 185e 2934 ffeb e634 2fff c934 ec2a 7d34
00000240: 0a7e 7033 e8c1 f533 f638 ce35 9fa3 1138
00000250: 049d ca33 1985 d932 71df 1834 36ff 8531
00000260: a587 e032 68e7 8734 9f04 612a 8092 e131
00000270: 5302 5632 e9b9 7131 4e27 1b34 e34e 6e33
00000280: 8d02 7533 026f f031 6284 3b33 7430 1c34
00000290: 2b06 9b32 0ff8 c833 418f d031 e054 3b33
000002a0: 126f 0034 05e8 4e31 9e93 c633 a7b1 3f33
000002b0: 4122 5631 2105 2634 4dcf 3132 7363 8633
000002c0: 3055 1c33 d6b7 0e33 1759 4e34 caea 922f
000002d0: 88c0 9033 16f3 e22f 8fab 5d31 3e55 a134
000002e0: 1dcb 1837 4fb2 f334 51aa f934 6d77 1335
000002f0: 6f97 2c34 67dc 8d34 ad0e 8f35 b5e2 a234
00000300: 90b9 0734 9249 af33 76e2 8d34 827b d834
00000310: 7fb1 1935 c8a1 dd34 f13c 5634 d6a0 cd34
00000320: 0acd f034 f975 2335 b257 c634 e9f1 2e34
00000330: eda8 bc34 cac4 0635 40ec fa34 e393 d934
00000340: f5ee 7934 ea31 ae34 b4f3 eb34 cd27 0635
00000350: 7324 0b35 bfc1 0734 e4f0 bf34 5cfc 6635
00000360: 96b5 5134 1350 bd34 3aa4 3b34 7c8d 8534
00000370: 03fc e535 1c35 3d38 0e05 5836 3edb 6a36
00000380: a95e 8836 6539 0d36 0338 2e36 f85e c536
00000390: cc3a 5e36 3399 2d36 ad44 d135 df5c 0a36
000003a0: f8a3 6c36 4d9f 8836 739e 7336 09d4 f835
000003b0: 1923 2b36 2bbd 6336 531e 8436 7b4d 8436
000003c0: cba2 ef35 639b 4936 556c 9c36 899a 7c36
000003d0: 4e30 4136 e258 eb35 1d13 3036 e410 8336
000003e0: bda8 6636 80e2 8b36 22cd d435 fb6d 3536
000003f0: 89ba 5d37 6cb1 2b2f 5fa8 ab34 47a2 d834
1.8778831e-08 9.917349e-08 1.0270111e-07 1.57983e-07 3.2621884e-08 3.3000955e-09 3.0104906e-07 4.1888338e-08
3.3213738e-08 6.308873e-08 1.16265824e-07 1.6244799e-07 8.8909886e-08 1.5804968e-08 3.0593128e-08 8.0392084e-08
1.1944692e-07 1.0615717e-07 7.597295e-08 6.000589e-08 1.0563062e-07 2.0656057e-07 6.399866e-08 6.995891e-09
3.9750603e-08 1.0683438e-07 2.3754967e-07 2.6437858e-08 6.0160024e-09 8.06392e-08 4.300189e-08 2.3377233e-07
9.860453e-08 7.283086e-09 4.5205024e-08 5.395838e-07 9.276323e-06 7.716289e-07 2.2919428e-07 4.387326e-07
2.7999312e-07 3.4791265e-07 6.360212e-07 4.950003e-07 5.118179e-07 1.1220559e-07 2.3372641e-07 6.1796e-08
1.0484482e-06 6.317975e-07 2.1716755e-08 1.4191889e-07 6.227941e-07 6.162769e-08 6.0099916e-07 4.263455e-07
2.9668166e-07 8.3725755e-09 7.7014994e-07 9.5064615e-07 2.5408768e-08 9.90571e-08 6.680273e-07 3.1016864e-07
5.189149e-07 2.0600365e-07 3.6067482e-07 2.7455727e-07 6.210052e-07 7.2712504e-07 1.3978953e-07 1.15379535e-07
1.9994488e-06 5.2607178e-05 8.5261826e-07 7.8210775e-07 7.771453e-07 3.1929602e-07 4.3839395e-07 6.3002354e-08
1.3670937e-06 9.497527e-07 3.2888485e-07 3.158001e-07 6.4381135e-07 1.1484516e-06 7.095548e-07 2.834136e-07
3.111158e-07 8.3021325e-07 8.4007195e-07 8.8768775e-07 2.087436e-07 4.4573167e-07 6.2920196e-07 1.2571031e-06
6.7957774e-07 1.5432146e-07 3.901634e-07 6.029805e-07 1.212665e-06 7.1156114e-07 2.2793849e-07 3.47276e-07
1.2308303e-07 1.5257106e-06 8.456118e-07 2.7055827e-07 3.2424163e-07 3.3905249e-06 7.804683e-05 7.1122344e-07
8.400851e-08 2.3516654e-07 5.3980852e-08 2.6234332e-07 4.9939194e-07 3.582478e-07 1.726983e-07 3.7714265e-08
1.4084604e-07 3.5690593e-07 1.8665962e-07 2.6262092e-07 2.8068905e-07 5.063259e-08 4.788893e-10 9.9621516e-08
9.0369605e-07 7.354321e-08 1.2563551e-07 1.11410024e-07 3.6314503e-07 5.550595e-07 5.5050343e-08 2.1230525e-07
2.2991706e-07 3.4415265e-07 1.4075474e-07 3.8445867e-07 1.5773583e-07 4.3012548e-07 3.7624838e-07 2.3578076e-07
5.5993986e-08 1.1443973e-07 1.5364774e-06 3.4723078e-05 9.434919e-08 2.532265e-08 1.423739e-07 3.8998236e-09
2.6138716e-08 2.531408e-07 1.9985618e-13 6.565017e-09 1.2456968e-08 3.5175793e-09 1.4449799e-07 5.548544e-08
5.7045828e-08 6.9975394e-09 4.3659732e-08 1.454626e-07 1.804718e-08 9.358347e-08 6.069883e-09 4.3616524e-08
1.1961336e-07 3.0108833e-09 9.246945e-08 4.4632227e-08 3.116057e-09 1.546182e-07 1.0349891e-08 6.257951e-08
3.6399058e-08 3.322915e-08 1.9217656e-07 2.6724073e-10 6.740544e-08 4.1281883e-10 3.2257252e-09 3.005061e-07
9.107197e-06 4.5392014e-07 4.6503786e-07 5.4935555e-07 1.607384e-07 2.642366e-07 1.0658601e-06 3.0339802e-07
1.2640362e-07 8.162455e-08 2.642807e-07 4.0323e-07 5.725523e-07 4.128217e-07 1.9952473e-07 3.830125e-07
4.485267e-07 6.0893905e-07 3.694418e-07 1.6293019e-07 3.5140638e-07 5.0205256e-07 4.6738023e-07 4.0527001e-07
2.3276864e-07 3.2446343e-07 4.3949478e-07 4.997681e-07 5.1834576e-07 1.2643339e-07 3.5751793e-07 8.604891e-07
1.9530702e-07 3.5262255e-07 1.7475477e-07 2.4876124e-07 1.7135175e-06 4.5110573e-05 3.218945e-06 3.4996333e-06
4.0641357e-06 2.1044045e-06 2.5960624e-06 5.8821133e-06 3.3114802e-06 2.5868183e-06 1.5591701e-06 2.061766e-06
3.5262183e-06 4.071661e-06 3.6302051e-06 1.853915e-06 2.5501415e-06 3.3935746e-06 3.9374368e-06 3.9429265e-06
1.7854267e-06 3.004178e-06 4.661774e-06 3.7640878e-06 2.8787358e-06 1.7534733e-06 2.623717e-06 3.9060706e-06
3.437089e-06 4.168891e-06 1.5854932e-06 2.7035119e-06 1.3216058e-05 1.5615392e-10 3.1973738e-07 4.0351208e-07

exp_avg f4 [100]
00000000: c8b4 20b9 bc01 e138 0bd2 3239 9685 7239
00000010: 768d 0938 616e 7638 83fb 323a 7895 f5b9
00000020: 83da 6a39 d5bd a5b8 556f 27ba a914 5ab9
00000030: e8e6 8d38 86f9 dab6 4d7a 4539 105b 4238
00000040: c678 8cb6 3a45 6838 5c54 5337 2dd3 d4b9
00000050: d6eb 61b7 f55f 71b8 e476 c0b8 c97b 0538
00000060: 7b2f ccb9 7701 1639 1778 8eb9 5e45 0db7
00000070: 422c d3b8 3890 243a a46e 8537 e720 c339
00000080: 851a 4bb9 2751 b8b9 22dc b5b9 634c 8bb8
00000090: d9b5 8838 55eb 80b9 47c9 3438 c4d9 f3b8
000000a0: 0400 0000 f952 99b8 12e5 99b9 a29a 3c37
000000b0: a5be 8839 434b e138 fee4 5bb9 9eab 6839
000000c0: 5494 1a39 58de 36b8 4e98 93b9 79db 68b9
000000d0: 4cd5 afb8 f215 10b8 8393 c6b8 3b70 4c39
000000e0: 5914 03b9 18f3 ff38 ba14 cdb9 6e15 12ba
000000f0: 8141 8736 5947 d238 06a1 60ba 4805 63b9
00000100: 8687 d536 b0e5 acb8 6483 23ba 4eb6 1aba
00000110: 1617 c5b8 684f a4b9 f525 eeb9 6c98 8a39
00000120: 3cda 8039 6285 2ab8 01f5 e8b8 dac1 7f3a
00000130: febf e439 b3bb 8a39 bec3 2f38 c043 feba
00000140: b5d2 a3b8 9f96 e0b8 919d 5d38 102f 00b9
00000150: 0fff 7439 77d9 b939 a1ab 2839 dc9b 6bb9
00000160: 644d 73b8 1a2e a538 11f9 6838 a2bb 8739
00000170: 8a4c dfba fd79 14b9 19ed bb38 f33c 10b9
00000180: 5b30 71b9 8a36 45b8 a026 d339 ab29 93b8
-0.00015326135 0.00010729159 0.0001705365 0.00023128683 3.279509e-05 5.875377e-05 0.00068276393 -0.00046841404
0.00022397381 -7.903172e-05 -0.0006387134 -0.00020797797 6.7664136e-05 -6.5259546e-06 0.00018832945 4.6338013e-05
-4.186385e-06 5.5377583e-05 1.25962215e-05 -0.0004059313 -1.3465955e-05 -5.7548245e-05 -9.1774185e-05 3.1824955e-05
-0.00038945288 0.0001430566 -0.00027173824 -8.420406e-06 -0.00010069508 0.0006277594 1.5906357e-05 0.00037217812
-0.00019369468 -0.00035155678 -0.00034687022 -6.6422646e-05 6.518857e-05 -0.00024589399 4.31028e-05 -0.00011627705
6e-45 -7.3110634e-05 -0.00029353105 1.12416765e-05 0.00026081983 0.00010742855 -0.00020970774 0.00022189177
0.00014741841 -4.3599255e-05 -0.000281515 -0.00022207004 -8.38438e-05 -3.4352714e-05 -9.468852e-05 0.00019496765
-0.00012500714 0.00012204627 -0.0003911609 -0.0005572651 4.030939e-06 0.0001002687 -0.0008568916 -0.00021650374
6.3636717e-06 -8.244382e-05 -0.0006237535 -0.00059017993 -9.397992e-05 -0.0003133968 -0.00045423178 0.00026434974
0.0002457666 -4.065538e-05 -0.000111082576 0.0009756364 0.00043630594 0.00026461258 4.190555e-05 -0.0019398853
-7.811693e-05 -0.00010709208 5.283725e-05 -0.00012224563 0.0002336467 0.00035447974 0.00016085665 -0.00022469409
-5.800779e-05 7.8764e-05 5.554507e-05 0.00025889004 -0.001703636 -0.00014159824 8.961018e-05 -0.00013755616
-0.00023001565 -4.7019254e-05 0.00040273834 -7.0172675e-05

exp_avg_sq f4 [100]
00000000: 2916 ca34 abf3 ed35 4f16 3a36 f7d4 9135
00000010: 106a 8e34 4af4 d035 122e 6b37 a825 8436
00000020: e5dd 8b36 e2a0 4a34 db9b 0736 4060 f034
00000030: df74 9a35 846f 2834 ef2b 8735 477e ce35
00000040: 1feb 0f35 e322 1633 0da7 5a35 2c17 2f35
00000050: 07c0 2a34 b6b1 1536 0c25 8335 9afb 6635
00000060: a5a3 6e36 3947 0a35 59b9 5f37 e4b5 8235
00000070: 1c72 e234 9d7f be36 85f2 5a34 84d2 a635
00000080: bc09 4435 acbd d836 e22b 3837 6e07 1635
00000090: 0d75 be34 3518 af36 7c82 1036 0860 f434
000000a0: 5d25 8d29 0d37 7f34 0d23 7735 2650 6836
000000b0: 45f9 6737 24b0 ce34 b4db 7235 4ca4 df35
000000c0: 7b18 e635 6d9f 0e35 3729 7b36 193b 5c36
000000d0: b3e1 3235 6ce2 0734 911b 6735 e6cd 1536
000000e0: 7cd6 0736 2946 4734 0ad8 2637 a4cb ec35
000000f0: c989 f736 8293 2c36 e04a d236 b700 ad35
00000100: f29e 4b34 0f5b c235 f43c c037 9253 6d37
00000110: 2d83 3a35 9b94 b435 6caa 0136 e01f e435
00000120: d139 c835 3a99 0c36 27f0 8935 c5e3 0238
00000130: 93ab 1636 1370 a536 83f1 5434 8c98 9838
00000140: 39ff 3935 5dfd e134 12f8 2436 add3 1135
00000150: a25c 0b38 192b 6237 95fc dc37 bac4 9b36
00000160: 9bcf 9933 3dee 2a34 d3d4 9d35 29db 9f36
00000170: 6424 e937 897c 1235 3ade 5336 aaa0 8b35
00000180: 8768 7a36 9148 0d35 dda7 9f36 f609 f836
3.7641556e-07 1.7728793e-06 2.7729145e-06 1.0865323e-06 2.6526732e-07 1.5568305e-06 1.4017818e-05 3.9382903e-06
4.1683547e-06 1.8871245e-07 2.0207287e-06 4.4773515e-07 1.1507908e-06 1.5686788e-07 1.007107e-06 1.5384948e-06
5.36138e-07 3.4956326e-08 8.145442e-07 6.52263e-07 1.5902343e-07 2.2306172e-06 9.771043e-07 8.6047805e-07
3.5560017e-06 5.151265e-07 1.333499e-05 9.738692e-07 4.2178806e-07 5.6772974e-06 2.039106e-07 1.2429232e-06
7.3029855e-07 6.4593823e-06 1.0977472e-05 5.5890166e-07 3.5475423e-07 5.2182245e-06 2.1533624e-06 4.5518414e-07
6.2681394e-14 2.3768753e-07 9.2065676e-07 3.4617347e-06 1.38267105e-05 3.849865e-07 9.0471735e-07 1.6662611e-06
1.714346e-06 5.313112e-07 3.7425905e-06 3.2816954e-06 6.6638603e-07 1.2655227e-07 8.609432e-07 2.2322579e-06
2.0241414e-06 1.8558843e-07 9.944672e-06 1.7642637e-06 7.377214e-06 2.5715858e-06 6.2672043e-06 1.2889712e-06
1.8963672e-07 1.4480628e-06 2.2916567e-05 1.41457585e-05 6.9481285e-07 1.3454295e-06 1.9321697e-06 1.6996601e-06
1.4917988e-06 2.0950815e-06 1.0277189e-06 3.1206542e-05 2.245161e-06 4.9304304e-06 1.98319e-07 7.276339e-05
6.928927e-07 4.2093862e-07 2.45823e-06 5.432474e-07 3.3226454e-05 1.3480684e-05 2.6343661e-05 4.642262e-06
7.162381e-08 1.5919154e-07 1.1759352e-06 4.764083e-06 2.779271e-05 5.457046e-07 3.1570803e-06 1.0403066e-06
3.7313746e-06 5.263219e-07 4.758111e-06 7.3921356e-06
