p1_navigation/DQN_20190201_v28_500eps_10.97score.pth (torch_old, 89653 bytes, 18 tensors)

hidden_layers.0.weight f4 [64, 37]
000000 c2 ea 62 be a2 2c 9e 3e 5e 40 11 be 75 1f 8b bd
       -0.22159865 0.30893427 -0.1418471 -0.06793109
000010 23 39 6a 3e 04 9c ad 3d 51 f5 a2 bd dc 33 82 3e
       0.22873358 0.08477023 -0.07956947 0.2543019
000020 75 57 84 bd 29 48 45 3e 9d d4 42 be 9f 46 7f bd
       -0.064619936 0.19265808 -0.19026418 -0.06232321
000030 97 58 b4 bd ae da 0c 3e 6f f3 7e be 8b 44 e2 3d
       -0.0880596 0.13755295 -0.2489755 0.1104823
000040 02 ac 68 3d 30 96 ed 3c 4a d7 a9 bd 19 f8 db be
       0.056804664 0.029002279 -0.08293016 -0.4296272
000050 55 c4 98 be de 7d a5 3e 61 73 14 be 12 13 a2 3e
       -0.2983729 0.32322592 -0.14497139 0.31655174
000060 fc 69 ee bc 34 21 81 3e 98 f5 56 3e d3 88 ea be
       -0.029103272 0.25220644 0.20992124 -0.45807514
000070 33 4c 1d bf 32 00 15 bf ba b9 f3 3c a8 b5 e3 3d
       -0.61444396 -0.58203423 0.029751647 0.111186326
000080 ff 2c 76 be 17 39 dc 3a d4 30 2e be 80 e2 b2 bc
       -0.24040602 0.0016801682 -0.17010814 -0.02183652
000090 b8 a9 57 3c 2e 7a 45 3e ad 35 b5 3c 75 72 b5 3d
       0.013163023 0.19284889 0.022120321 0.088597216
0000a0 bd 85 46 bd f0 b0 4b be 13 44 09 be f9 d4 00 bf
       -0.048467387 -0.19891715 -0.13404875 -0.5032497
0000b0 07 8d 88 3d c0 63 91 3e 8a 52 f6 be 97 6a a3 3e
       0.06667524 0.28396416 -0.48109847 0.3191726
0000c0 dd b2 cf bd 69 6b be be 04 e7 a3 3d 58 02 6a be
       -0.10141537 -0.37191322 0.08003047 -0.22852457
0000d0 db bc 69 3d 8f 73 31 bd da 61 80 3c 69 2c b5 3d
       0.057064872 -0.043323096 0.01567166 0.08846361
0000e0 32 ed 37 3d b8 71 88 bd 85 a4 2b bf a4 76 86 3d
       0.04490394 -0.06662315 -0.6704791 0.06565598
0000f0 34 c0 a8 3e c3 70 bd be 43 b1 d4 be 77 de 64 3d
       0.3295914 -0.37000093 -0.4154149 0.05587622
000100 c8 65 4e 3e 25 88 98 3e 94 9a 9f bd 98 b1 d4 3c
       0.20156014 0.2979137 -0.07793155 0.02596359
000110 83 70 23 3e 3b 9d 49 bd ce c4 e3 3d a1 f0 04 be
       0.15960889 -0.049222212 0.11121522 -0.12982418
000120 b4 54 de 3d 7a 33 22 3d 65 3a 3b be bf bc 98 3e
       0.108559996 0.039599873 -0.18283994 0.29831502
000130 ec b7 79 3e b0 a8 5d bf e7 63 00 be 84 4e 4f bf
       0.24386567 -0.8658552 -0.1253811 -0.8097918
000140 e8 b8 5a be 3e f8 b3 3e 55 c1 05 bf 98 93 2c bf
       -0.21359599 0.3515033 -0.52248126 -0.6741271
000150 72 8a c2 3e 58 b8 fe be 9a 73 71 bd 65 2c 11 be
       0.3799625 -0.49750018 -0.058948137 -0.14177091
000160 80 f0 3f bf 23 39 0c bf 4e e2 29 3d be 78 3e 3e
       -0.7497635 -0.54774684 0.041475587 0.18600747
000170 61 71 0b 3e f1 0a 83 3e c2 d5 a8 bd 44 93 3b bc
       0.1361747 0.25594285 -0.08243896 -0.011448685
000180 09 78 42 3d a1 ec 27 be c6 29 5d be ed 77 4b be
       0.047477756 -0.1639886 -0.21597967 -0.19869967
000190 ec a5 80 3d e8 44 95 3e 21 00 88 be f1 80 22 bf
       0.06281647 0.29154134 -0.26562598 -0.63478
0001a0 ef 7c a9 be 87 cf 71 be b4 f2 0f bd de ab 8a 3c
       -0.3310313 -0.23614322 -0.03514357 0.016927656
0001b0 22 9a 1e 3d b7 95 11 3e 00 0f 2b 3d 41 13 97 3e
       0.03872121 0.14217268 0.041762352 0.29506877
0001c0 bb b3 25 3d c0 be c4 3e 81 db a5 3d f1 09 36 be
       0.040454607 0.3842678 0.08098508 -0.1777723
0001d0 dd 18 d6 3e 5f a1 ce 3e d6 73 0b be 12 74 9f bc
       0.41815844 0.4035749 -0.13618407 -0.019464526
0001e0 b3 6e 3a 3e e4 b6 0b 3d 55 b5 a0 3d ca 75 86 3d
       0.18206291 0.034109965 0.07847086 0.06565435
0001f0 63 aa 65 3e ca b2 10 bc fe 61 32 3e 60 a1 7c 3e
       0.22428279 -0.008831689 0.17420194 0.24670935
000200 42 95 b2 bd 9d b9 a8 bd 05 fe 0c be 48 b7 46 3e
       -0.08719875 -0.08238528 -0.13768776 0.19405854
000210 73 40 4d 3d a5 d0 06 3e 76 a4 6e 3c 9c 8e 0f 3b
       0.05011029 0.13165529 0.014565578 0.002190507
000220 7b 37 99 3e 29 e4 2f 3e f0 d7 15 3d b1 ea 71 3e
       0.2992514 0.1717688 0.036582887 0.23624684
000230 18 54 80 3e b1 74 bf 3e 72 e3 a2 3e d4 a8 09 3d
       0.25064158 0.37393716 0.31814152 0.033608273
000240 5a 9a 05 be 32 ee a9 be b7 2b 81 3e 6f 67 3a bc
       -0.13047162 -0.3318954 0.25228664 -0.0113772
000250 9c 1b 59 bd 15 7e e7 bb 61 fb 1e 3c 22 7f a9 be
       -0.053004846 -0.0070645907 0.009703488 -0.33104807
000260 a3 4f 88 bc 5d fe 8d 3e 72 27 d6 be 70 d9 32 be
       -0.016639536 0.27733126 -0.4182697 -0.17465758
000270 cf c3 3a bf c9 a4 1a c0 6b 49 42 3d 4d bd 09 3e
       -0.7295503 -2.4163077 0.047433298 0.13451119
000280 4a 80 9d bd 4e b6 e6 3d 53 db 94 3b 81 48 32 be
       -0.07690485 0.112652406 0.004542747 -0.1741047
000290 e5 f2 05 be 61 ee 3e bc 63 79 53 3e 3e 0a a0 3d
       -0.13080938 -0.011653514 0.20651774 0.078144535
0002a0 26 38 3e bd e0 75 22 3e 94 23 ae 3d b8 fd 58 3b
       -0.046440266 0.15865278 0.0850288 0.0033110213
0002b0 5a 64 89 3e cd 08 ea bd 63 01 6b 3e a1 66 0c 3e
       0.26834375 -0.1142746 0.22949748 0.13711025
0002c0 af f4 ca 3e 83 2a 85 3d 25 37 9b 3d be fd 21 bd
       0.39639804 0.06502249 0.07578877 -0.039548628
0002d0 66 da 63 3e 8f c5 2e 3e 22 e1 2a 3e 4c a3 ef bb
       0.22251281 0.1706755 0.16687444 -0.0073131677
0002e0 29 a8 1a 3c 94 70 df bd 8f 9d 13 be 4b 95 85 3c
       0.009439507 -0.109101444 -0.14415573 0.01630654
0002f0 4e 2a a4 be 2f fe b6 3e 5e 3a 9d be c3 3f 1e be
       -0.32063526 0.35740802 -0.30708593 -0.1545401
000300 6d aa 8a bd 63 21 8c 3e f1 9d 35 be c2 5c 21 bc
       -0.067707874 0.27369222 -0.17736031 -0.009848775
000310 b6 48 7e be 9b df ac be 76 fe c9 bb 36 bb ad 3e
       -0.24832425 -0.33764347 -0.0061643673 0.33931893
000320 44 3c 35 be c8 c2 2f 3e 29 3a 99 be d6 2e 74 be
       -0.17698771 0.17164147 -0.29927185 -0.23845991
000330 50 b6 8a be c1 c9 87 bd eb 33 bf bd 90 b3 21 bc
       -0.27092218 -0.066302784 -0.093360744 -0.009869471
000340 bf 03 8a bd f3 ca f5 3d 58 af 75 bd 22 48 d7 bd
       -0.06738996 0.120016 -0.059981674 -0.10511805
000350 7b 7b 1f 3d 49 72 1b bf 48 8e 41 be 8d d5 3c be
       0.03893612 -0.6072126 -0.18901932 -0.18440838
000360 c4 ed 45 bd 1f e1 7f 3c eb 62 db be 49 cc 67 bd
       -0.048322454 0.015617638 -0.42848906 -0.056591306
000370 80 2a c0 bc 04 bd 0b 3e d7 29 7f 3e 44 35 9d be
       -0.023457766 0.13646322 0.24918304 -0.307047
000380 a4 3b 8b 3d c7 61 0c 3d 04 d7 ad be 5f 3c 01 3b
       0.06798485 0.034272935 -0.33953106 0.0019719822
000390 43 62 64 be 4c fd 2c 3d cb 4f a1 3e 37 23 a2 3c
       -0.22303109 0.04223375 0.3150619 0.019792182
0003a0 8d ec 83 be a8 e2 39 3e 9e 70 e6 3e 9e 6b 1e be
       -0.2576641 0.18152869 0.45007795 -0.1547074
0003b0 b1 9c 23 3e 07 99 9b be 80 32 63 be 44 94 8d 3e
       0.15977742 -0.30390188 -0.22187233 0.2765218
0003c0 e5 f4 a8 3e f2 e7 ba 3d ed 2f 73 be 88 8d ef 3c
       0.3299934 0.09126271 -0.23748751 0.029242292
0003d0 5b 5d aa 3b cc b6 df 3e ff 60 f3 3c 49 4a 7f be
       0.005199117 0.4369415 0.029709337 -0.24930681
0003e0 5d e0 c5 bd 56 c9 03 3e 7a 0b 90 3d 18 31 14 be
       -0.096619345 0.12869772 0.07033439 -0.14471853
0003f0 0c f3 6e bc 1a 3d 84 bc d9 ae 6b 3d cb 34 22 3d
       -0.014584314 -0.016142417 0.057539795 0.03960113

hidden_layers.0.bias f4 [64]
000000 98 ba 56 3d a4 de 8d bd 48 22 15 be ec 60 1b 3e
       0.052424043 -0.06927231 -0.14563859 0.15173692
000010 1e eb 51 3e 46 46 82 be 13 81 44 bd da 98 16 3e
       0.20499846 -0.2544424 -0.047974657 0.14706746
000020 d5 2f 1c bd 84 bb 12 be 66 ee de 3e 57 48 21 3e
       -0.038131554 -0.14329344 0.4354126 0.15750252
000030 63 d7 44 3e 6d 75 f3 3d 12 b4 03 3e fb e5 2d be
       0.19222789 0.118876316 0.1286166 -0.16982262
000040 47 57 6e 3e 9e 0b c5 bd f2 fd 18 3d c7 81 69 be
       0.23275481 -0.096213564 0.037351556 -0.22803412
000050 15 94 a7 bd ce 09 af bd 37 80 d9 bd 22 db 19 be
       -0.08182541 -0.08546792 -0.10620158 -0.15024999
000060 34 20 f2 bd 79 2e 96 3d 07 d4 88 bc b0 5a 89 be
       -0.118225485 0.07333083 -0.016702665 -0.26827002
000070 18 07 ad 3d 5a 13 27 3e 7a 44 55 be 8b 0b 8e bd
       0.08448619 0.16315976 -0.20826903 -0.069357954
000080 96 80 b2 3d 8a 2f a5 3b 3a 7e c7 bd 70 e0 40 3d
       0.08715932 0.0050410675 -0.09740873 0.04708904
000090 35 d9 d0 bd 00 96 5e ba d7 9a da bd 6d 12 a3 be
       -0.10197679 -0.00084909797 -0.106740646 -0.31849995
0000a0 10 2e e1 bd 91 a0 68 3d d5 04 06 bd 24 22 01 3f
       -0.10995114 0.056793753 -0.032719452 0.5044272
0000b0 0e d6 bc bd bb c2 01 be 16 1f f9 bb 02 0d 8e be
       -0.09220515 -0.1267194 -0.0076025827 -0.277443
0000c0 05 28 87 3d 75 05 66 3d de b6 5e bd 69 eb 57 bd
       0.0659943 0.056157548 -0.054373614 -0.05271474
0000d0 d3 bd 04 be 0f 32 29 be 27 f4 08 be 4f 48 10 3e
       -0.12963037 -0.16523002 -0.13374387 0.14090084
0000e0 bf 91 81 3d 83 5f 9f 3b 24 12 db 3d 53 33 46 be
       0.06326627 0.004863681 0.106968194 -0.19355516
0000f0 b5 26 ef 3d 2b f8 c6 3b 87 45 69 3e c6 da 21 bc
       0.11677305 0.0060720644 0.22780429 -0.00987882

hidden_layers.1.weight f4 [64, 64]
000000 39 4d 23 bf a0 33 fa be 67 75 f5 3e a1 fe 33 be
       -0.6378971 -0.48867512 0.47941133 -0.17577602
000010 fb bb eb bd a8 e6 e2 bd ec 61 d9 3c e5 2d 0d 3e
       -0.11510464 -0.110791504 0.02653595 0.13787039
000020 1f a9 bb bc 81 ae 07 3d 49 15 53 bd dd 9d ce be
       -0.022907792 0.033125404 -0.05153397 -0.40354815
000030 00 f0 a6 bc ed 1e 8c be e3 ba ed 3d 79 ae e3 3d
       -0.020378113 -0.27367344 0.116079114 0.111172624
000040 64 db 65 3d 04 00 69 be 3d 88 86 3d 06 03 4b be
       0.05611743 -0.22753912 0.06568954 -0.19825372
000050 d3 6c c8 be 7a e2 c4 be d0 29 80 3d 32 89 06 bf
       -0.39145526 -0.38454038 0.06257975 -0.52553093
000060 29 2d c3 be 4c b6 d4 3a 26 42 11 be 11 84 23 be
       -0.38120392 0.0016228645 -0.1418539 -0.15968348
000070 69 65 60 be bd 9a 91 3c 9d 32 6e 3e 75 ce 2d 3f
       -0.21913685 0.01777398 0.23261495 0.67893153
000080 4b a6 f5 bd bd aa 28 be 52 76 1a 3f a3 2c f3 3d
       -0.119946085 -0.16471381 0.6033679 0.11873748
000090 fa 78 0e be 2f f4 86 3d 79 24 e8 3b 28 23 f9 be
       -0.13913336 0.06589543 0.007084426 -0.48659635
0000a0 5a da 64 be f6 b8 a9 be 3f c0 ac 3c 37 eb 48 be
       -0.2234892 -0.33148926 0.021087764 -0.19620977
0000b0 b8 db 81 bc 84 51 02 3e 30 d5 01 be c6 5e db bc
       -0.01585184 0.12726408 -0.12678981 -0.02677859
0000c0 f9 e3 5b be 39 94 4c be cc 7f 59 3e fe 93 80 bc
       -0.21473683 -0.19978417 0.21240157 -0.015695568
0000d0 b7 04 33 be f0 52 88 3e 3a d3 a7 3e 45 e0 2b 3e
       -0.17482267 0.26625776 0.3277834 0.16784771
0000e0 d5 4c 94 3d fa d5 5d 3e b3 51 bd bc 62 db 56 3e
       0.07241217 0.21663657 -0.023110246 0.20982125
0000f0 7f e3 91 be de 34 29 3e 4e 44 08 be e1 f5 1a 3e
       -0.28493878 0.16524073 -0.13307306 0.15132858
000100 51 7d 81 3e 5c 44 82 3e f9 14 a5 be aa 04 29 be
       0.2529092 0.2544278 -0.32242563 -0.16505685
000110 54 61 28 bc fb e2 74 be f9 c1 7e bc 9c 74 03 3e
       -0.010277111 -0.23914711 -0.015549176 0.12837452
000120 e3 ae f0 bd f9 b5 5f 3e 19 b6 bd bc ab 36 99 3e
       -0.11752107 0.21846761 -0.02315812 0.2992452
000130 48 2e ac 3d b8 a2 71 be e3 26 c7 3e d0 92 c3 3d
       0.08407265 -0.23597229 0.38896856 0.09549487
000140 ba dd 23 be ad d5 85 3d 50 7e 59 be b7 0e 87 3b
       -0.1600255 0.06534896 -0.2123959 0.004121627
000150 f7 b5 70 3e b3 77 0e 3c 95 d4 8a be 65 a0 1f 3e
       0.23506914 0.008695531 -0.27115312 0.1558853
000160 34 ba ae be c5 b4 f3 bd f0 80 3d 3e 89 d0 c8 3d
       -0.34126437 -0.118997134 0.18506217 0.098054
000170 f4 8f 87 be 81 a3 86 3e 96 d6 3b bd 7b 4e 6c be
       -0.26477015 0.2629662 -0.045858942 -0.23076813
000180 f1 8a 84 bc 40 99 51 be 32 4b f0 bb 3b 63 ab 3e
       -0.016179534 -0.20468616 -0.0073331827 0.33474144
000190 91 1c 71 3d 6e 7d 2a be 61 21 a6 bc 3d 83 5a be
       0.058865134 -0.1664941 -0.020279588 -0.21339126
0001a0 3c e7 78 bd 53 2c 00 3e 7d dd 12 3f 81 15 c8 bd
       -0.060767397 0.12516908 0.57369214 -0.097697265
0001b0 cb 5a a6 be 45 e7 8b be c1 d0 7b 3d a9 6f c3 be
       -0.32491145 -0.27324882 0.06147838 -0.38171127
0001c0 7a 2c 4f bd e0 7a 1c 3f 7f d8 48 be 5f 15 b2 be
       -0.050579526 0.6112499 -0.19613837 -0.3478193
0001d0 78 4c 38 be 8e 37 19 bf 9d 7c 47 3e 33 8b 50 be
       -0.1799792 -0.59850395 0.1948113 -0.203656
0001e0 0b c2 11 3e 95 f5 86 bc 0d 59 46 be 3e 40 3a be
       0.14234178 -0.016474525 -0.19369908 -0.18188569
0001f0 64 36 07 3d 0e b4 55 3e 31 fd 5e 3e c1 fc a4 3d
       0.033010855 0.20869467 0.21776272 0.080560215
000200 69 11 5b be 19 11 e5 3e c6 f1 80 be ea 90 dc 3d
       -0.2139336 0.44739607 -0.25184458 0.10769828
000210 6d 4a a4 bc 59 4f a0 be 3c c0 7e be a8 0f 5b 3c
       -0.02005502 -0.31310537 -0.24878019 0.013370432
000220 b7 df 02 be 2b 4f 90 be 97 52 a0 be 3b a7 21 3e
       -0.12780653 -0.281854 -0.3131301 0.1578645
000230 37 fd b2 be 5b 10 ed 3d 32 69 ab 3e 0e d8 dd be
       -0.34958813 0.11575385 0.33478695 -0.433289
000240 2e bd 08 3e e9 d4 11 3e 15 81 fd bd 70 91 59 3e
       0.13353416 0.14241375 -0.12378136 0.21246886
000250 e6 1d a4 3e 04 0f c6 3e b0 f4 a9 bd 24 6a b8 39
       0.3205406 0.3868333 -0.082986236 0.00035174296
000260 2a 2a 29 3e 91 34 45 be e1 71 8b be ad 0d 80 be
       0.1651999 -0.19258334 -0.2723532 -0.25010434
000270 b2 f4 3b be 2c 6c 36 3e b8 35 13 bb e9 a1 b6 3d
       -0.18355063 0.17814702 -0.0022462439 0.08917601
000280 8c ec c8 be 6b a4 b6 3e d7 ee 13 be 44 c4 c5 be
       -0.3924297 0.35672316 -0.14446579 -0.386263
000290 d2 d8 1c be ce 1b 8f 3d 0d 65 be be 98 3c 9c bc
       -0.15317085 0.06987725 -0.3718647 -0.019071862
0002a0 14 fc 27 bf f0 6d 86 3d 87 8a 64 3e c8 df 03 bd
       -0.65619016 0.06563938 0.22318469 -0.032195836
0002b0 f4 07 4d 3e e3 8a 62 be 25 3f 4d bc 56 d9 bc bd
       0.20022565 -0.22123294 -0.012527262 -0.09221141
0002c0 52 b1 5a 3e 8d 3c b9 3d 16 f6 7a bb 71 4b ba be
       0.21356705 0.09044752 -0.0038293651 -0.36385682
0002d0 58 25 14 bf b4 78 5e bd 7b 6a 0b bd d6 14 c6 be
       -0.5786948 -0.05431433 -0.034037095 -0.38687772
0002e0 9a 95 0e bf 96 34 09 bf 3c f1 9b 3e 11 d5 f5 be
       -0.55697024 -0.53595865 0.30457485 -0.4801412
0002f0 c3 f9 c4 bd 52 43 da bd a0 b7 b3 3d 20 b7 6e be
       -0.09617951 -0.106573716 0.08775258 -0.23312044
000300 9c de 00 be 0a 75 0f 3d 47 3b 1a be 96 a3 01 3d
       -0.12584919 0.035023727 -0.15061675 0.03165015
000310 3e 5e fc 3e 32 16 8f bb df 3e 0d 3d 6d 8f 36 bd
       0.4929065 -0.0043666596 0.034483787 -0.044570375
000320 cb 9d f2 3b e0 03 90 3d ec db ac bd 25 3d f2 3c
       0.0074040643 0.07031989 -0.08440384 0.029570172
000330 65 29 61 be 5a 92 16 bb 08 1f 1c 3e f3 e7 ff 3b
       -0.21988447 -0.0022975416 0.15246212 0.007809633
000340 7a 38 7f 3d bf af d3 bd dc c0 f4 bd d0 71 f9 3c
       0.06230972 -0.10336255 -0.119508475 0.030449778
000350 b7 55 2e be 96 76 a3 3b 89 21 c3 3c 60 52 50 bb
       -0.17024885 0.004988502 0.023819702 -0.003178738
000360 2f 33 cf be 11 15 0a 3e d7 9b bc be 8a 91 fc bc
       -0.40468737 0.13484599 -0.36837646 -0.030831117
000370 8a cb 51 3e 54 74 cf bd ad 7c fc 3d 61 50 81 bd
       0.204878 -0.1012961 0.123284675 -0.06314159
000380 43 16 e6 be 2e 80 8b 3e f7 e7 a9 be a1 30 89 3e
       -0.4493886 0.2724623 -0.33184788 0.26794913
000390 78 79 33 3d 3a ac 8f be 8c 45 9e bd 6f 29 f9 bc
       0.043817014 -0.28061086 -0.07728109 -0.030415265
0003a0 95 ab ef be 36 ce 15 3d cd ba 35 3e 78 e2 1f 3e
       -0.46810594 0.03657361 0.1774704 0.15613735
0003b0 b6 a8 c2 bc 39 fc d0 3d 5d c4 4a be 20 d6 91 bc
       -0.023762088 0.10204358 -0.19801469 -0.017802298
0003c0 a4 6e 10 3f 08 29 b5 bd 6d 8c 15 bf f7 6f 48 be
       0.56418824 -0.08845717 -0.584174 -0.19573961
0003d0 9b 22 44 3d ff f4 16 3e 73 ce d0 3d 5b cc 17 be
       0.047884565 0.14741896 0.10195627 -0.14824049
0003e0 3e 34 81 be dd 19 09 3c a5 0d 1e 3b 6e 0a 21 be
       -0.2523517 0.008367983 0.002411702 -0.15726635
0003f0 fd bf 8c bd 8c c4 3a be d0 da 06 be c4 2e 2f be
       -0.06872556 -0.18239039 -0.13169408 -0.17107683

hidden_layers.1.bias f4 [64]
000000 f4 32 8d bd 66 2a d3 bb 72 50 d5 bd 9b f2 59 3e
       -0.06894484 -0.0064442633 -0.10415734 0.21283953
000010 86 fb 1d 3f 57 75 37 3f 9c 48 81 3b ff 69 7d 3e
       0.6171192 0.7166342 0.0039454233 0.24747466
000020 65 28 72 bc 8c 20 8d bd d5 81 8e 3d 64 d8 97 bd
       -0.014780139 -0.068909734 0.06958357 -0.0741432
000030 21 54 0c 3e a7 19 6b bd 34 a5 e5 3c 98 73 0c 3e
       0.13703968 -0.05739751 0.028032877 0.1371597
000040 a3 36 d8 bd cd 88 08 3f 64 56 d6 bd 1e 14 ff 3c
       -0.10557296 0.5333374 -0.104656965 0.031137522
000050 65 8a 85 bd 3a 5c 4d bd bc 3b 80 bd 6e 57 da 3d
       -0.06520537 -0.050136782 -0.062613934 0.10661207
000060 8b 7c 8f 3d e3 06 87 3e 15 44 4b 3c 6b 58 04 3e
       0.070061766 0.26372442 0.012406369 0.12924354
000070 f8 d3 b9 3d 48 5b 84 bd ff 28 c4 bd 81 bf 48 bc
       0.09073633 -0.06462723 -0.09578132 -0.012252689
000080 0c f6 57 be 51 01 47 3d da 41 6c 3e 77 11 29 3f
       -0.21089953 0.04858524 0.23071995 0.66042274
000090 b6 02 a2 bd e4 78 42 3f 61 ed 4d 3f 01 43 4b be
       -0.07910673 0.75965714 0.80440336 -0.19849779
0000a0 e7 f8 56 3d d7 c6 a9 be e3 bd 38 3a 39 e5 0a be
       0.052483466 -0.33159515 0.00070473383 -0.13564004
0000b0 73 f8 9f bc 30 17 14 be d4 85 12 3e 30 fc e8 3b
       -0.01952765 -0.1446197 0.14308864 0.007110141
0000c0 aa 66 c5 bd c3 64 fe bd 1e 70 7c 3d b3 01 21 3f
       -0.09638722 -0.124215625 0.06163036 0.6289322
0000d0 f4 02 86 be ef f6 79 be 53 12 d6 3c 3b 96 92 bd
       -0.26174128 -0.24410604 0.026131785 -0.071575604
0000e0 61 3c 7c be 58 db 32 bd 3c ae fa bc 7d 3d e6 3e
       -0.24632408 -0.043666214 -0.03060066 0.44968787
0000f0 6b 7e 86 3d 6e 46 a8 3e 18 75 be bd ab 02 12 3e
       0.06567081 0.32866234 -0.092996776 0.1425883

output.weight f4 [4, 64]
000000 7b c7 8e 3e 17 3f 0f 3d bb f4 82 3d 04 ed 76 3e
       0.27886567 0.034972277 0.06394335 0.24113852
000010 fe 22 6f 3e b6 f2 1b 3e 1b 8d 9c 3b 05 a3 86 3d
       0.23353192 0.15229306 0.0047775633 0.06574062
000020 53 95 90 3c e5 3f 4e 3e 0d e8 05 3d 52 13 a8 bd
       0.017649328 0.20141561 0.032692004 -0.0820681
000030 85 69 93 be c7 42 e3 3d 0e 6e f2 bd 43 4c 3e 3e
       -0.28791443 0.11096721 -0.118373975 0.18583779
000040 8e 4a 93 3d b7 4c 2a 3e 21 28 b6 3e 03 53 d2 3c
       0.071919546 0.16630827 0.3557749 0.025674349
000050 7d f6 a3 bd 4b 7a 69 3e 9a 94 a4 3d bf 6f c9 3e
       -0.08005998 0.22800557 0.08036156 0.39343068
000060 42 3a 12 bf bd ca 37 3e 4e 2e 47 be b0 f5 59 3e
       -0.57120144 0.17948432 -0.19451258 0.21285129
000070 e4 66 11 3e d8 bc 3f 3e 9e a4 b7 bc e3 d5 31 bd
       0.14199406 0.18724382 -0.022417363 -0.04341687
000080 8b 36 52 be f6 9e b4 3d 3d 92 03 3e b0 1b 7c 3e
       -0.20528619 0.08819382 0.12848754 0.24619937
000090 7f 18 29 3d 26 91 71 3e 61 b9 7d 3e c5 07 9f ba
       0.041283127 0.23590526 0.24777748 -0.0012133053
0000a0 40 4b 04 bf 9e f1 68 be e2 36 1f 3e ac 59 95 bd
       -0.5167732 -0.2274842 0.1554828 -0.07292494
0000b0 9a b2 24 bb 87 46 09 bf b2 41 a9 be ee 3e b2 3e
       -0.002513087 -0.5362324 -0.33057934 0.34813637
0000c0 67 9d 7b bd 53 14 0f bd 2e 2f 64 be 3b fb cc 3d
       -0.061429407 -0.034931492 -0.22283623 0.10008856
0000d0 bc 92 e4 be f9 66 c8 3e ff 66 08 3d 95 56 9c 3c
       -0.446432 0.39141062 0.03330135 0.019084254
0000e0 b8 70 06 3e 9e dc 86 bf e0 b1 9b be 6e 83 5c 3e
       0.13128936 -1.0536077 -0.30409145 0.21534511
0000f0 6c dd 01 bf 60 06 d3 3d 3b 71 90 be d1 b3 da 3d
       -0.5072849 0.1030395 -0.28211388 0.106788285
000100 80 62 d5 3e 92 1c 33 3e 3a 5d 51 be f5 c2 14 3e
       0.41676712 0.17491367 -0.2044572 0.14527495
000110 6d fe 1f 3e 73 11 4c 3e 32 85 1b bd 7a 8d 3f 3e
       0.156244 0.19928531 -0.03796882 0.18706313
000120 e6 bb 4a be a2 87 50 3e a6 ba d9 3d af ac c0 3d
       -0.1979824 0.2036424 0.106313035 0.09407937
000130 2d 63 e1 bc c1 b1 d1 3d 4b ec 21 3f 30 ce 7c 3e
       -0.027513111 0.10238982 0.6325118 0.2468803
000140 0d 51 b9 3e bb b6 08 3e 93 15 a0 3e 5f e2 a2 be
       0.3619465 0.13350956 0.3126646 -0.31813332
000150 d6 71 83 3c a0 27 8f bd 71 f8 d6 3c b9 b0 1a 3e
       0.016045492 -0.0698998 0.026241513 0.15106477
000160 09 a6 24 3c bc e1 55 3e a5 63 00 bf 8b 7a 90 3e
       0.0100493515 0.20886892 -0.50152045 0.28218493
000170 c1 3d 58 3e 9c 1e 0a bf 33 18 d8 3e d2 32 ab bd
       0.21117307 -0.53952956 0.42205963 -0.083593026
000180 40 d6 93 bd 31 8a 91 3d ba 37 dc 3d 72 0e 51 3e
       -0.07218599 0.07106436 0.107528165 0.20415667
000190 8e 48 75 3e da d0 57 3e f0 42 88 3e 19 f4 12 bf
       0.23953459 0.21075764 0.2661357 -0.57403713
0001a0 01 b8 46 3e fc 6f 1f be 0d e3 da be b3 45 59 3e
       0.1940613 -0.15570062 -0.4275135 0.21217994
0001b0 2c 32 4e be d9 e7 71 3d 8c 11 e6 be 17 13 84 3e
       -0.20136327 0.059058998 -0.44935262 0.25795814
0001c0 9d 8d 48 bf 23 ef 7e be 18 36 39 bd eb 88 6c 3e
       -0.78341085 -0.24895911 -0.045217603 0.23099105
0001d0 a8 63 b0 be f3 49 0c 3f dc 42 af 3b d0 69 20 bc
       -0.34451032 0.5480034 0.0053485464 -0.009790853
0001e0 65 1d 38 bf 66 f9 a2 3c a2 0f 81 3e f2 36 6b 3e
       -0.7191985 0.019894313 0.2520724 0.22970179
0001f0 d3 25 6a be 50 96 3c 3e b2 2b b2 3e a1 cf 20 3e
       -0.22865991 0.18416715 0.34798962 0.15704204
000200 b3 39 a3 3e d3 38 28 be 58 b1 fe 3d a5 12 af 3d
       0.3187996 -0.16427927 0.124361694 0.08548478
000210 c7 d5 59 3e fd 7e 88 3e e2 b9 a9 bc 57 b0 37 3c
       0.21272956 0.26659384 -0.020718519 0.011211476
000220 0a 87 57 be 83 3b 27 3e 57 df 0c 3e 94 83 22 3e
       -0.21047607 0.16331296 0.13757072 0.15870506
000230 51 df 7a 3e 49 5b 5c 3d 83 f0 74 bc 2c 7f e6 3e
       0.24499251 0.053797994 -0.014949921 0.450189
000240 f7 cd d5 bd 37 2a 17 3e 44 1a b5 3e df 0f 39 be
       -0.10439675 0.14762197 0.35371602 -0.1807246
000250 a3 e4 45 bf 95 1c 95 3e 64 60 dc bc d4 37 d8 3d
       -0.77301997 0.2912337 -0.026901431 0.10557523
000260 33 8e 76 be d7 26 61 3e 44 bc b3 3d 5a 75 7a 3e
       -0.24077682 0.21987472 0.08776143 0.24458829
000270 af c2 34 3d c7 cc eb bd e3 b5 ac be 57 16 49 3b
       0.044130977 -0.115136676 -0.3373252 0.0030683482
000280 28 25 6e 3c 5c 8b 94 3c 32 13 20 3e f2 91 52 3e
       0.014535226 0.018132858 0.15632322 0.20563486
000290 30 f2 58 3e 2b 44 4f 3e 00 24 80 3e e6 c7 00 3e
       0.21186137 0.20240848 0.25027466 0.12576255
0002a0 0a b9 6a 3e 0e 0d 53 be 81 3b 28 3d d9 02 44 bf
       0.2292215 -0.20610449 0.041072372 -0.76566845
0002b0 84 f7 2a 3e cb 19 aa 3d ae 5c 88 3e c5 b3 91 3d
       0.16695982 0.08305701 0.2663321 0.071143664
0002c0 a7 33 a1 3d dd 2c b5 3d 24 9e 99 be 78 a8 87 3d
       0.0787118 0.088464476 -0.30003464 0.0662393
0002d0 7f d9 57 be 11 ce 8c 3e 4b 44 33 bf 35 e5 81 bf
       -0.21079062 0.27500966 -0.7002608 -1.0148073
0002e0 bd 74 db 3d 60 a1 81 3d 49 94 99 3e e6 70 28 3e
       0.107156254 0.06329608 0.29995945 0.16449317
0002f0 91 a5 9f 3d ed 4b bb 3d 89 61 54 3e e2 70 e7 3d
       0.07795251 0.09145341 0.20740332 0.113008276
000300 a0 8e 66 be cc 02 36 bd 23 c4 9a 3d 29 ea f4 bd
       -0.22515345 -0.04443626 0.07556941 -0.11958725
000310 8c 61 b3 3d d4 70 2d 3e 2b 3b 13 bf 54 c4 18 3e
       0.0875884 0.16937572 -0.5751216 0.14918643
000320 64 70 12 bf 94 97 d1 be 70 0e 14 bf fc 9d 42 3f
       -0.57202744 -0.40935957 -0.5783453 0.76022315
000330 3b 9e 96 be f4 e5 42 3e 73 e3 13 3d 41 df 31 3d
       -0.29417595 0.19033033 0.036105584 0.043425802
000340 eb ac 24 3e 4a d9 04 3e b0 67 c6 3d 37 ad 6d be
       0.16081588 0.12973514 0.096877456 -0.23210607
000350 82 ce 56 3c ab f2 f3 3d e9 cf 89 3c 6c a7 8f 3e
       0.013110759 0.119115196 0.016822772 0.2805742
000360 2e f2 89 bd 2d 9b d2 3d 39 d0 83 3d 44 2b 17 3e
       -0.06735645 0.10283504 0.064362 0.14762598
000370 3a b0 66 3e 4c 91 1b bf 26 63 75 be 25 1a 7d bb
       0.22528163 -0.6076858 -0.23963603 -0.003862032
000380 98 76 67 be e3 6d 6a 3e 31 d3 b0 3c 06 29 92 3e
       -0.22603834 0.22893481 0.021585079 0.28546923
000390 e4 2f cb 3d 66 b8 73 3e 85 a5 93 3e 75 1f f7 bd
       0.09921244 0.23800811 0.2883722 -0.12066547
0003a0 25 5e be 3e 32 40 66 bc 2a b7 49 3e f0 fb 86 bd
       0.37181202 -0.014053391 0.19698778 -0.06591022
0003b0 1e 09 92 3e 41 97 5b 3e 38 c0 fa 3d 50 6c 01 3f
       0.2852258 0.21444418 0.12243694 0.50555897
0003c0 1c a3 bc be c5 69 34 bd 39 ae 64 bf 88 1c 2f 3e
       -0.36843193 -0.044046182 -0.8932834 0.17100728
0003d0 1f f4 fc 3e f2 21 c7 be 84 da 07 bf ea b8 26 3d
       0.49405 -0.38893086 -0.53067803 0.04070369
0003e0 00 b5 0c 3e 54 fb 96 bd 97 c4 46 3e bd 1b 6f 3e
       0.13740921 -0.07372156 0.1941093 0.23350425
0003f0 9a 78 bf bd 69 f5 ba 3b 50 9b 5b be 09 ab 83 3d
       -0.09349175 0.0057055247 -0.21445966 0.06429107

output.bias f4 [4]
000000 70 b8 07 3f 2d 4b ec 3e fd f3 17 3f 1f 39 ee 3e
       0.53015804 0.46151105 0.5935667 0.46527955

exp_avg f4 [64, 37]
000000 36 4b 67 b9 9c db f7 b9 b3 0a b2 39 10 69 a2 b6
       -0.00022057895 -0.00047275133 0.00033958777 -4.840207e-06
000010 7f 65 03 b8 85 99 8f b6 30 18 c8 b9 c7 b7 a9 37
       -3.132736e-05 -4.279604e-06 -0.00038164994 2.0231948e-05
000020 3e bd ee 36 ec 50 d7 b6 48 e8 40 b7 b0 ed e0 b9
       7.1149834e-06 -6.41692e-06 -1.1498174e-05 -0.000429017
000030 c6 4a 0b 3a c6 a0 eb b9 c6 0d 94 b8 27 c0 02 39
       0.00053135713 -0.00044942478 -7.0597554e-05 0.00012469348
000040 c2 1f b0 b9 e6 ee 0e b9 c0 20 39 b7 51 18 63 39
       -0.00033592997 -0.00013631172 -1.10344845e-05 0.00021657466
000050 7f 9e 82 b9 02 22 2e b8 14 0e a4 b7 28 e4 4a b8
       -0.0002491362 -4.1516505e-05 -1.955688e-05 -4.837304e-05
000060 b0 e1 ac 38 be de d6 b9 c2 26 07 39 00 e9 da b8
       8.243637e-05 -0.00040983217 0.00012889042 -0.0001043845
000070 57 57 e0 37 e8 cb 8a 39 e4 29 de b8 b5 6c 81 b9
       2.6743552e-05 0.00026473333 -0.00010593588 -0.0002468579
000080 66 d6 50 b8 ac 8e 38 38 4a e2 58 b8 1c fa 0a ba
       -4.979074e-05 4.4001892e-05 -5.170916e-05 -0.00053015514
000090 d1 bb 66 3a 10 d9 8d b9 01 ac 84 b9 d9 4c af 39
       0.00088017905 -0.0002705534 -0.00025305155 0.00033435857
0000a0 29 c3 b3 39 dc 2a 44 b9 c7 9b fe b7 fe f1 02 37
       0.00034286946 -0.00018707983 -3.0351699e-05 7.804947e-06
0000b0 e8 3d d3 39 99 c1 6d b9 68 34 d8 38 a0 c0 c5 b9
       0.0004029118 -0.00022674202 0.00010309444 -0.00037718285
0000c0 49 fa a9 38 04 36 66 39 f5 63 71 39 8e fe 89 b7
       8.105167e-05 0.00021954632 0.00023020788 -1.6450209e-05
0000d0 8b 4b f8 39 c1 1f a2 b9 90 99 03 39 4b db 0e b9
       0.0004735853 -0.00030922706 0.0001255034 -0.00013623868
0000e0 48 17 76 39 5e 57 2a 38 1c c8 d8 37 7f 54 94 b9
       0.00023469061 4.0612525e-05 2.584239e-05 -0.00028291714
0000f0 ff 07 c2 39 55 39 99 b8 0c 75 ea 37 27 8c ef b8
       0.0003700852 -7.3062874e-05 2.7949478e-05 -0.000114225135
000100 c0 01 98 39 cf d8 51 b8 96 ff 27 b8 28 df 9e 37
       0.00028993003 -5.00314e-05 -4.0053936e-05 1.8938983e-05
000110 97 80 57 38 c2 6f 6b 39 ed 15 14 b9 0d 84 c9 37
       5.1379753e-05 0.0002245298 -0.00014122548 2.4022558e-05
000120 25 f9 1d 3a 7b 35 0f bb 7a c1 fc b7 76 71 8d b8
       0.00060262 -0.0021851945 -3.0130836e-05 -6.744538e-05
000130 ca f8 52 38 83 d8 b7 31 6e c4 6d b7 28 ba e0 b6
       5.0299604e-05 5.3506155e-09 -1.4172036e-05 -6.6973917e-06
000140 b6 8f fb b7 c2 e5 a5 b8 c4 b2 8f 38 3e 28 ef b7
       -2.9988452e-05 -7.910609e-05 6.852069e-05 -2.850976e-05
000150 01 16 73 37 1f 4b 12 b7 41 3e 73 b8 4f 33 a6 36
       1.4489052e-05 -8.719769e-06 -5.7993693e-05 4.9531586e-06
000160 c8 2a 97 b7 72 b7 19 34 63 68 ee b8 a9 f7 ab 38
       -1.8020524e-05 1.4315972e-07 -0.00011368168 8.200046e-05
000170 cc fa 83 b7 64 d5 47 37 2c bf 34 36 4b f2 40 b8
       -1.5733203e-05 1.1911008e-05 2.6933367e-06 -4.600202e-05
000180 2e 2c b3 b8 cd dc aa 38 2d 7f 4d b7 ae 13 b8 35
       -8.543614e-05 8.147359e-05 -1.2248563e-05 1.3714796e-06
000190 0e 8d 23 b8 b5 bb 26 b7 fc 1e 9b 34 44 e0 3b b7
       -3.8993596e-05 -9.938075e-06 2.8893544e-07 -1.11982845e-05
0001a0 ab 4f a2 b6 a6 d8 a5 b8 83 c0 89 38 c5 95 f3 b7
       -4.837251e-06 -7.908167e-05 6.568527e-05 -2.90376e-05
0001b0 41 7b ff b7 b1 8c 3e 39 73 4f 19 37 e2 47 89 bb
       -3.0455763e-05 0.00018172224 9.138009e-06 -0.0041894773
0001c0 87 3e fe ba 1c e4 99 3a 24 7c 4a 3b c7 bb 39 bb
       -0.0019397297 0.0011740956 0.0030896747 -0.0028340684
0001d0 af 18 ae ba 65 fa 00 3a 9c 7b 22 b9 94 2d 65 ba
       -0.0013282503 0.0004920124 -0.00015495572 -0.00087424484
0001e0 e4 e1 f2 b9 d0 e8 2e bb 33 5f dc ba 74 f5 17 3b
       -0.0004632614 -0.002668906 -0.001681304 0.0023187073
0001f0 17 22 2e 39 6a d3 f7 ba 3d 55 c7 3a 54 37 3a bb
       0.00016606633 -0.0018907611 0.0015207898 -0.0028414326
000200 99 a6 e2 39 e1 11 80 ba 3c c4 66 3a 60 24 f7 ba
       0.00043230204 -0.0009770953 0.0008803045 -0.0018855445
000210 11 90 02 3a 6b 99 6b bb c2 46 4c 3b 16 61 e3 ba
       0.0004980574 -0.0035949599 0.0031170105 -0.001734766
000220 04 10 71 bb be 6e ed 3a 5d 6c 23 3a 23 0d 23 ba
       -0.0036783228 0.0018114669 0.0006234104 -0.0006219914
000230 c6 7c 9d 39 73 80 8e 3a a5 76 01 bb 99 a4 ad 39
       0.00030038337 0.0010872021 -0.0019754556 0.00033119766
000240 fa 7d ab ba 6d af ab ba e8 4a 9c 3a 29 c9 cf bc
       -0.0013083809 -0.0013098546 0.0011924179 -0.025364475
000250 39 6b 6d ba 22 b1 86 ba 15 22 84 3a 66 74 46 3b
       -0.000905681 -0.0010276178 0.0010080958 0.0030281781
000260 bd 08 34 ba 24 76 ed 3a 9a 62 04 38 28 df c6 39
       -0.0006867757 0.0018116874 3.1563082e-05 0.00037931767
000270 05 ce fa b8 27 c2 14 39 d3 be 8b ba c0 16 15 ba
       -0.00011959303 0.00014186707 -0.0010661728 -0.0005687289
000280 0e 20 87 3b 8d 47 ca b9 c8 d5 6f 39 ae 7d b1 3a
       0.0041236943 -0.00038581752 0.00022872456 0.0013541484
000290 eb 6f bd ba 90 83 26 3b f8 c2 b5 b9 08 ad f7 3a
       -0.001445291 0.0025408007 -0.00034668273 0.0018896172
0002a0 d6 d9 86 ba 84 7b a7 3a fa 09 a0 ba 36 86 49 3b
       -0.0010288309 0.0012777899 -0.0012210004 0.0030750162
0002b0 2d b4 e7 b9 42 75 9c ba 3b 64 50 3a 82 73 2c 3b
       -0.00044193995 -0.0011936801 0.0007949506 0.0026313965
0002c0 03 fe 07 b9 21 eb bb 3a f6 c8 78 3b 2e b9 a8 ba
       -0.0001296923 0.0014337042 0.003796158 -0.0012872571
0002d0 2c 4e e6 b7 94 6d c6 b9 28 82 e2 b9 31 1e c5 ba
       -2.7454538e-05 -0.00037847145 -0.00043203053 -0.0015038905
0002e0 6d e5 7d 3c 26 26 53 b7 6f 94 1c 35 e1 51 30 b9
       0.015496594 -1.2585462e-05 5.833053e-07 -0.0001681517
0002f0 78 4c a6 37 45 c8 00 b9 d0 57 9b 38 63 86 55 b8
       1.982435e-05 -0.00012281637 7.407332e-05 -5.0908315e-05
000300 a5 f8 de b8 35 d8 a1 b8 85 77 ed b8 f5 ef 9f 38
       -0.000106320986 -7.71735e-05 -0.00011323303 7.626406e-05
000310 94 e5 13 38 89 d3 88 b7 86 fa 85 b9 72 b5 b9 38
       3.5261342e-05 -1.6310967e-05 -0.0002555439 8.855284e-05
000320 3b 42 6e b7 83 69 6a b8 47 ca d9 b8 50 58 64 37
       -1.4201326e-05 -5.5888213e-05 -0.000103850434 1.3610421e-05
000330 08 c8 80 b9 30 ff af b9 85 2b f6 38 c4 8a e5 38
       -0.00024563097 -0.0003356873 0.000117383 0.00010945418
000340 95 eb 57 b8 be 9d 4f 38 0a 62 8d b7 6e fd b2 36
       -5.1479397e-05 4.9499555e-05 -1.6854163e-05 5.3343165e-06
000350 6b a8 07 b9 fc 0a a3 b7 d5 07 ef b8 4a f5 45 b9
       -0.00012937344 -1.943623e-05 -0.00011397867 -0.00018878761
000360 57 82 24 39 e4 f4 b6 b8 e8 c2 2c b8 92 2d 98 38
       0.00015688814 -8.724051e-05 -4.1189516e-05 7.256413e-05
000370 86 77 a1 b8 2c b9 81 ba b4 e2 1e ba f9 86 66 b7
       -7.699341e-05 -0.0009897104 -0.0006061003 -1.3740494e-05
000380 fe 07 a8 38 98 3d 24 ba 5a 3c 41 b9 82 36 12 ba
       8.012353e-05 -0.00062652817 -0.00018428397 -0.00055775803
000390 55 3f c9 b9 90 44 a2 b8 b8 6a 1a b9 c6 10 af b9
       -0.00038384894 -7.737533e-05 -0.0001472634 -0.00033391098
0003a0 57 d5 1a ba b0 4c 7e 37 58 bb 57 ba 3f 78 73 39
       -0.0005906424 1.5157435e-05 -0.00082295155 0.00023219081
0003b0 2b ac e5 b9 9c da 0d 37 29 bb 02 39 6f 29 ac ba
       -0.0004380656 8.455154e-06 0.00012467489 -0.0013134907
0003c0 9c cf 6c 37 18 68 25 ba 9c d5 c3 b9 d9 f8 4d b9
       1.4115034e-05 -0.00063097617 -0.0003735245 -0.00019643026
0003d0 bf 91 3e b9 f1 57 d9 b9 05 cf 41 b9 f2 3b d3 38
       -0.00018174107 -0.00041454987 -0.00018483035 0.0001007243
0003e0 64 5d b4 37 a0 4e a9 ba 4c 6a 59 36 14 57 d4 b9
       2.150116e-05 -0.0012917109 3.2397393e-06 -0.0004050067
0003f0 6d 0c 3e ba e3 c1 19 b9 df c3 7d b9 e6 b8 5c b8
       -0.00072497764 -0.00014663445 -0.00024200928 -5.2624287e-05

exp_avg_sq f4 [64, 37]
000000 6f ef da 35 9a da bb 36 7d 3e ef 35 c5 5c 37 35
       1.631195e-06 5.598483e-06 1.7825074e-06 6.830781e-07
000010 54 4d 3e 36 fc d4 6b 36 42 80 76 35 53 17 1c 36
       2.8357217e-06 3.5141702e-06 9.182878e-07 2.3259388e-06
000020 3b 95 47 36 f8 c3 71 35 d9 b5 b6 35 81 57 1e 36
       2.9740174e-06 9.006467e-07 1.3612981e-06 2.3594769e-06
000030 a4 86 92 36 2a 4b c8 35 54 eb c9 35 5d 0f 42 36
       4.3668133e-06 1.4923037e-06 1.5044156e-06 2.8917195e-06
000040 f0 c3 91 36 12 85 0e 36 07 25 89 34 10 0e 6d 36
       4.344147e-06 2.1237106e-06 2.554518e-07 3.5323937e-06
000050 aa e7 c6 35 b5 68 21 36 5c d7 90 36 b0 51 c1 35
       1.4819573e-06 2.4051817e-06 4.3166056e-06 1.4403395e-06
000060 74 f8 f3 35 e2 6d 08 37 89 2f 83 35 b7 89 07 35
       1.817722e-06 8.131816e-06 9.774095e-07 5.049182e-07
000070 c5 cb a1 34 ca 1a 90 35 6b 45 de 36 0a 84 c0 35
       3.013685e-07 1.0736633e-06 6.624197e-06 1.4343543e-06
000080 4a d0 5f 35 cc 0a 70 35 77 f7 a7 35 22 20 e7 37
       8.3377074e-07 8.942268e-07 1.2514491e-06 2.7552309e-05
000090 98 ba ed 39 d0 95 c0 35 14 14 80 35 37 59 2d 36
       0.00045343186 1.4348716e-06 9.542587e-07 2.5830939e-06
0000a0 12 34 d3 34 12 9e 53 35 db d2 00 36 bc a0 5e 34
       3.93397e-07 7.883365e-07 1.919622e-06 2.0733836e-07
0000b0 8b 81 43 36 44 d9 1e 35 a1 d4 b3 34 a3 b6 58 36
       2.9132668e-06 5.917575e-07 3.3496056e-07 3.2292817e-06
0000c0 2c 79 38 35 56 0c 18 35 84 9d 82 35 bb 16 24 35
       6.872167e-07 5.6642364e-07 9.731598e-07 6.112784e-07
0000d0 b3 11 03 36 35 e4 37 35 ec 0a 37 36 c8 28 d1 34
       1.9530823e-06 6.85049e-07 2.7275482e-06 3.8958956e-07
0000e0 98 e8 ef 35 41 01 6d 36 1b a7 be 32 12 e7 6f 35
       1.7874581e-06 3.5316482e-06 2.2194902e-08 8.937069e-07
0000f0 a7 54 a2 35 2a e2 7c 34 d9 fd b4 35 4d a8 c0 34
       1.2094578e-06 2.3551607e-07 1.3484924e-06 3.5885242e-07
000100 a7 8f 39 36 af 71 52 35 ae af 03 35 49 8d 36 36
       2.7650765e-06 7.839653e-07 4.905695e-07 2.7202352e-06
000110 89 a8 8b 34 53 71 1b 35 00 69 00 36 71 73 a6 34
       2.6013393e-07 5.790691e-07 1.9134604e-06 3.1003904e-07
000120 5b e1 17 37 a8 88 98 39 30 20 dd 33 04 e8 50 35
       9.052771e-06 0.00029093516 1.0296969e-07 7.7823665e-07
000130 34 70 0a 37 3c f2 97 31 f0 6c 1c 35 b4 43 85 31
       8.251565e-06 4.4222173e-09 5.8273054e-07 3.8785064e-09
000140 7e 42 c9 33 be 2c 17 37 0b 91 a9 33 45 3a 70 34
       9.371887e-08 9.010719e-06 7.896059e-08 2.237294e-07
000150 1a fb 0e 37 a5 2f 4e 32 4b ba bb 34 5a 87 6e 34
       8.522324e-06 1.2001611e-08 3.496701e-07 2.2214718e-07
000160 87 70 5e 34 4d 0c 89 35 d7 95 db 34 73 7f fa 36
       2.0716298e-07 1.0210875e-06 4.0900952e-07 7.4654176e-06
000170 cc 11 46 34 bb c3 87 36 45 2e 0b 37 ea 60 39 34
       1.8446661e-07 4.0460995e-06 8.295819e-06 1.7264725e-07
000180 49 4e 18 35 1a 22 05 34 d7 9b 7b 34 6d eb 67 34
       5.673833e-07 1.2398996e-07 2.3432891e-07 2.1599199e-07
000190 58 14 47 34 91 89 11 37 a3 8f da 33 7f b1 2e 34
       1.854072e-07 8.674703e-06 1.01775434e-07 1.6269586e-07
0001a0 de 3b c3 35 6b 8c 1c 34 5d c8 05 35 18 5d e9 36
       1.4546056e-06 1.4579716e-07 4.983793e-07 6.9547787e-06
0001b0 5d 5a 39 34 b3 f8 89 37 1c 9d ac 39 95 7a 47 38
       1.7262342e-07 1.6447482e-05 0.00032923452 4.755946e-05
0001c0 05 36 8a 38 d8 c1 63 38 6d ed df 37 15 49 3a 38
       6.590415e-05 5.430155e-05 2.6694232e-05 4.441392e-05
0001d0 47 8d 0e 39 61 4a 00 38 f9 66 05 38 57 bf 82 37
       0.00013594805 3.058685e-05 3.180557e-05 1.5586307e-05
0001e0 86 fe ed 37 4d e6 52 38 91 29 5a 38 27 2a 82 38
       2.8371123e-05 5.0282386e-05 5.2013962e-05 6.2067345e-05
0001f0 f8 ae eb 37 50 b6 2f 38 b1 43 92 38 f1 5d 61 38
       2.809566e-05 4.1893043e-05 6.974431e-05 5.373167e-05
000200 93 9c 6b 38 4f 0c 94 37 22 7a 3a 38 8a 2f a0 38
       5.6174187e-05 1.7648706e-05 4.44596e-05 7.6382494e-05
000210 7d f5 31 38 b0 55 34 38 a1 9c f0 37 38 e2 0f 38
       4.2428717e-05 4.2995147e-05 2.8683166e-05 3.430454e-05
000220 41 b5 a4 38 3c 7e 42 38 30 f0 52 38 ea 40 af 37
       7.8538906e-05 4.637077e-05 5.0291594e-05 2.0891854e-05
000230 a7 ca 26 38 0f e8 f9 38 db b4 07 38 8f 72 f5 37
       3.976622e-05 0.000119164695 3.2354943e-05 2.9259621e-05
000240 4e 62 d8 37 06 71 f6 37 d1 c4 59 39 29 a7 63 3c
       2.5794983e-05 2.9378116e-05 0.00020768052 0.013894835
000250 af 18 42 37 fa 64 8b 37 81 f0 6a 37 72 81 18 37
       1.1569048e-05 1.6617112e-05 1.4003484e-05 9.090045e-06
000260 75 65 3b 37 4f 22 48 38 f2 b8 73 33 bd 00 0d 37
       1.1169691e-05 4.771567e-05 5.6746053e-08 8.404427e-06
000270 2d 0f 66 36 51 de 04 36 c7 61 1b 37 f6 34 93 37
       3.4281504e-06 1.9798938e-06 9.2614855e-06 1.7548427e-05
000280 14 a4 a0 37 46 aa c5 36 08 47 52 37 f2 7b 42 37
       1.9149891e-05 5.89088e-06 1.2533514e-05 1.1592159e-05
000290 29 47 6e 37 ef a5 91 37 91 88 e5 36 74 ff 43 37
       1.4202474e-05 1.7362616e-05 6.8406302e-06 1.1682383e-05
0002a0 2f ea 60 37 98 04 71 37 06 6f 45 37 43 c4 37 37
       1.3405966e-05 1.4365789e-05 1.1767965e-05 1.0953346e-05
0002b0 0c 89 24 37 e0 d3 9c 37 73 52 10 37 16 f7 8a 37
       9.8070705e-06 1.8695311e-05 8.602266e-06 1.656594e-05
0002c0 b7 79 c6 36 c5 bb 0f 37 06 03 a8 37 85 1c 42 37
       5.9150293e-06 8.567183e-06 2.0028569e-05 1.1569941e-05
0002d0 8e 7b 38 37 a2 99 28 37 1b ae 35 37 50 45 45 38
       1.0996022e-05 1.0049351e-05 1.0828978e-05 4.7033012e-05
0002e0 5a bf 82 3b 39 55 0e 35 c4 e2 3d 35 6b 8a ab 35
       0.003990096 5.302314e-07 7.0737974e-07 1.2780778e-06
0002f0 23 9e 6d 33 1b 32 e9 34 c0 1a 65 35 d4 aa f6 34
       5.5324687e-08 4.3436089e-07 8.5348074e-07 4.5945364e-07
000300 1a 5b a5 35 c2 45 0d 34 47 49 cb 34 f0 e3 aa 35
       1.2319972e-06 1.3157026e-07 3.7865013e-07 1.2732326e-06
000310 a1 4c 38 35 94 4e 0e 35 5d 4b 45 34 fc a9 ef 34
       6.865685e-07 5.301347e-07 1.8374472e-07 4.46409e-07
000320 44 71 88 35 b4 1d 06 35 8c d0 54 35 3a 83 a6 34
       1.0165754e-06 4.9962114e-07 7.927963e-07 3.101539e-07
000330 4c dd f3 34 5f 71 8b 35 ef e7 4d 35 23 11 2f 35
       4.5423292e-07 1.0389302e-06 7.670596e-07 6.521752e-07
000340 6c c9 12 34 89 b3 03 35 bf d9 82 35 af 14 04 35
       1.3670586e-07 4.906256e-07 9.749127e-07 4.920393e-07
000350 4c 1d 99 35 ee f7 87 32 7a 72 f2 34 00 24 b9 35
       1.1407915e-06 1.5828814e-08 4.5159305e-07 1.3794051e-06
000360 b9 7a 06 35 ff 46 1f 35 9f 5f 0b 34 2a bb 00 35
       5.0097475e-07 5.933543e-07 1.298017e-07 4.7956075e-07
000370 5e 56 4e 35 33 0c 7e 39 01 d9 2b 36 e2 8b c6 35
       7.686666e-07 0.00024227872 2.5607299e-06 1.4792861e-06
000380 7e 75 6e 36 82 40 c3 35 02 f0 e9 35 1a 9e b0 35
       3.5533153e-06 1.4547406e-06 1.7429704e-06 1.3159035e-06
000390 59 7b 66 35 00 47 be 36 4f bd 9b 35 db ae aa 35
       8.586117e-07 5.6707067e-06 1.1603496e-06 1.2716877e-06
0003a0 1f 11 4f 36 8e e2 ed 35 02 a7 42 36 5b 70 9c 35
       3.085537e-06 1.7723812e-06 2.9005464e-06 1.1655605e-06
0003b0 08 7f a9 35 e7 b4 a2 35 9a ca 79 35 f6 5f c5 36
       1.2628452e-06 1.212259e-06 9.305455e-07 5.882229e-06
0003c0 6e 56 82 35 eb 8a 37 36 5d 06 7d 36 1b 24 ac 35
       9.710909e-07 2.7349986e-06 3.7703642e-06 1.2825507e-06
0003d0 03 23 2b 36 40 71 ba 35 a4 64 79 35 03 1b b6 35
       2.5501365e-06 1.389104e-06 9.290618e-07 1.3567918e-06
0003e0 99 c2 ed 34 57 80 c7 36 27 aa 92 35 ea 7c 69 35
       4.4286278e-07 5.945603e-06 1.0927369e-06 8.698104e-07
0003f0 3c 68 43 36 7e c3 41 35 25 fd 2d 36 b0 98 3f 36
       2.9117937e-06 7.218258e-07 2.5926358e-06 2.8550094e-06

exp_avg f4 [64]
000000 2a 00 bc b9 df 15 21 39 1c 45 46 b8 af 81 f4 ba
       -0.00035858277 0.00015362304 -4.727124e-05 -0.0018654371
000010 12 d2 09 3b 21 1e 28 b9 b6 dc 98 ba 08 bb 8a ba
       0.0021029753 -0.00016032952 -0.0011662457 -0.0010584304
000020 c5 30 20 3a 6e 4d 11 39 91 18 81 bb 5f 53 0e bb
       0.0006110783 0.00013857122 -0.003939696 -0.0021717174
000030 ce 08 39 ba a2 2b 99 ba ad 06 d2 39 4f a7 51 b7
       -0.0007058502 -0.0011685977 0.00040059295 -1.2496325e-05
000040 bd 00 92 3a 67 82 dd b9 8d ad f6 b9 8f 92 d3 b8
       0.0011139136 -0.00042249562 -0.00047050082 -0.00010088563
000050 86 5b a9 b9 c1 69 f2 38 bc 02 83 3a 7f e2 b0 ba
       -0.00032302382 0.000115591574 0.0009995322 -0.0013495235
000060 98 f1 44 ba 54 91 ab ba 51 19 df ba 06 b9 45 ba
       -0.0007512807 -0.0013089576 -0.0017021095 -0.0007542524
000070 b9 e6 fb 39 50 c2 e3 39 cc e9 6c b9 ae 3b 67 3a
       0.00048046352 0.00043441588 -0.0002259381 0.00088208437
000080 44 0c 95 39 bc 1e 37 3a a4 72 f6 38 8c 03 a2 b9
       0.00028428633 0.0006985476 0.000117515476 -0.0003090169
000090 85 1d c5 b7 f0 5a f0 ba 4b a5 02 b9 38 71 1d 37
       -2.3497976e-05 -0.0018337648 -0.00012459343 9.38429e-06
0000a0 75 43 dc 3a 80 b1 60 3a 56 40 5a 39 06 de 90 bb
       0.0016804772 0.00085713714 0.00020814067 -0.0044209985
0000b0 d2 34 bd 38 b3 75 a6 3a a7 3f 25 b6 06 66 47 3a
       9.022061e-05 0.0012699872 -2.4623967e-06 0.000760645
0000c0 73 f4 e7 3a 3a 0e 2a ba 2c fa d2 ba 5f dd 6b ba
       0.0017696753 -0.0006487105 -0.0016096286 -0.00089975254
0000d0 9b 23 f4 b9 c0 be 85 39 bd 77 0d 3a 73 d0 90 ba
       -0.00046565835 0.00025509857 0.00053965655 -0.0011048451
0000e0 15 c6 01 3a dc 7c 20 ba 2e ec 02 39 f3 62 17 39
       0.0004950476 -0.0006122121 0.0001248575 0.00014437344
0000f0 e3 f4 7e 3a 09 33 0c ba 10 14 1d bb dc b8 0c 39
       0.0009725822 -0.0005348181 -0.0023968257 0.00013420306

exp_avg_sq f4 [64]
000000 58 5a 2b 37 89 cc b4 36 91 93 1a 37 c3 7d 8c 39
       1.0213429e-05 5.388229e-06 9.213473e-06 0.0002679658
000010 8e 3e 70 38 ad 5c 2f 36 62 a0 1b 37 14 fd 70 37
       5.7278718e-05 2.6130976e-06 9.276062e-06 1.4364039e-05
000020 b8 f9 21 37 ee 32 5f 37 9c 69 49 3a 2f 3b 45 38
       9.65449e-06 1.3303694e-05 0.00076832785 4.702358e-05
000030 ea db 53 37 7e 12 65 38 67 bc 0e 37 bc b0 86 34
       1.2627783e-05 5.4615077e-05 8.507725e-06 2.5088036e-07
000040 c9 bf 57 38 ff af d9 36 5f 30 a7 36 7c 2c 45 36
       5.143861e-05 6.4875926e-06 4.982619e-06 2.938118e-06
000050 0d a0 2c 37 a4 a0 77 35 43 81 b6 36 ad a8 f9 36
       1.0289264e-05 9.2248433e-07 5.4390707e-06 7.4404147e-06
000060 c0 5f 41 39 dc 6d 99 36 76 4f 86 38 a3 ef 37 36
       0.00018441584 4.5725446e-06 6.404419e-05 2.7408612e-06
000070 40 43 f8 36 01 b7 4d 38 63 b6 34 36 95 28 2e 37
       7.398805e-06 4.9046244e-05 2.6928253e-06 1.0380657e-05
000080 a4 60 ff 36 fa 66 27 37 87 e9 0d 38 c8 7c a1 37
       7.6108427e-06 9.977952e-06 3.383451e-05 1.9250801e-05
000090 c3 2c f4 36 fa 37 76 38 fb d4 fd 36 8e 5d 6e 35
       7.2769776e-06 5.8703103e-05 7.5647818e-06 8.879805e-07
0000a0 d1 a3 06 39 01 a8 1f 37 49 9b 7b 36 af 2e b3 3a
       0.00012840262 9.516255e-06 3.7492302e-06 0.0013670529
0000b0 d3 c8 4d 36 4c 1c a6 36 b4 47 8b 37 da 3d a2 36
       3.0664276e-06 4.9504797e-06 1.660348e-05 4.8351767e-06
0000c0 0d 2d 07 3a 77 3e 26 38 aa 23 62 39 a9 c7 47 37
       0.00051565544 3.963566e-05 0.00021566325 1.1907811e-05
0000d0 9d 9a 25 37 fe fe 35 36 4c 9b 30 37 1f 3a 18 38
       9.870765e-06 2.7119527e-06 1.0526575e-05 3.6293754e-05
0000e0 9e 11 1c 37 3a 7b f0 36 3e 56 b8 38 5e cd 80 36
       9.302426e-06 7.166903e-06 8.7898676e-05 3.838605e-06
0000f0 69 58 5a 38 92 c8 3e 37 17 98 fa 38 40 a1 df 36
       5.205759e-05 1.1371581e-05 0.00011949258 6.66469e-06
