p1_navigation/DQN_20190201_v24_500eps_8.82score.pth (torch_old, 89653 bytes, 18 tensors)

hidden_layers.0.weight f4 [64, 37]
00000000: ae06 9f3d 200d a13c f72b 37bd a8df 14bd
00000010: fc7d 98be 01d2 673d 7e2d 18be e6f0 403f
00000020: 624c c0be 6255 4abe 22fd afbd 265f 5f3d
00000030: 8295 733d 37c4 7bbd 5f1a dcbd 3d61 a0bd
00000040: f7ac cdbd a88d 023f d92f 1ebe f647 0bbe
00000050: 932d 9b3d a666 b23e 0e2e 85be 9bc0 fe3e
00000060: 0f08 04be 9a8e ba3e 4582 4bbd 1c3d f9be
00000070: f9d7 ec3e ad99 1abf f339 bbbc 1f65 b13e
00000080: e984 7ebe 54ad 32be dbb9 c3bd 9bd4 3cbe
00000090: f947 a7bd 78a3 d23e c7fd c5bd 7380 45be
000000a0: 83fc bcbe 8352 9cbe e9a5 323d b1b3 8ebb
000000b0: c1e6 0ebb a790 2abf e0a9 193e bdc8 0abd
000000c0: 5068 10bd 8ff7 4bbd 4dce 0d3e 4577 9a3e
000000d0: 0f17 193f 896c 2f3e 0c17 e1be 4b92 fabe
000000e0: a47b d2bd db96 3dbe 5b9d 9abe 3af1 34bd
000000f0: 5c9d e3bc 9eb3 573e 53c3 e2be 11ec 9a3e
00000100: ba18 eebc 020a c73d 9b28 d43b 2b07 59bd
00000110: bd6a b0be c926 a73e ba2c 0abf a327 133f
00000120: 39a8 06be a422 833d 89a2 6f3e eda8 64bf
00000130: 3aca febd e1d0 2fbf 0e48 43bf 905c 42bf
00000140: a5aa 1fbe 1a70 2dbf 2786 cd3e 3e8a 16bf
00000150: d7ee 52be b70f 923d c66f debe 1777 aabe
00000160: 5a4e a6be a334 0ebf de6b 78bf 06b0 0abe
00000170: 992f ac3e 56ea 70bf 3589 f5be 9a6e d63c
00000180: 7cc2 54bf 30e7 5fbe ae7f 64bf ac9f 94be
00000190: 4399 cabe e925 8e3e 4d99 5dbf 7f92 d43d
000001a0: e90f 3ebf 396a 7bbd 0593 5fbf 7695 89bc
000001b0: 8b3e 05bf 44c8 1f3f 18c1 6ebe 193d 3abe
000001c0: 7aab a63d 6a8f ba3e 335b 853e 2f2f 26bf
000001d0: 3426 0fbe f5bc 04be d4b8 b03e f77f 093e
000001e0: 2fed 8c3e c7a3 5fbe 1b5a dcbd 0339 4d3e
000001f0: 5010 1f3e 65d9 c8bd 1221 bdbd b34a cc3c
00000200: 8106 c73c ad4c b9be deab 29be 3387 65bd
00000210: fb77 223c d214 c93b eab5 313e cd32 49be
00000220: c652 03be 4a8d b93d 993d 033e c575 193e
00000230: 50c1 963e 01fc d53d bbbf ec3e 09cd 27be
00000240: f335 b0be 268d 803e 8578 523e bc96 a8bd
00000250: 29ad 4b3e ece8 abbe feb1 dbbe ec8d 2fbf
00000260: 0c00 bdbe c79f 933d 685c 23bf 4cb4 5bbf
00000270: 6ce0 983e 9e69 13bd 9467 bdbd 5195 31bf
00000280: eb59 9a3e 083b 5bbe 8819 ebbd 28ef ebbe
00000290: 1929 e0be 03eb 743d cf1f 02be d9c4 f1be
000002a0: a2d4 7e3d 7d35 60bf f326 1f3e 5dd3 67bf
000002b0: 5da8 cbbc bd15 da3d 337d 1ebf 33c5 75bf
000002c0: 2139 153e 3d8a 08bd 0b9d 8c3e 5ab8 e0bf
000002d0: 86a5 abbe 987b 77be de1e 873e 62f3 10be
000002e0: 5524 da3c fd39 71be f1d2 d9be 832e a13e
000002f0: e841 92bf f8f6 2a3d 7ba7 b2be 4f09 babe
00000300: 1b86 adbd 0c15 af3e be0c 57bf 4700 ddbe
00000310: 5282 2abe f79e 8abe d49b 1fbd f961 c1be
00000320: ea7e 803d 0ac7 e4be 5d3d 8bbe 6447 79bd
00000330: a88d 40bf e1d4 273e 29be 4a3e ea35 afbf
00000340: 80ce 85bf e859 cc3d d407 97be 79e1 27bf
00000350: b766 6d3e bd97 82be 68d9 a9be 89e6 47bf
00000360: 37ef 82be 9689 6dbe 7431 d63e c68b 74bf
00000370: a45b 5b3c 0054 eb3d 33e0 373e 5772 af3d
00000380: a0bf fbbd da4b 43be f87a 1cbf 7023 7cbe
00000390: 3160 143e 79f9 cbbd 5f16 9f3e 90ea 2f3e
000003a0: 2edb 74be c7d8 873e bbc7 863e e487 30be
000003b0: 3867 113f 32be 42be 8548 f1bc 06b4 15bd
000003c0: 5a9d cd3e e53f cb3e ae54 b6be 9290 153e
000003d0: 2184 e43e a51c 8dbe ec88 da3d 353c 7c3d
000003e0: f915 74be a827 593d 1a04 24bd 75ed aabe
000003f0: 2985 54be 46a3 2b3d f17e 81bd 35c9 233e
0.07764946 0.019659579 -0.044719663 -0.036346108 -0.29783618 0.05659676 -0.14861104 0.7536758
-0.37558275 -0.19759133 -0.08593203 0.0545341 0.059468754 -0.061466422 -0.107472174 -0.07831047
-0.10042756 0.509974 -0.1544794 -0.1360167 0.07577052 0.3484394 -0.260117 0.4975632
-0.12893699 0.3643692 -0.04968478 -0.48679435 0.46258524 -0.6039074 -0.02285478 0.34647462
-0.24855389 -0.17448932 -0.095569335 -0.18440478 -0.081680246 0.41140342 -0.09667545 -0.1928728
-0.369114 -0.305317 0.043615256 -0.004354917 -0.002180502 -0.6662697 0.15006208 -0.033882845
-0.03525573 -0.049796637 0.13848229 0.3016912 0.5980081 0.17131247 -0.43962896 -0.48939738
-0.10277489 -0.18514578 -0.30198178 -0.044175364 -0.027784996 0.21064612 -0.44289646 0.3025823
-0.029064525 0.09718706 0.006474567 -0.05298535 -0.34456435 0.32646778 -0.539745 0.57482356
-0.1315011 0.064030915 0.23401846 -0.8932026 -0.124409154 -0.686781 -0.7628182 -0.7592249
-0.1559244 -0.6774918 0.40141413 -0.5880469 -0.20598923 0.071319036 -0.4344465 -0.33293983
-0.32481652 -0.5554907 -0.9703959 -0.1354371 0.33630064 -0.9410757 -0.47956243 0.026175786
-0.8310926 -0.21865535 -0.89257324 -0.2902807 -0.39570054 0.27763298 -0.86562043 0.103795044
-0.74243027 -0.0613806 -0.8733371 -0.016794901 -0.5204856 0.62414956 -0.23315847 -0.1818737
0.08138175 0.3643754 0.26046142 -0.64915746 -0.13979417 -0.12962706 0.34516013 0.13427721
0.27524707 -0.2183982 -0.10759374 0.2004128 0.15533566 -0.0980709 -0.09234823 0.024937963
0.024295093 -0.3619131 -0.16569468 -0.05603714 0.009916301 0.006136515 0.17354551 -0.19648285
-0.12824544 0.09060152 0.12816466 0.14986332 0.2944436 0.104484566 0.4624003 -0.16386808
-0.3441616 0.25107688 0.20553787 -0.08231875 0.19890274 -0.33576143 -0.42909235 -0.6857593
-0.36914098 0.072082095 -0.63812876 -0.85821986 0.2985872 -0.035989396 -0.092482716 -0.69368464
0.30146727 -0.21409237 -0.11479479 -0.460809 -0.43781355 0.059794437 -0.12707447 -0.47220495
0.0622145 -0.87581617 0.15542202 -0.9055689 -0.024860555 0.106486775 -0.6190979 -0.9600403
0.14572574 -0.03333496 0.27463564 -1.755626 -0.33524722 -0.24168241 0.26390737 -0.14155343
0.026628653 -0.23557277 -0.42543748 0.31480798 -1.1426363 0.041739434 -0.34893402 -0.36335227
-0.08472844 0.34195745 -0.8400382 -0.43164274 -0.16651276 -0.27074406 -0.03896697 -0.3777006
0.06274207 -0.44683105 -0.27195254 -0.0608591 -0.7521615 0.163898 0.19799103 -1.3688328
-1.0453644 0.09978086 -0.2949816 -0.6557842 0.23183714 -0.25506392 -0.3317368 -0.78086144
-0.2557313 -0.23197016 0.41834605 -0.9552578 0.013388548 0.11490631 0.17956619 0.085667305
-0.12292409 -0.19071904 -0.61125135 -0.24622893 0.14489819 -0.099596925 0.31071755 0.17179322
-0.23911735 0.26532575 0.26324257 -0.17239338 0.56798124 -0.19017866 -0.029453525 -0.036548637
0.40159112 0.39697185 -0.3561148 0.1460593 0.44632056 -0.27560917 0.10670647 0.061580855
-0.23836507 0.053016335 -0.040042974 -0.3338429 -0.20753922 0.041903757 -0.0632304 0.15994723

hidden_layers.0.bias f4 [64]
00000000: 0674 853d d579 50be 6085 8bbe b88a 15be
00000010: b96a 00bd 7366 fdbd f227 f0bd 5e7e 6f3c
00000020: 42d3 a73b 3366 debd ef57 5fbd 591a 953d
00000030: f46e 4f3d db1b db3e 8c95 a6bd bdaf 6bbe
00000040: 7cb7 35bd ef75 ecbd 9bbd 9cbd 1e80 96be
00000050: 30be 72be 417f 85bd 4e58 933e 8f16 9abe
00000060: 761a 83be 12d3 a33d 506d 2bbd 1d3e 6cbe
00000070: b419 5e3e eabc c4bd 53be babd 51e3 b2be
00000080: 0750 f03c b001 9abd 0e72 c9bd fb4b f3bd
00000090: ccfa 40bd 89dc 503d a235 ccbe d2ed 66be
000000a0: 7d62 62be f0f4 acbe 47d1 d8be 2a62 023f
000000b0: 2463 24be 8390 89be 8bf6 e1bd 276b 53be
000000c0: 482b 11be f971 c33e ced2 67be 6b5d 83bd
000000d0: 3d75 cdbd fd77 b8bd 8996 38be 3b47 b1bb
000000e0: d648 34bd 8805 b6bb aafe 60be 8727 34be
000000f0: 4ecd 9d3d 1be5 03be 004b bfbb 9ef2 b73e
0.0651627 -0.20358975 -0.27250195 -0.14603698 -0.03135178 -0.12373056 -0.11726369 0.014617531
0.0051216194 -0.10859337 -0.05452722 0.07280416 0.050642923 0.4279469 -0.081339926 -0.23016258
-0.044364437 -0.115459315 -0.07653352 -0.2939462 -0.23705363 -0.065184124 0.2877831 -0.30095336
-0.25606126 0.07999243 -0.041852295 -0.2307057 0.21689492 -0.09606345 -0.09118333 -0.34939054
0.029335035 -0.07519853 -0.09836207 -0.118797265 -0.04711418 0.05099157 -0.3988467 -0.22551659
-0.22107883 -0.33780622 -0.42347166 0.50931036 -0.16053444 -0.26868066 -0.110333525 -0.20646344
-0.14176667 0.38172892 -0.2263901 -0.064143024 -0.10032127 -0.09007261 -0.18026175 -0.0054101027
-0.044014774 -0.0055548586 -0.21972147 -0.17593203 0.077051744 -0.12880366 -0.005837798 0.3592729

hidden_layers.1.weight f4 [64, 64]
00000000: 20ab 6fbf efbd 18bf f412 263e 6335 96be
00000010: b41b 6e3e 868f 54be fedf 93bf d090 fd3e
00000020: 1898 483d 3720 69bf 1458 093d 4a5b b8bf
00000030: 89bb 30bf 9f69 043d 5589 b0bc a85b 3f3f
00000040: 2189 30bf 7333 a7be 4d9d 1ebf 7943 34bf
00000050: 13fc d9be be0e b1be 7525 92be 68df e6bd
00000060: d090 40bf 3b60 31bf 91b8 5dbf d440 a1be
00000070: 0f25 c1bd fc21 b4be 1691 67bf a0e6 153e
00000080: 2134 a73d 5532 eebe bf49 bcbf 6c9b 96bf
00000090: bf3b edbf e266 5c3e f285 bdbd 9960 e83d
000000a0: a788 e93e c4ab 66bd a615 8c3d 6f36 66be
000000b0: 7d60 bfbe 455e c3bf 1774 76bd 4141 5f3d
000000c0: bd26 64be 95ac 86be 96c0 86bf a064 49bf
000000d0: 0f34 283e db21 55bf 8f47 51be 5297 e53d
000000e0: 0859 1d3f e6db 13bf 05f6 4bbf 24bb 3d3e
000000f0: f442 043e 354c 563e df29 843c 86eb e03d
00000100: 2e0b 12be 7923 793d 28bd 023d c888 0dbc
00000110: 0185 99bd 0078 15be ef96 18be ea93 b2be
00000120: ef43 babd 9fd9 a83d 997d 3cbd fdfb 3d3e
00000130: 3a58 39bd 2060 b7bd 7ed2 3bbe 1748 d2bb
00000140: f1c6 51be 0058 4a3e 9319 02be b0fb 4fbd
00000150: a409 403e a859 21be 6aa8 95bd 56e7 45bd
00000160: ae78 0cbe ad88 643e 66ba b2bd bd0b 43bd
00000170: 8487 a9bd 4eb6 51be 90be 23be 9380 e63d
00000180: 29a3 aabd 83bd 92be 7337 10be bb2c 87bd
00000190: 2508 a7be e394 4dbe 3b01 efbd 26ca 233e
000001a0: 5b5c 4abe a470 d4bb 915f c13d c2d7 10be
000001b0: cc77 b73e 2eb2 5bbe 0200 cfbd 8497 8dbd
000001c0: b67f f0bd e1bd 913b 414a 15be 4d7c a2bd
000001d0: 3266 b6bd 8d30 1bbe f6b0 e63d bf09 6dbd
000001e0: 9cac 0dbd b0c0 673b fbf5 243c eb9f 01be
000001f0: 250f 3bbe f32d 15be 59c9 b9bd da28 bcbd
00000200: 3b21 34be 5eee 9fbd d1f2 a4be 828c 5cbd
00000210: ab65 e33d 668c 4abe cdc6 9abe 5c65 a03c
00000220: 54c1 24be b4bd 2abe fe85 93be dd96 72bd
00000230: 3a5f 2ebd e83e 903d 71e5 173e 5658 373e
00000240: fb96 18bd f9b3 a1bd f199 3fbd a9a8 45be
00000250: 03a4 293e 27d8 94be faa8 72be 9573 17be
00000260: 7428 cdbe 7efa 253d 0910 c7bc 6a19 f4bd
00000270: 8eba 90bd 1b93 a1be ff74 71bd 3b25 6ebe
00000280: 3b8d 6abe 3f95 c13b ab77 113d e880 823d
00000290: 00e4 393d 25e6 eabd 533c 983d 5a14 573d
000002a0: fb7d 283e b9d9 d73d 2aa4 18be 7082 d43c
000002b0: 0b60 40bd 0e49 af3c 8fa7 493d 6b0a 84be
000002c0: ea88 84be bdf0 a4be fe0f c6be afa3 84be
000002d0: 1a8c b5be f852 27be 466d 61bc 4767 d1be
000002e0: c65d 96be 9526 b93d 79e6 89be 2705 383e
000002f0: 5a9f d0be 8697 59be 1516 8f3d be8b 39bd
00000300: 9e8d adbd fb40 2c3e eb86 a6be c5ca cabd
00000310: ba1d 373e 36b0 99bd fedd 9cbd 3d77 10be
00000320: 3c24 09bd 643c ee3e 5dae 24bd 2c95 953f
00000330: f61d e9bd 33e7 a4bc 0ce4 f1be 57a5 823e
00000340: 7667 c7bc 8683 c2be 46c3 fa3c 2213 f0bd
00000350: 0a46 13be 75e6 96be f411 0cbd cb5e 073f
00000360: 994c ecbd 2700 1bbe 4c8c 0abf 299b d8bf
00000370: bd4c 1a3e 4b24 d3bd e19c 5d3e e8af af3c
00000380: ccaf 7abe a255 ce3a d758 84be 4515 ce3d
00000390: 4226 04be d52a 4abe e21f 16be 3838 883e
000003a0: 924b c1bd 2b6b 8ebe 02da 05be 33ba 2c3d
000003b0: fa02 da3e 2d3b 383e 8db8 dc3d c1fa cbbd
000003c0: dc03 b1bd 8607 05be 305f 04bf f098 8cbd
000003d0: f935 643e 4c94 3bbf 0f15 313e 5980 a5be
000003e0: 56fa fd3e 04d2 f5bd 30c9 12be ae77 d4bd
000003f0: 056b 6bbe d27f c23e 5163 9a3e e357 6e3d
-0.9362049 -0.59664816 0.16218168 -0.29337606 0.23252755 -0.20757875 -1.1552732 0.49524546
0.048973173 -0.9106478 0.033531263 -1.4402859 -0.69036156 0.03232729 -0.02154986 0.7474923
-0.6895924 -0.3265644 -0.6195877 -0.70415455 -0.4257513 -0.3458156 -0.28544202 -0.1127308
-0.75220966 -0.6928746 -0.8660975 -0.31494772 -0.094308965 -0.35182178 -0.9045576 0.14638758
0.0816424 -0.46522775 -1.4710006 -1.1766181 -1.8533858 0.21523622 -0.09254064 0.113465495
0.4561207 -0.056316152 0.068400666 -0.22481702 -0.37378302 -1.5263144 -0.060169306 0.05450559
-0.22280402 -0.26303545 -1.0527523 -0.78669167 0.16426109 -0.83254784 -0.20437454 0.11210503
0.61463976 -0.57757413 -0.7967227 0.1852842 0.12916166 0.20927508 0.016133247 0.109824225
-0.14262077 0.060824845 0.031918675 -0.008638568 -0.074960716 -0.14596558 -0.14901327 -0.34878474
-0.090949886 0.08244633 -0.046018217 0.18553157 -0.045250155 -0.08953881 -0.18342015 -0.006417285
-0.20486046 0.19760132 -0.12705068 -0.050777137 0.18753678 -0.15756857 -0.07307513 -0.048316322
-0.1371791 0.22317763 -0.08726959 -0.047618616 -0.08277801 -0.204797 -0.15990663 0.11254992
-0.083319016 -0.2866021 -0.14083652 -0.066003285 -0.326234 -0.20076327 -0.116701566 0.15995082
-0.19761793 -0.0064831544 0.09442056 -0.14144805 0.35833585 -0.21454689 -0.10107423 -0.06913665
-0.11743109 0.004447684 -0.14579107 -0.07933865 -0.08906211 -0.1515524 0.11264221 -0.057870623
-0.03458844 0.0035362653 0.010068412 -0.1265866 -0.18267496 -0.1456831 -0.09071607 -0.09187479
-0.17590801 -0.07809137 -0.32216504 -0.053844936 0.11103376 -0.1978012 -0.30229798 0.019579582
-0.16089374 -0.16673928 -0.28813165 -0.059225906 -0.042571284 0.070432484 0.14833619 0.17904791
-0.03725336 -0.07895655 -0.04677767 -0.1930262 0.16566472 -0.2907116 -0.23697272 -0.14790185
-0.40069926 0.04052209 -0.024299638 -0.1191891 -0.070668325 -0.31557545 -0.058949467 -0.2325639
-0.22905438 0.005907684 0.035514515 0.06372243 0.045383453 -0.11469678 0.07433381 0.052509643
0.16454308 0.10539574 -0.14906374 0.025941104 -0.046966594 0.02139714 0.049232062 -0.25789198
-0.25885707 -0.3221492 -0.38684076 -0.2590613 -0.35458452 -0.16340244 -0.013758963 -0.40899107
-0.29368418 0.09040562 -0.2693365 0.17970715 -0.40746576 -0.21249208 0.06986634 -0.045299284
-0.08474277 0.16821663 -0.3252481 -0.099019565 0.17882434 -0.07504313 -0.07659529 -0.14107986
-0.03348182 0.4653045 -0.04020535 1.1686149 -0.11382668 -0.020129776 -0.47244298 0.2551677
-0.024341326 -0.3799097 0.030610692 -0.11722399 -0.14382187 -0.294727 -0.03419681 0.5287902
-0.11538047 -0.15136777 -0.54120326 -1.6922351 0.15068336 -0.10309657 0.21641876 0.021446183
-0.24481124 0.0015742073 -0.2584903 0.100626506 -0.12905219 -0.19742902 -0.146606 0.26605392
-0.09438242 -0.27816138 -0.13071445 0.04216976 0.42580396 0.17991324 0.10777388 -0.09959937
-0.08643314 -0.12991151 -0.51707745 -0.06865108 0.22286214 -0.7327316 0.1729319 -0.32324484
0.49605054 -0.12002948 -0.1433456 -0.103743896 -0.22990043 0.37988144 0.30153897 0.058189284

hidden_layers.1.bias f4 [64]
00000000: ff69 0fbe 485d 9cbd 7dc7 f1bd ac51 b93d
00000010: 2016 bc3e c6b2 af3e 0321 123d 3946 2cbd
00000020: 4a33 00bd a0ea 0ebd fcd5 933e 061c e0bd
00000030: 7fdf d13d 1313 943d 2c86 453d 23fd 8c3e
00000040: 0a4b 20be cea0 f63e c53a 613d 8602 39bd
00000050: 27b6 a0bd 4ca1 46be af8f 37bd 516f 9dbd
00000060: 0c11 e33d bf66 103e 3c4a cdbd f59e 843e
00000070: 5fd1 c03e 5c35 53bd c43a ef3e 3587 dfbc
00000080: 5e37 adbe 27e4 93bd ed04 233d 9d83 5dbd
00000090: 7504 49be aff0 2f3f a3c9 3a3f d206 43be
000000a0: 55a7 813d aa65 48bc fc6e c73d d505 a9bd
000000b0: 3d15 0fbe 79f6 c7bd da28 7e3b b169 5cbc
000000c0: 9702 c9bd 7f8c 77bd 0770 d0bd 9a5c 253f
000000d0: 480d 65be eb7b 4abe 946c e0bd 939f 26bd
000000e0: 02c2 5cbe 04cd 88be 8456 d1bd abb6 203f
000000f0: 78ee cabc 3679 093f 18c5 83be e2e4 1abe
-0.14005278 -0.076349795 -0.118056275 0.09048781 0.3673563 0.3431608 0.035676014 -0.042059157
-0.031298913 -0.034891725 0.28874195 -0.10942845 0.102477066 0.072302006 0.04822366 0.27536878
-0.15653625 0.4816956 0.054987688 -0.045168422 -0.07847243 -0.19397467 -0.04481476 -0.076872475
0.11087236 0.14101695 -0.10023925 0.25902525 0.37659737 -0.05156456 0.46724522 -0.027286151
-0.33831304 -0.07221251 0.03979962 -0.054080594 -0.19630606 0.6872663 0.72963923 -0.1904557
0.06330744 -0.01223127 0.097379655 -0.082530655 -0.13972946 -0.09763808 0.0038781674 -0.013452933
-0.09814947 -0.060436722 -0.101776175 0.64594424 -0.22368348 -0.19773833 -0.1095821 -0.040679526
-0.21558383 -0.26718915 -0.1022158 0.6277873 -0.024771914 0.5370058 -0.25736308 -0.15126374

output.weight f4 [4, 64]
00000000: 27fc 6abf f4e1 b33c ef6f fb3b d57e 613e
00000010: c5bf 2c3d 9604 863d ff87 3dbf 4dc1 5abd
00000020: edbf 91bd 59be c6bd 98cc e73d 2791 26bf
00000030: 1b06 dabd 6736 a33c 5edc 9fbd c5d5 a13d
00000040: 934a 893c d732 fb3c fd58 65bd 4f61 973d
00000050: 4843 bdbf 489c 3dbc 7ed2 ae3d b5e6 07bf
00000060: 9490 803e 896d c03d 9834 c13d cb17 1c3e
00000070: 6e2a c13d 57e8 243d b37f 523e 295a 6cbd
00000080: b2c8 34bc c3ab 313d cfc4 a93a 4d6a 9a3b
00000090: ae86 a43c 1a9b 843e d034 593e 7f20 e93d
000000a0: 8d45 743e 3b1d 7c3e 5e63 023d 82a0 d3bc
000000b0: b8d6 48bd b67f 00bd 4706 833e beff 6c3d
000000c0: c048 6ebf 82da bfbc 8533 5f3d 5e64 153e
000000d0: 8e5e 0a3d a788 2ebf d018 5c3d 8a01 4bbd
000000e0: 8c79 54bf aed3 253e bac6 1ebe 6137 573e
000000f0: fb0c 233e 34cb 263e e7f0 3cbd 813f c7bb
00000100: 8eae d3bc e73f bc3d fe2d 08be edd9 503e
00000110: 3fac 093d 333a e63d 7cbc 8bba bf5b 373d
00000120: 1d65 babc f1c2 b7bc 144f 113d 2646 a63c
00000130: c080 67bd 9c5c 3f3d cd53 7abc c190 c53d
00000140: 69bd 2fbd aab4 0cbc 41ff 8cbf 1bcb be3d
00000150: b135 403d 2229 b3bd bd60 153d b1a9 103d
00000160: a7e7 263e 967c dc3d fdab acbd 5635 123e
00000170: 61e8 e43d b450 e0bd bea6 303e 2eb0 95bd
00000180: 1193 bcbc d8d8 b3bb 1a78 1e3d 175a 66bd
00000190: b50b 213a 8adc 513e 0a15 873e 7c89 d03d
000001a0: 3182 99bf 48d0 4a3e ca26 d3be 1f6c 95bd
000001b0: d19b 853d 4f7e d1bd 0e64 c13e 954f 23bc
000001c0: a264 a1ba 314d c0bd 8f32 553e 989c 403e
000001d0: 210c 35bd 2f0c 773e ef44 3f3c 0165 833d
000001e0: 10c6 cc3c b73a 973d bf92 f93c 97d9 7b3e
000001f0: 68fa afbd a054 ad3d 5278 4f3b fa93 47bd
00000200: 2d57 ebbd aa1c 18bd ea6e a23e 3ba5 12bc
00000210: b3d8 9d3d 639b cb3d 5a06 693d a7a2 d2bc
00000220: 5f43 073d 1cbb 18bf ef20 c23d 93d1 ef3d
00000230: 91d1 9d3d 1cf8 e33e 8b96 42bc 12f0 143e
00000240: a139 8ebf 8b20 053d 25bf b4bc 64c0 59be
00000250: de79 a0be 62ac eb3c e8fb 42bd 5f9e c73e
00000260: 2fc9 c03d 5fbc 143e 5ba2 e73d 707c 103e
00000270: 56c8 5e3c 4068 cc3d e04a 423e f5c1 1fbd
00000280: 4096 12bd d594 333b 8a44 cdbd 81e5 8c3d
00000290: c64f dd3d 72c2 653e 1968 7f3e e6cd e23c
000002a0: 4c12 543e 0722 283d 6bf6 bfbf 3a15 aabd
000002b0: 8cb7 46bf 7792 e6bb 74fe ab3e cd76 00bd
000002c0: 21e7 99bc f1bd aabd ef10 d63d d954 093e
000002d0: 1ad7 42bf a627 803d c164 cbbd 0539 843d
000002e0: 708e ca3d ea26 04bf 9768 7b3d 507b 703e
000002f0: 40df 4bbd ce75 cb3d 6c90 9fbe 5311 263d
00000300: 0358 88bf caec 5c3d 262f f5bb e81b 09ba
00000310: 9c47 a5bd 9eb3 623d 8270 433e e656 aebd
00000320: fa42 f0bd 4ce3 edbd a900 483d e199 9d3e
00000330: ac8f 28bd feb3 86bf 3526 29bb 3039 51bd
00000340: 236e 3cbc 54a0 713d a073 273d 84c8 7e3d
00000350: 54a0 66bd 6d10 9e3d 56f2 523b cfda 2d3e
00000360: 1b83 af3e 7b23 c13c 26a3 223d 9327 273e
00000370: a961 023e d712 d6bd 2a92 e93d e105 4f3d
00000380: b6d8 c2be aadd dcbb bd67 b33d de80 053e
00000390: 6359 9fbf 762d 3e3e fad3 7e3e e328 77bf
000003a0: b3c3 563d f714 923e dcad f93d 8afa 2b3d
000003b0: bd13 27bf 2091 a03d ea85 703c 626f a23a
000003c0: 3c7e ce3d 18de 533c 7b10 f6bd 6dc7 233e
000003d0: 8763 c03d eae2 6f3e 50ef 3abc 1ee1 223e
000003e0: aceb 27bf 1a23 9b3e d4ed 853c d1bd 8c3e
000003f0: 72fa 0cbe c7ee d33d b80a 6e3d cc64 24bc
-0.91791004 0.021958329 0.0076732556 0.22021039 0.042175073 0.065438434 -0.7403564 -0.053407002
-0.07116685 -0.09704275 0.1131832 -0.65065235 -0.10645696 0.019923402 -0.078057036 0.079021014
0.016759193 0.03066389 -0.05599307 0.07391607 -1.4786158 -0.011572905 0.08536242 -0.53086406
0.25110304 0.09395892 0.094338596 0.15243451 0.09431921 0.04026064 0.20556526 -0.05770317
-0.011034178 0.043376695 0.001295233 0.004712379 0.020083752 0.25899583 0.21211553 0.11383151
0.23854657 0.24620526 0.031833045 -0.025833372 -0.049032897 -0.031371795 0.25590727 0.057861082
-0.9307976 -0.023419622 0.054492492 0.14589068 0.03378158 -0.68177265 0.0537346 -0.049562015
-0.82997966 0.1619403 -0.15505496 0.21017219 0.1592292 0.16288453 -0.04612818 -0.0060805683
-0.02584007 0.09191876 -0.13298795 0.20395632 0.033611532 0.11241569 -0.0010661031 0.04476523
-0.022753293 -0.022431822 0.035475805 0.020297121 -0.05651927 0.04671918 -0.015278769 0.0964675
-0.042905245 -0.008587996 -1.1015397 0.09316083 0.046926204 -0.0874808 0.03646921 0.03531808
0.16299306 0.107659504 -0.08431242 0.14278159 0.11177135 -0.10952893 0.17251107 -0.07308994
-0.023019345 -0.0054884963 0.038688757 -0.05623826 0.0006143407 0.20494285 0.2638324 0.10182473
-1.1992856 0.19806015 -0.4124053 -0.07296013 0.0652386 -0.102291696 0.37771648 -0.009967704
-0.0012313316 -0.09389723 0.20820068 0.18809736 -0.04420102 0.24125741 0.01167415 0.06415749
0.024996787 0.07384246 0.030465482 0.24594723 -0.08592683 0.084634066 0.003165741 -0.048725106
-0.11491237 -0.03713671 0.31725246 -0.008950527 0.07707348 0.09941747 0.056890823 -0.025712324
0.033023234 -0.59660506 0.09478938 0.11709895 0.07705987 0.4452523 -0.011876713 0.14544705
-1.1111337 0.03250174 -0.022063801 -0.21264797 -0.31342977 0.028768722 -0.047603518 0.38988015
0.09413373 0.14524983 0.11310264 0.14109969 0.0135975685 0.099808216 0.18973875 -0.03900333
-0.03578782 0.0027401943 -0.100228384 0.06879712 0.10806231 0.22437456 0.24942054 0.02768607
0.20710105 0.041048076 -1.4997076 -0.0830483 -0.7762382 -0.007036503 0.3359257 -0.031363297
-0.018786969 -0.0833701 0.104524486 0.13411273 -0.7610947 0.06257562 -0.09931327 0.06456188
0.09890449 -0.5162188 0.06137904 0.2348454 -0.049773455 0.09934579 -0.31164873 0.040543865
-1.0651859 0.053936757 -0.007482427 -0.00052302936 -0.08070299 0.055347078 0.19085887 -0.08512668
-0.11731525 -0.11615619 0.048828755 0.30781463 -0.04115264 -1.0523679 -0.0025810127 -0.05107993
-0.011500868 0.05899079 0.040881753 0.062202945 -0.056305245 0.07717977 0.00321879 0.16978
0.34279713 0.023576489 0.03970637 0.1632369 0.12732567 -0.10452812 0.11404832 0.050542716
-0.38055962 -0.0067402916 0.08760021 0.1303744 -1.2449154 0.1857203 0.2488555 -0.96546763
0.052432727 0.2853162 0.12191364 0.04198698 -0.65264493 0.078401804 0.014680365 0.0012392814
0.10082671 0.012931369 -0.12014862 0.15994044 0.09393983 0.23426405 -0.011409596 0.15906188
-0.6559398 0.30300218 0.016348757 0.27488568 -0.13767412 0.103482775 0.05811569 -0.0100337975

output.bias f4 [4]
00000000: c8c3 fd3e e437 ec3e c016 2b3f a130 163f
0.49563432 0.4613639 0.6683159 0.5866795

exp_avg f4 [64, 37]
00000000: 344e 5db9 f1a4 99b7 9ee8 e8b8 6397 683a
00000010: 39a0 00b9 b4c4 43b9 8166 3b38 2860 3e3a
00000020: 8ebc 1cb8 4658 a739 06c4 283a d0ba c5b8
00000030: 22fa 45b8 1dc9 3a38 930f c0b8 c9f2 0fb9
00000040: fc0c f9b7 5fb1 383a dc55 1b37 85d3 e638
00000050: 440d 223a 4c44 50b7 6051 d337 1b69 b0b8
00000060: 85a2 24b8 f796 0f3a 4cec 1cb8 0df1 4238
00000070: 346a 27b7 f4b6 f538 9afe 1c3a b0cd 3336
00000080: 3fec 02b8 3741 c5b7 57bf 0bb8 4fe3 ba39
00000090: 6ff5 de3b 3345 bbb6 821c a8b8 86b9 a5b8
000000a0: da70 8bb7 ce51 ecb8 0771 1fb8 fb0b 5e38
000000b0: 7fdc 34b8 e4a2 20b9 01dd 1ab8 0afa f6b8
000000c0: 149b 11b9 2f0e f938 1e89 36b8 8c65 41b9
000000d0: 1b48 02b8 1cc7 48b9 74da e237 d5a8 6c37
000000e0: eb23 e5b8 9d96 8cb8 0f8c a237 320d dbb8
000000f0: 0997 f5b7 3b05 c7b8 a021 ad38 a34b e1b8
00000100: c8fa 9636 1fd6 28b9 40c4 00b9 0c97 5bb9
00000110: 2575 f538 456d f8b7 9424 79b8 714e 24b8
00000120: c22d 6539 5350 2336 860c 6bb8 6e10 5436
00000130: 1d2b a537 5add 6b35 9a8e 19b8 4aec 4c35
00000140: 9a4b ec37 a60f ac36 f730 8bb8 401b e137
00000150: 5028 8f34 1ef1 14b8 b682 4ab2 858f 4536
00000160: 38b0 bfb7 48f0 d4b7 4390 cdae 73f7 00b8
00000170: 6cd2 c737 74cb 27b8 2bf4 da35 9f79 1138
00000180: 0e84 7636 ff9f 97b8 78db ab37 69b2 abb7
00000190: 8001 5337 7461 d5b7 6162 8835 995b 1db8
000001a0: ce83 b537 a8e0 2a37 4af7 9db8 28b8 3b37
000001b0: a012 65b7 9af0 7338 ea26 0e3a f42b 5d38
000001c0: 24e1 51b8 a4a2 cbb7 6a53 d737 4e17 0fb8
000001d0: f020 3a38 8973 85b8 079d 0d38 d0ce 2eb7
000001e0: 6ce9 8c37 baf6 dcb6 bac2 cd37 4065 cab7
000001f0: 2d4d 2c37 67d5 c9b7 4e8c 3037 6fe6 5bb8
00000200: bd59 85b6 c591 5138 4d75 0ab7 938f c638
00000210: f9d7 11b9 cc91 1438 6648 5b37 7604 e6b7
00000220: 8239 8537 ee28 cdb7 3847 0437 c448 a036
00000230: f27d 4db7 4ebd fd38 4478 9cb8 6f1f 0db8
00000240: d51d 11b7 f46d b7b5 8c3c d638 ea9d e639
00000250: 7bd3 55b8 5a8b 103a 6788 6fb7 8fec 8bb7
00000260: 8dec a639 981e cb39 ba59 82b2 d928 df35
00000270: fc95 a838 14e7 2938 f21f 45b7 679c dab6
00000280: a31e 083a fb44 04b8 391e 9c38 e681 023a
00000290: 945a 8737 3bda d937 81d7 93b8 3aba 1239
000002a0: 5531 fe39 f57b 44b7 c0c5 83b6 4861 8b34
000002b0: d64f fb39 f411 f839 09e4 8336 66bd 3e34
000002c0: 7004 03b7 f75d f638 d4df 013a 0400 0000
000002d0: be7b 37b7 5f52 7cb7 f398 b538 f319 a038
000002e0: 49c3 b63b 9625 3237 cd6e 5cb9 642f 7c38
000002f0: daf8 a8b4 1b38 bdb8 7b13 6438 fda2 2738
00000300: 95c2 3d38 aa79 92b9 11ba 2538 1fa4 3bb8
00000310: 97e8 3f39 8578 86b9 b31c b5b7 be0f e3b7
00000320: 47ac 62b8 477d ad2b b65b 3038 f000 06b9
00000330: 7eb9 51b7 086a 83b9 f47d e838 c783 f09f
00000340: 3072 f698 8ecf 0cb9 9fad b1b7 f856 4b05
00000350: 5be6 18b9 e337 e437 744e 03b9 1c3e 5c34
00000360: 351a 9838 3f98 fe36 fecd 66b9 6cc8 b337
00000370: a02b 2cb8 3573 e339 b54d 4b39 4495 27b9
00000380: 4fc9 04b9 53d5 a0b7 a791 2cb8 6cb0 71b8
00000390: 56eb b937 70e8 8d38 10f1 16b9 d9a4 91b6
000003a0: 39ce 0d38 00a7 c238 5817 35b9 7fb6 89b8
000003b0: 9a2f a7b8 814a a5b8 b10b 44b8 e67b feb7
000003c0: 9030 3938 215d bcb8 ee5e 18b8 c0ce bc36
000003d0: 501c 9bb8 6283 edb6 69a0 39b9 de7d 58b8
000003e0: 28c2 4537 2e75 fcb8 9049 4b38 48a1 6cb8
000003f0: 6597 6037 57ac b2b8 4a62 58b8 029c 4337
-0.00021105335 -1.8315828e-05 -0.000111059504 0.0008872656 -0.00012266719 -0.00018669927 4.467974e-05 0.0007262253
-3.7368904e-05 0.0003191849 0.0006437901 -9.4284886e-05 -4.7201414e-05 4.4533157e-05 -9.158174e-05 -0.00013727987
-2.968916e-05 0.00070454733 9.258711e-06 0.00011006653 0.00061817863 -1.2413668e-05 2.5191053e-05 -8.4119114e-05
-3.9252005e-05 0.00054775126 -3.7413367e-05 4.64777e-05 -9.978703e-06 0.00011716588 0.00059888663 2.6792804e-06
-3.1214437e-05 -2.3514598e-05 -3.331838e-05 0.00035646043 0.0068041603 -5.58109e-06 -8.016174e-05 -7.9023695e-05
-1.6622642e-05 -0.00011268594 -3.801382e-05 5.2940082e-05 -4.3120697e-05 -0.0001531947 -3.6922287e-05 -0.000117767675
-0.00013886049 0.00011875887 -4.351988e-05 -0.00018443743 -3.106157e-05 -0.0001914766 2.7043025e-05 1.4106005e-05
-0.00010926261 -6.703774e-05 1.9377125e-05 -0.000104451916 -2.9276607e-05 -9.490034e-05 8.255546e-05 -0.000107429245
4.499543e-06 -0.00016101495 -0.0001228014 -0.00020941737 0.0001170433 -2.9614786e-05 -5.9400292e-05 -3.91737e-05
0.00021856188 2.4335648e-06 -5.604003e-05 3.1600025e-06 1.9689609e-05 8.786643e-07 -3.661085e-05 7.633977e-07
2.8168597e-05 5.127821e-06 -6.637157e-05 2.683478e-05 2.6665157e-07 -3.5510508e-05 -1.1787668e-08 2.9438827e-06
-2.2851033e-05 -2.5384259e-05 -9.347947e-11 -3.0748033e-05 2.3820634e-05 -4.0005383e-05 1.6313328e-06 3.4683962e-05
3.6733722e-06 -7.230043e-05 2.0486987e-05 -2.0467867e-05 1.2576929e-05 -2.5436959e-05 1.0161422e-06 -3.7517024e-05
2.1638258e-05 1.01850965e-05 -7.5324046e-05 1.1188946e-05 -1.36538e-05 5.8159792e-05 0.0005422669 5.273144e-05
-5.003916e-05 -2.4275221e-05 2.566884e-05 -3.411556e-05 4.437653e-05 -6.363454e-05 3.3763263e-05 -1.04193605e-05
1.6797996e-05 -6.5852337e-06 2.4528581e-05 -2.4127425e-05 1.0269968e-05 -2.406044e-05 1.0523085e-05 -5.2428277e-05
-3.974156e-06 4.996524e-05 -8.252752e-06 9.4681185e-05 -0.00013908734 3.5421734e-05 1.3070274e-05 -2.7420214e-05
1.5881615e-05 -2.4456964e-05 7.884395e-06 4.7768426e-06 -1.2248276e-05 0.00012099241 -7.461061e-05 -3.3646294e-05
-8.649619e-06 -1.3666563e-06 0.00010215593 0.00043986674 -5.0980114e-05 0.0005513929 -1.4277269e-05 -1.6680247e-05
0.0003183823 0.0003874197 -1.5174795e-08 1.6626683e-06 8.038801e-05 4.0507948e-05 -1.1749553e-05 -6.515114e-06
0.00051925535 -3.1535496e-05 7.444289e-05 0.0004978463 1.6135433e-05 2.5970037e-05 -7.049647e-05 0.0001399302
0.0004848341 -1.1711371e-05 -3.9271254e-06 2.596155e-07 0.00047933933 0.00047315622 3.930651e-06 1.7764032e-07
-7.809242e-06 0.000117476964 0.00049543125 6e-45 -1.0936461e-05 -1.5039549e-05 8.6592416e-05 7.634228e-05
0.005577479 1.0618378e-05 -0.00021022111 6.0125618e-05 -3.1473502e-07 -9.022673e-05 5.437758e-05 3.9967697e-05
4.524233e-05 -0.00027937937 3.9512353e-05 -4.4737124e-05 0.00018301826 -0.00025648266 -2.1590246e-05 -2.706784e-05
-5.4043045e-05 1.2327161e-12 4.2047082e-05 -0.00012779585 -1.2500559e-05 -0.00025065267 0.00011086083 -1.0186196e-19
-6.370481e-24 -0.0001342876 -2.1180893e-05 9.560988e-36 -0.00014581664 2.7205742e-05 -0.0001252236 2.0511692e-07
7.252806e-05 7.5875137e-06 -0.00022011247 2.1431792e-05 -4.1048625e-05 0.0004338265 0.00019388537 -0.00015981967
-0.00012663494 -1.9172823e-05 -4.1143645e-05 -5.7623183e-05 2.2163305e-05 6.766699e-05 -0.00014394918 -4.3405275e-06
3.380908e-05 9.281747e-05 -0.00017270201 -6.5666616e-05 -7.972047e-05 -7.8816905e-05 -4.674093e-05 -3.0336854e-05
4.4152664e-05 -8.981885e-05 -3.6328034e-05 5.6269055e-06 -7.3962496e-05 -7.0784454e-06 -0.00017702732 -5.1615636e-05
1.1787321e-05 -0.00012038123 4.8467482e-05 -5.641699e-05 1.338669e-05 -8.519802e-05 -5.1589952e-05 1.1659229e-05

exp_avg_sq f4 [64, 37]
00000000: e9c9 9836 5a33 a935 7ab3 e034 90fd 1035
00000010: 207a 0936 fb20 3235 913f 4235 b544 b036
00000020: d829 6634 140a 0c36 2aa0 0e35 4fb4 af36
00000030: ff5e ec34 62cc 1735 746e 4535 616b 5935
00000040: 1ed4 2c35 034b 8b35 0919 9136 f656 d234
00000050: f61f 1435 677a b436 cf1d e934 a106 ff34
00000060: feb2 a735 564c 0836 0ccb d334 2486 8736
00000070: 7000 c934 9da8 8c35 4e1c 1e35 54cb 9735
00000080: 2fff 9936 d3f0 0735 230f 1636 840a 2e36
00000090: 39c6 ea38 180a 9335 93cc 8635 fe47 9734
000000a0: 527e 1334 093f be34 47fa 9835 a36c 1835
000000b0: eaee 4d35 72ae 8f33 4ffe 0435 8296 3c35
000000c0: 2697 8635 7543 ce34 4365 f234 7c02 1135
000000d0: 4463 8f35 6797 8735 4887 f733 0898 c434
000000e0: eb3f ba34 9ed7 3835 ce9d 5135 b175 4d35
000000f0: 3122 9534 cbe7 0135 3fdf 5835 1892 4335
00000100: 3d72 5635 3953 2c34 0bac f634 4627 bc35
00000110: fe85 df34 5e4f 2635 4b53 0234 d0dd e634
00000120: cfe8 7136 5e42 1739 93f1 4934 ad83 6330
00000130: 9e10 4a34 e0b4 3933 75dc 9533 d346 3c31
00000140: 0e38 e233 8f5d 7232 b166 9f34 71d5 2933
00000150: 0ffd ad32 139c ce34 c3a4 ea31 f1a8 df31
00000160: b0b5 5d33 7130 6733 706f bb30 8f07 c633
00000170: 415d 9234 2b2a 3633 b48a 5533 0420 b734
00000180: 21ae 5d32 ca70 9432 2ce3 cf33 63a1 d833
00000190: 8048 7332 7e27 8a34 184a 4633 f1e1 1134
000001a0: b5fc 1f33 6654 f933 0ed4 3832 1ac8 8934
000001b0: cafb b032 a55a 0f35 50c2 b037 48bc 8633
000001c0: 032a 8534 5012 bd34 a4c9 9934 00b5 bf33
000001d0: 3869 be34 2dd1 8734 ec0c 7534 d805 de33
000001e0: 3784 4d34 624c f533 bdb7 ca34 4ddc a834
000001f0: 501f 2134 3e74 5234 f4ea 2734 315d 7134
00000200: d2ba e834 7ba6 0e34 86ad 5c34 f77a 7c34
00000210: 9834 a934 51b6 7f34 ee6b 1e34 17c5 2234
00000220: 3b6a c434 cf8b 5734 c004 5534 b7f9 5034
00000230: 21c6 1a34 b8aa 9934 5ecc de34 787c 1e34
00000240: 6070 c233 28e8 5434 e9a5 d635 0d3b 2538
00000250: 1fd7 6934 be32 1f34 d0cd 0034 ad8e c132
00000260: ce0b 1234 7172 d934 e0a5 3230 cc71 1131
00000270: ba84 dc33 8698 8c32 149a 4434 2bed 0b32
00000280: 3fc7 9834 f4ff 3733 63de 9133 2ed5 8434
00000290: 967f 8f32 24c4 0d34 6888 fb33 41ea 4a33
000002a0: 68ff cb34 d79f 6931 c62e 0e34 70ee 9230
000002b0: e682 4d34 6125 dd34 a34b 3531 8f73 b430
000002c0: f7dd dc33 cc29 0833 a547 e934 8ca5 682f
000002d0: 5a7b 9933 37b1 7432 68fd 2933 fc81 ab34
000002e0: 4494 3538 a7fb 9934 d3d5 ce34 24cc 1036
000002f0: 9869 b330 2083 4535 50a4 3e35 3c72 8232
00000300: 5a1f 5a34 e0c9 0036 ded5 3133 ab63 a133
00000310: 0a24 b135 81bd 5e35 b48c 2635 9342 6534
00000320: d933 6235 f747 c432 e2e7 1e35 f573 b535
00000330: 12fd b034 1c86 b635 d9ed c135 0ac2 8730
00000340: 8834 c231 bc1e 6235 7938 e234 d651 4a30
00000350: 2ace c935 86af 7935 6589 f634 c143 ae33
00000360: de9d 0c35 f8b0 c234 a711 fc35 bf29 5134
00000370: a0ab cc34 c262 2b39 6803 a535 0528 ee35
00000380: 94ab 8635 41fd 1b35 5380 3d35 3c41 6935
00000390: 925b e535 7d6b 8a35 99d0 7f35 f776 8a35
000003a0: bef2 1435 cc88 2336 fa0b b535 aee3 6e34
000003b0: 7c79 a235 89dc fa35 b9c2 8335 5554 5135
000003c0: c2c2 7d35 33d8 2d35 9b95 9934 e4e9 0e36
000003d0: 2b1b e435 a467 1135 3e4b 8335 b517 0536
000003e0: 72ad 2e35 3b34 9935 8c86 4f35 5c2e 3435
000003f0: bf18 4f35 bb4e f735 13eb 9135 86c8 6635
4.5534584e-06 1.2606426e-06 4.1853838e-07 5.401316e-07 2.0485677e-06 6.635816e-07 7.2363133e-07 5.2532073e-06
2.1435642e-07 2.0867492e-06 5.313219e-07 5.236397e-06 4.4027544e-07 5.65493e-07 7.354895e-07 8.0995056e-07
6.4383664e-07 1.0378138e-06 4.324251e-06 3.917882e-07 5.5180806e-07 5.3786675e-06 4.342132e-07 4.7502274e-07
1.2494563e-06 2.0310013e-06 3.944955e-07 4.0389295e-06 3.7439486e-07 1.0479886e-06 5.8900775e-07 1.1309553e-06
4.5894626e-06 5.0641864e-07 2.2360553e-06 2.5934141e-06 0.00011194911 1.0955291e-06 1.0043317e-06 2.8178323e-07
1.3736397e-07 3.5436122e-07 1.1397723e-06 5.67825e-07 7.6716117e-07 6.690688e-08 4.95439e-07 7.0254475e-07
1.0027768e-06 3.8419572e-07 4.514969e-07 5.4020325e-07 1.068322e-06 1.0102348e-06 1.1526441e-07 3.6618462e-07
3.4691706e-07 6.8859106e-07 7.8088203e-07 7.6539715e-07 2.777829e-07 4.839355e-07 8.0791136e-07 7.2855755e-07
7.988745e-07 1.6049025e-07 4.5946248e-07 1.4018522e-06 4.163448e-07 6.1955313e-07 1.2137495e-07 4.3002228e-07
3.604731e-06 0.00014425206 1.8807468e-07 8.276924e-10 1.8818761e-07 4.3238174e-08 6.978454e-08 2.739786e-09
1.05341414e-07 1.4107527e-08 2.9690776e-07 3.9542503e-08 2.0254928e-08 3.848405e-07 6.8290276e-09 6.5093606e-09
5.1620816e-08 5.3827936e-08 1.3637713e-09 9.2214684e-08 2.726247e-07 4.241353e-08 4.9719077e-08 3.41097e-07
1.2903485e-08 1.7280758e-08 9.680511e-08 1.008764e-07 1.4160946e-08 2.5733237e-07 4.6167855e-08 1.3586374e-07
3.7249908e-08 1.1610318e-07 1.0758425e-08 2.5663832e-07 2.0603597e-08 5.3403556e-07 2.1071319e-05 6.2741094e-08
2.4803748e-07 3.5217317e-07 2.8645184e-07 8.927054e-08 3.5466815e-07 2.5297905e-07 2.2822104e-07 1.03387436e-07
1.9140212e-07 1.14225955e-07 3.775912e-07 3.1452728e-07 1.5005685e-07 1.9600063e-07 1.5638562e-07 2.2478777e-07
4.3349297e-07 1.3285346e-07 2.0552224e-07 2.3514063e-07 3.151697e-07 2.3815052e-07 1.4754161e-07 1.5159127e-07
3.6585138e-07 2.0074297e-07 1.9838899e-07 1.9462355e-07 1.4414447e-07 2.8622685e-07 4.149942e-07 1.4760178e-07
9.05427e-08 1.9828497e-07 1.5992529e-06 3.939406e-05 2.1778077e-07 1.4826489e-07 1.1995803e-07 2.2533039e-08
1.3601604e-07 4.0502667e-07 6.4991745e-10 2.1164963e-09 1.0268691e-07 1.6367505e-08 1.8309976e-07 8.144791e-09
2.8457177e-07 4.2840796e-08 6.7925406e-08 2.4742025e-07 1.670541e-08 1.3203004e-07 1.17129105e-07 4.7244843e-08
3.799753e-07 3.399682e-09 1.3241797e-07 1.0690666e-09 1.9139733e-07 4.1191655e-07 2.638196e-09 1.3129567e-09
1.02849235e-07 3.170298e-08 4.345176e-07 2.1159091e-10 7.147055e-08 1.4242963e-08 3.957885e-08 3.1945808e-07
4.3291846e-05 2.8681572e-07 3.8526068e-07 2.1576498e-06 1.3053976e-09 7.357903e-07 7.101962e-07 1.518594e-08
2.0314238e-07 1.9190993e-06 4.1405535e-08 7.515276e-08 1.3198016e-06 8.297721e-07 6.204457e-07 2.1351507e-07
8.426701e-07 2.2850129e-08 5.919702e-07 1.3519299e-06 3.2966688e-07 1.3599088e-06 1.4448843e-06 9.877692e-10
5.652115e-09 8.4236285e-07 4.213687e-07 7.360347e-10 1.5035669e-06 9.301515e-07 4.5921038e-07 8.114831e-08
5.238379e-07 3.6264078e-07 1.8780601e-06 1.9479829e-07 3.8122835e-07 0.00016344621 1.2294449e-06 1.7744029e-06
1.0033714e-06 5.811053e-07 7.0594723e-07 8.689419e-07 1.708848e-06 1.0313084e-06 9.529845e-07 1.0316425e-06
5.548753e-07 2.436852e-06 1.3489037e-06 2.2248307e-07 1.2105297e-06 1.8690636e-06 9.816932e-07 7.7981286e-07
9.4533254e-07 6.4762133e-07 2.8607323e-07 2.1295791e-06 1.6995231e-06 5.4167526e-07 9.782159e-07 1.9832344e-06
6.507245e-07 1.1414589e-06 7.73093e-07 6.7122687e-07 7.714952e-07 1.8425848e-06 1.0871757e-06 8.5973477e-07

exp_avg f4 [64]
00000000: 9859 0f3a 4a33 3eb9 7d86 07b8 6419 8936
00000010: 3821 f639 1795 12b9 1357 eab8 3db8 4eb9
00000020: 06a0 71b9 1955 c1ba 9942 04b9 2b1c c8bb
00000030: 1b4a 9fb8 90aa 76ba 33f1 a73b 9985 1438
00000040: 816b 06ba 53aa 813b 5dad 9cb9 4179 c3b9
00000050: 6977 0138 7cbd b0ba c17f 00ba 0258 1a32
00000060: c792 013b f40e 203b 9228 c0b8 e913 933b
00000070: 05de 5c3a c45f c938 d39c a138 0ada 84b4
00000080: 900d a3ba a786 e839 7d1a 9938 c1e3 9038
00000090: 8ecd 0fb9 dddd fd38 d58a 063b 86d5 d2b9
000000a0: 782b d835 cced 6db3 df24 1d2c c661 beba
000000b0: f97c 0137 966f f538 9f81 b437 715f 7b39
000000c0: e0cd 343a 1839 81ba e6a4 4d3b 584e c638
000000d0: e1f1 9c39 aeb3 e439 0e24 e039 12d5 aa3a
000000e0: 7186 ad39 1796 b3b9 c739 fbb7 7988 0a3b
000000f0: 7b90 f439 bdc4 4eb8 34bc 2a39 2130 37ba
0.00054683676 -0.00018138919 -3.231176e-05 4.085874e-06 0.00046945526 -0.00013979185 -0.00011174208 -0.00019714325
-0.00023043164 -0.0014750093 -0.0001261331 -0.0061068735 -7.595514e-05 -0.0009409571 0.0051251887 3.5410372e-05
-0.00051277137 0.003957072 -0.00029883804 -0.0003728364 3.0867206e-05 -0.0013484205 -0.00049018493 8.98399e-09
0.0019771324 0.0024422975 -9.16283e-05 0.0044884575 0.00084254175 9.6022646e-05 7.706289e-05 -2.474556e-07
-0.0012439955 0.00044350812 7.300542e-05 6.9088775e-05 -0.00013714118 0.00012105305 0.0020529528 -0.0004021341
1.6105905e-06 -5.5397138e-08 2.233151e-12 -0.0014524988 7.718097e-06 0.00011703295 2.1518032e-05 0.0002397278
0.0006897133 -0.0009858934 0.0031378805 9.4559684e-05 0.00029934853 0.0004362142 0.00042751472 0.0013033471
0.00033097298 -0.00034253366 -2.9948436e-05 0.0021138473 0.00046646953 -4.9297454e-05 0.00016282575 -0.0006988068

exp_avg_sq f4 [64]
00000000: 7c98 f036 5221 2e36 0859 e134 957f 8235
00000010: a1b7 0e35 591f 3e36 382a ab36 d27d 7e36
00000020: 79e0 3c36 901d ce38 a978 2536 0582 3d3a
00000030: 815e bc35 cd1c ae3a 9f8e 9238 1d70 5734
00000040: 5877 5c36 6669 a738 820c 0637 6447 5f37
00000050: afb8 5636 b8a0 af38 b752 143a 326b f134
00000060: 85e9 1b37 6fdb 8c37 f399 9b38 4105 ff38
00000070: 2674 c537 a650 6737 247c d135 35bf 9234
00000080: d5fb 9736 9663 9c36 b785 d736 01c4 8635
00000090: 6fa9 1037 cd61 bb36 3b52 8436 a655 b336
000000a0: 9b5b 8535 08e3 2b34 18f6 fe32 4e23 803a
000000b0: b48c 2f33 0451 ad36 1700 c235 84c6 f835
000000c0: 7f3e f336 e7d6 ba39 8994 8038 b1e4 b336
000000d0: 686a 8a35 0a34 cd39 89de 7636 8e47 8536
000000e0: 1d77 8c35 e1e7 0a37 cf6f 1136 7fef c336
000000f0: b582 3937 6c20 a235 9f7d 5736 a0b2 653a
7.170309e-06 2.5947415e-06 4.1974295e-07 9.722886e-07 5.316634e-07 2.8330453e-06 5.101112e-06 3.7922186e-06
2.8144843e-06 9.828352e-05 2.465715e-06 0.0007229152 1.4034596e-06 0.001328373 6.988388e-05 2.0064222e-07
3.2852022e-06 7.9828125e-05 7.989935e-06 1.3308458e-05 3.1995985e-06 8.3745865e-05 0.00056580774 4.4967743e-07
9.29309e-06 1.6791482e-05 7.419651e-05 0.00012160326 2.3538316e-05 1.378745e-05 1.5607843e-06 2.733374e-07
4.529468e-06 4.6607556e-06 6.4230658e-06 1.0040823e-06 8.622518e-06 5.58442e-06 3.9434794e-06 5.3445865e-06
9.935933e-07 1.600821e-07 2.9681402e-08 0.0009776147 4.087333e-08 5.1652332e-06 1.4454153e-06 1.8535216e-06
7.24924e-06 0.000356368 6.1311825e-05 5.361239e-06 1.031277e-06 0.0003913942 3.678639e-06 3.972039e-06
1.0465479e-06 8.2794295e-06 2.1671765e-06 5.839334e-06 1.1057292e-05 1.2079377e-06 3.2110618e-06 0.0008762274

exp_avg f4 [64, 64]
00000000: 0400 0080 0400 0080 0400 0000 0400 0000
00000010: 0400 0080 0400 0000 0400 0000 0400 0000
00000020: 0400 0000 0400 0000 0400 0000 0400 0000
00000030: 0400 0000 0400 0000 0400 0080 0400 0000
00000040: 0400 0000 0400 0000 0400 0000 0400 0000
00000050: 0400 0000 0400 0000 0400 0000 0400 0000
00000060: 0400 0000 0400 0080 0400 0000 0400 0080
00000070: 0400 0000 0400 0000 0400 0000 0400 0000
00000080: 0400 0080 0400 0000 0400 0000 0400 0000
00000090: 0400 0080 0400 0000 0400 0000 0400 0000
000000a0: 0400 0000 0400 0000 0400 0000 0400 0000
000000b0: 0400 0000 0400 0000 0400 0080 0400 0080
000000c0: 0400 0000 0400 0000 0400 0000 0400 0080
000000d0: 0400 0000 0400 0000 0400 0080 0400 0080
000000e0: 0400 0000 0400 0000 0400 0000 0400 0080
000000f0: 0400 0000 0400 0000 0400 0080 0400 0000
00000100: 0400 0000 0400 0000 0400 0080 0400 0000
00000110: 0400 0000 0400 0000 0400 0000 0400 0000
00000120: 0400 0000 0400 0000 0400 0000 0400 0000
00000130: 0400 0000 0400 0000 0400 0000 0400 0000
00000140: 0400 0000 0400 0000 0400 0080 0400 0000
00000150: 0400 0000 0400 0000 0400 0000 0400 0000
00000160: 0400 0000 0400 0000 0400 0000 0400 0000
00000170: 0400 0000 0400 0000 0400 0000 0400 0080
00000180: 0400 0000 0400 0000 0400 0000 0400 0000
00000190: 0400 0000 0400 0000 0400 0000 0400 0000
000001a0: 0400 0000 0400 0000 0400 0000 0400 0000
000001b0: 0400 0080 0400 0000 0400 0000 0400 0000
000001c0: 0400 0000 0400 0000 0400 0000 0400 0000
000001d0: 0400 0000 0400 0000 0400 0000 0400 0000
000001e0: 0400 0000 0400 0000 0400 0000 0400 0000
000001f0: 0400 0000 0400 0080 0400 0000 0400 0000
00000200: 0400 0000 0400 0000 0400 0000 0400 0000
00000210: 0400 0080 0400 0000 0400 0000 0400 0000
00000220: 0400 0000 0400 0000 0400 0080 0400 0000
00000230: 0400 0000 0400 0000 0400 0000 0400 0000
00000240: 0400 0000 0400 0000 0400 0000 0400 0000
00000250: 0400 0000 0400 0000 0400 0000 0400 0000
00000260: 0400 0000 0400 0000 0400 0000 0400 0000
00000270: 0400 0000 0400 0000 0400 0000 0400 0000
00000280: 0400 0000 0400 0000 0400 0000 0400 0000
00000290: 0400 0000 0400 0000 0400 0000 0400 0080
000002a0: 0400 0000 0400 0080 0400 0000 0400 0000
000002b0: 0400 0000 0400 0000 0400 0000 0400 0000
000002c0: 0400 0000 0400 0000 0400 0000 0400 0000
000002d0: 0400 0000 0400 0080 0400 0080 0400 0000
000002e0: 0400 0000 0400 0000 0400 0000 0400 0000
000002f0: 0400 0000 0400 0000 0400 0000 0400 0000
00000300: c629 223a b733 89ba 620d ca38 0400 5bb7
00000310: b10c a039 cac5 57b7 80ed 20b9 c719 8438
00000320: 681e 3939 faed d4b9 7675 953a ed53 50ba
00000330: cde2 a7b7 cc92 6aba db6a b6b8 7a93 1132
00000340: 69ba 3bb9 8c6b 20ba ad7f 4b34 69ed 32b7
00000350: ebb7 1c3a d586 c238 10ab b2ba 0400 0000
00000360: 2d2c f13a 4711 4cba c198 32ba 8a1d 5ab8
00000370: 6a1e d1b8 73a0 ee39 e103 b439 0400 0000
00000380: 0803 11b8 436a 0fba c78e a2b9 4084 6e39
00000390: 6050 5b3a 2170 a4b9 a62f c1b6 912c 40b8
000003a0: dfc0 16b9 0400 0000 0400 0000 d15a dfba
000003b0: 566c 2734 f71d d838 91ac d3b8 0387 f239
000003c0: a2be 10ba 3ce5 04bb e569 abb9 75d8 e2ba
000003d0: 1ccd dab9 dc39 613a c4f8 4db9 4f1d 4fb9
000003e0: 1de6 86b7 93ba 42ba fdb2 2b38 badb 99b9
000003f0: df02 ee39 3ec7 1b2f 600d c9b6 13b9 dc39
-6e-45 -6e-45 6e-45 6e-45 -6e-45 6e-45 6e-45 6e-45
6e-45 6e-45 6e-45 6e-45 6e-45 6e-45 -6e-45 6e-45
6e-45 6e-45 6e-45 6e-45 6e-45 6e-45 6e-45 6e-45
6e-45 -6e-45 6e-45 -6e-45 6e-45 6e-45 6e-45 6e-45
-6e-45 6e-45 6e-45 6e-45 -6e-45 6e-45 6e-45 6e-45
6e-45 6e-45 6e-45 6e-45 6e-45 6e-45 -6e-45 -6e-45
6e-45 6e-45 6e-45 -6e-45 6e-45 6e-45 -6e-45 -6e-45
6e-45 6e-45 6e-45 -6e-45 6e-45 6e-45 -6e-45 6e-45
6e-45 6e-45 -6e-45 6e-45 6e-45 6e-45 6e-45 6e-45
6e-45 6e-45 6e-45 6e-45 6e-45 6e-45 6e-45 6e-45
6e-45 6e-45 -6e-45 6e-45 6e-45 6e-45 6e-45 6e-45
6e-45 6e-45 6e-45 6e-45 6e-45 6e-45 6e-45 -6e-45
6e-45 6e-45 6e-45 6e-45 6e-45 6e-45 6e-45 6e-45
6e-45 6e-45 6e-45 6e-45 -6e-45 6e-45 6e-45 6e-45
6e-45 6e-45 6e-45 6e-45 6e-45 6e-45 6e-45 6e-45
6e-45 6e-45 6e-45 6e-45 6e-45 -6e-45 6e-45 6e-45
6e-45 6e-45 6e-45 6e-45 -6e-45 6e-45 6e-45 6e-45
6e-45 6e-45 -6e-45 6e-45 6e-45 6e-45 6e-45 6e-45
6e-45 6e-45 6e-45 6e-45 6e-45 6e-45 6e-45 6e-45
6e-45 6e-45 6e-45 6e-45 6e-45 6e-45 6e-45 6e-45
6e-45 6e-45 6e-45 6e-45 6e-45 6e-45 6e-45 -6e-45
6e-45 -6e-45 6e-45 6e-45 6e-45 6e-45 6e-45 6e-45
6e-45 6e-45 6e-45 6e-45 6e-45 -6e-45 -6e-45 6e-45
6e-45 6e-45 6e-45 6e-45 6e-45 6e-45 6e-45 6e-45
0.00061860343 -0.0010467683 9.634603e-05 -1.3053421e-05 0.00030527034 -1.286105e-05 -0.00015347265 6.299052e-05
0.00017654302 -0.00040613097 0.0011402804 -0.0007947076 -2.0013564e-05 -0.0008948266 -8.69834e-05 8.473643e-09
-0.00017903153 -0.00061195414 1.8952296e-07 -1.0664903e-05 0.00059783336 9.275755e-05 -0.0013631303 6e-45
0.0018400006 -0.0007784557 -0.0006812923 -5.200276e-05 -9.971562e-05 0.0004551444 0.00034335165 6e-45
-3.4573517e-05 -0.00054708513 -0.00031005425 0.00022746716 0.0008366164 -0.0003136406 -5.7573952e-06 -4.5817873e-05
-0.00014376965 6e-45 6e-45 -0.0017040615 1.55925e-07 0.00010305264 -0.00010093407 0.00046258428
-0.00055215706 -0.0020278236 -0.0003269456 -0.0017306941 -0.0004173302 0.00085916906 -0.00019642996 -0.00019751977
-1.60812e-05 -0.00074283144 4.0936273e-05 -0.00029346143 0.00045397037 1.4167953e-10 -5.991824e-06 0.0004209956
