p1_navigation/DQN_20190201_v23_500eps_2.09score.pth (torch_old, 89653 bytes, 18 tensors)

hidden_layers.0.weight f4 [64, 37]
000000 dd ea 6f bd 4c c0 a9 bc d7 2b a8 3b d1 c5 4e 3e
       -0.058573592 -0.020721577 0.0051321792 0.20192648
000010 17 b8 ec be 23 03 f9 bd 8c b3 62 3d 86 90 6e 3e
       -0.462342 -0.121588014 0.05534701 0.23297319
000020 a4 e8 14 3e d5 4d be 3d e7 69 1c 3d bd 97 6b be
       0.1454187 0.09292189 0.038186934 -0.23007102
000030 64 b3 5d 3e b3 ae d9 bd b6 fa 55 3d 90 4b 99 3e
       0.21650463 -0.10629024 0.05224105 0.29940462
000040 55 54 40 be f5 9e 60 be 13 fc 30 3e 9e fc 2e bf
       -0.1878217 -0.21935637 0.17283659 -0.68354213
000050 d9 51 ee bd b7 7d 3b 3e f8 90 1a bc 64 9a eb 3e
       -0.11636705 0.18309675 -0.009433977 0.46016228
000060 53 6e 08 3e a5 e4 8d 3e 5c f3 64 3e 60 87 ca bd
       0.13323335 0.27713504 0.22358459 -0.09889102
000070 f5 91 bb be 9c 79 20 be e1 c8 72 3d 67 6c 17 3e
       -0.36634794 -0.1567139 0.059273604 0.14787446
000080 3d db 22 bd d7 22 ea be ac 2d 1a be bf 99 bd 3a
       -0.039759863 -0.45729706 -0.15056485 0.0014465376
000090 88 2b 27 3b 46 fb 64 3e 26 4a 90 be 7b 4d 89 3e
       0.0025508124 0.22361478 -0.2818157 0.26816925
0000a0 cd 56 81 3e 44 5b c7 3c 27 d5 19 bd 58 d9 a6 3c
       0.25261536 0.024335511 -0.037556794 0.02036731
0000b0 47 85 bb bd da ad e7 be 27 33 a7 3f 3b 1d 5f 3e
       -0.0915628 -0.45249826 1.3062485 0.21788494
0000c0 8e 26 50 be 22 55 93 bd 15 8a 34 3e 63 c1 ef bd
       -0.20327207 -0.07193972 0.17630799 -0.117068075
0000d0 ad 37 4e 3e 6c 70 aa 3e 5e 3a 5e be 11 77 4d be
       0.20138426 0.33288896 -0.21701953 -0.20064951
0000e0 f7 ef 4b 3e c1 9b 67 be 67 b8 9f be 35 1d 07 3e
       0.19915758 -0.22618009 -0.31195375 0.13194735
0000f0 f6 c4 a4 3e 86 f8 41 3e fe 87 d5 ba a4 b9 a6 3d
       0.3218152 0.1894246 -0.0016291139 0.08140877
000100 2e e6 ca bd 95 9d f6 bd c5 f4 10 3e 2d 10 c0 3e
       -0.099071845 -0.12041775 0.14155872 0.3751234
000110 f8 1c 95 be bd f3 97 3e 05 b2 5e be d6 76 f5 3e
       -0.29123664 0.29678145 -0.21747597 0.47942227
000120 56 9c f2 bd fb ce 09 3e 3f 47 a6 3e 96 22 90 3e
       -0.11846225 0.13457863 0.3247623 0.28151387
000130 9a 75 e3 be 9c 1d 98 bd 8f f7 3a be 5b ed b9 3d
       -0.4442566 -0.074275225 -0.18258499 0.09078475
000140 6c c8 35 bf db dc bb 3e dc 97 f2 3e 60 5c 05 bf
       -0.71008945 0.36691937 0.47381485 -0.5209408
000150 96 5a d0 be 2e ee d2 3e a7 8e ba 3d f0 38 76 3d
       -0.40694112 0.41197342 0.0910924 0.060112894
000160 d8 05 b5 bd eb 3d ef bc 1e 5f a4 3d b3 b9 47 3d
       -0.08839005 -0.02920433 0.08025955 0.04876108
000170 4e e0 ae 3e 8e 4c 2b 3e da 1b dc be 5d f4 85 be
       0.34155506 0.16728422 -0.4299 -0.26162997
000180 0f da 17 3f 27 67 32 bd b0 08 90 be 8f ab 9a 3c
       0.59317106 -0.043555405 -0.28131628 0.018880634
000190 8c f8 9f 3e 3d 81 cc 3e c2 67 c4 be 2e 24 16 bd
       0.31244314 0.3994235 -0.3836041 -0.036655597
0001a0 c0 0f 13 bf 09 5a 53 3e 2e f6 ea 3e 13 02 02 be
       -0.5744591 0.20639814 0.45890945 -0.12696104
0001b0 90 22 ea 3d 5c 52 06 3d 41 ad 58 bc f5 42 9c 3e
       0.114323735 0.032793388 -0.013224901 0.30519834
0001c0 9a 70 a5 be 19 07 0f 3a a3 a3 24 3f 67 5b 75 bf
       -0.3231247 0.0005456075 0.6431219 -0.95842594
0001d0 b9 eb 79 3d ae a1 e1 3c 72 f0 e8 3c 5e c8 91 3e
       0.06101582 0.027542915 0.028434966 0.2847318
0001e0 0b 77 9b be d1 de 9d bb 91 73 e5 3d 3e 99 96 3e
       -0.3036426 -0.0048178216 0.11203683 0.2941379
0001f0 94 44 1c bd 70 15 8f 3e c6 2c 89 bc d6 f7 53 3e
       -0.03815134 0.27946043 -0.016744982 0.2070001
000200 c1 4b 81 be ba 16 56 3e d1 fe 51 be 23 a5 b9 3e
       -0.25253108 0.20907107 -0.20507361 0.36258802
000210 f1 9f 71 be 84 c9 36 3d 64 97 63 3e b8 63 71 be
       -0.23596169 0.044625774 0.2222572 -0.23573196
000220 80 e6 e8 bd 6b 90 28 3e 14 39 3a 3e dd 0b a5 3e
       -0.113720894 0.16461341 0.18185836 0.32235613
000230 68 d6 57 3c 9a 24 69 3c 7c 9b ec 3e 99 c1 a0 3c
       0.013173677 0.014229918 0.46212375 0.019623565
000240 33 45 82 be e5 ab f7 be 2f ba 34 3d 2f bd ff bb
       -0.2544342 -0.48373333 0.04412287 -0.007804535
000250 e5 5a af bc 1f 09 1e bd fa 57 ce 3d eb 63 8e be
       -0.021405647 -0.038582917 0.10075374 -0.27810606
000260 d6 f5 4c be 2d 80 fb bd 78 65 90 3e 53 36 c8 bd
       -0.20015654 -0.12280307 0.28202415 -0.097759865
000270 63 01 7f 3e d7 96 94 be 24 91 27 bb fc d5 13 3e
       0.24902873 -0.29021332 -0.0025568688 0.14437097
000280 3b 3c 79 3d c4 2d fb 3c 54 4f 43 be 71 b7 0f bf
       0.060848456 0.030661471 -0.1907323 -0.56139284
000290 39 3b 5a 3e 54 ec ae bd a6 79 c4 3e 61 49 ef 3e
       0.21311654 -0.0854117 0.3837406 0.4673567
0002a0 72 94 9a 3d d0 95 4c be 9a 46 51 3e 9d 5d a0 bc
       0.07547845 -0.19979024 0.20437089 -0.019575888
0002b0 b2 77 b4 3e f9 89 22 3f 5d 3a 23 bf 63 c9 ac 3e
       0.3524757 0.6349178 -0.6376093 0.33747396
0002c0 1b 4b a1 be d6 de 2d bf aa 1d a5 be 51 ed 72 3e
       -0.31502613 -0.67918146 -0.32249194 0.23723342
0002d0 95 71 9a 3d 43 e9 dd 3e 7e 87 ab 3e 0d aa c4 3d
       0.07541195 0.43342027 0.3350181 0.09602747
0002e0 b2 95 40 bc fd c8 e7 bd c9 18 c2 be c1 77 c0 3d
       -0.01175444 -0.11317632 -0.37909535 0.09397841
0002f0 26 93 e7 bd 1a 57 30 be 48 3b 12 3e d5 2d 57 be
       -0.11307363 -0.17220727 0.14280427 -0.21013577
000300 96 9b ab be df 01 63 3e 2c 72 d2 be 55 c7 28 3d
       -0.3351714 0.22168683 -0.4110273 0.041205723
000310 e3 85 cd be a4 a8 33 3e 0f 04 05 bf 06 01 9d 3d
       -0.4014121 0.175448 -0.5195932 0.07666211
000320 d0 f5 c0 be 34 cb 06 3e c7 12 83 bc b3 4d 4b be
       -0.3768754 0.13163453 -0.016000165 -0.19853859
000330 67 ee fd 3c c3 0a d8 3e 69 4c 02 bf 32 96 49 3d
       0.030997468 0.4219571 -0.5089784 0.049215503
000340 6e dc a9 be a2 1d 63 bd 96 3c be be 99 7e a7 bd
       -0.33175987 -0.055448182 -0.37155598 -0.081784435
000350 e6 e3 db bd 40 0f b7 bd 72 9e eb 3d 85 9e cd be
       -0.107368276 -0.089384556 0.115048304 -0.40160003
000360 73 c8 d2 3e 4f 10 fd be ed 6f 76 be 9c 35 31 bd
       0.41168556 -0.49426505 -0.24066134 -0.043264017
000370 50 a1 d3 3e ca 69 32 3e 6a ed 1b be fe 0c 70 3e
       0.4133401 0.17423168 -0.15227285 0.23442456
000380 33 20 12 3d 51 b8 37 3e 04 c9 31 3e 15 63 3b be
       0.03567524 0.17941405 0.17361838 -0.18299516
000390 c9 ca 91 bd ec ff 6e 3d bb 75 b3 3e 02 0e b9 3d
       -0.07118756 0.058349535 0.3505076 0.09035875
0003a0 b9 2d cc 3c f2 e6 14 3e 86 b2 78 3d ff 82 16 3e
       0.024924146 0.14541224 0.06071713 0.14698409
0003b0 34 f6 01 be 2a 82 e0 3d 8d cf 9e be aa 24 a9 3d
       -0.12691575 0.10962327 -0.31017724 0.08258946
0003c0 68 03 5f 3e 7b 90 67 3e 72 25 da be e3 bc 74 3e
       0.21778643 0.22613709 -0.42606694 0.2390018
0003d0 16 2f c9 3e 90 16 12 bd 07 99 c7 3e 02 51 5a 3c
       0.39293736 -0.03566605 0.38983938 0.013324978
0003e0 51 6a 57 3d ff ed 18 3d 86 43 d6 bd 27 ea ac 3c
       0.052591626 0.037336346 -0.10462098 0.021107746
0003f0 94 a3 39 3f a4 61 cb be 51 eb a6 be d4 3d 1c bd
       0.72515225 -0.3972293 -0.32601407 -0.0381449

hidden_layers.0.bias f4 [64]
000000 ee cd ea 3d 07 cc 5a be 3c cc be be 56 7b 61 bd
       0.11465059 -0.21366893 -0.37265193 -0.055049263
000010 65 ef 63 3c 04 0f 5f be bd 9f 02 be e3 8e 30 bd
       0.013912057 -0.21783072 -0.12756248 -0.043105017
000020 37 c6 a4 3d 9a 86 a9 be 10 93 9d 3d 1c 05 ea 3c
       0.08045619 -0.33110505 0.076940656 0.02856689
000030 41 40 c4 3d a2 cf b4 3e c6 45 21 be b9 3a 68 be
       0.09582568 0.3531466 -0.15749273 -0.22678651
000040 f1 ec 85 3e ba c9 39 be 31 87 a3 bd e4 a6 5d be
       0.26157334 -0.18143359 -0.0798477 -0.21645695
000050 bc 1f e0 bd da 78 85 bb b5 e1 bd 3e 8c 1b 69 be
       -0.10943553 -0.0040732445 0.37086263 -0.22764415
000060 bc 8c 35 be ee e3 16 3e a9 bd 13 bd 16 20 84 be
       -0.17729467 0.14735386 -0.036069546 -0.2580573
000070 d9 34 c6 3e 5c a6 89 be d0 f1 ad be d7 d7 28 bf
       0.38712195 -0.26884735 -0.3397355 -0.65954345
000080 ee 40 0d 3e 8d 4f c6 bd bd d9 24 be 2d 8a 8f 3a
       0.137943 -0.09683142 -0.16098686 0.0010951214
000090 6c b6 c2 bd a1 35 87 3d ca 72 7d be 3c ca 72 be
       -0.095074505 0.06602026 -0.2475082 -0.23709959
0000a0 bd aa 83 be 51 da 4a bd 36 0e 4d bd f2 d3 0e 3f
       -0.257162 -0.04952461 -0.05006238 0.5579215
0000b0 fc 63 5b be d4 9f ac be 86 39 b1 bd e3 2d 08 bf
       -0.2142486 -0.3371569 -0.0865355 -0.5319502
0000c0 be 67 7f be 06 bd 55 3e 95 d2 f6 bd a9 0e 39 3d
       -0.24941918 0.20872888 -0.12051884 0.045179997
0000d0 09 65 cc bd 58 83 27 be 5a 9e b3 be cb 97 4a 3d
       -0.099802084 -0.16358697 -0.3508175 0.049461167
0000e0 21 6c 93 3c c8 eb 29 be e3 7e 65 be 5d ff 2e be
       0.017995896 -0.1659385 -0.22411685 -0.17089601
0000f0 83 db c5 bd 2a 2d 83 be c6 a3 9e 3e c6 77 c3 3e
       -0.09661009 -0.25620395 0.30984324 0.38177317

hidden_layers.1.weight f4 [64, 64]
000000 e1 54 16 be 62 02 9a 3c 11 cb 72 3d ad 95 43 bc
       -0.14680816 0.018799964 0.05927569 -0.011937541
000010 8a a4 cc 3c 7b 4a a9 bd 68 3f 45 bc 9e 4c 28 3d
       0.024980802 -0.08266159 -0.012039043 0.041088693
000020 32 81 2b 3d c0 af 90 bc a0 3d 03 3d a6 70 89 bd
       0.041871257 -0.01766193 0.032041192 -0.06710939
000030 22 05 14 be 5e ac a3 bd da 19 51 bc 6c c6 0d 3d
       -0.14455083 -0.07991861 -0.012762511 0.034613058
000040 d8 b7 26 3b 90 87 bd 3d 52 71 01 be d5 9c 27 be
       0.002543917 0.09254372 -0.12640885 -0.1636842
000050 b2 ba 15 be 2b e4 1d 39 b1 b2 34 be 42 61 98 bd
       -0.14622 0.00015057686 -0.1764629 -0.074404255
000060 81 33 8c bd 10 c6 e9 bd 61 f8 52 bd ae a0 e2 bd
       -0.06845761 -0.114147305 -0.051506404 -0.110658035
000070 57 37 db bd fb e7 ed 3d a6 da 83 3c 42 4b aa 3d
       -0.107039146 0.116165124 0.01609547 0.083151355
000080 92 55 a4 bc 1d c3 80 3c 09 16 3e bd cb 58 02 be
       -0.020060334 0.015718037 -0.046407733 -0.12729184
000090 16 3f 4d be dd 98 71 3c da 66 9d bd f1 0b 25 be
       -0.20043597 0.014745918 -0.07685633 -0.16117837
0000a0 2b 83 4d 3d 8d f9 05 3c 46 c2 01 be 6f 3b 2d be
       0.05017392 0.008177173 -0.12671766 -0.16917203
0000b0 f6 9d 6d bd 89 9b ba bd 7d f5 06 3d a2 f1 43 3d
       -0.05801197 -0.09111697 0.03294896 0.04783786
0000c0 d0 d4 09 3d 1f 4b 26 be 66 a7 b3 bd b3 ac 16 be
       0.03365022 -0.16239594 -0.08772163 -0.14714317
0000d0 dd 69 b8 bb 65 8d 55 bd d5 0e 17 3c be ce 48 bd
       -0.0056278543 -0.052136797 0.009219845 -0.04902529
0000e0 08 d3 0b 3d 40 0b 97 3d c9 30 9a 3c 70 ac 07 bd
       0.034136802 0.07375193 0.01882209 -0.033123434
0000f0 e2 ef 7a bd bf ca 29 bd c9 92 14 be 34 fa 53 3d
       -0.061263926 -0.04145312 -0.14509119 0.051752284
000100 0b 7b a1 bd a2 f7 12 3c 4a 16 af bd 1a 14 54 bd
       -0.07884797 0.008970173 -0.08549173 -0.051776983
000110 de ff 97 bc 2c 5f 00 be d2 15 9a 3b 50 4b 07 be
       -0.018554624 -0.12536305 0.004702308 -0.13212323
000120 6d e9 77 bd e2 89 5f 3d 27 e4 df 3b 11 b9 9b 3d
       -0.060525347 0.054574855 0.006832618 0.07603658
000130 34 42 17 bd 3a e8 99 bd d5 9d da bd 25 75 73 bc
       -0.03692837 -0.07514997 -0.10674635 -0.014859472
000140 34 fb ae bd 49 4e 78 ba a9 97 58 bd 13 02 ab 3c
       -0.08544007 -0.00094721146 -0.05287901 0.020875013
000150 bc 7f 9b 3c 16 8b 63 3d 83 14 6a bd 3e 35 03 3d
       0.018981807 0.055552565 -0.057148468 0.032033198
000160 ce 6e 30 be 1b 74 09 3d 61 8c 94 bd 67 3c f6 3c
       -0.17229769 0.033557992 -0.07253338 0.030058099
000170 01 13 c9 bd de 5b 18 bd 00 39 af bd 0a 3f 8d 3d
       -0.09818078 -0.037196986 -0.08555794 0.06896789
000180 95 22 cc bd 99 00 5e bd 31 33 5f 3d ae 0c 07 3c
       -0.099675335 -0.05419979 0.05449218 0.008242769
000190 6e 94 cc bd 3f c0 43 be f7 c2 87 bd 9b 3b 9f 3c
       -0.09989248 -0.19116305 -0.066289835 0.019437602
0001a0 7b 97 6b bd c5 9c 4b 3d 20 3a bf 3d b0 30 f7 bd
       -0.05751751 0.049710054 0.09337258 -0.12069833
0001b0 9c 47 a2 bc b0 f0 b8 bd 7e b7 1f bd 37 ad 0e bd
       -0.019809537 -0.090302825 -0.03899335 -0.03483316
0001c0 f0 20 76 bc 10 4d 80 3b 57 93 12 bc 95 ae 6a bd
       -0.015022501 0.0039154366 -0.008946261 -0.0572954
0001d0 8a ec 68 bc 7c e6 c5 bc ce 46 ff 3c 0b 5b 27 bd
       -0.014216552 -0.024157755 0.031161692 -0.04085831
0001e0 93 e5 89 bd dd b9 81 3d a8 28 0a bd c3 3c da bc
       -0.06733241 0.06334279 -0.03373018 -0.026640302
0001f0 b7 20 fa bd b6 49 c0 bd 2f 91 ab bd 23 ab b4 bd
       -0.12213271 -0.09389059 -0.08377301 -0.08821704
000200 92 66 5b be 54 12 9f bf c4 9a 45 bf 59 c9 72 be
       -0.21425846 -1.2427468 -0.7718928 -0.2370962
000210 7d 2d 96 bf ac 7c 15 bf d1 06 4b bf aa 3b 85 3e
       -1.1732632 -0.5839336 -0.79307276 0.26022083
000220 45 03 97 be 64 7e 1c be ec 96 b5 bd ec 29 6e 3e
       -0.29494682 -0.15282589 -0.08866677 0.2325818
000230 0c 67 8d 3d 53 d1 23 3e 22 e6 fd be 60 30 f6 3a
       0.0690442 0.1599782 -0.4958964 0.0018782727
000240 3b c3 58 be 79 e9 8a bf 0b 6a 2e bf 37 4d cd be
       -0.21168225 -1.08525 -0.6813056 -0.40097973
000250 a5 8c 90 ba 70 92 cf 3e 64 4c 56 be 29 47 4f 3e
       -0.0011028243 0.4054141 -0.20927578 0.20241989
000260 b6 74 32 bf c6 a4 c9 be 8e e8 34 bf 51 c4 f4 3d
       -0.69709337 -0.39383525 -0.7066735 0.11951507
000270 44 05 18 bd 63 ef ac be a5 01 03 be a5 b9 97 bf
       -0.037114397 -0.33776388 -0.12793596 -1.1853529
000280 e9 43 a1 be d0 b1 12 3f 4f 6b 25 bf 4b fc 89 3e
       -0.31497124 0.5730257 -0.64616865 0.26950297
000290 b3 b7 03 3e 49 48 13 be 81 47 b5 3e 2a aa f6 be
       0.12863044 -0.14383043 0.35406116 -0.481767
0002a0 9a ce 62 3d 84 63 d5 be fe 7c 8f be 53 3d 98 bd
       0.05537281 -0.41677487 -0.2802505 -0.07433572
0002b0 b0 32 a9 3e 07 cf cd be 51 57 ba be 89 53 3f be
       0.33046484 -0.40197012 -0.36394742 -0.1868421
0002c0 68 c1 1e bf 44 f1 c4 be 14 4f 65 3e c8 f2 97 bf
       -0.62013865 -0.3846532 0.22393447 -1.1870966
0002d0 90 aa c1 bf 47 71 6c bd c2 c1 0d 3f 81 00 aa bf
       -1.5130177 -0.057725217 0.55373776 -1.3281404
0002e0 53 10 fa be 54 21 61 be 13 f7 a1 bd 8d be 5c 3c
       -0.4884058 -0.2198537 -0.07908454 0.013473165
0002f0 f6 9a 45 bf 96 06 06 bd 08 29 65 3d 96 10 78 3d
       -0.77189577 -0.032721125 0.055947334 0.060562693
000300 49 40 54 be 5e 43 08 be 61 9b bb ba 57 2f 96 3e
       -0.20727648 -0.13306949 -0.0014313274 0.29332992
000310 93 d0 45 3e 4b 6f cc bc 7a 7a 8d be 88 5c 88 bd
       0.19317846 -0.024955412 -0.27632505 -0.06658274
000320 d3 f5 14 bd 5a 50 9e 3e 79 7f a8 be 7d 1c bf bd
       -0.03636725 0.30920678 -0.32909754 -0.093316056
000330 fd e4 0e bf bb 17 3b be a0 fd 86 be ee ab 9e 3d
       -0.5581816 -0.18270771 -0.26365376 0.07747637
000340 b1 c6 a6 bd 84 a8 b6 3e 21 f6 6c 3d 4e 23 3d 3d
       -0.08143366 0.35675442 0.057851914 0.046176247
000350 03 e6 e0 3c 53 fd 89 3d 22 8a 98 3d 33 9d 0e 3e
       0.027453428 0.06737771 0.07448222 0.13927154
000360 18 99 eb be 9d 1b 81 3f 98 6a 5a bf 6c e4 99 3d
       -0.4601524 1.0086552 -0.853189 0.07514271
000370 09 c5 85 3d ac 5d f3 3e a8 06 87 3c 44 2d 96 3d
       0.06531722 0.47532403 0.016482666 0.073328525
000380 98 5c 14 be 07 21 42 bc d3 57 a2 bd c4 12 de 3d
       -0.14488447 -0.011848695 -0.079269074 0.10843423
000390 7e 39 14 be 79 80 b4 be 00 3a e7 be d2 00 3f bd
       -0.14475057 -0.35254267 -0.45161438 -0.04663164
0003a0 9a 9e 72 be a8 06 1c bf cf 36 88 be 93 88 dc bb
       -0.23693314 -0.60947657 -0.26604316 -0.006730148
0003b0 90 82 77 3e 85 d2 1d 3e 21 16 1e be 14 2e 63 bd
       0.241709 0.15412338 -0.15438129 -0.055463865
0003c0 de 1e 82 3e df ac b7 3d b5 f8 8a bc 84 11 29 bf
       0.25414175 0.089685194 -0.016964296 -0.6604235
0003d0 8f 85 e0 3d b7 28 23 3e bc 7d e2 bd c9 89 88 bb
       0.10962974 0.159335 -0.11059138 -0.004166816
0003e0 7e c0 05 be 27 18 6f 3e 55 8b de 3e aa 53 8a be
       -0.13061711 0.23349057 0.43465677 -0.27016956
0003f0 68 c7 a4 3d 17 31 13 bf ab ea 61 be 91 5b 87 bb
       0.08045846 -0.5749678 -0.22062175 -0.0041307886

hidden_layers.1.bias f4 [64]
000000 06 0a 08 be a7 5e 64 bd e3 7c 94 bd 2d b1 d0 3d
       -0.13285074 -0.05575433 -0.07250383 0.101900436
000010 4d 86 dd 3e 53 65 92 3e 57 a1 c1 bc 92 aa 8c bd
       0.43266526 0.2859293 -0.023636503 -0.06868471
000020 c2 c3 96 bc d4 08 03 be b0 b3 03 3f 72 fb 3e be
       -0.018403891 -0.12796336 0.51446056 -0.18650606
000030 7d df d1 3d 15 a3 8a 3e 8e 54 e4 3e 30 59 bd 3d
       0.10247705 0.27077547 0.4459576 0.09245527
000040 04 2b 52 be 2b 12 27 3f 36 ce b6 bd dc 10 4e 3d
       -0.20524222 0.652621 -0.0892605 0.050309047
000050 9c ee 6c bb 4a c3 29 be 18 8f 86 bd a5 48 77 3d
       -0.0036152964 -0.16578403 -0.06570262 0.060372014
000060 d9 9f 00 3f ba 21 38 3e d9 6a f7 bd d7 95 71 3d
       0.5024391 0.17981616 -0.120809264 0.05898079
000070 7b 1a 9b 3e ef 9b 36 bd 0e 1a d2 3e ff 5e f1 bb
       0.3029364 -0.044582304 0.41035503 -0.0073660607
000080 83 93 10 be 9a a5 15 3d 17 da 3f bb b6 09 5a bd
       -0.14118771 0.036534883 -0.0029274279 -0.053231917
000090 4e 54 6b be af 82 2f 3f 65 3e 39 3f d4 76 0c be
       -0.22981378 0.6855878 0.7236083 -0.13717204
0000a0 9c 3d 63 bd 5b 16 58 bd e5 f5 8d 3d d3 33 89 bd
       -0.055478677 -0.052755695 0.06931666 -0.06699338
0000b0 d5 4a d6 bd d6 d7 6a bd 59 36 f3 bb f9 aa 53 bd
       -0.10463492 -0.057334743 -0.00742225 -0.051676724
0000c0 75 f8 86 bd 94 b8 96 bd fb 6e 9a 3c d2 17 23 3f
       -0.06590358 -0.07359424 0.018851748 0.6370822
0000d0 c2 da 38 be 31 e4 39 be 71 03 db bd 6b ed f4 bd
       -0.180522 -0.18153454 -0.10694016 -0.119593464
0000e0 c5 96 72 be c3 8e 5d be bf 6a 92 bd 26 8d 20 3f
       -0.23690327 -0.2163649 -0.071492665 0.62715375
0000f0 a2 47 9c bc fc de 0a 3f c7 9f 57 be cc 41 1b be
       -0.019077126 0.542465 -0.21057044 -0.15161818

output.weight f4 [4, 64]
000000 12 70 50 bd c6 85 79 3d 21 6b d8 bb f7 90 04 3e
       -0.05088813 0.060918592 -0.0066045676 0.12945925
000010 26 c0 0b 3e ad 46 0e bf 82 fe d7 3e 61 32 ed 3c
       0.13647518 -0.5557659 0.42186362 0.028954687
000020 64 fe 0c 3d 78 29 39 3e a1 09 a2 3d 15 cc 82 3d
       0.034422293 0.18082225 0.07911993 0.06386582
000030 1b 06 da bd f0 79 2f 3e f1 b8 52 3c be a8 ba 3d
       -0.10645696 0.17136359 0.012861476 0.09114216
000040 06 a7 d0 be 15 06 47 3e 28 b2 61 3c ab 33 86 3d
       -0.4075243 0.19435914 0.013775386 0.06552824
000050 ab 01 8e 3c 5f e1 0d 3c d9 6c 93 3d c9 a1 09 bc
       0.01733478 0.00865969 0.071984954 -0.008400389
000060 fc 42 35 bd ce 18 7e 3c a2 17 d4 3d c2 91 97 3d
       -0.044253334 0.015508844 0.1035607 0.07400848
000070 cc ac 8c 3d c5 57 e3 be 0c 03 11 3e 12 0b 52 bd
       0.06868896 -0.444029 0.14161319 -0.05128009
000080 d7 7e a3 3d 2f 01 f9 bb 9b fc 68 3e 35 b8 08 3b
       0.07983177 -0.007599018 0.22752611 0.002086175
000090 32 d6 9a ba b2 b7 80 3e 19 9d 80 3e b7 09 83 bf
       -0.0011813103 0.25140148 0.25119856 -1.023734
0000a0 1d 7c a2 be b5 fc d1 bf 9d 55 7e 3e a2 ef 47 bd
       -0.31735316 -1.6405245 0.24837346 -0.048812516
0000b0 c7 c7 b2 3d c6 50 fe 3d df 91 f5 3d f6 e5 55 3e
       0.08729511 0.1241775 0.11990713 0.20888504
0000c0 32 41 62 3d b4 1f 2b 3d 46 0f b4 bc a4 08 1b 3e
       0.055237956 0.04177828 -0.02197994 0.15140015
0000d0 ca 0c 38 bf dc 50 a5 bd 24 63 aa 3d 39 39 c7 bd
       -0.71894515 -0.08072063 0.08319691 -0.09727711
0000e0 d3 d0 38 3e cc 2a ba bc 32 9c ec bd ba e0 68 3e
       0.1804841 -0.022725485 -0.115532294 0.22741976
0000f0 9d 3d 99 3d 79 7e 2e 3e d3 31 92 be 62 c0 03 3d
       0.07482455 0.17040433 -0.28553638 0.032165892
000100 3c 78 4e bc 16 51 71 3d 69 e7 29 bf 3b 64 1f 3e
       -0.012601908 0.05891522 -0.6636873 0.15565579
000110 d6 cf 63 3d e1 3a 74 be 29 6a 45 bf 1c 25 d7 3d
       0.05561813 -0.23850586 -0.7711511 0.10505125
000120 90 78 20 bd 0c e3 82 bf 38 89 80 3d a7 c2 a3 3e
       -0.039177477 -1.0225539 0.062761724 0.31984445
000130 3c 80 67 bd 68 24 9e 3d ff 0f 49 3d 81 fc 7f 3d
       -0.05651878 0.07721788 0.04908752 0.062496666
000140 07 9c 0d 3f 8d 0c 28 3e e1 87 cd be fd fb 87 3d
       0.55316204 0.16411038 -0.4014273 0.0663986
000150 a5 fe 9b bc 88 c7 b1 bd 51 28 21 3d 82 9a 14 3d
       -0.019042322 -0.08680636 0.03934509 0.036280163
000160 c3 e5 a2 3d ec 43 87 3d c4 0c 4f bc 45 2b d2 bf
       0.0795398 0.06604752 -0.012637321 -1.6419455
000170 3d 89 2f 3d c4 45 ae bd e3 40 05 3e 84 ad a4 bd
       0.04285549 -0.085094005 0.13013034 -0.08040908
000180 7c 19 f8 3c e9 fd 27 3d 59 e0 05 3f 06 2a 68 bd
       0.03028559 0.041013632 0.5229545 -0.0566807
000190 32 39 0e bc 98 b5 63 3e 75 18 83 3e 92 1b 39 bd
       -0.008680629 0.22237241 0.25604597 -0.04519231
0001a0 c6 ea b8 3e 58 4e 44 3c 3e ae 2c 3e 9c 6a b4 bc
       0.36116618 0.011981569 0.16863343 -0.022023492
0001b0 64 c9 cc bc a8 fb e0 3d 13 2c 2f 3e ca 48 81 3d
       -0.024998374 0.109854996 0.17106657 0.063127115
0001c0 26 7a d1 3d 1a 5e 5c bd 57 b5 fa 3b ae da 59 3e
       0.10228376 -0.05380068 0.007651012 0.21274826
0001d0 f5 40 ee be 09 4d d2 3c ef 44 3f 3c 7d dc 5e 3c
       -0.46533933 0.025671499 0.01167415 0.013602373
0001e0 f6 e1 96 3e bf d3 1e 3e af 91 d7 3d 04 4c 8e 3e
       0.2946927 0.15510462 0.10525834 0.2779237
0001f0 e1 61 9d bd 06 99 c7 3d 17 ea 76 bd a1 d7 0e bd
       -0.076846845 0.09745984 -0.06028184 -0.03487361
000200 db 0e b8 bd 25 97 87 bd 62 38 89 3d a4 df 32 bd
       -0.089872085 -0.066206254 0.06700207 -0.04367031
000210 e8 3f 23 3d 4b 73 23 3e 66 68 17 3d 71 d0 4e 3d
       0.039855868 0.1596195 0.036964796 0.050491754
000220 53 f8 ba 3d 8e 1a ce bb bc c9 00 3e 84 9f 11 3e
       0.09129395 -0.0062897867 0.12576956 0.14221007
000230 91 d1 9d 3d ec 9e 10 3e 5e 97 92 3d d6 32 83 3d
       0.07705987 0.14123124 0.07157777 0.064061806
000240 c8 b1 4e bf 26 b8 31 3e 56 e2 a4 bf 8a d8 79 bd
       -0.8074002 0.17355403 -1.2881572 -0.060997523
000250 7b 96 81 bf 02 2e 89 3d 88 9a 13 bc b4 7b 85 bf
       -1.0124048 0.066982284 -0.009009011 -1.0428376
000260 5c 3d 8a 3d e8 f9 09 3e 6d 26 1a 3e f7 f4 94 3d
       0.067499846 0.13474238 0.15053721 0.07273286
000270 64 81 9b 3c 3f e4 92 3d 50 69 a7 3d cd de 08 3a
       0.018982597 0.07172441 0.08174384 0.0005221188
000280 13 5f a1 bd 89 78 26 3d ca 77 6b be 0e e2 8c 3d
       -0.07879462 0.040642295 -0.22994915 0.06879054
000290 05 b1 20 3d 3e e7 63 3e 28 97 76 3e bc ef a7 3d
       0.03923132 0.2225618 0.24081099 0.082000226
0002a0 cd ae 92 3e 07 64 d8 3c 93 e5 7f 3c c2 c9 a3 bd
       0.28648987 0.026414884 0.0156187 -0.079974666
0002b0 2f 52 c1 bd 4c 08 e1 3d 3e 9b 1e 3e 0d 1a ed be
       -0.094395034 0.10987911 0.15488908 -0.46308938
0002c0 51 da 9d bf 84 b6 a2 3d b6 2d b9 bd 5d 6e 04 3e
       -1.233225 0.07944968 -0.09041922 0.12932725
0002d0 d2 62 80 be 1e 40 ac 3c f8 fa b9 bd 3a 42 86 3d
       -0.25075394 0.021026667 -0.090810716 0.065556005
0002e0 a7 f8 1a bc ff 79 10 be 9f 93 ad 3d fa 9e 84 3e
       -0.009458697 -0.14109038 0.08475422 0.2590254
0002f0 52 26 58 bd d0 1a 07 3e 88 16 a7 bb eb 03 a4 3d
       -0.05277092 0.13193822 -0.0050991215 0.0800856
000300 65 b4 f3 3b 9a 07 c1 bd b8 a8 77 bd b6 72 6c 3d
       0.007437276 -0.09425278 -0.060463637 0.057726584
000310 4e c7 2f 3d a3 06 90 be 05 e5 3c 3e 9b 0a 20 bd
       0.04291468 -0.28130063 0.18446739 -0.039072614
000320 cc 4d 32 bd 31 a0 4f 3c fd 2a e7 bb 4f 6b 02 bd
       -0.043531224 0.01267247 -0.007054685 -0.03184062
000330 ac 8f 28 bd 3a 32 6b 3d a2 90 cb 3d 09 7e 4c bb
       -0.04115264 0.057420947 0.09939696 -0.0031203052
000340 45 fe 83 3e b5 6c 22 3e e8 89 81 bd 0d 29 b6 3d
       0.2577993 0.15861781 -0.06325132 0.088945486
000350 38 a1 0e be a6 65 db 3d f9 c4 d3 3b 8a c9 2b bd
       -0.13928688 0.10712747 0.00646269 -0.04194025
000360 7f 20 a5 3d 58 f5 5a bd 4d 6f 65 3d 4a 54 c8 3a
       0.08062839 -0.053456634 0.056014348 0.0015283909
000370 3d 6d 93 3d 89 ba 3f 3e bd 10 ac 3d c6 e1 28 3b
       0.0719857 0.18723501 0.0840163 0.0025769337
000380 5c c8 c4 bb d0 25 bf bc 76 ff 86 3e de 80 05 3e
       -0.00600533 -0.02333346 0.26366776 0.1303744
000390 5e 84 c8 bd d9 ae 60 3e 41 74 8b 3e 75 ee 64 3e
       -0.09790872 0.21941699 0.27237132 0.22356589
0003a0 29 48 86 3e ca 64 c0 3d ee b9 90 3e cb d6 33 bc
       0.2622693 0.09394224 0.28266853 -0.010976504
0003b0 41 50 f3 3d e7 39 cc 3d f8 26 47 3c b2 09 35 3e
       0.118805416 0.099719815 0.012155287 0.1767948
0003c0 6c ea c8 3b 6f ea 60 bf 4d dc 84 bd a3 2e 20 3e
       0.006131461 -0.8785772 -0.064873315 0.1564279
0003d0 35 4a 78 3e 5c be 20 3b 50 ef 3a bc 77 e2 1b 3b
       0.24247058 0.0024527526 -0.011409596 0.0023786107
0003e0 2d b5 cd be 6d e1 2d 3d 6b 09 0b bd 14 f3 7f 3e
       -0.4017729 0.04245131 -0.03394453 0.2499507
0003f0 9d 3b d7 bd 7f a2 f0 3d f5 e0 a9 bf a2 bd 0f bc
       -0.10509417 0.11749744 -1.3271776 -0.008773239

output.bias f4 [4]
000000 21 d4 f3 3e 6d cc ce 3e 4a 6e 3a 3f 2c b0 1a 3f
       0.4762278 0.4039034 0.7282454 0.60425067

exp_avg f4 [64, 37]
000000 c1 fa fa b7 80 26 0c b9 5b 55 e7 b9 ae 07 bc b8
       -2.9919089e-05 -0.00013365783 -0.00044123348 -8.965969e-05
000010 0d c9 96 b9 72 54 dd b8 94 ed 88 b9 56 7b 84 b9
       -0.00028760024 -0.0001055383 -0.0002611695 -0.00025268894
000020 b2 70 9d b8 6f 48 9f b9 3e d9 c8 b9 8d 1c 58 b9
       -7.5073345e-05 -0.0003038081 -0.0003830883 -0.00020610001
000030 f6 44 87 38 d8 07 32 b9 c2 f1 37 b9 75 30 0f ba
       6.4501466e-05 -0.00016978325 -0.00017542302 -0.0005462238
000040 46 89 90 38 cd 26 d8 b7 5c b2 48 b9 bc 2c 0e b8
       6.892024e-05 -2.5767275e-05 -0.0001913993 -3.38971e-05
000050 62 e8 e9 b9 22 2d e4 38 9f bb cc b9 36 f4 0b 38
       -0.00044614362 0.00010880294 -0.000390497 3.336762e-05
000060 0a f6 65 b9 f0 e5 1a ba 2a de 2a b8 18 03 bc 38
       -0.00021930799 -0.0005908897 -4.0738065e-05 8.965115e-05
000070 aa e6 1f b9 f9 81 00 b9 ad bf 95 b9 4b e7 3f b9
       -0.0001524935 -0.0001225545 -0.00028562304 -0.00018301343
000080 54 47 eb b8 2b 54 ee b8 59 c6 8e b8 3c 52 d0 b9
       -0.00011218959 -0.00011364402 -6.808033e-05 -0.0003973412
000090 99 b5 09 3a 97 e9 8f 39 06 a9 87 39 98 79 3c b9
       0.00052531954 0.00027449123 0.0002587514 -0.00017974374
0000a0 a4 16 09 38 28 13 ec 38 5b bb a1 39 b5 79 f5 38
       3.268443e-05 0.00011256925 0.00030847904 0.0001170518
0000b0 ac 9d 63 37 78 f0 5d b8 a2 4c ae 38 df 73 c5 38
       1.3566965e-05 -5.291446e-05 8.3112405e-05 9.415275e-05
0000c0 e8 38 ec 38 62 d6 45 39 90 b7 1b b7 cb 32 73 39
       0.000112639565 0.00018867248 -9.281459e-06 0.00023193208
0000d0 31 5e a2 b8 4a 55 d7 39 ca 57 ec 38 51 d8 7a b8
       -7.7423065e-05 0.0004107154 0.00011269709 -5.9806105e-05
0000e0 ce 24 97 39 fc 19 4d b8 77 60 6d 39 5f 15 7f 38
       0.00028828386 -4.890001e-05 0.00022638017 6.081664e-05
0000f0 fd 11 1b 39 e8 b8 97 38 e1 4d 80 38 07 97 96 39
       0.00014788653 7.2346826e-05 6.118022e-05 0.00028722754
000100 37 61 30 39 e9 c4 08 b9 54 75 89 39 9a d6 54 39
       0.00016820883 -0.00013043325 0.00026218093 0.00020297841
000110 ca a7 c2 38 20 4d a2 38 dc 03 5a 37 d6 eb 14 39
       9.281894e-05 7.7391276e-05 1.2994711e-05 0.00014202236
000120 11 ca 08 ba 5e de 10 b9 68 65 9b b9 57 5f bc 39
       -0.00052180985 -0.00013815748 -0.00029639457 0.00035929188
000130 6b fd ca b8 c3 d1 93 b8 7c ae a4 b8 b1 2e db 39
       -9.6793134e-05 -7.0485774e-05 -7.85263e-05 0.00041805723
000140 30 f9 19 b8 03 b1 6c b9 e8 50 88 b9 64 26 4e b8
       -3.6710117e-05 -0.00022572656 -0.0002600022 -4.914998e-05
000150 4e 00 03 b9 7d 77 8e b9 43 cd 23 b9 6a 24 eb 39
       -0.00012493247 -0.00027173376 -0.00015621357 0.00044849823
000160 0e 53 87 b9 ee 2c 0e b9 63 10 ac 39 ba 70 51 b9
       -0.00025811087 -0.00013558913 0.00032818606 -0.00019973787
000170 a7 ed cb b8 04 19 ee b7 42 71 02 b8 57 c4 d6 b8
       -9.7240605e-05 -2.838346e-05 -3.1099895e-05 -0.00010240886
000180 1c b1 94 b9 80 f6 a3 39 cc c2 30 b9 a4 53 a6 39
       -0.00028360717 0.0003127344 -0.00016857235 0.00031724304
000190 a4 e6 12 b9 eb ff 5e b9 e8 68 90 b8 21 b4 71 39
       -0.00014009565 -0.00021266907 -6.8859954e-05 0.00023050654
0001a0 7c 4a 0b b9 47 0b 50 b9 81 a7 a9 39 f5 d9 ca b8
       -0.0001328382 -0.00019840627 0.00032358992 -9.672708e-05
0001b0 3d 20 26 b7 33 3c a2 ba 98 b1 e0 ba c3 45 12 ba
       -9.901877e-06 -0.001237756 -0.0017142771 -0.00055798533
0001c0 6f 50 8c b9 8a 09 ae 39 c7 e1 d0 b9 4a 13 cc b7
       -0.0002676281 0.00033194973 -0.0003984107 -2.4327677e-05
0001d0 bf 3c ef b9 f9 25 e8 b9 5a ce 93 39 d7 1f 90 b9
       -0.00045630892 -0.0004427878 0.0002819177 -0.00027489543
0001e0 9f e8 0f b8 ad 30 01 ba 36 d7 06 ba e7 55 43 39
       -3.4310502e-05 -0.0004928213 -0.0005143763 0.0001862865
0001f0 8b 3d 95 b8 05 2f 19 ba 11 44 b3 b9 84 e0 14 ba
       -7.116337e-05 -0.0005843493 -0.00034192254 -0.00056792074
000200 fb 07 8f b9 e1 58 98 39 9e 6b d5 b9 d8 89 7c ba
       -0.0002728103 0.0002905792 -0.00040706707 -0.00096335774
000210 69 49 92 b9 50 69 a1 39 bc fc 31 38 7d 97 26 b9
       -0.00027901985 0.00030786777 4.2435466e-05 -0.00015887427
000220 1a 2b 06 ba ce 46 11 ba 3c 94 10 b8 52 84 5a 39
       -0.0005118117 -0.0005541862 -3.447033e-05 0.00020839393
000230 41 5e cc b9 65 7f 0d b9 37 fb 0c ba 5a 71 5b b9
       -0.00038980137 -0.00013494266 -0.000537801 -0.00020927694
000240 d2 ac 28 b7 3e 8d a0 b6 b1 c7 10 ba d2 47 04 bb
       -1.0053818e-05 -4.7848143e-06 -0.00055229204 -0.002018441
000250 a9 21 0d ba 7f e6 9e b8 cf 63 97 3a 41 6d 5a b9
       -0.0005383739 -7.57696e-05 0.0011550131 -0.000208308
000260 05 c0 fe 38 06 1d 7f b9 86 2a ed b8 cb 18 08 3a
       0.0001214743 -0.00024329507 -0.00011308961 0.0005191683
000270 60 06 32 39 a9 27 96 39 96 74 68 38 4f e7 80 b9
       0.00016977778 0.0002863978 5.542169e-05 -0.000245864
000280 7b 95 74 b7 85 ec 0c 3a 0a 6c ac b9 41 6a a2 39
       -1.4578337e-05 0.00053758203 -0.00032886892 0.00030978213
000290 a8 0e 92 b9 cf 7d 04 b7 f6 23 a2 39 30 bf 9b b8
       -0.0002785821 -7.897105e-06 0.0003092584 -7.4265874e-05
0002a0 dd 5e 9a 39 6a 57 0b ba a7 0e 42 39 46 a4 c9 39
       0.00029443848 -0.0005315455 0.0001850674 0.000384601
0002b0 1c a3 a8 38 a6 e9 57 b9 90 c0 75 b9 4a c9 97 b9
       8.041246e-05 -0.00020591039 -0.00023436756 -0.00028950936
0002c0 82 3e 8b 3a 0f 26 be 38 4b 2b e5 39 77 87 ae b9
       0.0010623487 9.066995e-05 0.0004371054 -0.00033288795
0002d0 e7 87 d7 38 ae ab 03 39 ce 11 25 39 f9 3d e5 b9
       0.00010277313 0.00012557089 0.00015742259 -0.00043724457
0002e0 25 97 6c bb d8 00 f3 36 ca 27 9d b5 83 9b 12 38
       -0.0036100831 7.2420626e-06 -1.1708992e-06 3.4953944e-05
0002f0 e1 93 49 38 81 8d b1 37 5d f6 85 b7 d4 8b f5 38
       4.8059857e-05 2.1165937e-05 -1.5969557e-05 0.000117085554
000300 ae 1f 02 b6 ff 50 29 b7 d7 cc 26 38 b3 b7 3e b7
       -1.938995e-06 -1.0092043e-05 3.9768256e-05 -1.1367653e-05
000310 99 44 88 38 2c a3 00 b8 14 b7 8a 38 f4 16 1c b5
       6.497763e-05 -3.0669544e-05 6.614454e-05 -5.814793e-07
000320 51 96 f2 b7 82 3b ae 38 e2 b2 b9 b6 c4 b0 29 38
       -2.8918645e-05 8.308051e-05 -5.5342543e-06 4.0457366e-05
000330 92 1f 11 37 75 59 3e 38 1b 3d de 38 a9 47 7e b8
       8.650024e-06 4.5382843e-05 0.00010597167 -6.0625058e-05
000340 d5 b7 dc b5 40 2e 4c 38 9c ec 68 37 a8 82 43 38
       -1.644478e-06 4.8680464e-05 1.38833675e-05 4.6613306e-05
000350 cb f1 32 38 65 25 6c b7 1e 22 0a 37 cb 98 ce b8
       4.2663694e-05 -1.4075403e-05 8.2333845e-06 -9.8513054e-05
000360 f0 4a 3b 39 52 5d 46 b7 e2 86 ae 37 43 57 36 b6
       0.00017861626 -1.18234475e-05 2.0805226e-05 -2.7170906e-06
000370 50 bb 25 39 59 bf 52 39 85 48 a0 ba fd be 8f ba
       0.00015805406 0.00020098443 -0.0012228644 -0.0010966953
000380 a0 e4 23 3a 7c f4 11 ba cb f9 5c ba 62 ca a1 ba
       0.00062520243 -0.0005567742 -0.0008429556 -0.001234364
000390 0a 36 18 ba db ea cc 37 d7 76 f1 b9 61 77 32 ba
       -0.00058063923 2.4428058e-05 -0.00046055645 -0.000680795
0003a0 9f 92 98 ba d6 78 51 ba 5a 16 84 38 2f 07 b8 b9
       -0.0011640376 -0.0007990723 6.298414e-05 -0.00035100567
0003b0 2a a5 7d ba 8c 57 6b ba 75 1e 8c ba d5 67 ba b9
       -0.00096757954 -0.0008977584 -0.0010690229 -0.00035554045
0003c0 16 4c 95 38 d7 25 96 ba 02 79 a2 ba 30 9d 23 ba
       7.119046e-05 -0.0011455369 -0.0012395682 -0.00062413793
0003d0 cf 0a 92 b9 40 52 e4 b8 32 31 4f ba 9b 7e c5 ba
       -0.00027855343 -0.000108872075 -0.0007903754 -0.0015067639
0003e0 bd 09 66 ba bf 8c bb b9 73 ae 00 3a 74 6f a6 ba
       -0.0008775255 -0.00035772283 0.00049088075 -0.001269801
0003f0 8b a6 02 bb b3 ea 81 b8 86 81 f7 b8 85 b9 a2 b8
       -0.0019935693 -6.1949155e-05 -0.000118020034 -7.759318e-05

exp_avg_sq f4 [64, 37]
000000 e4 ba a9 35 22 47 6b 35 20 3a ec 34 00 04 f4 35
       1.2645874e-06 8.7647834e-07 4.4000717e-07 1.8180581e-06
000010 ed 44 b4 34 d6 0c 0d 36 54 ad a2 35 af 58 6d 35
       3.3577763e-07 2.1018109e-06 1.2120386e-06 8.841843e-07
000020 58 9b 25 34 fc 0e 9c 35 12 7d 59 35 5d 07 8c 35
       1.5423336e-07 1.1627267e-06 8.10208e-07 1.0432956e-06
000030 0a c6 67 35 79 95 e0 35 db 03 0f 35 1e 9d 74 36
       8.634239e-07 1.6732803e-06 5.327726e-07 3.6450288e-06
000040 53 c9 e6 34 67 4b 23 34 a9 56 88 34 cd 9e c3 34
       4.298732e-07 1.5207989e-07 2.5395028e-07 3.6437123e-07
000050 62 b9 64 35 05 ab 27 36 06 1e fe 34 b4 ac 14 35
       8.5206386e-07 2.4984486e-06 4.7333032e-07 5.538561e-07
000060 60 30 f9 35 1d 89 b3 35 17 5a 81 35 68 d1 d2 35
       1.8566025e-06 1.3376444e-06 9.637469e-07 1.5707164e-06
000070 7f 32 07 35 da 21 ab 35 a4 4a 31 35 14 58 91 35
       5.03649e-07 1.2750345e-06 6.6046255e-07 1.0828976e-06
000080 27 ca 25 36 a2 3c 19 34 53 98 c9 35 56 2e 41 37
       2.4704584e-06 1.4271293e-07 1.5019999e-06 1.1514485e-05
000090 40 5f b7 38 6d b4 f9 36 70 7e 13 36 24 3f fa 34
       8.743862e-05 7.4417826e-06 2.1978303e-06 4.661207e-07
0000a0 19 a6 8b 34 e3 77 c0 35 2e cd 6e 35 0c ff fd 36
       2.601162e-07 1.4340006e-06 8.8960485e-07 7.569679e-06
0000b0 9e 57 12 35 32 93 c2 35 d7 9c 5a 36 18 c2 0b 36
       5.451674e-07 1.4496966e-06 3.2575824e-06 2.0825591e-06
0000c0 d1 42 cb 36 db c5 ce 34 55 a2 f7 35 41 55 13 36
       6.05765e-06 3.851445e-07 1.8450179e-06 2.1954331e-06
0000d0 c7 c8 7b 35 c2 e3 12 36 3c 90 ed 36 81 b4 53 34
       9.3796956e-07 2.1888268e-06 7.0799415e-06 1.9716573e-07
0000e0 60 81 14 36 a4 07 e8 35 e0 86 c5 36 ee 1f 0e 36
       2.2129025e-06 1.7287571e-06 5.886759e-06 2.1178234e-06
0000f0 14 b9 32 35 c6 ca 43 36 7a 1a e6 35 8c b7 ff 36
       6.657949e-07 2.9175294e-06 1.7144041e-06 7.62096e-06
000100 47 ca 3e 35 a5 6f b4 34 7e 2c 61 36 46 b6 60 35
       7.107487e-07 3.3608845e-07 3.355351e-06 8.3711745e-07
000110 4a e2 fa 36 e4 d4 f9 35 fb 6e 60 34 20 80 a2 36
       7.476924e-06 1.8613905e-06 2.0902e-07 4.842892e-06
000120 d3 8d 46 36 00 e8 ad 39 ec e3 98 36 f7 68 ab 35
       2.9586852e-06 0.00033169985 4.5564866e-06 1.2771042e-06
000130 02 a4 c2 34 b0 e4 19 36 23 bc 46 35 7e db 48 36
       3.6254647e-07 2.293189e-06 7.4034523e-07 2.9930084e-06
000140 50 7c 67 36 d2 8c 93 35 e8 d7 63 35 92 82 1d 36
       3.4494042e-06 1.0993338e-06 8.4878275e-07 2.3470825e-06
000150 3d 67 ec 34 76 9c 8c 36 3a cc 69 35 50 8f 43 36
       4.403354e-07 4.1905396e-06 8.709645e-07 2.9140683e-06
000160 0d 1e e5 35 ef ce 35 36 59 94 a4 35 75 7a 8e 36
       1.7070575e-06 2.7091553e-06 1.2262127e-06 4.2461857e-06
000170 a9 f0 8e 34 77 8d f1 35 1d 34 a6 34 24 ab b9 36
       2.6624664e-07 1.7997071e-06 3.0957827e-07 5.533353e-06
000180 e2 ce f6 35 38 8b 59 35 98 0b 7b 36 e5 b8 71 35
       1.8388639e-06 8.104139e-07 3.7408663e-06 9.0048553e-07
000190 61 6b 91 36 e1 c5 3d 36 0d 2f c9 34 7c 35 79 36
       4.3338373e-06 2.8278375e-06 3.7473401e-07 3.7135023e-06
0001a0 d2 69 9f 34 cb 29 89 36 94 9b 79 36 ed 85 db 34
       2.9693052e-07 4.0877835e-06 3.719445e-06 4.0889373e-07
0001b0 8f 1d 80 36 37 f2 76 37 78 80 90 39 37 7e 97 36
       3.8181383e-06 1.4719138e-05 0.00027561537 4.514844e-06
0001c0 a7 62 6b 35 36 c4 86 35 7f a4 27 36 95 1e 1c 35
       8.768788e-07 1.0040883e-06 2.4980689e-06 5.815903e-07
0001d0 b0 4d 4f 36 45 20 7a 36 6b 33 c5 35 56 37 3e 35
       3.0890624e-06 3.7271686e-06 1.4692608e-06 7.086104e-07
0001e0 8c cb 03 36 ef c3 bf 35 ba 37 87 36 e9 84 09 36
       1.9639e-06 1.4287633e-06 4.029801e-06 2.0491955e-06
0001f0 f4 18 c2 35 d8 38 02 36 f5 99 59 36 d4 01 fb 35
       1.4461389e-06 1.9404597e-06 3.2425135e-06 1.8701489e-06
000200 a4 0b 53 36 9f 71 3a 35 a0 dc ca 35 48 5a 25 36
       3.1448226e-06 6.945574e-07 1.5114383e-06 2.4639467e-06
000210 bf 47 98 36 b9 82 cd 35 7f b1 19 35 1b e6 29 36
       4.5383053e-06 1.5311736e-06 5.725523e-07 2.5316901e-06
000220 45 f7 bd 35 df ca 90 36 18 1b 15 36 0f bc 8d 35
       1.4153562e-06 4.3151517e-06 2.22185e-06 1.0560051e-06
000230 dc d6 2c 36 95 d8 24 36 d5 5b 92 36 67 0c 0c 36
       2.5755062e-06 2.4563972e-06 4.3618297e-06 2.0868845e-06
000240 fb 0d 8c 34 38 e1 44 36 fe b7 35 37 7f 97 86 39
       2.6087204e-07 2.933737e-06 1.083128e-05 0.00025671345
000250 1d 27 1b 36 3b 7b 51 36 25 82 df 35 05 35 81 35
       2.3119567e-06 3.1215156e-06 1.6652672e-06 9.62668e-07
000260 6f 49 d2 35 2b 7c 3d 36 cb 37 4a 36 a2 ea aa 35
       1.5667591e-06 2.823547e-06 3.0132821e-06 1.2734274e-06
000270 81 29 51 35 69 c2 f4 35 97 8a 21 36 d5 6d 3c 36
       7.7918963e-07 1.8235997e-06 2.407154e-06 2.8078114e-06
000280 d6 b3 d5 35 83 1c 9d 35 58 9c bc 35 21 43 05 36
       1.5922076e-06 1.170571e-06 1.4052594e-06 1.9857619e-06
000290 a7 b1 68 36 48 aa d4 35 b6 3f 89 35 42 5d f8 35
       3.4674101e-06 1.5844789e-06 1.0225838e-06 1.8504581e-06
0002a0 18 3f 52 36 76 21 21 36 1f e4 ec 35 12 ac 5c 35
       3.1329164e-06 2.4010346e-06 1.7649762e-06 8.220678e-07
0002b0 57 53 fd 35 39 73 58 36 36 b0 23 36 be 71 f1 35
       1.8874224e-06 3.2253577e-06 2.439146e-06 1.7989003e-06
0002c0 74 9c 38 35 4c 2c ba 35 dc 3c b4 35 46 63 72 36
       6.877301e-07 1.3870972e-06 1.3428757e-06 3.6118595e-06
0002d0 c7 69 f3 35 3c 3b 95 35 43 b4 10 36 f0 31 14 37
       1.8135696e-06 1.1118605e-06 2.1562598e-06 8.833114e-06
0002e0 fc 67 6b 39 40 eb e9 34 6e 11 b5 34 f0 56 3a 34
       0.00022450084 4.35708e-07 3.372656e-07 1.7354228e-07
0002f0 7d a8 50 33 7c f4 47 34 0b ab 08 35 52 f6 81 34
       4.8582013e-08 1.8622262e-07 5.091285e-07 2.4207344e-07
000300 94 60 b0 33 4c 8d 30 34 47 a1 44 34 3f 15 f3 34
       8.213206e-08 1.6442681e-07 1.8312595e-07 4.5277736e-07
000310 00 d0 26 34 50 18 92 34 11 69 02 34 08 8f 75 34
       1.5535625e-07 2.721231e-07 1.2145416e-07 2.2869438e-07
000320 b3 df df 34 36 06 a8 34 64 e1 54 34 82 29 ab 33
       4.169975e-07 3.1296958e-07 1.9826035e-07 7.970358e-08
000330 ee 81 63 34 f9 b1 fa 34 ae 1e 09 34 0c 7b ce 34
       2.118829e-07 4.669562e-07 1.277028e-07 3.8460018e-07
000340 d7 c9 58 33 f9 7a 5c 34 3c 8c a8 34 23 71 c2 34
       5.047499e-08 2.0533834e-07 3.1394472e-07 3.6217634e-07
000350 30 83 88 34 9b f1 7f 33 00 af 76 34 35 de 7d 34
       2.5427425e-07 5.9591553e-08 2.29742e-07 2.36433e-07
000360 21 02 bf 34 5a 12 a9 34 12 67 a2 33 33 82 59 34
       3.557807e-07 3.1492056e-07 7.562461e-08 2.0257066e-07
000370 a0 28 b1 35 e1 5a 6a 38 27 45 f2 36 47 84 8d 37
       1.3199351e-06 5.5874585e-05 7.2202124e-06 1.6870106e-05
000380 69 67 26 37 8b 74 99 36 5c e3 18 37 80 39 8b 37
       9.918448e-06 4.5733227e-06 9.112842e-06 1.6596867e-05
000390 e4 48 17 37 5b 5b 12 37 d1 d2 78 36 44 a9 db 36
       9.0172725e-06 8.7235485e-06 3.707759e-06 6.5464137e-06
0003a0 a3 44 47 37 25 1d 2b 37 02 21 1f 37 13 74 fc 36
       1.1877305e-05 1.019918e-05 9.484824e-06 7.523698e-06
0003b0 a6 42 13 37 89 8b 3e 37 08 88 42 37 f5 e7 30 37
       8.777401e-06 1.1357371e-05 1.1594973e-05 1.0544424e-05
0003c0 e7 8b ad 36 a4 3f ec 36 60 1f 73 37 9e 0d 1b 37
       5.1720885e-06 7.040757e-06 1.4491234e-05 9.24189e-06
0003d0 a7 f3 37 37 fa 11 8b 36 87 47 0f 37 33 19 1c 37
       1.096438e-05 4.1446156e-06 8.540118e-06 9.304192e-06
0003e0 40 b9 53 37 95 c6 4a 37 d1 b4 8c 36 71 61 10 37
       1.2619712e-05 1.2086374e-05 4.193375e-06 8.605756e-06
0003f0 e7 c5 07 38 f1 1e db 35 8e 3a 86 36 7d 08 81 36
       3.237082e-05 1.6325777e-06 4.000328e-06 3.8454878e-06

exp_avg f4 [64]
000000 19 0d 36 ba a7 78 ca 39 72 e7 da b8 19 da 69 ba
       -0.0006944701 0.00038618335 -0.0001043816 -0.0008920744
000010 a2 5b ae 39 1f d3 ba 38 b7 87 13 bb 58 26 b5 b9
       0.00033256138 8.9084955e-05 -0.0022511312 -0.0003455158
000020 34 bc 65 b9 04 00 00 00 5a f9 0b bb 07 7a 38 bb
       -0.00021909253 6e-45 -0.0021358342 -0.0028148906
000030 77 48 6d 36 c9 68 aa bb 6b 45 87 b9 14 33 e5 39
       3.5357932e-06 -0.0052004796 -0.00025800927 0.0004371634
000040 9a 59 83 ba 7b d6 bd b9 05 fa 7d b9 9e a4 3c b9
       -0.001002121 -0.0003620869 -0.000242211 -0.00017990402
000050 ce 74 03 ba b2 15 04 ba db 68 00 bc c7 0a 1f 39
       -0.00050146587 -0.0005038633 -0.0078374995 0.00015167437
000060 93 1a 94 ba 3f 75 d7 3a 4b 7e fd ba 04 00 00 00
       -0.0011299424 0.001643814 -0.0019340006 6e-45
000070 48 1d 55 bb 47 76 2c 30 12 f0 79 1e bf 85 14 38
       -0.0032518674 6.274132e-10 1.3231596e-20 3.541051e-05
000080 ba f4 25 3a c2 67 14 39 b1 55 bb ba e5 df 86 b9
       0.00063307176 0.00014153033 -0.0014292506 -0.00025725286
000090 6d 1d 96 37 fe 26 19 39 50 72 df ba bc b8 8c b9
       1.7895096e-05 0.00014605743 -0.0017047618 -0.0002684052
0000a0 cd 72 e3 39 89 31 7a 39 16 87 e6 39 2d 81 fc bb
       0.00043382347 0.00023860311 0.00043969665 -0.0077058286
0000b0 de a9 5f 38 2c a4 0a 39 d4 1d f2 39 04 00 00 80
       5.3325544e-05 0.00013221864 0.0004618006 -6e-45
0000c0 b2 f7 07 ba 4d 34 b6 ba 44 91 fe b9 da 8e 98 b9
       -0.0005186751 -0.0013901085 -0.00048554887 -0.00029098132
0000d0 94 5e 4e 39 c9 06 a6 bb 5b a7 f8 b8 7c a8 95 ba
       0.00019680924 -0.005066727 -0.00011856734 -0.001141801
0000e0 f1 65 54 38 0f 4d fc b9 45 1e 05 39 cb d2 b6 39
       5.063968e-05 -0.000481226 0.00012695145 0.00034870798
0000f0 45 46 3c ba 04 00 00 00 cd 4b e3 ba 24 4c ce bb
       -0.0007182102 6e-45 -0.0017341316 -0.0062956978

exp_avg_sq f4 [64]
000000 fa 22 98 36 ed 2c 31 37 b2 bc 12 37 d3 89 1c 37
       4.534025e-06 1.0560482e-05 8.746212e-06 9.330414e-06
000010 e3 19 10 37 93 db 8b 35 c1 dd 45 38 82 83 3e 37
       8.589096e-06 1.0420212e-06 4.7174985e-05 1.1355502e-05
000020 fa b5 c3 36 0f 96 43 30 dc b5 cf 37 36 3c 72 38
       5.8326377e-06 7.1153833e-10 2.4761008e-05 5.7753372e-05
000030 79 78 71 36 e4 86 39 3a 95 49 00 37 36 98 2b 37
       3.5981923e-06 0.000707729 7.646527e-06 1.0227834e-05
000040 7a 18 09 38 f8 81 43 37 08 0f 8a 36 4f 4c 7e 36
       3.268614e-05 1.1653166e-05 4.1144704e-06 3.7893367e-06
000050 8e fe f2 36 6b 85 01 36 4a 15 c4 3a 9c 04 a7 35
       7.241796e-06 1.9300157e-06 0.0014959958 1.2443811e-06
000060 d7 7d b7 36 9a 9f 70 39 18 d8 d8 38 04 7d c3 21
       5.4684747e-06 0.0002294764 0.00010339933 1.3246805e-18
000070 bb 6e a6 39 78 7c ee 32 a5 17 a6 32 42 8f 1c 37
       0.00031744488 2.7763448e-08 1.9335696e-08 9.331679e-06
000080 26 ba 3b 37 97 eb 85 36 d3 ae 91 37 04 71 b5 34
       1.118941e-05 3.991135e-06 1.7366756e-05 3.3796107e-07
000090 4c 54 56 37 85 83 37 37 6d 1a 99 38 5d 64 26 37
       1.2775021e-05 1.0938272e-05 7.300531e-05 9.917739e-06
0000a0 06 ba 0a 37 a8 bb bc 34 dd 34 07 37 ca af da 3a
       8.268753e-06 3.5154267e-07 8.058935e-06 0.0016684469
0000b0 23 57 f3 35 2f 53 ae 35 d4 3b da 36 f6 9e 00 31
       1.8130271e-06 1.298822e-06 6.503871e-06 1.871681e-09
0000c0 32 7c a4 36 b7 d0 1e 38 44 e3 43 37 43 28 91 36
       4.902039e-06 3.7864516e-05 1.167582e-05 4.326024e-06
0000d0 71 70 c9 37 70 b2 1d 39 45 bd 29 38 0c 13 0a 38
       2.4013427e-05 0.0001503916 4.046901e-05 3.2919503e-05
0000e0 6f e2 c9 33 9a 49 e2 36 41 79 10 36 24 16 47 38
       9.40098e-08 6.743893e-06 2.1528251e-06 4.7465917e-05
0000f0 a7 71 91 37 c7 c7 b0 30 b9 bc 53 39 97 f1 9a 3a
       1.733827e-05 1.2862466e-09 0.00020192833 0.0011821267

exp_avg f4 [64, 64]
000000 04 00 00 00 04 00 00 00 04 00 00 00 04 00 00 00
       6e-45 6e-45 6e-45 6e-45
000010 04 00 00 00 04 00 00 00 04 00 00 00 04 00 00 00
       6e-45 6e-45 6e-45 6e-45
000020 04 00 00 00 04 00 00 00 04 00 00 00 04 00 00 80
       6e-45 6e-45 6e-45 -6e-45
000030 04 00 00 00 04 00 00 00 04 00 00 00 04 00 00 00
       6e-45 6e-45 6e-45 6e-45
000040 04 00 00 00 04 00 00 00 04 00 00 00 04 00 00 00
       6e-45 6e-45 6e-45 6e-45
000050 04 00 00 00 04 00 00 00 04 00 00 00 04 00 00 80
       6e-45 6e-45 6e-45 -6e-45
000060 04 00 00 00 04 00 00 00 04 00 00 00 04 00 00 00
       6e-45 6e-45 6e-45 6e-45
000070 04 00 00 00 04 00 00 80 04 00 00 80 04 00 00 00
       6e-45 -6e-45 -6e-45 6e-45
000080 04 00 00 00 04 00 00 80 04 00 00 00 04 00 00 00
       6e-45 -6e-45 6e-45 6e-45
000090 04 00 00 00 04 00 00 00 04 00 00 00 04 00 00 00
       6e-45 6e-45 6e-45 6e-45
0000a0 04 00 00 00 04 00 00 80 04 00 00 00 04 00 00 00
       6e-45 -6e-45 6e-45 6e-45
0000b0 04 00 00 80 04 00 00 00 04 00 00 00 04 00 00 00
       -6e-45 6e-45 6e-45 6e-45
0000c0 04 00 00 00 04 00 00 00 04 00 00 00 04 00 00 00
       6e-45 6e-45 6e-45 6e-45
0000d0 04 00 00 00 04 00 00 00 04 00 00 80 04 00 00 00
       6e-45 6e-45 -6e-45 6e-45
0000e0 04 00 00 00 04 00 00 00 04 00 00 00 04 00 00 00
       6e-45 6e-45 6e-45 6e-45
0000f0 04 00 00 00 04 00 00 00 04 00 00 00 04 00 00 00
       6e-45 6e-45 6e-45 6e-45
000100 04 00 00 00 04 00 00 00 04 00 00 00 04 00 00 00
       6e-45 6e-45 6e-45 6e-45
000110 04 00 00 00 04 00 00 00 04 00 00 00 04 00 00 00
       6e-45 6e-45 6e-45 6e-45
000120 04 00 00 00 04 00 00 00 04 00 00 00 04 00 00 00
       6e-45 6e-45 6e-45 6e-45
000130 04 00 00 00 04 00 00 00 04 00 00 00 04 00 00 00
       6e-45 6e-45 6e-45 6e-45
000140 04 00 00 00 04 00 00 00 04 00 00 00 04 00 00 00
       6e-45 6e-45 6e-45 6e-45
000150 04 00 00 00 04 00 00 00 04 00 00 00 04 00 00 00
       6e-45 6e-45 6e-45 6e-45
000160 04 00 00 00 04 00 00 00 04 00 00 00 04 00 00 80
       6e-45 6e-45 6e-45 -6e-45
000170 04 00 00 00 04 00 00 00 04 00 00 00 04 00 00 00
       6e-45 6e-45 6e-45 6e-45
000180 04 00 00 00 04 00 00 00 04 00 00 00 04 00 00 00
       6e-45 6e-45 6e-45 6e-45
000190 04 00 00 00 04 00 00 00 04 00 00 00 04 00 00 00
       6e-45 6e-45 6e-45 6e-45
0001a0 04 00 00 00 04 00 00 80 04 00 00 00 04 00 00 00
       6e-45 -6e-45 6e-45 6e-45
0001b0 04 00 00 00 04 00 00 00 04 00 00 00 04 00 00 00
       6e-45 6e-45 6e-45 6e-45
0001c0 04 00 00 80 04 00 00 00 04 00 00 00 04 00 00 00
       -6e-45 6e-45 6e-45 6e-45
0001d0 04 00 00 80 04 00 00 00 04 00 00 80 04 00 00 00
       -6e-45 6e-45 -6e-45 6e-45
0001e0 04 00 00 00 04 00 00 00 04 00 00 80 04 00 00 80
       6e-45 6e-45 -6e-45 -6e-45
0001f0 04 00 00 00 04 00 00 00 04 00 00 00 04 00 00 00
       6e-45 6e-45 6e-45 6e-45
000200 05 9e 9a 01 4e 6e 04 2b 04 00 00 80 16 8f 83 1c
       5.679741e-38 4.70489e-13 -6e-45 8.70584e-22
000210 1c b7 84 b0 04 00 00 00 04 00 00 00 ac 38 39 b2
       -9.656307e-10 6e-45 6e-45 -1.0781303e-08
000220 a5 cf 05 b0 04 00 00 00 f8 24 11 1b 04 00 00 00
       -4.86802e-10 6e-45 1.2006064e-22 6e-45
000230 94 f4 02 00 0b 13 9d b2 08 be 35 b1 5d 88 17 2b
       2.71409e-40 -1.8285865e-08 -2.6446987e-09 5.383522e-13
000240 cd b8 2d b2 62 16 62 29 0a 55 30 19 04 00 00 80
       -1.0111944e-08 5.0201495e-14 9.11616e-24 -6e-45
000250 04 00 00 00 c1 ae 2b b0 18 c0 74 b2 04 00 00 00
       6e-45 -6.245778e-10 -1.4246346e-08 6e-45
000260 36 2a 05 18 04 00 00 80 2d 8e 35 1a 04 00 00 80
       1.7211158e-24 -6e-45 3.754477e-23 -6e-45
000270 59 96 2e b2 04 00 00 80 04 00 00 00 25 03 39 b2
       -1.0162318e-08 -6e-45 6e-45 -1.0769132e-08
000280 04 00 00 00 3e 41 92 b2 04 00 00 80 04 00 00 00
       6e-45 -1.7026306e-08 -6e-45 6e-45
000290 02 3d 66 b2 ee b5 b6 ae cf ba 8a b1 04 00 00 00
       -1.3401634e-08 -8.308719e-11 -4.0375663e-09 6e-45
0002a0 f8 f6 86 b1 04 00 00 00 04 00 00 00 eb 2e a9 b2
       -3.9279904e-09 6e-45 6e-45 -1.9695525e-08
0002b0 b1 5f b3 2a 04 00 00 00 16 f3 29 ae 04 00 00 00
       3.1863187e-13 6e-45 -3.8642055e-11 6e-45
0002c0 04 00 00 00 f5 3e b2 b0 7b 29 db b0 68 af 00 00
       6e-45 -1.2969098e-09 -1.5946137e-09 6.2924e-41
0002d0 7f b6 aa b0 04 00 00 00 3e 2a 06 b2 6d 61 07 29
       -1.2420996e-09 6e-45 -7.809431e-09 3.0060525e-14
0002e0 04 00 00 00 04 00 00 00 04 00 00 80 16 0a 8a b2
       6e-45 6e-45 -6e-45 -1.6069901e-08
0002f0 c3 80 00 00 04 00 00 00 be b1 7b b2 8f 12 a5 b2
       4.6191e-41 6e-45 -1.4650537e-08 -1.9216968e-08
000300 b5 e3 2e b8 c9 7b 1e ba c5 73 25 b9 d5 28 7a b9
       -4.16969e-05 -0.0006045667 -0.00015778754 -0.00023857069
000310 1a b9 2a b9 40 5b 41 b9 04 d1 e8 b8 d4 49 bf 37
       -0.00016281419 -0.00018439908 -0.00011101554 2.2803353e-05
000320 a6 30 2e ba 04 00 00 00 66 66 0e b9 f3 53 90 b9
       -0.00066448224 6e-45 -0.00013580322 -0.00027528367
000330 f9 c5 41 b6 cc 75 7c ba b5 01 04 38 04 21 fc b8
       -2.8874476e-06 -0.000963059 3.1472842e-05 -0.00012022446
000340 fe bf 7c ba 5d 39 a3 b9 19 76 91 37 37 e5 0e 38
       -0.0009641646 -0.00031132522 1.734034e-05 3.406891e-05
000350 a5 49 91 b8 a1 b0 c5 36 2f f6 d0 ba 11 03 99 1e
       -6.927856e-05 5.89162e-06 -0.0015942509 1.6200773e-20
000360 47 ba 1f b7 d9 d3 c3 b9 fc 27 d9 35 04 00 00 00
       -9.52051e-06 -0.00037351137 1.6179397e-06 6e-45
000370 a0 37 88 ba 04 00 00 00 af 8b 81 98 2e 67 97 36
       -0.0010392554 6e-45 -3.3486763e-24 4.5121624e-06
000380 46 11 a1 b8 b9 a3 23 37 64 b6 d1 b8 05 ef cd b7
       -7.680296e-05 9.753677e-06 -9.9998695e-05 -2.4549207e-05
000390 0a b5 87 b8 2e 94 f6 b8 5b 70 08 b5 c6 ee 7d b8
       -6.471023e-05 -0.00011757795 -5.0827447e-07 -6.0542276e-05
0003a0 b5 81 19 b6 48 db a0 b4 7b 96 86 a0 6d 3b c0 ba
       -2.2874276e-06 -2.996187e-07 -2.2800063e-19 -0.0014666148
0003b0 b9 a8 87 37 b4 b5 ef 36 a5 75 28 b9 04 00 00 80
       1.6171822e-05 7.143908e-06 -0.00016065555 -6e-45
0003c0 86 84 ad b7 03 f9 4c ba 3e 58 a0 b9 be 1b 42 b8
       -2.0684918e-05 -0.0007819088 -0.00030583324 -4.627904e-05
0003d0 51 d4 ac b8 69 77 47 b9 28 58 d2 b6 69 9d fa b9
       -8.241146e-05 -0.00019022603 -6.2687504e-06 -0.00047800996
0003e0 03 5b 4c 37 36 0b 7f b9 fa 3b 48 b2 3a b1 d9 37
       1.2180538e-05 -0.00024322871 -1.1655169e-08 2.5950943e-05
0003f0 14 b0 36 b9 04 00 00 80 3d 04 2d ba 55 0e b6 ba
       -0.00017422467 -6e-45 -0.0006600058 -0.0013889769
