p1_navigation/DQN_20190201_v25_500eps_10.70score.pth (torch_old, 89653 bytes, 18 tensors)

hidden_layers.0.weight f4 [64, 37]
000000 6a 22 bb 3d 49 63 aa bc 49 51 54 be 21 4e 3b 3e
       0.09137423 -0.020799296 -0.20734133 0.18291523
000010 79 38 0d bf 4e 87 32 3e d4 e3 0a 3e 66 c0 e2 3e
       -0.55164295 0.17434427 0.13563472 0.44287413
000020 c9 73 c0 be c7 8e 56 bd 1f 37 96 be e4 c0 45 bd
       -0.37588337 -0.052382257 -0.2933893 -0.048279658
000030 54 0b 39 3d aa 30 96 3e 29 01 e2 be 8e 42 5d be
       0.04517682 0.29334003 -0.4414151 -0.2160742
000040 a0 11 1a bd 8d f3 37 3f fe 17 b3 be 22 3e e4 bd
       -0.037614465 0.71856004 -0.34979242 -0.111446634
000050 c1 59 13 3d 9c 81 90 3e 3f 48 e0 bd 0b 7b 99 3e
       0.035974268 0.28223884 -0.1095128 0.29976687
000060 39 7b 35 be eb b8 7f 3e de 38 89 3d f5 da d9 be
       -0.17722787 0.24972884 0.067003 -0.42549863
000070 e9 5c 17 3e 98 19 2a bf 5a a3 e8 bd f0 d4 ea 3e
       0.14781536 -0.664453 -0.11359282 0.45865583
000080 31 cf 8f be 9d 5c d1 bd 27 cf 41 bd 93 84 75 be
       -0.28087762 -0.10222743 -0.047316696 -0.23976354
000090 37 80 9c bd 4a f3 89 3e 4c ed 1e bd c4 24 41 bd
       -0.076416425 0.26943427 -0.038800523 -0.047154203
0000a0 fa 65 fd bc 3d be a5 be 50 69 a4 bc 26 c7 c1 bd
       -0.030932415 -0.32371703 -0.020069748 -0.09461813
0000b0 e7 a7 8b bd bc f4 67 be b2 09 ba 3e b8 10 02 3e
       -0.06819134 -0.22651953 0.36335522 0.1270169
0000c0 dd 78 c1 bd 2b 92 e2 bd c8 1d c0 3e 34 a6 a1 3e
       -0.09446881 -0.110630356 0.3752272 0.31572115
0000d0 c1 d3 ca 3e d8 a6 59 bd cb 81 39 be 44 6d ae be
       0.3961468 -0.05313763 -0.18115918 -0.34067738
0000e0 fa 9f ce be 52 0f 8c be 1b 78 61 be ff 7d 34 3d
       -0.40356427 -0.27355438 -0.22018473 0.04406547
0000f0 66 2a 84 3d aa f6 8d 3e 61 8a c6 be d4 4d d9 3d
       0.06453399 0.27727252 -0.3877745 0.10610548
000100 e0 e1 ca 3d 77 eb e3 3e 40 aa c2 ba 51 e6 66 bd
       0.099063635 0.44515583 -0.0014851764 -0.05637199
000110 4c db 97 be af 23 e2 3d 5a 44 09 be 76 8a 2a 3f
       -0.29659498 0.11041962 -0.1340498 0.66617525
000120 09 c6 1b 3d 87 54 e5 3d 5c 97 64 3e e1 19 ea be
       0.038030658 0.11197763 0.22323364 -0.4572287
000130 fc df 8d bd f9 6c 28 bf f1 4f 59 bf 9d 61 bf be
       -0.06927487 -0.6579128 -0.84887606 -0.3737916
000140 88 42 2a 3d 25 e4 50 bf 3f 4f d7 3d fc 54 ff be
       0.041567355 -0.8159812 0.10513162 -0.49869525
000150 fe c4 0b be 65 b2 da 3d 3d 89 1c bf 7a 4c 68 bf
       -0.13649365 0.10678557 -0.6114691 -0.90741694
000160 ff 5d 1d be 1a aa 3a bf 3a b6 64 bf c5 23 be bd
       -0.15367888 -0.72915804 -0.89340556 -0.09284166
000170 d7 18 c9 3e 07 c7 57 bf d4 a3 9a bd 4f e6 ee bd
       0.39276764 -0.84288067 -0.07550779 -0.11665022
000180 88 3e 30 bf 00 c3 ff be 72 a0 77 bf bb 93 f0 be
       -0.68845415 -0.4995346 -0.96729195 -0.4698771
000190 f6 ff 00 bf c8 8d 5d 3e 45 e7 ae be fa 17 71 be
       -0.50390565 0.21636117 -0.3416082 -0.23544303
0001a0 15 89 85 bf 45 ee a1 bd 53 b3 24 bf b3 ed ef 3b
       -1.0432459 -0.079067744 -0.6433613 0.007322037
0001b0 51 2b 18 bf b5 de f0 3e a0 c9 9b be a1 ba 51 be
       -0.59441096 0.47044912 -0.30427265 -0.2048135
0001c0 39 12 d3 3d 58 f4 bf 3e 1b 19 c9 3e af 82 2f bf
       0.1030621 0.37491107 0.39276966 -0.6855878
0001d0 e1 af 08 be a4 07 ab bd 29 b7 54 3e f8 a5 80 3e
       -0.13348342 -0.08351067 0.20772995 0.25126624
0001e0 f2 2e c0 3e 25 89 33 bd 3b 1c 61 be 35 ad f8 3e
       0.37535816 -0.043831963 -0.21983425 0.48569646
0001f0 aa ff be 3d 45 48 19 be 93 97 49 3c 4b e8 47 bc
       0.09326108 -0.14968975 0.0123042045 -0.012201379
000200 ec 7f ff bd 03 dd 83 bc 94 a0 77 be 6b a5 d0 bd
       -0.12475571 -0.016096598 -0.2418235 -0.10187801
000210 35 19 1a bd fb 3f 10 3e 08 7d b0 3e 15 16 a9 bd
       -0.037621696 0.14086907 0.3447039 -0.08256165
000220 ac 9c 05 bd 68 df 88 bc a0 fc 62 3e 30 82 2d 3e
       -0.032620117 -0.01670809 0.22166681 0.16944194
000230 a1 b3 e3 3e a0 30 59 3d 5c 98 bc 3e b8 8f c2 3d
       0.44472983 0.053024888 0.3683499 0.095000684
000240 5f 6c b2 bd 6e f3 6e 3e e1 e2 8b 3d f3 f4 64 bc
       -0.087120764 0.23335049 0.06830383 -0.013974416
000250 d3 19 55 3e c3 0f 71 bf e5 5f 82 be 1a 11 4c bf
       0.20810632 -0.94164675 -0.25463787 -0.79713595
000260 20 2d b3 be ff 79 4a be bd 45 d0 bd ed 59 17 bf
       -0.34995365 -0.197731 -0.101695515 -0.5912159
000270 be a7 8a 3e da c6 02 3e ab 71 ce bd 42 26 06 bf
       0.27081102 0.12771168 -0.10080274 -0.52402127
000280 1d 4a 96 3e 94 c3 0c bf e6 b6 16 bd 0e 65 4f bf
       0.2935342 -0.5498593 -0.03679552 -0.8101357
000290 70 2d 20 bf df 96 e9 3d ea dd 4d 3c ff 15 cb be
       -0.6256933 0.114057295 0.0125651155 -0.3966522
0002a0 04 d5 70 3c 51 bb f8 be 4e 4b ff bd 54 7d d0 be
       0.014699224 -0.4858041 -0.12465535 -0.40720618
0002b0 80 aa ae 3d 3b 75 0d 3e 1d 1a 4e be 8c c9 88 bf
       0.08528614 0.13814251 -0.20127149 -1.0686507
0002c0 11 98 ee 3d 94 eb a4 bd cf 47 39 3e bb 74 dc bf
       0.11650098 -0.080527455 0.18093799 -1.7223123
0002d0 fc 87 cc be d4 16 07 3e fb 37 02 3e b9 00 03 3e
       -0.39947498 0.13192302 0.12716667 0.12793244
0002e0 e5 e4 81 3d 47 f6 3a bd 0d 6d 19 bf 48 7f 83 3e
       0.06342486 -0.045645025 -0.59932023 0.25683045
0002f0 3b 37 b6 be 76 11 57 3e 73 48 7e be 37 42 30 be
       -0.35589013 0.21002755 -0.24832325 -0.17212759
000300 3e 00 06 3e db 3d 15 3e d8 bb 81 bf d0 e8 ac be
       0.1308603 0.14574377 -1.013545 -0.33771372
000310 f0 15 a8 be 74 ad 70 bd 52 69 3d 3e e0 cd 82 be
       -0.32829237 -0.058759168 0.18497208 -0.25547695
000320 38 10 a0 bd c6 d8 3c 3e f4 03 e7 bd 88 36 14 bf
       -0.078155935 0.18442068 -0.11280051 -0.5789571
000330 72 70 13 bf bf fc 31 3e db 6f 93 3e f8 06 90 bf
       -0.5759345 0.17381571 0.28796276 -1.1252127
000340 15 1a 04 bf 37 d0 24 be a2 b1 56 bd 99 e9 d8 be
       -0.516023 -0.16095053 -0.052415498 -0.4236572
000350 38 5a b3 3e 3b 07 4e bf f8 3c 08 bf 38 69 5a bf
       0.3502977 -0.8047978 -0.5321803 -0.853168
000360 bf 73 ca bd 44 cc d9 3e 94 15 60 3e d6 db ad bf
       -0.09885358 0.42538655 0.21883231 -1.3582714
000370 2d ad 6d be a2 a2 e8 3d 80 75 97 3c 10 b9 da 3d
       -0.23210593 0.11359145 0.018488646 0.10679829
000380 ae a2 42 bd 9a ad b6 be 84 83 c0 be c8 6d 1e bf
       -0.047518425 -0.35679322 -0.37600338 -0.6188626
000390 d3 d8 68 3e ef 1b 90 3d bc 97 67 3e 16 74 86 3e
       0.22738962 0.07036578 0.22616476 0.26260442
0003a0 8c 7c 43 be e6 57 85 3e d7 fc 6a 3e b0 fc 62 be
       -0.1909048 0.26043624 0.22948013 -0.22166705
0003b0 66 14 de 3e 0c db ba be 01 07 9b bc e2 ef c3 bc
       0.43374938 -0.36495245 -0.018924238 -0.023918096
0003c0 6c 3d d9 3e f8 c0 17 3e 51 8e 2d bf 8a 25 0b 3e
       0.42429674 0.14819705 -0.6779528 0.13588539
0003d0 1d 1b bf 3e 5c e2 0c 3d 8f 00 8d be 4b a0 39 be
       0.37325373 0.03439556 -0.2753949 -0.18127553
0003e0 1e 00 34 be 10 15 96 3d 61 67 3e 3d c9 76 f1 bd
       -0.1757817 0.07328236 0.04648531 -0.117902346
0003f0 30 a5 49 bd 0b fb 3c bd 0c 21 c2 bd f9 7d 3a 3e
       -0.0492298 -0.04613785 -0.094789594 0.18212117

hidden_layers.0.bias f4 [64]
000000 7e 7d 71 3b 87 c3 38 be d9 71 8a be a7 e6 6e bd
       0.003684848 -0.18043338 -0.27039984 -0.058325436
000010 42 77 d1 bc de 1c fa ba 8f b5 1b be 2e fa c6 bd
       -0.025569562 -0.001908209 -0.15205978 -0.09715687
000020 03 5b 96 3c c6 6b bc bd 5b 24 ba bd 34 f6 b4 3c
       0.018353945 -0.09200244 -0.090889655 0.022090055
000030 40 82 2d bb 4d 57 dd 3e 14 0b bf bd 99 18 52 be
       -0.002647534 0.43230668 -0.09328285 -0.20517196
000040 f8 f7 28 bd 6c 4f eb bd c1 bd 36 be 39 06 a0 be
       -0.041252106 -0.11489758 -0.17845823 -0.31254748
000050 43 9a 96 be 1c 6e 0e be 0d a9 97 3e 24 41 86 be
       -0.29414567 -0.13909191 0.29621163 -0.26221573
000060 fc ea 2d be cf 64 33 3d b8 ad 20 bd c3 e7 62 be
       -0.1698417 0.04379731 -0.03922817 -0.22158723
000070 a5 eb 61 3e 6d 47 32 be 13 99 db bd e7 08 a8 be
       0.22062548 -0.1741006 -0.10722556 -0.32819292
000080 ab dc 28 3c 17 14 39 bc a0 cd dc bd 69 ce 3e be
       0.010306518 -0.011296294 -0.10781407 -0.18633427
000090 d7 d1 55 bc f5 e2 44 3d 4b 04 b3 be 17 17 12 be
       -0.013050518 0.048068006 -0.34964213 -0.1426662
0000a0 aa 18 97 be 29 de 95 be 5c d4 cc be 05 c9 03 3f
       -0.29511005 -0.29271057 -0.40005767 0.51478606
0000b0 f8 aa 39 bc a8 87 91 be 98 ea 77 3c ab e7 9a be
       -0.011332266 -0.2842381 0.015131615 -0.30254874
0000c0 4e 63 f9 bd 31 b9 c3 3e 62 22 63 be 6c a6 83 bd
       -0.12177144 0.38227227 -0.22181085 -0.06428227
0000d0 c7 c5 d8 bd 95 a6 e5 bd b4 28 8e be f2 0b d3 bd
       -0.10584598 -0.112134136 -0.2776543 -0.10305013
0000e0 c6 7e 75 bc f9 9a 1a bc db 22 41 be a7 06 04 be
       -0.014983838 -0.009436362 -0.18860953 -0.12893163
0000f0 c7 2c 81 3d 4a 0e a0 bd 35 01 9f bd 49 97 b7 3e
       0.06307369 -0.078152254 -0.07763902 0.3585761

hidden_layers.1.weight f4 [64, 64]
000000 02 af 8a bf fe 0f 1e bf f4 12 26 3e a7 05 6e be
       -1.0834658 -0.6174315 0.16218168 -0.23244344
000010 06 bd 67 3e ba 53 80 be 3b 94 9f bf bf 02 e5 3e
       0.226307 -0.25063878 -1.2467111 0.44728658
000020 53 fc b2 3d 5f ff 34 bf 75 a3 c6 bd 41 29 b0 bf
       0.08739533 -0.70702165 -0.09699146 -1.376259
000030 86 a1 0d bf ea c3 90 3c 14 38 8c bd 08 a4 14 3f
       -0.5532459 0.017671544 -0.068466336 0.5806279
000040 98 63 f8 be 67 37 a9 be 10 e8 2a bf 5e 75 1b bf
       -0.48513484 -0.3305008 -0.6676035 -0.60725963
000050 52 a4 48 be 22 e3 1e bf ab 2b 8d be 68 df e6 bd
       -0.19593933 -0.6206533 -0.2757238 -0.1127308
000060 ce 77 34 bf 5a 15 35 bf 47 d9 3a bf d3 95 0a bf
       -0.7049531 -0.70735705 -0.7298779 -0.54134864
000070 f3 3a b4 bd e0 86 85 be 95 a3 90 bf a0 e6 15 3e
       -0.08800306 -0.26079464 -1.1299921 0.14638758
000080 15 58 0f 3e a6 bb ef be ea ee bd bf 60 c9 87 bf
       0.13998444 -0.46822852 -1.4838536 -1.060833
000090 f3 b2 04 c0 ec dd 7e 3e 51 3a 44 bd a9 69 82 3e
       -2.0734222 0.24889344 -0.047907177 0.25471237
0000a0 8e 5c ef 3e c4 ab 66 bd a6 15 8c 3d 0e 5a 64 be
       0.467503 -0.056316152 0.068400666 -0.22299978
0000b0 7d 60 bf be 9a eb b5 bf 81 95 f2 bd be e6 0e 3e
       -0.37378302 -1.4212525 -0.11844922 0.13955209
0000c0 04 16 c0 bd 21 bf 70 be 09 95 8b bf f7 6c 61 bf
       -0.09379199 -0.2351041 -1.0904857 -0.8805689
0000d0 98 b1 28 3e 7f 6a 58 bf 8f 47 51 be 3d 18 75 3d
       0.16473997 -0.845375 -0.20437454 0.05983757
0000e0 1c 98 35 3f 63 f2 0f bf 7c 09 3c bf 20 16 8a 3d
       0.70935225 -0.5622923 -0.7345197 0.06742501
0000f0 c2 66 0a 3e 35 4c 56 3e 32 3d d7 3b 81 d7 db 3d
       0.13515761 0.20927508 0.0065685743 0.107344635
000100 34 e8 2b be 1e 32 d6 3c 28 bd 02 3d 47 34 89 bd
       -0.16787797 0.026146945 0.031918675 -0.06699424
000110 a8 9f 53 3d ce 06 4e be c9 51 8c bc 22 da 8d be
       0.051665932 -0.20119783 -0.017128842 -0.27705485
000120 a1 c3 03 bd 89 8a 8a 3d b2 c0 3f 3d d1 c0 26 3e
       -0.03216899 0.06764705 0.046814628 0.16284491
000130 e4 42 a1 3c a3 71 ae bd be 50 f5 bd 17 48 d2 bb
       0.019685216 -0.08517768 -0.11978291 -0.006417285
000140 60 1b 19 be 58 2e 68 3d 70 6d de bd d9 2e 65 3d
       -0.14951849 0.05668482 -0.10860717 0.05595288
000150 6a a9 86 3d dd f5 d8 3a 2f 67 94 bd 56 e7 45 bd
       0.06575282 0.0016552765 -0.07246243 -0.048316322
000160 81 d3 14 be 0a e4 eb 3d 0e 4e 62 3c 32 cd 5d bd
       -0.14533807 0.115181044 0.013812555 -0.054150768
000170 a7 2f b3 bd 85 89 f6 bd e2 0f 11 be 93 80 e6 3d
       -0.08749323 -0.120379485 -0.14166215 0.11254992
000180 31 f4 e4 bc b2 fe 26 be b0 17 55 bd 4f 08 14 bd
       -0.02794847 -0.16308096 -0.052024543 -0.036140736
000190 7a c4 93 be 26 f4 60 be 38 be b7 bd 17 db c3 3d
       -0.28860837 -0.21968135 -0.08971828 0.095632724
0001a0 6a eb 0d be a3 d1 7d 3d 91 5f c1 3d 3f fd 08 be
       -0.13859335 0.061967503 0.09442056 -0.13377856
0001b0 c1 ef e2 3d 18 9e 05 be 42 d2 9c bd 1e c2 23 ba
       0.11080886 -0.13048589 -0.07657291 -0.0006246882
0001c0 d5 c3 21 bd 8d 99 d4 bc 0e d3 54 bd 4b 6a b1 bd
       -0.0394934 -0.025952125 -0.05195909 -0.08662852
0001d0 da c6 8a 3c 6d 9b d3 bb 3b c0 e2 bb 6a d0 32 bd
       0.016940523 -0.006457737 -0.0069198883 -0.04365579
0001e0 c3 fb 83 bd 23 d5 3d bc 76 ad 66 bc 21 76 1a bd
       -0.06444504 -0.01158646 -0.014079442 -0.037710313
0001f0 b0 7d bd bd 20 21 a4 bd 51 ae 4c 3c 91 e4 cc bd
       -0.092524886 -0.080141306 0.012492732 -0.10004533
000200 3b 21 34 be 5e ee 9f bd d1 f2 a4 be 82 8c 5c bd
       -0.17590801 -0.07809137 -0.32216504 -0.053844936
000210 ab 65 e3 3d 66 8c 4a be cd c6 9a be 5c 65 a0 3c
       0.11103376 -0.1978012 -0.30229798 0.019579582
000220 54 c1 24 be b4 bd 2a be fe 85 93 be dd 96 72 bd
       -0.16089374 -0.16673928 -0.28813165 -0.059225906
000230 3a 5f 2e bd e8 3e 90 3d 71 e5 17 3e 56 58 37 3e
       -0.042571284 0.070432484 0.14833619 0.17904791
000240 fb 96 18 bd f9 b3 a1 bd f1 99 3f bd a9 a8 45 be
       -0.03725336 -0.07895655 -0.04677767 -0.1930262
000250 03 a4 29 3e 27 d8 94 be fa a8 72 be 95 73 17 be
       0.16566472 -0.2907116 -0.23697272 -0.14790185
000260 74 28 cd be 7e fa 25 3d 09 10 c7 bc 6a 19 f4 bd
       -0.40069926 0.04052209 -0.024299638 -0.1191891
000270 8e ba 90 bd 1b 93 a1 be ff 74 71 bd 3b 25 6e be
       -0.070668325 -0.31557545 -0.058949467 -0.2325639
000280 3b 8d 6a be 3f 95 c1 3b ab 77 11 3d e8 80 82 3d
       -0.22905438 0.005907684 0.035514515 0.06372243
000290 00 e4 39 3d 25 e6 ea bd 53 3c 98 3d 5a 14 57 3d
       0.045383453 -0.11469678 0.07433381 0.052509643
0002a0 fb 7d 28 3e b9 d9 d7 3d 2a a4 18 be 70 82 d4 3c
       0.16454308 0.10539574 -0.14906374 0.025941104
0002b0 0b 60 40 bd 0e 49 af 3c 8f a7 49 3d 6b 0a 84 be
       -0.046966594 0.02139714 0.049232062 -0.25789198
0002c0 ea 88 84 be bd f0 a4 be fe 0f c6 be af a3 84 be
       -0.25885707 -0.3221492 -0.38684076 -0.2590613
0002d0 1a 8c b5 be f8 52 27 be 46 6d 61 bc 47 67 d1 be
       -0.35458452 -0.16340244 -0.013758963 -0.40899107
0002e0 c6 5d 96 be 95 26 b9 3d 79 e6 89 be 27 05 38 3e
       -0.29368418 0.09040562 -0.2693365 0.17970715
0002f0 5a 9f d0 be 86 97 59 be 15 16 8f 3d be 8b 39 bd
       -0.40746576 -0.21249208 0.06986634 -0.045299284
000300 86 b1 52 3d 35 f7 38 3e a9 46 30 bf ba 90 a8 bd
       0.05143883 0.18063052 -0.6885782 -0.082307294
000310 a6 13 ef bc a2 20 02 3f 30 0c a3 bd 78 d9 15 3c
       -0.029184174 0.50831044 -0.07961309 0.009146087
000320 8c c4 b2 bd f2 c5 dd 3e 09 38 6b be da 9b 86 3f
       -0.087288946 0.43315083 -0.22970594 1.0516312
000330 24 fc 06 bd f7 8a c2 bd 78 26 38 bf d1 11 e1 3e
       -0.032955304 -0.09499162 -0.719337 0.43958905
000340 3c 15 b5 3d b6 9c 76 be ce a5 0f bd e8 00 5e be
       0.08841941 -0.24083218 -0.035070233 -0.21680033
000350 be 27 95 be f7 c0 59 be 99 ff 44 bd b4 c3 43 3f
       -0.29131883 -0.21265016 -0.04809532 0.76470494
000360 9c 96 7f be 96 c8 6b be 9c 0e 07 bf 61 b5 93 bf
       -0.24959797 -0.23025736 -0.5275667 -1.1539727
000370 25 3d f5 3d 8b f9 1e be 37 63 16 3e 47 1b 35 3d
       0.11974553 -0.1552488 0.14686285 0.044215467
000380 3e 0a e4 be e9 56 91 bd fc 62 22 be 1a 35 1e 3d
       -0.44539064 -0.07096655 -0.15858072 0.03862486
000390 06 4b 2a be 6d 7c 92 be f9 1c ff be f5 d1 db 3e
       -0.16630182 -0.28610554 -0.49826792 0.42933622
0003a0 12 d5 3a be c0 b4 07 bf 0a a2 1b be 52 e4 ec 3c
       -0.18245342 -0.5301018 -0.15198532 0.028917465
0003b0 87 94 98 bd 3b 79 33 bd 99 31 13 3e f5 f5 d2 bd
       -0.07450204 -0.043816786 0.14374389 -0.10300819
0003c0 07 a8 1d be b6 92 30 be 04 dd 0f bf 4b ed 06 be
       -0.15396129 -0.17243466 -0.5619662 -0.13176458
0003d0 d1 1d 67 3e c0 9f 1d bf c1 3e bb 3e 6d b1 b8 be
       0.22569968 -0.61571884 0.36571315 -0.36072865
0003e0 91 58 87 3e 4d 11 f5 bc 05 e6 a5 bd b8 dd 86 be
       0.26434758 -0.029915476 -0.08100513 -0.26341033
0003f0 7b 9e 10 be 27 7d 08 3c 3e 8e 23 3e ee 74 b3 3b
       -0.14122956 0.00833062 0.1597223 0.0054765856

hidden_layers.1.bias f4 [64]
000000 4f 6d 11 be 1a fe 9d bd 7d c7 f1 bd 90 8e 68 3d
       -0.14201854 -0.07714482 -0.118056275 0.056776583
000010 04 a5 b4 3e cb f9 b7 3e 05 b6 3a 3c 51 58 8b bd
       0.35282147 0.35932764 0.011395936 -0.068039544
000020 8b 31 58 bd 39 f2 8e bd 91 bc 58 3e cc 28 d4 bd
       -0.052781623 -0.06979794 0.21165682 -0.10359344
000030 95 ba bc 3d a5 96 a0 3c 02 05 45 3d 7f 5b 91 3e
       0.09215275 0.019603083 0.04810048 0.28390118
000040 63 13 d3 bd e3 96 f3 3e 76 d9 92 3d 35 5b cf bc
       -0.10306432 0.47576055 0.07170384 -0.025312046
000050 a5 b4 97 bd 5d 03 16 be af 8f 37 bd 10 cd c9 bd
       -0.07407502 -0.1464972 -0.04481476 -0.09853566
000060 c1 07 43 3e e0 ca ee 3d 09 67 17 be 96 6f 8d 3e
       0.19045927 0.11659789 -0.14785399 0.27624196
000070 10 44 c2 3e ac aa 71 bd bc ab ef 3e f2 bb d3 bc
       0.37942553 -0.059000656 0.4681071 -0.025846455
000080 a3 0a 92 be 16 7f 93 bd ed 04 23 3d 9d 83 5d bd
       -0.2852374 -0.07201974 0.03979962 -0.054080594
000090 7c 6d 3f be b8 d1 30 3f de 7f 3b 3f 70 ab 66 be
       -0.18694109 0.69070005 0.73241985 -0.22526336
0000a0 2e f9 51 3d 41 5e 50 bd b4 da 93 3d 40 23 a5 bd
       0.051263027 -0.050871138 0.07219449 -0.08063364
0000b0 bc 26 df bd 75 f5 03 be c9 aa 74 bb b1 69 5c bc
       -0.1089606 -0.12886603 -0.0037333241 -0.013452933
0000c0 93 6b 43 bd 7f 8c 77 bd 5f 9f 5d bd 5a f8 24 3f
       -0.047710013 -0.060436722 -0.054107066 0.64441454
0000d0 9d 9c 4b be f7 74 5e be 94 6c e0 bd 6d 35 cd bd
       -0.19883962 -0.21724306 -0.1095821 -0.10019956
0000e0 89 c7 4b be ac 1a 48 be 84 56 d1 bd ee cb 21 3f
       -0.19900335 -0.19541425 -0.1022158 0.63201797
0000f0 78 ee ca bc ee 39 0b 3f 90 35 61 be e2 e4 1a be
       -0.024771914 0.5438527 -0.21993089 -0.15126374

output.weight f4 [4, 64]
000000 4f 05 57 bf 2c 1c 03 3d ef 6f fb 3b 63 55 45 3e
       -0.83992475 0.03200929 0.0076732556 0.19270854
000010 75 d4 76 3c e8 f6 d8 3c a7 58 31 bf 4c 6c 92 bc
       0.015065302 0.026484922 -0.692759 -0.017873906
000020 80 24 c5 3c cc ae 86 be 54 44 26 3d 40 28 2d bf
       0.024065256 -0.26305234 0.040592507 -0.6763954
000030 7e 76 65 bd 00 23 af 3c 14 fa d7 bc b8 05 ed 3d
       -0.056021206 0.021378994 -0.026364364 0.115733564
000040 26 ea b7 3d ba 3c 32 3d fd cc 27 3d 43 da 04 3e
       0.08980207 0.043514945 0.040966976 0.12973885
000050 58 fc b2 bf d8 fb 6f bd 7e d2 ae 3d 76 33 03 bf
       -1.3983259 -0.058589786 0.08536242 -0.512504
000060 c4 17 b0 3d 44 72 c4 3d 98 34 c1 3d 31 51 29 3e
       0.08598283 0.09592107 0.094338596 0.16534878
000070 f1 e3 be 3d f1 4a af bb b4 06 62 3e 12 11 9b 3d
       0.0932082 -0.00534951 0.2207287 0.07571615
000080 ab d1 3f be c3 ab 31 3d cf c4 a9 3a 4d 6a 9a 3b
       -0.18732326 0.043376695 0.001295233 0.004712379
000090 18 bd 80 3d 3d d2 81 3e da a3 64 3e a9 3c 0f bc
       0.06286067 0.25355712 0.2232813 -0.00874249
0000a0 02 c7 5f 3e ca 9e 2b 3e 85 98 61 bd 82 a0 d3 bc
       0.21853259 0.16759792 -0.055077095 -0.025833372
0000b0 67 a3 8e 3d db f9 56 3d ca c1 02 3e be ff 6c 3d
       0.0696476 0.052484374 0.12769237 0.057861082
0000c0 d1 21 88 bf 82 da bf bc 69 85 e4 3d 52 21 0e 3e
       -1.063532 -0.023419622 0.111582585 0.13879898
0000d0 77 65 60 bd 2a 90 2c bf d0 18 5c 3d 77 c0 4a bd
       -0.054784264 -0.67407477 0.0537346 -0.049499955
0000e0 cb 9e 4a bf 4d e3 2f 3e ba c6 1e be e4 2c 5f 3e
       -0.7914855 0.17176552 -0.15505496 0.21794468
0000f0 fb 0c 23 3e c5 19 39 3e 7e 06 7b 3c 81 3f c7 bb
       0.1592292 0.18076237 0.015321372 -0.0060805683
000100 f1 bd 7c 3d 93 11 70 3d fe 2d 08 be 5c 18 5d 3e
       0.06170458 0.05861051 -0.13298795 0.21591324
000110 d0 83 6c 3d d0 64 8e 3d 82 2b 09 3d ac 16 b3 3d
       0.057742894 0.06952822 0.033488758 0.08744559
000120 20 ee 2a 3c 41 b3 0e 3d 58 d4 eb 3d fa e7 83 bc
       0.01043275 0.03483892 0.11515111 -0.016101826
000130 ac 13 8b bc 21 7b b0 3c 96 02 bf bd f5 a0 cf 3d
       -0.016977154 0.021543087 -0.09326665 0.10138122
000140 7d ab 9e 3d dd e1 ea bb 61 13 93 bf 95 07 13 3d
       0.077475525 -0.0071680383 -1.1490289 0.035895903
000150 01 34 08 3d 22 29 b3 bd bd 60 15 3d 13 85 61 3e
       0.03325272 -0.0874808 0.03646921 0.2202342
000160 d5 fa a2 3d 5a a5 15 3e 20 7a 16 bd 33 17 d0 3d
       0.07957999 0.14613858 -0.03673756 0.10160675
000170 54 b3 ef 3d b4 50 e0 bd c3 40 45 3e 0c 66 f3 bd
       0.11704126 -0.10952893 0.19262986 -0.11884698
000180 aa e6 49 bd 95 8d 03 bc 1a 78 1e 3d 17 5a 66 bd
       -0.049292244 -0.008029361 0.038688757 -0.05623826
000190 e0 ec e0 bd 51 2c 4e 3e 26 5c 84 3e 0e 35 1f 3e
       -0.1098268 0.20134093 0.25851554 0.15547583
0001a0 86 99 9f bf 4a 6f 10 3e 16 4b fe be 1f 6c 95 bd
       -1.2468727 0.14104953 -0.4966666 -0.07296013
0001b0 71 6f 5d 3d bf 63 ce bd dd 78 4a 3e 95 4f 23 bc
       0.054061357 -0.10077619 0.19772668 -0.009967704
0001c0 be 8c 8c 3d 31 4d c0 bd 3b f7 81 3d b9 68 3f 3e
       0.06862782 -0.09389723 0.063459836 0.18692292
0001d0 d7 65 ce bc a0 fb 44 3e ef 44 3f 3c c0 e3 16 ba
       -0.025195045 0.19236612 0.01167415 -0.00057559833
0001e0 ca b7 ed bc 28 69 13 3d bf 92 f9 3c b6 be 7b 3e
       -0.029018302 0.035988957 0.030465482 0.24584469
0001f0 68 fa af bd 8e be 95 3d 5f a0 f8 bd fa 93 47 bd
       -0.08592683 0.07311736 -0.12139963 -0.048725106
000200 c3 25 58 be 84 86 0d bd ea 6e a2 3e 42 37 3a bd
       -0.21108155 -0.034552112 0.31725246 -0.045462854
000210 11 40 86 bd 87 9c b6 3d 24 1c 89 3d 86 10 b8 3b
       -0.065551884 0.08916574 0.066948205 0.005617204
000220 1a 50 9c 3d 28 99 5d bf d8 2a c1 bd e2 f9 85 3d
       0.07632466 -0.8656182 -0.09432 0.06541802
000230 cc 08 ff 3d dc fa d5 3d 62 01 10 3d 6e 01 b0 3c
       0.1245285 0.10448238 0.03515757 0.021485057
000240 6d 85 96 bf e0 d9 0f 3d 7e 88 cd bd 4e ec 72 be
       -1.1759468 0.03511989 -0.100357994 -0.23722956
000250 04 84 d9 be 62 ac eb 3c e8 fb 42 bd 75 f9 87 3e
       -0.42483532 0.028768722 -0.047603518 0.26557508
000260 2a f4 15 3e 6d 19 36 3e 5b a2 e7 3d 71 96 0e 3e
       0.14643922 0.17783137 0.11310264 0.13924576
000270 76 d3 68 3c 34 e6 5d 3d 61 43 2b 3e e5 fc be bc
       0.0142105725 0.054174617 0.16724922 -0.023313949
000280 59 db 88 be d5 94 33 3b 8a 44 cd bd 81 e5 8c 3d
       -0.2672985 0.0027401943 -0.100228384 0.06879712
000290 fc fa 8e 3c 7f 1b 70 3e a9 d6 78 3e fa 5d 1f 3d
       0.017453663 0.23447989 0.24300636 0.038907982
0002a0 1b 19 01 3e a4 92 44 bd d1 80 c4 bf 3a 15 aa bd
       0.12607233 -0.04799141 -1.5351812 -0.0830483
0002b0 34 12 53 bf bf ef 4b bd 14 33 60 3e cd 76 00 bd
       -0.8244965 -0.049789187 0.21894485 -0.031363297
0002c0 30 18 8b bd f1 bd aa bd 39 29 1f bd 20 3d f5 3d
       -0.06791723 -0.0833701 -0.038857672 0.11974549
0002d0 6b 84 2f bf 77 7b dc 3d c1 64 cb bd 0b 11 dd 3c
       -0.6856143 0.107657366 -0.09931327 0.026985666
0002e0 dc 74 19 3e d6 2e e4 bd 97 68 7b 3d 08 0e 77 3e
       0.14985985 -0.11141746 0.06137904 0.24126446
0002f0 40 df 4b bd 32 1a e0 3d ab 3a 93 be 53 11 26 3d
       -0.049773455 0.10942496 -0.28755698 0.040543865
000300 13 1c 85 bf a9 cd bb bd 26 2f f5 bb 25 18 32 bc
       -1.0399193 -0.09170086 -0.007482427 -0.010870014
000310 7b d3 f5 bd c4 0a fc bc 19 32 66 3e c0 6c 56 bc
       -0.12003227 -0.030766852 0.22480048 -0.013087451
000320 fa 42 f0 bd c1 9b ee bc 11 f7 3d bd e3 24 85 3e
       -0.11731525 -0.029127004 -0.0463782 0.26004705
000330 af b7 6e bd e7 47 a7 bf 26 05 4d 3d f0 0d 95 3d
       -0.058280643 -1.3068818 0.050053738 0.07278049
000340 bc 7b 0f be 0a 79 f6 3c ff ca 60 bc 8c d5 e8 bc
       -0.14012045 0.030087013 -0.013720273 -0.02842214
000350 c4 e6 0b 3e 6d 10 9e 3d 56 f2 52 3b 8d 7a 02 3e
       0.13662249 0.07717977 0.00321879 0.12742062
000360 26 a2 f4 3d 31 b3 54 bd 26 a3 22 3d 2f 9b 0d 3e
       0.1194499 -0.051928703 0.03970637 0.13828729
000370 bf a2 0a 3e d7 12 d6 bd db d9 ce 3d 96 c6 3e 3d
       0.13538645 -0.10452812 0.101001464 0.046576105
000380 11 c9 ae 3b aa dd dc bb bd 67 b3 3d de 80 05 3e
       0.0053340276 -0.0067402916 0.08760021 0.1303744
000390 b1 f1 a0 bf 45 14 4d 3e b1 6d 82 3e c0 4e 54 bf
       -1.2573758 0.20027263 0.25474313 -0.8293266
0003a0 a4 00 9e 3d d7 6f 45 3e a7 e0 92 3d f7 be 2b 3d
       0.07714966 0.19280945 0.07171755 0.041930165
0003b0 a3 e3 10 bf f4 3b 5e 3c be 8c 04 be 62 6f a2 3a
       -0.56597346 0.013564099 -0.12944314 0.0012392814
0003c0 32 94 f4 3d 18 de 53 3c 8f 1f be be 88 03 30 3e
       0.119423285 0.012931369 -0.37133452 0.17188847
0003d0 2d 78 fb 3b 07 f4 b0 3e 50 ef 3a bc 8d ba ce 3d
       0.007674238 0.34561178 -0.011409596 0.100941755
0003e0 87 ff 2b bf 6c cd 88 3e d4 ed 85 3c e3 97 87 3e
       -0.6718678 0.26719224 0.016348757 0.26483068
0003f0 72 fa 0c be cb 9a e3 3d bf 75 a2 3d cc 64 24 bc
       -0.13767412 0.11113509 0.079326145 -0.0100337975

output.bias f4 [4]
000000 36 46 fe 3e 17 4c dc 3e c1 e1 30 3f 44 e3 1a 3f
       0.49662942 0.43026802 0.69094473 0.6050303

exp_avg f4 [64, 37]
000000 10 88 3f 38 eb 06 03 b9 ff 38 35 37 89 e7 48 37
       4.5664667e-05 -0.0001249571 1.0801711e-05 1.1974837e-05
000010 f7 e2 b9 37 56 47 55 b8 b8 56 03 b7 45 d7 c2 b6
       2.2159407e-05 -5.0849594e-05 -7.828399e-06 -5.806711e-06
000020 bf b1 05 37 b6 71 37 b8 41 29 9a 36 6d fa 72 38
       7.9688025e-06 -4.37365e-05 4.5943602e-06 5.7930523e-05
000030 36 3a 5d b8 6e 08 8b b8 45 5f ae 37 bc b2 19 b7
       -5.274472e-05 -6.629607e-05 2.078678e-05 -9.1611255e-06
000040 52 d3 f8 b8 e5 96 82 38 41 68 17 37 18 f3 6a 37
       -0.00011864923 6.226989e-05 9.024575e-06 1.4004087e-05
000050 80 b0 78 b8 d1 01 32 38 22 00 d0 b6 ca 5c 0c b8
       -5.9292186e-05 4.24402e-05 -6.1988985e-06 -3.3465018e-05
000060 a9 c2 9c 37 d5 66 58 b7 7e 8a 65 b8 dd f7 32 37
       1.8687295e-05 -1.2898546e-05 -5.4726836e-05 1.0667337e-05
000070 e3 5f ed 34 3f 15 66 b5 fb cf bf b8 c1 6a b7 37
       4.4214457e-07 -8.5712594e-07 -9.146329e-05 2.1865011e-05
000080 92 1a 3b 38 7c 3b 04 b8 0d cc d4 36 ad 30 57 b7
       4.460902e-05 -3.152665e-05 6.341847e-06 -1.2826332e-05
000090 24 28 12 ba 1f 23 a3 39 5a f6 05 39 65 57 8a 39
       -0.00055754394 0.0003111595 0.00012775642 0.00026386525
0000a0 fb c2 43 b8 fe 53 85 39 0b 25 c0 39 94 36 0b 37
       -4.6673213e-05 0.00025430316 0.00036648693 8.297753e-06
0000b0 40 06 2d 38 97 bb 7b 39 15 be e8 38 e3 e5 90 38
       4.1252235e-05 0.00024007108 0.000110980276 6.909275e-05
0000c0 3a 13 a4 39 44 71 8d 39 b5 d6 8f 36 f6 2e b8 39
       0.00031294842 0.00026978005 4.2867273e-06 0.00035130203
0000d0 58 6d 8b 39 ed 91 a4 38 b3 94 9e 39 51 d9 1a 37
       0.00026593613 7.84731e-05 0.00030246898 9.229713e-06
0000e0 b2 04 b6 39 70 22 47 38 8f 87 a3 39 5e cc a7 39
       0.00034717243 4.747737e-05 0.00031190782 0.00032004988
0000f0 93 ae c3 b7 81 5f be 39 95 dd c1 37 7a bc cf 39
       -2.3327104e-05 0.0003631078 2.3110575e-05 0.00039622543
000100 65 8c 3b 39 6c e6 72 38 4b 08 c0 39 5b f4 41 39
       0.00017886011 5.7911893e-05 0.00036627272 0.00018496944
000110 4c f0 c1 39 c1 8a ed 38 ce fa 49 b7 c8 cc fe 39
       0.00036990864 0.000113268856 -1.2038929e-05 0.0004859923
000120 53 a4 e3 38 3f 9a 80 b9 f7 e0 da b8 ab a5 b4 b6
       0.00010854811 -0.00024528985 -0.00010436953 -5.3837043e-06
000130 e3 30 f6 36 5d 62 a8 37 ce 01 21 b8 e9 39 6b b5
       7.3370625e-06 2.0072965e-05 -3.8387072e-05 -8.762859e-07
000140 71 a2 08 b9 59 3e b2 37 4c 70 e7 37 1c d6 4e b8
       -0.00013030485 2.1248286e-05 2.7589638e-05 -4.9313632e-05
000150 75 2e 2d 37 41 da c1 b8 f7 27 14 b3 5c 6c 51 b4
       1.032242e-05 -9.24361e-05 -3.4495283e-08 -1.9504063e-07
000160 61 9d 28 b8 b1 97 eb 35 bf d2 24 b4 e1 be 59 b6
       -4.020089e-05 1.7553012e-06 -1.5350359e-07 -3.2446626e-06
000170 ab 3d a9 b8 9e a4 8e 35 1b 4f 02 38 f6 ce e8 b8
       -8.0700345e-05 1.0627734e-06 3.1068088e-05 -0.000111011715
000180 bc ab 9f 35 67 de 70 b6 27 7c b5 b7 c3 1c c9 37
       1.1896404e-06 -3.5892242e-06 -2.1634694e-05 2.397446e-05
000190 1f de 04 b9 43 af e6 b5 78 80 b9 37 8c 5d 41 b8
       -0.00012671248 -1.7187343e-06 2.2113541e-05 -4.6101908e-05
0001a0 03 33 b5 34 c2 1e 07 b9 97 f1 0a 37 e1 f4 1e 38
       3.3750993e-07 -0.00012886061 8.2816905e-06 3.7898197e-05
0001b0 bf b4 3b b8 71 96 6d 37 c7 26 4d 3a 8f c9 d3 37
       -4.4752607e-05 1.4161328e-05 0.00078259077 2.5247018e-05
0001c0 3e d4 96 39 36 49 39 39 49 90 1a b8 6e f1 91 38
       0.00028768362 0.00017670248 -3.6850837e-05 6.9591086e-05
0001d0 0f 0c 50 b8 b8 6f 38 37 41 68 f0 38 5d 87 c5 39
       -4.9602295e-05 1.0993266e-05 0.000114635106 0.00037675622
0001e0 d3 d4 51 38 50 3a 2a b7 69 20 bb b8 33 fd 0a 3a
       5.002769e-05 -1.0146367e-05 -8.922892e-05 0.0005302012
0001f0 ea 2e b8 37 5b cb 79 39 ec 39 90 b8 0f a7 31 39
       2.1956355e-05 0.00023822246 -6.877244e-05 0.0001694227
000200 5d e2 c9 39 03 20 0a b8 27 d1 85 38 64 49 2a b8
       0.0003850636 -3.2931577e-05 6.380892e-05 -4.059951e-05
000210 63 e6 2a b8 c2 95 0f 3a 34 44 64 b7 8c 23 10 39
       -4.0745723e-05 0.0005477333 -1.3605739e-05 0.00013746152
000220 b5 07 28 38 8a 98 e8 38 ce 73 89 39 15 44 26 38
       4.00615e-05 0.00011091035 0.00026216957 3.964089e-05
000230 f8 00 8c 38 7c e4 a6 39 5e 31 4d 38 4a 7d eb 38
       6.675901e-05 0.0003183222 4.8921785e-05 0.0001122901
000240 20 69 e0 b7 23 51 45 39 df 76 a5 b8 f3 1c 00 b9
       -2.6751834e-05 0.0001881761 -7.8899546e-05 -0.00012217816
000250 2c 44 63 39 f1 1a 7b 37 b6 86 37 38 42 1a f9 36
       0.00021673803 1.4967039e-05 4.375606e-05 7.423835e-06
000260 66 27 87 38 bd f1 7a 39 9b 30 25 37 ce f0 86 35
       6.44464e-05 0.00023931912 9.846083e-06 1.0053861e-06
000270 c4 36 09 38 11 14 2f 37 9e 60 51 39 17 a9 77 37
       3.271435e-05 1.0435485e-05 0.00019967786 1.4761717e-05
000280 43 b6 8b 38 27 05 f5 35 0a fb 33 38 f5 66 14 39
       6.6619854e-05 1.8255422e-06 4.2910724e-05 0.00014152734
000290 4b 1d 52 b5 16 ec 8e 38 ef 2a 9b 38 dd 0c b7 37
       -7.8273723e-07 6.815062e-05 7.398973e-05 2.182129e-05
0002a0 c7 8e 81 39 4c dc 75 b6 fd 43 c5 37 f4 8d 85 37
       0.00024711175 -3.6636075e-06 2.351589e-05 1.5920938e-05
0002b0 ed ce d2 37 52 b4 83 39 51 68 90 37 ea 6d e3 34
       2.5130308e-05 0.00025120616 1.7214714e-05 4.2362018e-07
0002c0 6b 8f 6b 37 12 cc 11 38 3a 34 97 39 04 00 00 00
       1.4040484e-05 3.476075e-05 0.00028839876 6e-45
0002d0 59 84 f5 36 b9 43 57 b7 12 64 fb 37 5c 51 11 37
       7.3169763e-06 -1.28307665e-05 2.996813e-05 8.661616e-06
0002e0 66 8d 33 3b 0c 2e f3 38 da 57 c5 38 f2 5a 0f 39
       0.0027397512 0.0001159572 9.410056e-05 0.00013671422
0002f0 18 e7 c4 37 8f 38 e1 38 e9 d5 74 38 56 38 ac 38
       2.3472632e-05 0.00010739371 5.8373353e-05 8.2120925e-05
000300 36 e7 6d 39 4b 7b 40 36 f5 16 05 39 11 1c bd 35
       0.00022688214 2.8681995e-06 0.0001269242 1.4089766e-06
000310 f5 84 79 39 8b 34 bc 38 54 85 2c 38 ae 90 38 39
       0.00023796021 8.9743255e-05 4.1132167e-05 0.00017601505
000320 ff 87 84 38 e7 48 22 39 b3 b3 89 b7 58 e4 30 39
       6.319582e-05 0.00015476682 -1.6415352e-05 0.00016869733
000330 49 4b 42 38 2c c0 51 39 ea 99 75 38 a1 f4 43 36
       4.632332e-05 0.00020003383 5.8555896e-05 2.9199657e-06
000340 9b 08 e4 38 eb f8 85 38 28 d7 4d 39 1a 1c f4 b7
       0.0001087349 6.388299e-05 0.00019630475 -2.9100152e-05
000350 45 29 6d 39 05 11 c2 b7 58 52 e0 38 5c 50 b2 b7
       0.00022617455 -2.3134528e-05 0.0001069649 -2.1256674e-05
000360 35 59 a4 38 b9 76 26 39 82 e1 21 39 62 11 3f 38
       7.8367455e-05 0.00015875221 0.00015438165 4.5554138e-05
000370 f6 ec a4 b8 08 b7 6c 3b a9 73 a6 b8 06 84 d6 39
       -7.864267e-05 0.0036119837 -7.93704e-05 0.00040915626
000380 61 4f 81 39 d3 4a fc 36 6a c0 31 39 0c a3 fe b7
       0.0002466394 7.518896e-06 0.00016951715 -3.0355084e-05
000390 6d d9 c5 b8 06 da a4 39 2f ae ce 39 78 6c 62 39
       -9.434191e-05 0.00031442958 0.0003942116 0.00021593447
0003a0 ce 70 40 b7 70 20 1e b9 ea 41 47 3a ce 0d 69 b7
       -1.1470356e-05 -0.00015080138 0.00076010695 -1.3891096e-05
0003b0 ae e5 a1 39 d9 fe 4c 38 73 f9 87 39 99 8d a6 39
       0.00030879438 4.8874736e-05 0.0002593506 0.00031767486
0003c0 ff f9 2f b8 96 21 32 39 16 57 b7 b7 c8 cb 8d b6
       -4.195608e-05 0.00016987915 -2.1855853e-05 -4.2258507e-06
0003d0 a0 d6 1e 3a 2f c2 89 36 2b 1b 3b 39 5d 4b 05 37
       0.00060592033 4.105524e-06 0.0001784383 7.944965e-06
0003e0 c8 5e 82 39 38 f7 a8 39 1e d3 a9 36 e4 0a 75 39
       0.0002486615 0.0003222765 5.0611698e-06 0.00023369078
0003f0 5b b8 86 39 d6 88 0f 38 22 69 9d 39 c7 bb fa b6
       0.00025695827 3.4221295e-05 0.00030023704 -7.4724408e-06

exp_avg_sq f4 [64, 37]
000000 ec c6 b2 34 a0 e7 4d 35 3f 0b 33 35 0a 16 8b 34
       3.3299818e-07 7.670551e-07 6.669906e-07 2.5906803e-07
000010 9a 1b c5 34 ad b1 eb 34 7c b2 2a 35 23 f4 65 35
       3.6714192e-07 4.3901437e-07 6.3589664e-07 8.5664414e-07
000020 99 8e b5 33 e6 7f 2f 35 08 d7 34 35 0b e8 18 35
       8.454408e-08 6.5378697e-07 6.7368137e-07 5.696208e-07
000030 d5 aa d9 34 79 78 ca 34 47 27 b7 34 e0 87 2d 34
       4.0543696e-07 3.7713087e-07 3.4114984e-07 1.6161312e-07
000040 e0 8a 38 35 db c4 1f 35 09 bb 1e 35 3b b1 b7 34
       6.874743e-07 5.951858e-07 5.913176e-07 3.4215358e-07
000050 01 bd 2b 35 8d c6 4b 35 92 82 d6 34 4e a3 78 34
       6.39775e-07 7.591232e-07 3.995561e-07 2.315621e-07
000060 be 56 de 34 e1 92 12 35 71 52 e8 34 4b d9 fc 34
       4.1413836e-07 5.4602975e-07 4.3273351e-07 4.709676e-07
000070 72 87 16 35 fa e8 69 34 b1 28 ba 34 53 3a 1a 35
       5.6076453e-07 2.1784572e-07 3.4674807e-07 5.7454344e-07
000080 ce 76 41 35 67 76 cc 34 bd e2 a7 34 fd 16 ee 35
       7.2070986e-07 3.808411e-07 3.1271148e-07 1.7739072e-06
000090 fa 4b b8 38 a3 25 a8 34 31 1c f3 34 3e 0a fe 35
       8.7879554e-05 3.1319823e-07 4.528279e-07 1.8927456e-06
0000a0 cc b8 5f 34 48 28 42 35 dc d1 b6 35 d0 ab 23 35
       2.0835722e-07 7.232925e-07 1.3621134e-06 6.097225e-07
0000b0 37 51 03 35 d1 d0 13 34 62 9e 83 35 3f b4 8e 34
       4.8919486e-07 1.3766409e-07 9.806356e-07 2.6580707e-07
0000c0 28 84 96 35 c5 25 73 35 29 0a 82 34 5a 6b 40 35
       1.1214333e-06 9.0579516e-07 2.422178e-07 7.168179e-07
0000d0 fd 4e cc 34 cc c2 53 35 11 e4 c7 35 2f 98 67 34
       3.8055433e-07 7.888709e-07 1.4893031e-06 2.1568916e-07
0000e0 4c 04 5e 35 13 20 b5 34 2b d9 94 35 c1 86 b3 34
       8.27077e-07 3.3737214e-07 1.1090063e-06 3.3439395e-07
0000f0 00 df 4a 35 ab 74 30 35 9e 25 b8 34 d2 74 cb 34
       7.557537e-07 6.5734883e-07 3.430004e-07 3.7896694e-07
000100 eb 52 70 35 eb 6d 70 35 51 0a 84 34 34 db a5 35
       8.952763e-07 8.956692e-07 2.4594422e-07 1.2357254e-06
000110 ad 02 82 34 a5 a8 28 35 85 41 02 35 b9 7d 3c 35
       2.4216334e-07 6.2830287e-07 4.852412e-07 7.021841e-07
000120 d4 80 80 36 ab a3 1b 39 cd 3c 2e 35 07 75 e7 32
       3.829695e-06 0.00014842923 6.490853e-07 2.6945157e-08
000130 28 6e 2c 34 7f f5 f1 32 f5 05 3c 33 7e d7 1d 35
       1.6058823e-07 2.8167731e-08 4.377758e-08 5.880064e-07
000140 be 56 05 34 70 1a c7 32 91 29 00 34 a8 f2 48 34
       1.2418147e-07 2.3178671e-08 1.1936051e-07 1.871473e-07
000150 f7 b4 1d 35 9d 67 83 34 d4 03 e4 32 06 9c a0 31
       5.8750396e-07 2.447604e-07 2.6544434e-08 4.6743507e-09
000160 32 9c 02 35 7c c0 65 33 f0 be 0d 31 dd 66 32 35
       4.865607e-07 5.349328e-08 2.0626736e-09 6.6459853e-07
000170 20 7d 0f 34 ac 27 10 34 28 a6 61 33 62 2b 23 34
       1.3363433e-07 1.3425478e-07 5.2538013e-08 1.519634e-07
000180 ca 01 85 33 0b e9 1e 35 0c 7f 3e 33 5e df 15 35
       6.1936205e-08 5.919871e-07 4.435337e-08 5.583187e-07
000190 21 18 ff 32 26 1a 6a 34 a3 bd 6c 33 07 e3 15 34
       2.969688e-08 2.1802461e-07 5.5120505e-08 1.3959298e-07
0001a0 84 09 12 32 52 2f 21 34 66 65 5a 33 2c bc 2e 35
       8.500482e-09 1.5011508e-07 5.08493e-08 6.509388e-07
0001b0 79 39 43 33 df 23 93 34 d9 66 bc 38 46 54 95 34
       4.5454247e-08 2.7406983e-07 8.9836954e-05 2.781473e-07
0001c0 3a 39 76 35 c6 32 5b 35 2c e5 0a 35 ef 70 c3 34
       9.1725417e-07 8.165774e-07 5.1742495e-07 3.640375e-07
0001d0 04 d6 1e 35 69 47 33 35 d9 30 7a 35 dc ed b3 34
       5.917102e-07 6.678661e-07 9.320334e-07 3.3514414e-07
0001e0 17 35 2d 35 ef 58 fa 34 2c 1f 46 35 f3 c0 66 35
       6.452478e-07 4.6630836e-07 7.380611e-07 8.5962455e-07
0001f0 3b 0a f6 34 e0 37 04 35 bb 4d 29 35 df 44 5a 35
       4.5828514e-07 4.925514e-07 6.307052e-07 8.131155e-07
000200 62 aa 3b 35 24 8a c8 34 71 6d df 34 ce 4e fc 34
       6.991087e-07 3.7353414e-07 4.1616616e-07 4.6995996e-07
000210 7e 47 6c 35 2d d1 20 35 58 6b 13 35 ce e7 1b 35
       8.8020886e-07 5.9909036e-07 5.4917973e-07 5.807932e-07
000220 ce d3 07 35 e0 cd 4e 35 33 8e 5e 35 ea 87 c9 34
       5.0599635e-07 7.704057e-07 8.290837e-07 3.7538058e-07
000230 b2 3c fd 34 02 42 2e 35 23 dc 39 35 32 8f 55 35
       4.7169084e-07 6.4916105e-07 6.923821e-07 7.955706e-07
000240 e3 c4 d2 34 b0 e9 20 35 67 7f 19 36 e2 48 db 38
       3.9258802e-07 5.9944705e-07 2.2872935e-06 0.00010456309
000250 0f 94 17 34 3c 14 98 31 8c fe 24 34 9f 10 11 33
       1.4116834e-07 4.4260826e-09 1.5366294e-07 3.377556e-08
000260 08 5e 63 33 bd 8f 49 34 64 05 e3 32 b0 b8 87 32
       5.2938077e-08 1.8771875e-07 2.642873e-08 1.5800055e-08
000270 9e 29 d9 33 bf bb 17 33 59 f2 e7 33 88 54 26 32
       1.011242e-07 3.532818e-08 1.08008585e-07 9.681692e-09
000280 bd d6 56 34 5f a8 05 32 f7 2a 75 33 cb 25 6f 33
       2.0008424e-07 7.779902e-09 5.7082584e-08 5.5680896e-08
000290 38 62 04 32 6f a8 20 34 41 ef f5 33 a9 fd f4 32
       7.705744e-09 1.4962437e-07 1.14522216e-07 2.852069e-08
0002a0 3d 24 83 34 57 44 db 32 c9 d1 3d 33 bb 04 98 32
       2.4427018e-07 2.5526033e-08 4.419579e-08 1.769728e-08
0002b0 2b b1 9c 33 c6 84 5e 34 11 52 0d 33 4f 2f d7 31
       7.296543e-08 2.0723664e-07 3.290376e-08 6.262702e-09
0002c0 4c 28 b3 33 db db 23 33 54 40 8e 34 60 e3 18 2c
       8.342667e-08 3.8151352e-08 2.6496366e-07 2.1726718e-12
0002d0 2d 77 01 33 99 14 16 33 6b 3b 44 33 b8 a2 e7 33
       3.0143543e-08 3.494333e-08 4.5688846e-08 1.0786374e-07
0002e0 27 22 d7 37 cc 9f bf 35 4b af 77 34 fb fb c9 36
       2.56459e-05 1.4277116e-06 2.3067439e-07 6.019601e-06
0002f0 99 92 3e 35 ce 19 86 35 99 3b 1d 36 43 04 46 35
       7.0993843e-07 9.991288e-07 2.3429513e-06 7.376695e-07
000300 fd 95 50 36 a0 8d 1f 36 17 58 2c 35 14 1e ad 35
       3.108172e-06 2.3775283e-06 6.420318e-07 1.2898258e-06
000310 56 3d e0 35 48 93 80 36 a2 38 ef 35 dd b0 9f 35
       1.6707152e-06 3.831843e-06 1.782337e-06 1.1897897e-06
000320 aa 57 77 36 a1 4f 87 35 cc a4 5f 36 8f e6 e7 34
       3.6856895e-06 1.0081459e-06 3.3325514e-06 4.3194856e-07
000330 8b c5 84 35 4e 2a 91 36 cd 6f 29 36 de 39 00 34
       9.892259e-07 4.3262617e-06 2.524804e-06 1.1941981e-07
000340 85 ff c5 35 e6 9e cf 35 f1 62 4c 36 22 b9 a0 33
       1.475201e-06 1.5468947e-06 3.045596e-06 7.484256e-08
000350 57 3c b4 36 87 fc 3b 33 1a 8d 10 35 cf 1a 12 35
       5.3714425e-06 4.3769003e-08 5.384951e-07 5.442825e-07
000360 45 c7 bb 35 a0 4e 6d 36 97 84 4b 36 c8 38 84 34
       1.3990581e-06 3.5361518e-06 3.0326535e-06 2.462823e-07
000370 9e 4d 11 36 70 d1 30 3a 3f ee a0 34 92 65 57 35
       2.1651863e-06 0.0006745076 2.997567e-07 8.0241546e-07
000380 2b ea 07 35 5f 49 ad 34 9d 06 ae 34 df 47 4e 34
       5.063218e-07 3.2277146e-07 3.2414837e-07 1.9211392e-07
000390 d0 e4 38 35 68 f6 26 35 e9 7f e4 34 59 f0 e9 34
       6.887831e-07 6.219839e-07 4.2561376e-07 4.3574508e-07
0003a0 77 4a b0 34 ff 0a 46 35 bc c9 25 35 d1 c2 90 34
       3.2836735e-07 7.377675e-07 6.176085e-07 2.6963838e-07
0003b0 a3 d7 09 35 11 1a 70 34 7e c1 5b 35 ef 6b df 34
       5.135027e-07 2.2361225e-07 8.1865426e-07 4.161552e-07
0003c0 3c 86 f7 34 90 82 b6 34 6e ab 6d 33 88 0d 26 35
       4.6105004e-07 3.3995138e-07 5.5336777e-08 6.185951e-07
0003d0 9c 29 43 35 86 f7 0e 35 c0 ec be 34 75 09 83 34
       7.270371e-07 5.3259316e-07 3.5562516e-07 2.4407532e-07
0003e0 8a 45 47 35 04 97 2a 35 00 6a 9b 34 68 d4 b4 34
       7.423447e-07 6.354969e-07 2.8948125e-07 3.3682159e-07
0003f0 92 af ab 34 71 27 0f 35 bd bb 10 35 f5 dc 0c 35
       3.1978976e-07 5.3329046e-07 5.3917375e-07 5.24756e-07

exp_avg f4 [64]
000000 7c 0b 6d b8 a9 fe 2b 3a ad af ac b8 69 63 ed 39
       -5.65159e-05 0.00065610796 -8.234321e-05 0.0004527823
000010 2e 50 94 39 64 1d c2 39 d5 13 19 3a fb 27 99 39
       0.00028288498 0.0003702446 0.0005839442 0.00029212222
000020 c4 1b 8c b8 07 82 ab b9 6f 3d 25 ba dd d2 23 3b
       -6.680892e-05 -0.0003271254 -0.0006303405 0.002499751
000030 3f 92 27 39 d9 9f d6 3b a2 71 6d b8 43 6e 8e b9
       0.00015980842 0.006549817 -5.6611032e-05 -0.00027166502
000040 f0 2b cf 38 63 99 f1 ba 8c 89 d6 b6 a8 f0 51 b8
       9.878713e-05 -0.0018432554 -6.3937096e-06 -5.005361e-05
000050 ca ea 4d b8 be d0 c7 39 b8 16 95 3b 27 3c 53 37
       -4.9094473e-05 0.00038111763 0.0045498274 1.2590585e-05
000060 d4 6c 42 ba 91 bb 01 ba 15 93 cf ba 98 e3 89 bb
       -0.00074167293 -0.0004948909 -0.001583668 -0.0042080395
000070 74 25 12 ba 36 bc 19 39 09 10 a7 39 84 16 d1 39
       -0.0005575039 0.00014661331 0.0003186467 0.00039880362
000080 ed af d9 39 e8 3c c9 39 6c f6 81 39 17 d9 ea b7
       0.0004152054 0.00038383086 0.00024788396 -2.7996064e-05
000090 fd 6e 42 3a 86 f2 0f 38 a6 d2 29 38 3d c8 cf 3a
       0.0007417051 3.4319724e-05 4.048892e-05 0.0015852522
0000a0 a9 5a 49 ba 37 ea 30 b6 04 00 00 00 b4 99 ce 3b
       -0.0007681051 -2.6362375e-06 6e-45 0.006304944
0000b0 9c 56 34 b9 e0 1e f4 38 cd b3 b3 3a c9 07 de b8
       -0.00017198402 0.000116405776 0.0013710201 -0.00010587235
0000c0 21 b2 8d ba 67 85 5d 3b 14 78 11 3a fc f7 d1 39
       -0.0010810533 0.0033801438 0.0005549204 0.0004004835
0000d0 a2 da b3 36 99 53 8f bb bb d7 b9 39 5c 8b ce 38
       5.360068e-06 -0.0043739793 0.0003544668 9.848803e-05
0000e0 be 66 24 3a a0 3a 5d 3a cc 22 d1 39 8e 05 ab b9
       0.00062714133 0.0008439217 0.00039889512 -0.000326198
0000f0 fc 7e 81 b9 bb 99 5c 37 03 ed 92 b8 c7 0f b7 3b
       -0.00024699408 1.3148815e-05 -7.0059694e-05 0.0055865976

exp_avg_sq f4 [64]
000000 4c de 0e 36 6b bd 43 36 2f f8 69 35 9e 4b 39 36
       2.1289043e-06 2.916752e-06 8.716042e-07 2.7611163e-06
000010 99 ea b6 34 64 0a 0f 37 98 78 0a 36 e3 75 01 36
       3.4070834e-07 8.5258835e-06 2.0633797e-06 1.9291117e-06
000020 08 13 94 36 54 69 d2 38 36 1d 1c 37 fc cb eb 39
       4.4129592e-06 0.00010033199 9.305126e-06 0.00044974673
000030 23 45 f6 35 16 78 bd 3a c8 e7 7b 38 89 33 29 35
       1.834855e-06 0.0014455344 6.0058926e-05 6.30324e-07
000040 e7 62 01 37 43 26 6f 38 18 fc 20 35 d8 23 f0 36
       7.712027e-06 5.7017674e-05 5.997149e-07 7.15673e-06
000050 2a ed 6f 36 1e c9 00 38 20 36 23 3a b4 c6 c2 35
       3.5751823e-06 3.0704883e-05 0.0006226022 1.4511957e-06
000060 56 b3 3f 37 61 d3 cd 36 bb 94 a8 38 e8 95 df 38
       1.1426242e-05 6.134084e-06 8.0385675e-05 0.00010661391
000070 8c 34 c7 37 47 bb f7 35 28 09 bc 35 d0 69 b7 34
       2.3747118e-05 1.8457439e-06 1.4009756e-06 3.4163395e-07
000080 da 6f 06 36 67 30 c8 36 cc cb 9a 36 64 06 43 35
       2.0032662e-06 5.9660993e-06 4.6132827e-06 7.265246e-07
000090 c7 af f8 36 0c 30 32 37 d1 99 96 36 f2 27 00 37
       7.411439e-06 1.0620814e-05 4.488255e-06 7.638695e-06
0000a0 0e a0 30 35 6f 1e 94 34 93 67 13 30 76 db 8a 3a
       6.579802e-07 2.7589292e-07 5.3625476e-10 0.0010593969
0000b0 b5 4f 08 35 99 02 7a 36 1d 05 1b 37 ef 42 8d 35
       5.0779937e-07 3.7254415e-06 9.2399105e-06 1.0524799e-06
0000c0 39 dd a6 37 cf d4 cd 39 a0 a0 8c 38 b4 ea ab 36
       1.9891757e-05 0.00039259202 6.705639e-05 5.12352e-06
0000d0 17 9c d3 34 51 fe 9e 39 f2 85 1d 36 d1 c8 f1 36
       3.9415383e-07 0.0003032559 2.347279e-06 7.205738e-06
0000e0 ac 73 04 34 d4 31 58 37 02 a9 a7 36 a7 d0 f4 36
       1.2335539e-07 1.2886205e-05 4.996663e-06 7.296057e-06
0000f0 80 4b 0f 37 75 cc a0 36 b6 00 f6 35 98 84 73 3a
       8.541043e-06 4.7921735e-06 1.8328635e-06 0.00092894724

exp_avg f4 [64, 64]
000000 04 00 00 00 04 00 00 00 04 00 00 00 c6 be 43 0c
       6e-45 6e-45 6e-45 1.5079662e-31
000010 4c e1 64 0c 04 00 00 00 04 00 00 80 2e 9d cf 35
       1.7632279e-31 6e-45 -6e-45 1.5468447e-06
000020 c8 e8 85 34 c2 d5 a5 0b 04 00 00 00 04 00 00 00
       2.494255e-07 6.3877315e-32 6e-45 6e-45
000030 31 c1 ad 33 34 a4 56 36 04 00 00 00 6c 77 f2 34
       8.0910816e-08 3.1984064e-06 6e-45 4.5162903e-07
000040 26 1b ff 34 53 b0 c0 34 04 00 00 80 be c2 61 35
       4.7517204e-07 3.589108e-07 -6e-45 8.410242e-07
000050 04 00 00 00 04 00 00 00 25 67 c8 35 04 00 00 00
       6e-45 6e-45 1.493118e-06 6e-45
000060 04 00 00 00 04 00 00 00 04 00 00 00 04 00 00 00
       6e-45 6e-45 6e-45 6e-45
000070 30 d6 15 35 1d d0 09 0c 04 00 00 00 04 00 00 00
       5.581851e-07 1.0616723e-31 6e-45 6e-45
000080 34 f3 12 02 04 00 00 00 04 00 00 00 04 00 00 00
       1.0796182e-37 6e-45 6e-45 6e-45
000090 c5 5a 45 34 63 c5 6a 35 04 00 00 80 64 74 bd 0b
       1.8380076e-07 8.745903e-07 -6e-45 7.2975277e-32
0000a0 ae c3 0b 36 04 00 00 00 04 00 00 00 00 84 ed 35
       2.0826515e-06 6e-45 6e-45 1.7696293e-06
0000b0 04 00 00 00 04 00 00 00 bf 5c 66 35 5e ab be 0b
       6e-45 6e-45 8.581664e-07 7.344318e-32
0000c0 c6 00 46 0c 4f 7a 2a 36 ce 65 fe 32 5d 51 30 0b
       1.5253598e-31 2.5403167e-06 2.9615787e-08 3.3957578e-32
0000d0 04 00 00 00 04 00 00 80 04 00 00 80 dc 43 1f 0c
       6e-45 -6e-45 -6e-45 1.2269335e-31
0000e0 04 00 00 80 04 00 00 00 64 2f 0b 04 66 08 e8 0c
       -6e-45 6e-45 1.6361132e-36 3.5750314e-31
0000f0 7a 55 1a 35 04 00 00 00 04 00 00 00 b0 8d 6d 36
       5.7493855e-07 6e-45 6e-45 3.5398225e-06
000100 04 00 00 00 04 00 00 00 04 00 00 80 04 00 00 00
       6e-45 6e-45 -6e-45 6e-45
000110 04 00 00 00 04 00 00 00 04 00 00 00 04 00 00 00
       6e-45 6e-45 6e-45 6e-45
000120 04 00 00 00 04 00 00 00 04 00 00 00 04 00 00 00
       6e-45 6e-45 6e-45 6e-45
000130 04 00 00 00 04 00 00 00 04 00 00 00 04 00 00 00
       6e-45 6e-45 6e-45 6e-45
000140 04 00 00 00 04 00 00 00 04 00 00 00 04 00 00 00
       6e-45 6e-45 6e-45 6e-45
000150 04 00 00 00 04 00 00 00 04 00 00 00 04 00 00 00
       6e-45 6e-45 6e-45 6e-45
000160 04 00 00 00 04 00 00 00 04 00 00 80 04 00 00 00
       6e-45 6e-45 -6e-45 6e-45
000170 04 00 00 00 04 00 00 00 04 00 00 00 04 00 00 80
       6e-45 6e-45 6e-45 -6e-45
000180 04 00 00 00 04 00 00 00 04 00 00 00 04 00 00 00
       6e-45 6e-45 6e-45 6e-45
000190 04 00 00 00 04 00 00 00 04 00 00 80 04 00 00 00
       6e-45 6e-45 -6e-45 6e-45
0001a0 04 00 00 00 04 00 00 00 04 00 00 00 04 00 00 00
       6e-45 6e-45 6e-45 6e-45
0001b0 04 00 00 80 04 00 00 00 04 00 00 00 04 00 00 00
       -6e-45 6e-45 6e-45 6e-45
0001c0 04 00 00 00 04 00 00 00 04 00 00 00 04 00 00 00
       6e-45 6e-45 6e-45 6e-45
0001d0 04 00 00 00 04 00 00 80 04 00 00 00 04 00 00 00
       6e-45 -6e-45 6e-45 6e-45
0001e0 04 00 00 80 04 00 00 00 04 00 00 80 04 00 00 00
       -6e-45 6e-45 -6e-45 6e-45
0001f0 04 00 00 00 04 00 00 80 04 00 00 00 04 00 00 00
       6e-45 -6e-45 6e-45 6e-45
000200 04 00 00 00 04 00 00 00 04 00 00 00 04 00 00 00
       6e-45 6e-45 6e-45 6e-45
000210 04 00 00 80 04 00 00 00 04 00 00 00 04 00 00 00
       -6e-45 6e-45 6e-45 6e-45
000220 04 00 00 00 04 00 00 00 04 00 00 80 04 00 00 00
       6e-45 6e-45 -6e-45 6e-45
000230 04 00 00 00 04 00 00 00 04 00 00 00 04 00 00 00
       6e-45 6e-45 6e-45 6e-45
000240 04 00 00 00 04 00 00 00 04 00 00 00 04 00 00 00
       6e-45 6e-45 6e-45 6e-45
000250 04 00 00 00 04 00 00 00 04 00 00 00 04 00 00 00
       6e-45 6e-45 6e-45 6e-45
000260 04 00 00 00 04 00 00 00 04 00 00 00 04 00 00 00
       6e-45 6e-45 6e-45 6e-45
000270 04 00 00 00 04 00 00 00 04 00 00 00 04 00 00 00
       6e-45 6e-45 6e-45 6e-45
000280 04 00 00 00 04 00 00 00 04 00 00 00 04 00 00 00
       6e-45 6e-45 6e-45 6e-45
000290 04 00 00 00 04 00 00 00 04 00 00 00 04 00 00 80
       6e-45 6e-45 6e-45 -6e-45
0002a0 04 00 00 00 04 00 00 80 04 00 00 00 04 00 00 00
       6e-45 -6e-45 6e-45 6e-45
0002b0 04 00 00 00 04 00 00 00 04 00 00 00 04 00 00 00
       6e-45 6e-45 6e-45 6e-45
0002c0 04 00 00 00 04 00 00 00 04 00 00 00 04 00 00 00
       6e-45 6e-45 6e-45 6e-45
0002d0 04 00 00 00 04 00 00 80 04 00 00 80 04 00 00 00
       6e-45 -6e-45 -6e-45 6e-45
0002e0 04 00 00 00 04 00 00 00 04 00 00 00 04 00 00 00
       6e-45 6e-45 6e-45 6e-45
0002f0 04 00 00 00 04 00 00 00 04 00 00 00 04 00 00 00
       6e-45 6e-45 6e-45 6e-45
000300 3b 22 a0 38 3a c6 1e 3a 3b ed ca b2 46 03 65 39
       7.6357705e-05 0.000605676 -2.3623775e-08 0.00021840361
000310 66 aa 79 b6 62 b8 f8 b8 e3 1e 8e b6 66 42 5d 38
       -3.7203076e-06 -0.000118599055 -4.2355255e-06 5.2752344e-05
000320 51 e1 19 b8 25 cc 96 b8 3c e5 5d b8 b1 34 ce 3a
       -3.6687885e-05 -7.190582e-05 -5.2903997e-05 0.0015732256
000330 aa 33 0c 36 f0 b4 c6 3b 64 1d b4 b6 7f 0a 84 b6
       2.0891698e-06 0.00606405 -5.3678395e-06 -3.9351285e-06
000340 8c 44 87 39 13 c7 6e b6 92 20 a8 05 c7 48 a1 39
       0.00025800278 -3.558064e-06 1.5810609e-35 0.00030762536
000350 65 31 38 36 45 aa b2 37 d6 fd 68 3b ac 3e 34 35
       2.7446888e-06 2.1298541e-05 0.0035551689 6.7146425e-07
000360 b2 3d 7b b9 15 49 c9 b8 92 79 80 37 bc aa 0d 37
       -0.00023960209 -9.5980395e-05 1.53154e-05 8.444007e-06
000370 02 e7 6c b9 01 a5 47 b6 db a9 0c b8 04 00 00 80
       -0.00022592771 -2.9749356e-06 -3.353679e-05 -6e-45
000380 95 8a 82 b5 a1 e5 78 39 e0 d2 8e 39 3b 62 db 37
       -9.726087e-07 0.00023736666 0.00027241465 2.6152577e-05
000390 b9 8a 51 3b 22 2f 22 38 38 54 62 34 b6 96 9d 39
       0.0031973554 3.8667706e-05 2.1078529e-07 0.00030057662
0003a0 5b 48 0d 3b 04 00 00 00 04 00 00 00 a7 0a bf 3b
       0.002155802 6e-45 6e-45 0.0058301273
0003b0 5f 83 29 b7 da b8 d5 b8 27 d3 46 3b da 66 a1 36
       -1.0103772e-05 -0.00010191063 0.003033826 4.8101474e-06
0003c0 b6 47 a0 b7 dd 8f c3 3b 46 3b 1d b7 55 70 9c 39
       -1.910688e-05 0.0059680776 -9.37173e-06 0.00029838333
0003d0 0f 3f 63 37 0e 8e 20 37 be fc 9e 38 c5 e3 4d 38
       1.3544936e-05 9.569818e-06 7.581104e-05 4.9087936e-05
0003e0 92 3a ec 37 7e 3f 56 b9 99 92 02 b7 fb 2a 86 39
       2.8160666e-05 -0.00020432283 -7.782736e-06 0.00025590495
0003f0 ae bf 73 b7 79 f8 5d b7 b1 f3 16 39 2f 13 cc 3b
       -1.4528558e-05 -1.32304785e-05 0.00014395897 0.006227873
